models/snapsRandom/model_1685823036.0075798.pt (torch, 252691 bytes, 10 tensors)

0.weight f4 [128, 49]
-0.0656062 0.096253864 0.08935672 -0.2017109 0.034677513 -0.06121001 0.016942268 0.13044223
-0.02413321 -0.14727189 0.08738545 0.1454964 -0.05226524 0.092660315 0.012601967 -0.08520428
0.025770666 -0.017094381 -0.0051626414 0.0466973 -0.08310581 -0.036222655 0.14537114 0.0033049472
0.038214903 -0.086435035 -0.2205337 -0.0158605 0.12221857 -0.16169216 0.040321976 -0.03910808
0.011314789 -0.005890515 -0.05308332 0.25789946 0.016043052 -0.09128117 -0.2125926 -0.03177126
0.036304165 0.1374492 0.015451384 -0.0394278 -0.10963663 0.12136535 0.11038885 -0.02580107
-0.044490244 -0.0069889086 -0.10173276 -0.12179413 -0.027341308 0.053496722 0.041807268 0.15899052
-0.011878646 -0.1035218 -0.0011666958 0.17143804 0.121776745 0.068946876 0.10475087 -0.19468297
-0.09262119 0.011761268 -0.023906423 -0.09360118 0.2510504 0.090546735 -0.10674135 -0.024826437
0.18161424 -0.09102535 -0.103732415 -0.0017546226 -0.013008904 -0.110087514 0.10984251 0.15916581
-0.13757508 -0.14319319 -0.07573488 0.11916012 -0.11102676 0.05750103 0.051614325 -0.13699017
0.09278586 0.17469871 0.01630625 0.033694744 -0.014551937 -0.16852482 0.047431074 0.10776761
0.02964202 -0.10602631 0.018645654 -0.16044378 0.0379475 -0.2356658 0.024366971 -0.17392115
-0.019932179 0.09279656 0.08496944 -0.028028712 -0.054039482 0.18665047 -0.14348727 0.16151533
-0.08679328 0.026119353 0.15372102 -0.15693302 -0.13595124 0.041691106 -0.036326993 0.10435552
-0.0648101 -0.12333257 -0.06174728 0.04405949 -0.14339122 0.054196425 -0.12900662 0.061204005
0.024509383 -0.030411877 0.07904382 -0.12936445 0.024866054 -0.16637093 -0.018972637 -0.06329928
-0.08256221 -0.06909025 -0.08466624 0.16397445 -0.050584808 -0.027978403 -0.06734704 0.070572846
-0.03325562 -0.058302905 0.07397878 0.037504185 0.0842788 -0.010244771 0.06462101 0.2009079
0.008892547 0.12850165 0.11475402 0.096150994 0.14570874 0.026639894 -0.056241572 0.018505985
-0.09325187 0.12247297 0.13230012 0.08186514 0.115574084 -0.06732634 -0.15526131 0.109345034
0.051573306 0.04161619 0.027980324 0.009290587 -0.12598993 -0.22872071 0.07799093 -0.05017099
-0.072524145 -0.08831277 0.068296716 -0.057236888 -0.024040574 0.33069783 0.027536623 0.19779621
0.05650591 -0.10310047 -0.078567445 0.08108639 -0.06596764 -0.13472027 0.013317034 -0.104176596
-0.035432052 -0.07766341 0.009101513 0.074983105 0.018483175 -0.06237638 0.044035014 -0.030606339
-0.17449744 0.037726596 0.25559765 0.029959612 0.020793963 -0.018367713 0.044590812 -0.13043608
-0.067962706 -0.11278406 -0.1108645 -0.045320507 0.05887388 0.039281487 -0.19742405 0.052620612
-0.06992308 0.017548528 -0.04411776 -0.012359725 -0.10053121 0.0633816 -0.14279841 -0.14342822
-0.017851315 -0.03845483 0.3113037 -0.0019804977 0.008715711 0.084328055 0.010343398 -0.008827506
0.103745036 0.11202462 -0.1442219 -0.011844636 -0.25680637 -0.06013092 -0.29071832 0.058156975
-0.003541445 -0.0060991235 0.031266406 0.089632936 -0.028469808 -0.007951322 0.11550959 0.009494049
0.11194052 0.15245049 -0.054449044 0.043968 -0.118572645 0.20903939 0.10003134 -0.029474217
00000000: 8b5c 86bd bf20 c53d a800 b73d 4d8d 4ebe
00000010: 020a 0e3d 59b7 7abd 83ca 8a3c a692 053e
00000020: 02b3 c5bc 71ce 16be 25f7 b23d 02fd 143e
00000030: 1414 56bd b1c4 bd3d 7b78 4e3c 957f aebd
00000040: 011d d33c 8409 8cbc 602b a9bb ab45 3f3d
00000050: 6133 aabd 355e 14bd 2cdc 143e d097 583b
00000060: 3b87 1c3d da04 b1bd 96d3 61be e1ed 81bc
00000070: bb4d fa3d a192 25be a828 253d cb2f 20bd
00000080: aa61 393c 3905 c1bb e56d 59bd 660b 843e
00000090: b86c 833c 9ff1 babd e0b1 59be 9522 02bd
000000a0: adb3 143d 7cbf 0c3e cd27 7d3c 0b7f 21bd
000000b0: 2b89 e0bd 668e f83d 8d13 e23d c45c d3bc
000000c0: 673b 36bd 3703 e5bb 4459 d0bd 336f f9bd
000000d0: e1fa dfbc 611f 5b3d 193e 2b3d 69ce 223e
000000e0: a79e 42bc 3d03 d4bd d1eb 98ba 748d 2f3e
000000f0: 1666 f93d 0534 8d3d a087 d63d f95a 47be
00000100: 2eb0 bdbd 55b2 403c 67d7 c3bc fab1 bfbd
00000110: ae89 803e 9170 b93d 359b dabd d060 cbbc
00000120: 15f9 393e 806b babd a971 d4bd 5dfb e5ba
00000130: 4c23 55bc 9075 e1bd 1cf5 e03d 5dfc 223e
00000140: 7be0 0cbe 3ca1 12be e41a 9bbd 390a f43d
00000150: ff61 e3bd 3386 6b3d 8b69 533d 2747 0cbe
00000160: 8306 be3d 38e4 323e af94 853c 8003 0a3d
00000170: 3f6b 6ebc c591 2cbe 1647 423d 44b5 dc3d
00000180: d2d3 f23c 5224 d9bd c5be 983c 604b 24be
00000190: d66e 1b3d 6052 71be 3e9d c73c 6318 32be
000001a0: cf48 a3bc 1f0c be3d 7504 ae3d 789c e5bc
000001b0: 8158 5dbd 4d21 3f3e 54ee 12be 4664 253e
000001c0: adc0 b1bd 41f8 d53c 0b69 1d3e 0db3 20be
000001d0: cd36 0bbe 4bc4 2a3d 9dcb 14bd 59b8 d53d
000001e0: 28bb 84bd c995 fcbd b7ea 7cbd b977 343d
000001f0: 26d5 12be 12fd 5d3d 501a 04be 0db1 7a3d
00000200: e7c7 c83c 5422 f9bc bae1 a13d 1d78 04be
00000210: e5b3 cb3c 245d 2abe 816c 9bbc 0ea3 81bd
00000220: 6016 a9bd 307f 8dbd 7e65 adbd ebe8 273e
00000230: 0432 4fbd f732 e5bc 3fed 89bd 7f88 903d
00000240: 0c37 08bd 07cf 6ebd 3082 973d fd9d 193d
00000250: 5d9a ac3d afd9 27bc 0558 843d cdba 4d3e
00000260: 0cb2 113c f095 033e 2804 eb3d d0ea c43d
00000270: ac34 153e e83b da3c 905d 66bd dd99 973c
00000280: d6fa bebd 1cd3 fa3d af79 073e e9a8 a73d
00000290: 1bb2 ec3d 64e2 89bd d2fc 1ebe 4af0 df3d
000002a0: 883e 533d bd75 2a3d fe36 e53c 8c37 183c
000002b0: 8103 01be c335 6abe b5b9 9f3d 1980 4dbd
000002c0: 8a87 94bd 53dd b4bd 26df 8b3d 3a71 6abd
000002d0: bdf0 c4bc 3a51 a93e 7c94 e13c 178b 4a3e
000002e0: be72 673d 5726 d3bd f8e7 a0bd 9f10 a63d
000002f0: 0b1a 87bd 1cf4 09be b02f 5a3c 8a5a d5bd
00000300: 3321 11bd fe0d 9fbd 831e 153c be90 993d
00000310: 076a 973c 607e 7fbd 0f5e 343d 25ba fabc
00000320: 75af 32be 3487 1a3d b2dd 823e dc6d f53c
00000330: 1a58 aa3c e377 96bc dba4 363d 0991 05be
00000340: 0830 8bbd 54fb e6bd ed0c e3bd ffa1 39bd
00000350: bd25 713d a0e5 203d 8829 4abe b688 573d
00000360: d533 8fbd eec1 8f3c d3b4 34bd 7280 4abc
00000370: 4fe3 cdbd 36ce 813d bf39 12be d9de 12be
00000380: ec3c 92bc d082 1dbd 3363 9f3e 3dcb 01bb
00000390: 57cc 0e3c 30b4 ac3d 5b77 293c 3ea1 10bc
000003a0: 4778 d43d 2a6d e53d e8ae 13be 0110 42bc
000003b0: 207c 83be d74b 76bd 08d9 94be 0236 6e3d
000003c0: 9617 68bb 28db c7bb 3411 003d 7991 b73d
000003d0: 8439 e9bc 4346 02bc 4b90 ec3d ed8c 1b3c
000003e0: 1241 e53d fb1b 1c3e f605 5fbd ca17 343d
000003f0: 37d6 f2bd 6c0e 563e 3bdd cc3d ea73 f1bc

0.bias f4 [128]
0.12376124 0.1662324 -0.027293392 -0.19006452 0.108952746 0.18415697 -0.1237215 0.46634945
0.37598118 -0.24563804 0.27314577 0.2570898 -0.08765028 -0.10170071 0.25661248 0.015200084
-0.09190885 -0.18418863 -0.03512357 0.22877492 -0.0059429887 -0.19023705 -0.22540508 -0.14808047
-0.12689738 -0.06831681 0.35932264 0.52044964 -0.17523322 0.29622844 0.12722927 -0.3497994
-0.102503315 -0.3154855 -0.10503958 0.03687541 0.28249067 -0.053644408 0.032831047 -0.06471992
-0.15390113 -0.053098965 0.044670288 -0.13324003 -0.12078306 -0.10260129 0.2410711 0.110944554
-0.29664472 0.24106781 -0.14114127 -0.045426104 -0.27177104 -0.09553365 0.20157866 -0.017011518
0.40526372 -0.18119974 -0.060490165 -0.28133434 -0.031512775 -0.23955327 -0.20006746 -0.20308845
-0.19614327 0.16765922 -0.19281533 -0.019068822 -0.11618528 -0.08811584 0.4299157 -0.15352744
0.1883586 -0.22497894 0.04068392 -0.2621538 -0.06929163 -0.026629899 -0.1429399 -0.286823
-0.3028705 -0.21397595 -0.2152757 0.026338963 -0.28226644 -0.11009597 0.38223514 0.1532591
-0.11138553 -0.24675177 0.013984109 -0.11578749 -0.18484369 -0.18670289 0.30896816 -0.28988543
-0.034345374 -0.08165644 0.088682406 -0.2681943 0.25087813 -0.21012594 -0.22363053 -0.36491808
-0.2971588 -0.3583063 0.27825493 -0.14744498 -0.12863345 -0.09275887 -0.2171776 -0.08873447
-0.01219363 -0.38882157 0.45810702 -0.21587296 0.0213344 -0.039737042 -0.27623153 -0.14714068
0.13984394 -0.40366444 0.25887203 -0.045718618 0.10741913 0.11901997 0.000903165 0.060148038
00000000: 8876 fd3d d438 2a3e 6496 dfbc 46a0 42be
00000010: 9e22 df3d a593 3c3e b361 fdbd 5bc5 ee3e
00000020: 9b80 c03e 8a88 7bbe c3d9 8b3e 46a1 833e
00000030: fd81 b3bd 7648 d0bd b662 833e c609 793c
00000040: b53a bcbd f29b 3cbe bcdd 0fbd f943 6a3e
00000050: 67bd c2bb 80cd 42be 97d0 66be 68a2 17be
00000060: 63f1 01be afe9 8bbd 23f9 b73e 303c 053f
00000070: 5670 33be 41ab 973e 6448 023e e818 b3be
00000080: 42ed d1bd 5187 a1be fe1e d7bd ab0a 173d
00000090: 9ea2 903e 3dba 5bbd d979 063d e18b 84bd
000000a0: 4298 1dbe 4d7e 59bd 31f8 363d 1370 08be
000000b0: 1c5d f7bd a020 d2bd 58db 763e e636 e33d
000000c0: d1e1 97be 7bda 763e 5687 10be b910 3abd
000000d0: 9325 8bbe 25a7 c3bd a36a 4e3e bd5b 8bbc
000000e0: ba7e cf3e 6d8c 39be 89c4 77bd 0e0b 90be
000000f0: 8a13 01bd 744d 75be 7cde 4cbe 6bf6 4fbe
00000100: c8d9 48be dcae 2b3e 6271 45be 3836 9cbc
00000110: 8cf2 edbd 1476 b4bd e91d dc3e 4c36 1dbe
00000120: 14e1 403e e160 66be 2fa4 263d 0639 86be
00000130: c5e8 8dbd f226 dabc d65e 12be 77da 92be
00000140: d811 9bbe 831c 5bbe 3c71 5cbe cfc4 d73c
00000150: 3a85 90be ff79 e1bd 53b4 c33e f4ef 1c3e
00000160: 191e e4bd 7fac 7cbe 9b1d 653c fe21 edbd
00000170: aa47 3dbe 0b2f 3fbe 1331 9e3e dd6b 94be
00000180: bcad 0cbd 7e3b a7bd 1f9f b53d c350 89be
00000190: 1973 803e 412b 57be 67ff 64be 8bd6 babe
000001a0: 3325 98be ec73 b7be 6e77 8e3e d1fb 16be
000001b0: 7db8 03be 5df8 bdbd ce63 5ebe 6bba b5bd
000001c0: cbc7 47bc 9f13 c7be 018d ea3e cd0d 5dbe
000001d0: 7bc5 ae3c 4fc3 22bd 386e 8dbe 0cac 16be
000001e0: 4033 0f3e 1bad cebe e08a 843e 7243 3bbd
000001f0: 90fe db3d bec0 f33d 61c2 6c3a ca5d 763d

2.weight f4 [128, 128]
0.041783627 -0.013159486 -0.033675525 -0.062462404 0.0692588 -0.0007567411 -0.044278476 0.00953271
0.007848516 -0.031631466 0.01171311 0.069613844 -0.003249075 -0.04699921 0.06834409 -0.061777774
-0.06398015 -0.041503116 -0.087944105 0.03241402 0.08019541 -0.082617946 0.039239816 0.0042398646
-0.010461011 -0.06180257 -0.02975154 -0.020748647 0.021047719 0.026974523 -0.076937266 -0.019619761
-0.013161922 -0.0055721262 -0.06586489 0.040010378 0.0154476045 -0.058020934 -0.053700216 -0.013161673
0.011860585 -0.06310819 0.00381136 -0.044674214 -0.00835956 0.0051333513 0.021295333 0.00502265
-0.055011213 -0.0638231 0.03428506 0.0793137 -0.055251848 -0.05467971 0.011965827 -0.019742135
0.09064365 0.0714677 0.008437063 0.08987884 0.07876839 -0.005940413 0.058677908 -0.09102532
-0.02564577 0.05901695 -0.057439342 -0.0075619356 -0.07493541 0.08775083 0.06363295 -0.045716047
0.081597134 -0.049098596 0.059025668 -0.0054314663 -0.01688509 0.06473163 -0.08706434 -0.046801135
-0.006940002 -0.08717748 0.01673642 -0.07694433 -0.06335231 0.030921893 0.0018005334 0.079144716
-0.08078947 0.070925616 0.059139717 -0.013476319 0.042858105 -0.079287946 -0.081673354 -0.05916244
-0.07470023 -0.07730192 0.030075222 0.08501018 0.0024050483 -0.03491284 -0.059920397 -0.028282687
0.051922187 -0.050793882 -0.040978137 -0.08087817 0.02264987 0.06960648 0.0437334 0.07454958
0.06065183 -0.0036658652 -0.06369466 0.07214744 -0.049752485 0.090038426 -0.052905276 0.006077972
0.020673 0.055242192 0.004546103 -0.08270734 0.001707959 0.0895547 0.01008862 0.04794783
-0.031002313 -0.05531758 0.0518949 0.044560596 -0.019347042 -0.026597077 -0.037920572 0.008486349
0.06328914 -0.084393226 0.0028401955 0.012763597 -0.006503155 0.048596427 0.02685792 0.06467681
-0.047631714 -0.016380023 -0.015391366 -0.045839857 -0.039563127 -0.031796902 -0.031940956 -0.04480864
0.00594023 -0.08242335 0.083830334 -0.03335403 0.057832353 0.0047105355 -0.07493013 -0.089386895
-0.014798065 0.050670747 0.0074338596 0.053146936 -0.057648983 -0.08532937 -0.08605137 0.018187072
0.04302276 -0.040452797 0.021845194 -0.07039382 -0.013548665 0.073394775 -0.037207507 0.07010242
-0.055910565 -0.052029673 0.07296002 0.0709891 0.01773708 -0.023069032 0.03610443 0.027573653
-0.040044848 -0.07196687 -0.012922032 -0.046171032 -0.035747044 0.01872788 0.071592085 0.067031965
0.06496512 0.03197014 0.026817977 -0.018424317 0.007972079 -0.0059648594 -0.06518332 0.086305134
0.060611013 0.008196226 0.041918155 0.043328866 0.065128006 0.047641523 -0.016522124 -0.02031886
-0.054795243 0.007488003 0.06738287 -0.08110062 0.02028278 -0.054352466 0.0737808 -0.07964206
0.010923749 0.0524119 -0.029678721 0.006514113 0.025581613 -0.0042346185 -0.039937913 0.08245012
-0.085435405 -0.05902338 -0.029971093 0.0050915396 -0.021521648 0.014658663 -0.01780371 -0.043884862
0.0049165 0.06643858 0.037007578 0.023069248 -0.05471512 0.04392834 -0.012948646 0.054323737
-0.03341644 -0.06955519 0.054285232 -0.018984875 -0.032959994 0.0394921 -0.00043653545 -0.033987463
-0.015307405 -0.0020428144 0.0034980397 0.061044034 -0.03876442 -0.034016363 -0.005746558 -0.001732451
00000000: 4f25 2b3d e39a 57bc 59ef 09bd 94d8 7fbd
00000010: 8fd7 8d3d 0960 46ba 595d 35bd 152f 1c3c
00000020: 1097 003c ff8f 01bd 58e8 3f3c b491 8e3d
00000030: 6fee 54bb 3e82 40bd fcf7 8b3d b10a 7dbd
00000040: 0608 83bd 2cff 29bd 0a1c b4bd 90c4 043d
00000050: 7e3d a43d 9933 a9bd eeb9 203d 90ee 8a3b
00000060: a964 2bbc b124 7dbd 80b9 f3bc 11f9 a9bc
00000070: 446c ac3c adf9 dc3c 4991 9dbd 9fb9 a0bc
00000080: 1aa5 57bc 6296 b6bb 2ce4 86bd ece1 233d
00000090: f317 7d3c 5ca7 6dbd c2f4 5bbd 0fa4 57bc
000000a0: e652 423c de3e 81bd 03c8 793b 4ffc 36bd
000000b0: 89f6 08bc ac35 a83b 8d73 ae3c 0b95 a43b
000000c0: 7053 61bd afb5 82bd 7e6e 0c3d 396f a23d
000000d0: c34f 62bd d5f7 5fbd 510c 443c 42ba a1bc
000000e0: 61a3 b93d a85d 923d 9b3b 0a3c 6612 b83d
000000f0: 5251 a13d cca7 c2bb 3f58 703d 7c6b babd
00000100: 1417 d2bc c2bb 713d 8445 6bbd 1dca f7bb
00000110: bc77 99bd b5b6 b33d fe51 823d c040 3bbd
00000120: 661c a73d 9c1b 49bd e6c4 713d 71fa b1bb
00000130: 9a52 8abc 0492 843d ca4e b2bd 8cb2 3fbd
00000140: f568 e3bb 1b8a b2bd d11a 893c fd94 9dbd
00000150: dbbe 81bd e94f fd3c e0ff eb3a a016 a23d
00000160: f374 a5bd 7341 913d 7d3c 723d c7cb 5cbc
00000170: fb8b 2f3d b861 a2bd 5c44 a7bd 5154 72bd
00000180: 6ffc 98bd 7850 9ebd 5060 f63c d119 ae3d
00000190: 049e 1d3b c400 0fbd 176f 75bd 18b1 e7bc
000001a0: 5cac 543d 3f0d 50bd b1d8 27bd 74a3 a5bd
000001b0: 388c b93c d88d 8e3d cb21 333d 73ad 983d
000001c0: 0e6e 783d 033f 70bb 5972 82bd 09c2 933d
000001d0: 43c9 4bbd 1166 b83d 34b3 58bd b929 c73b
000001e0: 6c5a a93c a345 623d 7af7 943b 7762 a9bd
000001f0: 98dd df3a 7468 b73d bd4a 253c f264 443d
00000200: 90f8 fdbc b094 62bd bf8f 543d 2c85 363d
00000210: b07d 9ebc 1de2 d9bc 9a52 1bbd 540a 0b3c
00000220: bd9d 813d 5bd6 acbd 9322 3a3b 681e 513c
00000230: 6b18 d5bb 0c0d 473d 2405 dc3c 4675 843d
00000240: 7919 43bd 662f 86bc 112c 7cbc 93c2 3bbd
00000250: f20c 22bd 783d 02bd 85d4 02bd 4489 37bd
00000260: 43a6 c23b 93cd a8bd 3daf ab3d 3c9e 08bd
00000270: 9ee1 6c3d d65a 9a3b f874 99bd 7a10 b7bd
00000280: 9573 72bc 218c 4f3d bc97 f33b 9ab0 593d
00000290: 5721 6cbd 2ac1 aebd b33b b0bd 0efd 943c
000002a0: a238 303d d5b1 25bd b1f4 b23c a32a 90bd
000002b0: 38fb 5dbc 0050 963d e666 18bd dc91 8f3d
000002c0: 7a02 65bd 111d 55bd 106c 953d bc62 913d
000002d0: 5a4d 913c 44fb bcbc 3de2 133d 24e2 e13c
000002e0: 1106 24bd 5e63 93bd eeb6 53bc d61d 3dbd
000002f0: 7e6b 12bd 366b 993c df9e 923d 0e48 893d
00000300: 6f0c 853d 1ff3 023d 60b1 db3c 98ee 96bc
00000310: 539d 023c de74 c3bb d57e 85bd bfc0 b03d
00000320: 4143 783d 7749 063c 5fb2 2b3d 9c79 313d
00000330: d561 853d c223 433d 6859 87bc bd73 a6bc
00000340: fa70 60bd ec5d f53b 0800 8a3d 1518 a6bd
00000350: 1328 a63c b1a0 5ebd 631a 973d 601b a3bd
00000360: 86f9 323c dcad 563d ca20 f3bc 5774 d53b
00000370: 8890 d13c 8ec2 8abb f095 23bd 9cdb a83d
00000380: c2f8 aebd 80c2 71bd f085 f5bc eed6 a63b
00000390: 2b4e b0bc e42a 703c 16d9 91bc 9dc0 33bd
000003a0: 971a a13b f310 883d 4295 173d b8fb bc3c
000003b0: f61c 60bd 34ee 333d 8f26 54bc 9182 5e3d
000003c0: addf 08bd f472 8ebd 315a 5e3d 2b86 9bbc
000003d0: 0f01 07bd 78c2 213d ccde e4b9 7036 0bbd
000003e0: e9cb 7abc bde0 05bb 5e3f 653b 4f09 7a3d
000003f0: 71c7 1ebd be54 0bbd 9f4d bcbb 6913 e3ba

2.bias f4 [128]
0.09391699 -0.053488825 -0.07096573 0.028588211 0.096408226 -0.09883151 -0.030734848 0.05056695
-0.046599064 -0.121905535 0.018373135 -0.045654655 -0.07651049 -0.049918473 -0.2008734 0.15725031
0.025126826 0.02631264 -0.011121652 -0.011600622 0.02560909 -0.06721488 0.13924833 -0.022983564
-0.11525827 -0.04724681 -0.04320035 0.005226777 -0.031044241 0.029727647 0.07078818 -0.01165205
0.1613508 0.112712145 -0.21031962 0.039170526 0.0764062 -0.019487692 -0.34046775 -0.058703635
-0.02694303 -0.021264972 -0.048802108 -0.114695325 -0.012847881 0.07996507 0.101675466 -0.03368775
-0.11365408 0.18153132 0.12289323 0.12048473 0.001649662 -0.012250959 -0.04257142 0.0035064188
0.07326501 -0.014298482 -0.0009832899 -0.017032709 -0.10843419 0.028820919 0.09449336 0.062239308
-0.05496866 0.076664865 0.000672961 -0.067840986 -0.020339586 -0.18994375 -0.06906273 0.08238067
-0.10020277 0.13298987 -0.011376644 0.07362987 -0.027377555 -0.24188724 -0.031670213 0.00026289892
-0.0014637728 0.028971447 -0.033739924 -0.020908589 -0.24234511 0.0010098235 -0.06987166 -0.11474965
0.29349232 -0.19585845 -0.07619994 0.027023124 -0.0102323005 0.057217762 -0.17736134 0.040123522
0.049449082 0.040939167 -0.046799116 0.11852169 0.013059047 -0.0032379283 -0.043457154 -0.076859765
0.10718528 0.20031202 -0.11424802 0.061236244 -0.09308628 -0.21504024 -0.052984852 -0.1829939
0.016865056 -0.08622275 -0.07465482 0.02527965 -0.057467945 -0.0069393334 0.012891149 -0.017303495
0.036453452 0.086915925 0.101693206 -0.103275016 -0.0004727645 0.10931583 -0.005210376 -0.005887061
00000000: 8d57 c03d 1917 5bbd 7b56 91bd d331 ea3c
00000010: ad71 c53d 2d68 cabd a6c7 fbbc 4a1f 4f3d
00000020: a9de 3ebd 9ca9 f9bd 4283 963c 6000 3bbd
00000030: 88b1 9cbd 5077 4cbd c2b1 4dbe 3a06 213e
00000040: c6d6 cd3c 9b8d d73c 9737 36bc 8910 3ebc
00000050: 28ca d13c f4a7 89bd 1d97 0e3e 0748 bcbc
00000060: 870c ecbd df85 41bd daf2 30bd 6245 ab3b
00000070: 7e50 febc 6587 f33c 65f9 903d 3de8 3ebc
00000080: 2539 253e a0d5 e63d 075e 57be 4671 203d
00000090: db7a 9c3d a7a4 9fbc ca51 aebe 3973 70bd
000000a0: a1b7 dcbc e133 aebc b8e4 47bd 62e5 eabd
000000b0: eb7f 52bc bac4 a33d 3a3b d03d 2bfc 09bd
000000c0: 78c3 e8bd 59e3 393e 72af fb3d b3c0 f63d
000000d0: 7939 d83a 3fb8 48bc 5f5f 2ebd f2cb 653b
000000e0: f70b 963d 2e44 6abc bce1 80ba 2e88 8bbc
000000f0: bf12 debd d919 ec3c bc85 c13d a5ee 7e3d
00000100: d126 61bd 7802 9d3d a669 303a 37f0 8abd
00000110: 349f a6bc 9d80 42be c370 8dbd 32b7 a83d
00000120: 1c37 cdbd 7f2e 083e 1a65 3abc 42cb 963d
00000130: e546 e0bc 4ab1 77be a0b8 01bd b2d5 8939
00000140: 11dc bfba 8755 ed3c e032 0abd 7d48 abbc
00000150: 5129 78be 0e5c 843a df18 8fbd dd01 ebbd
00000160: a044 963e 1e8f 48be b70e 9cbd 995f dd3c
00000170: 61a5 27bc 2c5d 6a3d 369e 35be 9058 243d
00000180: 1f8b 4a3d d4af 273d 6eb0 3fbd 80bb f23d
00000190: 9df5 553c 6c33 54bb 2100 32bd a768 9dbd
000001a0: f583 db3d 981e 4d3e defa e9bd dbd2 7a3d
000001b0: 05a4 bebd 8233 5cbe a506 59bd c162 3bbe
000001c0: 9628 8a3c 8e95 b0bd a0e4 98bd 4517 cf3c
000001d0: 8263 6bbd 5963 e3bb 6635 533c 0fc0 8dbc
000001e0: 3750 153d fa00 b23d 8744 d03d da81 d3bd
000001f0: 61dd f7b9 fae0 df3d cdbb aabb 3fe8 c0bb

4.weight f4 [128, 128]
0.04789633 0.024456626 -0.03721716 0.05057326 0.0013276598 -0.04954359 0.0067200977 -0.009050977
0.0260266 0.013643602 0.06780274 0.006800763 0.0078932 -0.0069223023 -0.06171544 0.043402307
0.07408776 -0.03820917 -0.05784358 -0.034190252 -0.0033311166 0.0720576 -0.016148636 0.08116648
0.07143936 -0.07035113 -0.08721242 -0.0090588825 -0.011432542 0.011531063 -0.00867208 -0.03895742
0.015291858 -0.04384897 0.047749907 0.06297883 -0.07253752 -0.066695035 0.067133024 -0.019762237
0.0358692 -0.08472945 -0.052936237 -0.06929285 -0.030818973 -0.06684893 -0.031825364 0.0062003066
-0.03407983 0.043732136 -0.034071278 -0.06795345 -0.023048695 0.0477507 -0.01734948 -0.04593767
-0.032803264 0.070239864 -0.07178052 -0.04886542 -0.07462207 0.07483833 -0.048009977 0.07894105
-0.019945923 -0.056618057 -0.04337185 -0.06887814 0.013417786 -0.033456832 0.078772575 0.00798187
0.015919067 -0.04071288 -0.027298605 -0.04801729 0.025853274 0.0425834 -0.056419555 0.039116345
-0.08480934 0.051876973 0.04623107 -0.024813268 0.01735996 -0.06091368 -0.016839262 0.023361348
0.043185383 -0.07129618 -0.073607385 0.069166526 0.030994345 0.076462105 -0.07849471 -0.04110527
-0.03741863 -0.015793625 0.00821573 -0.018271914 0.04706485 -0.05330646 0.07515571 -0.043352075
0.048604116 0.07261291 -0.078158595 0.024518177 0.020387352 0.08067462 0.04924254 -0.08683386
-0.031849235 -0.0692922 -0.04670387 -0.026471702 0.033582613 -0.08543813 0.0053797886 -0.08004713
-0.017007459 -0.083596885 -0.060322706 -0.03862252 0.035346214 -0.04922927 -0.052296862 0.038742214
-0.040998537 0.0327885 0.094527036 0.07647735 -0.004348032 0.04440294 -0.023253368 0.06692234
-0.002420261 0.006515956 -0.08008447 0.07613263 0.06112173 -0.0081378 -0.043250665 -0.028922988
-0.080516 -0.05505678 0.041922588 -0.055014394 0.033092063 -0.04096294 -0.037858453 -0.07547976
0.0051872903 -0.029026682 -0.037190463 0.001862122 -0.038765203 0.01738075 0.060494125 -0.032414995
0.03186107 -0.021851461 0.021426434 -0.06568354 -0.05856413 -0.04261102 -0.004118677 -0.017771196
-0.026638756 0.054774635 -0.06427901 0.08820866 0.0170603 -0.0035711487 0.064973354 0.06473347
-0.017207488 0.04051769 -0.028046222 0.05343661 0.05775811 0.020130388 0.010211187 -0.03105127
-0.02480403 0.0711858 0.027974766 0.0331234 -0.0064623943 -0.010000378 0.059844323 -0.068024874
0.01409262 -0.014960483 -0.026865374 -0.083812475 0.06710935 -0.07321091 -0.022500606 0.010992548
0.05304273 -0.087725125 0.042112555 -0.03396336 0.031191329 -0.084964246 -0.07480071 0.08317224
0.030218573 0.013495276 0.038746536 0.087012105 0.05642938 0.01853863 -0.069995694 0.0948197
0.0007442994 -0.013957245 0.018553806 0.06766231 -0.014710693 -0.03967876 0.05193491 0.061058946
0.024797736 0.005931648 0.002245586 0.016250262 -0.07066382 -0.04868159 0.03914899 0.023260497
0.049105074 -0.0019679028 -0.04924522 -0.03454189 -0.022831373 -0.05803093 0.08324038 -0.05496744
0.012884719 0.089907594 -0.07271951 -0.071752146 0.035746135 0.051716268 -0.04273996 0.042940576
0.060647715 -0.044051148 0.07428357 0.011013313 -0.019627327 0.028736053 0.04727665 0.08369272
00000000: f12e 443d 4359 c83c 0571 18bd e825 4f3d
00000010: df04 ae3a 38ee 4abd 4434 dc3b 8d4a 14bc
00000020: bc35 d53c 6a89 5f3c 2adc 8a3d efd8 de3b
00000030: 7b52 013c 7bd4 e2bb 54c9 7cbd 9ec6 313d
00000040: 53bb 973d 3881 1cbd 64ed 6cbd 140b 0cbd
00000050: dd4e 5abb ef92 933d 254a 84bc 9d3a a63d
00000060: cd4e 923d 4114 90bd 6d9c b2bd b56b 14bc
00000070: 8f4f 3bbc c9ec 3c3c 5715 0ebc d191 1fbd
00000080: b48a 7a3c fa9a 33bd 6895 433d 0bfb 803d
00000090: 8d8e 94bd 6897 88bd 0a7d 893d 6ae4 a1bc
000000a0: 95eb 123d a286 adbd abd3 58bd 69e9 8dbd
000000b0: 1278 fcbc 18e8 88bd 505b 02bd f12b cb3b
000000c0: 4b97 0bbd 7820 333d 538e 0bbd 2e2b 8bbd
000000d0: 9ed0 bcbc 3d96 433d 7f20 8ebc 2329 3cbd
000000e0: b75c 06bd ebd9 8f3d aa01 93bd 1b27 48bd
000000f0: 75d3 98bd d744 993d 1ca6 44bd d8ab a13d
00000100: a265 a3bc 56e8 67bd aea6 31bd fb0f 8dbd
00000110: 46d6 5b3c 080a 09bd 8453 a13d 64c6 023c
00000120: b468 823c 8dc2 26bd 53a1 dfbc c7ad 44bd
00000130: 3fca d33c ee6b 2e3d 3118 67bd 7638 203d
00000140: 85b0 adbd f37c 543d ca5c 3d3d 3245 cbbc
00000150: 7a36 8e3c 9f80 79bd 7ef2 89bc 4c60 bf3c
00000160: 28e3 303d bb03 92bd 78bf 96bd 2ea7 8d3d
00000170: dae7 fd3c 2a98 9c3d d6c1 a0bd 005e 28bd
00000180: 4744 19bd a261 81bc 459b 063c fbae 95bc
00000190: 12c7 403d e057 5abd 3deb 993d f291 31bd
000001a0: 1c15 473d 14b6 943d 9d11 a0bd 58da c83c
000001b0: 6003 a73c bc38 a53d 8cb2 493d f3d5 b1bd
000001c0: 5874 02bd 12e9 8dbd 8f4c 3fbd 2fdb d8bc
000001d0: ec8d 093d 30fa aebd f048 b03b c0ef a3bd
000001e0: 3a53 8bbc d834 abbd f114 77bd a632 1ebd
000001f0: 31c7 103d a2a4 49bd 3c35 56bd 28b0 1e3d
00000200: 15ee 27bd 3c4d 063d 6497 c13d 28a0 9c3d
00000210: f079 8ebb dbdf 353d d97d bebc 940e 893d
00000220: 3e9d 1ebb cd83 d53b 5403 a4bd 6deb 9b3d
00000230: c75a 7a3d 6854 05bc 9c27 31bd e7ef ecbc
00000240: 93e5 a4bd 3883 61bd 05b7 2b3d c656 61bd
00000250: 8b8b 073d c1c8 27bd 7711 1bbd 2295 9abd
00000260: 25fa a93b 5dc9 edbc 0755 18bd 7212 f43a
00000270: 43c8 1ebd 1362 8e3c b0c8 773d 96c5 04bd
00000280: c180 023d d601 b3bc 7d86 af3c 1885 86bd
00000290: f1e0 6fbd e588 2ebd f8f5 86bb e694 91bc
000002a0: 8539 dabc 5e5b 603d b7a4 83bd bea6 b43d
000002b0: 0bc2 8b3c ef09 6abb c010 853d fb92 843d
000002c0: b8f6 8cbc e1f5 253d 31c1 e5bc 59e0 5a3d
000002d0: c593 6c3d 7ce8 a43c d34c 273c 3c5f febc
000002e0: d231 cbbc dcc9 913d 562b e53c 67ac 073d
000002f0: 7ec2 d3bb a0d8 23bc 521f 753d a050 8bbd
00000300: bce4 663c d01c 75bc c614 dcbc e0a5 abbd
00000310: a070 893d 9aef 95bd 3153 b8bc 171a 343c
00000320: 5543 593d 3ba9 b3bd 377e 2c3d 2a1d 0bbd
00000330: f584 ff3c bc01 aebd 1d31 99bd 3556 aa3d
00000340: f18c f73c 4a1b 5d3c b0b4 1e3d 6733 b23d
00000350: 7e22 673d 53de 973c e759 8fbd d530 c23d
00000360: 161d 433a eeac 64bc 27fe 973c 8a92 8a3d
00000370: 1e05 71bc 3286 22bd b3b9 543d f218 7a3d
00000380: 9f24 cb3c 455e c23b ae2a 133b 451f 853c
00000390: 31b8 90bd 5966 47bd b15a 203d cc8c be3c
000003a0: 6722 493d eef7 00bb 5bb5 49bd cc7b 0dbd
000003b0: dc08 bbbc d7b1 6dbd ef79 aa3d 8a25 61bd
000003c0: 6e1a 533c 7921 b83d f7ed 94bd caf2 92bd
000003d0: 8a6a 123d 70d4 533d 1910 2fbd 75e2 2f3d
000003e0: bd69 783d fa6e 34bd fc21 983d 2f71 343c
000003f0: 7dc9 a0bc df67 eb3c 29a5 413d 1767 ab3d

4.bias f4 [128]
-0.03363118 0.033433374 0.10639913 -0.087272294 -0.06546476 -0.0384902 -0.024739722 -0.012904723
0.11266182 0.07959743 -0.08068436 -0.013214702 -0.0159406 0.025445126 0.09075001 0.05452392
-0.042033065 0.10661702 0.08551529 -0.030423958 -0.034854423 0.04340156 0.06572635 -0.06728355
0.10320215 -0.058640476 -0.034763567 -0.08169256 -0.0047949045 0.034921035 -0.07443805 0.10823382
-0.047959015 -0.02231883 -0.09500645 -0.01066727 0.026614886 0.05639782 -0.021190131 -0.04879645
0.030177822 -0.027985485 0.108400054 0.09921512 0.05266268 0.1171575 0.10236924 -0.057759993
0.0147678275 0.083221905 0.020797813 -0.04676679 -0.023410292 -0.0007756781 -0.07890274 -0.037891608
-0.014033157 -0.0706781 -0.022440417 0.087617904 0.04704874 -0.049874865 0.15415418 0.04663719
-0.09046792 -0.0798766 0.032988686 -0.06784879 0.07862441 0.0531997 0.06673763 -0.04527889
0.022534184 0.16436683 0.13905056 0.12911914 -0.024004562 -0.08940937 0.08798716 -0.0180092
0.014719902 0.06339445 -0.05284552 -0.022817163 0.09966791 0.024625083 0.023374604 -0.009002905
-0.064732395 -0.017107323 0.10938188 0.039572913 -0.080830194 -0.014292515 0.017992862 0.07809027
0.14703856 0.081594795 -0.05250677 -0.021107754 -0.013095585 -0.0038033335 0.011563834 -0.023948131
0.092461854 0.022142245 -0.023102054 -0.034169126 0.13896842 -0.012205877 -0.035042442 -0.121069096
-0.06340702 0.07352783 0.17861027 -0.065144174 -0.08723375 -0.049581658 -0.040451072 -0.059243783
0.060708262 0.07129499 0.14976084 0.008488522 0.0062749116 0.0073262188 0.0740999 0.06685138
00000000: d9c0 09bd 6ff1 083d c9e7 d93d d1bb b2bd
00000010: 6312 86bd e6a7 1dbd f5aa cabc 556e 53bc
00000020: 3ebb e63d fa03 a33d d73d a5bd 7a82 58bc
00000030: dc95 82bc 4c72 d03c 24db b93d 7954 5f3d
00000040: dd2a 2cbd 065a da3d a422 af3d aa3b f9bc
00000050: 83c3 0ebd d6c5 313d 899b 863d f5cb 89bd
00000060: a65b d33d ff30 70bd 3e64 0ebd 6e4e a7bd
00000070: 931e 9dbb 5c09 0f3d fa72 98bd b1a9 dd3d
00000080: ac70 44bd fbd5 b6bc be92 c2bd c6c5 2ebc
00000090: 7607 da3c 6701 673d ed96 adbc c9de 47bd
000000a0: 7b37 f73c d141 e5bc d900 de3d 4c31 cb3d
000000b0: d3b4 573d 45f0 ef3d f7a6 d13d be95 6cbd
000000c0: c2f4 713c 3f70 aa3d 2d60 aa3c 898e 3fbd
000000d0: f1c6 bfbc e056 4bba c297 a1bd 3b34 1bbd
000000e0: 54eb 65bc aebf 90bd f7d4 b7bc 0471 b33d
000000f0: 2eb6 403d 9649 4cbd 98da 1d3e a306 3f3d
00000100: 3f47 b9bd 5896 a3bd 251f 073d 4ef4 8abd
00000110: d605 a13d eee7 593d bdad 883d 5b76 39bd
00000120: 9c99 b83c c74f 283e 4563 0e3e cf37 043e
00000130: 37a5 c4bc 431c b7bd 9d32 b43d 0888 93bc
00000140: be2b 713c f3d4 813d 8b74 58bd 0feb babc
00000150: b01e cc3d 8bba c93c 197c bf3c ec80 13bc
00000160: 6b92 84bd a824 8cbc 9b03 e03d 3517 223d
00000170: 4d8a a5bd 272b 6abc c465 933c cbed 9f3d
00000180: 4791 163e 2c1b a73d 5711 57bd 2bea acbc
00000190: dd8e 56bc 5941 79bb 3c76 3d3c df2e c4bc
000001a0: a45c bd3d a763 b53c 8540 bdbc edf4 0bbd
000001b0: bd4d 0e3e 29fb 47bc aa88 0fbd 13f3 f7bd
000001c0: 8adb 81bd c295 963d 9ce5 363e 4f6a 85bd
000001d0: 9ca7 b2bd 2316 4bbd 06b0 25bd 9ca9 72bd
000001e0: 3aa9 783d 1c03 923d e85a 193e 7113 0b3c
000001f0: c69d cd3b c710 f03b b0c1 973d 60e9 883d

6.weight f4 [128, 128]
0.0073626344 0.04460627 -0.024639696 -0.010657562 0.048881028 -0.062633954 0.015643897 0.08060844
0.08765115 0.03937577 -0.04830282 -0.03625589 0.058151577 -0.09494373 0.0840629 -0.02120597
0.06631732 0.03630506 0.076003335 -0.042599324 0.07615582 0.08092435 0.0039416305 0.07366775
-0.065548845 -0.015366831 -0.008320351 -0.011572971 -0.05291214 0.03584087 0.010756685 0.09007727
-0.008534003 0.055643454 -0.02280518 -0.048846945 0.072196335 -0.07434519 0.024938762 0.017620156
0.06329183 -0.04283122 -0.007702404 -0.04445823 0.04168858 0.028226048 0.046210445 0.040511508
-0.027717749 -0.0559442 0.01369635 0.049335282 0.056292154 0.062762186 0.06250402 -0.08647356
0.048762564 0.04393347 0.008682077 -0.07368876 0.04433389 -0.041334357 -0.056689844 0.079181075
-0.039182514 -0.051272538 -0.06387155 0.070390396 0.05901842 0.037971664 0.023533741 -0.057238445
-0.073367186 0.050046477 -0.050210454 -0.07603606 -0.02928677 -0.062694244 0.044628024 -0.045631967
-0.076626286 -0.017317822 -0.058881007 -0.065422945 -0.023616953 -0.046570692 -0.033465967 0.08690787
0.03068313 -0.04376747 0.02515217 -0.08539001 -0.06666842 0.0028031683 0.092239596 0.083431534
-0.005143139 -0.031800568 -0.031367857 -0.022927161 -0.026317049 -0.08879977 -0.047038704 -0.0158624
0.040057532 0.10433552 0.09157001 0.0727235 0.073441155 0.0908573 0.07024904 0.04042106
0.049672093 0.051304862 0.0010500641 -0.019728672 0.030973801 -0.06873789 0.052268572 0.089441784
0.081620455 -0.07268133 0.075820476 0.019551057 0.050803803 0.032539576 0.07022851 -0.081376545
0.087251574 -0.07421302 -0.042203266 0.017863002 -0.0012496697 -0.06119024 0.06493675 0.025436532
-0.011141804 0.036830924 -0.07189635 -0.08053832 0.052910943 0.05232314 0.050406344 0.028782781
-0.04932792 0.08479058 0.036289155 0.06231219 -0.06661108 -0.10566519 -0.031603422 -0.0647715
0.0035527253 -0.024390023 0.07262741 -0.016664699 -0.034206934 0.06167053 0.1053023 0.0125373425
0.085842706 -0.04904883 0.07017269 0.02120178 0.010176526 0.08223664 0.056861814 -0.0439995
-0.030301683 -0.086964294 -0.022302907 0.010546163 0.0402571 0.009246441 -0.04193336 0.0893826
-0.0014397509 -0.060477242 0.032258958 0.0511936 0.020150144 -0.037328407 -0.02642473 0.0683613
0.047967054 -0.0039566234 -0.02061346 0.06712981 -0.037433375 0.040165186 0.074417986 -0.076464444
-0.04745162 -0.06870138 0.0006671332 -0.046193346 -0.06377377 0.08969125 0.09727306 -0.009602038
0.025039975 0.007699852 0.012043141 0.0677709 0.037016176 0.053146992 -0.038340706 -0.09063773
-0.00914474 0.020422112 0.0028499514 0.062049534 0.040358588 0.030541545 0.01935273 -0.008105213
-0.011854726 0.008143781 -0.009070113 0.013171588 0.05925076 0.046991967 0.037865408 0.04285992
-0.010940054 -0.027224958 0.051367767 0.011911335 0.08931862 -0.008081375 0.10034205 -0.07160133
0.11518908 -0.014054746 -0.0065815696 -0.047505792 0.0073446925 0.02510178 0.10256942 -0.032453217
0.0038374125 -0.046866074 -0.007949826 -0.0006596027 0.08468013 -0.08241953 -0.064691566 0.009480813
-0.028511513 0.04344038 0.057409283 -0.060174298 0.024041422 0.012700238 0.013101099 -0.08330353
00000000: 4142 f13b 10b5 363d 30d9 c9bc 0e9d 2ebc
00000010: 7937 483d 3b46 80bd a127 803c 0a16 a53d
00000020: 7282 b33d 7d48 213d 2ed9 45bd 0e81 14bd
00000030: 5930 6e3d dc71 c2bd 2b29 ac3d 24b8 adbc
00000040: 60d1 873d 9db4 143d a3a7 9b3d a17c 2ebd
00000050: 95f7 9b3d aabb a53d cb28 813b 1edf 963d
00000060: 793e 86bd 29c5 7bbc 1552 08bc 8f9c 3dbc
00000070: 66ba 58bd e0cd 123d cf3c 303c 6f7a b83d
00000080: 34d2 0bbc 64ea 633d eed1 babc bc13 48bd
00000090: acdb 933d 4a42 98bd 604c cc3c 2558 903c
000000a0: 269f 813d ca6f 2fbd 7364 fcbb d519 36bd
000000b0: a5c1 2a3d 503a e73c 2a47 3d3d 65ef 253d
000000c0: 5510 e3bc bf25 65bd a866 603c cb13 4a3d
000000d0: 9a92 663d 7689 803d 1c02 803d 0d19 b1bd
000000e0: 41bb 473d 95f3 333d 453f 0e3c 22ea 96bd
000000f0: 7497 353d 374e 29bd 9c33 68bd b029 a23d
00000100: d87d 20bd 2703 52bd 16cf 82bd d728 903d
00000110: 4cbd 713d 2d88 1b3d d5c9 c03c dc72 6abd
00000120: 8941 96bd 89fd 4c3d 7aa9 4dbd cbb8 9bbd
00000130: cfea efbc d765 80bd e0cb 363d 96e8 3abd
00000140: 3eee 9cbd 1bde 8dbc 362d 71bd 77fc 85bd
00000150: 5778 c1bc e9c0 3ebd 9c13 09bd c1fc b13d
00000160: 305b fb3c 8545 33bd ec0b ce3c f5e0 aebd
00000170: 7489 88bd 5cb5 373b 1de8 bc3d 27de aa3d
00000180: c787 a8bb 5041 02bd 957b 00bd bed1 bbbc
00000190: da96 d7bc a7dc b5bd a8ab 40bd ddf1 81bc
000001a0: 5e13 243d dcad d53d 0f89 bb3d 0ff0 943d
000001b0: 5168 963d 6413 ba3d bbde 8f3d 8e90 253d
000001c0: f774 4b3d 0c25 523d 4ea2 893a 069e a1bc
000001d0: c5bc fd3c 73c6 8cbd 9217 563d 412d b73d
000001e0: a028 a73d f3d9 94bd c447 9b3d 8a29 a03c
000001f0: a617 503d 3848 053d f7d3 8f3d bfa8 a6bd
00000200: f4b0 b23d fffc 97bd 55dd 2cbd 6e55 923c
00000210: f5cb a3ba 9ea2 7abd 8ffd 843d 4660 d03c
00000220: 1d8c 36bc 06dc 163d 653e 93bd 46f1 a4bd
00000230: 25b9 583d ca50 563d e276 4e3d dec9 eb3c
00000240: 130c 4abd afa6 ad3d f0a3 143d 113b 7f3d
00000250: 646b 88bd fe66 d8bd 9772 01bd eca6 84bd
00000260: d7d4 683b 96cd c7bc aebd 943d 6884 88bc
00000270: 921c 0cbd 3d9a 7c3d bba8 d73d 6d69 4d3c
00000280: 4dce af3d 6de7 48bd b3b6 8f3d 5baf ad3c
00000290: 72bb 263c af6b a83d efe7 683d d238 34bd
000002a0: 3c3b f8bc 561a b2bd 96b4 b6bc d0c9 2c3c
000002b0: a1e4 243d 627e 173c 51c2 2bbd 390e b73d
000002c0: 06b6 bcba fcb6 77bd f821 043d 61b0 513d
000002d0: ea11 a53c ace5 18bd ad78 d8bc 0201 8c3d
000002e0: 1a79 443d 90a6 81bb 8fdd a8bc 5b7b 893d
000002f0: bd53 19bd 4084 243d 7568 983d 6499 9cbd
00000300: a15c 42bd 4fb3 8cbd 8de2 2e3a 3c35 3dbd
00000310: d39b 82bd 0cb0 b73d 1937 c73d de51 1dbc
00000320: a220 cd3c 0a4f fc3b 9850 453c 78cb 8a3d
00000330: 469e 173d a9b0 593d 250b 1dbd 46a0 b9bd
00000340: d2d3 15bc 464c a73c 40c6 3a3b a727 7e3d
00000350: 0c4f 253d 4332 fa3c 9e89 9e3c bacb 04bc
00000360: 533a 42bc 7e6d 053c d09a 14bc a5cd 573c
00000370: edb0 723d a67a 403d c218 1b3d e28d 2f3d
00000380: ea3d 33bc e006 dfbc 0267 523d c327 433c
00000390: aeec b63d be67 04bc 2280 cd3d b8a3 92bd
000003a0: 41e8 eb3d e145 66bc 35aa d7bb 6f95 42bd
000003b0: bfab f03b 40a2 cd3c eb0f d23d aaed 04bd
000003c0: 197d 7b3b a4f6 3fbd fd3f 02bc 30e9 2cba
000003d0: c76c ad3d 92cb a8bd 037d 84bd 6955 1b3c
000003e0: fa90 e9bc 8aee 313d ff25 6b3d 5379 76bd
000003f0: 84f2 c43c a914 503c fea5 563c 0b9b aabd

6.bias f4 [128]
-0.009829269 0.16222635 0.004962437 0.13702267 -0.02807557 -0.020182265 0.088449135 0.09860358
0.041938465 0.16404626 0.039953094 -0.026428416 -0.08651445 -0.013252893 0.045582347 0.047537874
-0.09210062 -0.013933378 -0.077085726 -0.0015775502 0.047206447 0.21757725 -0.11643013 -0.08734032
0.006733463 0.09422152 0.030128201 -0.039628897 0.04297065 -0.08018632 0.06975394 -0.039552625
0.18108119 0.02583755 0.05233293 -0.058025178 -0.08878435 0.07348947 -0.07074379 0.24862483
0.015818283 0.30073026 0.0895685 0.00340593 -0.08568195 0.059075106 0.071383744 -0.10351599
0.0059318966 -0.020857 -0.07478716 -0.10714969 0.0055678543 -0.06629204 0.10333884 0.10761431
-0.05550642 0.009306262 0.24799691 -0.04448801 0.057559606 -0.08167387 0.007682326 0.31835377
0.011663956 -0.017515868 -0.041783333 0.016410887 -0.07159925 -0.049094133 -0.09483307 0.027197858
-0.008212924 -0.07204371 -0.024437597 0.17497739 0.014328785 -0.07351608 -0.027112765 -0.041955076
-0.052466493 -0.030059515 -0.005507092 -0.05588456 -0.055095002 -0.030320246 0.01099858 0.065136254
-0.02466544 0.019474117 -0.04284287 0.11394856 -0.046647046 -0.074439295 0.016081447 -0.08379893
-0.02717071 -0.040185705 0.01615181 0.14322564 -0.035202343 0.107674085 -0.061339844 0.34970316
-0.06233322 -0.03088334 -0.082476534 -0.03397493 0.010316352 -0.043937553 0.123786665 -0.03654269
0.032218356 0.055192035 -0.07298608 0.03335695 0.055674624 -0.120068245 0.06153557 -0.044559486
-0.07878949 -0.048943967 0.17088515 0.03203438 0.032812852 0.06394494 0.19745184 0.07320322
00000000: f10a 21bc aa1e 263e f09b a23b ac4f 0c3e
00000010: bdfe e5bc 4755 a5bc d224 b53d acf0 c93d
00000020: abc7 2b3d befb 273e dba5 233d 6880 d8bc
00000030: 7d2e b1bd aa22 59bc 8eb4 3a3d 13b7 423d
00000040: 409f bcbd d348 64bc 1fdf 9dbd cdc5 ceba
00000050: 8c5b 413d 92cc 5e3e ec72 eebd 7bdf b2bd
00000060: 62a4 dc3b 36f7 c03d 6bcf f63c e951 22bd
00000070: fe01 303d ba38 a4bd 27db 8e3d ef01 22bd
00000080: 596d 393e 45a9 d33c 0e5b 563d cfab 6dbd
00000090: 92d4 b5bd a681 963d 1fe2 90bd 8297 7e3e
000000a0: 5895 813c 51f9 993e b16f b73d 0636 5f3b
000000b0: 057a afbd bdf8 713d a431 923d 3100 d4bd
000000c0: 5b60 c23b 4ddc aabc 032a 99bd 4c71 dbbd
000000d0: 8c72 b63b 1fc4 87bd 50a3 d33d e464 dc3d
000000e0: b35a 63bd 4b79 183c e7f2 7d3e 0f39 36bd
000000f0: 9fc3 6b3d a144 a7bd 05bc fb3b 44ff a23e
00000100: 2d1a 3f3c 707d 8fbc 0025 2bbd 2070 863c
00000110: a1a2 92bd ee16 49bd d737 c2bd 0bce de3c
00000120: 808f 06bc a78b 93bd 5b31 c8bc 462d 333e
00000130: 48c3 6a3c 998f 96bd 971b debc 16d9 2bbd
00000140: 1be7 56bd 5f3f f6bc d674 b4bb 35e7 64bd
00000150: 4cab 61bd 2a62 f8bc 6333 343c 2866 853d
00000160: 2d0f cabc 2f88 9f3c 017c 2fbd dd5d e93d
00000170: f910 3fbd a173 98bd 3dbd 833c c69e abbd
00000180: 1c95 debc c499 24bd cd50 843c bea9 123e
00000190: 5530 10bd 3b84 dc3d 7d3f 7bbd 4b0c b33e
000001a0: 1e51 7fbd 0fff fcbc 75e9 a8bd 4c29 0bbd
000001b0: eb05 293c ddf7 33bd dd83 fd3d caad 15bd
000001c0: 65f7 033d 0b11 623d ba79 95bd 4ca1 083d
000001d0: 130b 643d 57e6 f5bd b90c 7c3d 0284 36bd
000001e0: 625c a1bd 7879 48bd 84fc 2e3e 7b36 033d
000001f0: c566 063d 91f5 823d d130 4a3e 92eb 953d

8.weight f4 [49, 128]
0.07868894 -0.088611804 -0.018603599 0.045024768 -0.1402938 0.09268909 -0.19499104 0.09717623
-0.17485668 -0.15431894 -0.10079192 0.01229239 -0.003466828 -0.0033819054 0.036279134 0.007459754
0.033053547 0.05675612 0.013607468 0.06288534 0.063903645 -0.057053324 -0.08950192 0.090789795
-0.05260267 0.032767307 0.07018081 -0.012416751 -0.058209334 0.00824599 0.08500958 0.06413
-0.09590073 0.08099544 0.017623099 0.08013502 -0.083267026 -0.012813182 0.03203273 -0.18713953
0.0056569437 -0.22139779 -0.03525398 -0.024312083 0.044153117 0.073838264 -0.0006062542 -0.01174071
-0.0002770497 0.03327283 -0.024886282 -0.03956492 -0.055842154 0.05180771 -0.033654347 -0.07663045
0.06629366 0.06546041 -0.028392661 -0.088123426 -0.019474618 -0.0831361 -0.04145141 -0.16468741
-0.07133373 0.077308044 0.004136689 -0.008074199 -0.030266078 0.055062883 0.10716083 0.086547635
-0.027674364 0.032542784 0.08030366 -0.105995774 -0.053809732 -0.0033098552 -0.01975567 0.03529477
-0.035189074 0.08529819 -0.036805097 -0.0844912 -0.03180975 0.07152734 0.04460025 -0.082170114
0.039931703 0.05336087 0.02460764 -0.06376413 -0.06119982 -0.0019107317 -0.13823874 0.0313421
0.08194005 0.03207153 0.03630506 -0.11911187 -0.029911356 -0.17354424 -0.034718383 -0.228721
0.097577274 0.18016389 -0.054352388 0.047742553 0.0053172777 -0.052087728 0.018156962 0.06478651
-0.022377353 0.03831796 0.051926505 0.07138783 -0.030050911 0.032205068 -0.10976923 0.07226519
-0.0769551 -0.06115356 -0.254054 0.012234218 -0.034093246 -0.13917685 -0.03846714 0.096036896
0.046075813 -0.09890629 0.035760194 0.0010840837 -0.01348175 0.035498995 -0.040809393 0.0888039
-0.16262995 -0.013077106 -0.14281419 -0.04037687 0.04934313 0.030641686 0.080918014 0.016162993
0.08701327 0.027083626 0.041653037 -0.028739799 0.038206883 -0.14045693 -0.0006183101 0.11986851
-0.021912998 0.018027086 0.032382205 -0.05749599 0.011970219 0.0040656747 -0.045240514 -0.023315765
-0.09758822 -0.013130759 0.122277126 0.052092087 0.02833207 -0.04314195 0.009291746 -0.08929727
0.040596407 -0.23549536 -0.12398289 0.067361385 0.0456829 -0.035203107 0.07635335 0.06291072
-0.036688715 0.03409539 -0.015571043 0.0077413865 -0.14647333 -0.067893095 -0.026288133 -0.04098816
-0.06550338 0.0098218685 -0.1599343 -0.15127812 0.052566905 -0.0018663321 -0.05406081 -0.09845143
-0.0326703 -0.06921748 0.06332327 0.0057043573 -0.050862297 0.04448075 0.0045793448 0.09675141
-0.081658326 -0.019633291 0.028659323 -0.05086993 0.08658533 -0.08839115 -0.070114456 0.0036443213
0.0367667 -0.07502891 0.009359846 -0.015316922 0.07769389 0.021438085 0.06436727 -0.13190189
0.08255537 0.070986845 -0.023126159 -0.10420651 -0.07712845 -0.055260196 -0.14740147 0.021658756
-0.037836563 0.024944259 -0.025652561 -0.05497655 0.016147284 -0.24418114 0.04441323 -0.17496783
0.09221547 0.09518884 0.044833127 -0.08536322 0.07956193 0.043623917 -0.07311219 0.096833706
-0.0123949265 -0.018636197 -0.007379654 0.0037685751 -0.119211994 -0.010096479 -0.026904522 -0.06549524
-0.04034881 0.047716584 -0.19425076 0.0092621455 0.016807577 -0.17351197 -0.056404654 0.026370447
00000000: ab27 a13d 1b7a b5bd 9366 98bc e46b 383d
00000010: 2ea9 0fbe c7d3 bd3d bbab 47be 5504 c73d
00000020: a10d 33be c905 1ebe ff6b cebd 0566 493c
00000030: b933 63bb f5a2 5dbb 6e99 143d f470 f43b
00000040: 2863 073d 1b79 683d dcf1 5e3c 07ca 803d
00000050: eadf 823d bfb0 69bd c84c b7bd 00f0 b93d
00000060: e675 57bd 0337 063d f5ba 8f3d a16f 4bbc
00000070: e96c 6ebd 301a 073c 8119 ae3d 9756 833d
00000080: 9a67 c4bd f0e0 a53d 515e 903c d41d a43d
00000090: e787 aabd 61ee 51bc c034 033d 81a1 3fbe
000000a0: e25d b93b 1ab6 62be 7a66 10bd 222a c7bc
000000b0: e6d9 343d 8438 973d 08ed 1eba 1b5c 40bc
000000c0: fb40 91b9 1749 083d 51de cbbc d30e 22bd
000000d0: beba 64bd 5234 543d 24d9 09bd 6df0 9cbd
000000e0: f8c4 873d 1c10 863d ba97 e8bc 0e7a b4bd
000000f0: 3c89 9fbc 4243 aabd f4c8 29bd d1a3 28be
00000100: 6b17 92bd ae53 9e3d 108d 873b a549 04bc
00000110: 91f0 f7bc 9e89 613d 2377 db3d e33f b13d
00000120: 59b5 e2bc 954b 053d 3f76 a43d 5014 d9bd
00000130: 9867 5cbd 28ea 58bb a5d6 a1bc 4091 103d
00000140: 6b22 10bd d1b0 ae3d f1c0 16bd b909 adbd
00000150: f14a 02bd ed7c 923d c0ae 363d ce48 a8bd
00000160: 6d8f 233d ed90 5a3d f695 c93c c596 82bd
00000170: aaac 7abd 8471 faba 758e 0dbe 9360 003d
00000180: 2fd0 a73d 705d 033d 9db4 143d edf0 f3bd
00000190: a908 f5bc 95b5 31be dd34 0ebd d635 6abe
000001a0: 98d6 c73d e27c 383e 9ca0 5ebd b28d 433d
000001b0: 8f3c ae3b f159 55bd e9bd 943c caae 843d
000001c0: b650 b7bc 4bf3 1c3d e3b0 543d c833 923d
000001d0: 542d f6bc 76e9 033d b1ce e0bd c6ff 933d
000001e0: a39a 9dbd 287c 7abd 5e13 82be 0872 483c
000001f0: 5ca5 0bbd 6084 0ebe b88f 1dbd feae c43d
00000200: feb9 3c3d 628f cabd 4879 123d d017 8e3a
00000210: 8fe2 5cbc 6567 113d c027 27bd d2de b53d
00000220: 7788 26be 5c41 56bc e23d 12be 3862 25bd
00000230: 061c 4a3d 4604 fb3c 58b8 a53d 4168 843c
00000240: 0334 b23d 7bde dd3c 609c 2a3d ba6f ebbc
00000250: d27e 1c3d f1d3 0fbe 1716 22ba 9f7d f53d
00000260: e382 b3bc 8aad 933c 34a3 043d ea80 6bbd
00000270: bd1e 443c 5a39 853b 1e4e 39bd b400 bfbc
00000280: 55dc c7bd 6522 57bc 6e6c fa3d 835e 553d
00000290: a818 e83c 9db5 30bd 683c 183c 7de1 b6bd
000002a0: 6b48 263d b225 71be beea fdbd c4f4 893d
000002b0: fe1d 3b3d 2231 10bd 255f 9c3d 56d7 803d
000002c0: e846 16bd 9ca7 0b3d b01d 7fbc 75ab fd3b
000002d0: 1bfd 15be 890b 8bbd 365a d7bc 33e3 27bd
000002e0: a326 86bd e7eb 203c d1c5 23be a7e8 1abe
000002f0: 6550 573d b79f f4ba de6e 5dbd e7a0 c9bd
00000300: 4bd1 05bd e5c1 8dbd a1af 813d 9eeb ba3b
00000310: fc54 50bd 7231 363d 540e 963b 9a25 c63d
00000320: 7b3c a7bd ffd5 a0bc f5c6 ea3c fd5c 50bd
00000330: a653 b13d 6b06 b5bd 2b98 8fbd 91d5 6e3b
00000340: ae98 163d c2a8 99bd 0a5a 193c d4f3 7abc
00000350: f91d 9f3d ec9e af3c fdd2 833d 4a11 07be
00000360: ca12 a93d 8d61 913d 1273 bdbc 396a d5bd
00000370: 85f5 9dbd 8458 62bd 69f0 16be b46d b13c
00000380: 83fa 1abd e757 cc3c 5225 d2bc 172f 61bd
00000390: 4f47 843c 9f0a 7abe a6ea 353d c42a 33be
000003a0: 77db bc3d 5ef2 c23d f1a2 373d e9d2 aebd
000003b0: 5df1 a23d feae 323d d8bb 95bd c050 c63d
000003c0: 1714 4bbc f0aa 98bc 06d1 f1bb 33fa 763b
000003d0: 6b25 f4bd b46b 25bc df66 dcbc 5e22 86bd
000003e0: cb44 25bd 7772 433d ace9 46be 41c0 173c
000003f0: 0bb0 893c 1fad 31be 9108 67bd d606 d83c

8.bias f4 [49]
-0.06069794 -0.018923158 -0.08472666 -0.16731684 -0.14263521 -0.2142459 -0.01544938 -0.12707587
-0.24647363 -0.2039067 -0.2120572 -0.12512134 -0.13931131 -0.16520499 -0.21455859 -0.23296441
-0.0962683 -0.14035535 -0.12817974 -0.27725416 -0.061143864 -0.11738202 -0.14766498 -0.078994796
-0.1274494 -0.13588299 -0.05288199 -0.086886 -0.13705419 -0.072717294 -0.04077943 -0.11755377
-0.03361035 -0.110301204 -0.075568736 -0.10474823 -0.09206111 -0.15362874 -0.13650106 -0.12565388
-0.17847387 -0.11818233 -0.3156584 -0.29784426 -0.13282895 -0.017058019 -0.0059994073 -0.10418587
-0.06797216
00000000: 679e 78bd bd04 9bbc 2c85 adbd 1b55 2bbe
00000010: f70e 12be 4763 5bbe 651f 7dbc 2d20 02be
00000020: 9563 7cbe ebcc 50be 8625 59be cf1f 00be
00000030: a0a7 0ebe 7f2b 29be 3fb5 5bbe 398e 6ebe
00000040: 5128 c5bd 50b9 0fbe 8d41 03be 42f4 8dbe
00000050: fd71 7abd fc65 f0bd 7d35 17be 06c8 a1bd
00000060: 1882 02be e924 0bbe c99a 58bd 4af1 b1bd
00000070: ef57 0cbe ceec 94bd 5508 27bd 08c0 f0bd
00000080: 02ab 09bd 99e5 e1bd c8c3 9abd 3d86 d6bd
00000090: 898a bcbd da50 1dbe efc6 0bbe 69ab 00be
000000a0: dbc1 36be 9409 f2bd fa9d a1be 0b7f 98be
000000b0: 5004 08be 42bd 8bbc ad96 c4bb 675f d5bd
000000c0: fd34 8bbd
