models/snapsRandom/model_1685792952.0330696.pt (torch, 252563 bytes, 10 tensors)

0.weight f4 [128, 49]
0	0xbda59852	-0.080856934
1	0x3de420ec	0.11139092
2	0x3d108417	0.03528222
3	0xbe1d2d1d	-0.1534924
4	0x3d4f5d81	0.05062628
5	0xbd4525ff	-0.04813194
6	0xbdb3f302	-0.087865844
7	0x3d93a576	0.072092935
8	0xbd15ff90	-0.036620677
9	0xbdf8b614	-0.12144104
10	0x3debe579	0.11518378
11	0x3e2e3aa7	0.17014562
12	0xbd23edaf	-0.040021595
13	0x3dc9c9ed	0.098529674
14	0x3bb856ed	0.0056255967
15	0xbddd31bf	-0.10800504
16	0xbc4d28f6	-0.012521973
17	0xbda93239	-0.08261532
18	0xbc6aa8e6	-0.014322495
19	0x3cc0ccf8	0.023535237
20	0xbcea1f35	-0.028579334
21	0xbdb11e9f	-0.08648419
22	0x3e7a31ab	0.2443301
23	0xbde37b51	-0.11107505
24	0xbd28e17b	-0.04123066
25	0xbda5eb0c	-0.08101472
26	0xbd7db77b	-0.06194256
27	0x3d702de3	0.05863751
28	0x3e1e7ed4	0.15478069
29	0xbd8fcdda	-0.07021685
30	0x3e350cb2	0.17680624
31	0xbcec75f4	-0.028864838
32	0xbb8e54cf	-0.004343606
33	0x3d2876b1	0.041128818
34	0xbd7952fc	-0.060870156
35	0x3e0f6d21	0.14006473
36	0xbd5f08b9	-0.054451678
37	0xbbbc7bf0	-0.005752079
38	0xbe449f0d	-0.19201298
39	0xbc042ef6	-0.008067837
40	0xbdfb64cb	-0.12275084
41	0x3d8ddcbc	0.06926867
42	0x3e46a662	0.19399408
43	0xbd359dc5	-0.044339914
44	0xbdcd3fcd	-0.10021935
45	0x3e0481fd	0.12940212
46	0x3df7e6e4	0.12104586
47	0xbe27b411	-0.16377284
48	0xbd952924	-0.072832376
49	0x3b74540b	0.0037281539
50	0xbd18c009	-0.037292514
51	0xbdfebfbc	-0.12438914
52	0x3d6c4bad	0.057689358
53	0x3e00d0cb	0.12579648
54	0x3b489f12	0.0030612391
55	0xbe07636d	-0.13221522
56	0x3d349e5e	0.044096343
57	0x3ddac234	0.106815726
58	0x3c79f5e4	0.015256379
59	0x3e0a4320	0.13502169
60	0x3d96e50c	0.07367906
61	0x3d3e7d70	0.046506345
62	0x3c962e70	0.01833269
63	0xbe0e792c	-0.13913411
64	0xbcc7c4a4	-0.024385758
65	0x3e10a0ca	0.14123836
66	0xbd843a57	-0.0645644
67	0xbe1c9032	-0.15289381
68	0x3e65ed5d	0.22453828
69	0x3e28b34d	0.16474648
70	0x3cf5c36a	0.030000407
71	0x3d3d5bdc	0.046230182
72	0x3e065e56	0.13121924
73	0xbe3df21b	-0.18549387
74	0xbe1c9ece	-0.15294954
75	0xbd42dc92	-0.047573633
76	0x3d942ee1	0.07235504
77	0x3d1c7733	0.038199615
78	0xbc9eba0c	-0.019375823
79	0x3dfef764	0.1244953
80	0xbe2d818f	-0.16943954
81	0xbde63155	-0.11239878
82	0xbdfffd4d	-0.12499485
83	0x3e6093b7	0.21931349
84	0xbddffc0b	-0.10936745
85	0x3d449743	0.047995817
86	0xbcdf8d54	-0.02728907
87	0xbdf2b845	-0.11851553
88	0x3d994048	0.07482964
89	0x3d9956fa	0.074872926
90	0xbd0b09e2	-0.03394497
91	0x3dd63b56	0.10460536
92	0xbc8f8ec6	-0.017524134
93	0xbe56e6b8	-0.2098645
94	0xbd70684e	-0.058693223
95	0x3dfe5f52	0.12420525
96	0x3cb02100	0.02150011
97	0xbd957f21	-0.072996385
98	0x3d21a060	0.039459586
99	0xbe2fbfea	-0.17163053
100	0x3d54371e	0.051810376
101	0xbdfa0edc	-0.122098655
102	0xbcce0d2a	-0.025152761
103	0xbe817c36	-0.25290078
104	0x3d457f13	0.04821689
105	0x3d76f29c	0.060289964
106	0x3e0b3562	0.13594583
107	0xbd01da0f	-0.031702098
108	0xbd6e22bf	-0.058138605
109	0x3e2c0ccb	0.16801755
110	0xbe6523ff	-0.22377013
111	0x3d39c2f8	0.045351952
112	0xbe0cf3b7	-0.13764845
113	0x3c7beabe	0.015375791
114	0x3e01e121	0.12683536
115	0xbdce34cd	-0.10068665
116	0xbda0f913	-0.07860007
117	0xbceb288f	-0.028705863
118	0xbd8fc82d	-0.070206024
119	0x3dd0bd06	0.10192303
120	0xbe3ef1bd	-0.18646903
121	0x3d584b8f	0.052806433
122	0xbd05bfc7	-0.032653596
123	0x3c683b3e	0.014174281
124	0xbdccba28	-0.09996444
125	0x3ded528a	0.11588009
126	0xbe16ac6f	-0.14714216
127	0x3d5b048e	0.05347114
128	0x3b9e01f5	0.0048220106
129	0xbdc29c97	-0.095025234
130	0x3d610cb2	0.054943748
131	0xbdd016f4	-0.10160628
132	0x3d0f69dc	0.035013065
133	0xbd938e33	-0.07204857
134	0x3d1f913b	0.038956862
135	0xbdf205a5	-0.11817483
136	0x3c660447	0.014039106
137	0xbdb6bd1a	-0.08922787
138	0xbd832c8e	-0.064049825
139	0x3e2a2b14	0.16617996
140	0xbcccfcea	-0.025022943
141	0xbd096e04	-0.033552185
142	0xbe26ab00	-0.16276169
143	0x3dbe4cfd	0.09292028
144	0x3d499e5e	0.049223296
145	0xbdbc85a4	-0.092051774
146	0x3d7e7d4f	0.062131222
147	0x3db6ac3b	0.08919569
148	0x3ccd58fb	0.025066843
149	0xbd496a5e	-0.049173705
150	0xbd9cd3f5	-0.07657615
151	0x3deb9c59	0.1150443
152	0xbceb4735	-0.028720478
153	0xbd0b2136	-0.03396722
154	0x3d2cecf0	0.04221815
155	0x3dad2ccf	0.08455812
156	0x3ddd6d3e	0.10811852
157	0x3caa8f7a	0.020820368
158	0xbddb36ef	-0.10703837
159	0xbea70cdc	-0.32626998
160	0xbd5313a2	-0.051532395
161	0x3e0503ce	0.12989733
162	0x3cf00230	0.029297918
163	0x3d47059f	0.048589345
164	0x3d78e1d2	0.060762234
165	0xbd8a050a	-0.067392424
166	0xbe3e7bfa	-0.18601981
167	0x3e5b5865	0.21420439
168	0x3dd0cc15	0.101951756
169	0xbd2792b7	-0.040911403
170	0x3d3698a5	0.044579167
171	0xbd3793b2	-0.044818588
172	0xbd0f7350	-0.03502208
173	0xbe63b549	-0.22237124
174	0x3d8f5057	0.069977455
175	0x3d8a51e7	0.06753903
176	0xbdc20905	-0.094743766
177	0x3dd71299	0.10501594
178	0x3d939412	0.072059765
179	0xbd521878	-0.051292866
180	0x3d85b591	0.06528772
181	0x3e693d5e	0.22777316
182	0xbbe97e0a	-0.0071256207
183	0x3e3e76f9	0.18600072
184	0xbe2c8891	-0.16848971
185	0x3dc2051d	0.094736315
186	0xbcacaa88	-0.02107741
187	0x3dd03e99	0.101681896
188	0x3cee2931	0.029072376
189	0xbd8eb37b	-0.06967827
190	0x3dff5c4c	0.12468776
191	0xbe107029	-0.14105286
192	0x3db9aaf6	0.09065811
193	0xbd436c7e	-0.047710888
194	0xbc8a0d20	-0.016851962
195	0x3de812b9	0.11331696
196	0x3c9942a9	0.018708544
197	0xbd7463b2	-0.05966539
198	0x3d00ae40	0.031416178
199	0xbdae6905	-0.08516125
200	0xbd242c9a	-0.040081598
201	0x3e507c92	0.2036002
202	0x3e1f59c2	0.15561584
203	0x3c97567f	0.018473862
204	0xbca0768f	-0.019587783
205	0x3d1bae69	0.038008127
206	0x3e3091c7	0.1724311
207	0x3caffbfc	0.02148246
208	0xbdb27d75	-0.08715335
209	0xbe2306b4	-0.15920526
210	0xbd74486d	-0.059639383
211	0xbcd66005	-0.026168833
212	0x3dcdaaa5	0.100423135
213	0xbc86617c	-0.016403906
214	0xbd3df4cd	-0.04637604
215	0xbd49eca0	-0.04929793
216	0x3d259adb	0.040430885
217	0xbd5c489f	-0.053780194
218	0x3ca2569c	0.01981669
219	0x3b807192	0.0039197886
220	0xbe89db5a	-0.26925164
221	0x3dc00e9c	0.093777865
222	0xbe333a6d	-0.17502756
223	0xbe24e231	-0.1610191
224	0xbbf4cda6	-0.0074708043
225	0xbddc9488	-0.107705176
226	0xbb8a1d6e	-0.004214934
227	0x3e0906c1	0.13381483
228	0x3e2132d1	0.15742041
229	0xbd2e3a57	-0.042536106
230	0xbd1c5d2a	-0.038174786
231	0xbca3e4de	-0.020006593
232	0x3d8f89d9	0.07008714
233	0x3dd061f4	0.10174933
234	0xbdc091c8	-0.094028056
235	0xbde26f59	-0.11056394
236	0xbe1cf281	-0.15326883
237	0x3d26e5a8	0.04074636
238	0xbdbd354b	-0.092386805
239	0x3d3868d5	0.04502185
240	0x3d0ab7e6	0.033866785
241	0x3c4bc991	0.012438194
242	0x3d05551a	0.032551862
243	0x3e2a03be	0.1660299
244	0xbde5e011	-0.11224378
245	0xbcd8af5c	-0.026450805
246	0x3d9f0533	0.077646635
247	0x3cc4e663	0.024035638
248	0xbd88bca2	-0.06676604
249	0x3cfcbc64	0.03085155
250	0xbd9495f6	-0.07255165
251	0x3e110add	0.141643
252	0xbded0725	-0.11573628
253	0xbd11c944	-0.035592332
254	0xbd7d55c5	-0.061849374
255	0x3be00ad2	0.0068372274

0.bias f4 [128]
0	0x3dda5846	0.10661368
1	0x3e02db43	0.12778954
2	0xbbbb4d98	-0.005716037
3	0x3dffbe4f	0.1248747
4	0xbdc4d429	-0.09610779
5	0x3e2773a4	0.16352707
6	0xbe0ed9f3	-0.13950329
7	0x3f07bfe6	0.5302719
8	0x3d04469c	0.0322939
9	0xbf004565	-0.5010589
10	0x3e464160	0.19360876
11	0x3ea48d1f	0.32138917
12	0xbdcd385d	-0.10020516
13	0xbe3986d5	-0.1811784
14	0xbd62cac8	-0.05536917
15	0x3e09d748	0.1346103
16	0xbdd83b62	-0.105582014
17	0xbe6002ab	-0.21876018
18	0x3c1a5fa3	0.009422216
19	0xbd4c03d4	-0.04980834
20	0x3dc04dd5	0.09389845
21	0xbe65fe52	-0.22460297
22	0xbe5d962e	-0.2163932
23	0xbe614ef2	-0.22002771
24	0xbe10afd2	-0.1412957
25	0x3d82940c	0.06375894
26	0x3e426820	0.18985033
27	0x3ed4249a	0.41434175
28	0xbe931bc2	-0.28732115
29	0x3e6b989a	0.23007432
30	0x3e2677d9	0.16256656
31	0xbeacaad9	-0.33724096
32	0xbe7bbfe7	-0.24584924
33	0xbebcb1f3	-0.36854514
34	0xbd28f06e	-0.041244917
35	0xbe567028	-0.20941222
36	0x3e6b959b	0.23006289
37	0xbe1e7b0b	-0.15476625
38	0x3d95c87b	0.07313629
39	0xbda9d264	-0.08292082
40	0xbde05223	-0.10953166
41	0xbe1fd04d	-0.15606804
42	0x3c6f2d2c	0.014598172
43	0xbe1880ef	-0.14892934
44	0xbe2a9472	-0.1665819
45	0xbda2158e	-0.079142675
46	0x3ed94e39	0.42442492
47	0xbd3d097d	-0.046151627
48	0xbeae8a86	-0.3409006
49	0x3e662570	0.22475219
50	0xbe6ff48a	-0.23433128
51	0xbe58ca78	-0.21170986
52	0xbe86636f	-0.26247737
53	0x3e5c57a0	0.21517801
54	0xbe46615f	-0.19373082
55	0xbd060c6e	-0.032726698
56	0x3eb4147c	0.35171878
57	0x3e0c9d33	0.13731842
58	0x3dceda9a	0.10100289
59	0xbe01683a	-0.12637416
60	0xba6c21ce	-0.0009007723
61	0xbcd4fb48	-0.025998726
62	0xbe5b9747	-0.21444426
63	0x3e3cf55b	0.1845297
64	0xbe0c01e6	-0.13672599
65	0x3de6f024	0.11276272
66	0xbe555d0f	-0.2083628
67	0xbe4271c3	-0.18988709
68	0xbe0a8f28	-0.13531172
69	0xbe51c167	-0.20483933
70	0x3eb17db9	0.3466623
71	0x3e462d9a	0.19353333
72	0x3daa6ae4	0.08321169
73	0xbdc8bb64	-0.09801367
74	0x3d298d04	0.04139425
75	0x3d83b31f	0.06430649
76	0xbde09578	-0.10966009
77	0xbe64f684	-0.22359663
78	0x3cc19d17	0.023634477
79	0x3e1f0214	0.15528136
80	0xbe7aa7f4	-0.24478132
81	0x3e12e920	0.14346743
82	0x3df0755d	0.11741135
83	0x3ca4c439	0.020113098
84	0xbe4e115c	-0.2012381
85	0xbdae1ec0	-0.08501959
86	0x3e8320de	0.25611013
87	0x3e1e04b8	0.15431488
88	0xbdee0792	-0.11622538
89	0x3d1e97c6	0.03871896
90	0x3e0e315c	0.13886017
91	0xbddd64eb	-0.10810264
92	0xbdfb3cd6	-0.12267463
93	0xbe04a3e8	-0.1295315
94	0x3e73c58b	0.23805825
95	0xbe57a405	-0.21058662
96	0x3bb7b0d4	0.0056057964
97	0xbd9ab7fa	-0.07554622
98	0x3eb26f9a	0.3485077
99	0xbd8cda4b	-0.068775736
100	0x3eb69d3d	0.35666838
101	0xbe7b5b9e	-0.24546668
102	0xbe26140c	-0.16218585
103	0x3d574755	0.052558262
104	0xbe8d8f22	-0.27648264
105	0xbd8719ba	-0.06596704
106	0x3e5bf857	0.21481453
107	0xbe1eacac	-0.15495557
108	0xbe68efaf	-0.22747682
109	0xbe1bf11a	-0.15228692
110	0xbe32f90f	-0.17477821
111	0xbe91d8c3	-0.2848569
112	0xbe07c053	-0.1325696
113	0xbe204ccf	-0.156543
114	0x3dc4ed4c	0.09615573
115	0xbe611e8a	-0.21984306
116	0x3e07de3d	0.13268371
117	0xbd6e3410	-0.05815512
118	0xbd8a2950	-0.06746161
119	0xbe477645	-0.1947871
120	0x3de3948d	0.11112318
121	0xbe139224	-0.14411217
122	0x3e494ef3	0.19659023
123	0xbe9b63f7	-0.30349705
124	0xbe4c7725	-0.19967325
125	0xbe6607a1	-0.22463848
126	0x3d1f8293	0.038942885
127	0x3ca3b70b	0.019984743

2.weight f4 [128, 128]
0	0x3d352dcd	0.044233132
1	0xbc070197	-0.008240125
2	0xbcff5f05	-0.031173239
3	0xbd6f4609	-0.0584164
4	0x3d69bcd7	0.057064857
5	0xbc67957a	-0.014134759
6	0xbd2a33f6	-0.04155346
7	0x3d0754ce	0.03303986
8	0x3c07918e	0.008274449
9	0xbd080794	-0.033210352
10	0x3bd00d2c	0.0063492265
11	0x3d83c1b0	0.06433427
12	0xbb1bed71	-0.002379265
13	0xbd16e0d2	-0.0368355
14	0x3d9b8433	0.075935744
15	0xbd460630	-0.048345745
16	0xbd7c0638	-0.06152937
17	0xbd2b8dd4	-0.041883305
18	0xbda8b01a	-0.08236714
19	0x3d145281	0.036211494
20	0x3dab1d53	0.083552025
21	0xbd9ca0dc	-0.07647869
22	0x3d3e571c	0.046469793
23	0x3c2160e7	0.0098497635
24	0xbc2e7534	-0.010648061
25	0xbd7db433	-0.06193943
26	0xbd20de74	-0.039274648
27	0xbc36e5b7	-0.011163167
28	0x3cc8b2e1	0.024499359
29	0x3d5ab5a2	0.053395875
30	0xbd860107	-0.06543165
31	0xbc974858	-0.018467113
32	0xbc24883d	-0.010042247
33	0x3bd2b3c8	0.006430123
34	0xbd7f108b	-0.062271636
35	0x3d449df2	0.04800219
36	0x3cc3b7fb	0.02389144
37	0xbd526310	-0.051364005
38	0xbd4e9e59	-0.05044398
39	0xbbe78a44	-0.007066043
40	0x3ca89acd	0.020581627
41	0xbd7dabff	-0.061931606
42	0x3ca79b6e	0.020459857
43	0xbd1e7114	-0.03868206
44	0xbbdeea36	-0.0068028225
45	0x3c87d2d1	0.016580017
46	0x3d3b484a	0.045723237
47	0x3b74e87d	0.003737002
48	0xbd444efc	-0.047926888
49	0xbda317a5	-0.07963494
50	0x3d3dd867	0.046348955
51	0x3d9f63c9	0.077827044
52	0xbd59dd2b	-0.053189438
53	0xbd6397bf	-0.05556464
54	0x3c01bf8f	0.007919206
55	0xbc5bfabb	-0.013426478
56	0x3d99f5e8	0.07517606
57	0x3db694e1	0.08915115
58	0x3cfa8588	0.03058125
59	0x3dbd6b88	0.092490256
60	0x3da69e2e	0.08135639
61	0xbc0a68cc	-0.008447837
62	0x3d82f003	0.06393435
63	0xbd9d3c9b	-0.07677575
64	0xbcea405e	-0.028595146
65	0x3d9b3561	0.075785406
66	0xbd6166b1	-0.055029575
67	0xbb6052c4	-0.003422902
68	0xbd8b6c93	-0.06807818
69	0x3dc01855	0.09379641
70	0x3d7da6be	0.061926596
71	0xbd5051d7	-0.0508593
72	0x3dad534f	0.084631555
73	0xbd5d3ee0	-0.05401504
74	0x3d8e69c2	0.069537655
75	0xbacdea3e	-0.0015710068
76	0xbbbf2815	-0.0058336356
77	0x3d83a531	0.06427992
78	0xbda4eb47	-0.08052688
79	0xbd399d17	-0.04531583
80	0xbc041378	-0.008061282
81	0xbd8e0e21	-0.069362886
82	0x3ca29ab0	0.019849151
83	0xbd8fcaf1	-0.0702113
84	0xbd7857c5	-0.06063058
85	0x3d063c3c	0.032772288
86	0x3c35af06	0.011089092
87	0x3da241ce	0.079227075
88	0xbd934321	-0.07190538
89	0x3d9c6e8d	0.076382734
90	0x3d6f007d	0.058350075
91	0xbbf69d7b	-0.0075260974
92	0x3d46bd34	0.048520282
93	0xbd8f0f49	-0.06985337
94	0xbd6929c9	-0.056924615
95	0xbd73880e	-0.059455924
96	0xbd9774b7	-0.073953085
97	0xbd8e2244	-0.069401294
98	0x3d202249	0.039095197
99	0x3daff0d6	0.08590858
100	0x3c2084cd	0.009797287
101	0xbd0d7a7d	-0.034540642
102	0xbd6cfbeb	-0.057857435
103	0xbcc1d385	-0.02366043
104	0x3d5142c8	0.05108908
105	0xbd2d3d14	-0.042294577
106	0xbcef39ad	-0.029202307
107	0xbda1ef01	-0.079069145
108	0x3cb3543c	0.021890752
109	0x3dada4bd	0.08478687
110	0x3d397a80	0.04528284
111	0x3d9b843f	0.07593583
112	0x3d606a46	0.05478885
113	0x392ec7a0	0.00016668299
114	0xbd86b7d2	-0.0657803
115	0x3dbb75df	0.091533415
116	0xbc970582	-0.018435244
117	0x3dd09889	0.10185344
118	0xbd65d3fa	-0.05611036
119	0x3bd1b12d	0.006399295
120	0x3cab4b8f	0.020910053
121	0x3d5f1530	0.054463565
122	0x3bff2b62	0.007787154
123	0xbda5dd50	-0.08098853
124	0x3a1408b7	0.00056470506
125	0x3dbb608f	0.091492765
126	0x3c33c1ba	0.010971481
127	0x3d643043	0.05571009
128	0xbd0b96de	-0.034079425
129	0xbd765240	-0.060137033
130	0x3d5c4b8a	0.053782977
131	0x3d36841d	0.044559587
132	0xbc99e625	-0.0187865
133	0xbcce8288	-0.025208727
134	0xbd1102c0	-0.035403013
135	0x3cb4cb7a	0.022069681
136	0x3d812a0b	0.06306847
137	0xbdae024f	-0.08496534
138	0x3b205179	0.0024462624
139	0x3c4c1f25	0.012458597
140	0xbbb7a46c	-0.0056043174
141	0x3d45649d	0.048191655
142	0x3cd429cd	0.025898838
143	0x3d908eae	0.07058464
144	0xbd2ef7af	-0.04271668
145	0xbc5eb1dc	-0.01359221
146	0xbc50b52c	-0.012738507
147	0xbd4bec94	-0.049786165
148	0xbd216250	-0.0394004
149	0xbcf79915	-0.030224362
150	0xbcd1a7c3	-0.02559269
151	0xbd30725a	-0.043077804
152	0x3c574c88	0.013140805
153	0xbdaa5275	-0.08316509
154	0x3d9f8e6c	0.07790837
155	0xbcf523ee	-0.02992436
156	0x3d7a6c97	0.061138716
157	0x3bed9122	0.007249967
158	0xbd970532	-0.07374038
159	0xbdb5fd9d	-0.088862635
160	0xbc80fd4a	-0.015745778
161	0x3d4fefc8	0.050765783
162	0x3c4e623a	0.012596661
163	0x3d65f77e	0.05614423
164	0xbd64ccd8	-0.055859417
165	0xbdac186c	-0.084030956
166	0xbdb0871a	-0.086195186
167	0x3cbe477f	0.023227451
168	0x3d3cf074	0.04612775
169	0xbd1ea23f	-0.03872895
170	0x3cba83c2	0.022767905
171	0xbd904531	-0.07044447
172	0xbc85f9e3	-0.016354507
173	0x3d98f568	0.074686825
174	0xbce62d2c	-0.028097712
175	0x3d99ee60	0.075161695
176	0xbd5d0358	-0.053958267
177	0xbd4b15dc	-0.049581394
178	0x3d9fd660	0.07804561
179	0x3d8fa3b4	0.07013646
180	0x3c9da517	0.01924376
181	0xbcbdcaa7	-0.023167921
182	0x3d10bde6	0.03533735
183	0x3cddaab3	0.027058935
184	0xbd236237	-0.039888587
185	0xbd8b43c5	-0.068000354
186	0xbbd0b694	-0.0063694213
187	0xbd2f150b	-0.042744678
188	0xbcf06c51	-0.029348524
189	0x3c5bb079	0.013408774
190	0x3d9a6b35	0.07539979
191	0x3d90041c	0.07032034
192	0x3d8c981f	0.06864952
193	0x3d15cc3d	0.03657173
194	0x3cf5b48e	0.029993322
195	0xbc8d7421	-0.017267289
196	0x3bfe5897	0.0077620256
197	0xbbeec4f4	-0.0072866622
198	0xbd8e1e41	-0.06939364
199	0x3db41cfb	0.0879459
200	0x3d7a454e	0.06110125
201	0x3c151eb8	0.009101562
202	0x3d3f5349	0.046710286
203	0x3d24509d	0.04011594
204	0x3d82d2ba	0.06387849
205	0x3d457b1d	0.048213113
206	0xbc5c4d03	-0.013446095
207	0xbca80fe3	-0.020515388
208	0xbd4eadc1	-0.050458673
209	0x3bf3409c	0.0074234735
210	0x3d89c7b9	0.06727547
211	0xbda6966f	-0.08134162
212	0x3cb4277c	0.021991484
213	0xbd4a2dba	-0.049360014
214	0x3da1674f	0.07881033
215	0xbd9fba77	-0.07799237
216	0x3c2a904f	0.010410382
217	0x3d58d124	0.052933827
218	0xbcecef9a	-0.028922845
219	0x3c1e67f6	0.009668341
220	0x3cf84c55	0.030309835
221	0xbbacee64	-0.005277442
222	0xbce01fd2	-0.027358923
223	0x3da8f8d2	0.08250584
224	0xbdaa71e2	-0.08322503
225	0xbd6a7626	-0.05724158
226	0xbd09b957	-0.03362402
227	0x3bf473b5	0.0074600824
228	0xbc67c63d	-0.014146385
229	0x3c6f10f8	0.014591448
230	0xbc7191d0	-0.014744237
231	0xbd3b0987	-0.045663383
232	0x3c2cb338	0.010540776
233	0x3d7e063a	0.062017657
234	0x3d27bb40	0.04095006
235	0x3cad39f1	0.021145793
236	0xbd73f575	-0.059560258
237	0x3d4bcf9a	0.04975853
238	0xbc517f65	-0.012786721
239	0x3d6634d8	0.05620274
240	0xbd04d95b	-0.03243385
241	0xbd8a2bbf	-0.06746625
242	0x3d7973b6	0.060901366
243	0xbc9a8c4d	-0.018865729
244	0xbd1ae67d	-0.037817467
245	0x3d200d34	0.03907509
246	0xba2858d7	-0.00064219296
247	0xbd0875d3	-0.03331549
248	0xbc6a67ab	-0.014306943
249	0xb9211c69	-0.0001536474
250	0x3c79999d	0.015234378
251	0x3d812d52	0.06307472
252	0xbd09308b	-0.03349356
253	0xbcecc5cf	-0.028902916
254	0xba6cc17c	-0.0009031517
255	0x39d45391	0.00040498053

2.bias f4 [128]
0	0x3dbc2e28	0.09188491
1	0xbd2b36f1	-0.041800443
2	0xbcd857db	-0.02640908
3	0xbcdaf909	-0.026730077
4	0x3d34c71d	0.0441352
5	0xbdce9748	-0.10087448
6	0xbc4ef6c2	-0.012632074
7	0xbcf768df	-0.030201374
8	0x3e1f9fd4	0.15588313
9	0xbe1c7eb6	-0.15282711
10	0x3c2a63d9	0.010399782
11	0xbdf00292	-0.1171924
12	0xbd9aef24	-0.07565144
13	0x3d928157	0.07153576
14	0xbdba15c1	-0.090861805
15	0x3e3d7ec4	0.18505388
16	0x3e082e77	0.13298975
17	0x3e60d905	0.21957786
18	0xbd681759	-0.05666289
19	0xbc93e665	-0.018054197
20	0x3c2ecf3e	0.010669528
21	0xbe06bdb3	-0.13158302
22	0xbd8533fe	-0.06504057
23	0xbd72fa84	-0.05932094
24	0xbd7813cb	-0.06056575
25	0xbccb8832	-0.024845216
26	0xbe39295e	-0.18082187
27	0xbc8e7b98	-0.017392918
28	0x3c8e4cda	0.01737063
29	0x3cd66982	0.026173357
30	0x3dffd2c7	0.124913745
31	0xbddbf0b8	-0.10739273
32	0x3e2ebe47	0.17064773
33	0x3def2abc	0.11678073
34	0xbda08abe	-0.07838963
35	0xbde872d4	-0.11350027
36	0x3dbdb0bf	0.09262227
37	0x3c70f40d	0.014706624
38	0xbeaf6f83	-0.34264764
39	0xbdf4691f	-0.11934113
40	0xbcbe2168	-0.023209289
41	0xbca9ba56	-0.020718735
42	0xbd84b72e	-0.06480251
43	0xbde31670	-0.11088264
44	0x3de6c823	0.11268642
45	0x3e0a844b	0.13527028
46	0x3e03681e	0.12832686
47	0xbc804691	-0.015658649
48	0xbe1f9ca0	-0.15587091
49	0x3b94fcf7	0.0045467573
50	0x3df1a3a7	0.11798792
51	0x3d1712d8	0.036883205
52	0xbcef0f7c	-0.029182188
53	0xbd10dd12	-0.03536708
54	0xbd86080f	-0.06544506
55	0x3c2f20d4	0.010688979
56	0x3de724ee	0.11286341
57	0xbd833fa8	-0.06408626
58	0xbcfe2572	-0.031023715
59	0x3d7a1167	0.061051752
60	0xbcf4bec1	-0.029876115
61	0x3ca4e968	0.020130828
62	0x3db1c7df	0.086807005
63	0x3d9de076	0.07708828
64	0xbd5719bf	-0.052514788
65	0x3d887d5b	0.06664535
66	0xbd297f29	-0.041381035
67	0xbc1f10a4	-0.009708557
68	0xbc3b85e3	-0.011445495
69	0xbe8370f3	-0.2567211
70	0xbe18aa64	-0.14908749
71	0x3dba2f91	0.09091104
72	0xbdf01d12	-0.11724295
73	0x3dc78e41	0.0974393
74	0x3cff97f8	0.031200394
75	0x3daa4689	0.08314235
76	0xbd184374	-0.037173703
77	0xbe949f49	-0.29027775
78	0x3bae436f	0.0053180973
79	0xbdaf3cf8	-0.08556551
80	0xbd028d70	-0.031873167
81	0x3c35b575	0.011090626
82	0xbd82b4a7	-0.06382113
83	0xbd2b01b7	-0.041749682
84	0xbe5cbfa5	-0.21557482
85	0x3d87cf7e	0.06631373
86	0x3c751344	0.014958207
87	0xbd9f78b0	-0.07786691
88	0x3e027bf1	0.12742592
89	0xbdbb3330	-0.091406226
90	0xbd99bdfa	-0.07506938
91	0x3ca3534a	0.019937176
92	0x3bc9b86a	0.006156017
93	0x3d48e595	0.04904707
94	0xbdf65a90	-0.12028992
95	0x3c8d2e35	0.017233947
96	0x3d15312d	0.03642385
97	0x3cf6a061	0.030105771
98	0xbce32356	-0.02772681
99	0x3be6c2d1	0.007042267
100	0x3cd2a19e	0.02571183
101	0x3d02443b	0.03180335
102	0xbca1153c	-0.019663446
103	0xbdb5cb67	-0.088766865
104	0xbc5d2a8f	-0.013498916
105	0x3df4c7f2	0.11952199
106	0xbd60b70b	-0.054862063
107	0x3d3944e7	0.045231726
108	0x3cf596f1	0.029979201
109	0xbe07d435	-0.13264544
110	0xbd23eb59	-0.040019367
111	0xbd4ce94b	-0.050027173
112	0xbd08494f	-0.033273038
113	0xbdb53b46	-0.08849196
114	0xbd84a6d7	-0.06477135
115	0x3d1412b5	0.036150653
116	0xbd0e42d9	-0.03473172
117	0x3cca4fed	0.024696315
118	0x3d4a5b06	0.049403213
119	0x3c0aa244	0.008461539
120	0x3c850ef1	0.016242476
121	0x3d6830de	0.05668723
122	0x3d81f7eb	0.06346115
123	0xbd58486b	-0.05280344
124	0x3b9677e3	0.0045919283
125	0x3cdb04aa	0.026735622
126	0xbd1ec25f	-0.038759585
127	0x3c70e7ed	0.014703733

4.weight f4 [128, 128]
0	0x3d44268c	0.047888324
1	0x3cc85734	0.024455644
2	0xbd188aa9	-0.03724161
3	0x3d4f11aa	0.050553955
4	0x3aa7af66	0.0012793362
5	0xbd4aedf0	-0.04954332
6	0x3bdc290a	0.0067187594
7	0xbc143d07	-0.009047753
8	0x3cd53597	0.02602653
9	0x3c5f4928	0.013628282
10	0x3d8adbd5	0.06780211
11	0x3bde03bd	0.006775348
12	0x3c014f82	0.007892491
13	0xbbe2f748	-0.006926451
14	0xbd7ccaf1	-0.061716978
15	0x3d31c41b	0.04339991
16	0x3d97bd0c	0.07409105
17	0xbd1c836a	-0.038211264
18	0xbd6cf67d	-0.057852257
19	0xbd0c0ce0	-0.034191966
20	0xbb5aa0c7	-0.003335999
21	0x3d93801e	0.07202171
22	0xbc84512f	-0.016151993
23	0x3da628fa	0.081132844
24	0x3d924e87	0.07143884
25	0xbd901ceb	-0.07036766
26	0xbdb2a75a	-0.08723326
27	0xbc148a18	-0.009066127
28	0xbc3b8aa0	-0.011446625
29	0x3c3c77dc	0.011503186
30	0xbc0e01b2	-0.008667396
31	0xbd1f8dfa	-0.03895376
32	0x3c7a1f73	0.015266287
33	0xbd33a6b8	-0.043860167
34	0x3d4381af	0.047731098
35	0x3d80e2e3	0.06293275
36	0xbd94916f	-0.07254302
37	0xbd8899fe	-0.06669997
38	0x3d897aca	0.06712873
39	0xbca1fef5	-0.019774893
40	0x3d12eb95	0.0358692
41	0xbdad8871	-0.0847329
42	0xbd58d3ab	-0.052936237
43	0xbd8de969	-0.06929285
44	0xbcfc784c	-0.03081908
45	0xbd88eab7	-0.06685393
46	0xbd0263ea	-0.031833567
47	0x3bcb263a	0.0061996253
48	0xbd0b9089	-0.034073386
49	0x3d32ecad	0.043682743
50	0xbd0b9b7b	-0.034083825
51	0xbd8b2855	-0.06794802
52	0xbcbcd2f3	-0.023049807
53	0x3d43965e	0.047750823
54	0xbc8e30cd	-0.017357254
55	0xbd3c3644	-0.04595019
56	0xbd066cc6	-0.03281858
57	0x3d8fd4fd	0.07023046
58	0xbd930ef7	-0.07180589
59	0xbd4827a0	-0.048865914
60	0xbd98d581	-0.07462598
61	0x3d9944d7	0.07483833
62	0xbd44aad8	-0.04801449
63	0x3da1a953	0.07893624
64	0xbca36400	-0.019945145
65	0xbd67f35a	-0.056628563
66	0xbd31b23a	-0.04338286
67	0xbd8d0f72	-0.068877116
68	0x3c5bc810	0.013414398
69	0xbd090bd8	-0.03345856
70	0x3da14766	0.07874946
71	0x3c02c1cc	0.007980775
72	0x3c827017	0.01592259
73	0xbd26e71b	-0.040747743
74	0xbcdfa098	-0.027298257
75	0xbd44ac01	-0.0480156
76	0x3cd3bf9f	0.025848208
77	0x3d2e598d	0.04256587
78	0xbd6717ea	-0.05641929
79	0x3d202e92	0.039106913
80	0xbdadafc3	-0.084807895
81	0x3d546114	0.051850393
82	0x3d3d4bce	0.04621487
83	0xbccb829d	-0.024842555
84	0x3c8e3280	0.017358065
85	0xbd797eff	-0.06091213
86	0xbc8a0ad0	-0.016850859
87	0x3cbf1e59	0.0233299
88	0x3d30b5d0	0.04314214
89	0xbd9203b0	-0.071296096
90	0xbd96bf78	-0.073607385
91	0x3d8da53d	0.06916282
92	0x3cfdc429	0.030977326
93	0x3d9c9f5b	0.07647582
94	0xbda0c23b	-0.078495465
95	0xbd287692	-0.041128702
96	0xbd194595	-0.037419874
97	0xbc819c38	-0.015821561
98	0x3c069b3d	0.008215723
99	0xbc95a018	-0.018264815
100	0x3d40c02d	0.047058273
101	0xbd5a5da2	-0.05331195
102	0x3d99e719	0.075147815
103	0xbd3191f2	-0.043352075
104	0x3d47098a	0.04859308
105	0x3d94a4a2	0.07257964
106	0xbda0197e	-0.07817362
107	0x3cc8c594	0.024508275
108	0x3ca70b40	0.020391107
109	0x3da52f3c	0.0806565
110	0x3d49ae99	0.049238775
111	0xbdb1e9a5	-0.08687142
112	0xbd0279c9	-0.031854425
113	0xbd8deacb	-0.06929549
114	0xbd3f4cb4	-0.04670401
115	0xbcd90deb	-0.026495894
116	0x3d098b0c	0.03357987
117	0xbdaeff5a	-0.08544798
118	0x3bb02567	0.0053755525
119	0xbda3f327	-0.08005362
120	0xbc8b4ee7	-0.017005397
121	0xbdab3ce3	-0.083612226
122	0xbd7727aa	-0.06034056
123	0xbd1e3e24	-0.03863348
124	0x3d10bb47	0.03533485
125	0xbd49b4cc	-0.049244687
126	0xbd5643f5	-0.052310903
127	0x3d1ec168	0.038758665
128	0xbd2e5cad	-0.04256885
129	0x3cfde057	0.030990763
130	0x3dbfd6da	0.093671516
131	0x3d9fb42e	0.077980384
132	0xbc73d62d	-0.014882606
133	0x3d35fc68	0.044430166
134	0xbcca0fdb	-0.024665764
135	0x3d876754	0.06611505
136	0x3b66b4d2	0.0035202992
137	0x3bf4dd51	0.007472672
138	0xbdb06e6d	-0.08614812
139	0x3da14685	0.07874779
140	0x3d74a699	0.059729192
141	0xbc29219c	-0.0103229545
142	0xbd36868b	-0.044561904
143	0xbce9abee	-0.028524365
144	0xbda10e55	-0.07864062
145	0xbd58c31a	-0.05292044
146	0x3d27707a	0.04087875
147	0xbd60e5b8	-0.054906577
148	0x3d21db9b	0.039516073
149	0xbd2a8646	-0.04163196
150	0xbd2c6987	-0.042092826
151	0xbda57e0c	-0.08080682
152	0x3c1c244d	0.009530139
153	0xbd02be7f	-0.031919952
154	0xbd2dac7e	-0.04240083
155	0xbb1d3a67	-0.002399111
156	0xbd435fd2	-0.047698803
157	0x3c9364ac	0.01799234
158	0x3d79995e	0.060937278
159	0xbd1e7f44	-0.03869559
160	0x3cf2e183	0.029648548
161	0xbce9f670	-0.028559893
162	0x3cd255e9	0.02567573
163	0xbd9015dd	-0.0703542
164	0xbd5ba93f	-0.053628203
165	0xbd1e8fe4	-0.038711444
166	0x3a150f3f	0.0005686171
167	0xbc7ff94a	-0.0156234
168	0xbcd55b35	-0.026044467
169	0x3d5517e1	0.052024726
170	0xbd7955d1	-0.060872857
171	0x3db33641	0.087505825
172	0x3ca0fc2a	0.019651491
173	0x3b4cf845	0.003127591
174	0x3d9181d9	0.071048446
175	0x3d80327d	0.0625963
176	0xbcb64e34	-0.022254087
177	0x3cf4ae0c	0.029868148
178	0xbd111aba	-0.03542588
179	0x3d465f69	0.048430834
180	0x3d6e140d	0.05812459
181	0x3ca0f465	0.019647786
182	0x3a9846db	0.0011617796
183	0xbd064269	-0.032778177
184	0xbcd1a634	-0.025591947
185	0x3d960cba	0.07326646
186	0x3cb2c7a8	0.02182372
187	0x3cf1b354	0.029504456
188	0xbbf87635	-0.0075824508
189	0xbc2dcab2	-0.010607408
190	0x3d86f977	0.065905504
191	0xbd8900b0	-0.06689584
192	0x3c66f055	0.014095386
193	0xbc80fcc3	-0.015745526
194	0xbceb0bb6	-0.028692108
195	0xbd99ad59	-0.075037666
196	0x3d5a2d0b	0.053265613
197	0xbd967cc1	-0.07348014
198	0xbd007763	-0.031363856
199	0x3c751bab	0.01496021
200	0x3d3c1ed7	0.04592785
201	0xbdb37e9f	-0.087643854
202	0x3d3e576a	0.046470083
203	0xbd025796	-0.03182181
204	0x3ce54630	0.02798757
205	0xbd9e87c8	-0.07740742
206	0xbd9dc3c3	-0.07703354
207	0x3da4a05c	0.080383986
208	0x3d000fc3	0.03126503
209	0x3c930e16	0.017951053
210	0x3d3cbe70	0.046080053
211	0x3da2b80e	0.07945262
212	0x3d6610b9	0.05616829
213	0x3cdd47da	0.0270118
214	0xbd92323f	-0.0713849
215	0x3dbdd006	0.09268193
216	0xbbb1ac1c	-0.0054221284
217	0xbc8f6404	-0.017503746
218	0x3c983ad1	0.018582733
219	0x3d8a7248	0.06760079
220	0xbc5bb7e7	-0.013410545
221	0xbd32fe3b	-0.043699484
222	0x3d4b8092	0.04968316
223	0x3d946d82	0.072474495
224	0x3cd81ad6	0.026379984
225	0x3c49b30b	0.012310754
226	0x3b3268de	0.002722315
227	0x3c94663f	0.018115161
228	0xbd9c4001	-0.07629395
229	0xbd37202d	-0.04470842
230	0x3d1da6dc	0.038489208
231	0x3cb61bf4	0.022230126
232	0x3d157811	0.036491457
233	0x3b919413	0.0044427007
234	0xbd479ebd	-0.04873537
235	0xbd166f81	-0.036727432
236	0xbc80092e	-0.015629377
237	0xbd74cd0f	-0.05976587
238	0x3dabde0a	0.0839196
239	0xbd480c8c	-0.04884009
240	0x3c03c0c1	0.008041562
241	0x3db472b1	0.08810938
242	0xbd95552a	-0.072916344
243	0xbda2d853	-0.07951417
244	0x3d1c3008	0.038131744
245	0x3d6407b6	0.055671416
246	0xbd21d46d	-0.039509226
247	0x3d27daee	0.040980272
248	0x3d7bf12e	0.061509304
249	0xbd003da6	-0.031308793
250	0x3d93ea52	0.072224274
251	0x3bd3d598	0.0064646713
252	0xbc8562e7	-0.016282512
253	0x3d00f068	0.03147927
254	0x3d461e72	0.04836888
255	0x3dadfaa9	0.08495075

4.bias f4 [128]
0	0xbd09e5f3	-0.033666562
1	0x3d14de4c	0.03634481
2	0x3dc1073c	0.09425208
3	0xbdb2f0b2	-0.08737315
4	0xbd8e9dde	-0.069637045
5	0xbd1bd341	-0.038043264
6	0xbcd32150	-0.02577272
7	0xbd95c9f2	-0.07313909
8	0x3dc7ebb6	0.09761755
9	0x3dae1927	0.08500891
10	0xbd6196c9	-0.05507544
11	0x3cafee90	0.02147606
12	0xbc9fb0e6	-0.019493531
13	0xba98cf30	-0.0011658426
14	0x3d963213	0.0733377
15	0x3d045e6b	0.032316606
16	0xbe00aa88	-0.12565053
17	0x3d2bb75b	0.04192291
18	0x3de4c968	0.11171228
19	0xbd74bef5	-0.059752423
20	0xbca23d73	-0.019804692
21	0x3c3fb1da	0.011700118
22	0x3d150f1e	0.03639137
23	0xbd990d9f	-0.07473301
24	0x3de8ada1	0.11361242
25	0xbd84a709	-0.06477172
26	0xbd3796b3	-0.044821452
27	0xbda6fa6e	-0.081532344
28	0xbda43746	-0.08018355
29	0xbd5a4c06	-0.053295158
30	0xbcae7d82	-0.021300081
31	0x3dcccc80	0.09999943
32	0xbc995d55	-0.018721262
33	0xbcada031	-0.02119455
34	0xbd7e6c66	-0.062115096
35	0xbd61d86c	-0.055138037
36	0x3caadb93	0.020856654
37	0x3d0373c3	0.03209282
38	0xbd2a0c66	-0.04151573
39	0xbcedae9a	-0.02901392
40	0x3c4d47e7	0.01252935
41	0xbd0a90a6	-0.033829354
42	0x3de86b63	0.113486074
43	0x3e178a72	0.14798906
44	0x3d5989a9	0.0531098
45	0x3daa3cfc	0.08312413
46	0xbc5d1a97	-0.013495109
47	0xbd189331	-0.037249748
48	0xbca441ec	-0.020050965
49	0x3d7f7b87	0.062373664
50	0x3cc77953	0.024349844
51	0xbd3dd239	-0.046343062
52	0x3bbb5e46	0.0057180254
53	0xba163ef0	-0.00057314243
54	0xbd1ebce3	-0.038754355
55	0xbd1c0124	-0.038087025
56	0xbc2f13c1	-0.010685862
57	0xbdaad79a	-0.08341904
58	0xbd202e63	-0.039106738
59	0x3e103bbe	0.1408529
60	0x3cb4afbf	0.022056459
61	0xbc45d1b6	-0.012073925
62	0x3de9b114	0.11410728
63	0x3d401570	0.046895444
64	0xbdb9d17e	-0.090731606
65	0xbd9791d8	-0.07400864
66	0x3c671527	0.014104164
67	0xbd383aef	-0.04497808
68	0x3da35507	0.07975202
69	0x3d328a00	0.04358864
70	0x3dd0ea18	0.102009
71	0xbd8579a2	-0.0651734
72	0x3d2b3704	0.041800514
73	0x3e274c85	0.16337784
74	0x3e49ec03	0.19718938
75	0x3e1045a2	0.14089063
76	0xbcfcd75e	-0.030864414
77	0xbd9fa75f	-0.077955954
78	0x3d70f97d	0.05883168
79	0xbd5df077	-0.054184403
80	0xbaeecafe	-0.0018218455
81	0x3d93d743	0.07218792
82	0xbd58689a	-0.05283413
83	0xbd2e8ec8	-0.042616636
84	0x3ddb9910	0.10722554
85	0x3ce32ab4	0.027730323
86	0x3ddcd18d	0.10782156
87	0xbc27bcd4	-0.010237891
88	0xbd8d2c51	-0.06893218
89	0xbc4509dc	-0.012026276
90	0x3e0329b7	0.12808882
91	0x3d624ec3	0.055250894
92	0xbd9888f8	-0.07448
93	0xbc87c456	-0.016573112
94	0x3d60b1fd	0.054857243
95	0x3da21046	0.0791326
96	0x3dd3c1ed	0.10339723
97	0x3db7a74a	0.08967455
98	0xbd550ae7	-0.05201235
99	0x3bb07a8a	0.0053857015
100	0x3ccbc5a0	0.024874508
101	0xbcbb35f0	-0.022852868
102	0x3c71bc5b	0.01475438
103	0xbcca4a7e	-0.024693724
104	0x3df86282	0.12128164
105	0x3c4a3d34	0.0123436935
106	0xbd12729f	-0.035753842
107	0xbcf3621f	-0.029709874
108	0x3deabb9a	0.114615634
109	0x3c26c79b	0.010179426
110	0xbd39399c	-0.045220956
111	0xbd43a150	-0.04776126
112	0xbd38a684	-0.045080677
113	0x3ca7a872	0.020466063
114	0x3e3ea011	0.18615748
115	0xbd31d344	-0.04341437
116	0xbd93ca82	-0.0721636
117	0xbd57e00f	-0.052703913
118	0xbcd43911	-0.025906118
119	0xbbeb4aea	-0.0071805613
120	0x3d5513fb	0.052021008
121	0x3da77803	0.08177187
122	0x3dfd8ca9	0.123803444
123	0x3bbb7c3f	0.0057215984
124	0x3d13b971	0.036065523
125	0x3befb6fb	0.007315514
126	0x3dcecde0	0.10097861
127	0x3d36503d	0.044510115

6.weight f4 [128, 128]
0	0x3bf1570a	0.007365112
1	0x3d4f1be6	0.050563715
2	0xbc973192	-0.018456254
3	0xbc2ea0b5	-0.010658433
4	0x3d0f5e2c	0.03500192
5	0xbd8070ec	-0.06271538
6	0x3c809194	0.015694417
7	0x3d63010c	0.05542092
8	0x3d8e9568	0.06962091
9	0x3d20f629	0.039297257
10	0xbd292f6a	-0.041304983
11	0xbd4a5269	-0.049395
12	0x3d8bda16	0.06828706
13	0xbdb02a8f	-0.086018674
14	0x3dbeb251	0.09311355
15	0xbd1071ea	-0.035264887
16	0x3d518daa	0.051160492
17	0xbc287a99	-0.010283136
18	0x3d9e5266	0.0773056
19	0xbd885998	-0.06657714
20	0x3d9fa9d0	0.07796061
21	0x3d8ca5bb	0.06867548
22	0x3b95eb57	0.004575174
23	0x3db4aa42	0.088215366
24	0xbd5bc53e	-0.0536549
25	0xbc5a50eb	-0.013324956
26	0x3a83a61c	0.0010044011
27	0xbc3dc775	-0.011583199
28	0xbd919334	-0.07108155
29	0xbaadd0c0	-0.0013261065
30	0x3c1fbca0	0.009749562
31	0x3de74872	0.11293115
32	0xbc8839bc	-0.016629092
33	0x3d630125	0.055421013
34	0xbc88e9b1	-0.016712995
35	0xbcc596c3	-0.02411974
36	0x3d9d7cb7	0.07689803
37	0xbdc35c2c	-0.09539065
38	0x3d055957	0.032555904
39	0x3d1835b2	0.037160583
40	0x3d95c48c	0.07312879
41	0xbd3263b0	-0.0435521
42	0xbcc285a5	-0.023745367
43	0xbd7eaac6	-0.06217458
44	0x3d2ad59f	0.04170763
45	0x3c9033db	0.017602852
46	0x3d2f1cc1	0.04275203
47	0x3d227e50	0.039671242
48	0xbc3ff324	-0.011715684
49	0xbd626414	-0.055271223
50	0xbc471583	-0.012151125
51	0x3d4a13cb	0.049335282
52	0x3d37eeaa	0.044905342
53	0x3d80774b	0.06272753
54	0x3d8841fc	0.066532105
55	0xbdb0d730	-0.08634794
56	0x3cae1411	0.021249803
57	0x3d375a61	0.044763926
58	0xbd3bce00	-0.045850754
59	0xbdb0978b	-0.086226545
60	0x3c85566b	0.016276559
61	0xbd075d01	-0.03304768
62	0xbd318bb0	-0.043346107
63	0x3d92b472	0.071633235
64	0xbd209121	-0.039200906
65	0xbd44c755	-0.04804166
66	0xbdd0a00c	-0.101867765
67	0x3d97d9f7	0.0741462
68	0x3d5e8b0c	0.054331824
69	0x3d05c59b	0.032659154
70	0x3cfcc2cd	0.030854607
71	0xbd9a3441	-0.07529498
72	0xbd75e185	-0.060029525
73	0x3d6cd4a5	0.05781998
74	0xbd3a67ce	-0.045509152
75	0xbd8c2ca1	-0.0684445
76	0xbcf3c5d6	-0.029757421
77	0xbd3ccf6a	-0.046096243
78	0x3cd34d50	0.025793701
79	0xbcd7ca67	-0.02634163
80	0xbd6d87d3	-0.05799086
81	0x3b213c71	0.0024602676
82	0xbd712cce	-0.05888062
83	0xbd8297f2	-0.063766375
84	0xbd013b37	-0.031550612
85	0xbd10597e	-0.035241596
86	0xbd02a7d3	-0.03189833
87	0x3db1aeb9	0.08675904
88	0x3cea203b	0.028579822
89	0xbd35e888	-0.044411212
90	0x3cee5fde	0.029098447
91	0xbd9cb3e4	-0.07651499
92	0xbd875d27	-0.06609564
93	0x3b387ab4	0.0028149309
94	0x3dd5783a	0.10423322
95	0x3db2bc8c	0.08727369
96	0xbb943f2d	-0.0045241327
97	0xbc36be4b	-0.011153768
98	0xbd007a76	-0.031366788
99	0xbc83545d	-0.016031438
100	0xbd01205a	-0.031524993
101	0xbdb8d05a	-0.09024115
102	0xbd52bcce	-0.05144959
103	0xbc7c02b5	-0.015381505
104	0x3d011a05	0.031518955
105	0x3dc6415f	0.09680437
106	0x3dd5d662	0.10441281
107	0x3db0f8ed	0.08641229
108	0x3d8dad2c	0.069177955
109	0x3db1b8cf	0.086778276
110	0x3d8cbe94	0.068722874
111	0x3d4613aa	0.048358597
112	0x3d08861b	0.033331018
113	0x3d64b93f	0.055840727
114	0x3aecdfb4	0.001807204
115	0xbcbfd3f3	-0.023416495
116	0x3d10276c	0.035193846
117	0xbd8d66e6	-0.06904392
118	0x3d5c08ab	0.053719204
119	0x3de74115	0.1129171
120	0x3da6b8be	0.081407055
121	0xbd8c9dce	-0.06866036
122	0x3d94b09a	0.072602466
123	0x3cbe1637	0.023203952
124	0x3d5f356a	0.0544943
125	0x3d02b4aa	0.031910576
126	0x3d8da7d6	0.06916778
127	0xbdac2da8	-0.08407146
128	0x3db2b089	0.08725078
129	0xbd964cf3	-0.07338896
130	0xbd51f099	-0.051254842
131	0x3c924b81	0.017858269
132	0xbbcac5e2	-0.0061881403
133	0xbd7aaec7	-0.061201837
134	0x3d84f6bb	0.064923726
135	0x3c8b7e24	0.017027922
136	0xbcadbf00	-0.02120924
137	0x3d156f87	0.036483314
138	0xbd9614cf	-0.07328188
139	0xbd96e451	-0.07367767
140	0x3d858e3f	0.06521272
141	0x3d62ee17	0.05540284
142	0x3d7c14d6	0.06154331
143	0x3d3aff74	0.045653775
144	0xbd5858e0	-0.052819133
145	0x3d964f10	0.07339299
146	0x3d05afd3	0.032638382
147	0x3d9052a8	0.070470154
148	0xbd894ecd	-0.06704483
149	0xbdb8a242	-0.09015323
150	0xbd74826f	-0.059694704
151	0xbd2dec7a	-0.04246185
152	0x3bd6c373	0.006554061
153	0xbbdc2efa	-0.006719467
154	0x3dc7d8a1	0.097581156
155	0xbc889bcb	-0.01667585
156	0xbc6f5e43	-0.014609876
157	0x3d8150bc	0.06314227
158	0x3ddcba91	0.10777772
159	0x3bff2a38	0.0077870153
160	0x3dad3e42	0.0845914
161	0xbd496e16	-0.04917725
162	0x3dad5a2c	0.084644645
163	0x3cf2deed	0.029647315
164	0x3bfb4f81	0.0076693897
165	0x3db0f174	0.086398035
166	0x3d90550f	0.07047474
167	0xbd620299	-0.05517826
168	0xbd0a6b75	-0.033793885
169	0xbdaf584c	-0.08561763
170	0xbc62924d	-0.013828826
171	0x39c2b90b	0.0003714043
172	0x3d24c800	0.040229797
173	0x3c860ff5	0.01636503
174	0xbd654579	-0.055974457
175	0x3db5f486	0.0888453
176	0x3abb132e	0.0014272684
177	0xbd3aaa2c	-0.045572445
178	0x3d2ffb51	0.042964283
179	0x3d51b061	0.0511936
180	0x3d0a9776	0.03383585
181	0xbd190fd2	-0.037368603
182	0xbc1fb42d	-0.009747547
183	0x3d8bf54c	0.06833896
184	0x3d6c88aa	0.05774752
185	0xbb1b319a	-0.0023680688
186	0xbc9ead9c	-0.019369893
187	0x3d9e08fe	0.07716559
188	0xbc549bbb	-0.012976582
189	0x3d159d49	0.036526952
190	0x3d71298f	0.058877524
191	0xbd9d2370	-0.07672775
192	0xbd42b097	-0.04753169
193	0xbd81d7fb	-0.06340023
194	0x3b8b8172	0.0042573744
195	0xbccc10c6	-0.024910342
196	0xbd4516a2	-0.048117287
197	0x3dbfacdf	0.093591444
198	0x3dd626f1	0.10456646
199	0xbc8a2538	-0.01686345
200	0x3c973ce8	0.01846166
201	0xbb5c3a6d	-0.003360416
202	0x3b8aa50f	0.0042311023
203	0x3d6d4b9e	0.057933442
204	0x3d1b722d	0.037950683
205	0x3dba7002	0.09103395
206	0xbd452763	-0.048133265
207	0xbda5f042	-0.08102466
208	0xbc7478ef	-0.014921411
209	0x3ca383a8	0.01996024
210	0x3b3ac640	0.0028499514
211	0x3db8bdf7	0.09020608
212	0x3d718da4	0.05897297
213	0x3d1a0914	0.037606314
214	0x3b6186e1	0.003441267
215	0xbbfe3067	-0.007757235
216	0xbc2ed5b2	-0.010671066
217	0x3c08be2f	0.008346125
218	0xbc8b997c	-0.01704096
219	0x3c186aac	0.009302776
220	0x3d760695	0.06006487
221	0x3d42de8a	0.04757551
222	0x3d45cfdf	0.048293944
223	0x3d2db6c9	0.042410646
224	0xbc486252	-0.012230473
225	0xbd19a834	-0.037513927
226	0x3d525779	0.05135295
227	0x3baff88f	0.0053702067
228	0x3db89a1a	0.090137675
229	0xbbe8ac4a	-0.0071006166
230	0x3dcfad0f	0.1014043
231	0xbd92ba26	-0.07164411
232	0x3df1240f	0.11774456
233	0xbcae64fd	-0.02128839
234	0x3c4ad411	0.012379662
235	0xbca5eab8	-0.020253524
236	0xbc8be034	-0.017074682
237	0x3d0f28d0	0.03495103
238	0x3ddbe342	0.10736705
239	0xbc2cdd30	-0.010550782
240	0xbc1be58e	-0.009515179
241	0xbd2a6748	-0.041602403
242	0xbc66e93b	-0.014093692
243	0xbaed1d43	-0.0018090386
244	0x3dc91b3b	0.09819647
245	0xbda8dc59	-0.08245153
246	0xbd8b527e	-0.068028435
247	0x3cca75aa	0.02471431
248	0xbcd965b7	-0.02653776
249	0x3d253398	0.040332407
250	0x3d281d79	0.041043732
251	0xbd69a9c0	-0.05704665
252	0x3ca399f7	0.019970877
253	0x3ce926d9	0.028460907
254	0x3c79125e	0.015202133
255	0xbda85c72	-0.082207575

6.bias f4 [128]
0	0x3be4d79a	0.0069837095
1	0x3e11da1b	0.14243357
2	0x3cdc12ea	0.026864488
3	0x3da72eaa	0.08163197
4	0xbd8ce94b	-0.068804346
5	0xbcb079fa	-0.021542538
6	0x3e541164	0.20709759
7	0x3d3d5847	0.046226766
8	0x3e63e1ea	0.22254148
9	0x3e4290de	0.19000575
10	0x3c4458fd	0.011984107
11	0xbdde68c3	-0.108598255
12	0xbdaf8ff3	-0.08572378
13	0xba04bd8d	-0.00050636457
14	0x3c385657	0.011251054
15	0x3d4694c0	0.048481703
16	0xbdbc41e5	-0.09192256
17	0xbc781b87	-0.015143282
18	0xbd9d8352	-0.07691063
19	0x3c8378db	0.01604884
20	0x3d72287a	0.059120633
21	0x3e21b06c	0.15789956
22	0xbd3b5e15	-0.04574402
23	0xbd99ce33	-0.075100325
24	0xbae08d89	-0.0017132025
25	0x3d0ed5fc	0.03487204
26	0x3cf6ca6f	0.030125825
27	0xbd1d23ae	-0.038364105
28	0x3cfe349e	0.03103095
29	0xbd7638a0	-0.060112596
30	0x3d8906e0	0.066907644
31	0xbd2201ef	-0.039552625
32	0x3e275f88	0.16345036
33	0xbd0016d9	-0.03127179
34	0x3c205c70	0.009787664
35	0xbd7db507	-0.06194022
36	0xbde892a5	-0.11356095
37	0x3d609eae	0.05483883
38	0x3ca636a9	0.020289736
39	0x3e03be0b	0.12865464
40	0xbd7188d9	-0.0589684
41	0x3e696922	0.22794011
42	0x3e001afe	0.12510297
43	0x3adf1316	0.0017019238
44	0xbdaf575f	-0.085615866
45	0x3d342b6a	0.043986715
46	0x3d7f9f05	0.062407512
47	0xbdd05fb6	-0.101745054
48	0xbcf4ce8e	-0.02988365
49	0xbc4377b0	-0.011930391
50	0xbd8f5fac	-0.0700067
51	0xbdc32a63	-0.09529569
52	0x3d554670	0.052069128
53	0xbc7c2ed6	-0.015392026
54	0x3d8b3e7d	0.06799028
55	0x3e045d95	0.12926324
56	0xbd63aebb	-0.055586558
57	0xba09d610	-0.0005258033
58	0x3e52a5c2	0.20571044
59	0xbd4e5763	-0.050376307
60	0x3d215958	0.039391845
61	0xbd4347dc	-0.047675952
62	0x3b86a5bd	0.004109113
63	0x3e885e50	0.26634455
64	0x3a2706f9	0.00063715834
65	0xbcd00fb7	-0.025398118
66	0xbd2b2500	-0.041783333
67	0x3cf9570b	0.030437013
68	0xbdad9afa	-0.08476825
69	0xbd4916ee	-0.049094133
70	0xbd091b98	-0.03347358
71	0x3d04c51e	0.032414548
72	0x3d1f9d23	0.038968217
73	0xbdad26b2	-0.08454646
74	0x3bd83202	0.0065977583
75	0x3e3151d7	0.17316376
76	0x3c2fd6d3	0.01073237
77	0xbdb19668	-0.08671266
78	0xbd0d625b	-0.034517627
79	0xbd010eee	-0.03150838
80	0x3b52374e	0.0032076421
81	0xbbc78c2c	-0.006089708
82	0xbdaf282c	-0.08552584
83	0xbd224bae	-0.039622955
84	0xbd5be576	-0.053685628
85	0xbcf8622a	-0.030320246
86	0x3c5fa479	0.013650053
87	0x3c0157bb	0.007894452
88	0xbb9eaea9	-0.0048425985
89	0xbaf04606	-0.0018331415
90	0xbd539f6d	-0.051665712
91	0x3d9abd4d	0.075556375
92	0xbde8ef15	-0.11373726
93	0xbd9873a1	-0.074439295
94	0xbd40f812	-0.04711158
95	0xbdb1318d	-0.08652029
96	0xbc21b0d4	-0.009868819
97	0x3d03e439	0.032200072
98	0x3ca027f8	0.019550309
99	0x3e002464	0.12513882
100	0xbcfdf720	-0.031001627
101	0x3e09c4be	0.13453957
102	0xbd9bbf1b	-0.0760481
103	0x3e9a2d1f	0.3011255
104	0xbd8bf7b3	-0.06834354
105	0xbdb11d9e	-0.08648227
106	0xbd31defa	-0.043425538
107	0xbd0aecb0	-0.03391713
108	0x3bb3abe5	0.005483138
109	0xbd33f7dd	-0.043937553
110	0x3dde8938	0.10866016
111	0xbd43e02e	-0.047821216
112	0xbc24f073	-0.010067093
113	0x3d6e3e37	0.0581648
114	0xbd8bd76e	-0.06828199
115	0x3d08a14c	0.03335695
116	0x3d0985a1	0.033574704
117	0xbd80f20f	-0.06296169
118	0x3d66310c	0.05619912
119	0xbc5821d3	-0.013191658
120	0xbe019824	-0.12655693
121	0xbd3e7f1c	-0.04650794
122	0x3e1d0dbe	0.15337273
123	0xbcab871d	-0.02093845
124	0x3d2c212f	0.042023834
125	0x3e836883	0.25665674
126	0x3e062fa0	0.13104105
127	0x3c83ee23	0.016104763

8.weight f4 [49, 128]
0	0x3d9511f9	0.07278819
1	0xbda75cae	-0.08171974
2	0xbcb2e6ce	-0.021838572
3	0x3d28ad90	0.041181147
4	0xbe0cb28b	-0.13739984
5	0x3dab5e5a	0.083676055
6	0xbe45864a	-0.19289508
7	0x3dc1c648	0.09461647
8	0xbe238ce6	-0.15971717
9	0xbe236853	-0.15957765
10	0xbdde7456	-0.10862033
11	0x3c8b0b29	0.016973095
12	0xbb68361b	-0.003543264
13	0x3b70fc05	0.003677131
14	0x3d01c908	0.03168586
15	0x3b8d3c0e	0.0043101376
16	0x3d0897e8	0.033347994
17	0x3d60f1c2	0.05491806
18	0x3c5ebd97	0.013595006
19	0x3d79b866	0.06096687
20	0x3d82cd3b	0.06386801
21	0xbd6cd122	-0.057816632
22	0xbda2da86	-0.07951836
23	0x3dba8de1	0.091090925
24	0xbd2b6e98	-0.041853517
25	0x3d057e32	0.032591052
26	0x3d8fbaf5	0.07018081
27	0xbc97c837	-0.018528087
28	0xbd6ea935	-0.058266837
29	0x3c0d1266	0.008610344
30	0x3dae00ea	0.08496268
31	0x3d835697	0.06413
32	0xbdca2f14	-0.09872261
33	0x3daca76c	0.08430371
34	0x3c99717a	0.018730868
35	0x3d9b786e	0.075913295
36	0xbda3de8c	-0.08001432
37	0xbc6179a1	-0.013761909
38	0x3d1c03c9	0.038089547
39	0xbe4cebcf	-0.20011829
40	0x3b9dd338	0.004816439
41	0xbe758fdb	-0.23980658
42	0xbd10fdb6	-0.035398208
43	0xbcc80dc0	-0.024420619
44	0x3d34d9e6	0.044153117
45	0x3d826934	0.06367722
46	0x3aa5996a	0.0012634222
47	0xbc321a00	-0.010870457
48	0x3b9b65e2	0.00474237
49	0x3cf09877	0.029369576
50	0xbcd2f0af	-0.025749533
51	0xbd021f06	-0.031767868
52	0xbd7cd9fc	-0.061731324
53	0x3d6106bc	0.054938063
54	0xbd227736	-0.03966447
55	0xbd9f2e12	-0.07772459
56	0x3d87c4f8	0.06629366
57	0x3d85c15b	0.0653102
58	0xbcf1dedd	-0.029525215
59	0xbdbf6071	-0.093445666
60	0xbc9575de	-0.01824468
61	0xbd9f60c8	-0.077821314
62	0xbd2bae35	-0.041914184
63	0xbe29cc8b	-0.16581933
64	0xbd968a62	-0.07350613
65	0x3da98447	0.08277183
66	0x3b878d10	0.004136689
67	0x38a5d7b4	7.907991e-05
68	0xbcfcf186	-0.030876886
69	0x3d61899e	0.055062883
70	0x3deeb5b6	0.11655752
71	0x3db1296d	0.086504795
72	0xbc6d2840	-0.014474928
73	0x3ce82bd8	0.028341219
74	0x3da98b54	0.08278528
75	0xbdd7279c	-0.10505602
76	0xbd67c5a6	-0.056584977
77	0xbb184cf4	-0.0023239227
78	0xbc9fdca0	-0.019514382
79	0x3d08feb9	0.033446047
80	0xbd09b192	-0.03361661
81	0x3db7bb02	0.08971216
82	0xbd37ac35	-0.044841964
83	0xbdacc24f	-0.08435499
84	0xbd113ccb	-0.035458367
85	0x3d927ced	0.07152734
86	0x3d36ba08	0.044611007
87	0xbd9eb539	-0.07749409
88	0x3d3f3928	0.046685368
89	0x3d5da741	0.054114584
90	0x3c7b902a	0.015354196
91	0xbd7a4002	-0.0610962
92	0xbd6ecb36	-0.058299266
93	0xbafa7184	-0.0019107317
94	0xbe0ef50d	-0.13960667
95	0x3d058eec	0.032607004
96	0x3da795b4	0.081828505
97	0x3d13ee62	0.03611601
98	0x3d14a564	0.03629054
99	0xbdefb93f	-0.11705255
100	0xbcf4a06c	-0.029861651
101	0xbe2dc4e0	-0.16969633
102	0xbd0c10cf	-0.034195717
103	0xbe6c321c	-0.2306599
104	0x3dd614c0	0.104531765
105	0x3e29b2cc	0.16572112
106	0xbd6be1ba	-0.057588317
107	0x3d438db2	0.047742553
108	0x3b890eab	0.0041826568
109	0xbd5559f1	-0.052087728
110	0x3cdbb59a	0.026819993
111	0x3d7b4fe6	0.061355494
112	0xbcf046f0	-0.0293307
113	0x3d13f1a9	0.036119137
114	0x3d1f693f	0.03891873
115	0x3d9233c8	0.07138783
116	0xbd1196fb	-0.035544377
117	0x3d09a6a2	0.03360618
118	0xbde566ae	-0.11201225
119	0x3da513b9	0.080604024
120	0xbd968d1c	-0.07351133
121	0xbd4933af	-0.049121555
122	0xbe7f3833	-0.24923782
123	0x3c17da91	0.009268419
124	0xbd0bad36	-0.034100734
125	0xbe023381	-0.1271496
126	0xbd30ef64	-0.04319705
127	0x3d9026e6	0.07038669
128	0x3d2b589d	0.041832555
129	0xbdcaefda	-0.09909029
130	0x3cb99dea	0.022658307
131	0xbc0472e2	-0.008084031
132	0xbc813b85	-0.015775451
133	0x3d13c8f0	0.0360803
134	0xbd37f5f1	-0.044912282
135	0x3da499a5	0.08037118
136	0xbe321867	-0.17392121
137	0xbcbfe6c4	-0.023425467
138	0xbe1f2960	-0.15543127
139	0xbcf953c4	-0.03043545
140	0x3d4a19c8	0.049340993
141	0x3cdaf701	0.026729109
142	0x3d95373e	0.07285927
143	0x3c0dc707	0.008653409
144	0x3db25d37	0.087091856
145	0x3cc18498	0.023622796
146	0x3d2a9066	0.041641615
147	0xbcc39908	-0.023876682
148	0x3d14e8ea	0.036354937
149	0xbe144159	-0.14478053
150	0x3b1d514e	0.002400476
151	0x3dfad29c	0.12247202
152	0xbc3110a9	-0.010807195
153	0x3c3bbee8	0.01145909
154	0x3d04a334	0.032382205
155	0xbd86ba1b	-0.065784656
156	0x3c4dbcd4	0.012557227
157	0x3b55a72c	0.0032600863
158	0xbd397496	-0.0452772
159	0xbcbf00b4	-0.023315765
160	0xbdd3c895	-0.10340992
161	0xbbe1aaeb	-0.00688683
162	0x3e008320	0.1255002
163	0x3d47de66	0.04879608
164	0x3d1ddee7	0.038542654
165	0xbd35e15a	-0.044404365
166	0x3cb6f800	0.022335052
167	0xbdec07de	-0.11524938
168	0x3d3f471c	0.046698675
169	0xbe89725d	-0.26845065
170	0xbe0aa22e	-0.13538429
171	0x3d897d8e	0.06713401
172	0x3d3b1dfe	0.0456829
173	0xbd357d09	-0.044308696
174	0x3d9fae38	0.077969015
175	0x3d8964ea	0.06708701
176	0xbd0d6a3f	-0.034525152
177	0x3d044a1e	0.032297246
178	0xbc8233b6	-0.015893798
179	0x3c5612cd	0.013066006
180	0xbe1a4033	-0.15063553
181	0xbd76be94	-0.060240343
182	0xbd228c98	-0.039684862
183	0xbd338e97	-0.043837156
184	0xbd8626a3	-0.06550338
185	0x3c3d0919	0.011537814
186	0xbe27e58f	-0.16396163
187	0xbe215517	-0.15755115
188	0x3d67aa81	0.05655909
189	0x3b4440df	0.0029945893
190	0xbd595070	-0.053055227
191	0xbdd0afc8	-0.101897776
192	0xbd12c63e	-0.03583359
193	0xbd8fe238	-0.0702557
194	0x3d81afa1	0.06332327
195	0x3c30ba64	0.0107866265
196	0xbd52566a	-0.051351942
197	0x3d363172	0.04448075
198	0x3c1a5321	0.009419234
199	0x3dd57357	0.1042239
200	0xbd9d8428	-0.076912224
201	0xbc93d39a	-0.018045235
202	0x3c9eebeb	0.019399604
203	0xbd45e0c1	-0.048310045
204	0x3d99bd9e	0.0750687
205	0xbdb6dc98	-0.08928794
206	0xbd8ab60d	-0.06773005
207	0x3b18456f	0.0023234745
208	0x3d0b315e	0.033982627
209	0xbd9961ed	-0.07489381
210	0x3b911ac8	0.0044282414
211	0xbc9dfcbe	-0.019285556
212	0x3d9a31b7	0.075290136
213	0x3caf9eec	0.021438085
214	0x3d83e976	0.064410135
215	0xbe04f829	-0.1298529
216	0x3da99dfd	0.08282087
217	0x3d982393	0.0742866
218	0xbcf1abd7	-0.029500885
219	0xbde09f43	-0.10967877
220	0xbd990e05	-0.07473377
221	0xbd625884	-0.055260196
222	0xbe200306	-0.15626153
223	0x3cc8b3dd	0.024499828
224	0xbd1bf4af	-0.038075145
225	0x3c8b5bed	0.017011607
226	0xbcd25221	-0.025673928
227	0xbd889a92	-0.06670107
228	0x3c9065df	0.0176267
229	0xbe879e73	-0.26488075
230	0x3d495500	0.049153328
231	0xbe32c65d	-0.17458482
232	0x3dd352c2	0.10318519
233	0x3db91828	0.090378106
234	0x3d3b0e79	0.0456681
235	0xbdaed2e9	-0.08536322
236	0x3d9f396b	0.077746235
237	0x3d32aefe	0.043623917
238	0xbd981c4e	-0.07427274
239	0x3dbaee1e	0.091274485
240	0xbc69e7a4	-0.014276419
241	0xbc8ec006	-0.017425548
242	0xbc5b798b	-0.013395677
243	0x3b76fa33	0.0037685751
244	0xbdff94f5	-0.12479583
245	0xbc2a6a19	-0.010401272
246	0xbcd493e7	-0.025949432
247	0xbd7bb42c	-0.061451122
248	0xbd1cdef6	-0.03829857
249	0x3d6cbed2	0.057799168
250	0xbe5ca226	-0.2154623
251	0x3b96b8c7	0.004599664
252	0x3c8a276b	0.0168645
253	0xbe390fc0	-0.18072414
254	0xbd812233	-0.06305351
255	0x3c814364	0.015779205

8.bias f4 [49]
0	0xbdb349e6	-0.087543294
1	0xbd77e84a	-0.060524262
2	0xbdbb1282	-0.091343895
3	0xbddf4d5f	-0.10903429
4	0xbe032797	-0.12808071
5	0xbdb0220d	-0.08600245
6	0xbd33467a	-0.043768384
7	0xbdc7acd9	-0.09749765
8	0xbe0f8a49	-0.14017595
9	0xbe06eb3a	-0.1317567
10	0xbe013516	-0.12617907
11	0xbdd85c7c	-0.10564515
12	0xbe183433	-0.14863662
13	0xbe3962d8	-0.18104112
14	0xbe18243f	-0.14857577
15	0xbdc64076	-0.09680264
16	0xbe26563d	-0.16243835
17	0xbe49be0d	-0.19701405
18	0xbe56eb4b	-0.20988195
19	0xbe2991ce	-0.16559526
20	0xbe20c2c7	-0.15699302
21	0xbe1d52ea	-0.1536366
22	0xbe3895e8	-0.18025935
23	0xbe440fce	-0.19146654
24	0xbe6258d0	-0.22104192
25	0xbe05a8a0	-0.13052607
26	0xbda8ff60	-0.08251834
27	0xbe3e1cd5	-0.18565686
28	0xbe3c9227	-0.18415128
29	0xbdf9eb55	-0.12203089
30	0xbe3cc53d	-0.18434615
31	0xbe92cd29	-0.2867215
32	0xbdf07aca	-0.1174217
33	0xbe49f6f7	-0.19723116
34	0xbe011ec2	-0.1260939
35	0xbdb86aa7	-0.09004717
36	0xbdd3b713	-0.10337653
37	0xbe26e1c5	-0.16297062
38	0xbe017a67	-0.12644349
39	0xbe04941d	-0.12947126
40	0xbdf3fdad	-0.11913619
41	0xbdb25c6a	-0.08709033
42	0xbe423a70	-0.18967605
43	0xbe0d02de	-0.13770625
44	0xbdce4ff8	-0.100738466
45	0xbdac0aac	-0.08400473
46	0xbd7809c2	-0.06055618
47	0xbe086aad	-0.13321944
48	0xbe20bab8	-0.15696228
