models/snapsRandom/model_1685701515.399181.pt (torch, 252679 bytes, 10 tensors)

0.weight f4 [128, 49]
-0.051769737 0.14214474 0.097930275 -0.16493416 0.08615297 0.0073897126 -0.032539707 0.119179614
-0.001450071 -0.09176958 0.11688522 0.22978567 -0.055032376 0.045821216 0.032154646 -0.034410067
0.039781865 -0.028470732 -0.023257889 0.06128887 -0.03880677 -0.040406268 0.22278751 -0.09426538
-0.052695803 -0.09663852 -0.09057586 0.044337068 0.100603744 -0.12088484 0.06996536 0.005599369
-0.0016349556 -0.013588433 -0.13034645 0.18916556 -0.06974906 -0.013160527 -0.22505087 -0.055860117
-0.09492095 0.07850084 0.06276079 -0.035670668 -0.06551577 0.1291562 0.11212524 -0.12477305
-0.048337508 -0.034373514 -0.021201003 -0.11208619 0.013205485 0.10947802 0.010377796 -0.027110873
0.04244469 0.08826865 -0.019361638 0.16602084 0.18053491 0.17257386 -0.06841077 -0.22824937
-0.090750955 -0.0072042933 -0.007012184 -0.065402344 0.3090303 0.16578135 0.011033426 0.110372834
0.14577943 -0.22754024 0.036624808 -0.049762156 0.016484626 0.025915546 0.09552016 0.092283405
-0.0958207 -0.12833275 -0.21608835 0.06298204 -0.12687598 -0.03233297 -0.00062240846 -0.10175127
0.09925514 0.046892516 -0.07738909 0.0054498673 0.03466922 -0.12914938 -0.040649083 0.08869208
0.025466597 -0.06923953 0.038664907 -0.16412751 0.050120596 -0.14172336 -0.014985636 -0.15903251
0.10831402 0.055392582 0.11260177 -0.0011906868 -0.07965784 0.21425484 -0.21857208 0.11951623
-0.15080668 0.052858435 0.087517545 -0.10440447 -0.093264624 -0.02840242 -0.0682694 0.0850477
-0.106887944 -0.024364188 -0.10572928 -0.00030555425 -0.10025627 0.051584072 -0.13210185 0.05752111
0.029480288 -0.016714437 0.058970377 -0.16990826 0.030582542 -0.07953604 0.027427858 -0.07692667
-0.012319061 -0.092526585 -0.06918784 0.1374904 -0.04819246 0.011260818 -0.124200776 0.09980785
0.034119584 -0.092387274 0.07611618 0.06537741 0.0672381 -0.029237607 -0.08006141 0.12057152
0.078447394 -0.0002674994 0.07240683 0.0698572 0.15543525 0.09129304 -0.15141228 -0.15774024
0.021699848 0.10773642 0.1234007 0.018730246 0.08225861 0.0002149374 -0.3130286 0.06005059
0.114556186 0.010825215 0.0019380033 0.039543506 -0.04112517 -0.21869501 0.028056039 -0.054364152
-0.078980476 0.12716217 0.05907214 -0.04876646 0.05550066 0.29063702 0.04027581 0.10103152
-0.08529081 0.037490144 0.017191097 0.09707649 0.04326176 -0.17000535 0.12118333 -0.20231934
0.0009971219 0.03018526 0.07425927 0.12931068 0.012630836 -0.09881992 0.017629059 -0.11371781
-0.0852802 0.20078918 0.10359621 0.014761149 -0.05599336 0.016445845 0.15086415 -0.06681367
-0.10845381 -0.11348307 -0.08366909 -0.067939624 0.102287985 -0.07202779 0.041012928 0.042632207
0.014570685 -0.07896194 0.0390019 -0.004720088 -0.15328413 0.07991687 -0.119303405 -0.20813854
0.013889558 0.03409372 0.12491672 0.07560241 0.059357334 -0.026862822 -0.07343868 -0.051949784
0.04889817 0.081730515 -0.0038183772 -0.11101073 -0.1743295 0.023027668 -0.016172426 -0.06343309
0.0733035 -0.0005349704 0.055577803 0.16911848 -0.07987991 -0.05728272 0.11053479 0.1005399
-0.0047849603 0.062170547 -0.06971146 0.104030095 -0.12958662 0.019434659 -0.101290725 0.035988268
00000000: 810c 54bd 648e 113e ab8f c83d 80e4 28be
00000010: f870 b03d 6725 f23b 5b48 05bd 7114 f43d
00000020: 4f10 beba b1f1 bbbd 8561 ef3d ef4c 6b3e
00000030: a169 61bd 07af 3b3d 97b4 033d 92f1 0cbd
00000040: 4ff2 223d 743b e9bc 5487 bebc 0a0a 7b3d
00000050: d9f3 1ebd 0b81 25bd 6922 643e 350e c1bd
00000060: 8ed7 57bd 6bea c5bd d67f b9bd c99a 353d
00000070: 5609 ce3d 7992 f7bd 004a 8f3d e97a b73b
00000080: 024c d6ba 05a2 5ebc 8a79 05be 9eb4 413e
00000090: 98d8 8ebd 409f 57bc bc73 66be 94cd 64bd
000000a0: ea65 c2bd 0cc5 a03d bb88 803d 681b 12bd
000000b0: 222d 86bd 8641 043e eba1 e53d 0389 ffbd
000000c0: 8dfd 45bd 3ecb 0cbd baad adbc 728d e5bd
000000d0: d25b 583c 0336 e03d a207 2a3c 9f17 debc
000000e0: 7cda 2d3d 32c6 b43d 4c9c 9ebc 5e01 2a3e
000000f0: 25de 383e 34b7 303e f21a 8cbd 34ba 69be
00000100: a3db b9bd fe11 ecbb 76c6 e5bb aaf1 85bd
00000110: 3839 9e3e 96c2 293e 8bc5 343c 270b e23d
00000120: 3447 153e 4f00 69be e503 163d 67d3 4bbd
00000130: c40a 873c d74c d43c 13a0 c33d 15ff bc3d
00000140: a53d c4bd a969 03be 4446 5dbe bafc 803d
00000150: c7eb 01be 946f 04bd 2029 23ba f862 d0bd
00000160: 4746 cb3d 5e12 403d 2c7e 9ebd cd94 b23b
00000170: 5001 0e3d bc3f 04be a77f 26bd 31a4 b53d
00000180: 539f d03c 74cd 8dbd 185f 1e3d 0b11 28be
00000190: 414b 4d3d ee1f 11be 5086 75bc 6bd9 22be
000001a0: bed3 dd3d 55e3 623d c29b e63d d210 9cba
000001b0: a623 a3bd 9f65 5b3e 5cd1 5fbe edc4 f43d
000001c0: 116d 1abe 1682 583d 663c b33d 03d2 d5bd
000001d0: 8601 bfbd 31ac e8bc d4d0 8bbd 7d2d ae3d
000001e0: 11e8 dabd 6897 c7bc 9888 d8bd cc32 a0b9
000001f0: 2953 cdbd d249 533d b545 07be 419b 6b3d
00000200: a580 f13c b7ec 88bc ec8a 713d 6efc 2dbe
00000210: 3d88 fa3c cbe3 a2bd 63b0 e03c bb8b 9dbd
00000220: e3d5 49bc 947e bdbd 5bb2 8dbd 49ca 0c3e
00000230: 7565 45bd 4b7f 383c fa5c febd 0f68 cc3d
00000240: fac0 0b3d 8a35 bdbd cde2 9b3d 97e4 853d
00000250: 21b4 893d b583 efbc 3df7 a3bd 33ee f63d
00000260: 07a9 a03d 293f 8cb9 084a 943d 4b11 8f3d
00000270: 6b2a 1f3e d8f7 ba3d d20b 1bbe a886 21be
00000280: e1c3 b13c eaa4 dc3d 82b9 fc3d 2c70 993c
00000290: 3477 a83d d260 6139 4945 a0be 9cf7 753d
000002a0: 6f9c ea3d 3e5c 313c 9a04 fe3a 5ff8 213d
000002b0: de72 28bd 96f1 5fbe c7d5 e53c f2ac 5ebd
000002c0: 84c0 a1bd cd36 023e a1f5 713d 57bf 47bd
000002d0: a954 633d 60ce 943e 3ff8 243d 9de9 ce3d
000002e0: f3ac aebd 448f 193d 58d4 8c3c 0ad0 c63d
000002f0: 3e33 313d e215 2ebe f72e f83d cd2c 4fbe
00000300: dcb1 823a 1447 f73c 3f15 983d 056a 043e
00000310: 91f1 4e3c 1962 cabd d16a 903c e2e4 e8bd
00000320: 63a7 aebd ae9b 4d3e 402a d43d bfd8 713c
00000330: 4b59 65bd 70b9 863c 227c 1a3e 9bd5 88bd
00000340: 081d debd d069 e8bd b35a abbd ee23 8bbd
00000350: 5d7c d13d 4e83 93bd 2cfd 273d 1c9f 2e3d
00000360: e2b9 6e3c ccb6 a1bd 75c0 1f3d f8aa 9abb
00000370: 84f6 1cbe 75ab a33d 5855 f4bd 4522 55be
00000380: 0791 633c dba5 0b3d 56d4 ff3d 70d5 9a3d
00000390: ad20 733d 6c0f dcbc 0567 96bd 4cc9 54bd
000003a0: 7349 483d 5462 a73d bd3d 7abb 9859 e3bd
000003b0: 6f83 32be 85a4 bc3c 097c 84bc 35e9 81bd
000003c0: 2520 963d 413d 0cba 8da5 633d 652d 2d3e
000003d0: 1498 a3bd 49a1 6abd 1060 e23d dde7 cd3d
000003e0: 28cb 9cbb 8ba6 7e3d e2c4 8ebd bb0d d53d
000003f0: 5bb2 04be 6f35 9f3c 8371 cfbd 6f68 133d

0.bias f4 [128]
-0.06666017 0.14954032 0.0033393248 0.011460986 -0.07985064 0.12187918 -0.14769505 0.33269185
0.17813224 -0.2889846 0.2004427 0.22512408 0.022625973 -0.16682373 0.27637944 0.13811044
-0.11596381 -0.25622636 -0.12518105 0.25280693 0.005361462 -0.15048054 -0.18653615 -0.10737056
-0.103125386 0.05737625 0.10275859 0.3637601 -0.22199316 0.26044494 0.12477913 -0.27658296
-0.10425087 -0.39030027 -0.055405285 -0.123257734 0.08878866 -0.14664395 0.037599325 -0.10706922
-0.13711779 -0.20118986 0.025640806 -0.15580754 -0.13783553 -0.121247955 0.10049893 -0.041470487
-0.2569608 0.16650876 0.015448007 -0.14506888 -0.20736857 0.00568431 -0.04907462 -0.047134694
0.16475412 0.037777085 0.028923834 -0.12852168 -0.0768721 -0.05665655 -0.15821517 -0.115549356
-0.004779023 0.014561694 -0.05537888 -0.14419053 -0.20337737 -0.09411504 0.20472337 -0.11486311
0.09552446 -0.19321832 -0.05704671 -0.14417385 -0.07932788 -0.08374957 -0.0401207 0.015522213
-0.16972953 -0.07678577 -0.07005831 0.041415937 -0.20052576 -0.14814258 0.0816669 0.010573728
-0.121981606 -0.06276762 0.07072608 -0.0928803 -0.11585259 -0.3013648 0.023388008 -0.23287758
-0.066254154 -0.11111297 0.42919663 -0.05137224 0.08035805 -0.18759397 -0.15732619 -0.117669694
-0.29741314 -0.077511914 0.16528212 -0.09938761 -0.059410803 -0.2026772 -0.1471235 -0.24369477
-0.083003335 -0.25560638 0.1602394 -0.22419974 0.006868078 0.009846226 -0.16657615 -0.14004825
0.09910505 -0.059059963 -0.076351985 -0.26386476 0.031996578 -0.1698967 -0.016834209 0.07014969
00000000: 2185 88bd 1921 193e 93d8 5a3b dcc6 3b3c
00000010: bb88 a3bd cb9b f93d 5f3d 17be 9656 aa3e
00000020: 4c68 363e caf5 93be da40 4d3e ed86 663e
00000030: 1b5a b93c d7d3 2abe 9b81 8d3e d36c 0d3e
00000040: 6f7e edbd 1a30 83be 762f 00be e96f 813e
00000050: 34af af3b 9217 1abe 5503 3fbe 19e5 dbbd
00000060: 6733 d3bd 5c03 6b3d 1873 d23d c43e ba3e
00000070: 2d52 63be 0a59 853e 338c ff3d 489c 8dbe
00000080: 7b81 d5bd 70d5 c7be a7f0 62bd 8d6e fcbd
00000090: d4d6 b53d d529 16be c001 1a3d 1b47 dbbd
000000a0: 9b68 0cbe b704 4ebe ab0c d23c 038c 1fbe
000000b0: c224 0dbe d950 f8bd 62d2 cd3d f5dc 29bd
000000c0: 5e90 83be 4681 2a3e a319 7d3c f08c 14be
000000d0: 6d58 54be 7343 ba3b 7802 49bd 4f10 41bd
000000e0: 4eb5 283e 25bc 1a3d adf1 ec3c 309b 03be
000000f0: 1f6f 9dbd b310 68bd 2803 22be 24a5 ecbd
00000100: 5a99 9cbb 2c94 6e3c f7d4 62bd afa6 13be
00000110: 2842 50be 63bf c0bd 01a3 513e 5a3d ebbd
00000120: 54a2 c33d 06db 45be d0a9 69bd 4fa2 13be
00000130: a876 a2bd e584 abbd 9a55 24bd e150 7e3c
00000140: 94cd 2dbe dc41 9dbd bb7a 8fbd c2a3 293d
00000150: a056 4dbe b0b2 17be fa40 a73d 6e3d 2d3c
00000160: 7ed1 f9bd 4f8c 80bd d6d8 903d 0738 bebd
00000170: 1f44 edbd 7d4c 9abe 3598 bf3c 7677 6ebe
00000180: 42b0 87bd 328f e3bd a9bf db3e b36b 52bd
00000190: c392 a43d a218 40be 1e1a 21be cffc f0bd
000001a0: 8946 98be 91be 9ebd b73f 293e bb8b cbbd
000001b0: be58 73bd 9d8a 4fbe 8ba7 16be 1f8b 79be
000001c0: a7fd a9bd d7de 82be cc15 243e 9e94 65be
000001d0: 9d0d e13b 1152 213c f092 2abe cf68 0fbe
000001e0: 97f7 ca3d dce8 71bd 6e5e 9cbd 4819 87be
000001f0: d80e 033d 67f9 2dbe e5e7 89bc a4aa 8f3d

2.weight f4 [128, 128]
0.040246613 -0.0144193545 -0.031866252 -0.061113123 0.06702775 -0.015204987 -0.04680246 0.004655403
-0.0025311927 -0.031044995 0.0066063725 0.05243302 -0.002111487 -0.045907192 0.06595884 -0.0606914
-0.062056724 -0.037793003 -0.0877904 0.022686746 0.07551383 -0.07733709 0.044445768 0.0058420594
-0.011432902 -0.061418988 -0.04390726 -0.039976623 0.024889715 0.027182097 -0.08015584 -0.018356469
-0.012337567 -0.0056653284 -0.06181552 0.041008968 0.003995628 -0.04954198 -0.057395466 -0.012222299
0.018835478 -0.06491392 0.0034662331 -0.03623022 -0.008175119 0.011132704 0.01982977 0.0068006343
-0.051022016 -0.08048314 0.036394626 0.07494257 -0.05153989 -0.05193986 0.008698887 -0.016052522
0.08460199 0.0750768 0.012572056 0.08774019 0.08185397 -0.0073954863 0.063529246 -0.08925084
-0.026220527 0.05957558 -0.05728814 -0.006260123 -0.07209701 0.08626639 0.048098084 -0.051206205
0.07999392 -0.05000101 0.06495008 -0.0056493958 -0.01608702 0.06369922 -0.08260756 -0.043610103
0.003817215 -0.08356578 0.016185723 -0.074748926 -0.062675774 0.032135975 -0.020310529 0.077601776
-0.07705067 0.07252972 0.050672844 -0.011244709 0.047281753 -0.07701306 -0.08208118 -0.0580597
-0.07292984 -0.07587271 0.028261997 0.08555732 -0.004660398 -0.037210118 -0.057111368 -0.021794546
0.052877303 -0.045628276 -0.046843607 -0.07991966 0.022337645 0.07052711 0.042858854 0.07782317
0.05676226 -0.002228766 -0.06703997 0.081425846 -0.056450497 0.08822335 -0.05319783 0.004959453
0.013513335 0.05438705 0.0005230116 -0.07748555 0.00047596244 0.08025145 0.010723454 0.044592272
-0.02835424 -0.05797642 0.052513655 0.048805185 -0.019456951 -0.023871614 -0.03640911 0.016372943
0.06946167 -0.08259958 0.00202848 0.009309162 -0.0058502774 0.054863423 0.030996563 0.06918009
-0.0445815 -0.012039652 -0.013822255 -0.049044926 -0.036183026 -0.028530544 -0.024506474 -0.04131412
0.013350536 -0.083067514 0.07668542 -0.034487266 0.063970745 0.0029702394 -0.07442044 -0.087741435
-0.014848224 0.049579117 0.010635063 0.059872776 -0.05378618 -0.082387246 -0.08404589 0.023983488
0.044246655 -0.03734452 0.018881809 -0.07313785 -0.01331341 0.06994539 -0.027820187 0.07301935
-0.055047028 -0.052009217 0.07538675 0.071631774 0.019015951 -0.01955083 0.034654036 0.027631726
-0.040331524 -0.06733863 -0.008775639 -0.04097712 -0.03332157 0.016930012 0.07453638 0.06969231
0.06623743 0.034220874 0.027988223 -0.02110505 0.008801934 -0.0068776235 -0.07125324 0.084703475
0.058631968 0.010019627 0.04472819 0.040218752 0.06758307 0.049759988 -0.018976228 -0.021666229
-0.05350313 0.006397095 0.07168954 -0.08357951 0.021505745 -0.04846518 0.0709983 -0.07976204
0.012206327 0.051534716 -0.02691557 0.008369023 0.02990982 -0.0025301692 -0.030856794 0.08347098
-0.082356125 -0.056705188 -0.03191574 0.0058865217 -0.016895393 0.0147429975 -0.014982373 -0.048663482
0.0097926445 0.06105752 0.03964756 0.021977952 -0.059231233 0.050908826 -0.01355332 0.05742804
-0.034318857 -0.06832587 0.06274172 -0.013311545 -0.029180888 0.039848685 0.0005215384 -0.031478215
-0.010269105 -0.0034150442 0.010946032 0.0637464 -0.03789383 -0.028277555 -0.0028057965 0.0023135971
00000000: a2d9 243d 283f 6cbc 3086 02bd c151 7abd
00000010: d845 893d 561e 79bc f0b3 3fbd 5a8c 983b
00000020: 5ee2 25bb 1352 febc 457a d83b 02c4 563d
00000030: e060 0abb 2e09 3cbd 6e15 873d 8c97 78bd
00000040: 312f 7ebd d6cc 1abd 74cb b3bd 8ed9 b93c
00000050: ffa6 9a3d e962 9ebd c40c 363d bf6e bf3b
00000060: 1151 3bbc 7a92 7bbd 19d8 33bd 87be 23bd
00000070: 84e5 cb3c fdac de3c bf28 a4bd 4e60 96bc
00000080: 8223 4abc 38a4 b9bb 4532 7dbd 05f9 273d
00000090: c2ed 823b 88ec 4abd 8217 6bbd 0a40 48bc
000000a0: dc4c 9a3c 97f1 84bd be29 633b 2466 14bd
000000b0: eff0 05bc f265 363c 0b72 a23c dbd7 de3b
000000c0: 76fc 50bd 58d4 a4bd 8812 153d 7d7b 993d
000000d0: 7e1b 53bd e4be 54bd c785 0e3c 9480 83bc
000000e0: cf43 ad3d dec1 993d 06fb 4d3c 21b1 b33d
000000f0: 0ea3 a73d d655 f2bb 9f1b 823d 25c9 b6bd
00000100: 6ecc d6bc 8605 743d f8a6 6abd b821 cdbb
00000110: 99a7 93bd 6fac b03d 7f02 453d 99bd 51bd
00000120: dad3 a33d dccd 4cbd 8c04 853d 911e b9bb
00000130: edc8 83bc bd74 823d 272e a9bd 82a0 32bd
00000140: 3e2a 7a3b 8924 abbd ec97 843c f715 99bd
00000150: 285c 80bd 03a1 033d 4462 a6bc aeed 9e3d
00000160: becc 9dbd 768a 943d 548e 4f3d ba3b 38bc
00000170: 83aa 413d 06b9 9dbd 2d1a a8bd 02d0 6dbd
00000180: 3d5c 95bd 2763 9bbd b485 e73c ad38 af3d
00000190: 40b6 98bb a369 18bd 9ced 69bd 7a8a b2bc
000001a0: df95 583d b7e4 3abd 15df 3fbd ebac a3bd
000001b0: 70fd b63c 8470 903d c48c 2f3d c161 9f3d
000001c0: 8b7f 683d 7d10 12bb 404c 89bd 98c2 a63d
000001d0: a338 67bd 72ae b43d f8e5 59bd e882 a23b
000001e0: 0967 5d3c f5c4 5e3d b71a 093a beb0 9ebd
000001f0: 998a f939 df5a a43d 6db1 2f3c 63a6 363d
00000200: 2747 e8bc af78 6dbd 8f18 573d f2e7 473d
00000210: 2f64 9fbc 678e c3bc b821 15bd 8d20 863c
00000220: ec41 8e3d f829 a9bd 3ff0 043b 7585 183c
00000230: afb3 bfbb 78b8 603d 81ec fd3c 4bae 8d3d
00000240: 179b 36bd f641 45bc bd76 62bc 55e3 48bd
00000250: a734 14bd e3b8 e9bc cdc1 c8bc ff38 29bd
00000260: 35bc 5a3c 4d1f aabd 3f0d 9d3d 8542 0dbd
00000270: 1803 833d 59a8 423b be69 98bd c8b1 b3bd
00000280: f745 73bc 7913 4b3d b03e 2e3c 283d 753d
00000290: e64e 5cbd a5ba a8bd 4020 acbd 0579 c43c
000002a0: fb3b 353d 91f6 18bd 06ae 9a3c 4cc9 95bd
000002b0: 7d20 5abc 873f 8f3d 29e7 e3bc 2b8b 953d
000002c0: fe78 61bd 9e07 55bd 5e64 9a3d aeb3 923d
000002d0: 57c7 9b3c 1029 a0bc 64f1 0d3d ee5b e23c
000002e0: ab32 25bd d6e8 89bd b3c7 0fbc a0d7 27bd
000002f0: 337c 08bd cfb0 8a3c 88a6 983d d8ba 8e3d
00000300: 7da7 873d 302b 0c3d 8f47 e53c 7fe4 acbc
00000310: fd35 103c b05d e1bb 38ed 91bd 0479 ad3d
00000320: 1328 703d 5d29 243c e834 373d 6bbc 243d
00000330: fe68 8a3d 21d1 4b3d 0974 9bbc 607d b1bc
00000340: 1926 5bbd b99e d13b f7d1 923d bc2b abbd
00000350: d12c b03c 6d83 46bd 8f67 913d 485a a3bd
00000360: 0cfd 473c 1116 533d 0b7e dcbc 3a1e 093c
00000370: 7005 f53c 32d1 25bb 63c7 fcbc d5f2 aa3d
00000380: 54aa a8bd b343 68bd 14ba 02bd b9e3 c03b
00000390: 3568 8abc 9d8c 713c a178 75bc 5c53 47bd
000003a0: 5471 203c 7317 7a3d 7b65 223d 1b0b b43c
000003b0: 739c 72bd c685 503d bf0e 5ebc aa39 6b3d
000003c0: ee91 0cbd 6fee 8bbd bb7e 803d ab18 5abc
000003d0: c20c efbc 6038 233d d9b7 083a 4def 00bd
000003e0: c03f 28bc efce 5fbb fc56 333c 798d 823d
000003f0: 9036 1bbd 55a6 e7bc 74e1 37bb b89f 173b

2.bias f4 [128]
0.052802015 -0.048918106 -0.043824963 -0.033242162 0.023006931 -0.100110516 -0.052745067 0.037778776
-0.008590451 -0.06393348 0.035753645 -0.098790884 -0.06383869 -0.025049184 -0.03736429 0.12895726
0.095044486 0.024810186 -0.064660825 -0.02453445 0.029935114 -0.111304976 0.011125872 -0.0022345383
-0.0622587 -0.0038354734 -0.17100662 0.009174395 -0.044154756 0.006384383 0.02937313 -0.0499855
0.10009384 0.072042644 -0.09795832 -0.058191556 0.012954326 -0.033519138 -0.22361055 -0.12489182
-0.01855667 -0.05163648 -0.040963553 -0.09620472 0.032128427 0.12456483 0.13557833 -0.011236459
-0.06292872 0.02165388 0.05574957 0.044572014 0.0074652988 -0.03800285 -0.059156112 0.025250591
0.024778668 -0.016727047 0.031178927 -0.041002303 -0.0645258 0.020685753 0.057584472 0.049041286
-0.0572471 0.0813603 -0.025980964 0.038598455 0.07990951 -0.19925275 -0.016859703 0.0800214
-0.075942986 0.08176524 0.0070685223 0.04526376 -0.017164022 -0.1664418 0.0639372 -0.05555999
-0.051025566 0.07761782 -0.01822883 0.019322656 -0.2008561 0.1302798 0.11540994 0.00949431
0.09064486 -0.13420759 -0.07434962 0.03016606 -0.00966847 0.021464262 -0.013924947 0.109090574
0.048054095 0.09172764 -0.04323615 0.111736655 0.07200084 0.06338831 -0.07009048 -0.04320893
0.06588948 0.12748103 -0.08910741 -0.01598412 0.0330512 -0.10019484 -0.06966449 0.036060102
-0.033178225 -0.08576782 -0.06673794 0.07795095 -0.07534559 0.11517047 0.03811365 -0.02454508
0.01582668 0.14298134 0.12477954 0.005175226 0.07666251 0.04797087 -0.012938817 -0.043774445
00000000: ed46 583d 5a5e 48bd ce81 33bd ef28 08bd
00000010: 0879 bc3c be06 cdbd 360b 58bd ebbd 1a3d
00000020: f7be 0cbc 8eef 82bd 6a72 123d e052 cabd
00000030: dcbd 82bd f233 cdbc 4c0b 19bd 5f0d 043e
00000040: afa6 c23d bb3e cb3c e56c 84bd 79fc c8bc
00000050: 7c3a f53c ddf3 e3bd 4a49 363c 5571 12bb
00000060: fb02 7fbd 915c 7bbb 5c1c 2fbe 3450 163c
00000070: 9edb 34bd 1634 d13b eb9f f03c 98bd 4cbd
00000080: 00fe cc3d 188b 933d 5f9e c8bd 455a 6ebd
00000090: 623e 543c 5d4b 09bd 2afa 64be 48c7 ffbd
000000a0: 2804 98bc c680 53bd 66c9 27bd fb06 c5bd
000000b0: 1999 033d d81b ff3d 0cd5 0a3e 2019 38bc
000000c0: c6e0 80bd 7a63 b13c a959 643d 2591 363d
000000d0: 779f f43b e0a8 1bbd ae4d 72bd 54da ce3c
000000e0: a2fc ca3c 2907 89bc f36a ff3c 08f2 27bd
000000f0: 1a26 84bd 2b75 a93c b2dd 6b3d 84df 483d
00000100: ef7b 6abd 3ba0 a63d 08d6 d4bc 6a19 1e3d
00000110: 99a7 a33d ea08 4cbe 5c1d 8abc 42e2 a33d
00000120: ff87 9bbd 8974 a73d 109f e73b 7e66 393d
00000130: 909b 8cbc b86f 2abe 82f1 823d df92 63bd
00000140: 2f00 51bd 17f6 9e3d a154 95bc 8c4a 9e3c
00000150: 39ad 4dbe 1168 053e 0c5c ec3d 068e 1b3c
00000160: 03a4 b93d b76d 09be 9d44 98bd d01e f73c
00000170: 8168 1ebc d2d5 af3c 7625 64bc e16a df3d
00000180: 5fd4 443d b3db bb3d 6418 31bd 30d6 e43d
00000190: 2d75 933d bbd1 813d 998b 8fbd d9fb 30bd
000001a0: 10f1 863d 638a 023e f27d b6bd 21f1 82bc
000001b0: b260 073d f432 cdbd 42ac 8ebd c2b3 133d
000001c0: e4e5 07bd 0aa7 afbd e7ad 88bd bfa4 9f3d
000001d0: ca4e 9abd 7fde eb3d 0f1d 1c3d c312 c9bc
000001e0: f4a6 813c b369 123e 6a8c ff3d f194 a93b
000001f0: 3c01 9d3d 1a7d 443d 55fd 53bc d54c 33bd

4.weight f4 [128, 128]
0.047891676 0.02445571 -0.037241176 0.050553955 0.0013109824 -0.04954332 0.006722358 -0.009038722
0.026027719 0.013636401 0.06780605 0.0067808875 0.007893106 -0.006917039 -0.061716978 0.043406542
0.074091986 -0.038204245 -0.05785222 -0.03418831 -0.0033282966 0.07202171 -0.016148038 0.081148416
0.07143884 -0.070367225 -0.08723314 -0.009058069 -0.011443572 0.011509117 -0.008658851 -0.038952705
0.015274396 -0.043860003 0.04774309 0.06293468 -0.0725429 -0.06669889 0.06713509 -0.019774893
0.035869285 -0.0847329 -0.05293622 -0.06929285 -0.030818623 -0.06684927 -0.03182859 0.0061996253
-0.034073386 0.043701537 -0.034067918 -0.06794771 -0.023046525 0.047750823 -0.017348895 -0.04594995
-0.03281187 0.0702504 -0.0717972 -0.048865166 -0.07462523 0.07483833 -0.04801449 0.07893643
-0.019945145 -0.056621764 -0.04338286 -0.06887414 0.013430672 -0.033455748 0.078761965 0.007982149
0.015930627 -0.04073201 -0.027298307 -0.04801376 0.025849713 0.04256587 -0.05641727 0.03910741
-0.084807895 0.05186114 0.046222635 -0.024832008 0.017360967 -0.060909282 -0.016832365 0.023343956
0.043169655 -0.071296036 -0.073607385 0.06916282 0.030977326 0.07647988 -0.078494005 -0.04111923
-0.03741884 -0.01582083 0.008215723 -0.018250892 0.047063615 -0.05331178 0.07514844 -0.043352075
0.04860719 0.07257964 -0.07817362 0.024509938 0.020397408 0.08065749 0.049241573 -0.08686056
-0.031854462 -0.06929535 -0.04670401 -0.026489008 0.033581365 -0.08543366 0.005376061 -0.080053434
-0.017003676 -0.083606794 -0.060332995 -0.038623348 0.035343647 -0.0492438 -0.052306473 0.038765732
-0.045494683 0.032410547 0.08706785 0.07542293 -0.026708905 0.04440483 -0.024448177 0.05959642
-0.0030654888 0.004097587 -0.08662087 0.072207935 0.059490267 -0.013201958 -0.04609682 -0.034192886
-0.07781188 -0.058450628 0.041809894 -0.05763682 0.033308703 -0.046868667 -0.043382403 -0.085104875
0.006577908 -0.032077104 -0.040400486 -0.00035123332 -0.04919576 0.013134304 0.058731917 -0.038388338
0.021003919 -0.031776637 0.016732961 -0.07264098 -0.053553894 -0.038626853 -0.0063525494 -0.016819568
-0.026195388 0.0492745 -0.06382791 0.087610625 0.01790853 -0.0042577884 0.064622454 0.06306215
-0.02017287 0.019301783 -0.03966077 0.048847772 0.055902485 0.019402837 0.006565681 -0.03374976
-0.03491179 0.060864206 0.021078851 0.03515899 -0.009534745 -0.01056774 0.060231857 -0.06925935
0.014087621 -0.022986567 -0.02879887 -0.08189263 0.053899642 -0.07110782 -0.029282255 0.011235864
0.04502174 -0.09412961 0.04160893 -0.03962697 0.029503819 -0.08258575 -0.07842132 0.078953914
0.028367583 0.008871845 0.041422397 0.069420315 0.054566022 0.01705375 -0.07582381 0.08071621
-0.020972652 -0.012637196 0.018539067 0.06747382 -0.015253343 -0.040767036 0.048435185 0.057214137
0.02449509 0.0059022126 0.0023011013 0.015166673 -0.075592 -0.04609138 0.03556515 0.023027167
0.031095317 0.0037078653 -0.053035498 -0.041946523 -0.020626593 -0.061082773 0.07894506 -0.055706695
0.011445339 0.0883257 -0.073101796 -0.08501913 0.03633246 0.046249133 -0.040326707 0.038814396
0.062466294 -0.042614494 0.067314304 0.004807384 -0.019485675 0.031535976 0.044388458 0.07696127
00000000: 102a 443d 5757 c83c 348a 18bd aa11 4f3d
00000010: 45d5 ab3a f0ed 4abd 3a47 dc3b 2617 14bc
00000020: 1538 d53c 366b 5f3c e6dd 8a3d 3532 de3b
00000030: 1652 013c 54a8 e2bb f1ca 7cbd 0fcb 313d
00000040: 8abd 973d 0e7c 1cbd 73f6 6cbd 0b09 0cbd
00000050: 8d1f 5abb 1e80 933d e448 84bc 2431 a63d
00000060: 874e 923d b11c 90bd 4aa7 b2bd 4c68 14bc
00000070: d27d 3bbc bc90 3c3c dadd 0dbc df8c 1fbd
00000080: 7641 7a3c 8ca6 33bd 428e 433d e6e3 803d
00000090: 5f91 94bd 6d99 88bd 1f7e 893d f5fe a1bc
000000a0: aceb 123d 7188 adbd a6d3 58bd 69e9 8dbd
000000b0: 5677 fcbc 45e8 88bd b25e 02bd 3a26 cb3b
000000c0: 8990 0bbd 6200 333d cd8a 0bbd 2b28 8bbd
000000d0: 11cc bcbc 5e96 433d 451f 8ebc 0436 3cbd
000000e0: bd65 06bd 71df 8f3d 690a 93bd d726 48bd
000000f0: 1dd5 98bd d744 993d d8aa 44bd 6ca9 a13d
00000100: 0064 a3bc 39ec 67bd 3ab2 31bd e30d 8dbd
00000110: 520c 5c3c e508 09bd f44d a13d 8fc7 023c
00000120: f280 823c 9cd6 26bd b3a0 dfbc 14aa 44bd
00000130: c7c2 d33c 8d59 2e3d cc15 67bd 172f 203d
00000140: c3af adbd 596c 543d f253 3d3d 7f6c cbbc
00000150: 9638 8e3c 037c 79bd 07e4 89bc d33b bf3c
00000160: aad2 303d a803 92bd 78bf 96bd 3da5 8d3d
00000170: 29c4 fd3c 7ca1 9c3d 77c1 a0bd a36c 28bd
00000180: 7f44 19bd af9a 81bc 3d9b 063c e582 95bc
00000190: c7c5 403d 745d 5abd 6de7 993d f291 31bd
000001a0: 5518 473d a2a4 943d 7e19 a0bd 11c9 c83c
000001b0: 7718 a73c c12f a53d 88b1 493d f3e3 b1bd
000001c0: d379 02bd b8ea 8dbd b44c 3fbd 7aff d8bc
000001d0: 9d8c 093d d8f7 aebd ab29 b03b 0ef3 a3bd
000001e0: 4b4b 8bbc 0a3a abbd bb1f 77bd 8433 1ebd
000001f0: 80c4 103d deb3 49bd 503f 56bd d1c8 1e3d
00000200: a258 3abd ecc0 043d a150 b23d 5677 9a3d
00000210: a2cc dabc d7e1 353d 8b47 c8bc 601b 743d
00000220: 5ee6 48bb 0d45 863b 4866 b1bd c1e1 933d
00000230: 11ac 733d 064d 58bc 05d0 3cbd d70d 0cbd
00000240: d65b 9fbd ed69 6fbd da40 2b3d 9614 6cbd
00000250: b56e 083d 5cf9 3fbd bfb1 31bd 774b aebd
00000260: 7e8b d73b 4863 03bd fb7a 25bd bd25 b8b9
00000270: 7e81 49bd 4431 573c e190 703d 173d 1dbd
00000280: 6910 ac3c 3828 02bd 9013 893c cbc4 94bd
00000290: 545b 5bbd 3137 1ebd 0c29 d0bb 31c9 89bc
000002a0: b697 d6bc 0fd4 493d 35b8 82bd 336d b33d
000002b0: e9b4 923c eb84 8bbb c758 843d ba26 813d
000002c0: 9341 a5bc c61e 9e3c 5573 22bd 9a14 483d
000002d0: 01fa 643d b3f2 9e3c ed24 d73b 303d 0abd
000002e0: aaff 0ebd bf4c 793d 8ead ac3c e002 103d
000002f0: 9e37 1cbc 5024 2dbc aeb5 763d d9d7 8dbd
00000300: c4cf 663c 534e bcbc 9ceb ebbc 53b7 a7bd
00000310: dfc5 5c3d faa0 91bd 57e1 efbc a116 383c
00000320: b768 383d 06c7 c0bd 206e 2a3d e44f 22bd
00000330: feb1 f13c b822 a9bd 5b9b a0bd 97b2 a13d
00000340: 2263 e83c 375b 113c 88aa 293d 3d2c 8e3d
00000350: 9f80 5f3d 4eb4 8b3c 8449 9bbd 8a4e a53d
00000360: d7ce abbc 3e0c 4fbc 3edf 973c b72f 8a3d
00000370: 28e9 79bc 56fb 26bd f963 463d 5f59 6a3d
00000380: eda9 c83c 5967 c13b 13ce 163b a37d 783c
00000390: facf 9abd 51ca 3cbd c3ac 113d 78a3 bc3c
000003a0: 9bbb fe3c a8ff 723b c03b 59bd 1ed0 2bbd
000003b0: 1af9 a8bc ee31 7abd f3ad a13d b42c 64bd
000003c0: 3b85 3b3c 1be4 b43d 65b6 95bd 821e aebd
000003d0: 58d1 143d bb6f 3d3d 9e2d 25bd d8fb 1e3d
000003e0: a8dc 7f3d 898c 2ebd 15dc 893d 4387 9d3b
000003f0: 6ca0 9fbc de2b 013d acd0 353d df9d 9d3d

4.bias f4 [128]
-0.033637084 0.015970618 0.06322657 -0.0872706 -0.051812887 -0.039344713 -0.02502725 -0.028953966
0.07841393 0.084883265 -0.067242466 0.048008 -0.054504268 -0.02712252 0.09947532 0.058455143
-0.12825057 0.047484793 0.08479989 -0.052768957 -0.033810064 0.04785252 0.019371124 -0.0514178
0.094665624 -0.05898876 -0.026986064 -0.081516676 -0.032901812 -0.015215379 -0.07494412 0.06891587
0.0035245111 -0.009909377 -0.057019196 -0.0315692 0.013336428 0.02941337 -0.009185166 -0.003259226
0.009590989 -0.033829354 0.100524954 0.058932256 0.053083833 0.06823534 0.02265418 -0.05316554
-0.0032667732 0.04031629 0.05457649 -0.04676679 0.03598459 6.703396e-05 -0.035598338 -0.03753953
0.0045217955 -0.0807073 -0.022066867 0.07355768 0.034472767 -0.05142351 0.11080393 0.052942596
-0.09070621 -0.06964068 -0.003924064 0.014547299 0.113189995 0.035538603 0.048699923 -0.023249181
0.05624028 0.08911215 0.119080946 0.067928754 -0.024777008 -0.062623724 0.0557939 -0.0010893228
0.04592724 0.08299186 -0.05283413 -0.033662304 0.07751138 0.03600488 0.07077089 -0.008914973
-0.0797681 -0.01233602 0.079548545 0.036686894 -0.08165785 -0.023564914 0.07118379 0.046648405
0.07382256 0.08990722 -0.052007902 -0.010281776 0.007038727 -0.022595132 -0.0021454073 -0.022702005
0.07484692 0.0037253809 -0.021214413 0.022414856 0.101251535 -0.0073273173 -0.044010468 0.047257993
-0.05902748 0.018601242 0.15493014 -0.06558566 -0.07906402 -0.05293589 -0.048803307 0.027531879
0.07235176 0.07977096 0.08088991 0.011578964 0.021011712 -0.0236915 0.05029398 0.032140188
00000000: 0ac7 09bd d0d4 823c ef7c 813d eeba b2bd
00000010: c039 54bd ec27 21bd f305 cdbc de30 edbc
00000020: 7c97 a03d 47d7 ad3d 6bb6 89bd 09a4 443d
00000030: de3f 5fbd 0c30 debc b7b9 cb3d a96e 6f3d
00000040: 1e54 03be 6a7f 423d 91ab ad3d 4324 58bd
00000050: 6c7c 0abd 0101 443d 31b0 9e3c 799b 52bd
00000060: 0de0 c13d 339e 71bd e111 ddbc 37f2 a6bd
00000070: 0dc4 06bd ed49 79bc 4e7c 99bd c323 8d3d
00000080: 7cfb 663b f15a 22bc f68c 69bd b54e 01bd
00000090: 0981 5a3c 4ff4 f03c 617d 16bc bd98 55bb
000000a0: 8623 1d3c a690 0abd 07e0 cd3d f362 713d
000000b0: 6f6e 593d f8be 8b3d 4295 b93c 1cc4 59bd
000000c0: 5c17 56bb b222 253d 998b 5f3d 898e 3fbd
000000d0: 9464 133d 9594 8c38 90cf 11bd 0dc3 19bd
000000e0: 922b 943b de49 a5bd 93c5 b4bc 69a5 963d
000000f0: 5133 0d3d 75a1 52bd 2ced e23d 56da 583d
00000100: 2dc4 b9bd c69f 8ebd 6f95 80bb cb57 6e3c
00000110: 28d0 e73d ed90 113d 9279 473d 1175 bebc
00000120: 355c 663d 6e80 b63d b6e0 f33d 3b1e 8b3d
00000130: 27f9 cabc de40 80bd 2588 643d 9cc7 8eba
00000140: 341e 3c3d a3f7 a93d 9a68 58bd 7ce1 09bd
00000150: 49be 9e3d da79 133d 54f0 903d 1b10 12bc
00000160: 755d a3bd 051d 4abc 59ea a23d ff44 163d
00000170: 3b3c a7bd 350b c1bc cfc8 913d 6612 3f3d
00000180: 4830 973d 4721 b83d 3d06 55bd e574 28bc
00000190: 1fa5 e63b 6d19 b9bc f699 0cbb 8ef9 b9bc
000001a0: 5849 993d 8525 743b d9c9 adbc 5c9f b73c
000001b0: f75c cf3d fe19 f0bb 5244 34bd 9991 413d
000001c0: cdc6 71bd a261 983c 02a6 1e3e c651 86bd
000001d0: 51ec a1bd 4ed3 58bd fae5 47bd 898a e13c
000001e0: 292d 943d f55e a33d 9ca9 a53d b2b5 3d3c
000001f0: c120 ac3c ad14 c2bc 0f01 4e3d 6ea5 033d

6.weight f4 [128, 128]
0.0073652607 0.046538107 -0.022292268 -0.0106578395 0.02752915 -0.06271435 0.015656354 0.064162806
0.06551357 0.039295793 -0.050539132 -0.044030357 0.0668454 -0.084176295 0.07904097 -0.026846096
0.046187136 -0.0043069404 0.078188755 -0.05995417 0.07616224 0.07728095 -0.0044083637 0.08286546
-0.053603373 -0.017953714 -0.005224738 -0.01158361 -0.06475419 7.437101e-05 0.005904364 0.08846197
-0.019011006 0.055461265 -0.020754272 -0.038551617 0.0790106 -0.08775551 0.02683479 0.021315282
0.0676087 -0.0435521 -0.009725251 -0.06614808 0.041711975 0.021043606 0.038261045 0.037580714
-0.025541896 -0.058954053 -0.015592792 0.049335282 0.046353236 0.062727645 0.06061779 -0.08646703
0.026615044 0.045061342 -0.031244751 -0.078477174 0.024443973 -0.04019238 -0.06119034 0.07903844
-0.03921874 -0.04762595 -0.08136378 0.07182658 0.06169227 0.036851954 0.021155812 -0.07070574
-0.066121094 0.053164832 -0.04293775 -0.0723882 -0.028774993 -0.052486118 0.03766853 -0.037861817
-0.07042619 -0.016281897 -0.05888062 -0.0610806 -0.032574333 -0.03668694 -0.050090455 0.08690649
0.030573498 -0.04431573 0.026139991 -0.0806894 -0.066669516 0.0024937352 0.09848026 0.082192995
-0.004636083 -0.02397524 -0.031366788 -0.017106507 -0.027677685 -0.08428408 -0.049419913 -0.015395537
0.012888516 0.090568386 0.10216298 0.08520647 0.06887833 0.08486938 0.07022713 0.043742925
0.03734838 0.055979963 0.0021028721 -0.020503618 0.03393552 -0.06885346 0.05110042 0.0989354
0.07627542 -0.07265669 0.0702835 0.019464964 0.054100815 0.03595205 0.072746016 -0.07593314
0.08725078 -0.07984337 -0.050489105 0.017859884 -0.017203148 -0.06119975 0.06493259 0.021118017
-0.025841773 0.036474515 -0.07017025 -0.06935563 0.049869306 0.05281255 0.045513697 0.025420299
-0.056636803 0.056365795 0.029222324 0.059673186 -0.066612415 -0.08857025 -0.044993956 -0.053384893
-0.0044021998 -0.020483727 0.06871908 -0.01667587 -0.0346537 0.035086706 0.08855446 -0.0001834922
0.087870605 -0.04930821 0.07579233 0.031268053 0.00856225 0.06928205 0.065258354 -0.04143623
-0.029474331 -0.08561763 -0.023102023 -0.015580064 0.040240318 0.0053459285 -0.04353924 0.08837421
0.00947686 -0.067753606 0.006426368 0.0511936 0.025263527 -0.03736723 -0.021080878 0.06837387
0.039001133 -0.003112286 -0.04290083 0.061050855 -0.03983599 0.038695563 0.06582045 -0.07156972
-0.047488082 -0.061471775 -0.011045826 -0.037481196 -0.05812017 0.08502544 0.09112336 -0.019611577
0.022123858 -0.0019349094 0.00057903695 0.058360066 0.036678847 0.06708423 -0.03785977 -0.08083825
-0.015837777 0.011773384 0.0028499514 0.062198825 0.034901634 0.037477966 0.010672024 -0.008104913
-0.012123101 0.008400135 -0.017025834 0.012645419 0.05881684 0.04661808 0.051709533 0.038812995
-0.020867886 -0.028868848 0.05135295 0.0076083164 0.084409066 -0.012703251 0.09759014 -0.071637005
0.097314484 -0.029777026 0.006734381 -0.025261965 -0.0018075393 0.028415924 0.09905985 -0.018301617
-0.010296327 -0.05424354 -0.016286459 -2.5141851e-05 0.087407395 -0.082320616 -0.065333076 0.0020260052
-0.03094058 0.03891113 0.038831584 -0.06366445 0.019022565 0.014402869 0.008670747 -0.07501512
00000000: 4958 f13b be9e 3e3d 469e b6bc 389e 2ebc
00000010: d084 e13c 6270 80bd c141 803c ca67 833d
00000020: fb2b 863d a0f4 203d 1f02 4fbd 2d59 34bd
00000030: 3ee6 883d 9f64 acbd 3be0 a13d 58ec dbbc
00000040: b92e 3d3d 3c21 8dbb 6d21 a03d 8192 75bd
00000050: f3fa 9b3d 7a45 9e3d 0974 90bb 5eb5 a93d
00000060: 368f 5bbd ab13 93bc 4734 abbb 2fc9 3dbc
00000070: d89d 84bd a2f7 9b38 6579 c13b 8d2b b53d
00000080: f8bc 9bbc 5a2b 633d dd04 aabc 4de8 1dbd
00000090: 4fd0 a13d 29b9 b3bd a2d4 db3c 639d ae3c
000000a0: 6e76 8a3d b063 32bd a956 1fbc a578 87bd
000000b0: 2dda 2a3d a463 ac3c 9db7 1c3d 3cee 193d
000000c0: 3d3d d1bc ce79 71bd e978 7fbc cb13 4a3d
000000d0: e4dc 3d3d 5a77 803d 5c4a 783d a015 b1bd
000000e0: cb07 da3c 3e92 383d fef4 ffbc a4b8 a0bd
000000f0: ba3e c83c c4a0 24bd b9a2 7abd e8de a13d
00000100: d4a3 20bd 6e13 43bd 0ea2 a6bd d019 933d
00000110: 09b1 7c3d 13f2 163d f44e ad3c 2cce 90bd
00000120: 7f6a 87bd 5ec3 593d 7fdf 2fbd 4440 94bd
00000130: 89b9 ebbc affb 56bd 514a 1a3d fe14 1bbd
00000140: 9b3b 90bd 9d61 85bc ce2c 71bd a72f 7abd
00000150: aa6c 05bd 0b45 16bd a62b 4dbd 08fc b13d
00000160: 4675 fa3c 6984 35bd 8923 d63c 7c40 a5bd
00000170: 078a 88bd ef6d 233b 05b0 c93d cd54 a83d
00000180: 48ea 97bb b967 c4bc 767a 00bd f222 8cbc
00000190: 50bc e2bc 229d acbd 896c 4abd 903d 7cbc
000001a0: 5b2a 533c eb7b b93d d33a d13d bb80 ae3d
000001b0: 1510 8d3d ffcf ad3d 3ed3 8f3d c82b 333d
000001c0: 9dfa 183d 3f4b 653d 57d0 093b 34f7 a7bc
000001d0: f9ff 0a3d 0b03 8dbd ad4e 513d a59e ca3d
000001e0: 4a36 9c3d 08cd 94bd ccf0 8f3d fd74 9f3c
000001f0: d198 5d3d 7542 133d ddfb 943d d682 9bbd
00000200: 89b0 b23d ec84 a3bd aacd 4ebd e44e 923c
00000210: 9eed 8cbc 97ac 7abd 61fb 843d b1ff ac3c
00000220: 20b2 d3bc 4d66 153d 6cb5 8fbd 530a 8ebd
00000230: c243 4c3d f951 583d 926c 3a3d 3b3e d03c
00000240: fefb 67bd d2df 663d a863 ef3c df6b 743d
00000250: 176c 88bd 5264 b5bd 954b 38bd 1eaa 5abd
00000260: 5440 90bb 7dcd a7bc 97bc 8c3d d69b 88bc
00000270: 0af1 0dbd 14b7 0f3d 0a5c b53d d067 40b9
00000280: 81f5 b33d 68f7 49bd 0239 9b3d ee12 003d
00000290: ae48 0c3c bfe3 8d3d 2ca6 853d 09b9 29bd
000002a0: 2774 f1bc 4c58 afbd 7440 bdbc 8643 7fbc
000002b0: 08d3 243d e62c af3b 3456 32bd 8afd b43d
000002c0: d544 1b3c 67c2 8abd 4894 d23b 61b0 513d
000002d0: 75f5 ce3c 610e 19bd ceb1 acbc 9907 8c3d
000002e0: a7bf 1f3d 7ff7 4bbb c8b8 2fbd 7610 7a3d
000002f0: 102b 23bd 3d7f 1e3d dfcc 863d 2593 92bd
00000300: dd82 42bd d4c9 7bbd 8df9 34bc e285 19bd
00000310: 6a0f 6ebd d121 ae3d e29e ba3d 75a8 a0bc
00000320: 183d b53c c99c fdba 83ca 173a f70a 6f3d
00000330: 8f3c 163d 7563 893d d912 1bbd 868e a5bd
00000340: 3abe 81bc 27e5 403c 40c6 3a3b 32c4 7e3d
00000350: 04f5 0e3d 7f82 193d b7d9 2e3c 78ca 04bc
00000360: f99f 46bc b8a0 093c c379 8bbc bb2e 4f3c
00000370: ede9 703d 9af2 3e3d 60cd 533d 60fa 1e3d
00000380: 21f3 aabc 5d7e ecbc 7957 523d 2f4f f93b
00000390: a9de ac3d 4c21 50bc 57dd c73d 6cb6 92bd
000003a0: d14c c73d f3ee f3bc 15ac dc3b 2ef2 cebc
000003b0: f4ea ecba 83c8 e83c e4df ca3d 46ed 95bc
000003c0: edb1 28bc 792e 5ebd 2e6b 85bc b7e7 d2b7
000003d0: a602 b33d b697 a8bd 59cd 85bd bac6 043b
000003e0: 1977 fdbc 4761 1f3d de0d 1f3d 8262 82bd
000003f0: 36d5 9b3c 03fa 6b3c c00f 0e3c 87a1 99bd

6.bias f4 [128]
-0.022789668 0.12305132 0.072623506 0.039478343 -0.036096785 -0.0017878384 0.12864186 0.05479638
0.12086524 0.1431975 0.039253872 -0.12143544 -0.08337205 0.035613876 0.008316384 0.050347727
-0.08796564 -0.0120763015 -0.07693561 0.025138797 0.070465885 0.13013199 -0.042748414 -0.03834519
0.029530425 0.054389246 0.030125825 -0.069957 0.03103095 -0.062365916 0.07003902 -0.039552625
0.15653577 -0.040910378 0.031128375 -0.08244485 -0.09096563 0.04792795 -0.006270904 0.13193648
-0.022902861 0.19585425 0.078199625 0.0057391147 -0.08568195 0.04268461 0.06645148 -0.057825368
-0.027543852 0.048195545 -0.06740136 -0.058030892 0.06818022 -0.05129944 0.08201663 0.11117265
-0.055553794 -0.0020182857 0.17458671 -0.03556191 0.054902762 -0.03170192 -0.0075654006 0.24327295
0.0014378072 -0.027955456 -0.041783333 0.07620706 -0.08476825 -0.049094133 0.009132232 0.03241814
0.014900497 -0.09012149 -0.027211873 0.15263347 -0.007176321 -0.1130798 -0.034448177 -0.047781043
-0.036043398 -0.020771515 -0.050555144 -0.034983058 -0.035439596 -0.030320246 0.01099858 0.01634136
-0.034157854 0.07450055 -0.0035631119 0.075813055 -0.062000304 -0.074439295 -0.009097401 -0.0782776
-0.027368765 -0.056219365 0.01605796 0.069526896 -0.03900605 0.11209432 -0.024117565 0.26197147
-0.07935228 -0.056758773 -0.04624906 -0.03391713 0.017543837 -0.043937553 0.089407206 0.027512306
-0.043841843 0.048796136 -0.029590255 0.03335695 0.041022897 -0.054555647 0.043955706 -0.043805014
-0.0684206 -0.03072846 0.15029234 -0.018214056 0.03613988 0.16331317 0.1316303 0.01689854
00000000: 66b1 babc 5502 fc3d a2bb 943d 0bb4 213d
00000010: 39da 13bd e755 eaba b1ba 033e 2b72 603d
00000020: 3288 f73d 5ea2 123e abc8 203d 25b3 f8bd
00000030: f7be aabd dbdf 113d 7141 083c 6b39 4e3d
00000040: 5427 b4bd aedb 45bc 6b90 9dbd e1ef cd3c
00000050: 6b50 903d 5241 053e f618 2fbd d90f 1dbd
00000060: cae9 f13c 42c7 5e3d 6fca f63c 9e45 8fbd
00000070: 9e34 fe3c 6773 7fbd 9e70 8f3d ef01 22bd
00000080: ea4a 203e a491 27bd ef00 ff3c d8d8 a8bd
00000090: 304c babd 1950 443d 287c cdbb 5b1a 073e
000000a0: c89e bbbc 048e 483e 2027 a03d 2f0f bc3b
000000b0: 057a afbd 0fd6 2e3d b717 883d 4bda 6cbd
000000c0: a5a3 e1bc b168 453d b909 8abd cdb1 6dbd
000000d0: 12a2 8b3d 5d1f 52bd 56f8 a73d 7cae e33d
000000e0: 608c 63bd 3745 04bb dcc6 323e 5ea9 11bd
000000f0: b8e1 603d dfd9 01bd 2ee7 f7bb 8b1c 793e
00000100: ce74 bc3a d702 e5bc 0025 2bbd 7212 9c3d
00000110: fa9a adbd ee16 49bd 5b9f 153c e2c8 043d
00000120: 3721 743c 9e91 b8bd 6feb debc f34b 1c3e
00000130: 5827 ebbb 6296 e7bd 8819 0dbd 0eb6 43bd
00000140: 3ea2 13bd 0629 aabc e912 4fbd 654a 0fbd
00000150: 1c29 11bd 2a62 f8bc 6333 343c 51de 853c
00000160: 1be9 0bbd bf93 983d 1983 69bb e043 9b3d
00000170: 08f4 7dbd a173 98bd 440d 15bc 0250 a0bd
00000180: 7634 e0bc 4746 66bd fc8b 833c 1e64 8e3d
00000190: cfc4 1fbd b591 e53d 3392 c5bc 2021 863e
000001a0: 7383 a2bd e37b 68bd a86f 3dbd b0ec 0abd
000001b0: 18b8 8f3c ddf7 33bd 201b b73d 7d61 e13c
000001c0: 8193 33bd 75de 473d 4367 f2bc 4ca1 083d
000001d0: a007 283d be75 5fbd e60a 343d e36c 33bd
000001e0: 1920 8cbd 40ba fbbc 3ce6 193e a535 95bc
000001f0: 6907 143d 913b 273e 18ca 063e cf6e 8a3c

8.weight f4 [49, 128]
0.07683432 -0.07932618 -0.021638276 0.042298824 -0.13543499 0.07901813 -0.18728347 0.09588545
-0.14833072 -0.15269186 -0.098401256 0.010801298 -0.0033447214 0.005986795 0.033294555 0.0069222394
0.03334823 0.058880467 0.013595194 0.06499215 0.06495481 -0.056498002 -0.081062846 0.09265552
-0.039558813 0.0353442 0.07018081 -0.017629487 -0.058266837 0.008981482 0.08501064 0.06413
-0.09675761 0.083019294 0.018846497 0.0738086 -0.08357552 -0.011004115 0.03512131 -0.18551406
0.0024116093 -0.2183217 -0.032937743 -0.024296695 0.044153117 0.069119826 0.0041968916 -0.011439144
0.0049697594 0.032678675 -0.02574614 -0.030253762 -0.053674646 0.056547385 -0.03224183 -0.077008694
0.06629366 0.06537474 -0.027240466 -0.088345096 -0.013443964 -0.07774574 -0.041400786 -0.16282701
-0.07387007 0.08448699 0.004136689 -0.0016832709 -0.030876886 0.055062883 0.11664966 0.08582805
-0.0133267725 0.027002158 0.08461699 -0.10436167 -0.053030886 0.0024225123 -0.019514382 0.037429444
-0.034043632 0.094185404 -0.0425649 -0.08166384 -0.034800325 0.07152734 0.04460025 -0.07051235
0.049255736 0.05449428 0.016476 -0.060328946 -0.05803892 -0.0019107317 -0.13474654 0.03324083
0.08194005 0.03583869 0.036305033 -0.11730507 -0.029922267 -0.15792218 -0.03676302 -0.22856422
0.1010948 0.16509582 -0.054976035 0.047742553 0.004557502 -0.052087728 0.027117332 0.05915093
-0.026762282 0.036354277 0.03318794 0.07138783 -0.029353607 0.031149607 -0.10958328 0.08158739
-0.07163926 -0.053226944 -0.23456144 0.0070765717 -0.034005377 -0.12648359 -0.04272977 0.070339
0.041235153 -0.08685244 0.028164042 0.0002101326 0.00017292284 0.023180747 -0.013553606 0.07820686
-0.12404277 -0.0070309346 -0.13722281 -0.044956524 0.04932814 0.026453823 0.07519661 0.014300565
0.08709477 0.030813955 0.041643895 -0.020109307 0.040221665 -0.14351578 -0.00026036662 0.112513825
0.0070510865 0.028332876 0.032382205 -0.06682623 0.012557227 0.003413753 -0.045239557 -0.023315765
-0.10010607 -0.014056197 0.12144487 0.03209981 0.0313397 -0.040291537 0.0124852285 -0.09153676
0.028841179 -0.23301291 -0.12102999 0.06738131 0.0456829 -0.040693402 0.08498218 0.06381738
-0.034029257 0.028776549 -0.015892316 0.0070988783 -0.13252161 -0.060807496 -0.024576258 -0.043520052
-0.06550338 0.011448108 -0.1609498 -0.14839485 0.06030062 0.0016100027 -0.049950846 -0.09761603
-0.038752828 -0.068913594 0.06332327 0.013459543 -0.051351942 0.04448075 0.0052847825 0.097887896
-0.063556395 -0.025967093 0.024310023 -0.04847279 0.07908518 -0.08866324 -0.06772923 -0.00025021966
0.03721777 -0.06888418 0.00024387057 -0.013820967 0.0753813 0.021438085 0.06436727 -0.11573439
0.08719504 0.07356616 -0.03758603 -0.09905966 -0.067923464 -0.055260196 -0.1356496 0.026351968
-0.037836563 0.023784585 -0.025655566 -0.05437462 0.017732222 -0.22530872 0.040360343 -0.17310032
0.09307095 0.07304229 0.04856597 -0.08536322 0.08427162 0.043623917 -0.07405402 0.08455223
-0.01677726 -0.016904265 -0.025869567 0.0037685751 -0.116548516 -0.018161356 -0.024321072 -0.060290117
-0.022864956 0.052892856 -0.16556413 0.0038019272 0.016968878 -0.15385637 -0.05609141 0.0075887362
00000000: 505b 9d3d c475 a2bd c142 b1bc 8841 2d3d
00000010: 78af 0abe 42d4 a13d 3dc7 3fbe 975f c43d
00000020: 02e4 17be 415b 1cbe 9986 c9bd edf7 303c
00000030: 1d33 5bbb e02c c43b df5f 083d f4d3 e23b
00000040: 2798 083d a52c 713d 60be 5e3c 9b1a 853d
00000050: 0707 853d 736a 67bd 4704 a6bd 2dc2 bd3d
00000060: 6c08 22bd 14c5 103d f5ba 8f3d b76b 90bc
00000070: 35a9 6ebd 1127 133c 0f1a ae3d 9756 833d
00000080: db28 c6bd 0506 aa3d f863 9a3c f728 973d
00000090: a429 abbd 9b4a 34bc 5ddb 0f3d 66f7 3dbe
000000a0: 170c 1e3b b98f 5fbe bae9 06bd dd09 c7bc
000000b0: e6d9 343d b28e 8d3d 1486 893b 3f6b 3bbc
000000c0: 5dd9 a23b 13da 053d 92e9 d2bc bdd6 f7bc
000000d0: f2d9 5bbd 3b9e 673d 0210 04bd bcb6 9dbd
000000e0: f8c4 873d 31e3 853d 6627 dfbc 46ee b4bd
000000f0: 1244 5cbc 2939 9fbd df93 29bd 20bc 26be
00000100: 3149 97bd 8407 ad3d 108d 873b 33a1 dcba
00000110: 86f1 fcbc 9e89 613d 04e6 ee3d 9ec6 af3d
00000120: 8958 5abc a133 dd3c ac4b ad3d 92bb d5bd
00000130: ea36 59bd 03c3 1e3b a0dc 9fbc 9e4f 193d
00000140: 5671 0bbd 47e4 c03d 8858 2ebd 5f3f a7bd
00000150: c98a 0ebd ed7c 923d c0ae 363d c768 90bd
00000160: 62c0 493d 6535 5f3d adf8 863c 7c1b 77bd
00000170: 38ba 6dbd 8471 faba fffa 09be 8927 083d
00000180: 2fd0 a73d 97cb 123d 96b4 143d a43d f0bd
00000190: 8b1f f5bc 5ab6 21be d294 16bd bd0c 6abe
000001a0: ca0a cf3d e10e 293e 8d2e 61bd b28d 433d
000001b0: 1957 953b f159 55bd 2b25 de3c 3f48 723d
000001c0: 933c dbbc 39e8 143d 14f0 073d c833 923d
000001d0: fa76 f0bc 762d ff3c 336d e0bd 4a17 a73d
000001e0: 9bb7 92bd 7f04 5abd e030 70be 96e2 e73b
000001f0: 3949 0bbd ea84 01be 6905 2fbd e50d 903d
00000200: 31e6 283d b1df b1bd 47b8 e63c 0a57 5c39
00000210: 9f52 3539 8de5 bd3c f20f 5ebc eb2a a03d
00000220: 230a febd c163 e6bb 2384 0cbe 5524 38bd
00000230: 4e0c 4a3d b0b5 d83c ae00 9a3d eb4c 6a3c
00000240: be5e b23d 8c6d fc3c ca92 2a3d 46bc a4bc
00000250: 79bf 243d cdf5 12be d181 88b9 a66d e63d
00000260: cd0c e73b 591a e83c 34a3 043d 31dc 88bd
00000270: d4bc 4d3c 45b9 5f3b 1d4d 39bd b400 bfbc
00000280: 6904 cdbd f74b 66bc 17b8 f83d 177b 033d
00000290: 0f5e 003d bd08 25bd d88e 4c3c a077 bbbd
000002a0: 5644 ec3c f09a 6ebe 92de f7bd 36ff 893d
000002b0: fe1d 3b3d 20ae 26bd 230b ae3d b0b2 823d
000002c0: 4362 0bbd ccbc eb3c 9a30 82bc b59d e83b
000002d0: bfb3 07be 4811 79bd 2654 c9bc 1542 32bd
000002e0: a326 86bd d890 3b3c 06d0 24be d2f4 17be
000002f0: c8fd 763d ba06 d33a 4299 4cbd eaea c7bd
00000300: 49bb 1ebd 9222 8dbd a1af 813d 6a85 5c3c
00000310: 6a56 52bd 7231 363d f82b ad3b 7379 c83d
00000320: db29 82bd f1b8 d4bc d025 c73c 678b 46bd
00000330: 69f7 a13d 1395 b5bd 9fb5 8abd ea2f 83b9
00000340: a971 183d 2613 8dbd 82b7 7f39 5671 62bc
00000350: 8361 9a3d ec9e af3c fdd2 833d 2706 edbd
00000360: 5093 b23d dba9 963d cff3 19bd cbdf cabd
00000370: 751b 8bbd 8458 62bd bbe7 0abe 15e0 d73c
00000380: 83fa 1abd e4d7 c23c 9f2b d2bc ecb7 5ebd
00000390: 2a43 913c 54b7 66be e350 253d 3641 31be
000003a0: fb9b be3d 3297 953d 1ced 463d e9d2 aebd
000003b0: 9996 ac3d feae 323d a2a9 97bd b829 ad3d
000003c0: 7770 89bc d07a 8abc 6aec d3bc 33fa 763b
000003d0: fdb0 eebd 20c7 94bc fc3c c7bc c5f2 76bd
000003e0: 4a4f bbbc 2ea6 583d a589 29be c129 793b
000003f0: 5102 8b3c 868c 1dbe 1bc0 65bd efaa f83b

8.bias f4 [49]
-0.07027252 0.027240518 -0.17119491 -0.15889551 -0.1743132 -0.05501256 -0.045555547 -0.088306695
-0.13139172 -0.20008829 -0.12366165 -0.07427188 0.08381273 -0.39932993 -0.07915684 -0.10394755
-0.14886971 -0.18650334 -0.19865575 -0.09852642 -0.115840405 -0.13427685 -0.23296437 -0.1309993
-0.18194744 -0.14576407 -0.13950434 -0.08471416 -0.15853572 -0.13725871 -0.21043871 -0.15474819
-0.13214189 -0.124226965 -0.042790167 -0.023229435 -0.096645124 -0.1266101 -0.039316084 -0.04839448
-0.050082512 0.010495526 -0.15980704 -0.101297334 -0.029006178 -0.063340805 -0.088000804 -0.070750356
-0.09539302
00000000: 0aeb 8fbd 8227 df3c b84d 2fbe 81b5 22be
00000010: 297f 32be da54 61bd 7498 3abd 24da b4bd
00000020: 8d8b 06be f2e3 4cbe 5242 fdbd db1b 98bd
00000030: 02a6 ab3d f974 ccbe fb1c a2bd 74e2 d4bd
00000040: 4d71 18be bbfa 3ebe 6a6c 4bbe 38c8 c9bd
00000050: bc3d edbd df7f 09be 368e 6ebe ae24 06be
00000060: 6e50 3abe 2d43 15be 3ada 0ebe 9e7e adbd
00000070: 3057 22be 8c8d 0cbe 3f7d 57be 4f76 1ebe
00000080: 3450 07be b56a febd be44 2fbd a84b bebc
00000090: e1ed c5bd 14a6 01be e709 21bd 4a39 46bd
000000a0: 5223 4dbd 6df5 2b3c 75a4 23be fa74 cfbd
000000b0: 5d9e edbc d3b8 81bd c439 b4bd 90e5 90bd
000000c0: 6a5d c3bd
