models/snapsRandom/model_1685791311.9165046.pt (torch, 252563 bytes, 10 tensors)

0.weight f4 [128, 49]
000000 52 98 a5 bd ff 21 e4 3d 2d 85 10 3d 1d 2d 1d be
       -0.080856934 0.11139297 0.035283256 -0.1534924
000010 8e 82 4f 3d df d4 47 bd 98 c8 b2 bd f4 a8 93 3d
       0.050661616 -0.048786994 -0.087296665 0.072099596
000020 41 00 16 bd 34 a7 f9 bd 4b b9 e9 3d 1a c3 2d 3e
       -0.036621336 -0.121900946 0.11412295 0.16968957
000030 26 41 21 bd 16 d2 c9 3d 92 55 b8 3b d5 be de bd
       -0.03936877 0.09854524 0.005625435 -0.10876242
000040 f6 28 4d bc 75 25 a9 bd 1f 49 5b bc 78 e8 c7 3c
       -0.012521973 -0.082590975 -0.013384133 0.024402842
000050 c8 19 ea bc 01 1e b1 bd ad 31 7a 3e ce dd e3 bd
       -0.028576747 -0.08648301 0.24433012 -0.1112629
000060 f4 3e 29 bd 12 eb a5 bd f8 b7 7d bd 59 2f 70 3d
       -0.041319802 -0.08101477 -0.061943024 0.058638904
000070 d2 82 1e 3e 83 31 8e bd 1a a9 34 3e 01 6a eb bc
       0.15479591 -0.06943037 0.17642632 -0.02873707
000080 52 47 8e bb f9 76 28 3d 2a 2e 79 bd 21 6d 0f 3e
       -0.004341998 0.041129086 -0.06083504 0.14006473
000090 9c 6c 62 bd 37 ac db bb 2c a1 44 be 16 9d 03 bc
       -0.05527936 -0.006703879 -0.19202107 -0.008033058
0000a0 cb 64 fb bd ab 97 8e 3d 25 9f 46 3e 14 9d 35 bd
       -0.12275084 0.06962522 0.19396646 -0.044339254
0000b0 59 cb cb bd cf 39 05 3e 7b f2 f7 3d 11 b4 27 be
       -0.09950895 0.13010333 0.12106796 -0.16377284
0000c0 e3 28 95 bd 4f 3f 74 3b b1 c1 18 bd bc bf fe bd
       -0.07283189 0.003726918 -0.037294094 -0.12438914
0000d0 cd 60 6c 3d 36 cc 00 3e c7 a7 13 3b 0c cf 06 be
       0.057709504 0.125779 0.0022530423 -0.1316492
0000e0 9a a6 34 3d 16 c3 da 3d 50 eb 6b 3c 28 57 09 3e
       0.044104196 0.10681741 0.014399365 0.13412154
0000f0 bf e7 95 3d 99 b9 41 3d 76 5c 96 3c 2c 79 0e be
       0.07319593 0.04729614 0.018354636 -0.13913411
000100 6c 86 ce bc 94 9a 10 3e 92 38 84 bd ce ba 1b be
       -0.025210582 0.14121467 -0.064561024 -0.15207979
000110 90 f4 66 3e d3 b1 28 3e 7f a1 f5 3c fc c4 3b 3d
       0.2255423 0.16474085 0.029984234 0.045842156
000120 ad 38 07 3e 6a 70 3d be fb 9e 1c be 5d b0 42 bd
       0.13205214 -0.18499914 -0.15295021 -0.047531474
000130 1d 36 94 3d a3 83 1c 3d 85 46 96 bc 56 e6 ff 3d
       0.07236884 0.038211476 -0.018344173 0.12495105
000140 b6 5e 2d be 55 31 e6 bd b0 fd ff bd a6 9d 60 3e
       -0.1693066 -0.11239878 -0.12499559 0.21935138
000150 1c fe df bd 96 72 3f 3d 6d 2b e6 bc 6d bc f2 bd
       -0.109371394 0.046740137 -0.028096879 -0.118523456
000160 87 6f 99 3d b5 58 99 3d 8d f0 09 bd 5b 38 d6 3d
       0.07491975 0.07487623 -0.033676673 0.10459968
000170 1d fa 91 bc 4e e5 56 be d2 5d 70 bd 6c 67 fe 3d
       -0.017819459 -0.2098591 -0.058683224 0.1242207
000180 55 2f b0 3c 82 7f 95 bd a2 9f 21 3d ed ba 2f be
       0.021506945 -0.07299711 0.03945888 -0.1716115
000190 ba 36 54 3d 50 fc f9 bd 8c 1e ce bc 0e 86 81 be
       0.051810004 -0.12206328 -0.02516105 -0.25297588
0001a0 89 e4 45 3d a5 f6 76 3d 62 35 0b 3e 81 c4 01 bd
       0.04831365 0.060293812 0.13594583 -0.03168154
0001b0 16 f5 6d bd 49 0a 2c 3e c3 17 65 be 50 a4 39 3d
       -0.05809506 0.16800798 -0.22372346 0.045322716
0001c0 b7 f3 0c be 3d ca 79 3c 21 e1 01 3e a3 34 ce bd
       -0.13764845 0.015245971 0.12683536 -0.100686334
0001d0 83 10 a1 bd 6d 81 eb bc 30 c8 8f bd 21 d5 d0 3d
       -0.078644775 -0.028748238 -0.070206046 0.10196901
0001e0 6f 2b 3f be 47 e2 58 3d f1 98 05 bd c6 8d 68 3c
       -0.18668912 0.05295017 -0.03261656 0.014193958
0001f0 35 ca cc bd cb 56 ed 3d 6f ac 16 be 69 12 5a 3d
       -0.099995054 0.1158882 -0.14714216 0.053240214
000200 4e 88 a5 3b 04 3e c2 bd 8a 0c 61 3d ed 2d d0 bd
       0.005051649 -0.09484485 0.0549436 -0.1016501
000210 53 7b 0f 3d 33 8e 93 bd e8 71 20 3d 50 f2 f1 bd
       0.03502972 -0.07204857 0.03917113 -0.118137956
000220 95 2d 66 3c c4 cd b6 bd 90 2c 83 bd 43 1f 2a 3e
       0.014048954 -0.089259654 -0.06404984 0.16613488
000230 5d 4c cd bc 02 10 0a bd 00 ab 26 be 11 41 be 3d
       -0.025060827 -0.033706672 -0.16276169 0.09289754
000240 fd a5 49 3d 27 82 bc bd af 81 7e 3d c6 ad b6 3d
       0.049230564 -0.09204512 0.062135395 0.089198634
000250 7b 8f cd 3c cc 61 49 bd ec 8f 9c bd d7 45 eb 3d
       0.02509283 -0.049165532 -0.076446384 0.1148793
000260 c2 26 f2 bc 2f 8c 06 bd 28 01 2d 3d a7 2f ad 3d
       -0.029559497 -0.032848533 0.04223743 0.084563546
000270 56 b8 db 3d 73 8c 9e 3c da 6f dc bd 6a b0 a6 be
       0.10728519 0.01935408 -0.107635215 -0.32556468
000280 63 9e 50 bd 21 00 05 3e a8 25 e5 3c 2a dc 46 3d
       -0.0509323 0.1298833 0.027972057 0.04854981
000290 6b f5 78 3d 09 87 87 bd 6c 5c 3d be 0c 58 5b 3e
       0.060780924 -0.06617553 -0.18492287 0.21420306
0002a0 95 9e cf 3d 60 67 29 bd 97 1b 37 3d 90 19 35 bd
       0.10137669 -0.04135835 0.044704046 -0.04421383
0002b0 5e 63 0f bd 59 b2 63 be fd 55 8f 3d 9a 44 8a 3d
       -0.035006873 -0.22236003 0.06998823 0.06751366
0002c0 38 50 c3 bd 05 86 d5 3d b0 3b 95 3d 45 0b 52 bd
       -0.09536785 0.10425953 0.07286775 -0.05128028
0002d0 42 bb 85 3d 46 48 69 3e bc b1 e9 bb f7 d0 3e 3e
       0.06529857 0.22781476 -0.0071317833 0.18634401
0002e0 84 85 2d be c3 10 c2 3d e5 8b a7 bc 70 43 d0 3d
       -0.16945463 0.09475853 -0.02045245 0.10169113
0002f0 c8 19 f2 3c 27 7a 8e bd 72 a7 fe 3d 2b bc 0f be
       0.02955331 -0.069568925 0.124342814 -0.14036624
000300 82 17 bb 3d 83 63 43 bd 45 04 8a bc 8a 1d e8 3d
       0.09135343 -0.047702324 -0.016847739 0.11333759
000310 99 3e 99 3c 3c 8e 74 bd 6c b8 00 3d c1 fe ae bd
       0.018706607 -0.059705958 0.03142588 -0.08544684
000320 fa 86 25 bd a5 13 51 3e 2f a5 1e 3e a4 61 97 3c
       -0.040411927 0.2041765 0.154927 0.018479176
000330 3d 6d a0 bc a8 8b 1b 3d 96 6b 31 3e 71 01 b4 3c
       -0.019583339 0.037974983 0.17326197 0.021973344
000340 1d 1f b3 bd 24 2c 22 be 50 67 74 bd ed 34 d5 bc
       -0.08746169 -0.15837151 -0.05966884 -0.026026214
000350 24 8a cd 3d 6b ce 86 bc 52 f4 40 bd 8d 80 51 bd
       0.10036114 -0.01645585 -0.047108002 -0.051147986
000360 7d 9c 25 3d d4 60 60 bd bf 27 a9 3c 38 41 7d 3b
       0.040432442 -0.054779842 0.020648835 0.003864361
000370 94 83 89 be e3 de bf 3d ad 24 33 be 0c e6 24 be
       -0.268582 0.09368684 -0.1749446 -0.16103381
000380 73 fd f6 bb b3 85 dc bd 1f 65 50 bb 13 a9 08 3e
       -0.0075375377 -0.107676886 -0.0031798554 0.13345747
000390 0f 36 21 3e 45 90 2d bd df 85 1c bd ce fe a3 bc
       0.15743278 -0.042373914 -0.038213607 -0.020018961
0003a0 f1 65 8f 3d 84 c4 d2 3d aa 8e c0 bd bb a1 e0 bd
       0.07001866 0.10291389 -0.09402211 -0.10968348
0003b0 45 f0 1c be d0 75 24 3d f7 5f bc bd 1d dd 3a 3d
       -0.1532603 0.040151417 -0.09197991 0.045621026
0003c0 07 ca 05 3d 02 04 3a 3c 44 24 05 3d 77 fd 29 3e
       0.03266337 0.011353495 0.03250529 0.16600595
0003d0 77 de e5 bd d6 df d8 bc a9 fd 9e 3d 94 b8 c4 3c
       -0.112240724 -0.02647392 0.077632256 0.024013795
0003e0 f7 98 88 bd 00 4b fc 3c cf 90 97 bd c9 56 11 3e
       -0.06669801 0.030797482 -0.07400667 0.14193262
0003f0 26 21 ed bd 47 d6 11 bd 01 c8 80 bd 46 e2 bb 3b
       -0.11578588 -0.03560474 -0.06288148 0.005733761

0.bias f4 [128]
000000 01 58 d8 3d 34 76 01 3e 45 68 b9 bb f4 f0 fe 3d
       0.105636604 0.12642747 -0.005658182 0.12448302
000010 41 b7 c4 bd 1b 03 25 3e 19 3b 0e be 92 00 08 3f
       -0.096052654 0.16114466 -0.13889731 0.5312587
000020 d0 8b 05 3d 32 d7 ff be a3 f8 45 3e 74 25 a4 3e
       0.03260404 -0.49968868 0.19333129 0.32059824
000030 26 70 cc bd 86 e0 39 be a2 30 62 bd ea 48 0b 3e
       -0.09982328 -0.18152055 -0.05522216 0.13602033
000040 80 f1 d6 bd dd 66 61 be a5 36 0a 3c ea e3 4b bd
       -0.10495281 -0.22011895 0.00843588 -0.049777903
000050 04 f9 bf 3d 52 fe 65 be e9 80 5d be e5 c3 61 be
       0.09373668 -0.22460297 -0.21631207 -0.22047384
000060 b5 fe 0f be c6 cb 82 3d bc f7 43 3e af 4e d4 3e
       -0.14062007 0.06386523 0.19137472 0.4146628
000070 a9 6b 92 be b2 04 6c 3e 7a aa 25 3e 0b ab ac be
       -0.28597763 0.23048666 0.16178313 -0.33724245
000080 31 6a 7b be f3 b1 bc be 48 4c 28 bd 64 f6 54 be
       -0.24552228 -0.36854514 -0.041088372 -0.20797116
000090 8e a6 6a 3e ac c5 1d be fb e7 97 3d 8b 71 a9 bd
       0.22915098 -0.15407437 0.07417294 -0.0827361
0000a0 d5 36 e3 bd 7e c4 1f be c3 50 59 3c e0 88 17 be
       -0.11094443 -0.156023 0.013263884 -0.14798307
0000b0 05 1a 2b be 4a fe a1 bd 19 81 d9 3e c7 a4 3c bd
       -0.16709144 -0.0790983 0.42481306 -0.04605558
0000c0 86 8a ae be b9 cf 66 3e 39 f5 6f be 11 83 59 be
       -0.3409006 0.22540177 -0.23433389 -0.21241404
0000d0 a0 df 85 be c3 e0 59 3e 71 7b 45 be 4e b0 03 bd
       -0.26147175 0.21277146 -0.1928537 -0.03215056
0000e0 72 8e b3 3e 3e 54 0c 3e b4 4e cf 3d ba 51 01 be
       0.35069615 0.13704011 0.10122433 -0.12628832
0000f0 62 47 65 ba 2e ed ce bc 27 f3 5a be ef ee 3b 3e
       -0.00087462936 -0.02525958 -0.21381818 0.18352865
000100 e6 01 0c be ac 1d e7 3d ae ea 54 be 6b 38 43 be
       -0.13672599 0.11284956 -0.20792648 -0.1906449
000110 b1 5f 0a be 9f b4 52 be 69 67 b1 3e 69 a3 45 3e
       -0.13513066 -0.20576714 0.34649208 0.19300617
000120 a7 b5 aa 3d dc 5b c7 bd dd 68 2a 3d ab 94 83 3d
       0.08335429 -0.09734318 0.04160391 0.064248405
000130 cc a5 df bd 84 f6 64 be bf d2 c1 3c a3 63 20 3e
       -0.10920295 -0.22359663 0.023660062 0.15663008
000140 74 92 7a be 98 9b 13 3e 65 38 ef 3d 54 63 a4 3c
       -0.2446993 0.14414823 0.11680678 0.020066895
000150 45 ba 4e be 31 dd af bd b9 80 83 3e ce 82 1e 3e
       -0.20188244 -0.08587111 0.25684145 0.15479586
000160 43 4b f0 bd 9a c9 1d 3d c1 9d 0e 3e b7 e0 dc bd
       -0.11733105 0.03852234 0.13927366 -0.107850485
000170 86 44 fa bd 54 c2 05 be cd 31 75 3e cb 95 57 be
       -0.12220101 -0.13062412 0.23944779 -0.21053235
000180 4a 84 ad 3b 3e ed 99 bd 2e 64 b2 3e 0f d7 8c bd
       0.005295311 -0.075159535 0.34842056 -0.06876957
000190 04 54 b6 3e 9e 5b 7b be b7 19 26 be ee 6b 51 3d
       0.35610974 -0.24546668 -0.16220747 0.05112832
0001a0 82 ab 8d be 32 28 87 bd 6e 2b 5c 3e 49 05 1e be
       -0.27669913 -0.065994635 0.21500942 -0.15431704
0001b0 91 0a 69 be f9 af 1b be e2 20 31 be 37 d7 91 be
       -0.22757937 -0.15203847 -0.172977 -0.28484508
0001c0 be d0 07 be 77 e4 1f be b3 92 c5 3d b0 b6 60 be
       -0.13263223 -0.15614496 0.09647121 -0.2194469
0001d0 e2 3a 07 3e a2 89 6e bd 1d 9b 86 bd 73 76 47 be
       0.13206056 -0.058236726 -0.06572554 -0.19478779
0001e0 5c 3e e3 3d 6e 35 14 be b7 b4 49 3e cd 8c 9a be
       0.110958785 -0.14473507 0.19697843 -0.30185547
0001f0 25 77 4c be 02 f6 65 be 7c e0 20 3d 08 e6 a6 3c
       -0.19967325 -0.22457126 0.039276585 0.02037336

2.weight f4 [128, 128]
000000 3b 2c 35 3d 3f f9 06 bc 75 61 ff bc 5f 2e 6f bd
       0.044231635 -0.008238136 -0.0311744 -0.058393832
000010 31 cd 69 3d a5 84 67 bc 15 34 2a bd c3 72 07 3d
       0.05708045 -0.014130746 -0.041553576 0.03306843
000020 78 0f 08 3c ce 06 08 bd 10 77 d0 3b dc c5 83 3d
       0.008304469 -0.033209614 0.0063618496 0.06434223
000030 f4 ee 1b bb d4 e0 16 bd 7f 95 9b 3d 19 06 46 bd
       -0.002379355 -0.036835507 0.075968735 -0.04834566
000040 56 f9 7b bd 57 83 2b bd be ae a8 bd 1b 75 14 3d
       -0.061517082 -0.041873302 -0.082364544 0.036244493
000050 53 1d ab 3d dc a0 9c bd 35 51 3e 3d 09 18 21 3c
       0.083552025 -0.07647869 0.046464164 0.009832391
000060 e0 72 2e bc c1 a9 7d bd ac db 20 bd 03 aa 36 bc
       -0.0106475055 -0.061929468 -0.039271995 -0.011148932
000070 72 b7 c8 3c c1 b6 5a 3d b6 f0 85 bd 54 48 97 bc
       0.024501536 0.053396944 -0.065400526 -0.018467106
000080 c8 8a 24 bc c8 b3 d2 3b 13 07 7f bd 15 a2 44 3d
       -0.010042854 0.006430123 -0.062262606 0.048006136
000090 24 c7 c3 3c 8b 60 52 bd 0a 9d 4e bd c8 aa e7 bb
       0.023898669 -0.0513616 -0.050442733 -0.0070699193
0000a0 d2 88 a8 3c 0a ac 7d bd c6 9c a7 3c e0 6c 1e bd
       0.020573054 -0.061931647 0.020460498 -0.03867805
0000b0 a8 86 de bb dc d4 87 3c 4f 6b 3b 3d 0d b4 74 3b
       -0.0067909546 0.016580991 0.045756634 0.0037338764
0000c0 fc 4e 44 bd 80 0b a3 bd 67 d8 3d 3d cc 60 9f 3d
       -0.047926888 -0.07961178 0.046348955 0.077821344
0000d0 cd d6 59 bd 93 7c 63 bd 37 a6 01 3c 3f f1 5b bc
       -0.053183366 -0.055538725 0.007913164 -0.013424217
0000e0 1f 0e 9a 3d ad 9b b6 3d 7b 92 fa 3c 88 6b bd 3d
       0.07522225 0.089164115 0.030587425 0.092490256
0000f0 2e 9e a6 3d dc 33 0a bc 03 f0 82 3d de 35 9d bd
       0.08135639 -0.008435216 0.06393435 -0.0767629
000100 5e 40 ea bc 10 38 9b 3d b6 65 61 bd 55 54 60 bb
       -0.028595146 0.075790524 -0.05502864 -0.0034229953
000110 5f 6c 8b bd 35 12 c0 3d b3 c8 7d 3d c3 5e 50 bd
       -0.068077795 0.09378473 0.06195898 -0.05087162
000120 53 53 ad 3d 07 3b 5d bd 39 6a 8e 3d 13 00 ce ba
       0.084631585 -0.05401137 0.06953854 -0.0015716575
000130 20 16 bf bb 31 a5 83 3d 47 eb a4 bd 8b a6 39 bd
       -0.005831495 0.06427992 -0.08052688 -0.045324843
000140 78 13 04 bc b1 0b 8e bd 1b d1 a2 3c c3 c9 8f bd
       -0.008061282 -0.06935824 0.0198751 -0.07020905
000150 3a 62 78 bd 97 3c 06 3d 2f f3 35 3c eb 51 a2 3d
       -0.06064055 0.032772627 0.011105343 0.07925781
000160 61 41 93 bd 8d 6e 9c 3d 00 23 6f 3d 10 69 f6 bb
       -0.071902044 0.076382734 0.058382988 -0.0075198486
000170 e8 be 46 3d 49 0f 8f bd 9a 14 69 bd 0e 88 73 bd
       0.048521906 -0.06985337 -0.056904413 -0.059455924
000180 da 78 97 bd 62 22 8e bd 2f 3f 20 3d d6 f0 af 3d
       -0.073960975 -0.06940152 0.039122757 0.08590858
000190 eb 86 20 3c 7d 7a 0d bd eb fb 6c bd f1 ca c1 bc
       0.009797792 -0.034540642 -0.057857435 -0.02365634
0001a0 c8 42 51 3d 14 3d 2d bd 60 12 ef bc bd ed a1 bd
       0.05108908 -0.042294577 -0.029183567 -0.07906673
0001b0 8c 4f b3 3c 87 a0 ad 3d 56 88 39 3d 3f 84 9b 3d
       0.021888517 0.08477884 0.045296036 0.07593583
0001c0 46 6a 60 3d 46 fb 30 39 7d 9e 86 bd 12 77 bb 3d
       0.05478885 0.00016878275 -0.06573198 0.0915357
0001d0 13 fc 96 bc e4 97 d0 3d e3 d0 65 bd 2d b1 d1 3b
       -0.018430745 0.10185221 -0.056107413 0.006399295
0001e0 1c 5d ab 3c 68 17 5f 3d b3 28 ff 3b 43 dd a5 bd
       0.020918421 0.05446568 0.007786834 -0.08098843
0001f0 b7 08 14 3a 8f 60 bb 3d c3 df 33 3c 68 41 64 3d
       0.00056470506 0.091492765 0.010978642 0.05572644
000200 47 98 0b bd 40 52 76 bd 91 4a 5c 3d cc 41 36 3d
       -0.03408077 -0.060137033 0.05378205 0.044496343
000210 5b 2d 9a bc d5 82 ce bc c0 02 11 bd 20 6d b4 3c
       -0.018820455 -0.02520887 -0.035403013 0.022024691
000220 75 26 81 3d 4f 02 ae bd 49 c9 1f 3b 22 8b 4b 3c
       0.06306163 -0.08496534 0.002438145 0.012423309
000230 6c a4 b7 bb 9d 64 45 3d cc be d3 3c 40 8e 90 3d
       -0.0056043174 0.048191655 0.025847815 0.07058382
000240 11 0c 2f bd 88 de 5e bc c6 cb 50 bc d8 f7 4b bd
       -0.042736117 -0.01360286 -0.012743896 -0.04979691
000250 50 62 21 bd 15 99 f7 bc 95 bd d1 bc ca 95 30 bd
       -0.0394004 -0.030224362 -0.025603095 -0.0431116
000260 30 3b 57 3c 75 52 aa bd 96 86 9f 3d 1f 26 f5 bc
       0.01313667 -0.08316509 0.07789342 -0.029925404
000270 97 6c 7a 3d 98 8b ed 3b db 11 97 bd 9d fd b5 bd
       0.061138716 0.007249307 -0.073764525 -0.088862635
000280 53 0b 81 bc c8 ef 4f 3d 40 09 4e 3c 7e f7 65 3d
       -0.01575247 0.050765783 0.012575448 0.05614423
000290 f2 cf 64 bd 6c 18 ac bd 1a 87 b0 bd 03 fd bd 3c
       -0.055862375 -0.084030956 -0.086195186 0.023191934
0002a0 b7 ef 3c 3d 47 a3 1e bd c2 83 ba 3c 31 45 90 bd
       0.046127047 -0.038729932 0.022767905 -0.07044447
0002b0 75 07 86 bc 68 f5 98 3d 59 7f e6 bc 3e d2 99 3d
       -0.016360978 0.074686825 -0.028136896 0.07510804
0002c0 58 03 5d bd 5b 17 4b bd 60 d6 9f 3d 6b a0 8f 3d
       -0.053958267 -0.04958282 0.07804561 0.07013019
0002d0 17 a5 9d 3c ce 20 be bc c6 b4 10 3d b3 aa dd 3c
       0.01924376 -0.023209002 0.03532865 0.027058935
0002e0 4f 86 23 bd c5 43 8b bd 1e 67 d1 bb 0a 15 2f bd
       -0.03992301 -0.068000354 -0.0063904664 -0.042744674
0002f0 51 6c f0 bc 79 b0 5b 3c 35 6b 9a 3d d8 f7 8f 3d
       -0.029348524 0.013408774 0.07539979 0.07029694
000300 1f 98 8c 3d d7 c6 15 3d 7d b2 f5 3c 21 74 8d bc
       0.06864952 0.03656658 0.029992336 -0.017267289
000310 97 58 fe 3b 07 41 f0 bb 1f 3a 8e bd eb 07 b4 3d
       0.0077620256 -0.0073319706 -0.069446795 0.08790573
000320 f8 31 7a 3d 02 1d 15 3c 49 53 3f 3d 9d 50 24 3d
       0.06108281 0.009101154 0.046710286 0.04011594
000330 5f cc 82 3d 1d 7b 45 3d 03 4d 5c bc 14 33 a8 bc
       0.06386637 0.048213113 -0.013446095 -0.020532168
000340 c1 ad 4e bd 9c 40 f3 3b 6b b9 89 3d 6f 96 a6 bd
       -0.050458673 0.0074234735 0.06724819 -0.08134162
000350 2b 00 b4 3c ba 2d 4a bd 4f 67 a1 3d 18 e2 9f bd
       0.021972736 -0.049360014 0.07881033 -0.07806796
000360 4f 90 2a 3c 24 d1 58 3d bc 25 ed bc 0a 68 1e 3c
       0.010410382 0.052933827 -0.028948657 0.0096683595
000370 91 ed f7 3c 80 ed ac bb 2a 31 e0 bc d2 f8 a8 3d
       0.030264648 -0.0052773356 -0.027367193 0.08250584
000380 de 7e aa bd 26 76 6a bd 78 e5 09 bd 36 72 f4 3b
       -0.08324979 -0.05724158 -0.033666104 0.007459904
000390 eb d9 67 bc f8 10 6f 3c 93 92 71 bc 87 09 3b bd
       -0.014151077 0.014591448 -0.014744419 -0.045663383
0003a0 38 b3 2c 3c 3a 06 7e 3d e7 9f 27 3d f1 39 ad 3c
       0.010540776 0.062017657 0.04092398 0.021145793
0003b0 5e f9 73 bd 01 c4 4b 3d 65 7f 51 bc d8 34 66 3d
       -0.059563987 0.04974747 -0.012786721 0.05620274
0003c0 5b d9 04 bd bf 2b 8a bd 40 33 79 3d 9c 8c 9a bc
       -0.03243385 -0.06746625 0.06083989 -0.018865876
0003d0 7d e6 1a bd 1a 0c 20 3d 89 a9 28 ba d3 75 08 bd
       -0.037817467 0.03907404 -0.0006433954 -0.03331549
0003e0 56 d6 6a bc f5 1c 21 b9 b2 a6 78 3c 52 2d 81 3d
       -0.014333328 -0.00015364944 0.015176462 0.06307472
0003f0 8b 30 09 bd d8 c5 ec bc a4 dc 6c ba f7 9b d0 39
       -0.03349356 -0.028902933 -0.00090355636 0.00039789054

2.bias f4 [128]
000000 80 56 bc 3d e5 80 2b bd a2 ea d7 bc ee e3 d9 bc
       0.09196186 -0.04187097 -0.026356999 -0.026597943
000010 0f 5f 34 3d d8 89 ce bd b5 11 50 bc 56 a7 f8 bc
       0.044035967 -0.10084885 -0.012699534 -0.03035323
000020 ee 63 1f 3e 0e d2 1c be 3d b0 2a 3c f9 c4 ef bd
       0.15565464 -0.15314505 0.010417995 -0.117074914
000030 24 ef 9a bd 94 5b 92 3d c1 15 ba bd 21 e0 3d 3e
       -0.07565144 0.071463734 -0.090861805 0.1854253
000040 87 c9 07 3e c9 75 60 3e eb 2a 68 bd 65 e6 93 bc
       0.1326047 0.21919931 -0.056681555 -0.018054197
000050 61 43 2d 3c f6 bb 06 be fe 33 85 bd 48 d5 72 bd
       0.010575146 -0.13157639 -0.06504057 -0.059285432
000060 8d 16 77 bd 2d f2 ca bc 2f 1c 39 be a4 42 8e bc
       -0.06032424 -0.024773682 -0.18077157 -0.017365761
000070 1b 11 8d 3c b4 1a d6 3c 32 a1 ff 3d b6 f0 db bd
       0.01722007 0.02613578 0.124819174 -0.10739271
000080 f3 ab 2e 3e d5 27 ef 3d 26 4c 9f bd d4 60 e8 bd
       0.17057781 0.11677519 -0.07778196 -0.113465935
000090 40 d6 bd 3d 2b f6 6f 3c 83 6f af be a0 45 f4 bd
       0.092693806 0.014646093 -0.34264764 -0.119273424
0000a0 8c 1e be bc 29 8a aa bc 2e b7 84 bd 70 16 e3 bd
       -0.023207925 -0.020817833 -0.06480251 -0.11088264
0000b0 c9 8a e6 3d 3e 18 0a 3e b1 51 03 3e 79 81 7f bc
       0.1125694 0.1348581 0.12824132 -0.0155948335
0000c0 a0 9c 1f be 49 ff 82 3b 42 47 f1 3d f5 fd 16 3d
       -0.15587091 0.0039977175 0.117811695 0.036863286
0000d0 7c 0f ef bc 12 dd 10 bd 47 04 85 bd cb 56 2e 3c
       -0.029182188 -0.03536708 -0.064949565 0.01064081
0000e0 ed cb e6 3d ae 45 83 bd b6 0e fd bc fe c1 79 3d
       0.112693645 -0.06409775 -0.030890804 0.06097602
0000f0 d4 87 f7 bc 68 e9 a4 3c 29 bb b1 3d 86 c1 9d 3d
       -0.030216135 0.020130828 0.08678276 0.07702927
000100 f5 b0 56 bd 30 60 88 3d b4 3c 29 bd 8c ac 1d bc
       -0.052414853 0.06658971 -0.041317657 -0.009623658
000110 7d ea 34 bc 51 72 83 be 64 aa 18 be 79 24 ba 3d
       -0.0110422345 -0.25673154 -0.14908749 0.09088988
000120 7b 84 ef bd 0e 45 c7 3d a6 b9 fd 3c fc 34 aa 3d
       -0.116951905 0.09729968 0.030972313 0.08310887
000130 d9 d5 17 bd 3a b6 94 be f4 1d aa 3b b4 d1 b0 bd
       -0.037069175 -0.29045278 0.005191559 -0.08633748
000140 b1 85 02 bd 24 47 37 3c be 7e 82 bd da a5 2a bd
       -0.03186578 0.011186395 -0.063718304 -0.041662075
000150 a5 bf 5c be 83 34 88 3d f5 bb 77 3c f7 33 9f bd
       -0.21557482 0.06650641 0.015120496 -0.077735834
000160 29 ec 01 3e 0c dc ba bd fa bd 99 bd e7 75 a3 3c
       0.12687744 -0.09124002 -0.07506938 0.019953681
000170 a9 e2 c8 3b 9a 13 49 3d 90 5a f6 bd 79 fd 8e 3c
       0.0061305356 0.04909096 -0.12028992 0.01745485
000180 52 4c 15 3d 46 97 f9 3c c4 25 e3 bc d1 c2 e6 3b
       0.036449738 0.03046764 -0.027727969 0.007042267
000190 fe 2e d5 3c ca d7 03 3d f0 71 a1 bc 67 cb b5 bd
       0.026023384 0.032188214 -0.01970765 -0.088766865
0001a0 cb 50 58 bc 47 c6 f5 3d 2a 98 60 bd c3 32 39 3d
       -0.013202856 0.12000709 -0.054832615 0.045214426
0001b0 b5 6d f5 3c 00 d2 07 be 73 97 22 bd 95 7d 4b bd
       0.029959539 -0.13263702 -0.039695214 -0.04968031
0001c0 58 c0 07 bd ac 48 b5 bd 4f c9 84 bd 2c 95 13 3d
       -0.033142418 -0.08851752 -0.06483709 0.036030933
0001d0 f9 c0 0d bd 77 51 cb 3c 76 d8 4a 3d 51 62 08 3c
       -0.03460786 0.024819119 0.04952284 0.008324222
0001e0 21 e9 82 3c ed 21 66 3d a2 f6 82 3d d2 a0 57 bd
       0.015980305 0.056184698 0.06394698 -0.052643605
0001f0 b9 b6 9c 3b 24 a9 dd 3c 2f 56 1f bd 1e 54 5e 3c
       0.0047825244 0.027058192 -0.03890055 0.01356986

4.weight f4 [128, 128]
000000 8c 26 44 3d 34 57 c8 3c a9 8a 18 bd aa 11 4f 3d
       0.047888324 0.024455644 -0.03724161 0.050553955
000010 66 af a7 3a f0 ed 4a bd 0a 29 dc 3b 07 3d 14 bc
       0.0012793362 -0.04954332 0.0067187594 -0.009047753
000020 97 35 d5 3c 28 49 5f 3c d5 db 8a 3d bd 03 de 3b
       0.02602653 0.013628282 0.06780211 0.006775348
000030 82 4f 01 3c 48 f7 e2 bb f1 ca 7c bd 1b c4 31 3d
       0.007892491 -0.006926451 -0.061716978 0.04339991
000040 0c bd 97 3d 6a 83 1c bd 7d f6 6c bd e0 0c 0c bd
       0.07409105 -0.038211264 -0.057852257 -0.034191966
000050 c7 a0 5a bb 1e 80 93 3d 2f 51 84 bc fa 28 a6 3d
       -0.003335999 0.07202171 -0.016151993 0.081132844
000060 87 4e 92 3d eb 1c 90 bd 5a a7 b2 bd 18 8a 14 bc
       0.07143884 -0.07036766 -0.08723326 -0.009066127
000070 a0 8a 3b bc dc 77 3c 3c b2 01 0e bc fa 8d 1f bd
       -0.011446625 0.011503186 -0.008667396 -0.03895376
000080 73 1f 7a 3c b8 a6 33 bd af 81 43 3d e3 e2 80 3d
       0.015266287 -0.043860167 0.047731098 0.06293275
000090 6f 91 94 bd fe 99 88 bd ca 7a 89 3d f5 fe a1 bc
       -0.07254302 -0.06669997 0.06712873 -0.019774893
0000a0 95 eb 12 3d 71 88 ad bd ab d3 58 bd 69 e9 8d bd
       0.0358692 -0.0847329 -0.052936237 -0.06929285
0000b0 4c 78 fc bc b7 ea 88 bd ea 63 02 bd 3a 26 cb 3b
       -0.03081908 -0.06685393 -0.031833567 0.0061996253
0000c0 89 90 0b bd ad ec 32 3d 7b 9b 0b bd 55 28 8b bd
       -0.034073386 0.043682743 -0.034083825 -0.06794802
0000d0 f3 d2 bc bc 5e 96 43 3d cd 30 8e bc 44 36 3c bd
       -0.023049807 0.047750823 -0.017357254 -0.04595019
0000e0 c6 6c 06 bd fd d4 8f 3d f7 0e 93 bd a0 27 48 bd
       -0.03281858 0.07023046 -0.07180589 -0.048865914
0000f0 81 d5 98 bd d7 44 99 3d d8 aa 44 bd 53 a9 a1 3d
       -0.07462598 0.07483833 -0.04801449 0.07893624
000100 00 64 a3 bc 5a f3 67 bd 3a b2 31 bd 72 0f 8d bd
       -0.019945145 -0.056628563 -0.04338286 -0.068877116
000110 10 c8 5b 3c d8 0b 09 bd 66 47 a1 3d cc c1 02 3c
       0.013414398 -0.03345856 0.07874946 0.007980775
000120 17 70 82 3c 1b e7 26 bd 98 a0 df bc 01 ac 44 bd
       0.01592259 -0.040747743 -0.027298257 -0.0480156
000130 9f bf d3 3c 8d 59 2e 3d ea 17 67 bd 92 2e 20 3d
       0.025848208 0.04256587 -0.05641929 0.039106913
000140 c3 af ad bd 14 61 54 3d ce 4b 3d 3d 9d 82 cb bc
       -0.084807895 0.051850393 0.04621487 -0.024842555
000150 80 32 8e 3c ff 7e 79 bd d0 0a 8a bc 59 1e bf 3c
       0.017358065 -0.06091213 -0.016850859 0.0233299
000160 d0 b5 30 3d b0 03 92 bd 78 bf 96 bd 3d a5 8d 3d
       0.04314214 -0.071296096 -0.073607385 0.06916282
000170 29 c4 fd 3c 5b 9f 9c 3d 3b c2 a0 bd 92 76 28 bd
       0.030977326 0.07647582 -0.078495465 -0.041128702
000180 95 45 19 bd 38 9c 81 bc 3d 9b 06 3c 18 a0 95 bc
       -0.037419874 -0.015821561 0.008215723 -0.018264815
000190 2d c0 40 3d a2 5d 5a bd 19 e7 99 3d f2 91 31 bd
       0.047058273 -0.05331195 0.075147815 -0.043352075
0001a0 8a 09 47 3d a2 a4 94 3d 7e 19 a0 bd 94 c5 c8 3c
       0.04859308 0.07257964 -0.07817362 0.024508275
0001b0 40 0b a7 3c 3c 2f a5 3d 99 ae 49 3d a5 e9 b1 bd
       0.020391107 0.0806565 0.049238775 -0.08687142
0001c0 c9 79 02 bd cb ea 8d bd b4 4c 3f bd eb 0d d9 bc
       -0.031854425 -0.06929549 -0.04670401 -0.026495894
0001d0 0c 8b 09 3d 5a ff ae bd 67 25 b0 3b 27 f3 a3 bd
       0.03357987 -0.08544798 0.0053755525 -0.08005362
0001e0 e7 4e 8b bc e3 3c ab bd aa 27 77 bd 24 3e 1e bd
       -0.017005397 -0.083612226 -0.06034056 -0.03863348
0001f0 47 bb 10 3d cc b4 49 bd f5 43 56 bd 68 c1 1e 3d
       0.03533485 -0.049244687 -0.052310903 0.038758665
000200 3e 62 2e bd 57 e0 fd 3c 49 cc bf 3d d2 b2 9f 3d
       -0.04257416 0.030990763 0.09365136 0.07797779
000210 3f c3 73 bc 68 fc 35 3d f7 0f ca bc 51 67 87 3d
       -0.014878093 0.044430166 -0.024665816 0.06611503
000220 e1 6a 68 3b 07 99 f4 3b cb 6f b0 bd 5c 3f a1 3d
       0.0035464095 0.0074645313 -0.08615073 0.07873413
000230 99 a6 74 3d 8c 05 29 bc 8b 86 36 bd a4 aa e9 bc
       0.059729192 -0.010316264 -0.044561904 -0.02852375
000240 ba 15 a1 bd 30 cb 58 bd 73 67 27 3d b8 e5 60 bd
       -0.07865472 -0.05292815 0.04087014 -0.054906577
000250 42 dc 21 3d 46 86 2a bd 87 69 2c bd bd 82 a5 bd
       0.039516695 -0.04163196 -0.042092826 -0.08081577
000260 45 15 1c 3c 3e c9 02 bd d8 a3 2d bd 11 33 1d bb
       0.009526555 -0.0319302 -0.04239258 -0.0023986737
000270 e5 65 43 bd 04 49 93 3c 37 9c 79 3d 44 7f 1e bd
       -0.047704596 0.017979153 0.060939994 -0.03869559
000280 f6 eb f2 3c 54 04 ea bc ee 5a d2 3c dd 15 90 bd
       0.02965353 -0.028566517 0.025678124 -0.0703542
000290 86 a8 5b bd 27 91 1e bd 3f 0f 15 3a 85 e6 7f bc
       -0.053627513 -0.038712647 0.0005686171 -0.015618925
0002a0 35 5b d5 bc f4 13 55 3d d1 55 79 bd 41 36 b3 3d
       -0.026044467 0.052020982 -0.060872857 0.087505825
0002b0 b7 0c a1 3c 77 ce 4f 3b db 75 91 3d 6d 32 80 3d
       0.019659383 0.0031708756 0.07102557 0.06259618
0002c0 34 4e b6 bc 6a 88 f4 3c 45 1c 11 bd c3 5e 46 3d
       -0.022254087 0.029850204 -0.03542735 0.048430216
0002d0 0d 14 6e 3d 65 f4 a0 3c 5d 4b 98 3a 16 4d 06 bd
       0.05812459 0.019647786 0.001161914 -0.03278836
0002e0 a1 a8 d1 bc a6 06 96 3d ae c1 b2 3c b7 bb f1 3c
       -0.025593104 0.07325487 0.02182087 0.029508455
0002f0 03 66 f8 bb b2 ca 2d bc 56 f7 86 3d 69 01 89 bd
       -0.00758052 -0.010607408 0.06590144 -0.06689722
000300 b0 cf 66 3c 02 03 81 bc 9e 22 eb bc 84 b5 99 bd
       0.0140876025 -0.015748505 -0.02870303 -0.075053245
000310 5e 72 5a 3d c1 7c 96 bd 63 77 00 bd 04 1f 75 3c
       0.053331725 -0.07348014 -0.031363856 0.014961008
000320 b1 1e 3c 3d f9 7e b3 bd 19 57 3e 3d 40 58 02 bd
       0.045927707 -0.087644525 0.04646978 -0.031822443
000330 17 41 e5 3c ed 87 9e bd 53 c4 9d bd 5c a0 a4 3d
       0.027985139 -0.077407695 -0.077034615 0.080383986
000340 ee 0d 00 3d ea 29 93 3c 20 b5 3c 3d 81 a6 a2 3d
       0.031263284 0.017964322 0.04607117 0.07941914
000350 b9 10 66 3d b8 4c dd 3c ab 39 92 bd f1 c3 bd 3d
       0.05616829 0.027014121 -0.071399055 0.092658885
000360 b4 0f b2 bb 50 5e 8f bc d1 3a 98 3c 48 72 8a 3d
       -0.005434001 -0.017501026 0.018582733 0.06760079
000370 00 df 5b bc 46 07 33 bd 92 80 4b 3d 27 66 94 3d
       -0.013419867 -0.04370811 0.04968316 0.072460465
000380 73 12 d8 3c 19 03 4a 3c de 68 32 3b 3f 66 94 3c
       0.026375985 0.01232984 0.002722315 0.018115161
000390 9b 3f 9c bd d1 3e 37 bd c2 a6 1d 3d f4 1b b6 3c
       -0.07629319 -0.04473764 0.03848911 0.022230126
0003a0 77 63 15 3d 61 6a 91 3b 0c aa 47 bd 54 75 16 bd
       0.03647181 0.00443773 -0.048746154 -0.036732987
0003b0 8a 05 80 bc fb bc 74 bd f4 dc ab 3d c5 f9 47 bd
       -0.015627641 -0.05975054 0.08391753 -0.048822183
0003c0 71 a0 03 3c 83 70 b4 3d 33 55 95 bd 51 e4 a2 bd
       0.008033858 0.088105224 -0.07291641 -0.07953704
0003d0 1c 2a 1c 3d de 15 64 3d d9 e6 21 bd ee da 27 3d
       0.038126096 0.055684917 -0.039526794 0.040980272
0003e0 59 f0 7b 3d cf 4a 00 bd 45 e1 93 3d 8e aa d5 3b
       0.06150851 -0.031321343 0.07220701 0.006520576
0003f0 58 44 85 bc 39 d6 00 3d 81 1e 46 3d 1b fb ad 3d
       -0.01626794 0.0314543 0.048368935 0.0849516

4.bias f4 [128]
000000 f3 e5 09 bd 69 03 15 3d 8e 92 c1 3d b2 f0 b2 bd
       -0.033666562 0.036380205 0.09451781 -0.08737315
000010 69 b6 8e bd 1f 09 1c bd 50 21 d3 bc 13 bf 95 bd
       -0.06968386 -0.038094636 -0.02577272 -0.07311835
000020 35 3d c8 3d 27 19 ae 3d a4 4f 61 bd 6b 2c b0 3c
       0.09777299 0.08500891 -0.05500759 0.021505555
000030 7c 80 9e bc 3d 9d ae ba 45 08 96 3d fa 29 04 3d
       -0.019348375 -0.0013322007 0.07325796 0.032266594
000040 33 c7 00 be e6 07 2b 3d 3f fd e4 3d 52 72 75 bd
       -0.12575988 0.04175558 0.11181115 -0.059923477
000050 4e e2 a1 bc 60 58 41 3c 5c e3 14 3d e7 d9 98 bd
       -0.01976123 0.011800855 0.03634964 -0.074634366
000060 01 0a e9 3d 10 4c 85 bd a3 6b 37 bd 6e fa a6 bd
       0.11378861 -0.065086484 -0.044780385 -0.081532344
000070 d7 1e a4 bd 2e 47 5b bd 5f 76 ad bc 37 9c cc 3d
       -0.08013695 -0.05353468 -0.021174608 0.09990733
000080 f2 0d 98 bc 31 a0 ad bc 82 1c 7f bd 9a d1 61 bd
       -0.018561337 -0.02119455 -0.062283047 -0.055131532
000090 8e 4d aa 3c 2c 08 04 3d da 8b 2a bd 21 c5 ed bc
       0.020788934 0.032234356 -0.04163728 -0.029024662
0000a0 ac 24 4d 3c a6 90 0a bd dc 82 e8 3d 15 11 18 3e
       0.01252095 -0.033829354 0.113530844 0.14850266
0000b0 a9 89 59 3d 23 a0 aa 3d 47 ff 5c bc 00 da 18 bd
       0.0531098 0.08331325 -0.013488597 -0.037317276
0000c0 a7 45 a3 bc a6 34 7f 3d 74 11 c7 3c 39 d2 3d bd
       -0.019930674 0.06230607 0.024300314 -0.046343062
0000d0 15 58 c0 3b 38 41 16 ba d6 e8 1e bd 73 04 1c bd
       0.005869875 -0.0005731764 -0.03879627 -0.03809018
0000e0 06 70 2f bc 98 a0 aa bd de 55 20 bd 7c 08 11 3e
       -0.010707861 -0.08331412 -0.03914439 0.14163393
0000f0 c8 d0 b4 3c 9a a1 45 bc 8a e2 e9 3d 29 fd 3f 3d
       0.02207221 -0.012062455 0.11420162 0.04687229
000100 7e d1 b9 bd a2 74 97 bd d7 c4 66 3c ff 48 38 bd
       -0.090731606 -0.07395293 0.014085016 -0.04499149
000110 58 42 a3 3d a7 86 32 3d 0f bd d1 3d cd e9 84 bd
       0.079716384 0.043585446 0.10241138 -0.064899065
000120 22 3b 2b 3d c7 f5 27 3e 0a 42 4a 3e 2c ea 10 3e
       0.04180444 0.1640235 0.19751754 0.1415183
000130 5e d7 fc bc f6 92 9f bd 38 f6 70 3d d5 0a 5e bd
       -0.030864414 -0.077917024 0.058828562 -0.05420955
000140 3a 37 d8 ba 47 a9 93 3d 9a 68 58 bd 23 8d 2e bd
       -0.0016495951 0.072100215 -0.05283413 -0.042615067
000150 1d 2c dc 3d 53 34 e4 3c 3e e8 dc 3d d4 bc 27 bc
       0.107506014 0.027856981 0.10786484 -0.010237891
000160 51 2c 8d bd dc 09 45 bc 32 d3 03 3e a5 64 62 3d
       -0.06893218 -0.012026276 0.12873533 0.055271763
000170 f8 88 98 bd 28 bd 87 bc ae 06 61 3d 94 2b a2 3d
       -0.07448 -0.016569689 0.05493801 0.07918468
000180 f1 fe d3 3d b6 7e b7 3d e7 0a 55 bd b4 2c b1 3b
       0.103513606 0.08959715 -0.05201235 0.0054069404
000190 d0 7c cb 3c 89 03 bd bc 5d 6f 6f 3c d5 67 ca bc
       0.024839789 -0.023072975 0.014613953 -0.024707714
0001a0 01 62 f8 3d c2 fb 4b 3c 75 3e 12 bd 20 23 f3 bc
       0.12128068 0.01245016 -0.035704095 -0.029679835
0001b0 7f 05 eb 3d 8b da 27 3c ba 16 39 bd 1d 9a 42 bd
       0.11475658 0.010244976 -0.04518769 -0.047510255
0001c0 c1 d4 38 bd 48 13 a8 3c b8 3d 3f 3e 92 65 31 bd
       -0.045124773 0.020517007 0.18675888 -0.043309756
0001d0 a1 23 94 bd 0f e0 57 bd 8a aa d4 bc 45 0f e7 bb
       -0.07233358 -0.052703913 -0.025960226 -0.007051381
0001e0 5e 44 55 3d 76 85 a7 3d e7 4d fd 3d 88 40 b8 3b
       0.052067153 0.081797525 0.12368374 0.005622927
0001f0 81 92 12 3d 2f 9a f1 3b aa 15 cf 3d ce f5 35 3d
       0.03578425 0.0073731164 0.10111554 0.04442387

6.weight f4 [128, 128]
000000 0a 57 f1 3b 1d 1c 4f 3d 93 3b 97 bc b5 a0 2e bc
       0.007365112 0.05056392 -0.018461024 -0.010658433
000010 b4 32 0f 3d ec 70 80 bd 94 91 80 3c 45 04 63 3d
       0.034960464 -0.06271538 0.015694417 0.055423994
000020 77 92 8e 3d 29 f6 20 3d f0 45 29 bd 79 6f 4a bd
       0.0696153 0.039297257 -0.041326463 -0.049422715
000030 f4 d7 8b 3d ba 2a b0 bd 19 ac be 3d ef 81 10 bd
       0.06828299 -0.086018994 0.09310169 -0.035280164
000040 36 7e 51 3d 20 7a 28 bc c1 51 9e 3d a4 67 88 bd
       0.051145755 -0.010283023 0.07730437 -0.06660393
000050 06 aa 9f 3d 7a 8a 8c 3d 05 fe 94 3b ea 90 b4 3d
       0.07796101 0.0686235 0.004546883 0.08816703
000060 48 bb 5b bd 75 73 5a bc 37 61 82 3a 75 c7 3d bc
       -0.053645402 -0.013333191 0.0009947185 -0.011583199
000070 9a 9e 91 bd 8a f3 c0 ba 33 ff 1e 3c 44 3e e7 3d
       -0.07110329 -0.0014721018 0.009704399 0.11291173
000080 5b cd 88 bc 25 01 63 3d a0 0c 89 bc 63 f9 c5 bc
       -0.016699484 0.055421013 -0.016729653 -0.024166768
000090 63 87 9d 3d f3 62 c3 bd 5f 48 05 3d 40 05 18 3d
       0.076918386 -0.095403574 0.03253972 0.03711438
0000a0 8c c4 95 3d b0 63 32 bd 27 8b c2 bc 73 d6 7e bd
       0.07312879 -0.0435521 -0.023747994 -0.062216233
0000b0 9f d5 2a 3d 1f 45 90 3c a6 1c 2f 3d 3b 8c 22 3d
       0.04170763 0.017611085 0.04275193 0.039684515
0000c0 1b c1 40 bc 25 68 62 bd 2b 9a 47 bc cb 13 4a 3d
       -0.01176479 -0.0552751 -0.012182753 0.049335282
0000d0 73 b4 37 3d 4b 77 80 3d 53 3d 88 3d 30 d7 b0 bd
       0.044849824 0.06272753 0.06652322 -0.08634794
0000e0 d7 68 ad 3c d9 59 37 3d e0 ee 3b bd 78 a2 b0 bd
       0.021168156 0.04476342 -0.045882106 -0.086247385
0000f0 32 f8 84 3c 41 61 07 bd 62 9a 31 bd 82 bd 92 3d
       0.01623163 -0.033051733 -0.04336012 0.07165052
000100 21 91 20 bd 08 df 44 bd 92 a4 d0 bd 27 c9 97 3d
       -0.039200906 -0.04806426 -0.10187639 0.07411414
000110 93 89 5e 3d 21 c4 05 3d 30 9c fc 3c e5 38 9a bd
       0.05433042 0.032657746 0.030836195 -0.07530383
000120 30 f5 75 bd 43 d3 6c 3d c3 63 3a bd 25 2c 8c bd
       -0.060048282 0.057818662 -0.045505296 -0.068443574
000130 d6 c5 f3 bc b2 16 3d bd 0b ed d2 3c 01 33 d8 bc
       -0.029757421 -0.046164222 0.025747797 -0.026391508
000140 e5 b5 6d bd 9c 3c 20 3b ce 2c 71 bd f2 97 82 bd
       -0.058034796 0.0024450189 -0.05888062 -0.063766375
000150 94 55 01 bd 53 53 10 bd 2c de 02 bd b9 ae b1 3d
       -0.031575754 -0.035235714 -0.03195016 0.08675904
000160 3b 20 ea 3c 88 e8 35 bd 95 61 ee 3c 51 b3 9c bd
       0.028579822 -0.044411212 0.029099265 -0.076513894
000170 27 5d 87 bd ff 73 38 3b e9 67 d5 3d 96 bb b2 3d
       -0.06609564 0.002814531 0.1042021 0.087271854
000180 5a 56 94 bb 19 3c 37 bc 76 7a 00 bd 65 85 83 bc
       -0.0045268955 -0.011183762 -0.031366788 -0.016054818
000190 e2 2f 01 bd f8 c7 b8 bd 9d ba 52 bd f6 03 7c bc
       -0.031539805 -0.09022516 -0.0514475 -0.015381804
0001a0 16 ea 00 3d 7b 3d c6 3d 57 c6 d5 3d 05 eb b0 3d
       0.03147324 0.09679695 0.10438221 0.086385764
0001b0 1b b2 8d 3d 7a ad b1 3d 9e b6 8c 3d fe a2 45 3d
       0.069187365 0.08675666 0.06870769 0.048251145
0001c0 43 5c 08 3d 7b b9 64 3d 94 c1 ea 3a 50 fa bf bc
       0.033291113 0.05584095 0.0017910474 -0.023434788
0001d0 dd 1d 10 3d e6 66 8d bd 69 11 5c 3d ae 2c e7 3d
       0.03518473 -0.06904392 0.05372754 0.11287819
0001e0 d3 b1 a6 3d 8b a0 8c bd fc b0 94 3d 0d 1b be 3c
       0.08139386 -0.06866559 0.072603196 0.023206258
0001f0 72 36 5f 3d de 8c 02 3d 51 a5 8d 3d e4 21 ac bd
       0.054495282 0.031872623 0.06916297 -0.084049016
000200 89 b0 b2 3d fc 4c 96 bd 47 04 52 bd 81 4b 92 3c
       0.08725078 -0.07338902 -0.05127361 0.017858269
000210 e9 f3 cb bb c7 ae 7a bd bb f6 84 3d 9a 78 8b 3c
       -0.0062241447 -0.061201837 0.064923726 0.01702528
000220 0e e8 ad bc 87 6f 15 3d a6 30 96 bd 5b f8 96 bd
       -0.021228816 0.036483314 -0.07333498 -0.07371589
000230 a9 7f 85 3d 3d ed 62 3d 66 ed 7b 3d 56 da 3a 3d
       0.0651849 0.05540203 0.061505698 0.045618378
000240 88 70 58 bd 63 44 96 3d 77 a6 05 3d 60 3a 90 3d
       -0.052841693 0.073372625 0.032629456 0.07042384
000250 cd 54 89 bd 84 bf b8 bd ab 97 74 bd 7c 1f 2e bd
       -0.067056276 -0.09020904 -0.059714954 -0.042510495
000260 84 1a d6 3b c2 c8 dc bb 1c cb c7 3d cb 9b 88 bc
       0.0065339226 -0.0067377994 0.09755537 -0.01667585
000270 2f 26 70 bc ae 21 81 3d 5d b2 dc 3d 78 79 fe 3b
       -0.014657541 0.06305252 0.107762076 0.007765945
000280 4b 26 ad 3d 16 6e 49 bd ce 45 ad 3d f2 97 f2 3c
       0.084545694 -0.04917725 0.0846058 0.029613469
000290 1e b1 fa 3b 40 e0 b0 3d 02 42 90 3d fb 1f 62 bd
       0.0076505085 0.08636522 0.0704384 -0.05520628
0002a0 6d 6b 0a bd 4c 58 af bd 0d a6 62 bc ff 92 af 39
       -0.033793855 -0.08561763 -0.013833535 0.00033488122
0002b0 00 c8 24 3d ab 08 86 3c 01 48 65 bd 7c f0 b5 3d
       0.040229797 0.016361555 -0.05597687 0.088837594
0002c0 9b e1 b4 3a f4 ae 3a bd ca cd 2f 3d 61 b0 51 3d
       0.0013800146 -0.045577005 0.042920865 0.0511936
0002d0 5b 6e 0a 3d d2 0f 19 bd cc c8 1f bc 4c f5 8b 3d
       0.03379665 -0.037368603 -0.009752464 0.06833896
0002e0 77 48 6c 3d fa 44 1b bb 1e 30 9f bc 69 f6 9d 3d
       0.057686295 -0.0023692236 -0.019432124 0.07713015
0002f0 29 23 55 bc 9d 8b 15 3d 8b 1a 71 3d 8c 3c 9d bd
       -0.013008871 0.0365101 0.058863204 -0.07677564
000300 97 b0 42 bd f2 e2 81 bd 46 94 8a 3b 62 98 cc bc
       -0.04753169 -0.063421145 0.0042291014 -0.024975006
000310 7b 35 45 bd b7 aa bf 3d c0 12 d6 3d 45 68 8a bc
       -0.048146706 0.09358733 0.10452795 -0.016895423
000320 ef 30 97 3c 65 69 5c bb 9b 2a 8a 3b 8a 44 6d 3d
       0.01845595 -0.0033632156 0.0042165047 0.057926692
000330 2d 72 1b 3d b1 54 ba 3d f4 55 45 bd 55 09 a6 bd
       0.037950683 0.09098185 -0.048177674 -0.08107249
000340 39 ab 74 bc eb 2c a3 3c 40 c6 3a 3b f7 bd b8 3d
       -0.014933401 0.01991888 0.0028499514 0.09020608
000350 89 51 71 3d 86 04 1a 3d 39 c7 5d 3b 67 30 fe bb
       0.05891565 0.03760197 0.003384067 -0.007757235
000360 b2 d5 2e bc 2f be 08 3c 08 9f 8b bc 37 98 18 3c
       -0.010671066 0.008346125 -0.017043605 0.009313635
000370 95 06 76 3d 8f de 42 3d 16 af 45 3d f0 b7 2d 3d
       0.06006487 0.04757553 0.048262678 0.042411745
000380 a6 6a 48 bc e5 c7 19 bd 79 57 52 3d 4a ff af 3b
       -0.012232458 -0.03754415 0.05135295 0.005371009
000390 13 82 b8 3d fa b6 e8 bb 0f ad cf 3d 26 ba 92 bd
       0.09009185 -0.0071018906 0.1014043 -0.07164411
0003a0 66 04 f1 3d 2b 7a ae bc 9f 3d 4a 3c bb 4f a6 bc
       0.11768417 -0.021298489 0.012343793 -0.02030169
0003b0 d8 e8 8b bc 4e 0b 0f 3d a3 d5 db 3d d1 3c 2e bc
       -0.017078802 0.03492289 0.10734107 -0.010634617
0003c0 ab 6e 1c bc b9 80 2a bd 3f 34 67 bc d0 5e ed ba
       -0.00954787 -0.041626666 -0.0141115775 -0.0018109921
0003d0 47 0d c9 3d 59 dc a8 bd 01 60 8b bd f0 01 ca 3c
       0.098169856 -0.08245153 -0.06805421 0.024659127
0003e0 1d 78 d9 bc a6 22 25 3d a0 1d 28 3d aa b4 69 bd
       -0.026546532 0.040316246 0.041043878 -0.05705706
0003f0 16 7c a3 3c 09 e3 e8 3c 8c 07 79 3c 52 7d a8 bd
       0.01995663 0.028428571 0.015199553 -0.08227028

6.bias f4 [128]
000000 9b 90 e4 3b f9 ba 11 3e b7 3d dc 3c 2e 3f a7 3d
       0.006975246 0.1423148 0.026884897 0.081663474
000010 ae 97 8c bd b5 a8 af bc 5f 49 54 3e ad c4 3d 3d
       -0.06864868 -0.02144275 0.20731114 0.046330143
000020 ef f6 63 3e fb ca 42 3e f6 a6 45 3c f1 78 de bd
       0.22262166 0.19022743 0.012063732 -0.108629115
000030 f3 8f af bd f0 fe 5d b9 d0 a1 3a 3c e8 93 46 3d
       -0.08572378 -0.00021171174 0.011391118 0.0484809
000040 e5 41 bc bd e8 d3 75 bc 52 83 9d bd 2e 7d 84 3c
       -0.09192256 -0.015004136 -0.07691063 0.016172972
000050 4c 81 72 3d 52 c6 21 3e b4 9c 3b bd 76 ba 99 bd
       0.05920534 0.1579831 -0.04580374 -0.07506268
000060 b9 69 dd ba f2 bf 0e 3d 6f ca f6 3c 3f bf 1d bd
       -0.001689247 0.034851022 0.030125825 -0.038512465
000070 9e 34 fe 3c d3 04 76 bd e0 06 89 3d ef 01 22 bd
       0.03103095 -0.060063194 0.066907644 -0.039552625
000080 91 89 27 3e 09 3a fe bc 94 eb 1f 3c c7 e6 7d bd
       0.16361071 -0.031033533 0.009760756 -0.061987665
000090 00 7b e8 bd a9 f4 5f 3d 82 b4 a7 3c ac 0b 04 3e
       -0.113515854 0.054676685 0.020471815 0.12895077
0000a0 7a 91 72 bd c8 a9 69 3e e4 87 00 3e 16 13 df 3a
       -0.05922077 0.22818673 0.12551838 0.0017019238
0000b0 5f 57 af bd c0 2f 34 3d 8d 54 7f 3d be 7e d0 bd
       -0.085615866 0.04399085 0.062336493 -0.10180424
0000c0 8e ce f4 bc 9d ff 45 bc ac 5f 8f bd f8 c2 c2 bd
       -0.02988365 -0.012084869 -0.0700067 -0.095098436
0000d0 af fa 55 3d 2e 07 7a bc 81 fc 8b 3d d2 7a 04 3e
       0.052241024 -0.015260501 0.06835271 0.12937477
0000e0 bb ae 63 bd 1c 8e 06 ba 03 d7 52 3e 72 f4 4d bd
       -0.055586558 -0.000513287 0.20589833 -0.05028195
0000f0 47 8d 21 3d 7f 15 42 bd 69 8f 84 3b 30 78 88 3e
       0.039441373 -0.04738378 0.004045416 0.26654196
000100 27 3e 2a 3a c3 e6 cf bc 00 25 2b bd 2e 2a fa 3c
       0.0006494247 -0.02537859 -0.041783333 0.030537691
000110 fa 9a ad bd ee 16 49 bd 6f a3 08 bd 16 d6 04 3d
       -0.08476825 -0.049094133 -0.033358987 0.03243073
000120 e5 fc 1f 3d ce d6 ac bd 44 85 db 3b ee 6c 31 3e
       0.03905954 -0.08439408 0.006699236 0.1732671
000130 0a 45 31 3c 76 9e b1 bd 5b 62 0d bd 1e b3 00 bd
       0.010819683 -0.08672802 -0.034517627 -0.03142082
000140 fe bb 55 3b 9d 33 c5 bb ef 9e af bd 0e c9 21 bd
       0.0032613273 -0.0060181157 -0.08575236 -0.03949838
000150 b0 eb 5b bd 2a 62 f8 bc 79 a4 5f 3c f6 3a 01 3c
       -0.053691566 -0.030320246 0.013650053 0.007887593
000160 a4 02 97 bb 3b 35 ef ba 0f 98 54 bd 05 73 9a 3d
       -0.004608469 -0.0018250117 -0.051902827 0.075414695
000170 75 17 e9 bd a1 73 98 bd 9f 99 40 bd 8d 31 b1 bd
       -0.11381427 -0.074439295 -0.047021504 -0.08652029
000180 9f f3 22 bc 27 c4 03 3d e6 28 a0 3c 33 35 00 3e
       -0.009945779 0.032169487 0.019550752 0.12520294
000190 d7 51 fe bc 14 2b 0a 3e 64 5f 9b bd b9 52 9a 3e
       -0.031044884 0.13492996 -0.07586554 0.30141237
0001a0 fa 3b 8c bd c1 38 b1 bd e4 b4 31 bd b0 ec 0a bd
       -0.06847377 -0.08653403 -0.0433854 -0.03391713
0001b0 c3 25 ae 3b dd f7 33 bd 16 85 de 3d 30 b3 45 bd
       0.00531456 -0.043937553 0.10865228 -0.04826659
0001c0 7c 7e 1e bc 43 45 6e 3d 9f 18 8c bd 4c a1 08 3d
       -0.009673711 0.058171522 -0.068406336 0.03335695
0001d0 8b 3d 0a 3d 40 4d 80 bd 21 8d 66 3d 86 57 5a bc
       0.0337501 -0.06264734 0.056286935 -0.013326531
0001e0 7d 88 01 be 94 d5 3e bd bd 38 1d 3e 46 fa a9 bc
       -0.12649722 -0.046590403 0.15353675 -0.020749222
0001f0 2f 21 2c 3d 34 8f 83 3e 45 4f 06 3e 18 a5 84 3c
       0.042023834 0.25695193 0.13116176 0.016192004

8.weight f4 [49, 128]
000000 b8 1a 95 3d 6c 5a a7 bd cd c5 b2 bc f0 b0 28 3d
       0.07280487 -0.081715435 -0.021822834 0.041184366
000010 8b b2 0c be e7 66 ab 3d 4a 86 45 be 89 d4 c1 3d
       -0.13739984 0.083692364 -0.19289508 0.09464366
000020 e6 8c 23 be 53 68 23 be 56 74 de bd a8 30 8b 3c
       -0.15971717 -0.15957765 -0.10862033 0.016990975
000030 1b 36 68 bb 15 10 73 3b d5 d7 01 3d 57 3c 8d 3b
       -0.003543264 0.0037088443 0.031699974 0.0043101716
000040 e8 97 08 3d c2 f1 60 3d 97 bd 5e 3c 2f bf 79 3d
       0.033347994 0.05491806 0.013595006 0.060973343
000050 3b cd 82 3d 22 d1 6c bd 86 da a2 bd 5b 9f ba 3d
       0.06386801 -0.057816632 -0.07951836 0.09112426
000060 98 6e 2b bd 32 7e 05 3d f5 ba 8f 3d da ba 97 bc
       -0.041853517 0.032591052 0.07018081 -0.018521715
000070 35 a9 6e bd 66 12 0d 3c ea 00 ae 3d 97 56 83 3d
       -0.058266837 0.008610344 0.08496268 0.06413
000080 14 2f ca bd 00 ae ac 3d 22 c5 99 3c 10 86 9b 3d
       -0.09872261 0.08431625 0.018770758 0.0759393
000090 8c de a3 bd a1 79 61 bc a5 0f 1c 3d cf eb 4c be
       -0.08001432 -0.013761909 0.038100857 -0.20011829
0000a0 2f 91 9e 3b db 8f 75 be b6 fd 10 bd c0 0d c8 bc
       0.0048390846 -0.23980658 -0.035398208 -0.024420619
0000b0 e6 d9 34 3d 82 6e 82 3d cf 83 a6 3a 00 1a 32 bc
       0.044153117 0.06368734 0.0012704077 -0.010870457
0000c0 e2 65 9b 3b 7d c8 f0 3c af f0 d2 bc 81 03 02 bd
       0.00474237 0.029392475 -0.025749533 -0.031741623
0000d0 fc d9 7c bd 1a 08 61 3d 36 77 22 bd 12 2e 9f bd
       -0.061731324 0.054939367 -0.03966447 -0.07772459
0000e0 f8 c4 87 3d 80 c2 85 3d bf de f1 bc 71 60 bf bd
       0.06629366 0.065312386 -0.029525159 -0.093445666
0000f0 57 5b 95 bc 4a 5d 9f bd 35 ae 2b bd 8b cc 29 be
       -0.01823203 -0.07781465 -0.041914184 -0.16581933
000100 d6 87 96 bd e3 87 a9 3d 10 8d 87 3b 3c 21 ac 38
       -0.073501274 0.082778715 0.004136689 8.2077895e-05
000110 86 f1 fc bc 9e 89 61 3d 73 c3 ee 3d fa 2c b1 3d
       -0.030876886 0.055062883 0.11658373 0.08651157
000120 b6 09 6d bc 5f 33 e8 3c 2d 91 a9 3d 9c 27 d7 bd
       -0.014467647 0.028344808 0.08279643 -0.10505602
000130 b6 bd 67 bd 32 4c 18 bb a0 dc 9f bc 74 0e 09 3d
       -0.056577407 -0.0023238775 -0.019514382 0.03346105
000140 9d ab 09 bd 1d bf b7 3d d5 a9 37 bd 4f c2 ac bd
       -0.03361093 0.08971999 -0.0448397 -0.08435499
000150 cb 3c 11 bd ed 7c 92 3d 08 ba 36 3d 39 b5 9e bd
       -0.035458367 0.07152734 0.044611007 -0.07749409
000160 6c 42 3f 3d 46 b8 5d 3d 70 b7 7b 3c 02 40 7a bd
       0.046694204 0.054130815 0.015363559 -0.0610962
000170 36 cb 6e bd 84 71 fa ba 0d f5 0e be ec 8e 05 3d
       -0.058299266 -0.0019107317 -0.13960667 0.032607004
000180 e9 97 a7 3d ef f8 13 3d 64 a5 14 3d 3f b9 ef bd
       0.081832714 0.036126073 0.03629054 -0.11705255
000190 6c a0 f4 bc e0 c4 2d be e1 fc 0b bd 1c 32 6c be
       -0.029861651 -0.16969633 -0.03417671 -0.2306599
0001a0 64 1d d6 3d dc bd 29 3e ba e1 6b bd b2 8d 43 3d
       0.104548246 0.16576332 -0.057588317 0.047742553
0001b0 0b 1c 89 3b f1 59 55 bd 9a b5 db 3c 66 72 7b 3d
       0.004184251 -0.052087728 0.026819993 0.061388396
0001c0 86 31 f0 bc a9 f1 13 3d 3d 7e 1f 3d c8 33 92 3d
       -0.02932049 0.036119137 0.03893875 0.07138783
0001d0 fb 96 11 bd 04 bb 09 3d ae 66 e5 bd aa 16 a5 3d
       -0.035544377 0.033625618 -0.11201225 0.080609635
0001e0 1c 8d 96 bd 12 20 49 bd 33 38 7f be c1 fe 17 3c
       -0.07351133 -0.04910285 -0.24923782 0.009277047
0001f0 36 ad 0b bd 81 33 02 be 16 ef 30 bd 47 29 90 3d
       -0.034100734 -0.1271496 -0.04319676 0.07039123
000200 aa 28 2b 3d 22 05 cb bd 03 33 b9 3c 0c 02 05 bc
       0.041786827 -0.099130884 0.022607332 -0.008118164
000210 85 3b 81 bc af b2 13 3d d2 0d 38 bd 67 71 a4 3d
       -0.015775451 0.036059078 -0.044935055 0.08029442
000220 67 18 32 be 5c 0d c0 bc 60 29 1f be 96 5e f9 bc
       -0.17392121 -0.02344387 -0.15543127 -0.03044061
000230 c8 19 4a 3d 5d 50 da 3c 34 20 95 3d 07 c7 0d 3c
       0.049340993 0.026649648 0.07281533 0.008653409
000240 37 5d b2 3d 98 84 c1 3c 66 90 2a 3d 93 c2 c3 bc
       0.087091856 0.023622796 0.041641615 -0.023896491
000250 ea e8 14 3d 59 41 14 be 4e 51 1d 3b 92 ba fa 3d
       0.036354937 -0.14478053 0.002400476 0.12242617
000260 a9 10 31 bc e8 be 3b 3c 34 a3 04 3d 2f be 86 bd
       -0.010807195 0.01145909 0.032382205 -0.065792434
000270 d4 bc 4d 3c 2c a7 55 3b 96 74 39 bd b4 00 bf bc
       0.012557227 0.0032600863 -0.0452772 -0.023315765
000280 95 c8 d3 bd 28 70 e2 bb 8b 68 00 3e 86 a9 47 3d
       -0.10340992 -0.0069103427 0.1253988 0.048745655
000290 e7 de 1d 3d 5a e1 35 bd 24 0d b7 3c de 07 ec bd
       0.038542654 -0.044404365 0.022345133 -0.11524938
0002a0 3d 2c 3f 3d 5d 72 89 be 32 a2 0a be 8e 7d 89 3d
       0.04667305 -0.26845065 -0.13538435 0.06713401
0002b0 fe 1d 3b 3d bf 9b 35 bd d8 a1 9f 3d ea 64 89 3d
       0.0456829 -0.044337984 0.07794541 0.06708701
0002c0 3f 6a 0d bd 16 0a 04 3d b6 33 82 bc 33 5e 55 3c
       -0.034525152 0.03223618 -0.015893798 0.013022947
0002d0 33 40 1a be e2 c7 76 bd 98 8c 22 bd 97 8e 33 bd
       -0.15063553 -0.060249217 -0.039684862 -0.043837156
0002e0 a3 26 86 bd 95 f1 3c 3c 8f e5 27 be 17 55 21 be
       -0.06550338 0.011532207 -0.16396163 -0.15755115
0002f0 ce 7e 67 3d 2a 14 44 3b 58 4d 59 bd c8 af d0 bd
       0.056517415 0.0029919245 -0.053052276 -0.101897776
000300 82 da 12 bd 5d ee 8f bd a1 af 81 3d 2c a9 30 3c
       -0.035852917 -0.07027886 0.06332327 0.010782521
000310 6a 56 52 bd 72 31 36 3d 95 76 19 3c 0b 6e d5 3d
       -0.051351942 0.04448075 0.009366651 0.1042138
000320 e4 9a 9d bd 08 a8 93 bc 22 a3 9e 3c c1 e0 45 bd
       -0.07695559 -0.01802446 0.019364897 -0.048310045
000330 bd aa 99 3d 98 dc b6 bd 0d b6 8a bd 1c d2 15 3b
       0.07503269 -0.08928794 -0.06773005 0.002286083
000340 28 1e 0b 3d c8 67 99 bd 9b 6a 91 3b be fc 9d bc
       0.033964306 -0.07490498 0.004437757 -0.019285556
000350 b7 31 9a 3d ec 9e af 3c 76 e9 83 3d 29 f8 04 be
       0.075290136 0.021438085 0.064410135 -0.1298529
000360 a8 99 a9 3d 53 0c 98 3d fc c9 f1 bc 43 9f e0 bd
       0.08281261 0.07424226 -0.029515259 -0.10967877
000370 05 0e 99 bd 84 58 62 bd 06 03 20 be dd b3 c8 3c
       -0.07473377 -0.055260196 -0.15626153 0.024499828
000380 ac 01 1c bd 98 16 8b 3c 21 52 d2 bc 92 9a 88 bd
       -0.038087532 0.016978547 -0.025673928 -0.06670107
000390 df 65 90 3c 73 9e 87 be 6c 2f 49 3d 5d c6 32 be
       0.0176267 -0.26488075 0.04911749 -0.17458482
0003a0 fb 43 d3 3d 55 ee b8 3d 79 0e 3b 3d e9 d2 ae bd
       0.103157006 0.09029833 0.0456681 -0.08536322
0003b0 37 33 9f 3d fe ae 32 3d 4e 1c 98 bd 0f c6 ba 3d
       0.0777344 0.043623917 -0.07427274 0.09119808
0003c0 44 76 6a bc 06 c0 8e bc 06 13 5c bc 33 fa 76 3b
       -0.014310423 -0.017425548 -0.01343227 0.0037685751
0003d0 f5 94 ff bd 3d 0d 2b bc e7 93 d4 bc d1 bc 7b bd
       -0.12479583 -0.010440168 -0.025949432 -0.061459366
0003e0 f6 de 1c bd 4c a6 6c 3d 26 a2 5c be 92 69 96 3b
       -0.03829857 0.05777578 -0.2154623 0.0045902217
0003f0 6b 27 8a 3c c0 0f 39 be 84 2c 81 bd 6c 43 81 3c
       0.0168645 -0.18072414 -0.06307319 0.01577922
