models/snapsRandom/model_1685769487.5724452.pt (torch, 252563 bytes, 10 tensors)

0.weight f4 [128, 49]
000000 43 98 a5 bd f1 2c e4 3d 60 f1 0f 3d 0e 2d 1d be
       -0.08085682 0.111413844 0.035142303 -0.15349218
000010 aa 56 4a 3d 81 81 4b bd 5a bb af bd 3e 27 94 3d
       0.049399056 -0.04968405 -0.08580656 0.07234047
000020 6e f3 15 bd 65 b5 fd bd 15 fb e2 3d e7 0b 2d 3e
       -0.036609106 -0.12388114 0.11083046 0.16899072
000030 be 64 1b bd e4 b0 c9 3d 4b 78 b8 3b d6 93 e1 bd
       -0.037937872 0.09848192 0.0056295744 -0.110145256
000040 85 db 50 bc f0 12 a9 bd 13 82 24 bc ce ff 9d 3c
       -0.01274765 -0.08255565 -0.010040778 0.019287016
000050 a3 05 e8 bc e3 bf b4 bd 76 6b 7a 3e c9 b6 e1 bd
       -0.028323 -0.08825662 0.24455056 -0.110211916
000060 0d 31 2d bd 12 eb a5 bd e0 1e 78 bd 6e 65 70 3d
       -0.042283107 -0.08101477 -0.06057632 0.05869048
000070 3b 80 1f 3e b3 73 7e bd c7 98 37 3e 61 67 ec bc
       0.1557626 -0.062122058 0.17929374 -0.028857889
000080 b9 87 7d bb 81 69 28 3d da bd 74 bd 7e 71 0f 3e
       -0.0038685633 0.04111624 -0.05975137 0.14008138
000090 3e 6a 82 bd fb a3 06 bc 81 ae 44 be 3a a1 aa bb
       -0.0636792 -0.008217807 -0.19207193 -0.005207208
0000a0 70 75 fb bd 1c 94 8e 3d af 82 48 3e f1 53 31 bd
       -0.12278259 0.06961843 0.19581102 -0.043292943
0000b0 15 e9 ca bd f2 dc 05 3e d8 86 f8 3d 11 b4 27 be
       -0.09907738 0.13072565 0.121350944 -0.16377284
0000c0 26 27 95 bd 35 af 78 3b 5d d0 18 bd cd b0 fe bd
       -0.072828576 0.0037946228 -0.037308086 -0.12436066
0000d0 c3 d5 6c 3d 13 93 fb 3d 3e ab 06 bb 2b 53 01 be
       0.057821047 0.122839116 -0.0020548846 -0.12629382
0000e0 07 e1 31 3d 95 e9 d9 3d f5 41 26 3c 38 25 04 3e
       0.043427493 0.10640255 0.010147561 0.12904823
0000f0 70 21 8f 3d 4e 68 57 3d 24 c7 a7 3c ee 79 0e be
       0.069887996 0.052589707 0.0204807 -0.139137
000100 70 22 f9 bc 2b de 0f 3e e6 71 84 bd b9 92 16 be
       -0.030411929 0.14049594 -0.06467037 -0.14704408
000110 33 2c 69 3e 73 db 28 3e c1 98 e1 3c 1f 60 37 3d
       0.22770767 0.16489963 0.027538659 0.044769403
000120 dd 0a 0e 3e f5 08 3d be 9b 94 1c be 6b ab 39 bd
       0.13871332 -0.18460448 -0.15291063 -0.045329493
000130 84 10 93 3d 5b 9f 1f 3d 19 ef 33 bc 98 03 03 3e
       0.071808845 0.038970333 -0.010982298 0.1279434
000140 59 f6 30 be be e2 e5 bd 67 d2 fd bd 2c 5c 61 3e
       -0.17281474 -0.11224888 -0.12393647 0.22007817
000150 69 fb df bd 8b ee 16 3d 08 41 02 bd 38 f6 f6 bd
       -0.109366246 0.036848586 -0.0318003 -0.12058681
000160 0b 03 a0 3d a5 17 99 3d 13 80 07 bd 5b ea d8 3d
       0.078130804 0.07475213 -0.033081125 0.10591575
000170 80 c3 97 bc e9 a6 56 be 7e a0 6e bd a3 76 fe 3d
       -0.018525839 -0.20962109 -0.058258526 0.12424972
000180 db c4 b2 3c b5 53 95 bd cf b2 21 3d 12 bc 2f be
       0.021822384 -0.072913565 0.039477166 -0.17161587
000190 7a 45 54 3d 6b 07 fa bd 68 9c d9 bc 29 fa 81 be
       0.05182407 -0.12208446 -0.026563838 -0.2538617
0001a0 a9 8b 52 3d 2b 0d 77 3d 57 21 0b 3e bb ea 08 bd
       0.05140272 0.060315292 0.13586937 -0.03342698
0001b0 0d 41 73 bd ce 7a 2a 3e 57 f5 63 be cd 8a 3c 3d
       -0.05938821 0.16648409 -0.22261558 0.04603081
0001c0 71 ef 0c be aa d0 64 3c a1 a8 01 3e 22 63 ce bd
       -0.13763215 0.013965765 0.12661983 -0.10077502
0001d0 db bc 9c bd 43 93 ed bc f1 49 8f bd 33 cf cf 3d
       -0.07653209 -0.029000884 -0.06996525 0.10146942
0001e0 7c af 40 be 9a 78 61 3d 81 e1 ed bc 10 16 6e 3c
       -0.18816942 0.055046655 -0.029038193 0.014531627
0001f0 f7 6b cd bd 46 42 ed 3d c1 ae 16 be 87 a8 4d 3d
       -0.10030358 0.11584906 -0.14715101 0.05020955
000200 29 ee 05 3c 53 9f c2 bd 8b a4 61 3d d2 d1 d1 bd
       0.008174458 -0.09503045 0.05508856 -0.10245098
000210 c6 e5 11 3d 79 8b 93 bd 94 f7 2b 3d ee b5 f5 bd
       0.03561952 -0.07204337 0.041984156 -0.11997591
000220 c0 a2 5c 3c 23 64 b4 bd 0a 50 85 bd e4 47 2a 3e
       0.013466537 -0.08808162 -0.06509407 0.16628987
000230 d5 84 d5 bc 0a 11 0d bd 93 ac 26 be 44 45 be 3d
       -0.026064316 -0.034440078 -0.1627677 0.09290555
000240 bb 20 4a 3d 67 6d bc bd 27 a2 7c 3d 83 d8 b6 3d
       0.04934762 -0.09200554 0.061678078 0.08928015
000250 ad 6f cd 3c 41 66 47 bd 1e 2b 9b bd 6f 15 d7 3d
       0.025077665 -0.0486815 -0.07576583 0.10502135
000260 ca b5 13 bd db b9 c1 bc 8f 27 2b 3d a5 0d ac 3d
       -0.03606204 -0.023648193 0.041785773 0.0840104
000270 5a 28 c5 3d ff af 06 3c 53 96 e1 bd 7b 79 a3 be
       0.09626837 0.008220672 -0.11015 -0.3192862
000280 c0 1f 11 bd 9f 6f 05 3e 3c 58 ac 3c 85 e1 44 3d
       -0.03543067 0.13030861 0.021038167 0.048066635
000290 3c 09 7e 3d e0 c5 5b bd 6e 81 3c be e3 03 5c 3e
       0.062020525 -0.053655505 -0.18408749 0.21485858
0002a0 00 ba b8 3d 4d ef 33 bd 56 cc 4a 3d fe 87 22 bd
       0.09019852 -0.043929387 0.049511276 -0.039680474
0002b0 66 88 0c bd 37 b6 60 be 23 e2 90 3d 63 ab 8b 3d
       -0.034309767 -0.2194451 0.07074382 0.06819799
0002c0 57 2a cb bd 29 73 cf 3d c6 23 9d 3d 39 f7 52 bd
       -0.09920185 0.10129387 0.07672839 -0.0515053
0002d0 f7 7d 8c 3d e9 51 6a 3e ba 49 ea bb 92 f5 3f 3e
       0.068599634 0.22882809 -0.007149902 0.18746021
0002e0 fe ee 35 be 74 0a bb 3d 8d 87 dd bb c0 98 cf 3d
       -0.1776695 0.09132853 -0.0067605437 0.101365566
0002f0 c5 8f f5 3c f5 ac 88 bd 05 e7 fb 3d 31 dc 0e be
       0.029975781 -0.06673614 0.12299923 -0.13951184
000300 84 11 bd 3d ca fc 43 bd 12 1a 86 bc a3 85 e8 3d
       0.092318565 -0.0478485 -0.016369853 0.11353614
000310 50 ae 97 3c d1 b1 74 bd 8a ff f1 3c 1f 90 b1 bd
       0.018515736 -0.05973989 0.029540796 -0.08670067
000320 8b 23 40 bd 98 71 53 3e 7e 14 1a 3e f4 4a 99 3c
       -0.046908896 0.20648801 0.1504688 0.018712498
000330 08 d7 9b bc 98 3e 0f 3d 7b 0b 35 3e 0e 16 c5 3c
       -0.019023433 0.034971803 0.1768016 0.024058368
000340 96 2c ba bd b7 6e 19 be 01 34 79 bd 07 46 c6 bc
       -0.09090535 -0.1498364 -0.06084061 -0.024203314
000350 5d 47 cd 3d 90 f9 99 bc f4 aa 58 bd ef f9 4c bd
       0.10023377 -0.018795758 -0.05289741 -0.050043043
000360 39 81 21 3d 64 2d 81 bd bb 39 c5 3c 3c ed 81 bb
       0.039429877 -0.06307486 0.02407538 -0.003965048
000370 e5 4a 89 be de d9 bc 3d db 29 36 be f8 35 25 be
       -0.26814952 0.09221242 -0.17789404 -0.16133869
000380 bd ea 17 bc ec 4c d6 bd da 16 d3 39 b0 78 0e 3e
       -0.009272275 -0.104638904 0.00040262082 0.13913226
000390 9e a4 21 3e a1 65 30 bd fc c4 22 bd f5 82 a4 bc
       0.15785453 -0.04306567 -0.03973864 -0.020081976
0003a0 67 35 89 3d 84 94 e6 3d c3 f5 b6 bd 30 94 d4 bd
       0.06699639 0.11258796 -0.08933594 -0.10379827
0003b0 8a d4 1b be 40 c4 23 3d 16 6d b5 bd 29 c5 3e 3d
       -0.15217796 0.03998208 -0.08858697 0.046574745
0003c0 f6 3e fb 3c dd f5 22 3c ee 1a 07 3d 19 5a 28 3e
       0.03066967 0.009946314 0.032984667 0.1644062
0003d0 d8 ec e6 bd 18 15 da bc dd 99 9e 3d 6f 02 d8 3c
       -0.11275643 -0.026621386 0.07744191 0.026368348
0003e0 80 d9 84 bd b8 5b 08 3d 37 1a a7 bd f7 03 02 3e
       -0.06486797 0.033290595 -0.08159297 0.12696825
0003f0 6e f8 ec bd 40 2d 13 bd 95 b2 7c bd 7c 73 1d 3b
       -0.11570822 -0.035931826 -0.061693747 0.0024025133

0.bias f4 [128]
000000 4d b9 c2 3d 7e 87 ef 3d d2 c7 9e bb d6 6c ed 3d
       0.095079996 0.11695765 -0.004845598 0.115930244
000010 62 ef c7 bd 54 14 13 3e bb 38 09 be 4d f9 0a 3f
       -0.097624555 0.14363223 -0.13400547 0.5428665
000020 e1 7c 21 3d 13 b0 f7 be 09 63 42 3e 18 34 a0 3e
       0.039425734 -0.4837652 0.18983091 0.31289744
000030 e4 fd c2 bd f0 9f 40 be a3 0e 5a bd 5f 12 09 3e
       -0.09521082 -0.18811011 -0.053236615 0.13385914
000040 8a 37 cb bd d4 de 5f be 13 9e 56 bc c4 a7 30 bd
       -0.099227026 -0.21862346 -0.013099211 -0.043128744
000050 fb 01 d1 3d c4 fd 65 be 1d 07 5f be 08 2d 65 be
       0.10205456 -0.22460085 -0.21780057 -0.2238046
000060 47 19 0c be 2e 56 58 3d fc 1f 52 3e 9a 64 d6 3e
       -0.13681518 0.052816562 0.20520014 0.41873628
000070 52 56 92 be d2 85 73 3e 00 fc 21 3e 18 9b aa be
       -0.28581482 0.23781517 0.15818787 -0.33321452
000080 43 29 7b be 86 18 bd be 27 58 1a bd 9c 04 59 be
       -0.24527459 -0.36932772 -0.037681725 -0.21193165
000090 34 17 5c 3e ed 1b 13 be 22 99 a3 3d 61 82 b2 bd
       0.21493226 -0.14366122 0.07988192 -0.08716274
0000a0 3f bf ef bd 24 52 1f be 1d 2a 13 3c b9 a6 06 be
       -0.11706399 -0.15558678 0.008982209 -0.13149537
0000b0 94 64 35 be a0 91 a3 bd 02 0b db 3e d1 24 3b bd
       -0.17714149 -0.0798676 0.42781836 -0.045689408
0000c0 86 8a ae be 2a 7e 64 3e 78 ba 6e be 8d 25 5c be
       -0.3409006 0.22313753 -0.2331332 -0.214987
0000d0 aa e5 82 be 7c ee 45 3e 49 86 46 be 04 b1 e8 bc
       -0.25565845 0.19329256 -0.19387163 -0.02840472
0000e0 80 ed ac 3e e7 a3 0a 3e 80 b3 e0 3d 46 40 00 be
       0.33774948 0.13539086 0.10971737 -0.12524518
0000f0 5c bd a4 b9 62 4f b8 bc 3b 9f 56 be 0f fa 34 3e
       -0.000314216 -0.02249879 -0.20959179 0.17673515
000100 a9 b2 09 be 2c ef e5 3d 5a d7 56 be 9c c8 4a be
       -0.1344706 0.11227259 -0.20980588 -0.19803089
000110 23 bd 09 be 02 f5 56 be 7c 0a b3 3e 8d 13 3d 3e
       -0.13451056 -0.209919 0.34968936 0.1846449
000120 85 08 99 3d 18 b2 c3 bd 05 b4 24 3d 66 af 82 3d
       0.07472328 -0.09555453 0.040210743 0.06381111
000130 bd 52 d9 bd 84 f6 64 be b3 0f cc 3c 08 99 18 3e
       -0.10611484 -0.22359663 0.02490983 0.14902127
000140 66 88 77 be ec 63 16 3e 54 bd d4 3d cf 2c a3 3c
       -0.24173126 0.14686555 0.10387674 0.019918827
000150 ef 7c 53 be 9d 23 b3 bd b9 11 87 3e 2d c7 28 3e
       -0.20653127 -0.08747027 0.2638071 0.1648223
000160 08 9f 02 be bb ef 0f 3d 6e 5e 11 3e b3 de d9 bd
       -0.12755978 0.035140734 0.14196178 -0.1063818
000170 7f 15 f5 bd 0f 5b 10 be 17 4d 81 3e 9e 27 57 be
       -0.11966991 -0.14097236 0.25254127 -0.21011207
000180 17 e0 46 3a b2 05 91 bd 9f fa b2 3e ea 89 8a bd
       0.00075864926 -0.070811644 0.34956834 -0.06764586
000190 9b b3 b2 3e fa 6a 7b be 9b 2e 26 be e7 54 15 3d
       0.34902653 -0.24552527 -0.16228716 0.036457922
0001a0 bc 93 8f be 2d 37 87 bd 2c 86 5b 3e ec 3b 19 be
       -0.280424 -0.06602321 0.21437901 -0.14964265
0001b0 b9 6a 6b be 67 2e 1e be d1 e9 23 be ca 6b 92 be
       -0.2298993 -0.15447389 -0.16007163 -0.28597862
0001c0 b8 6c 01 be 72 36 1c be fa f1 d5 3d 94 3b 65 be
       -0.12639129 -0.15255144 0.10446544 -0.22386009
0001d0 bf 11 f6 3d 5c e9 77 bd 4e ac 84 bd 0f 3a 47 be
       0.120151035 -0.060525283 -0.06478177 -0.19455741
0001e0 0f b9 dc 3d 0c 0e 18 be cc a8 4e 3e c8 1c 95 be
       0.107774846 -0.14849108 0.20181578 -0.2912352
0001f0 25 77 4c be 93 54 67 be 9d 8b 28 3d 0a 19 b3 3c
       -0.19967325 -0.22590856 0.04114877 0.021862525

2.weight f4 [128, 128]
000000 79 5c 35 3d fe 12 05 bc c6 d0 ff bc 08 01 6c bd
       0.044277642 -0.008122204 -0.03122748 -0.05761817
000010 1a 87 6c 3d 94 cd 68 bc 8f 55 2a bd 16 c9 08 3d
       0.05774603 -0.01420917 -0.0415855 0.033394895
000020 92 8d 0c 3c e6 ee 07 bd c2 2e d4 3b bd 2e 84 3d
       0.008578675 -0.033186816 0.0064753005 0.06454227
000030 27 66 1a bb 7d d2 16 bd c8 54 9c 3d 8b 0d 46 bd
       -0.0023559423 -0.03682183 0.07633358 -0.04835276
000040 90 b2 7a bd dd 8d 2a bd 22 76 a8 bd 6b 0c 16 3d
       -0.061205447 -0.041639198 -0.08225657 0.036632936
000050 e6 20 ab 3d dc a0 9c bd 1c 51 3e 3d e0 dc 1f 3c
       0.08355884 -0.07647869 0.04646407 0.009757251
000060 df dd 2e bc 79 23 7d bd 08 a2 20 bd 6e bc 32 bc
       -0.010673015 -0.061801407 -0.039217025 -0.010909183
000070 72 b7 c8 3c 2f 18 5b 3d aa 47 85 bd 0e 40 97 bc
       0.024501536 0.05348986 -0.065078095 -0.01846316
000080 73 64 24 bc 6c b6 d2 3b 20 ea 7e bd ec e7 44 3d
       -0.010033715 0.006430438 -0.062234998 0.04807274
000090 21 3c c4 3c 53 4b 52 bd 61 74 4e bd 6f 6c e6 bb
       0.023954453 -0.051341366 -0.050403956 -0.0070319693
0000a0 90 f4 a7 3c c7 a6 7d bd 18 9a a7 3c 06 5f 1e bd
       0.020502359 -0.06192663 0.02045922 -0.03866484
0000b0 b5 53 da bb 24 4a 88 3c be 03 3d 3d 22 05 7f 3b
       -0.0066628107 0.016636916 0.046146147 0.0038912972
0000c0 fc 4e 44 bd 73 83 a2 bd 67 d8 3d 3d ed 58 9f 3d
       -0.047926888 -0.07935228 0.046348955 0.07780633
0000d0 cd c9 59 bd f4 c1 61 bd e8 e7 00 3c 6a bd 5b bc
       -0.053170968 -0.05511661 0.007867791 -0.013411859
0000e0 c4 d9 9a 3d c5 de b6 3d 98 79 fb 3c 45 67 bd 3d
       0.07561067 0.08929209 0.030697629 0.09248213
0000f0 2e 9e a6 3d 2a a8 08 bc 9b d8 82 3d b1 e0 9c bd
       0.08135639 -0.008340875 0.063889705 -0.07660044
000100 53 3f ea bc 97 4d 9b 3d 5f 63 61 bd 3f 03 60 bb
       -0.028594648 0.075831585 -0.05502641 -0.0034181622
000110 e9 5d 8b bd 5e ec bf 3d 3b 55 80 3d c4 f5 4f bd
       -0.06805021 0.09371255 0.062662564 -0.05077149
000120 de 4a ad 3d e5 36 5d bd da 71 8e 3d ca a1 cd ba
       0.084615454 -0.05400743 0.06955309 -0.0015688476
000130 ea ce be bb 31 a5 83 3d 1e ec a4 bd 65 41 3a bd
       -0.005823006 0.06427992 -0.08052848 -0.04547252
000140 77 18 04 bc d7 dc 8d bd d3 fb a5 3c 05 d1 8f bd
       -0.0080624735 -0.069268875 0.02026168 -0.07022289
000150 2e 83 78 bd 0a 85 06 3d 91 72 3a 3c 6d 11 a4 3d
       -0.060671978 0.03284172 0.011379854 0.08011136
000160 a7 33 93 bd 3f 72 9c 3d 79 32 71 3d 15 b1 f5 bb
       -0.07187586 0.07638978 0.058886025 -0.0074979165
000170 69 5b 47 3d 5a ec 8e bd d2 a2 67 bd 3b 88 73 bd
       0.04867116 -0.06978674 -0.056551762 -0.05945609
000180 76 84 97 bd 32 1c 8e bd d2 5a 22 3d c2 04 b0 3d
       -0.07398312 -0.069389716 0.039637394 0.085946575
000190 c6 6e 21 3c 14 7a 0d bd cc fe 6c bd 3a 29 c1 bc
       0.009853071 -0.03454025 -0.05786018 -0.023579229
0001a0 fc 4b 51 3d 14 3d 2d bd 09 7b ec bc 00 e4 a1 bd
       0.051097855 -0.042294577 -0.028867261 -0.07904816
0001b0 f9 51 b3 3c e4 a1 ad 3d 1d ad 39 3d cd 77 9b 3d
       0.021889674 0.08478144 0.04533111 0.075912096
0001c0 df 70 60 3d 93 74 8f 39 7e 56 84 bd 40 81 bb 3d
       0.054795142 0.0002736194 -0.064618096 0.09155512
0001d0 7e e1 96 bc 84 81 d0 3d 21 a7 65 bd 31 b7 d1 3b
       -0.01841807 0.10180953 -0.05606759 0.006400012
0001e0 19 f0 ac 3c 4a 2c 5f 3d 62 2b 05 3c ff d6 a5 bd
       0.021110581 0.054485597 0.008128019 -0.08097648
0001f0 b7 08 14 3a 8f 60 bb 3d 1b 01 34 3c 17 60 65 3d
       0.00056470506 0.091492765 0.010986592 0.05599984
000200 91 98 0b bd 40 3c 76 bd 42 35 5c 3d e8 fa 35 3d
       -0.034081046 -0.060116053 0.053761728 0.044428736
000210 e2 c2 99 bc 8a 79 ce bc c6 dd 10 bd 0f 71 b3 3c
       -0.018769685 -0.025204439 -0.03536775 0.021904496
000220 6e 23 81 3d a6 09 ae bd 56 21 1a 3b 2c d2 4a 3c
       0.06305586 -0.08497934 0.0023518405 0.01237921
000230 6c a4 b7 bb 73 66 45 3d a8 c7 d2 3c 80 5f 90 3d
       -0.0056043174 0.048193406 0.02572997 0.07049465
000240 13 ef 2e bd e8 32 5f bc 8f d3 50 bc d4 79 4c bd
       -0.042708468 -0.013622977 -0.012745752 -0.04992087
000250 50 62 21 bd 15 99 f7 bc ce 6b d1 bc d4 37 30 bd
       -0.0394004 -0.030224362 -0.0255641 -0.04302199
000260 ac 78 56 3c 75 52 aa bd 42 7e 9f 3d c6 21 f5 bc
       0.013090294 -0.08316509 0.07787754 -0.029923331
000270 97 6c 7a 3d 34 4e ee 3b b7 82 97 bd 9d fd b5 bd
       0.061138716 0.007272506 -0.07397979 -0.088862635
000280 b0 19 81 bc 99 f8 4f 3d f9 5b 4d 3c 79 09 66 3d
       -0.015759319 0.05077419 0.012534135 0.056161378
000290 54 f1 64 bd 64 16 ac bd 48 85 b0 bd d5 64 bd 3c
       -0.05589421 -0.08402708 -0.086191714 0.02311937
0002a0 b7 30 3d 3d 81 9c 1e bd c9 81 ba 3c 44 56 90 bd
       0.046189036 -0.038723473 0.022766965 -0.07047704
0002b0 d1 e8 85 bc 1f 15 99 3d 01 12 e8 bc 8c a1 99 3d
       -0.016346367 0.07474732 -0.028328897 0.07501516
0002c0 58 03 5d bd 97 9c 4b bd 60 d6 9f 3d 01 ab 8f 3d
       -0.053958267 -0.049709883 0.07804561 0.07015038
0002d0 57 a3 9d 3c da f4 bd bc e6 29 11 3d 9b ae dd 3c
       0.019242926 -0.023188043 0.035440348 0.027060797
0002e0 0f b9 23 bd 54 62 8b bd 1b e6 d6 bb 94 12 2f bd
       -0.039971408 -0.06805864 -0.0065581924 -0.042742327
0002f0 51 6c f0 bc 79 b0 5b 3c 23 6e 9a 3d 16 8b 8f 3d
       -0.029348524 0.013408774 0.07540538 0.070089504
000300 1f 98 8c 3d f2 6d 15 3d 09 b0 f5 3c 21 74 8d bc
       0.06864952 0.036481805 0.029991167 -0.017267289
000310 7c 59 fe 3b 2d 1c f1 bb 51 60 8e bd 1b e0 b3 3d
       0.007762132 -0.007358095 -0.06951965 0.08782979
000320 ef 3f 7a 3d a4 5b 15 3c 17 27 3f 3d 9d 50 24 3d
       0.061096128 0.009116087 0.04666814 0.04011594
000330 02 be 82 3d 1d 7b 45 3d 74 e1 5c bc 6e b4 a7 bc
       0.06383897 0.048213113 -0.013481487 -0.020471778
000340 c1 ad 4e bd 18 ef f0 3b d1 4a 89 3d 92 ae a6 bd
       -0.050458673 0.007352721 0.06703723 -0.081387654
000350 9e 25 b4 3c 5b 2d 4a bd 53 6f a1 3d 4f 18 a0 bd
       0.021990594 -0.04935966 0.078825615 -0.078171365
000360 50 9e 2a 3c 7c d8 58 3d 4e 2a ed bc 2d 81 1e 3c
       0.010413721 0.05294083 -0.028950837 0.009674353
000370 d0 32 f7 3c 3a f2 ac bb 65 96 e0 bc 03 f9 a8 3d
       0.030175596 -0.005277899 -0.027415464 0.0825062
000380 85 97 aa bd 09 6f 6a bd 19 a6 0a bd 36 72 f4 3b
       -0.08329681 -0.057234798 -0.03384981 0.007459904
000390 fd f9 66 bc f8 10 6f 3c 43 8d 71 bc 14 56 3b bd
       -0.014097688 0.014591448 -0.014743152 -0.045736387
0003a0 75 b1 2c 3c 3a 06 7e 3d cf 40 27 3d f1 39 ad 3c
       0.010540356 0.062017657 0.04083329 0.021145793
0003b0 ee f3 73 bd 4a d5 4b 3d 65 7f 51 bc 36 4f 66 3d
       -0.0595588 0.049763955 -0.012786721 0.056227885
0003c0 e8 e1 04 bd 52 18 8a bd 93 ef 77 3d 0a 74 9a bc
       -0.032442003 -0.0674292 0.06053121 -0.01885416
0003d0 03 e2 1a bd 49 38 20 3d a6 93 28 ba d3 75 08 bd
       -0.037813198 0.039116178 -0.0006430693 -0.03331549
0003e0 c1 5b 6b bc 1f 74 21 b9 95 a5 76 3c 52 2d 81 3d
       -0.014365138 -0.00015397415 0.015054126 0.06307472
0003f0 8b 30 09 bd a4 c3 ec bc af 1d 6d ba 64 43 84 39
       -0.03349356 -0.028901882 -0.0009045256 0.00025227212

2.bias f4 [128]
000000 43 7e be 3d 82 75 2c bd ce 8f d1 bc f5 02 c9 bc
       0.09301426 -0.04210425 -0.025581267 -0.024537543
000010 2d fc 1f 3d 04 78 ce bd 50 88 4f bc 4b 7a e6 bc
       0.039058853 -0.10081485 -0.012666777 -0.028134486
000020 ef ed 1b 3e ed 2b 1a be 3e f0 31 3c d4 0f f0 bd
       0.15227483 -0.15055819 0.010860501 -0.11721769
000030 15 f3 9a bd 11 f1 8b 3d c1 15 ba bd 55 38 41 3e
       -0.075658955 0.06833089 -0.090861805 0.18869145
000040 91 40 04 3e 5c bf 57 3e 8d 4d 6f bd 59 e6 93 bc
       0.12915255 0.21069092 -0.058423568 -0.018054174
000050 80 9f 2b 3c 04 ab 06 be 6b 33 85 bd d7 7f 6f bd
       0.0104750395 -0.13151175 -0.06503948 -0.058471527
000060 9d 89 70 bd bc e4 bc bc 8d 28 3a be 0f 85 8e bc
       -0.05872499 -0.023058288 -0.18179531 -0.017397432
000070 b2 14 6e 3c 22 8e c4 3c 84 4d fd 3d 4b f9 d9 bd
       0.014531301 0.023993555 0.123683006 -0.10643252
000080 72 8c 2d 3e ba ea ed 3d fb 00 9e bd 85 e1 e8 bd
       0.16948107 0.11617036 -0.07715031 -0.113711394
000090 12 2c bd 3d 9a 6d 74 3c 58 92 af be 01 7f f3 bd
       0.09236921 0.014918709 -0.3429134 -0.118894584
0000a0 76 43 bf bc 17 db b2 bc 2e b7 84 bd b8 16 e3 bd
       -0.023347598 -0.021832986 -0.06480251 -0.11088318
0000b0 e2 4a e4 3d 89 a1 07 3e 20 a3 02 3e 60 f7 72 bc
       0.11147095 0.13245215 0.1275754 -0.014829487
0000c0 cd df 1f be 6e 4d df bb 9e be e6 3d c3 13 14 3d
       -0.15612717 -0.0068146503 0.11266826 0.03615166
0000d0 7c 0f ef bc 12 dd 10 bd 0e 80 7b bd 0f 73 22 3c
       -0.029182188 -0.03536708 -0.06140142 0.009915127
0000e0 ae b5 de 3d 01 28 83 bd 64 b6 fb bc 65 35 73 3d
       0.108744964 -0.064041145 -0.030726619 0.059377093
0000f0 af 40 17 bd 68 e9 a4 3c 87 79 b2 3d 7c 83 99 3d
       -0.03692692 0.020130828 0.08714586 0.07495782
000100 be 2c 55 bd 86 a8 85 3d 75 4a 27 bd 4c 74 e8 bb
       -0.052044623 0.06526284 -0.040842492 -0.007093942
000110 33 17 88 bb c1 65 83 be 66 cc 19 be 50 10 bb 3d
       -0.004153156 -0.2566357 -0.15019378 0.09133971
000120 de d5 e2 bd 79 8b c0 3d 77 a9 00 3d 28 71 a8 3d
       -0.11075948 0.09401602 0.031411614 0.08224708
000130 c6 f4 17 bd c8 67 95 be f4 a6 7e 3b 59 01 ba bd
       -0.03709867 -0.2918074 0.0038856836 -0.09082288
000140 c1 2d 05 bd d0 09 81 3c 08 d1 7d bd 30 36 28 bd
       -0.032514337 0.01575175 -0.061966926 -0.041067302
000150 a5 bf 5c be 9b a7 94 3d 76 3a 92 3c f4 62 94 bd
       -0.21557482 0.07258531 0.017850142 -0.07245436
000160 f0 2e eb 3d 1e de b6 bd d9 c8 99 bd 44 70 a5 3c
       0.11483562 -0.08929084 -0.07509012 0.020195134
000170 0c a8 a4 3b e0 84 49 3d 90 5a f6 bd 63 02 be 3c
       0.0050249156 0.049198985 -0.12028992 0.023194497
000180 37 77 11 3d ab a2 18 3d 17 73 e3 bc d1 c2 e6 3b
       0.035514083 0.037264507 -0.02776484 0.007042267
000190 6d a7 05 3d e0 76 0d 3d 8f 54 a1 bc 8d cc b5 bd
       0.032630373 0.034537196 -0.019693641 -0.088769056
0001a0 1d 89 2c bc ff 0b ff 3d e6 8b 62 bd 48 60 37 3d
       -0.010530737 0.1245346 -0.0553092 0.044769555
0001b0 7e 11 01 3d 25 0e 08 be 71 c8 10 bd a6 08 32 bd
       0.031510822 -0.13286646 -0.035347406 -0.04346528
0001c0 0f 40 08 bd b9 c5 b7 bd 21 ae 85 bd 07 e9 17 3d
       -0.033264216 -0.089732595 -0.06527353 0.037087467
0001d0 f7 4c 07 bd f2 df e0 3c ad 89 55 3d a9 c0 e6 3b
       -0.033032384 0.027450535 0.05213325 0.00704201
0001e0 9c 33 75 3c e1 0a 75 3d 06 27 86 3d 62 52 4e bd
       0.014965918 0.059824828 0.06550412 -0.050371535
0001f0 85 3a 17 3c 2e e2 f2 3c c4 76 27 bd e4 e8 ac 3b
       0.009230261 0.029648867 -0.040884748 0.005276786

4.weight f4 [128, 128]
000000 8c 26 44 3d 34 57 c8 3c a9 8a 18 bd aa 11 4f 3d
       0.047888324 0.024455644 -0.03724161 0.050553955
000010 66 af a7 3a f0 ed 4a bd 0a 29 dc 3b 07 3d 14 bc
       0.0012793362 -0.04954332 0.0067187594 -0.009047753
000020 97 35 d5 3c 28 49 5f 3c d5 db 8a 3d bd 03 de 3b
       0.02602653 0.013628282 0.06780211 0.006775348
000030 82 4f 01 3c 48 f7 e2 bb f1 ca 7c bd 1b c4 31 3d
       0.007892491 -0.006926451 -0.061716978 0.04339991
000040 0c bd 97 3d 6a 83 1c bd 7d f6 6c bd e0 0c 0c bd
       0.07409105 -0.038211264 -0.057852257 -0.034191966
000050 c7 a0 5a bb 1e 80 93 3d 2f 51 84 bc fa 28 a6 3d
       -0.003335999 0.07202171 -0.016151993 0.081132844
000060 87 4e 92 3d eb 1c 90 bd 5a a7 b2 bd 18 8a 14 bc
       0.07143884 -0.07036766 -0.08723326 -0.009066127
000070 a0 8a 3b bc dc 77 3c 3c b2 01 0e bc fa 8d 1f bd
       -0.011446625 0.011503186 -0.008667396 -0.03895376
000080 73 1f 7a 3c b8 a6 33 bd af 81 43 3d e3 e2 80 3d
       0.015266287 -0.043860167 0.047731098 0.06293275
000090 6f 91 94 bd fe 99 88 bd ca 7a 89 3d f5 fe a1 bc
       -0.07254302 -0.06669997 0.06712873 -0.019774893
0000a0 95 eb 12 3d 71 88 ad bd ab d3 58 bd 69 e9 8d bd
       0.0358692 -0.0847329 -0.052936237 -0.06929285
0000b0 4c 78 fc bc b7 ea 88 bd ea 63 02 bd 3a 26 cb 3b
       -0.03081908 -0.06685393 -0.031833567 0.0061996253
0000c0 89 90 0b bd ad ec 32 3d 7b 9b 0b bd 55 28 8b bd
       -0.034073386 0.043682743 -0.034083825 -0.06794802
0000d0 f3 d2 bc bc 5e 96 43 3d cd 30 8e bc 44 36 3c bd
       -0.023049807 0.047750823 -0.017357254 -0.04595019
0000e0 c6 6c 06 bd fd d4 8f 3d f7 0e 93 bd a0 27 48 bd
       -0.03281858 0.07023046 -0.07180589 -0.048865914
0000f0 81 d5 98 bd d7 44 99 3d d8 aa 44 bd 53 a9 a1 3d
       -0.07462598 0.07483833 -0.04801449 0.07893624
000100 00 64 a3 bc 5a f3 67 bd 3a b2 31 bd 72 0f 8d bd
       -0.019945145 -0.056628563 -0.04338286 -0.068877116
000110 10 c8 5b 3c d8 0b 09 bd 66 47 a1 3d cc c1 02 3c
       0.013414398 -0.03345856 0.07874946 0.007980775
000120 17 70 82 3c 1b e7 26 bd 98 a0 df bc 01 ac 44 bd
       0.01592259 -0.040747743 -0.027298257 -0.0480156
000130 9f bf d3 3c 8d 59 2e 3d ea 17 67 bd 92 2e 20 3d
       0.025848208 0.04256587 -0.05641929 0.039106913
000140 c3 af ad bd 14 61 54 3d ce 4b 3d 3d 9d 82 cb bc
       -0.084807895 0.051850393 0.04621487 -0.024842555
000150 80 32 8e 3c ff 7e 79 bd d0 0a 8a bc 59 1e bf 3c
       0.017358065 -0.06091213 -0.016850859 0.0233299
000160 d0 b5 30 3d b0 03 92 bd 78 bf 96 bd 3d a5 8d 3d
       0.04314214 -0.071296096 -0.073607385 0.06916282
000170 29 c4 fd 3c 5b 9f 9c 3d 3b c2 a0 bd 92 76 28 bd
       0.030977326 0.07647582 -0.078495465 -0.041128702
000180 95 45 19 bd 38 9c 81 bc 3d 9b 06 3c 18 a0 95 bc
       -0.037419874 -0.015821561 0.008215723 -0.018264815
000190 2d c0 40 3d a2 5d 5a bd 19 e7 99 3d f2 91 31 bd
       0.047058273 -0.05331195 0.075147815 -0.043352075
0001a0 8a 09 47 3d a2 a4 94 3d 7e 19 a0 bd 94 c5 c8 3c
       0.04859308 0.07257964 -0.07817362 0.024508275
0001b0 40 0b a7 3c 3c 2f a5 3d 99 ae 49 3d a5 e9 b1 bd
       0.020391107 0.0806565 0.049238775 -0.08687142
0001c0 c9 79 02 bd cb ea 8d bd b4 4c 3f bd eb 0d d9 bc
       -0.031854425 -0.06929549 -0.04670401 -0.026495894
0001d0 0c 8b 09 3d 5a ff ae bd 67 25 b0 3b 27 f3 a3 bd
       0.03357987 -0.08544798 0.0053755525 -0.08005362
0001e0 e7 4e 8b bc e3 3c ab bd aa 27 77 bd 24 3e 1e bd
       -0.017005397 -0.083612226 -0.06034056 -0.03863348
0001f0 47 bb 10 3d cc b4 49 bd f5 43 56 bd 68 c1 1e 3d
       0.03533485 -0.049244687 -0.052310903 0.038758665
000200 0a 10 2e bd 7f df fd 3c 6d 96 bf 3d d6 a6 9f 3d
       -0.042495765 0.03099036 0.09354863 0.07795493
000210 c2 45 69 bc 68 fc 35 3d a8 d5 c9 bc a5 63 87 3d
       -0.014237823 0.044430166 -0.024638012 0.066108026
000220 39 12 81 3b 62 ad f2 3b 3f 82 b0 bd 1a 16 a1 3d
       0.00393894 0.0074059227 -0.086185925 0.07865544
000230 99 a6 74 3d 32 23 27 bc 8b 86 36 bd c6 d5 e7 bc
       0.059729192 -0.010201262 -0.044561904 -0.028300177
000240 72 0b a1 bd ba ad 58 bd 45 45 27 3d b8 e5 60 bd
       -0.07863511 -0.052900054 0.040837545 -0.054906577
000250 3b e6 21 3d ca 84 2a bd 87 69 2c bd 7d 7b a5 bd
       0.039526206 -0.041630544 -0.042092826 -0.08080194
000260 71 c7 1b 3c d0 6b 02 bd cd 00 2a bd 8b 85 1c bb
       0.009508 -0.0318411 -0.04150467 -0.0023883309
000270 fd 1b 43 bd e6 ee 92 3c 22 2b 7a 3d 44 7f 1e bd
       -0.047634114 0.017936181 0.06107629 -0.03869559
000280 e2 55 f4 3c 94 83 e8 bc e7 5c d2 3c dd 15 90 bd
       0.029826108 -0.028383054 0.025679065 -0.0703542
000290 f7 81 5a bd 03 8b 1e bd c2 0e 15 3a 95 fc 7c bc
       -0.0533466 -0.03870679 0.0005686098 -0.01544108
0002a0 00 5b d5 bc ee 44 55 3d d1 55 79 bd 41 36 b3 3d
       -0.026044369 0.05206769 -0.060872857 0.087505825
0002b0 62 bc a2 3c 3c c2 7e 3b d4 5e 91 3d 43 33 80 3d
       0.019865219 0.0038873097 0.07098165 0.062597774
0002c0 34 4e b6 bc 79 16 f4 3c 1c b2 10 bd dd 59 46 3d
       -0.022254087 0.029795872 -0.03532611 0.048425544
0002d0 0d 14 6e 3d 65 f4 a0 3c 97 8b 98 3a 01 5a 06 bd
       0.05812459 0.019647786 0.0011638281 -0.03280068
0002e0 ca 1e d1 bc 60 de 95 3d e7 1a b5 3c 86 68 f2 3c
       -0.025527377 0.07317805 0.022107555 0.029590856
0002f0 e3 14 f6 bb b2 ca 2d bc 6d 02 87 3d fa 07 89 bd
       -0.007509814 -0.010607408 0.065922596 -0.066909745
000300 7c 0f 66 3c 70 a8 7e bc 18 26 eb bc a7 e8 99 bd
       0.014041778 -0.015543088 -0.028704688 -0.07515078
000310 ef 8f 61 3d c1 7c 96 bd 0d 7a 00 bd 51 23 76 3c
       0.055068906 -0.07348014 -0.031366397 0.0150230685
000320 8c 2c 3c 3d 4c 60 b3 bd 3a 5f 3e 3d 7a 13 02 bd
       0.04594092 -0.087586015 0.046477534 -0.031756856
000330 51 2a e5 3c 56 88 9e bd f1 c1 9d bd c2 9a a4 3d
       0.02797428 -0.07740848 -0.07703007 0.0803733
000340 30 26 00 3d 5c 38 97 3c 55 77 3c 3d d8 77 a2 3d
       0.03128642 0.018459491 0.04601224 0.07933015
000350 b9 10 66 3d 05 d5 df 3c 81 af 91 bd 22 79 bd 3d
       0.05616829 0.027323255 -0.07113553 0.0925162
000360 d6 d0 b2 bb e6 f8 8b bc d1 3a 98 3c 48 72 8a 3d
       -0.005457024 -0.017086457 0.018582733 0.06760079
000370 e6 2d 5d bc 18 f1 32 bd 92 80 4b 3d 00 b1 94 3d
       -0.013499713 -0.043686956 0.04968316 0.072603226
000380 5f 1e d8 3c 9c 8e 52 3c 82 6f 32 3b 3f 66 94 3c
       0.02638167 0.012851384 0.0027227108 0.018115161
000390 9e 27 9c bd 69 5a 37 bd df a7 1d 3d f4 1b b6 3c
       -0.07624744 -0.044763956 0.038490172 0.022230126
0003a0 62 7f 14 3d ab 55 94 3b 0c d6 47 bd 7c 4b 16 bd
       0.036254294 0.004526814 -0.048788115 -0.03669308
0003b0 74 0a 78 bc b0 27 71 bd e1 e5 ab 3d 8f fb 43 bd
       -0.015139211 -0.05887574 0.08393455 -0.047847327
0003c0 06 19 04 3c 27 82 b4 3d 21 58 95 bd b0 48 a3 bd
       0.008062607 0.08813887 -0.072922 -0.079728484
0003d0 f7 38 1c 3d e7 56 67 3d f3 ad 21 bd cb d8 27 3d
       0.038140263 0.05647936 -0.03947253 0.040978234
0003e0 63 f2 7b 3d 44 36 00 bd 28 9d 93 3d cf ec fa 3b
       0.061510455 -0.03130175 0.072077096 0.0076576243
0003f0 d1 80 80 bc 46 d2 00 3d c3 21 46 3d 64 fc ad 3d
       -0.015686424 0.031450532 0.04837204 0.08495405

4.bias f4 [128]
000000 f3 e5 09 bd 83 c3 19 3d 2b e7 c8 3d b2 f0 b2 bd
       -0.033666562 0.03753997 0.09809717 -0.08737315
000010 95 8c 8c bd 82 b2 1e bd 50 21 d3 bc dc 75 95 bd
       -0.068627514 -0.038744457 -0.02577272 -0.072978705
000020 20 74 ca 3d b0 2e ae 3d 36 6f 5f bd e6 3e a7 3c
       0.0988543 0.08504999 -0.05454942 0.020415734
000030 6d 0b 8a bc 1d 3a 35 bb b5 6a 94 3d 8d ed 00 3d
       -0.016851151 -0.0027653046 0.07246915 0.031476546
000040 ef 73 02 be 06 ac 1b 3d 71 aa e8 3d b6 ef 7a bd
       -0.12739538 0.03800585 0.11360634 -0.061263762
000050 4c 29 9d bc 59 63 54 3c e2 f9 19 3d 25 7c 97 bd
       -0.019184731 0.012963139 0.037591822 -0.073967256
000060 d1 93 ed 3d 53 85 8e bd e0 d1 37 bd 6e fa a6 bd
       0.11600459 -0.06959023 -0.044877887 -0.081532344
000070 6b dc a5 bd 1e 34 6f bd 8f 95 99 bc 21 03 cf 3d
       -0.08098682 -0.058399312 -0.018748073 0.10108019
000080 17 37 8b bc 31 a0 ad bc e4 b8 83 bd df 8d 63 bd
       -0.016994042 -0.02119455 -0.064317495 -0.05555522
000090 ed 31 a4 3c 3b ce 06 3d 75 b5 30 bd c8 c1 ef bc
       0.020043338 0.03291152 -0.0431418 -0.029267207
0000a0 b3 23 4f 3c a6 90 0a bd ba 9b e8 3d eb 26 1d 3e
       0.012642789 -0.033829354 0.113578275 0.15346877
0000b0 a9 89 59 3d 05 ba ac 3d 02 c9 55 bc 33 10 20 bd
       0.0531098 0.08433918 -0.013048412 -0.03907795
0000c0 1f 48 a1 bc 97 21 81 3d 21 d2 b7 3c 39 d2 3d bd
       -0.01968771 0.06305235 0.022439064 -0.046343062
0000d0 6c 21 ee 3b 2d af 16 ba f0 81 1a bd 52 07 1c bd
       0.007267168 -0.0005748149 -0.037721574 -0.03809292
0000e0 64 cf 32 bc 1c af a9 bd 8a 3a 29 bd d8 8b 18 3e
       -0.010913704 -0.082853526 -0.041315593 0.14897096
0000f0 ab 6b b1 3c 99 97 2f bc 25 cd ec 3d 58 3d 3f 3d
       0.021657785 -0.010717296 0.11562566 0.04668936
000100 7e d1 b9 bd 87 32 98 bd b0 10 3d 3c de 64 3b bd
       -0.090731606 -0.07431512 0.011539623 -0.04575049
000110 9c 9c 9f 3d 5e 9f 31 3d af bb dc 3d d2 16 83 bd
       0.07793543 0.043364875 0.10777985 -0.06400837
000120 ac f4 2c 3d 29 4e 2e 3e dc 58 4c 3e 59 aa 17 3e
       0.042225525 0.17022003 0.19955772 0.14811076
000130 08 eb fc bc f1 69 a2 bd 7d 31 6d 3d f1 bc 61 bd
       -0.03087379 -0.07930363 0.057908524 -0.05511183
000140 8b a9 00 3a 8b 71 95 3d 9a 68 58 bd 20 4a 2d bd
       0.00049080764 0.07297047 -0.05283413 -0.04230702
000150 ec 29 e1 3d 35 c9 f7 3c e4 65 e0 3d d4 bc 27 bc
       0.10994324 0.03024731 0.10956934 -0.010237891
000160 e5 2a 8d bd dc 09 45 bc 71 53 0c 3e 5d f9 64 3d
       -0.06892947 -0.012026276 0.13703705 0.055901874
000170 f8 88 98 bd ba 1a 87 bc 16 ee 64 3d b5 d3 a3 3d
       -0.07448 -0.016492236 0.05589112 0.07999364
000180 16 ad d3 3d ce 8a b5 3d e7 0a 55 bd 7c 84 bc 3b
       0.10335748 0.088643655 -0.05201235 0.005753098
000190 28 8d be 3c e9 2d cd bc e0 a5 46 3c 1b 9d ca bc
       0.023260668 -0.025046306 0.012124509 -0.024733117
0001a0 2d 94 f9 3d 67 65 54 3c d1 38 14 bd bc b2 fc bc
       0.121864654 0.012963629 -0.036186997 -0.030846946
0001b0 33 82 ef 3d c8 b7 31 3c 42 ca 42 bd 0c 75 36 bd
       0.116947554 0.0108470395 -0.04755617 -0.04454522
0001c0 6d b4 38 bd 0c 71 a9 3c 66 42 46 3e 6f 29 30 bd
       -0.045093942 0.020683788 0.19361266 -0.043008264
0001d0 df 78 98 bd 12 e0 57 bd 90 e8 d1 bc 24 ae 91 bb
       -0.07444929 -0.052703924 -0.02562359 -0.004445808
0001e0 9b 59 58 3d 2a e4 a8 3d 64 f5 fb 3d 5e ff b7 3b
       0.05281983 0.08246644 0.12302664 0.005615159
0001f0 58 c8 0a 3d 31 41 f6 3b 29 38 d2 3d a2 07 31 3d
       0.03388247 0.0075150956 0.10264618 0.04322017

6.weight f4 [128, 128]
000000 0a 57 f1 3b 5f 37 4f 3d 61 d0 96 bc b5 a0 2e bc
       0.007365112 0.050589915 -0.01840991 -0.010658433
000010 d0 e7 0f 3d ec 70 80 bd 94 91 80 3c 99 20 63 3d
       0.035133183 -0.06271538 0.015694417 0.05545101
000020 39 96 8e 3d 29 f6 20 3d 64 b0 25 bd 41 46 48 bd
       0.069622464 0.039297257 -0.040451422 -0.048895124
000030 33 14 8c 3d db 21 b0 bd 01 f4 bf 3d 14 2e 0f bd
       0.0683979 -0.086002074 0.09372712 -0.034956053
000040 02 4b 50 3d 87 1c 27 bc 86 8d 9e 3d 98 3a 88 bd
       0.050852783 -0.010199673 0.07741837 -0.06651801
000050 94 93 9f 3d 05 d2 8d 3d db 74 a5 3b 33 6d b7 3d
       0.0779182 0.06924824 0.0050493306 0.08956375
000060 68 4d 58 bd a7 e2 52 bc f5 4b a8 3a 75 c7 3d bc
       -0.052808195 -0.012871421 0.001284002 -0.011583199
000070 c3 a3 91 bd 5a dc 1c bb 75 2d 18 3c d5 42 e7 3d
       -0.07111313 -0.002393505 0.009288182 0.11292044
000080 0f 9e 8a bc 25 01 63 3d 8a 04 83 bc 9c 64 be bc
       -0.016921071 0.055421013 -0.015993375 -0.023241334
000090 91 4f 9e 3d 06 2e c3 bd a5 db 07 3d 29 16 1c 3d
       0.0773002 -0.09530263 0.033168454 0.03810707
0000a0 94 c4 95 3d b0 63 32 bd 7e 41 c2 bc 91 0d 7f bd
       0.07312885 -0.0435521 -0.02371287 -0.062268797
0000b0 9f d5 2a 3d 8c c0 90 3c 99 15 2f 3d a3 e5 22 3d
       0.04170763 0.017669939 0.042745207 0.03976978
0000c0 8c ea 2b bc 9d 26 62 bd 00 11 47 bc cb 13 4a 3d
       -0.010492932 -0.055212606 -0.012150049 0.049335282
0000d0 8b 48 3a 3d 4b 77 80 3d 94 f9 88 3d 30 d7 b0 bd
       0.04547934 0.06272753 0.06688228 -0.08634794
0000e0 3a 05 ab 3c 5d 43 37 3d f6 47 3b bd 9e 5f b0 bd
       0.020876516 0.044741977 -0.045722924 -0.086119875
0000f0 db a2 86 3c a1 01 07 bd 9e 93 31 bd c9 ec 93 3d
       0.016435077 -0.032960538 -0.04335367 0.072228976
000100 21 91 20 bd 87 90 45 bd 7b 5d d0 bd 86 55 9b 3d
       -0.039200906 -0.048233535 -0.1017408 0.07584672
000110 42 05 61 3d f7 d0 05 3d 8e f4 fb 3c 56 fe 99 bd
       0.054936655 0.032669988 0.030756261 -0.07519214
000120 3d 4d 73 bd 40 28 6d 3d 60 c2 39 bd e3 f0 8b bd
       -0.059399832 0.057899714 -0.045351386 -0.06833055
000130 d6 c5 f3 bc bf da 35 bd f0 bb d1 3c 90 7f c9 bc
       -0.029757421 -0.044398066 0.02560231 -0.02459696
000140 d5 58 6b bd 77 ce 7c 3b ce 2c 71 bd bf 98 82 bd
       -0.057457764 0.003857521 -0.05888062 -0.0637679
000150 ce 43 01 bd 45 f1 0f bd 57 8c 00 bd b9 ae b1 3d
       -0.031558804 -0.035142202 -0.03138384 0.08675904
000160 38 20 ea 3c 88 e8 35 bd 78 ee ee 3c 79 9c 9c bd
       0.028579816 -0.044411212 0.029166445 -0.07647032
000170 27 5d 87 bd d4 79 38 3b 0b 61 d7 3d 5a bb b2 3d
       -0.06609564 0.0028148787 0.10516556 0.08727141
000180 52 9d 96 bb 6b 92 26 bc 76 7a 00 bd 9e 37 83 bc
       -0.0045963908 -0.010166745 -0.031366788 -0.016017731
000190 5c 8a 00 bd 46 99 b8 bd 4e b0 52 bd e4 02 7c bc
       -0.03138195 -0.090136096 -0.05143767 -0.015381549
0001a0 de 3a ff 3c 1b 43 c6 3d 48 ad d8 3d 71 aa b4 3d
       0.031156 0.09680768 0.10579926 0.088215716
0001b0 5a c3 8d 3d f3 b8 b1 3d e0 f0 8c 3d 37 4f 4f 3d
       0.06922026 0.086778544 0.06881881 0.050612655
0001c0 84 bb 07 3d 33 72 65 3d cb 94 c4 3a ea 23 c2 bc
       0.033137813 0.056017112 0.0014997957 -0.023698766
0001d0 61 24 12 3d e6 66 8d bd 8b ac 5c 3d 62 da ea 3d
       0.035679225 -0.06904392 0.053875487 0.114674345
0001e0 46 6a a6 3d 60 73 8c bd 67 d7 94 3d a3 a2 be 3c
       0.08125739 -0.068579435 0.07267647 0.02327091
0001f0 a3 7a 5f 3d c3 de 01 3d 1a d2 8d 3d 63 c3 aa bd
       0.054560315 0.031706583 0.06924839 -0.08338048
000200 89 b0 b2 3d 09 54 96 bd f9 b9 52 bd 81 4b 92 3c
       0.08725078 -0.07340247 -0.05144689 0.017858269
000210 a2 cf db bb c6 ae 7a bd bb f6 84 3d 94 f0 8a 3c
       -0.0067081014 -0.061201833 0.064923726 0.01696042
000220 32 39 ae bc 87 6f 15 3d 29 c8 96 bd 44 70 97 bd
       -0.021267507 0.036483314 -0.07362396 -0.0739446
000230 ca 7c 85 3d 6e f2 62 3d 6a 26 7b 3d 8e c6 39 3d
       0.06517942 0.05540698 0.06131593 0.045355372
000240 64 5b 59 bd 03 c6 95 3d 65 10 05 3d 24 4c 8f 3d
       -0.053065673 0.07313158 0.03248634 0.069969445
000250 17 56 89 bd 12 e1 b9 bd 1b 51 75 bd 6b b2 32 bd
       -0.067058735 -0.09076132 -0.0598918 -0.043627184
000260 7c cd cd 3b 6f 4b ee bb d5 a0 c7 3d cb 9b 88 bc
       0.006280599 -0.007272176 0.09747473 -0.01667585
000270 96 04 78 bc fa a3 7e 3d 8c 88 dc 3d d0 8d f7 3b
       -0.015137812 0.0621681 0.10768232 0.007554747
000280 e8 45 ac 3d 16 6e 49 bd 42 f7 ac 3d a2 7d eb 3c
       0.08411771 -0.04917725 0.08445598 0.02874643
000290 7b 63 ef 3b 3f 60 b0 3d 89 fb 8f 3d 9c 64 65 bd
       0.00730556 0.086121075 0.070303984 -0.05600415
0002a0 cf 6b 0a bd 4c 58 af bd 6e 1d 64 bc b5 f1 a4 39
       -0.03379422 -0.08561763 -0.013923032 0.00031460603
0002b0 00 c8 24 3d 0e 03 86 3c bc 6c 65 bd cc de b5 3d
       0.040229797 0.016358878 -0.0560119 0.08880386
0002c0 47 1e 63 39 a3 18 3b bd 37 11 2e 3d 61 b0 51 3d
       0.00021659686 -0.045677792 0.042496886 0.0511936
0002d0 9c 8a 07 3d d2 0f 19 bd a4 2e 27 bc 4c f5 8b 3d
       0.033091173 -0.037368603 -0.010203991 0.06833896
0002e0 8a ac 6a 3d 48 5b 25 bb eb f4 a3 bc 17 34 9d 3d
       0.057293452 -0.002523141 -0.020014247 0.07675951
0002f0 0c c5 5c bc 65 43 15 3d 4e 2d 71 3d e4 9d 9d bd
       -0.013474714 0.036441226 0.058881097 -0.07696131
000300 97 b0 42 bd a9 46 82 bd 17 03 83 3b 8c 99 d9 bc
       -0.04753169 -0.063611336 0.003998171 -0.026562475
000310 33 60 46 bd 29 9a bf 3d c0 88 d5 3d 9c b4 8c bc
       -0.048431586 0.093555756 0.104264736 -0.017175965
000320 60 9d 93 3c 7d 11 56 bb a4 92 89 3b bb bd 6c 3d
       0.018019378 -0.0032664232 0.004198389 0.05779813
000330 2d 72 1b 3d da 81 b7 3d 0f f9 46 bd bc 62 a8 bd
       0.037950683 0.08960314 -0.048577365 -0.08221957
000340 b9 35 7e bc e7 82 9c 3c 40 c6 3a 3b 00 be b8 3d
       -0.015515738 0.019105388 0.0028499514 0.090206146
000350 79 03 70 3d 3c 17 1a 3d 07 c1 3b 3b 67 30 fe bb
       0.05859706 0.037619814 0.0028648989 -0.007757235
000360 ab d5 2e bc 2f be 08 3c 7f 6e 8c bc 85 2b 17 3c
       -0.01067106 0.008346125 -0.017142532 0.009226684
000370 95 06 76 3d 8f de 42 3d cc 91 42 3d e1 b7 2d 3d
       0.06006487 0.04757553 0.047502324 0.04241169
000380 79 b8 49 bc bb c0 1c bd 79 57 52 3d ea 6d aa 3b
       -0.012312048 -0.03826974 0.05135295 0.005201091
000390 90 a6 b7 3d b7 44 e7 bb e0 a8 cf 3d 26 ba 92 bd
       0.08967316 -0.007057752 0.10139632 -0.07164411
0003a0 64 a4 f0 3d a0 fd ae bc f5 d4 37 3c 1b f0 b1 bc
       0.11750105 -0.021361172 0.0112202065 -0.021720937
0003b0 5c 00 8c bc 70 37 0e 3d c1 53 db 3d e8 4d 54 bc
       -0.017090015 0.034720838 0.10709334 -0.012958027
0003c0 97 b9 1f bc 79 b2 2a bd e7 ec 69 bc 15 3a f8 ba
       -0.009748838 -0.04167411 -0.014277673 -0.0018938208
0003d0 ae c8 c8 3d 59 dc a8 bd aa 94 8b bd b9 82 be 3c
       0.098039016 -0.08245153 -0.06815465 0.023255693
0003e0 4a 65 db bc 78 50 25 3d 2b d5 27 3d 63 6f 69 bd
       -0.026781697 0.040359944 0.040974777 -0.056990992
0003f0 f4 b6 a2 3c cf db e6 3c 05 51 77 3c b0 0b a9 bd
       0.01986263 0.028180985 0.015095 -0.08254182

6.bias f4 [128]
000000 fb 44 07 3c bd 05 12 3e a3 c9 de 3c d1 f8 a6 3d
       0.008256192 0.14260001 0.027195757 0.08152927
000010 86 ec 89 bd 40 f9 b6 bc b9 75 59 3e 73 3d 45 3d
       -0.067345664 -0.022335649 0.21236314 0.048154306
000020 0a a2 65 3e 2a 12 47 3e 58 72 50 3c 6d 9c e1 bd
       0.22425094 0.19440523 0.012722574 -0.11016164
000030 f3 8f af bd 75 04 66 3b c0 1b 4c 3c da 10 4b 3d
       -0.08572378 0.0035097871 0.012457788 0.049576618
000040 e5 41 bc bd 9e 07 5d bc 52 83 9d bd 30 b3 82 3c
       -0.09192256 -0.013490586 -0.07691063 0.015954584
000050 1a 34 70 3d c2 b0 22 3e 02 19 3e bd 64 0d 9c bd
       0.058643438 0.1588774 -0.046410568 -0.076197416
000060 57 40 0d bb 54 d7 10 3d 6f ca f6 3c dc 28 25 bd
       -0.0021553242 0.035361603 0.030125825 -0.04032217
000070 9e 34 fe 3c ff 1a 74 bd e0 06 89 3d ef 01 22 bd
       0.03103095 -0.059596058 0.066907644 -0.039552625
000080 09 3f 29 3e bb 94 e0 bc da 4a 25 3c f1 8f 82 bd
       0.16527952 -0.02741467 0.010088647 -0.06375111
000090 72 c7 e9 bd 60 1d 58 3d 31 1c b0 3c 96 f7 06 3e
       -0.11414994 0.05276239 0.021497818 0.13180384
0000a0 62 43 79 bd a3 04 6e 3e a2 2d 06 3e 16 13 df 3a
       -0.060855277 0.23243956 0.13103345 0.0017019238
0000b0 5f 57 af bd 00 93 2d 3d 18 c6 81 3d 1f 90 d0 bd
       -0.085615866 0.04237652 0.063366115 -0.10183739
0000c0 8e ce f4 bc 0e 45 6d bc ac 5f 8f bd 04 c9 bf bd
       -0.02988365 -0.014481796 -0.0700067 -0.093645126
0000d0 79 b7 57 3d fd 7c 66 bc 46 f2 92 3d e3 df 05 3e
       0.052665208 -0.0140678855 0.07175116 0.13073687
0000e0 bb ae 63 bd fb 90 9f ba ed 0a 55 3e c7 34 4d bd
       -0.055586558 -0.0012173945 0.20804949 -0.05009916
0000f0 1a 80 24 3d ef e6 35 bd af 1d a8 3b 38 86 89 3e
       0.04016123 -0.04440969 0.0051304917 0.26860213
000100 6c 9e 53 3a cd 51 c5 bc 00 25 2b bd 24 06 fd 3c
       0.0008072618 -0.024086857 -0.041783333 0.030886717
000110 fa 9a ad bd ee 16 49 bd 67 59 03 bd 69 15 0b 3d
       -0.08476825 -0.049094133 -0.032067683 0.033955965
000120 df 40 29 3d e2 90 a8 bd c3 76 03 3c 53 43 32 3e
       0.04132163 -0.08230759 0.0080239205 0.17408495
000130 43 19 43 3c c0 83 b2 bd 5b 62 0d bd f3 3c 01 bd
       0.011907878 -0.087165356 -0.034517627 -0.031552266
000140 24 3e 56 3b a5 91 ba bb 62 a6 b5 bd 3b 74 1b bd
       0.0032690847 -0.0056936317 -0.08869626 -0.037952643
000150 f9 11 5c bd 2a 62 f8 bc 79 a4 5f 3c b2 ed 00 3c
       -0.053728078 -0.030320246 0.013650053 0.007869171
000160 9a 89 48 bb c8 45 9f ba 55 09 5a bd 75 ee 99 3d
       -0.0030599595 -0.0012151534 -0.053231556 0.07516185
000170 1e 06 eb bd a1 73 98 bd 7f 60 42 bd 02 17 b1 bd
       -0.11475776 -0.074439295 -0.047455307 -0.086469665
000180 c1 ec 1e bc f8 fb 06 3d 2f 70 a0 3c 58 1c 03 3e
       -0.009700001 0.03295514 0.019584743 0.12803781
000190 39 8b fc bc 2a c9 0e 3e e6 85 99 bd 53 b8 9b 3e
       -0.030828105 0.13943925 -0.07496242 0.30414066
0001a0 8f be 8c bd d1 9e b9 bd 5e 68 32 bd b0 ec 0a bd
       -0.06872284 -0.09063495 -0.043556564 -0.03391713
0001b0 d1 82 ac 3b dd f7 33 bd 1a d1 dd 3d cd 1c 57 bd
       0.005264618 -0.043937553 0.108308986 -0.0525177
0001c0 a4 4e 02 bc 6f d0 70 3d c5 9f 91 bd 4c a1 08 3d
       -0.00795332 0.058792528 -0.07110552 0.03335695
0001d0 b8 9b 0c 3d 03 54 80 bd 6b 57 6b 3d 55 63 68 bc
       0.034328192 -0.06266024 0.057456415 -0.014183839
0001e0 53 be 01 be bd fc 44 bd f5 51 1f 3e a5 f9 a4 bc
       -0.12670259 -0.048092593 0.15558608 -0.020138571
0001f0 2f 21 2c 3d 68 01 86 3e c3 78 06 3e 14 80 66 3c
       0.042023834 0.26172948 0.13132004 0.014068622

8.weight f4 [49, 128]
000000 9b 3d 95 3d 78 ab a7 bd c1 24 b2 bc 2b 52 28 3d
       0.07287141 -0.08187002 -0.021746041 0.041093986
000010 8b b2 0c be 9f c3 ab 3d cc a3 45 be 8a 21 c2 3d
       -0.13739984 0.08386921 -0.19300765 0.09479053
000020 c2 8a 23 be fd 7e 23 be 56 74 de bd 76 56 8d 3c
       -0.159709 -0.15966411 -0.10862033 0.017253142
000030 1b 36 68 bb 22 3e 81 3b bb 0e 02 3d 00 48 8d 3b
       -0.003543264 0.0039441744 0.03175233 0.0043115616
000040 e8 97 08 3d 8c f3 60 3d 97 bd 5e 3c 9e e3 79 3d
       0.033347994 0.054919764 0.013595006 0.06100809
000050 3b cd 82 3d 12 d1 6c bd 86 da a2 bd aa 65 bb 3d
       0.06386801 -0.057816572 -0.07951836 0.0915025
000060 93 6e 2b bd 32 7e 05 3d f5 ba 8f 3d e5 ed 96 bc
       -0.0418535 0.032591052 0.07018081 -0.018423984
000070 35 a9 6e bd 66 12 0d 3c ea 00 ae 3d 97 56 83 3d
       -0.058266837 0.008610344 0.08496268 0.06413
000080 14 2f ca bd ed e9 ac 3d a8 3b 9c 3c d0 0a 9c 3d
       -0.09872261 0.08443055 0.019071415 0.0761925
000090 8c de a3 bd 66 79 61 bc 2d ed 1c 3d cf eb 4c be
       -0.08001432 -0.013761854 0.038312126 -0.20011829
0000a0 d7 29 a8 3b db 8f 75 be e9 1e 11 bd c0 0d c8 bc
       0.005131941 -0.23980658 -0.03542987 -0.024420619
0000b0 e6 d9 34 3d 8f 87 82 3d 78 4a a8 3a 00 1a 32 bc
       0.044153117 0.06373512 0.0012839576 -0.010870457
0000c0 e2 65 9b 3b c4 3c f2 3c af f0 d2 bc 94 ec 00 bd
       0.00474237 0.029569991 -0.025749533 -0.03147562
0000d0 fb d9 7c bd 59 ed 60 3d 2d 77 22 bd 12 2e 9f bd
       -0.06173132 0.054913852 -0.039664436 -0.07772459
0000e0 f8 c4 87 3d 68 d2 85 3d 3c d7 f1 bc 71 60 bf bd
       0.06629366 0.065342724 -0.029521577 -0.093445666
0000f0 8a c9 94 bc 65 28 9f bd 6a a3 2b bd 8b cc 29 be
       -0.018162508 -0.077713765 -0.04190389 -0.16581933
000100 35 92 96 bd 2c 90 a9 3d 10 8d 87 3b 33 d9 8e 38
       -0.073521055 0.08279452 0.004136689 6.811544e-05
000110 86 f1 fc bc 9e 89 61 3d 74 2c ef 3d cb 52 b1 3d
       -0.030876886 0.055062883 0.11678401 0.0865837
000120 92 b1 6e bc 07 81 e9 3c d0 ad a9 3d 9c 27 d7 bd
       -0.014568703 0.028503908 0.08285105 -0.10505602
000130 8d b0 67 bd 4d 1c 18 bb a0 dc 9f bc 93 8d 09 3d
       -0.056564856 -0.0023210228 -0.019514382 0.03358228
000140 29 b6 09 bd 45 f2 b7 3d 4a 1b 37 bd 4f c2 ac bd
       -0.033620987 0.08981756 -0.04470376 -0.08435499
000150 cb 3c 11 bd ed 7c 92 3d 08 ba 36 3d 39 b5 9e bd
       -0.035458367 0.07152734 0.044611007 -0.07749409
000160 81 8d 3f 3d e8 01 5e 3d 73 e4 7d 3c 02 40 7a bd
       0.046765808 0.054201037 0.015496361 -0.0610962
000170 36 cb 6e bd 84 71 fa ba 0d f5 0e be ec 8e 05 3d
       -0.058299266 -0.0019107317 -0.13960667 0.032607004
000180 c1 9f a7 3d 44 ec 13 3d 64 a5 14 3d aa b7 ef bd
       0.081847675 0.036113992 0.03629054 -0.11704953
000190 69 a0 f4 bc df c4 2d be f2 46 0b bd 1c 32 6c be
       -0.029861646 -0.16969632 -0.034003206 -0.2306599
0001a0 49 61 d6 3d ca 2c 2a 3e ba e1 6b bd b2 8d 43 3d
       0.104677744 0.16618648 -0.057588317 0.047742553
0001b0 9b 73 88 3b f1 59 55 bd a6 b5 db 3c 3e 98 7c 3d
       0.004164172 -0.052087728 0.026820015 0.061668627
0001c0 60 ad ef bc a9 f1 13 3d 0d 68 20 3d c8 33 92 3d
       -0.029257476 0.036119137 0.03916173 0.07138783
0001d0 f0 96 11 bd 0d 6d 0a 3d ae 66 e5 bd 6d 32 a5 3d
       -0.035544336 0.033795405 -0.11201225 0.080662586
0001e0 1c 8d 96 bd 58 58 48 bd 32 38 7f be 9c 07 1a 3c
       -0.07351133 -0.048912376 -0.2492378 0.009401228
0001f0 36 ad 0b bd ca 31 02 be f6 3e 31 bd 63 65 90 3d
       -0.034100734 -0.12714306 -0.043272935 0.07050588
000200 5d a4 29 3d 19 4d cb bd 65 17 b6 3c 89 95 07 bc
       0.041416515 -0.099268146 0.022227952 -0.008275398
000210 85 3b 81 bc d0 b1 12 3d 27 6e 38 bd e9 27 a3 3d
       -0.015775451 0.035814106 -0.045026924 0.07966597
000220 67 18 32 be 24 a8 c0 bc 60 29 1f be 6b 20 fb bc
       -0.17392121 -0.023517676 -0.15543127 -0.030655107
000230 c8 19 4a 3d 57 61 d4 3c 03 71 94 3d 54 c7 0d 3c
       0.049340993 0.025925322 0.07248118 0.008653481
000240 37 5d b2 3d 98 84 c1 3c 66 90 2a 3d ad b1 c4 bc
       0.087091856 0.023622796 0.041641615 -0.024010504
000250 ea e8 14 3d 59 41 14 be 7e 4e 1d 3b 15 9c f9 3d
       0.036354937 -0.14478053 0.0024003084 0.121879734
000260 91 0f 31 bc 59 bf 3b 3c 34 a3 04 3d dc ed 86 bd
       -0.010806934 0.011459195 0.032382205 -0.06588337
000270 d4 bc 4d 3c 2c a7 55 3b 96 74 39 bd b4 00 bf bc
       0.012557227 0.0032600863 -0.0452772 -0.023315765
000280 95 c8 d3 bd f8 25 eb bb bf 0c ff 3d 91 a4 45 3d
       -0.10340992 -0.007176157 0.12453603 0.048252646
000290 e7 de 1d 3d 5a e1 35 bd b9 69 b6 3c de 07 ec bd
       0.038542654 -0.044404365 0.02226721 -0.11524938
0002a0 50 bd 3d 3d 5d 72 89 be fb a6 0a be 8e 7d 89 3d
       0.04632312 -0.26845065 -0.1354026 0.06713401
0002b0 fe 1d 3b 3d a7 67 36 bd 2d 4a 9f 3d ea 64 89 3d
       0.0456829 -0.044532444 0.0777782 0.06708701
0002c0 3f 6a 0d bd 2b fe 01 3d b6 33 82 bc 7e 77 4d 3c
       -0.034525152 0.031736534 -0.015893798 0.012540696
0002d0 33 40 1a be b8 df 76 bd 98 8c 22 bd 97 8e 33 bd
       -0.15063553 -0.06027195 -0.039684862 -0.043837156
0002e0 a3 26 86 bd 43 49 3c 3c 8f e5 27 be 17 55 21 be
       -0.06550338 0.011492076 -0.16396163 -0.15755115
0002f0 6c 31 66 3d 1a d2 3e 3b 5b 4b 59 bd c8 af d0 bd
       0.056199476 0.002911693 -0.05305038 -0.101897776
000300 e3 3c 13 bd db 3e 90 bd a1 af 81 3d 3d 50 30 3c
       -0.035946738 -0.07043239 0.06332327 0.010761318
000310 6a 56 52 bd 72 31 36 3d 04 93 11 3c 6d 3e d5 3d
       -0.051351942 0.04448075 0.008885149 0.104122974
000320 28 14 9e bd 0c 5e 93 bc 1d 2f 9c 3c c1 e0 45 bd
       -0.07718688 -0.017989181 0.019065434 -0.048310045
000330 d8 20 99 3d 98 dc b6 bd 0d b6 8a bd 85 39 01 3b
       0.074769676 -0.08928794 -0.06773005 0.0019718122
000340 4a 8e 0a 3d 7b b2 99 bd 0d e8 90 3b be fc 9d bc
       0.033827104 -0.075047456 0.004422194 -0.019285556
000350 b7 31 9a 3d ec 9e af 3c 76 e9 83 3d 29 f8 04 be
       0.075290136 0.021438085 0.064410135 -0.1298529
000360 db 46 a9 3d be 5a 97 3d 2c 3e f3 bc 43 9f e0 bd
       0.08265468 0.073903546 -0.029692732 -0.10967877
000370 05 0e 99 bd 84 58 62 bd 06 03 20 be dd b3 c8 3c
       -0.07473377 -0.055260196 -0.15626153 0.024499828
000380 9e 57 1c bd 35 f6 88 3c 21 52 d2 bc 00 9c 88 bd
       -0.038169496 0.016718963 -0.025673928 -0.0667038
000390 df 65 90 3c 73 9e 87 be 6b c8 47 3d 5d c6 32 be
       0.0176267 -0.26488075 0.048775118 -0.17458482
0003a0 fc ba d2 3d 9b 59 b7 3d 79 0e 3b 3d e9 d2 ae bd
       0.10289571 0.08952638 0.0456681 -0.08536322
0003b0 26 1e 9f 3d fe ae 32 3d 4e 1c 98 bd cc 63 b9 3d
       0.07769422 0.043623917 -0.07427274 0.09052238
0003c0 95 9f 6e bc 06 c0 8e bc 50 e9 61 bc 33 fa 76 3b
       -0.0145644145 -0.017425548 -0.013788536 0.0037685751
0003d0 f5 94 ff bd a6 fe 30 bc e7 93 d4 bc 39 1e 7c bd
       -0.12479583 -0.0108029 -0.025949432 -0.06155226
0003e0 f6 de 1c bd 44 45 6b 3d 26 a2 5c be 7f 5b 91 3b
       -0.03829857 0.057439104 -0.2154623 0.004435956
0003f0 6b 27 8a 3c 50 11 39 be e1 47 81 bd 33 4d 81 3c
       0.0168645 -0.1807301 -0.06312538 0.015783882
