models/snapsRandom/model_1685771713.1382198.pt (torch, 252563 bytes, 10 tensors)

0.weight f4 [128, 49]
000000 54 98 a5 bd dd 2b e4 3d ca f0 0f 3d 0e 2d 1d be
       -0.08085695 0.11141179 0.035141744 -0.15349218
000010 4d 2f 4a 3d 0b bf 4b bd 3d ca b0 bd 63 fd 93 3d
       0.049361516 -0.04974274 -0.08632324 0.07226064
000020 75 f2 15 bd c9 b7 fd bd 1d f7 e3 3d e7 0b 2d 3e
       -0.03660818 -0.1238857 0.111311175 0.16899072
000030 e9 2d 1b bd 65 b1 c9 3d be 6e b8 3b 05 95 e1 bd
       -0.03788558 0.098482884 0.005628436 -0.11014751
000040 4f dc 50 bc f0 12 a9 bd 9e 4a 31 bc ce 2c a4 3c
       -0.012747838 -0.08255565 -0.010821013 0.020040896
000050 c2 6b e8 bc 22 bf b4 bd 85 6b 7a 3e f9 98 e0 bd
       -0.028371695 -0.08825518 0.24455078 -0.10966677
000060 66 a6 2c bd 12 eb a5 bd e7 1f 78 bd 44 67 70 3d
       -0.042150877 -0.08101477 -0.0605773 0.05869223
000070 3a 80 1f 3e 33 c0 7f bd 56 a0 37 3e 73 b8 e9 bc
       0.15576258 -0.062439155 0.17932257 -0.028530335
000080 e1 18 7e bb 2e 68 28 3d 3c 39 76 bd 61 6f 0f 3e
       -0.0038772153 0.04111498 -0.060113177 0.14007331
000090 f7 8e 81 bd 5d dc 07 bc 81 ae 44 be aa 84 aa bb
       -0.063260965 -0.008292285 -0.19207193 -0.005203803
0000a0 06 75 fb bd ad 93 8e 3d 2c 47 48 3e 00 54 31 bd
       -0.1227818 0.06961761 0.195584 -0.043293
0000b0 2f e9 ca bd 6d 5f 05 3e e8 86 f8 3d 11 b4 27 be
       -0.099077575 0.13024683 0.12135106 -0.16377284
0000c0 26 27 95 bd e4 c1 76 3b 41 c3 18 bd 9b b1 fe bd
       -0.072828576 0.003765219 -0.037295584 -0.12436219
0000d0 91 d9 6c 3d 38 be fb 3d 45 e2 02 bb 92 bf 01 be
       0.057824675 0.12292141 -0.0019971293 -0.12670735
0000e0 d0 e3 31 3d 5f e9 d9 3d c8 f8 27 3c f4 b3 04 3e
       0.04343015 0.10640215 0.010252185 0.12959272
0000f0 5c 25 8f 3d a6 1f 57 3d 65 15 a7 3c ee 79 0e be
       0.069895476 0.052520417 0.020395944 -0.139137
000100 af 7a f8 bc 94 dc 0f 3e 21 72 84 bd 30 a7 16 be
       -0.030331938 0.14048988 -0.06467081 -0.14712214
000110 fc b6 69 3e 01 cd 28 3e 4b 45 e2 3c 58 fb 36 3d
       0.22823709 0.16484453 0.027620932 0.044673294
000120 76 0b 0e 3e 91 08 3d be 7c 95 1c be 44 d1 39 bd
       0.1387156 -0.18460299 -0.15291399 -0.045365587
000130 26 0a 93 3d 5b 9f 1f 3d 0e 08 46 bc 07 cc 02 3e
       0.0717967 0.038970333 -0.012086881 0.12773143
000140 cf 56 30 be 45 df e5 bd f7 ed fd bd cf ff 60 3e
       -0.17220615 -0.11224226 -0.12398904 0.21972583
000150 50 fc df bd 52 a8 1c 3d 50 6c 02 bd a7 f3 f6 bd
       -0.10936797 0.03824646 -0.031841576 -0.12058192
000160 c5 96 9f 3d 58 26 99 3d 4b 81 07 bd 06 52 d8 3d
       0.07792429 0.074780166 -0.033082288 0.1056252
000170 7f bd 98 bc e9 a6 56 be 46 b4 6e bd 15 73 fe 3d
       -0.018645046 -0.20962109 -0.05827739 0.12424294
000180 3a c9 b2 3c b5 53 95 bd a1 a6 21 3d 8f ba 2f be
       0.021824468 -0.072913565 0.03946555 -0.1716101
000190 c3 45 54 3d 22 06 fa bd 9a 2a d9 bc 7a fb 81 be
       0.051824342 -0.12208201 -0.026509572 -0.25387174
0001a0 b3 c4 52 3d 79 fe 76 3d 5b 23 0b 3e ba a0 08 bd
       0.05145712 0.060301278 0.13587706 -0.033356406
0001b0 ab 15 73 bd ce 7a 2a 3e a5 ff 63 be 6c 4c 3c 3d
       -0.059346836 0.16648409 -0.2226549 0.04597132
0001c0 5d ef 0c be f8 d0 65 3c 91 a6 01 3e 8a 62 ce bd
       -0.13763185 0.014026873 0.12661196 -0.100773886
0001d0 c9 d9 9c bd e6 dd eb bc 3e 47 8f bd c5 ec cf 3d
       -0.07658727 -0.028792333 -0.0699601 0.10152582
0001e0 c8 bd 40 be 8a 5b 61 3d 1f 63 ee bc 57 10 6e 3c
       -0.18822396 0.05501894 -0.029099999 0.014530263
0001f0 64 80 cd bd ac 54 ed 3d b1 ae 16 be fb 0c 4f 3d
       -0.10034254 0.115884155 -0.14715077 0.05054949
000200 66 72 01 3c a2 7c c2 bd 2c a5 61 3d 48 db d1 bd
       0.00790081 -0.09496428 0.05508916 -0.10246903
000210 a1 58 11 3d 5a 8d 93 bd 23 af 2a 3d 9d ad f5 bd
       0.035484914 -0.07204695 0.04167093 -0.11996005
000220 9a de 5c 3c 92 61 b4 bd b7 3a 85 bd 3f 4a 2a 3e
       0.013480807 -0.088076726 -0.065053396 0.16629885
000230 de 15 d6 bc f4 35 0d bd 86 ac 26 be ca 3c be 3d
       -0.026133474 -0.03447528 -0.1627675 0.09288938
000240 e0 22 4a 3d bf 6e bc bd e1 a3 7c 3d da c5 b6 3d
       0.049349666 -0.09200811 0.061679725 0.08924456
000250 80 5d cd 3c 78 54 47 bd 28 52 9b bd 1c d8 d8 3d
       0.025068998 -0.04866454 -0.075840294 0.105880946
000260 7e fe 12 bd bd 7a c7 bc a1 02 2b 3d 38 16 ac 3d
       -0.035887234 -0.024350518 0.041750554 0.084026754
000270 b0 5c c6 3d 3f db 13 3c 22 9a e1 bd 32 99 a3 be
       0.096856475 0.00902444 -0.110157266 -0.31952816
000280 4b 9f 16 bd 2a 74 05 3e 20 01 b4 3c bd f2 44 3d
       -0.036773007 0.13032594 0.021973193 0.048083056
000290 72 dc 7c 3d c4 20 61 bd 23 42 3b be 07 de 5b 3e
       0.06173367 -0.05496289 -0.18286948 0.21471415
0002a0 ba e2 ba 3d a4 31 34 bd 16 8a 4d 3d 7d 6b 23 bd
       0.09125276 -0.043992653 0.050180517 -0.03989743
0002b0 a1 b7 0c bd c3 de 60 be 5d c3 90 3d ff ae 8b 3d
       -0.03435481 -0.21959977 0.070685126 0.06820487
0002c0 a2 4c ca bd cf 7c cf 3d 36 06 9d 3d 27 09 53 bd
       -0.09877898 0.10131227 0.076672 -0.0515224
0002d0 e9 2a 8c 3d d7 fe 69 3e cf 6f e9 bb b4 db 3f 3e
       0.06844122 0.2285112 -0.0071239243 0.18736154
0002e0 a4 f9 35 be cb 02 bb 3d b3 30 01 bc 5a 8c cf 3d
       -0.17771012 0.09131392 -0.007885146 0.10134192
0002f0 ec 52 f5 3c 85 e1 89 bd 8f ab fb 3d f3 d8 0e be
       0.029946767 -0.067324676 0.122885816 -0.13949947
000300 82 1a bc 3d 9f 1f 44 bd 1a f5 85 bc 47 82 e8 3d
       0.091847435 -0.04788172 -0.016352225 0.113529734
000310 c6 46 98 3c 74 d1 74 bd 07 6d f2 3c ef e6 b0 bd
       0.018588435 -0.059770063 0.029593004 -0.08637797
000320 98 66 3b bd 85 67 53 3e 3d 2b 1a 3e 5a 09 9a 3c
       -0.045752138 0.20644958 0.15055557 0.018803287
000330 48 af 9b bc ff 6f 12 3d 33 a1 34 3e ac 0a c5 3c
       -0.019004479 0.03575134 0.17639618 0.02405294
000340 1c de ba bd 55 24 1b be f2 19 79 bd 49 c9 bb bc
       -0.09124395 -0.15150578 -0.06081576 -0.022923129
000350 53 64 cd 3d 39 c6 94 bc 7b c7 55 bd ce 56 54 bd
       0.10028901 -0.018160926 -0.052192193 -0.051840596
000360 ed 77 22 3d fa 77 7c bd f4 81 c7 3c 31 47 9a bb
       0.03966515 -0.061637856 0.024353959 -0.0047081937
000370 6d 5c 89 be bf 45 bd 3d c7 2f 36 be 42 63 25 be
       -0.26828328 0.09241819 -0.17791663 -0.16151145
000380 93 6b 17 bc 3b 7d d6 bd 9d d2 27 3a 50 78 0c 3e
       -0.009241956 -0.104731046 0.0006401928 0.1371777
000390 cb a2 21 3e ca 17 31 bd a3 47 20 bd 58 17 a4 bc
       0.15784757 -0.043235578 -0.039130818 -0.020030662
0003a0 ac 5d 89 3d 08 ae e6 3d b3 25 b7 bd d8 6a d7 bd
       0.067073196 0.112636626 -0.089427374 -0.10518426
0003b0 0f fe 1b be 99 72 23 3d d4 91 b5 bd c1 e0 3f 3d
       -0.15233634 0.03990421 -0.08865705 0.0468452
0003c0 f0 97 fb 3c 26 7c 30 3c 5c ed 06 3d 6b 61 28 3e
       0.030712098 0.010771787 0.032941207 0.16443412
0003d0 1d f0 e6 bd 46 6a da bc 39 b9 9e 3d 0e fe d7 3c
       -0.11276267 -0.026662003 0.07750172 0.02636626
0003e0 96 73 85 bd d4 76 09 3d 77 8b a3 bd d6 83 03 3e
       -0.06516187 0.03356059 -0.07985585 0.1284326
0003f0 5a 28 ed bd 6a 2a 13 bd d9 29 7a bd 65 61 84 3b
       -0.11579962 -0.03592912 -0.061075065 0.0040399306

0.bias f4 [128]
000000 c1 64 c4 3d 95 79 f2 3d c9 be 9f bb d0 d5 ef 3d
       0.0958953 0.11839596 -0.0048750383 0.117107034
000010 c7 1e c8 bd 91 14 17 3e be 7b 09 be 88 c5 0a 3f
       -0.09771495 0.14753939 -0.1342611 0.5420766
000020 00 ef 1a 3d a7 49 f8 be 16 78 42 3e 46 8d a0 3e
       0.037825584 -0.48493692 0.18991122 0.31357783
000030 c2 2b c4 bd 4c a1 3f be 14 a1 5c bd e9 f1 0b 3e
       -0.09578659 -0.18713874 -0.053864554 0.136665
000040 53 23 ce bd 63 59 60 be 97 52 2e bc ba 62 37 bd
       -0.10065331 -0.21909098 -0.010639808 -0.044771887
000050 77 77 ce 3d c4 fd 65 be 71 91 5e be b9 8e 65 be
       0.1008138 -0.22460085 -0.21735169 -0.22417726
000060 af 79 0c be 59 b5 58 3d d8 39 4f 3e 88 14 d6 3e
       -0.13718294 0.05290732 0.2023691 0.4181254
000070 07 58 92 be 09 e9 72 3e bf b0 21 3e 33 a7 aa be
       -0.28582785 0.23721708 0.1579008 -0.33330688
000080 b0 3f 7b be 86 18 bd be 66 ab 1c bd 4c 0e 59 be
       -0.24536014 -0.36932772 -0.038249396 -0.2119686
000090 63 37 5f 3e c0 26 14 be 8a 7c a3 3d 35 e6 b0 bd
       0.21798472 -0.14467907 0.07982738 -0.086376585
0000a0 a2 cf ef bd fa 55 1f be 59 c4 09 3c fa 4d 07 be
       -0.11709525 -0.15560141 0.008408629 -0.1321334
0000b0 d3 bd 34 be 3d 74 a1 bd fd ec da 3e a1 d8 3c bd
       -0.17650537 -0.07883499 0.42758933 -0.04610503
0000c0 86 8a ae be e6 56 66 3e 0d 22 6f be 98 1c 5c be
       -0.3409006 0.22494087 -0.23352833 -0.21495283
0000d0 52 43 83 be c1 2f 47 3e f4 51 45 be b5 af e9 bc
       -0.256373 0.1945181 -0.19269544 -0.028526166
0000e0 90 3d ae 3e d5 93 0a 3e 2a 7d dd 3d a4 3a 00 be
       0.34031343 0.13532956 0.10814889 -0.1252237
0000f0 51 e9 b8 b9 6f 98 b6 bc 99 86 56 be 16 18 38 3e
       -0.0003526905 -0.022289483 -0.20949782 0.17977938
000100 d6 f2 09 be 36 0e e6 3d 79 4f 57 be ca fb 4a be
       -0.13471541 0.11233179 -0.2102641 -0.19822612
000110 3c b5 09 be 4a b8 55 be 09 7f b2 3e 52 91 3e 3e
       -0.13448042 -0.20871082 0.34862545 0.18610123
000120 76 cd 99 3d 39 b5 c3 bd 48 1d 28 3d 66 af 82 3d
       0.07509892 -0.0955605 0.04104355 0.06381111
000130 a4 71 d9 bd 84 f6 64 be 62 bf cb 3c e1 53 1c 3e
       -0.10617378 -0.22359663 0.024871532 0.15266372
000140 67 88 77 be 82 ee 16 3e e3 36 d9 3d 04 96 a7 3c
       -0.24173127 0.14739421 0.10606172 0.020457275
000150 9c 3a 53 be d8 56 b1 bd ef e1 86 3e 0c 36 26 3e
       -0.20627826 -0.08659142 0.2634425 0.16231555
000160 64 a6 02 be 48 3b 14 3d 1b 8a 10 3e 29 34 da bd
       -0.12758785 0.036189348 0.14115183 -0.1065448
000170 5c 17 f6 bd c5 73 0f be 0a 63 80 3e 4b af 57 be
       -0.12016174 -0.14009006 0.2507556 -0.21062963
000180 e0 fd 91 3a a3 2e 91 bd fa 9e b2 3e b3 06 8b bd
       0.0011138283 -0.070889734 0.34886914 -0.06788387
000190 17 0a b3 3e fa 6a 7b be 41 21 26 be 42 0e 15 3d
       0.34968635 -0.24552527 -0.16223623 0.03639055
0001a0 d6 0a 8f be 16 2b 87 bd fb b1 5b 3e 5e 52 19 be
       -0.27937955 -0.06600015 0.21454613 -0.14972827
0001b0 64 bd 6b be 5a 29 1e be 3e 33 23 be 87 6c 92 be
       -0.23021466 -0.15445462 -0.15937516 -0.28598425
0001c0 93 88 01 be 6e 38 1d be f0 27 d2 3d 5a 54 65 be
       -0.12649755 -0.15353557 0.10261524 -0.22395459
0001d0 73 58 fa 3d 3e 65 77 bd d9 e5 86 bd 52 4d 47 be
       0.122239016 -0.060399286 -0.06586809 -0.19463089
0001e0 6b f4 dd 3d 0e ea 17 be b8 74 4d 3e f6 ce 95 be
       0.10837635 -0.14835379 0.20064056 -0.2925946
0001f0 25 77 4c be 6f 5d 67 be 72 dd 28 3d f8 a9 b2 3c
       -0.19967325 -0.22594236 0.04122681 0.021809563

2.weight f4 [128, 128]
000000 82 58 35 3d 51 31 05 bc 91 c7 ff bc 49 7f 6c bd
       0.04427386 -0.008129434 -0.03122309 -0.057738576
000010 af 31 6c 3d 0b 4d 68 bc 8c 55 2a bd 94 ac 08 3d
       0.05766457 -0.014178525 -0.04158549 0.03336771
000020 be 6b 0c 3c 8e f4 07 bd b8 e5 d3 3b 9b 1b 84 3d
       0.00857061 -0.03319221 0.0064665936 0.06450578
000030 5e 62 1a bb a6 d6 16 bd d0 40 9c 3d 67 0c 46 bd
       -0.0023557167 -0.0368258 0.076295495 -0.04835167
000040 1e e0 7a bd 03 ac 2a bd 06 7d a8 bd a9 c8 15 3d
       -0.06124889 -0.04166795 -0.08226971 0.036568318
000050 6d 20 ab 3d dc a0 9c bd f0 4d 3e 3d 3c 06 20 3c
       0.08355794 -0.07647869 0.046461046 0.009767111
000060 2c c5 2e bc 26 33 7d bd 72 9e 20 bd 95 35 33 bc
       -0.010667127 -0.061816357 -0.039213605 -0.010938068
000070 72 b7 c8 3c 03 16 5b 3d 04 67 85 bd 10 40 97 bc
       0.024501536 0.05348779 -0.06513789 -0.018463165
000080 c0 66 24 bc 6c b6 d2 3b 94 ed 7e bd f8 df 44 3d
       -0.010034263 0.006430438 -0.06223829 0.048065156
000090 aa 46 c4 3c 52 4a 52 bd 8f 74 4e bd b1 a5 e6 bb
       0.023959477 -0.05134041 -0.050404128 -0.007038795
0000a0 97 f4 a7 3c bb aa 7d bd 6c 9f a7 3c 06 5f 1e bd
       0.020502372 -0.0619304 0.02046176 -0.03866484
0000b0 01 96 da bb f5 49 88 3c d4 e5 3c 3d da 02 7e 3b
       -0.006670714 0.016636828 0.04611762 0.0038759024
0000c0 fc 4e 44 bd ac 95 a2 bd 67 d8 3d 3d ed 58 9f 3d
       -0.047926888 -0.07938704 0.046348955 0.07780633
0000d0 be d0 59 bd 2d f4 61 bd c6 ef 00 3c 74 b9 5b bc
       -0.053177588 -0.055164505 0.007869666 -0.013410915
0000e0 36 c9 9a 3d 13 dc b6 3d 07 81 fb 3c 42 67 bd 3d
       0.07557909 0.089286946 0.030701173 0.092482105
0000f0 2e 9e a6 3d 1a e8 08 bc 9b d8 82 3d 7f ef 9c bd
       0.08135639 -0.008356119 0.063889705 -0.07662868
000100 8c 3f ea bc 39 4b 9b 3d a3 63 61 bd 93 d0 5f bb
       -0.028594755 0.07582707 -0.05502666 -0.003415142
000110 28 5f 8b bd ce ee bf 3d ab 28 80 3d f6 05 50 bd
       -0.06805259 0.0937172 0.06257757 -0.050786935
000120 6a 4a ad 3d df 36 5d bd 1a 72 8e 3d ca a1 cd ba
       0.08461459 -0.054007407 0.06955357 -0.0015688476
000130 60 d0 be bb 31 a5 83 3d 1e ec a4 bd 2c 3b 3a bd
       -0.00582318 0.06427992 -0.08052848 -0.045466587
000140 77 18 04 bc df dd 8d bd fb 81 a5 3c ad d1 8f bd
       -0.0080624735 -0.06927084 0.020203581 -0.07022414
000150 dc 7c 78 bd 26 7d 06 3d a5 f9 39 3c e8 d1 a3 3d
       -0.06066595 0.032834195 0.011351024 0.07999021
000160 a7 33 93 bd 3e 72 9c 3d ee 08 71 3d fe cb f5 bb
       -0.07187586 0.076389775 0.058846407 -0.0075011244
000170 bc 44 47 3d 69 ef 8e bd 82 d4 67 bd 3b 88 73 bd
       0.048649535 -0.069792576 -0.056599148 -0.05945609
000180 71 85 97 bd a2 1b 8e bd e4 1b 22 3d 8c 03 b0 3d
       -0.07398499 -0.06938864 0.03957738 0.085944265
000190 a1 c3 21 3c 14 7a 0d bd cc fe 6c bd f2 46 c1 bc
       0.009873302 -0.03454025 -0.05786018 -0.0235934
0001a0 f2 49 51 3d 14 3d 2d bd d0 cf ec bc f0 e3 a1 bd
       0.05109591 -0.042294577 -0.028907686 -0.07904804
0001b0 16 51 b3 3c 4d a1 ad 3d 1d ad 39 3d cd 77 9b 3d
       0.02188925 0.08478031 0.04533111 0.075912096
0001c0 dd 70 60 3d 0d 61 8e 39 f3 a9 84 bd de 7d bb 3d
       0.054795135 0.0002715666 -0.06477728 0.09154867
0001d0 09 e4 96 bc 3d 82 d0 3d aa a9 65 bd 8b b5 d1 3b
       -0.018419283 0.10181091 -0.056070007 0.0063998154
0001e0 70 d5 ac 3c f7 2c 5f 3d c3 66 04 3c ce d7 a5 bd
       0.021097869 0.05448624 0.008081141 -0.08097802
0001f0 b7 08 14 3a 8f 60 bb 3d 13 ef 33 3c ae 31 65 3d
       0.00056470506 0.091492765 0.010982293 0.05595558
000200 91 98 0b bd 3e 3c 76 bd 5f 35 5c 3d 71 f7 35 3d
       -0.034081046 -0.060116045 0.053761836 0.04442543
000210 18 c7 99 bc 8a 79 ce bc c6 dd 10 bd 0f 71 b3 3c
       -0.018771693 -0.025204439 -0.03536775 0.021904496
000220 6e 23 81 3d a6 09 ae bd 3e 1e 1a 3b 5f d0 4a 3c
       0.06305586 -0.08497934 0.002351656 0.012378781
000230 6c a4 b7 bb 73 66 45 3d b7 c7 d2 3c 80 5f 90 3d
       -0.0056043174 0.048193406 0.025729997 0.07049465
000240 0f ef 2e bd c9 39 5f bc bb d2 50 bc 5f 7a 4c bd
       -0.042708453 -0.013624617 -0.012745555 -0.04992139
000250 50 62 21 bd 15 99 f7 bc db 6b d1 bc 15 37 30 bd
       -0.0394004 -0.030224362 -0.025564125 -0.04302128
000260 12 78 56 3c 75 52 aa bd 42 7e 9f 3d ac 23 f5 bc
       0.01309015 -0.08316509 0.07787754 -0.029924236
000270 97 6c 7a 3d b5 4f ee 3b b8 82 97 bd 9d fd b5 bd
       0.061138716 0.0072726854 -0.073979795 -0.088862635
000280 b0 19 81 bc 99 f8 4f 3d 64 5b 4d 3c 79 09 66 3d
       -0.015759319 0.05077419 0.012533996 0.056161378
000290 50 f1 64 bd 64 16 ac bd 48 85 b0 bd fe 60 bd 3c
       -0.055894196 -0.08402708 -0.086191714 0.023117539
0002a0 bf 30 3d 3d 82 9c 1e bd c9 81 ba 3c 44 56 90 bd
       0.046189066 -0.038723476 0.022766965 -0.07047704
0002b0 d1 e8 85 bc 1f 15 99 3d 9e 15 e8 bc 6f a1 99 3d
       -0.016346367 0.07474732 -0.02833062 0.07501494
0002c0 58 03 5d bd 97 9c 4b bd 60 d6 9f 3d 03 ab 8f 3d
       -0.053958267 -0.049709883 0.07804561 0.0701504
0002d0 57 a3 9d 3c d7 f4 bd bc e6 29 11 3d 9b ae dd 3c
       0.019242926 -0.023188038 0.035440348 0.027060797
0002e0 0f b9 23 bd 54 62 8b bd 4b f8 d6 bb 94 12 2f bd
       -0.039971408 -0.06805864 -0.0065603605 -0.042742327
0002f0 51 6c f0 bc 79 b0 5b 3c 23 6e 9a 3d 16 8b 8f 3d
       -0.029348524 0.013408774 0.07540538 0.070089504
000300 1f 98 8c 3d f2 6d 15 3d 09 b0 f5 3c 21 74 8d bc
       0.06864952 0.036481805 0.029991167 -0.017267289
000310 7c 59 fe 3b a4 1e f1 bb a1 61 8e bd 1b e0 b3 3d
       0.007762132 -0.007358389 -0.06952215 0.08782979
000320 ef 3f 7a 3d e3 5e 15 3c ce 26 3f 3d 9d 50 24 3d
       0.061096128 0.009116861 0.046667866 0.04011594
000330 02 be 82 3d 1d 7b 45 3d 6a e1 5c bc d3 b3 a7 bc
       0.06383897 0.048213113 -0.013481477 -0.020471489
000340 c1 ad 4e bd 6e ef f0 3b d1 4a 89 3d 92 ae a6 bd
       -0.050458673 0.007352761 0.06703723 -0.081387654
000350 9e 25 b4 3c 5b 2d 4a bd 53 6f a1 3d 20 19 a0 bd
       0.021990594 -0.04935966 0.078825615 -0.07817292
000360 50 9e 2a 3c 7c d8 58 3d 4e 2a ed bc 2d 81 1e 3c
       0.010413721 0.05294083 -0.028950837 0.009674353
000370 3f 30 f7 3c 26 ed ac bb 3b 95 e0 bc 03 f9 a8 3d
       0.030174373 -0.0052772937 -0.027414909 0.0825062
000380 7d 97 aa bd 09 6f 6a bd 3e a6 0a bd 36 72 f4 3b
       -0.08329675 -0.057234798 -0.033849947 0.007459904
000390 4b fa 66 bc f8 10 6f 3c 43 8d 71 bc 14 56 3b bd
       -0.01409776 0.014591448 -0.014743152 -0.045736387
0003a0 75 b1 2c 3c 3a 06 7e 3d 8b 3e 27 3d f1 39 ad 3c
       0.010540356 0.062017657 0.04083113 0.021145793
0003b0 ee f3 73 bd 24 d6 4b 3d 65 7f 51 bc 36 4f 66 3d
       -0.0595588 0.049764767 -0.012786721 0.056227885
0003c0 e8 e1 04 bd 52 18 8a bd d4 e9 77 3d 09 73 9a bc
       -0.032442003 -0.0674292 0.06052573 -0.018853681
0003d0 03 e2 1a bd d4 38 20 3d 33 90 28 ba d3 75 08 bd
       -0.037813198 0.039116696 -0.0006430179 -0.03331549
0003e0 0a 61 6b bc a9 6f 21 b9 25 97 76 3c 52 2d 81 3d
       -0.014366398 -0.00015395753 0.015050684 0.06307472
0003f0 8b 30 09 bd a4 c3 ec bc af 1d 6d ba 0a 4b 83 39
       -0.03349356 -0.028901882 -0.0009045256 0.00025042176

2.bias f4 [128]
000000 22 44 be 3d 1f 78 2c bd 00 ad d2 bc 48 eb ca bc
       0.09290339 -0.042106744 -0.025717258 -0.024770394
000010 69 9c 21 3d 27 75 ce bd 6d 50 4f bc f9 2a e6 bc
       0.039455805 -0.10080939 -0.012653452 -0.028096663
000020 7a f4 1c 3e 4f e5 1a be 7d 96 30 3c fc af f0 bd
       0.15327635 -0.15126537 0.010778067 -0.11752316
000030 15 f3 9a bd 6c 7a 8d 3d c1 15 ba bd 1e 1b 41 3e
       -0.075658955 0.06908116 -0.090861805 0.18858
000040 8d 7e 04 3e b4 62 59 3e 44 36 6e bd 59 e6 93 bc
       0.129389 0.21229059 -0.05815722 -0.018054174
000050 8b e3 29 3c 4a aa 06 be 6b 33 85 bd fe fb 70 bd
       0.010369192 -0.13150898 -0.06503948 -0.05883407
000060 0f 84 71 bd 54 a9 bf bc 39 cb 3a be ab 55 8e bc
       -0.05896383 -0.023396172 -0.18241586 -0.017374834
000070 d3 3c 76 3c c7 0a c7 3c b8 50 fe 3d 4e 14 da bd
       0.01502915 0.024297131 0.1241774 -0.10648404
000080 ab 37 2e 3e ba 52 ee 3d 14 f2 9c bd db ca e8 bd
       0.17013423 0.116368726 -0.0766336 -0.113668166
000090 5f 74 bd 3d bd 8f 74 3c 58 92 af be 08 a9 f3 bd
       0.09250712 0.014926848 -0.3429134 -0.118974745
0000a0 2a 14 bf bc e2 0b b0 bc 2e b7 84 bd b8 16 e3 bd
       -0.023325045 -0.021490041 -0.06480251 -0.11088318
0000b0 cb 04 e5 3d 03 af 07 3e d6 69 02 3e d9 14 76 bc
       0.11182555 0.13250355 0.12735686 -0.015019619
0000c0 53 dd 1f be 56 5e a9 bb 19 52 e8 3d 37 fa 14 3d
       -0.15611772 -0.0051687164 0.11343784 0.036371436
0000d0 7c 0f ef bc 12 dd 10 bd 02 1e 7b bd 0e af 1f 3c
       -0.029182188 -0.03536708 -0.061307915 0.009746326
0000e0 d1 1c e0 3d ee b1 83 bd 5a 58 ff bc 37 1f 75 3d
       0.10942996 -0.06430422 -0.031170059 0.059844222
0000f0 f8 9c 13 bd 68 e9 a4 3c 76 1b b2 3d 31 7a 9a 3d
       -0.03603837 0.020130828 0.08696644 0.075428374
000100 30 91 55 bd 71 d9 85 3d 32 b0 27 bd 0c dc fd bb
       -0.052140415 0.06535614 -0.040939517 -0.007747179
000110 f2 bc c1 bb cc 66 83 be 66 cc 19 be 6c b7 ba 3d
       -0.0059124166 -0.25664365 -0.15019378 0.09117016
000120 a3 17 e3 bd ad 6b c1 3d a9 c6 00 3d cf 3f a9 3d
       -0.11088493 0.09444366 0.031439457 0.08264124
000130 73 74 17 bd 10 80 95 be 05 10 6c 3b e6 d5 b9 bd
       -0.03697629 -0.29199266 0.003602029 -0.09074001
000140 3d 74 04 bd 88 38 72 3c af 6c 7e bd e0 57 2a bd
       -0.032337416 0.014783986 -0.062115368 -0.04158771
000150 a5 bf 5c be 87 75 92 3d fa 34 8a 3c 91 14 97 bd
       -0.21557482 0.07151323 0.016870964 -0.073769696
000160 e5 4e ef 3d a1 3d b8 bd d9 c8 99 bd 46 2e a5 3c
       0.1168497 -0.0899613 -0.07509012 0.020163666
000170 fa 05 a9 3b 17 22 49 3d 90 5a f6 bd 9c 80 b4 3c
       0.005158183 0.049104776 -0.12028992 0.022033982
000180 f0 5c 11 3d 6b f5 15 3d 52 6b e3 bc d1 c2 e6 3b
       0.035489023 0.036611002 -0.027761135 0.007042267
000190 c5 8d 00 3d c9 b6 0c 3d 1b 5e a1 bc 7b cb b5 bd
       0.031385202 0.034354005 -0.019698193 -0.088767014
0001a0 f0 83 37 bc 81 15 fe 3d 67 fd 61 bd af de 37 3d
       -0.01120089 0.12406445 -0.055173304 0.044890102
0001b0 1c aa fd 3c be bf 08 be 64 c8 12 bd 64 f5 37 bd
       0.030964904 -0.13354394 -0.03583564 -0.044911757
0001c0 fc aa 08 bd 1a 59 b7 bd 59 a3 85 bd 23 99 17 3d
       -0.03336619 -0.08952542 -0.06525297 0.037011277
0001d0 15 cc 07 bd 34 11 d9 3c e3 8c 52 3d 05 86 e9 3b
       -0.033153612 0.02649746 0.05140389 0.007126572
0001e0 0f 4f 75 3c 90 77 70 3d 79 66 85 3d 7d c0 50 bd
       0.014972462 0.058707774 0.06513686 -0.05096482
0001f0 c9 74 0b 3c 17 b1 ef 3c 45 34 27 bd dc 69 ca 3b
       0.0085117305 0.029259248 -0.040821332 0.00617717

4.weight f4 [128, 128]
000000 8c 26 44 3d 34 57 c8 3c a9 8a 18 bd aa 11 4f 3d
       0.047888324 0.024455644 -0.03724161 0.050553955
000010 66 af a7 3a f0 ed 4a bd 0a 29 dc 3b 07 3d 14 bc
       0.0012793362 -0.04954332 0.0067187594 -0.009047753
000020 97 35 d5 3c 28 49 5f 3c d5 db 8a 3d bd 03 de 3b
       0.02602653 0.013628282 0.06780211 0.006775348
000030 82 4f 01 3c 48 f7 e2 bb f1 ca 7c bd 1b c4 31 3d
       0.007892491 -0.006926451 -0.061716978 0.04339991
000040 0c bd 97 3d 6a 83 1c bd 7d f6 6c bd e0 0c 0c bd
       0.07409105 -0.038211264 -0.057852257 -0.034191966
000050 c7 a0 5a bb 1e 80 93 3d 2f 51 84 bc fa 28 a6 3d
       -0.003335999 0.07202171 -0.016151993 0.081132844
000060 87 4e 92 3d eb 1c 90 bd 5a a7 b2 bd 18 8a 14 bc
       0.07143884 -0.07036766 -0.08723326 -0.009066127
000070 a0 8a 3b bc dc 77 3c 3c b2 01 0e bc fa 8d 1f bd
       -0.011446625 0.011503186 -0.008667396 -0.03895376
000080 73 1f 7a 3c b8 a6 33 bd af 81 43 3d e3 e2 80 3d
       0.015266287 -0.043860167 0.047731098 0.06293275
000090 6f 91 94 bd fe 99 88 bd ca 7a 89 3d f5 fe a1 bc
       -0.07254302 -0.06669997 0.06712873 -0.019774893
0000a0 95 eb 12 3d 71 88 ad bd ab d3 58 bd 69 e9 8d bd
       0.0358692 -0.0847329 -0.052936237 -0.06929285
0000b0 4c 78 fc bc b7 ea 88 bd ea 63 02 bd 3a 26 cb 3b
       -0.03081908 -0.06685393 -0.031833567 0.0061996253
0000c0 89 90 0b bd ad ec 32 3d 7b 9b 0b bd 55 28 8b bd
       -0.034073386 0.043682743 -0.034083825 -0.06794802
0000d0 f3 d2 bc bc 5e 96 43 3d cd 30 8e bc 44 36 3c bd
       -0.023049807 0.047750823 -0.017357254 -0.04595019
0000e0 c6 6c 06 bd fd d4 8f 3d f7 0e 93 bd a0 27 48 bd
       -0.03281858 0.07023046 -0.07180589 -0.048865914
0000f0 81 d5 98 bd d7 44 99 3d d8 aa 44 bd 53 a9 a1 3d
       -0.07462598 0.07483833 -0.04801449 0.07893624
000100 00 64 a3 bc 5a f3 67 bd 3a b2 31 bd 72 0f 8d bd
       -0.019945145 -0.056628563 -0.04338286 -0.068877116
000110 10 c8 5b 3c d8 0b 09 bd 66 47 a1 3d cc c1 02 3c
       0.013414398 -0.03345856 0.07874946 0.007980775
000120 17 70 82 3c 1b e7 26 bd 98 a0 df bc 01 ac 44 bd
       0.01592259 -0.040747743 -0.027298257 -0.0480156
000130 9f bf d3 3c 8d 59 2e 3d ea 17 67 bd 92 2e 20 3d
       0.025848208 0.04256587 -0.05641929 0.039106913
000140 c3 af ad bd 14 61 54 3d ce 4b 3d 3d 9d 82 cb bc
       -0.084807895 0.051850393 0.04621487 -0.024842555
000150 80 32 8e 3c ff 7e 79 bd d0 0a 8a bc 59 1e bf 3c
       0.017358065 -0.06091213 -0.016850859 0.0233299
000160 d0 b5 30 3d b0 03 92 bd 78 bf 96 bd 3d a5 8d 3d
       0.04314214 -0.071296096 -0.073607385 0.06916282
000170 29 c4 fd 3c 5b 9f 9c 3d 3b c2 a0 bd 92 76 28 bd
       0.030977326 0.07647582 -0.078495465 -0.041128702
000180 95 45 19 bd 38 9c 81 bc 3d 9b 06 3c 18 a0 95 bc
       -0.037419874 -0.015821561 0.008215723 -0.018264815
000190 2d c0 40 3d a2 5d 5a bd 19 e7 99 3d f2 91 31 bd
       0.047058273 -0.05331195 0.075147815 -0.043352075
0001a0 8a 09 47 3d a2 a4 94 3d 7e 19 a0 bd 94 c5 c8 3c
       0.04859308 0.07257964 -0.07817362 0.024508275
0001b0 40 0b a7 3c 3c 2f a5 3d 99 ae 49 3d a5 e9 b1 bd
       0.020391107 0.0806565 0.049238775 -0.08687142
0001c0 c9 79 02 bd cb ea 8d bd b4 4c 3f bd eb 0d d9 bc
       -0.031854425 -0.06929549 -0.04670401 -0.026495894
0001d0 0c 8b 09 3d 5a ff ae bd 67 25 b0 3b 27 f3 a3 bd
       0.03357987 -0.08544798 0.0053755525 -0.08005362
0001e0 e7 4e 8b bc e3 3c ab bd aa 27 77 bd 24 3e 1e bd
       -0.017005397 -0.083612226 -0.06034056 -0.03863348
0001f0 47 bb 10 3d cc b4 49 bd f5 43 56 bd 68 c1 1e 3d
       0.03533485 -0.049244687 -0.052310903 0.038758665
000200 3b 31 2e bd 7f df fd 3c a7 89 bf 3d 8c a4 9f 3d
       -0.04252742 0.03099036 0.09352427 0.07795057
000210 dc b5 6b bc 68 fc 35 3d a9 eb c9 bc a5 63 87 3d
       -0.01438662 0.044430166 -0.024648504 0.066108026
000220 64 07 7d 3b d8 bc f2 3b 7c 83 b0 bd 09 13 a1 3d
       0.0038609141 0.007407766 -0.08618829 0.07864959
000230 99 a6 74 3d c3 6d 27 bc 8b 86 36 bd 80 67 e8 bc
       0.059729192 -0.01021904 -0.044561904 -0.028369665
000240 72 1f a1 bd af ba 58 bd 3e 44 27 3d b8 e5 60 bd
       -0.07867326 -0.05291241 0.040836565 -0.054906577
000250 a7 e3 21 3d ca 84 2a bd 87 69 2c bd b0 89 a5 bd
       0.039523747 -0.041630544 -0.042092826 -0.080829024
000260 2f ba 1b 3c 18 9c 02 bd b2 f5 2a bd d9 8c 1c bb
       0.009504839 -0.031887144 -0.04173822 -0.0023887663
000270 6b 3a 43 bd 6a e3 92 3c 21 04 7a 3d 44 7f 1e bd
       -0.047663134 0.017930705 0.061039094 -0.03869559
000280 6d fa f3 3c be 13 e9 bc e7 5c d2 3c dd 15 90 bd
       0.029782498 -0.028451797 0.025679065 -0.0703542
000290 f9 cc 5a bd 9b 91 1e bd c2 0e 15 3a 49 11 7e bc
       -0.053418133 -0.03871308 0.0005686098 -0.015507051
0002a0 14 5b d5 bc a8 2e 55 3d d1 55 79 bd 41 36 b3 3d
       -0.026044406 0.052046448 -0.060872857 0.087505825
0002b0 8c 3e a2 3c c7 1a 76 3b b7 4a 91 3d 43 33 80 3d
       0.019805215 0.0037552582 0.07094329 0.062597774
0002c0 34 4e b6 bc 00 11 f4 3c ef cf 10 bd 26 5a 46 3d
       -0.022254087 0.029793262 -0.03535455 0.048425816
0002d0 0d 14 6e 3d 65 f4 a0 3c e6 8d 98 3a b5 66 06 bd
       0.05812459 0.019647786 0.0011638969 -0.032812793
0002e0 5d 4c d1 bc de de 95 3d 39 6d b4 3c 3d 49 f2 3c
       -0.025549108 0.07317899 0.022024738 0.029575938
0002f0 6d 6e f6 bb b2 ca 2d bc 3d f7 86 3d 20 09 89 bd
       -0.007520488 -0.010607408 0.06590126 -0.066911936
000300 f2 f5 65 3c b1 ef 7f bc 97 51 eb bc c2 ed 99 bd
       0.014035689 -0.015621112 -0.028725429 -0.07516052
000310 8b 1b 60 3d c1 7c 96 bd 0d 7a 00 bd 0a cc 75 3c
       0.054713767 -0.07348014 -0.031366397 0.01500226
000320 77 2a 3c 3d 7b 6c b3 bd a9 5d 3e 3d bb 2b 02 bd
       0.045938935 -0.087609254 0.04647604 -0.031779986
000330 9c 34 e5 3c 56 88 9e bd 70 c2 9d bd c2 9a a4 3d
       0.027979188 -0.07740848 -0.07703102 0.0803733
000340 ce 1b 00 3d a9 42 96 3c c4 71 3c 3d 9d 67 a2 3d
       0.031276517 0.018342333 0.046006933 0.07929919
000350 b9 10 66 3d 80 1c df 3c 7e e1 91 bd 71 73 bd 3d
       0.05616829 0.02723527 -0.07123087 0.09250534
000360 08 f1 b2 bb 40 c9 8c bc d1 3a 98 3c 48 72 8a 3d
       -0.005460862 -0.017185807 0.018582733 0.06760079
000370 4d 22 5d bc 9c 07 33 bd 92 80 4b 3d 19 91 94 3d
       -0.0134969475 -0.04370843 0.04968316 0.07254238
000380 d7 0f d8 3c b9 98 50 3c 7f 6f 32 3b 3f 66 94 3c
       0.02637474 0.012731724 0.0027227101 0.018115161
000390 30 29 9c bd 22 76 37 bd a5 a6 1d 3d f4 1b b6 3c
       -0.076250434 -0.044790395 0.038489003 0.022230126
0003a0 56 91 14 3d 8e 2a 93 3b 56 e7 47 bd 4a 5f 16 bd
       0.036271416 0.004491157 -0.048804604 -0.03671197
0003b0 f9 f5 79 bc e0 fc 71 bd 33 e2 ab 3d 34 0d 45 bd
       -0.015256398 -0.05907905 0.083927535 -0.048108295
0003c0 6f be 03 3c 13 76 b4 3d 1a 58 95 bd 89 42 a3 bd
       0.008041008 0.08811583 -0.07292195 -0.07971675
0003d0 0f 29 1c 3d be 8a 66 3d a3 e5 21 bd 79 d8 27 3d
       0.038125094 0.05628466 -0.03952564 0.04097793
0003e0 33 f2 7b 3d c4 50 00 bd 15 99 93 3d 69 63 f4 3b
       0.061510276 -0.031327024 0.072069325 0.0074581397
0003f0 d2 92 81 bc 5b a1 00 3d c3 21 46 3d d4 fb ad 3d
       -0.01581708 0.03140388 0.04837204 0.08495298

4.bias f4 [128]
000000 f3 e5 09 bd b2 95 18 3d cc 3a c8 3d b2 f0 b2 bd
       -0.033666562 0.037252136 0.097768396 -0.08737315
000010 db 3a 8d bd 57 3c 1e bd 50 21 d3 bc 37 73 95 bd
       -0.068959914 -0.038631763 -0.02577272 -0.07297366
000020 5a 21 ca 3d 6b 25 ae 3d b2 f0 5f bd 42 11 a8 3c
       0.098696426 0.08503231 -0.054672904 0.020516042
000030 d5 ef 8c bc 9b 93 25 bb 83 1c 94 3d 7b dc 00 3d
       -0.017204205 -0.0025264982 0.07232001 0.031460267
000040 f4 41 02 be 95 54 1e 3d d7 97 e8 3d 2f 49 7a bd
       -0.12720472 0.038654882 0.11357086 -0.06110495
000050 dc 12 9d bc ac aa 4e 3c 0b 8d 19 3d 26 5a 98 bd
       -0.019174032 0.0126139335 0.037488025 -0.074390694
000060 cb 0b ed 3d 34 77 8d bd 85 e5 37 bd 6e fa a6 bd
       0.11574515 -0.06907502 -0.04489662 -0.081532344
000070 fe b7 a5 bd 00 ed 6c bd 21 65 9c bc 9c 5b ce 3d
       -0.08091734 -0.05784321 -0.01909119 0.10076067
000080 43 8c 8d bc 31 a0 ad bc ae 7d 83 bd 4b 1b 64 bd
       -0.017278796 -0.02119455 -0.06420456 -0.05569009
000090 c4 72 a5 3c 8f 4f 06 3d 8d 33 30 bd 6a 4b f1 bc
       0.020196326 0.032790717 -0.043017913 -0.029454906
0000a0 ea fa 4e 3c a6 90 0a bd f9 06 e9 3d 1c 81 1c 3e
       0.012633065 -0.033829354 0.11378283 0.15283626
0000b0 a9 89 59 3d 66 aa ac 3d 86 a6 56 bc 6e 95 1f bd
       0.0531098 0.084309384 -0.013101226 -0.038960867
0000c0 cc a9 a2 bc fc 35 81 3d fe fa b7 3c 39 d2 3d bd
       -0.019856356 0.06309125 0.02245855 -0.046343062
0000d0 87 97 e3 3b d6 9a 16 ba 03 82 1b bd 52 07 1c bd
       0.0069455537 -0.0005745118 -0.037965786 -0.03809292
0000e0 96 62 36 bc e9 a3 a9 bd 3f 91 28 bd e2 ac 17 3e
       -0.011131903 -0.082832165 -0.041154142 0.14812043
0000f0 bf 9c b1 3c 01 9c 32 bc 7b bb ec 3d a4 ef 3e 3d
       0.021681188 -0.010901452 0.115591966 0.046615258
000100 7e d1 b9 bd 18 fa 97 bd 82 db 43 3c b6 bb 3b bd
       -0.090731606 -0.074207485 0.01195419 -0.045833312
000110 02 fb 9f 3d c9 9a 32 3d 81 74 db 3d 43 b8 82 bd
       0.07811548 0.043604646 0.10715581 -0.063828014
000120 0b 35 2c 3d 53 06 2e 3e a3 d9 4c 3e f4 16 17 3e
       0.042042773 0.169946 0.20004897 0.1475485
000130 08 eb fc bc 21 c4 a2 bd d1 c5 6d 3d 86 29 62 bd
       -0.03087379 -0.07947565 0.05804998 -0.05521538
000140 bc 2c 2c 38 d1 fb 94 3d 9a 68 58 bd a2 4a 2d bd
       4.1049658e-05 0.07274593 -0.05283413 -0.042307504
000150 06 9d e0 3d d5 fd f5 3c 16 b2 df 3d d4 bc 27 bc
       0.1096745 0.030028263 0.10922639 -0.010237891
000160 e5 2a 8d bd dc 09 45 bc 41 87 0b 3e 0c 10 65 3d
       -0.06892947 -0.012026276 0.13625814 0.055923507
000170 f8 88 98 bd 7f 1e 87 bc 75 76 63 3d 38 97 a3 3d
       -0.07448 -0.016494034 0.05553289 0.07987827
000180 6a d3 d4 3d f3 6b b5 3d e7 0a 55 bd 84 9c bc 3b
       0.103918865 0.0885848 -0.05201235 0.005755963
000190 1e e9 be 3c c9 9d ca bc 8c e6 4b 3c b6 9d ca bc
       0.023304518 -0.024733441 0.012445103 -0.024733406
0001a0 43 1d f9 3d 99 b6 51 3c 5c 4c 14 bd 61 17 fd bc
       0.12163784 0.012799882 -0.036205634 -0.030894937
0001b0 b5 23 ef 3d 29 a7 2e 3c 53 be 3f bd 93 19 3a bd
       0.116767325 0.010659971 -0.046812367 -0.045434546
0001c0 0b 22 39 bd e6 86 a8 3c 5b 7e 45 3e 38 7e 30 bd
       -0.04519848 0.020572137 0.19286482 -0.04308912
0001d0 8a 36 98 bd 12 e0 57 bd 64 ab d1 bc 7c c1 a2 bb
       -0.074322775 -0.052703924 -0.02559442 -0.004966913
0001e0 b2 f6 57 3d 15 27 a9 3d 33 8b fc 3d 4b 27 b6 3b
       0.0527255 0.082594074 0.12331238 0.0055588833
0001f0 1b 49 0d 3d de 27 f5 3b b4 79 d2 3d e1 0d 32 3d
       0.034493547 0.007481559 0.10277119 0.043470267

6.weight f4 [128, 128]
000000 0a 57 f1 3b 0f 31 4f 3d 3a cc 96 bc b5 a0 2e bc
       0.007365112 0.050583895 -0.01840793 -0.010658433
000010 c8 8a 0f 3d ec 70 80 bd 94 91 80 3c 0c 1b 63 3d
       0.03504446 -0.06271538 0.015694417 0.055445716
000020 c4 90 8e 3d 29 f6 20 3d c6 8f 26 bd a4 c4 48 bd
       0.069612056 0.039297257 -0.040664457 -0.049015656
000030 d7 dc 8b 3d 58 23 b0 bd a5 78 bf 3d 0c 8e 0f bd
       0.06829231 -0.08600491 0.09349183 -0.035047576
000040 e1 7e 50 3d 84 40 27 bc da 88 9e 3d 52 3d 88 bd
       0.05090225 -0.010208253 0.07740946 -0.06652321
000050 a1 89 9f 3d 4b 76 8d 3d cb 36 a0 3b 5e bb b6 3d
       0.077899225 0.06907328 0.0048893443 0.08922456
000060 75 38 59 bd 62 91 54 bc c4 ce 9d 3a 75 c7 3d bc
       -0.053032357 -0.012974115 0.001203977 -0.011583199
000070 64 ae 91 bd 2a 0c 17 bb 85 07 19 3c 18 0f e7 3d
       -0.071133405 -0.0023048022 0.009340172 0.11282176
000080 ea 93 8a bc 25 01 63 3d 41 4e 84 bc 63 20 c0 bc
       -0.016916234 0.055421013 -0.016150596 -0.023452943
000090 a6 0b 9e 3d 54 32 c3 bd 32 40 07 3d 6a 1e 1b 3d
       0.077170655 -0.09531084 0.033020206 0.037870802
0000a0 94 c4 95 3d b0 63 32 bd 7c 4e c2 bc e9 03 7f bd
       0.07312885 -0.0435521 -0.023719065 -0.06225959
0000b0 9f d5 2a 3d f6 8d 90 3c 8f 15 2f 3d a5 c6 22 3d
       0.04170763 0.017645817 0.04274517 0.039740223
0000c0 5b e8 30 bc 8d 2b 62 bd 22 1d 47 bc cb 13 4a 3d
       -0.010797585 -0.055217315 -0.012152942 0.049335282
0000d0 44 87 39 3d 4b 77 80 3d 39 b3 88 3d 30 d7 b0 bd
       0.045295015 0.06272753 0.06674809 -0.08634794
0000e0 d6 e8 aa 3c 86 38 37 3d 80 4c 3b bd e7 63 b0 bd
       0.020862978 0.04473164 -0.045727253 -0.08612805
0000f0 5b f7 85 3c 8b 36 07 bd a3 b8 31 bd 39 8d 93 3d
       0.0163533 -0.033011 -0.043388974 0.072046705
000100 21 91 20 bd c9 8a 45 bd 70 63 d0 bd c1 91 9a 3d
       -0.039200906 -0.04822806 -0.10175216 0.075473316
000110 d0 74 60 3d 32 d0 05 3d ca dd fb 3c 8d 02 9a bd
       0.0547989 0.032669254 0.030745406 -0.07520018
000120 df e8 73 bd 42 24 6d 3d fb ca 39 bd 08 f5 8b bd
       -0.059548255 0.057895906 -0.045359593 -0.068338454
000130 d6 c5 f3 bc db 86 37 bd ea d0 d1 3c 0e d1 cc bc
       -0.029757421 -0.044806343 0.025612313 -0.025002029
000140 a6 05 6c bd fe 3f 65 3b ce 2c 71 bd 98 98 82 bd
       -0.057622574 0.003498077 -0.05888062 -0.06376761
000150 dc 5f 01 bd c2 09 10 bd 8d 6d 01 bd b9 ae b1 3d
       -0.03158556 -0.035165556 -0.031598616 0.08675904
000160 38 20 ea 3c 88 e8 35 bd d6 ed ee 3c 34 d2 9c bd
       0.028579816 -0.044411212 0.029166143 -0.076572806
000170 27 5d 87 bd 2a 79 38 3b be e9 d6 3d a0 bb b2 3d
       -0.06609564 0.0028148391 0.104938015 0.08727193
000180 59 96 96 bb 3f 40 2a bc 76 7a 00 bd 09 64 83 bc
       -0.0045955596 -0.010391294 -0.031366788 -0.016038911
000190 9e 94 00 bd ab a6 b8 bd 0c b0 52 bd e4 02 7c bc
       -0.031391732 -0.090161644 -0.051437423 -0.015381549
0001a0 38 db fe 3c 93 40 c6 3d d7 06 d8 3d c0 d6 b3 3d
       0.031110391 0.09680285 0.105481796 0.08781195
0001b0 33 be 8d 3d 0a 8a b1 3d ac eb 8c 3d 60 07 4d 3d
       0.06921043 0.08668907 0.06880888 0.05005586
0001c0 7b c9 07 3d 68 28 65 3d c6 fd c7 3a 2d f0 c1 bc
       0.03315113 0.055946738 0.0015258125 -0.023674095
0001d0 41 bd 11 3d e6 66 8d bd 6d 61 5c 3d 1c fc e9 3d
       0.035580877 -0.06904392 0.05380385 0.11425039
0001e0 e4 56 a6 3d 34 8d 8c bd bd d2 94 3d bf 21 be 3c
       0.08122042 -0.0686287 0.07266758 0.02320945
0001f0 ce 74 5f 3d a5 e1 01 3d a0 cd 8d 3d db 22 ab bd
       0.054554753 0.031709332 0.069239855 -0.083562575
000200 89 b0 b2 3d da 53 96 bd d2 b5 52 bd 81 4b 92 3c
       0.08725078 -0.07340212 -0.05144293 0.017858269
000210 f4 4f d9 bb c6 ae 7a bd bb f6 84 3d 7b fb 8a 3c
       -0.0066318456 -0.061201833 0.064923726 0.016965618
000220 15 5a ae bc 87 6f 15 3d 2c c6 96 bd 46 6f 97 bd
       -0.021283189 0.036483314 -0.07362017 -0.073942706
000230 84 69 85 3d 4c f0 62 3d e7 43 7b 3d ff d0 39 3d
       0.06514266 0.055404946 0.061344054 0.04536533
000240 97 54 59 bd b5 cc 95 3d 2e 19 05 3d 50 51 8f 3d
       -0.053059187 0.073144354 0.032494716 0.06997931
000250 41 5d 89 bd 70 c8 b9 bd 04 2c 75 bd 52 f1 31 bd
       -0.0670724 -0.090714335 -0.05985643 -0.04344303
000260 17 aa cf 3b a4 66 eb bb ce 98 c7 3d cb 9b 88 bc
       0.006337415 -0.0071838666 0.09745942 -0.01667585
000270 d9 a2 77 bc a3 b8 7e 3d 6e 81 dc 3d 7f 12 f9 3b
       -0.0151145095 0.062187802 0.10766874 0.007601082
000280 4b 44 ac 3d 16 6e 49 bd a6 ed ac 3d c9 8d ec 3c
       0.08411463 -0.04917725 0.08443765 0.028876202
000290 59 65 f1 3b f0 62 b0 3d 05 f2 8f 3d 30 cd 64 bd
       0.007366818 0.08612621 0.070285834 -0.055859745
0002a0 cf 6b 0a bd 4c 58 af bd 67 06 64 bc 7c 5a 97 39
       -0.03379422 -0.08561763 -0.013917542 0.0002886838
0002b0 00 c8 24 3d 3b f3 85 3c 73 6c 65 bd ae de b5 3d
       0.040229797 0.016351333 -0.05601163 0.088803634
0002c0 8a c8 df 39 85 13 3b bd e9 19 2e 3d 61 b0 51 3d
       0.00042683288 -0.045672912 0.04250518 0.0511936
0002d0 0a f0 07 3d d2 0f 19 bd 36 c0 25 bc 4c f5 8b 3d
       0.033187903 -0.037368603 -0.010116627 0.06833896
0002e0 aa b1 6a 3d 80 7d 23 bb df db a3 bc d5 34 9d 3d
       0.05729834 -0.002494663 -0.020002304 0.076760925
0002f0 3f b4 5b bc 60 3a 15 3d 87 0f 71 3d 5f a4 9d bd
       -0.013409673 0.036432624 0.0588527 -0.07697367
000300 97 b0 42 bd 71 44 82 bd 0b 49 83 3b 51 79 d7 bc
       -0.04753169 -0.063607104 0.00400651 -0.026302965
000310 8b 4e 46 bd 2d 9a bf 3d 76 85 d5 3d ca a4 8c bc
       -0.04841475 0.093555786 0.10425846 -0.017168421
000320 4b 54 94 3c eb 13 56 bb 3d c6 89 3b 0f c7 6c 3d
       0.0181066 -0.003266568 0.00420454 0.057807025
000330 2d 72 1b 3d 04 f9 b7 3d d9 e6 46 bd 84 fe a7 bd
       0.037950683 0.08983043 -0.048559997 -0.08202842
000340 21 53 7c bc da d1 9d 3c 40 c6 3a 3b 00 be b8 3d
       -0.015400679 0.019265104 0.0028499514 0.090206146
000350 66 f1 6f 3d ad 0d 1a 3d 5a 65 41 3b 67 30 fe bb
       0.058579825 0.0376107 0.0029509873 -0.007757235
000360 ab d5 2e bc 2f be 08 3c 94 65 8c bc 26 f3 17 3c
       -0.01067106 0.008346125 -0.01713828 0.00927428
000370 95 06 76 3d 8f de 42 3d 0c 11 43 3d 5a b7 2d 3d
       0.06006487 0.04757553 0.04762368 0.042411186
000380 67 a4 49 bc d3 4e 1c bd 79 57 52 3d d6 8f ab 3b
       -0.012307263 -0.03816111 0.05135295 0.0052356524
000390 de ab b7 3d 86 78 e7 bb e0 a8 cf 3d 26 ba 92 bd
       0.08968328 -0.007063928 0.10139632 -0.07164411
0003a0 fe 8f f0 3d eb 13 af bc 0b 29 3b 3c da e2 af bc
       0.11746214 -0.021371802 0.01142336 -0.021470476
0003b0 b5 fe 8b bc 5b 43 0e 3d ce 57 db 3d 7a bf 4d bc
       -0.017089227 0.034732204 0.10710107 -0.012557859
0003c0 d6 f0 1f bc 8e c6 2a bd d5 df 69 bc 0d dd f6 ba
       -0.00976201 -0.041693263 -0.014274557 -0.0018834189
0003d0 48 c3 c8 3d 59 dc a8 bd 1c 9d 8b bd af 93 c0 3c
       0.09802872 -0.08245153 -0.068170756 0.023507921
0003e0 50 18 db bc fc 35 25 3d 35 dd 27 3d 6e 89 69 bd
       -0.026744992 0.040334687 0.040982444 -0.05701583
0003f0 19 c1 a2 3c 4f df e6 3c a1 6d 77 3c d2 13 a9 bd
       0.019867467 0.028182654 0.015101821 -0.082557335

6.bias f4 [128]
000000 28 02 fe 3b 41 df 11 3e 6a 66 dc 3c cf ba a6 3d
       0.007751722 0.14245321 0.026904304 0.081411
000010 59 20 8a bd ab 3a b7 bc 20 04 59 3e 2c 4e 44 3d
       -0.06744451 -0.022366842 0.2119298 0.047926113
000020 75 2c 65 3e 2c 4f 46 3e 14 57 4f 3c a6 e3 e1 bd
       0.2238024 0.19366139 0.012655038 -0.110297486
000030 f3 8f af bd 11 7a 3d 3b b5 1e 4a 3c 3f 03 4a 3d
       -0.08572378 0.0028911869 0.012336423 0.049319502
000040 e5 41 bc bd 4d 2e 5f bc 52 83 9d bd d1 6a 83 3c
       -0.09192256 -0.013621879 -0.07691063 0.016042145
000050 dd b5 70 3d 28 b8 22 3e 30 9f 3d bd 9d 0f 9c bd
       0.05876719 0.15890563 -0.04629439 -0.076201655
000060 0e 40 0b bb 1e b4 10 3d 6f ca f6 3c 90 e8 23 bd
       -0.0021247896 0.035328023 0.030125825 -0.04001671
000070 9e 34 fe 3c 54 6b 74 bd e0 06 89 3d ef 01 22 bd
       0.03103095 -0.05967267 0.066907644 -0.039552625
000080 d7 1d 29 3e ab ec e4 bc 9b 86 24 3c 59 f9 81 bd
       0.16515289 -0.027944883 0.010041858 -0.063463874
000090 d9 b3 e9 bd 80 d5 58 3d 43 12 af 3c be bd 06 3e
       -0.11411256 0.052937984 0.021371013 0.13158318
0000a0 99 89 79 bd e7 83 6d 3e 9a 6d 05 3e 16 13 df 3a
       -0.06092224 0.23194848 0.13030091 0.0017019238
0000b0 5f 57 af bd 69 b8 2e 3d f4 85 81 3d db 93 d0 bd
       -0.085615866 0.042656336 0.06324378 -0.10184451
0000c0 8e ce f4 bc 22 73 68 bc ac 5f 8f bd 06 ba c0 bd
       -0.02988365 -0.014187606 -0.0700067 -0.09410481
0000d0 6c dd 57 3d 8a 49 69 bc 0a 26 92 3d 97 c8 05 3e
       0.0527014 -0.0142387245 0.071361616 0.130648
0000e0 bb ae 63 bd 61 b7 66 ba a6 01 55 3e 90 fb 4c bd
       -0.055586558 -0.00088011293 0.2080141 -0.050044596
0000f0 cd 8e 23 3d 0b bc 37 bd e8 f2 a1 3b 85 84 89 3e
       0.039931107 -0.044857066 0.0049422868 0.26858917
000100 47 a4 73 3a a1 6a c7 bc 00 25 2b bd c4 bf fa 3c
       0.00092941936 -0.024342837 -0.041783333 0.03060902
000110 fa 9a ad bd ee 16 49 bd bc 68 04 bd c0 91 08 3d
       -0.08476825 -0.049094133 -0.032326445 0.033342123
000120 f6 0f 28 3d 21 51 a9 bd 33 65 02 3c f9 49 32 3e
       0.041030847 -0.08267427 0.007958698 0.17411031
000130 f2 02 45 3c b8 7e b2 bd 5b 62 0d bd a5 30 01 bd
       0.012024628 -0.08715576 -0.034517627 -0.03154053
000140 c7 94 45 3b 2c ed b6 bb da a1 b4 bd 5d 9e 1c bd
       0.0030148493 -0.0055824723 -0.08819933 -0.038236964
000150 f9 11 5c bd 2a 62 f8 bc 79 a4 5f 3c 48 3d fc 3b
       -0.053728078 -0.030320246 0.013650053 0.007697735
000160 4a 86 55 bb 04 e9 bc ba 9e c5 59 bd de 10 9a 3d
       -0.0032581263 -0.0014412706 -0.053166978 0.075227484
000170 4b 0a eb bd a1 73 98 bd 70 f0 41 bd e5 1f b1 bd
       -0.114765726 -0.074439295 -0.04734844 -0.086486615
000180 c7 09 20 bc 13 e8 05 3d 7b 5d a0 3c 59 bb 02 3e
       -0.009767956 0.032692026 0.019575825 0.1276678
000190 a5 8d fc bc 4f 06 0e 3e ee c9 99 bd 43 b1 9b 3e
       -0.03082926 0.13869594 -0.07509218 0.30408677
0001a0 12 b6 8c bd 3e e6 b8 bd c2 6b 32 bd b0 ec 0a bd
       -0.06870665 -0.0902829 -0.043559797 -0.03391713
0001b0 9a e7 a5 3b dd f7 33 bd 8b e1 dd 3d 7f 96 55 bd
       0.0050630094 -0.043937553 0.108340345 -0.052145477
0001c0 83 93 06 bc 0f bc 70 3d 6e c7 90 bd 4c a1 08 3d
       -0.0082138805 0.058773097 -0.07069288 0.03335695
0001d0 88 4e 0c 3d d6 c2 80 bd 20 aa 6a 3d 8b 26 67 bc
       0.03425458 -0.06287162 0.05729115 -0.01410831
0001e0 c1 c0 01 be 2e 8a 44 bd 1b 07 1f 3e b6 40 a7 bc
       -0.12671186 -0.04798334 0.15530054 -0.020416599
0001f0 2f 21 2c 3d 9a a0 85 3e 84 28 06 3e d6 fb 6d 3c
       0.042023834 0.26099092 0.13101393 0.014525374

8.weight f4 [49, 128]
000000 dc 61 95 3d be 9c a7 bd 7c a5 b1 bc c2 79 28 3d
       0.07294056 -0.08184193 -0.021685354 0.041131742
000010 8b b2 0c be 45 d2 ab 3d 52 9f 45 be 81 56 c2 3d
       -0.13739984 0.08389715 -0.19299057 0.094891556
000020 e4 8c 23 be b0 7a 23 be 56 74 de bd 29 7c 8d 3c
       -0.15971714 -0.1596477 -0.10862033 0.017271118
000030 1b 36 68 bb b5 fd 84 3b e0 49 02 3d 7f 46 8d 3b
       -0.003543264 0.0040585645 0.031808734 0.0043113823
000040 e8 97 08 3d c2 f1 60 3d 97 bd 5e 3c 14 f2 79 3d
       0.033347994 0.05491806 0.013595006 0.06102188
000050 3b cd 82 3d 12 d1 6c bd 86 da a2 bd b9 8d bb 3d
       0.06386801 -0.057816572 -0.07951836 0.09157891
000060 93 6e 2b bd 32 7e 05 3d f5 ba 8f 3d 6e d5 96 bc
       -0.0418535 0.032591052 0.07018081 -0.018412318
000070 35 a9 6e bd 66 12 0d 3c ea 00 ae 3d 97 56 83 3d
       -0.058266837 0.008610344 0.08496268 0.06413
000080 14 2f ca bd 69 fe ac 3d ff 5e 9d 3c ad 2b 9c 3d
       -0.09872261 0.084469624 0.019210337 0.07625518
000090 8c de a3 bd 68 79 61 bc 26 ea 1c 3d cf eb 4c be
       -0.08001432 -0.013761856 0.03830924 -0.20011829
0000a0 ff 82 a9 3b db 8f 75 be e3 14 11 bd c0 0d c8 bc
       0.0051730867 -0.23980658 -0.03542031 -0.024420619
0000b0 e6 d9 34 3d 7c 95 82 3d 1e 1f ac 3a 00 1a 32 bc
       0.044153117 0.06376168 0.0013131832 -0.010870457
0000c0 e2 65 9b 3b f1 c7 f2 3c af f0 d2 bc 76 a7 00 bd
       0.00474237 0.029636355 -0.025749533 -0.031409703
0000d0 fb d9 7c bd 8f ec 60 3d 2d 77 22 bd 12 2e 9f bd
       -0.06173132 0.0549131 -0.039664436 -0.07772459
0000e0 f8 c4 87 3d c5 d4 85 3d 2c d8 f1 bc 71 60 bf bd
       0.06629366 0.06534723 -0.029522024 -0.093445666
0000f0 4a 52 94 bc d7 21 9f bd 7d a9 2b bd 8b cc 29 be
       -0.018105645 -0.07770126 -0.041909683 -0.16581933
000100 53 8b 96 bd d3 9d a9 3d 10 8d 87 3b cf 58 96 38
       -0.07350793 0.08282056 0.004136689 7.169099e-05
000110 86 f1 fc bc 9e 89 61 3d e8 51 ef 3d 25 57 b1 3d
       -0.030876886 0.055062883 0.11685544 0.086591996
000120 99 da 6d bc 7d 59 e9 3c fe c7 a9 3d 9c 27 d7 bd
       -0.01451745 0.028485054 0.082900986 -0.10505602
000130 0f 7f 67 bd 36 3c 18 bb a0 dc 9f bc eb bd 09 3d
       -0.056517657 -0.0023229248 -0.019514382 0.033628386
000140 d2 99 09 bd b7 fd b7 3d e7 28 37 bd 4f c2 ac bd
       -0.03359396 0.08983939 -0.044716742 -0.08435499
000150 cb 3c 11 bd ed 7c 92 3d 08 ba 36 3d 39 b5 9e bd
       -0.035458367 0.07152734 0.044611007 -0.07749409
000160 dd a8 3f 3d 7c 37 5e 3d c6 3b 7e 3c 02 40 7a bd
       0.0467919 0.054252133 0.015517181 -0.0610962
000170 36 cb 6e bd 84 71 fa ba 0d f5 0e be ec 8e 05 3d
       -0.058299266 -0.0019107317 -0.13960667 0.032607004
000180 8e a8 a7 3d ca 1e 14 3d 64 a5 14 3d 60 b9 ef bd
       0.08186446 0.036162175 0.03629054 -0.11705279
000190 69 a0 f4 bc df c4 2d be f2 1a 0b bd 1c 32 6c be
       -0.029861646 -0.16969632 -0.033961244 -0.2306599
0001a0 ec 75 d6 3d 22 47 2a 3e ba e1 6b bd b2 8d 43 3d
       0.104717106 0.16628698 -0.057588317 0.047742553
0001b0 63 e3 88 3b f1 59 55 bd a6 b5 db 3c f5 fb 7c 3d
       0.0041774972 -0.052087728 0.026820015 0.061763722
0001c0 50 4d ef bc a9 f1 13 3d 8c 99 20 3d c8 33 92 3d
       -0.02921167 0.036119137 0.039208934 0.07138783
0001d0 f0 96 11 bd 63 95 0a 3d ae 66 e5 bd a6 39 a5 3d
       -0.035544336 0.033833873 -0.11201225 0.08067636
0001e0 1c 8d 96 bd db 29 48 bd 32 38 7f be 56 4e 1a 3c
       -0.07351133 -0.04886804 -0.2492378 0.009418091
0001f0 36 ad 0b bd 81 33 02 be 8d 2b 31 bd 0a 5e 90 3d
       -0.034100734 -0.1271496 -0.043254424 0.070491865
000200 f6 21 2a 3d 07 3d cb bd 39 0c b7 3c 9b e9 06 bc
       0.041536294 -0.099237494 0.022344695 -0.008234407
000210 85 3b 81 bc 48 10 13 3d b8 4d 38 bd d5 8c a3 3d
       -0.015775451 0.0359042 -0.044995993 0.07985846
000220 67 18 32 be 66 75 c0 bc 60 29 1f be eb 72 fa bc
       -0.17392121 -0.02349348 -0.15543127 -0.030572375
000230 c8 19 4a 3d aa 42 d6 3c 46 a6 94 3d 54 c7 0d 3c
       0.049340993 0.026154835 0.07258277 0.008653481
000240 37 5d b2 3d 98 84 c1 3c 66 90 2a 3d 25 6a c4 bc
       0.087091856 0.023622796 0.041641615 -0.023976395
000250 ea e8 14 3d 59 41 14 be 7e 4e 1d 3b 61 03 fa 3d
       0.036354937 -0.14478053 0.0024003084 0.12207676
000260 96 0f 31 bc 59 bf 3b 3c 34 a3 04 3d 98 dd 86 bd
       -0.010806939 0.011459195 0.032382205 -0.065852344
000270 d4 bc 4d 3c 2c a7 55 3b 96 74 39 bd b4 00 bf bc
       0.012557227 0.0032600863 -0.0452772 -0.023315765
000280 95 c8 d3 bd f4 4e e8 bb 16 a2 ff 3d c1 4a 46 3d
       -0.10340992 -0.00708949 0.12482087 0.048411135
000290 e7 de 1d 3d 5a e1 35 bd 9c bd b6 3c de 07 ec bd
       0.038542654 -0.044404365 0.02230721 -0.11524938
0002a0 fa 41 3e 3d 5d 72 89 be 49 a4 0a be 8e 7d 89 3d
       0.04644964 -0.26845065 -0.13539232 0.06713401
0002b0 fe 1d 3b 3d d3 29 36 bd 44 64 9f 3d ea 64 89 3d
       0.0456829 -0.04447348 0.07782796 0.06708701
0002c0 3f 6a 0d bd 61 9d 02 3d b6 33 82 bc 6f 19 50 3c
       -0.034525152 0.03188837 -0.015893798 0.012701376
0002d0 33 40 1a be 1a d5 76 bd 98 8c 22 bd 97 8e 33 bd
       -0.15063553 -0.060261823 -0.039684862 -0.043837156
0002e0 a3 26 86 bd cb 6f 3c 3c 8f e5 27 be 17 55 21 be
       -0.06550338 0.011501263 -0.16396163 -0.15755115
0002f0 6c 98 66 3d 37 2e 41 3b d3 48 59 bd c8 af d0 bd
       0.056297705 0.002947701 -0.053047966 -0.101897776
000300 ea 20 13 bd 5e 26 90 bd a1 af 81 3d f6 79 30 3c
       -0.03592006 -0.07038568 0.06332327 0.010771265
000310 6a 56 52 bd 72 31 36 3d 9f 35 14 3c 19 4f d5 3d
       -0.051351942 0.04448075 0.009045987 0.10415477
000320 ed ef 9d bd dc 54 93 bc d3 e8 9c 3c c1 e0 45 bd
       -0.07711778 -0.0179848 0.019153988 -0.048310045
000330 12 48 99 3d 98 dc b6 bd 0d b6 8a bd 5e aa 07 3b
       0.074844494 -0.08928794 -0.06773005 0.0020700912
000340 1a b6 0a 3d 24 9a 99 bd 3e 1e 91 3b be fc 9d bc
       0.03386507 -0.07500103 0.004428654 -0.019285556
000350 b7 31 9a 3d ec 9e af 3c 76 e9 83 3d 29 f8 04 be
       0.075290136 0.021438085 0.064410135 -0.1298529
000360 21 60 a9 3d e4 90 97 3d 36 b5 f2 bc 43 9f e0 bd
       0.08270288 0.074006826 -0.029627424 -0.10967877
000370 05 0e 99 bd 84 58 62 bd 06 03 20 be dd b3 c8 3c
       -0.07473377 -0.055260196 -0.15626153 0.024499828
000380 3d 3c 1c bd 9e 97 89 3c 21 52 d2 bc 00 9c 88 bd
       -0.038143385 0.01679593 -0.025673928 -0.0667038
000390 df 65 90 3c 73 9e 87 be 7b 3e 48 3d 5d c6 32 be
       0.0176267 -0.26488075 0.04888771 -0.17458482
0003a0 86 ec d2 3d e2 df b7 3d 79 0e 3b 3d e9 d2 ae bd
       0.102990195 0.08978249 0.0456681 -0.08536322
0003b0 01 29 9f 3d fe ae 32 3d 4e 1c 98 bd 79 d4 b9 3d
       0.07771493 0.043623917 -0.07427274 0.09073729
0003c0 6b 50 6d bc 06 c0 8e bc 21 b9 5f bc 33 fa 76 3b
       -0.014484505 -0.017425548 -0.013654978 0.0037685751
0003d0 f5 94 ff bd fe 36 2f bc e7 93 d4 bc 7d fc 7b bd
       -0.12479583 -0.0106942635 -0.025949432 -0.06152009
0003e0 f6 de 1c bd 84 b8 6b 3d 26 a2 5c be 93 df 92 3b
       -0.03829857 0.057549015 -0.2154623 0.0044822185
0003f0 6b 27 8a 3c 86 10 39 be e5 3f 81 bd 15 67 81 3c
       0.0168645 -0.1807271 -0.06311015 0.015796224
