models/snapsRandom/model_1685820256.1967278.pt (torch, 252691 bytes, 10 tensors)

0.weight f4 [128, 49]
000000 31 1d 83 bd d9 0d c4 3d b1 67 b4 3d c6 98 54 be
       -0.06402052 0.09572954 0.0880884 -0.20761403
000010 eb b6 03 3d 03 42 74 bd b8 a1 95 36 9a 14 07 3e
       0.032156866 -0.059633266 4.4593726e-06 0.13191453
000020 e6 9c c2 bc 28 03 1b be 9b 2d ad 3d 37 9f 14 3e
       -0.023756456 -0.15137923 0.08455964 0.1451386
000030 36 49 4b bd 1a 51 bd 3d 6a 46 50 3c 77 2c 9e bd
       -0.049630366 0.092439845 0.0127121005 -0.07723325
000040 44 56 c5 3c db 0f 9f bc fb 34 cb bb 89 4c 42 3d
       0.024088986 -0.01941674 -0.006201384 0.04743627
000050 be 6a a6 bd fa 14 1d bd f6 3e 13 3e 6a b1 5e 3b
       -0.08125828 -0.038350083 0.14379486 0.0033980259
000060 23 cb 1b 3d 5c a2 b3 bd 37 93 61 be 00 7f 82 bc
       0.038035523 -0.08771202 -0.22028814 -0.015929699
000070 78 02 01 3e 93 14 25 be 8e 84 21 3d 46 82 15 bd
       0.12598598 -0.1612113 0.039433055 -0.03650119
000080 40 d3 47 3c ff da 12 bc db 92 58 bd 1e 30 85 3e
       0.012196362 -0.008963346 -0.052874427 0.26013273
000090 3f 36 81 3c 6b d2 bb bd 3f 41 58 be a6 06 e8 bc
       0.015772937 -0.091709934 -0.2111864 -0.028323483
0000a0 f2 64 32 3d 2f 68 0e 3e f5 23 6b 3c 31 55 2c bd
       0.0435533 0.1390693 0.014351835 -0.042073432
0000b0 a4 dd df bd f1 c6 fa 3d 65 c0 e3 3d 2e aa c7 bc
       -0.109309465 0.12244976 0.11120681 -0.02437314
0000c0 f1 fe 35 bd 52 7c ea ba 03 4f d0 bd 1c eb f3 bd
       -0.044432584 -0.0017889834 -0.1017132 -0.11910078
0000d0 39 af 20 bd e5 28 83 3d df ac 49 3d 1d 81 2f 3e
       -0.039229605 0.064042844 0.04923713 0.17139097
0000e0 76 f2 6d 3b 86 ac bf bd bc cd f3 3a 15 14 39 3e
       0.0036307848 -0.09359078 0.0018600742 0.18074067
0000f0 68 7a ea 3d 91 c9 88 3d 4a dc ca 3d a7 8a 48 be
       0.114491284 0.06679071 0.09905298 -0.19584142
000100 a2 38 e1 bd ea bd 27 bb 6a 2e c9 bc 7b 60 d4 bd
       -0.1099713 -0.0025595375 -0.024558265 -0.10369965
000110 61 0a 81 3e b4 aa b9 3d 94 0d cc bd 69 fb 14 bd
       0.2520323 0.09065762 -0.09963527 -0.036372576
000120 10 b8 33 3e d2 7a cb bd 52 b9 dc bd 14 09 af 3a
       0.17550683 -0.099355355 -0.107775345 0.0013354146
000130 49 78 b0 bc 62 3a e8 bd 9c 0b ff 3d 3b bd 23 3e
       -0.021541731 -0.11339261 0.12453386 0.15990154
000140 e1 59 1b be 77 70 0c be a3 43 97 bd 3a e6 d9 3d
       -0.15171005 -0.13714777 -0.073859476 0.10639615
000150 84 fe e6 bd 4b fb 58 3d 45 4f 6a 3d 24 d6 06 be
       -0.11279014 0.052974027 0.057204504 -0.13167626
000160 5c 38 ca 3d 63 e4 30 3e 1e 3b b4 3c 45 c1 47 3d
       0.09874031 0.17274623 0.022000846 0.0487683
000170 68 c6 d0 bc 41 a4 2b be 72 96 3c 3d 21 ef df 3d
       -0.025485232 -0.16761877 0.046041913 0.10934282
000180 07 74 02 3d e0 80 d5 bd bb bd bc 3c 88 0f 25 be
       0.031848934 -0.104249716 0.02303969 -0.16119206
000190 e9 f5 15 3d a1 68 7f be 18 c4 c3 3c 9f 2a 2f be
       0.03661147 -0.24942257 0.023897216 -0.17106102
0001a0 a9 47 d0 bc 2b 92 c6 3d fe 5d 9c 3d 6b 9e f9 bc
       -0.025424795 0.09695848 0.07635115 -0.030471047
0001b0 6c e0 51 bd d1 32 3a 3e a6 22 10 be 61 e2 23 3e
       -0.051239416 0.18183447 -0.14075717 0.16004325
0001c0 5a 36 b3 bd e9 98 1c 3c f2 fb 14 3e 43 67 23 be
       -0.08750601 0.009557941 0.14549235 -0.1595736
0001d0 d3 83 0e be d8 bb 30 3d a3 01 2a bd 29 10 ce 3d
       -0.13917474 0.04314789 -0.041505467 0.10061676
0001e0 ee e9 8b bd f8 fe f5 bd f6 9e 7b bd f9 58 2d 3d
       -0.06831728 -0.12011522 -0.061430894 0.04232118
0001f0 d0 30 0f be ba 0d 4f 3d 57 f3 f8 bd fd e5 89 3d
       -0.13983464 0.0505502 -0.121557884 0.0673332
000200 a8 c4 f8 3c 05 73 d7 bc 84 9f 9d 3d b2 ec 06 be
       0.03036721 -0.026299963 0.07696441 -0.1317623
000210 b4 03 b8 3c 96 24 2b be fa bf a5 bc 5b 0c 79 bd
       0.022462703 -0.16713175 -0.020233143 -0.0608028
000220 9a 4c 93 bd a5 8d 4d bd 44 1b a7 bd c8 08 2b 3e
       -0.07192345 -0.05018391 -0.081594974 0.16702569
000230 79 19 1e bd b3 b4 e6 bc 3b 67 81 bd ae 93 8b 3d
       -0.03859851 -0.028162336 -0.06318518 0.06815277
000240 30 10 0e bd c4 6a 5c bd 2e ac 98 3d 19 ad 33 3d
       -0.034683406 -0.053812757 0.07454716 0.04386625
000250 97 3f b1 3d 45 5c 57 bc c0 80 7c 3d 32 c4 48 3e
       0.08654707 -0.013144557 0.061646223 0.19606093
000260 bd b9 18 3c 05 ff f5 3d 37 64 ef 3d bb 81 c1 3d
       0.009321627 0.12011532 0.11689036 0.09448572
000270 65 9f 10 3e e9 2f 67 3c 96 42 82 bd d3 53 9a 3c
       0.14123304 0.014110544 -0.063603565 0.018838799
000280 fa 3a b6 bd 27 5e ea 3d 4e 4e fc 3d 8c 7f a1 3d
       -0.08897968 0.114437394 0.12319623 0.07885656
000290 22 7e ea 3d b5 08 8b bd 6a fd 1c be a1 f5 dd 3d
       0.11449839 -0.0678877 -0.15331045 0.108378656
0002a0 d9 5c 46 3d 4f 32 3b 3d 8f ff f9 3c 4d 3a 4b 3c
       0.04842839 0.045702275 0.030517368 0.012404037
0002b0 49 be 03 be fb ab 6a be 33 82 9d 3d 3f a6 48 bd
       -0.12865557 -0.22917168 0.07690849 -0.04898667
0002c0 1a e3 92 bd 61 6b b2 bd ac b9 99 3d d6 85 73 bd
       -0.071722224 -0.08711887 0.07506117 -0.059453808
0002d0 01 6f ef bc 9f 1a aa 3e 8e ab 04 3d 22 ea 4c 3e
       -0.029227735 0.33223435 0.03239017 0.2001119
0002e0 23 da 67 3d 89 4d ca bd 2d c0 96 bd c0 28 bf 3d
       0.056604516 -0.0987807 -0.07360873 0.09333944
0002f0 05 41 71 bd 9c fe 06 be f4 25 a4 3c d0 e5 d1 bd
       -0.058899898 -0.13183063 0.020037629 -0.102489114
000300 40 88 1e bd ce 40 a1 bd 37 74 31 3c 4a a6 98 3d
       -0.038704157 -0.07873689 0.01083093 0.07453592
000310 63 c1 3f 3c 77 4e 8c bd 28 40 58 3d db e3 1f bc
       0.011703822 -0.068509035 0.05279556 -0.009758915
000320 7f 8c 34 be e1 2f 93 3c 54 41 66 3e 7d c5 71 3c
       -0.1763172 0.017967166 0.22485858 0.0147565575
000330 f4 75 5e 3c eb 34 38 bc 11 ed 24 3d eb 7a 00 be
       0.013577927 -0.011243085 0.040265147 -0.1254689
000340 27 87 93 bd bd 6a dc bd aa fa da bd 55 30 47 3c
       -0.07203513 -0.10762546 -0.106923416 0.012157519
000350 02 55 97 3d 1f b1 3c 3d b5 a9 43 be 98 d1 36 3d
       0.07389261 0.046067353 -0.19107707 0.044633478
000360 ff 32 8c bd 94 de ae 3c 9e 9c 0a bd b4 7a 4c bc
       -0.06845664 0.021346368 -0.033840768 -0.012480427
000370 ac b1 c1 bd ed f7 8b 3d a8 87 18 be 7b 7d 08 be
       -0.09457716 0.068343975 -0.14895499 -0.13329117
000380 4f 65 b0 bc 8f af 58 bd 6b 8e 9c 3e d7 3e c3 3a
       -0.021532683 -0.0529018 0.30577406 0.0014896047
000390 a6 27 4c 3b e1 a8 a6 3d ff 4f cc 3c 59 2b b0 bc
       0.0031151562 0.0813768 0.024940489 -0.021505045
0003a0 b0 2e db 3d 58 ff db 3d 86 72 10 be 12 09 07 bd
       0.10702264 0.10742062 -0.14106187 -0.032967634
0003b0 6a 97 88 be 03 39 6e bd 51 8c a3 be 17 f2 9d 3d
       -0.2667802 -0.05815984 -0.3194299 0.077121906
0003c0 02 fd 5a bc 8c ba b0 ba 16 fa ec 3c 17 12 bc 3d
       -0.013365986 -0.001348333 0.028927844 0.09183138
0003d0 af 6e 04 bd cd 88 a1 bb f6 4c ec 3d 10 ef 96 39
       -0.03233212 -0.004929638 0.11538117 0.00028788345
0003e0 ba 64 c3 3d 67 26 17 3e 2c 15 40 bd 16 57 4d 3d
       0.095406964 0.14760743 -0.04689519 0.05013188
0003f0 8f 1b d3 bd 35 16 57 3e 12 96 bf 3d e8 1f b6 bc
       -0.10307991 0.21004565 0.093547955 -0.022232011

0.bias f4 [128]
000000 6f 68 0e 3e ec 60 20 3e b3 ad 2c bd 30 32 44 be
       0.13907026 0.15661973 -0.04215784 -0.1915977
000010 f4 c1 25 3e 14 83 19 3e e3 d7 1e be 69 4c 01 3f
       0.16187268 0.14991409 -0.15512042 0.5050722
000020 99 ec cd 3e f0 7b 69 be 29 aa 8c 3e 03 66 7d 3e
       0.40219572 -0.22801185 0.27473572 0.24745946
000030 db 7e ce bd ae 9d c9 bd ef 2c 7d 3e 36 7e d1 3c
       -0.100827895 -0.09844528 0.24724172 0.025572877
000040 d4 16 c6 bd d7 70 69 be 3b fa 11 bd 0b 93 6f 3e
       -0.09672323 -0.22796951 -0.03563903 0.23395936
000050 6f aa 1f bd 75 c4 44 be ac 42 63 be 9f 2c 52 be
       -0.038980898 -0.19215567 -0.22193402 -0.20524834
000060 5f 16 1c be 87 07 66 bd cd a4 b8 3e 0c ac 07 3f
       -0.15242909 -0.056159522 0.36063233 0.529969
000070 57 aa 54 be 87 ef a0 3e e4 3a c0 3d 77 bf b7 be
       -0.20768104 0.31432745 0.093862325 -0.35888264
000080 28 b5 30 bd 2c db a1 be 7e be cc bd 6d a8 e5 3b
       -0.043141514 -0.31612527 -0.09997271 0.0070086033
000090 a5 1f 9b 3e c8 a7 45 bd e0 82 b2 3c aa 23 84 bd
       0.3029758 -0.04825571 0.021790922 -0.06452115
0000a0 fe 88 f8 bd bf 8f 9c bd 21 8b d0 3c e7 31 35 be
       -0.12135504 -0.07644605 0.025456967 -0.17694817
0000b0 2c cb 0b be 86 be 00 be 46 c5 7a 3e 45 65 e9 3d
       -0.13651723 -0.12572679 0.24489316 0.11396269
0000c0 cd d6 98 be 78 a7 7f 3e c2 4a f4 bd 5f 65 17 bd
       -0.2985138 0.24966228 -0.119283214 -0.03696191
0000d0 50 cb 87 be b7 ea f1 bd 96 63 0b 3e 4b ae 9a bc
       -0.26522303 -0.118123464 0.13612208 -0.018881937
0000e0 39 f1 cb 3e c0 34 3b be 54 4d 7f bd 3a 74 91 be
       0.39832476 -0.18281841 -0.062329605 -0.28408986
0000f0 a3 9e 04 bd 6d 2b 80 be 93 40 40 be ca b0 3e be
       -0.03237785 -0.2503313 -0.18774633 -0.18622127
000100 ca 37 34 be 61 76 2c 3e 30 dd 46 be b8 a4 1e bd
       -0.17599407 0.16842033 -0.19420314 -0.038731307
000110 83 e7 c3 bd ec b5 a7 bc 2b 18 dc 3e c8 bd f5 bd
       -0.09565642 -0.02047249 0.4298719 -0.119990885
000120 51 87 44 3e 53 2c 40 be 57 69 00 3d ed 08 62 be
       0.19192244 -0.18766908 0.03135046 -0.22073717
000130 84 59 7d bd 02 2d 1b bc 6d da 0a be 3b d5 8b be
       -0.061852947 -0.00947118 -0.13559885 -0.2731112
000140 62 fb 97 be 9d 1c 5e be 9d 5d 4a be 7a 83 20 3d
       -0.29683977 -0.21690603 -0.19762273 0.039187886
000150 3c f8 80 be 25 92 d5 bd 39 7f c9 3e 4f 9d 28 3e
       -0.25189388 -0.104282655 0.39354876 0.16466258
000160 06 b2 f8 bd 24 af 7c be 5f 57 a5 bb ad 13 bd bd
       -0.1214333 -0.24676186 -0.005045816 -0.092322685
000170 d5 86 3a be b8 c3 4c be 56 ef a4 3e 40 5e 8d be
       -0.18215497 -0.19996536 0.3221385 -0.2761097
000180 e1 81 12 bd 87 1a b7 bd ed 25 a9 3d 92 5a 81 be
       -0.035768393 -0.089406066 0.08259187 -0.25264412
000190 a5 b5 6b 3e ad 39 55 be 2a cd 63 be 0d 9b bb be
       0.2301851 -0.20822783 -0.22246233 -0.36641732
0001a0 87 d3 9b be 83 5b b9 be b6 97 8c 3e bb 56 10 be
       -0.3043482 -0.3620263 0.27459496 -0.14095585
0001b0 25 fb 04 be 10 73 a6 bd 92 1a 4f be 75 6e 98 bd
       -0.12986429 -0.08127415 -0.2022498 -0.07442943
0001c0 94 8d c1 bc 32 2b c6 be 65 71 ee 3e 15 17 64 be
       -0.02362708 -0.3870483 0.46570888 -0.2227443
0001d0 a8 a2 83 3c 00 7a 40 bd ab cd 8a be 90 e5 17 be
       0.016068771 -0.04699135 -0.27110037 -0.14833665
0001e0 d7 09 f0 3d 5c c5 d0 be 05 e9 88 3e 37 61 32 bd
       0.11720627 -0.40775573 0.2674028 -0.043549743
0001f0 0e 9e f7 3d 66 da f3 3d d5 6c b6 ba 8c f2 84 3d
       0.120906934 0.119068906 -0.0013917933 0.06491575

2.weight f4 [128, 128]
000000 03 d0 2e 3d 8c 11 50 bc f9 b6 0c bd c8 05 7e bd
       0.042678844 -0.012699496 -0.034354184 -0.062017232
000010 66 d3 89 3d 76 07 d4 ba 06 05 38 bd 3f 86 33 3c
       0.06729774 -0.001617654 -0.044926666 0.0109573
000020 be ad 0e 3c f5 35 01 bd 67 31 5b 3c dc 90 8a 3d
       0.008708416 -0.031545598 0.013378478 0.06765911
000030 bf b3 57 bb 70 e2 40 bd c0 c5 8b 3d 70 3c 7d bd
       -0.0032913534 -0.047090948 0.06824827 -0.061825216
000040 d5 ee 82 bd 14 0d 29 bd 96 cd b2 bd c7 bf 06 3d
       -0.0639321 -0.041272238 -0.08730619 0.032897737
000050 c7 e4 a3 3d b2 36 a9 bd 8d e8 20 3d 87 75 95 3b
       0.0800262 -0.082623854 0.039284278 0.0045611295
000060 42 a3 2d bc d3 a6 7c bd 47 6c f3 bc 9a 99 b6 bc
       -0.010598006 -0.061682533 -0.029714717 -0.02229004
000070 07 38 ac 3c c6 fa f0 3c ec e9 9e bd 54 e6 a0 bc
       0.02102281 0.029416453 -0.07759461 -0.019641079
000080 8f d2 42 bc 44 f1 b5 bb f6 34 87 bd b3 b3 28 3d
       -0.011891021 -0.0055524427 -0.06601898 0.041187
000090 4a 08 7c 3c ed 09 6e bd b7 ec 58 bd cd aa 5a bc
       0.015382836 -0.058114935 -0.052960124 -0.013346386
0000a0 5e 79 42 3c 95 b8 80 bd 58 f5 8c 3b c2 a3 3b bd
       0.0118697565 -0.06285206 0.004301708 -0.04581047
0000b0 c8 5c 06 bc f9 03 ab 3b 8d b3 b5 3c 94 de a5 3b
       -0.008200832 0.0052189794 0.022180343 0.005061934
0000c0 e9 46 61 bd 56 48 84 bd 38 6a 0c 3d d9 16 a1 3d
       -0.054999266 -0.064591095 0.034280986 0.07865686
0000d0 06 a7 62 bd 52 bb 62 bd 24 95 57 3c 6c ae 9d bc
       -0.055335067 -0.055354424 0.0131581165 -0.01924821
0000e0 08 77 b9 3d 27 2d 93 3d 2b 57 09 3c 93 1c b8 3d
       0.090559065 0.071863465 0.008382599 0.08989825
0000f0 9b 8a a2 3d c1 1d c4 bb d4 06 70 3d a3 9c ba bd
       0.07936593 -0.0059849923 0.05860026 -0.09111907
000100 49 ea cf bc 1f 97 71 3d 3a b3 6a bd 9a 75 ef bb
       -0.02538027 0.05898201 -0.05729983 -0.0073077204
000110 1a f9 98 bd b0 04 b8 3d 8f 65 81 3d 5e dc 39 bd
       -0.07469387 0.08985269 0.06318199 -0.045376174
000120 60 5d a4 3d c9 c7 48 bd 26 63 70 3d 90 5c bd bb
       0.08025622 -0.049018655 0.058688305 -0.0057788566
000130 9c 8f 8b bc f1 86 84 3d 01 6e b3 bd 5c b6 3e bd
       -0.017036252 0.064710505 -0.08761216 -0.04656063
000140 4e ad ea bb 9c a9 b2 bd c2 dc 89 3c 22 f4 9e bd
       -0.007161773 -0.08723757 0.016828898 -0.077614084
000150 27 05 81 bd 73 43 ff 3c 60 42 cc 39 dd e9 a0 3d
       -0.06299811 0.031160092 0.00038959365 0.07857106
000160 24 cf a4 bd 63 50 91 3d ca f7 74 3d 7c 58 5f bc
       -0.080473214 0.07095411 0.059806623 -0.013631936
000170 f5 19 30 3d cf 04 a3 bd cd 33 a3 bd 2a f7 71 bd
       0.042993505 -0.079599015 -0.079688646 -0.059073605
000180 e7 16 99 bd a8 c0 9d bd fb 19 f1 3c 75 52 ae 3d
       -0.074750714 -0.07702762 0.029431334 0.08511821
000190 e9 bf 70 3b 71 a9 0f bd 74 43 76 bd 3c f9 e7 bc
       0.003673548 -0.0350737 -0.060122922 -0.028317086
0001a0 6b 92 53 3d 23 bc 4f bd ba bc 2f bd 09 fe a5 bd
       0.051653307 -0.05071653 -0.042904593 -0.08105094
0001b0 65 a9 b4 3c 14 33 8e 3d 75 2e 33 3d 97 98 9b 3d
       0.02205343 0.06943336 0.043745477 0.075974636
0001c0 b9 a9 76 3d 8d c7 73 bb 75 e3 84 bd d5 22 94 3d
       0.060220454 -0.00371978 -0.064886965 0.07233206
0001d0 a3 e6 43 bd 30 fa b6 3d 4d 7e 58 bd 29 0e c6 3b
       -0.047827374 0.08934438 -0.052854825 0.0060441685
0001e0 b3 5f b1 3c 38 2c 62 3d a1 e9 43 3b 96 06 a9 bd
       0.021652078 0.05521795 0.0029893892 -0.08253209
0001f0 48 e5 2f 3b 90 b6 b4 3d b7 30 20 3c d3 92 3f 3d
       0.0026839543 0.088238835 0.0097772395 0.04677088
000200 32 29 fd bc bd 91 62 bd fd 20 55 3d 6f ea 36 3d
       -0.030903433 -0.055314768 0.052033413 0.044657167
000210 80 ea 9d bc bc 2d d9 bc 62 ce 1a bd ae e2 10 3c
       -0.019276857 -0.026511066 -0.03779448 0.008843107
000220 e8 5d 82 3d fd d4 ac bd 25 52 47 3b fd 6d 55 3c
       0.063655674 -0.08439062 0.0030413952 0.0130267115
000230 5e 77 d3 bb 03 09 47 3d 25 10 de 3c 13 2c 84 3d
       -0.0064534387 0.04859258 0.027107308 0.06453719
000240 74 3c 43 bd ac a9 84 bc 74 9c 78 bc d5 fd 3b bd
       -0.047665074 -0.016194187 -0.01517402 -0.04589637
000250 66 ce 21 bd cc 21 02 bd 61 ae 02 bd 68 13 37 bd
       -0.039503478 -0.031770512 -0.031904582 -0.04469624
000260 33 a6 c4 3b fb c2 a8 bd 85 0c ac 3d e9 d7 06 bd
       0.006001258 -0.082403146 0.084008254 -0.03292075
000270 d6 e1 6c 3d f5 b0 a8 3b fc 38 99 bd a7 0d b7 bd
       0.05783256 0.005148048 -0.07481572 -0.08938151
000280 39 8d 71 bc ef 80 4f 3d a2 6b f3 3b eb 76 5a 3d
       -0.014743143 0.05066007 0.0074286023 0.053336065
000290 a2 b1 6a bd 23 b5 ae bd bf 75 b0 bd b0 7a 95 3c
       -0.05729831 -0.08530643 -0.08616208 0.018246979
0002a0 6d 2c 30 3d 2c 94 25 bd 5b 9e b2 3c ca 1e 90 bd
       0.043011118 -0.04042451 0.021804025 -0.070371225
0002b0 57 38 5c bc 7f 5f 96 3d c0 6c 18 bd 89 87 8f 3d
       -0.013441167 0.07342433 -0.037213087 0.07008273
0002c0 ea fc 64 bd 23 a4 54 bd 28 b1 95 3d 0b 84 91 3d
       -0.05590526 -0.051914345 0.073091805 0.07105263
0002d0 ed 34 92 3c 29 24 bd bc 4f df 15 3d 8f 48 e2 3c
       0.017847503 -0.023088532 0.036589917 0.02762249
0002e0 a1 74 22 bd e3 55 93 bd eb c0 53 bc 41 1d 3d bd
       -0.039662007 -0.07194116 -0.012924413 -0.046170477
0002f0 a0 67 12 bd 04 45 99 3c cf fb 92 3d 74 58 89 3d
       -0.035743356 0.018709667 0.07176935 0.06706324
000300 0a 16 85 3d d9 69 03 3d 49 ad db 3c 28 5f 96 bc
       0.06498344 0.032083366 0.026816027 -0.01835592
000310 08 5d 04 3c 17 23 c1 bb f3 56 85 bd c9 e6 b0 3d
       0.008078821 -0.0058940756 -0.06510725 0.08637769
000320 24 67 79 3d 22 cd 06 3c 64 ea 2b 3d 64 76 31 3d
       0.06088938 0.008227618 0.04197158 0.043325797
000330 60 9b 85 3d e0 33 43 3d 47 f2 87 bc 39 46 a6 bc
       0.06523776 0.047656894 -0.016595019 -0.020297157
000340 8a 84 60 bd 02 56 f5 3b 8d f6 89 3d a2 f2 a5 bd
       -0.0548139 0.0074870596 0.06736479 -0.08102919
000350 a0 8c a6 3c a2 7e 5e bd 57 94 97 3d e2 12 a3 bd
       0.020330727 -0.054319985 0.074013405 -0.07962586
000360 df f0 34 3c 85 fa 56 3d 2b f8 f2 bc 30 b9 d5 3b
       0.011043756 0.052485008 -0.029659351 0.00652232
000370 85 a1 d1 3c 9b 93 8a bb e6 5d 22 bd e5 fc a8 3d
       0.025589714 -0.0042290217 -0.03964033 0.08251361
000380 53 d4 ae bd e9 c0 71 bd 13 ca f2 bc f6 f0 a5 3b
       -0.085365914 -0.059021864 -0.029637372 0.005064125
000390 aa f0 af bc 34 8e 70 3c 3b 2a 91 bc 75 07 34 bd
       -0.021477062 0.014682341 -0.017720332 -0.043952424
0003a0 84 da a9 3b e6 10 88 3d 44 40 18 3d ce ee bc 3c
       0.00518352 0.06643848 0.037170663 0.02306309
0003b0 a5 37 60 bd aa 6a 34 3d bc 3a 52 bc 8e 75 5e 3d
       -0.054740567 0.044047035 -0.012831386 0.054311328
0003c0 0d bb 08 bd 44 5c 8e bd 52 33 5f 3d e5 29 9b bc
       -0.03338151 -0.06951192 0.054492302 -0.018940875
0003d0 70 98 06 bd 82 cd 21 3d 54 67 e8 b9 ca 27 0b bd
       -0.03286022 0.03950263 -0.00044327474 -0.033973493
0003e0 59 ef 78 bc 78 f4 06 bb 97 86 75 3b aa 3b 7a 3d
       -0.015193784 -0.0020592492 0.0037464255 0.061092056
0003f0 bb 69 1e bd 17 cb 0a bd fe 6e ba bb 11 e6 d2 ba
       -0.03867505 -0.033885088 -0.005689501 -0.0016090294

2.bias f4 [128]
000000 cc da c0 3d e1 18 59 bd dd 53 a3 bd 01 13 e1 3c
       0.09416732 -0.053002242 -0.0797498 0.027474882
000010 4c d1 9e 3d dc 72 ca bd 5d 46 f7 bc ed 15 65 3d
       0.07754764 -0.09885189 -0.030184919 0.055929113
000020 14 7c 3f bd 28 85 a4 bd 82 54 71 3c ca e1 36 bd
       -0.04674919 -0.0803321 0.014729621 -0.044648923
000030 f6 bb 9c bd df 83 36 bd ee 30 52 be bc 23 24 3e
       -0.07653038 -0.044559356 -0.20526478 0.16029257
000040 e8 84 1c 3c c4 c1 c3 3c 5b c0 24 bc d2 be 4d bc
       0.009553172 0.023896106 -0.010055627 -0.012557702
000050 ef d7 36 3d c6 97 84 bd 85 a0 f7 3d d9 4b fe bc
       0.044639524 -0.06474261 0.120911635 -0.031042026
000060 fb c4 ec bd 66 79 41 bd 9e eb 19 bd 5b ee 31 3c
       -0.115610085 -0.047234915 -0.037578218 0.010860051
000070 f8 e5 92 bc 95 63 da 3c ac 55 a1 3d ea cf 31 bc
       -0.017931923 0.026658813 0.07877669 -0.010852793
000080 7e ba 21 3e c1 20 d0 3d fe 46 57 be c2 c7 95 3c
       0.15793797 0.10162497 -0.21023175 0.018283729
000090 35 c1 9f 3d 53 3a 85 bc 1d 73 ac be 14 5b 68 bd
       0.07800523 -0.016263163 -0.33681574 -0.056727484
0000a0 7d fd dc bc b8 14 03 bd 24 65 47 bd 8a 69 eb bd
       -0.026976341 -0.03200218 -0.04868044 -0.11494739
0000b0 fc 13 28 bc 7b b4 a0 3d 96 60 cd 3d f0 8a 0a bd
       -0.010258671 0.07846924 0.10028188 -0.033823907
0000c0 2a 8a e1 bd 99 5a 2d 3e a0 34 e9 3d 14 04 ce 3d
       -0.11012681 0.16929092 0.113869905 0.100593716
0000d0 f6 d4 e9 ba 74 7b 88 bc 8c 89 71 bd df 84 4f 3b
       -0.0017839957 -0.01666043 -0.058969066 0.003166489
0000e0 41 37 83 3d 15 f9 03 bc 26 7f 2c 3c f4 1e 93 bc
       0.06407023 -0.008054991 0.010528361 -0.017959096
0000f0 e0 78 d8 bd 21 8e e9 3c cd 5b e0 3d 8a c9 94 3d
       -0.1056993 0.028510155 0.109550096 0.07265003
000100 d2 b6 63 bd 5a e6 92 3d 39 e8 6b 3a ee 18 97 bd
       -0.055594273 0.07172842 0.00089991424 -0.07377802
000110 16 a4 af bc eb 46 41 be 45 a7 7d bd df 0c d3 3d
       -0.021440547 -0.1887471 -0.0619271 0.10305189
000120 31 f2 c0 bd 6d 2c ff 3d a4 49 58 bc 13 a3 9f 3d
       -0.09421194 0.124596454 -0.013201151 0.07794776
000130 7d bf db bc 02 83 46 be 82 47 06 bd a7 8d 28 3c
       -0.026824707 -0.19385913 -0.03278304 0.010287679
000140 24 ff f0 3b e3 1a df 3c 1e 69 da bc a6 22 dd bc
       0.007354634 0.0272345 -0.026661452 -0.02699406
000150 03 d7 77 be 2c 91 76 3c 99 c8 87 bd a6 15 f7 bd
       -0.24203114 0.01504926 -0.06630058 -0.12064676
000160 4a 59 93 3e 9a c8 48 be 7e c2 9c bd ae e8 d9 3c
       0.2877906 -0.19607773 -0.07654284 0.026600208
000170 2a 4a 3f bc f7 e4 c7 3d a0 e0 30 be 1d 02 19 3d
       -0.011675397 0.097604685 -0.17273188 0.03735553
000180 7c 37 40 3d a9 e0 22 3d 6e b0 3f bd 12 cb 07 3e
       0.046927914 0.039765034 -0.046799116 0.13261059
000190 d2 28 9a 3c 60 d7 36 3b c9 b1 49 bd 0a 28 98 bd
       0.018818293 0.002789937 -0.049241815 -0.07429512
0001a0 67 b5 d1 3d 63 a8 59 3e 08 22 f3 bd 0e 19 70 3d
       0.10239678 0.2125564 -0.11871725 0.058617644
0001b0 8c 00 ea bd 52 ae 5d be 4b b7 63 bd 60 e5 13 be
       -0.114258856 -0.21648529 -0.055594724 -0.14442968
0001c0 c0 3e a1 3c 39 c0 ae bd 57 97 98 bd 28 12 b3 3c
       0.019683242 -0.08532757 -0.07450741 0.021859244
0001d0 93 93 4e bd 51 38 0e 3b ab b5 ae b9 d7 08 91 bc
       -0.050433706 0.0021701048 -0.0003332322 -0.01770441
0001e0 8e 4d 26 3d 21 6c b7 3d e7 12 d2 3d d7 79 cb bd
       0.040601306 0.08956171 0.102575116 -0.099353485
0001f0 eb e1 2c 3b 60 4a e9 3d f7 d7 cd bb 9d 4b 8c 3b
       0.0026379775 0.11391139 -0.0062818485 0.0042814747

4.weight f4 [128, 128]
000000 f1 2e 44 3d 43 59 c8 3c 05 71 18 bd e8 25 4f 3d
       0.04789633 0.024456626 -0.03721716 0.05057326
000010 df 04 ae 3a 38 ee 4a bd 44 34 dc 3b 8d 4a 14 bc
       0.0013276598 -0.04954359 0.0067200977 -0.009050977
000020 bc 35 d5 3c 6a 89 5f 3c 2a dc 8a 3d ef d8 de 3b
       0.0260266 0.013643602 0.06780274 0.006800763
000030 7b 52 01 3c 7b d4 e2 bb 54 c9 7c bd 9e c6 31 3d
       0.0078932 -0.0069223023 -0.06171544 0.043402307
000040 53 bb 97 3d 38 81 1c bd 64 ed 6c bd 14 0b 0c bd
       0.07408776 -0.03820917 -0.05784358 -0.034190252
000050 dd 4e 5a bb ef 92 93 3d 25 4a 84 bc 9d 3a a6 3d
       -0.0033311166 0.0720576 -0.016148636 0.08116648
000060 cd 4e 92 3d 41 14 90 bd 6d 9c b2 bd b5 6b 14 bc
       0.07143936 -0.07035113 -0.08721242 -0.0090588825
000070 8f 4f 3b bc c9 ec 3c 3c 57 15 0e bc d1 91 1f bd
       -0.011432542 0.011531063 -0.00867208 -0.03895742
000080 b4 8a 7a 3c fa 9a 33 bd 68 95 43 3d 0b fb 80 3d
       0.015291858 -0.04384897 0.047749907 0.06297883
000090 8d 8e 94 bd 68 97 88 bd 0a 7d 89 3d 6a e4 a1 bc
       -0.07253752 -0.066695035 0.067133024 -0.019762237
0000a0 95 eb 12 3d a2 86 ad bd ab d3 58 bd 69 e9 8d bd
       0.0358692 -0.08472945 -0.052936237 -0.06929285
0000b0 12 78 fc bc 18 e8 88 bd 50 5b 02 bd f1 2b cb 3b
       -0.030818973 -0.06684893 -0.031825364 0.0062003066
0000c0 4b 97 0b bd 78 20 33 3d 53 8e 0b bd 2e 2b 8b bd
       -0.03407983 0.043732136 -0.034071278 -0.06795345
0000d0 9e d0 bc bc 3d 96 43 3d 7f 20 8e bc 23 29 3c bd
       -0.023048695 0.0477507 -0.01734948 -0.04593767
0000e0 b7 5c 06 bd eb d9 8f 3d aa 01 93 bd 1b 27 48 bd
       -0.032803264 0.070239864 -0.07178052 -0.04886542
0000f0 75 d3 98 bd d7 44 99 3d 1c a6 44 bd d8 ab a1 3d
       -0.07462207 0.07483833 -0.048009977 0.07894105
000100 a2 65 a3 bc 56 e8 67 bd ae a6 31 bd fb 0f 8d bd
       -0.019945923 -0.056618057 -0.04337185 -0.06887814
000110 46 d6 5b 3c 08 0a 09 bd 84 53 a1 3d 64 c6 02 3c
       0.013417786 -0.033456832 0.078772575 0.00798187
000120 b4 68 82 3c 8d c2 26 bd 53 a1 df bc c7 ad 44 bd
       0.015919067 -0.04071288 -0.027298605 -0.04801729
000130 3f ca d3 3c ee 6b 2e 3d 31 18 67 bd 76 38 20 3d
       0.025853274 0.0425834 -0.056419555 0.039116345
000140 85 b0 ad bd f3 7c 54 3d ca 5c 3d 3d 32 45 cb bc
       -0.08480934 0.051876973 0.04623107 -0.024813268
000150 7a 36 8e 3c 9f 80 79 bd 7e f2 89 bc 4c 60 bf 3c
       0.01735996 -0.06091368 -0.016839262 0.023361348
000160 28 e3 30 3d bb 03 92 bd 78 bf 96 bd 2e a7 8d 3d
       0.043185383 -0.07129618 -0.073607385 0.069166526
000170 da e7 fd 3c 2a 98 9c 3d d6 c1 a0 bd 00 5e 28 bd
       0.030994345 0.076462105 -0.07849471 -0.04110527
000180 47 44 19 bd a2 61 81 bc 45 9b 06 3c fb ae 95 bc
       -0.03741863 -0.015793625 0.00821573 -0.018271914
000190 12 c7 40 3d e0 57 5a bd 3d eb 99 3d f2 91 31 bd
       0.04706485 -0.05330646 0.07515571 -0.043352075
0001a0 1c 15 47 3d 14 b6 94 3d 9d 11 a0 bd 58 da c8 3c
       0.048604116 0.07261291 -0.078158595 0.024518177
0001b0 60 03 a7 3c bc 38 a5 3d 8c b2 49 3d f3 d5 b1 bd
       0.020387352 0.08067462 0.04924254 -0.08683386
0001c0 58 74 02 bd 12 e9 8d bd 8f 4c 3f bd 2f db d8 bc
       -0.031849235 -0.0692922 -0.04670387 -0.026471702
0001d0 ec 8d 09 3d 30 fa ae bd f0 48 b0 3b c0 ef a3 bd
       0.033582613 -0.08543813 0.0053797886 -0.08004713
0001e0 3a 53 8b bc d8 34 ab bd f1 14 77 bd a6 32 1e bd
       -0.017007459 -0.083596885 -0.060322706 -0.03862252
0001f0 31 c7 10 3d a2 a4 49 bd 3c 35 56 bd 28 b0 1e 3d
       0.035346214 -0.04922927 -0.052296862 0.038742214
000200 3c 75 28 bd fa 5a 06 3d fb c1 c1 3d fd b6 9c 3d
       -0.04112743 0.032801606 0.09460827 0.0765209
000210 a0 af ae bb db df 35 3d 65 97 bd bc 7c 04 89 3d
       -0.0053309947 0.04440294 -0.02314348 0.066903085
000220 c0 91 1e bb fe ac d6 3b 93 3a a5 bd 3a aa 9c 3d
       -0.002419576 0.006551384 -0.08067813 0.07649656
000230 f0 4d 7a 3d e9 b0 05 bc b4 75 31 bd e2 7a f6 bc
       0.061109483 -0.008159854 -0.04332514 -0.030087892
000240 79 14 a4 bd ec 77 61 bd ee 3c 29 3d 50 c6 61 bd
       -0.08011717 -0.055046007 0.041317873 -0.055120766
000250 60 e6 05 3d 0c 85 26 bd 1e 42 1c bd 71 56 9b bd
       0.032690406 -0.040654227 -0.03814899 -0.07584847
000260 ea c8 a9 3b 02 1f f0 bc a7 24 18 bd c2 5d d2 3a
       0.0051814215 -0.02931166 -0.03714433 0.001604967
000270 2d 25 1f bd 97 d4 8a 3c 98 74 77 3d 84 16 05 bd
       -0.038853813 0.016947074 0.060413927 -0.032492176
000280 fe 68 00 3d 48 e9 ae bc 87 ad af 3c c2 dd 85 bd
       0.03135013 -0.021351472 0.021445049 -0.065364376
000290 60 fe 74 bd 1a 5f 30 bd 99 ac 89 bb 03 75 8a bc
       -0.059812903 -0.043059446 -0.0042014834 -0.016901499
0002a0 65 3a da bc e5 60 61 3d eb a6 83 bd a3 9f b4 3d
       -0.026639173 0.055024046 -0.064283215 0.08819511
0002b0 81 bc 8b 3c a8 42 75 bb f9 ff 86 3d 68 92 84 3d
       0.01705766 -0.0037423763 0.06591792 0.06473237
0002c0 96 df 8c bc 69 38 21 3d 1b 02 ed bc 0c e4 5a 3d
       -0.017196458 0.039360438 -0.028931668 0.05344014
0002d0 ca d7 6b 3d f9 3a a5 3c f6 5f 22 3c 06 11 00 bd
       0.05757884 0.020169722 0.009910574 -0.031266235
0002e0 3e 9c ca bc f3 a3 92 3d 20 c7 e7 3c 75 d6 07 3d
       -0.024732705 0.07160177 0.028293192 0.033163507
0002f0 7c ed d2 bb ee df 23 bc 62 30 74 3d a9 5d 8b bd
       -0.0064370017 -0.0100021195 0.059616454 -0.06804974
000300 be 96 66 3c e4 06 73 bc b8 e6 db bc aa 9e a9 bd
       0.014074026 -0.014833186 -0.026843414 -0.08282216
000310 d9 5e 85 3d 1c 20 96 bd af 95 b9 bc e8 05 31 3c
       0.065122314 -0.07330343 -0.022654383 0.010804631
000320 2e 07 59 3d 6b 33 b5 bd 78 74 2c 3d 8e 2f 0d bd
       0.052985363 -0.08847698 0.04210326 -0.03446918
000330 41 fd fe 3c 97 65 aa bd d3 2e 99 bd b2 15 aa 3d
       0.03112662 -0.08320158 -0.07479634 0.08304919
000340 9e c9 f3 3c be 11 63 3c d9 4c 1e 3d c6 fa b1 3d
       0.029759225 0.013859211 0.038647506 0.08690409
000350 9f 22 67 3d 58 75 98 3c 1e 79 91 bd 1e f2 c2 3d
       0.0564295 0.018610641 -0.071031794 0.095188364
000360 25 1f a8 ba fe 9e 64 bc 3c 06 98 3c 12 93 8a 3d
       -0.0012826665 -0.013953922 0.01855766 0.06766333
000370 b1 05 6b bc a1 da 23 bd 02 5b 54 3d ad c9 76 3d
       -0.014344619 -0.040003423 0.051844604 0.060250927
000380 c2 40 cb 3c f8 6d d3 3b ae 2a 13 3b 78 76 84 3c
       0.024811152 0.0064523183 0.002245586 0.016169772
000390 00 7f 91 bd 09 eb 47 bd 03 06 20 3d 17 ba be 3c
       -0.071043015 -0.04880813 0.039068233 0.023282094
0003a0 ae 5c 48 3d dd 69 7b ba a6 e2 46 bd c7 67 0d bd
       0.04891651 -0.0009590665 -0.048555993 -0.034522798
0003b0 2c a9 ae bc 82 f1 6d bd 03 a2 a9 3d 6c ce 59 bd
       -0.021320902 -0.058091648 0.082828544 -0.053175375
0003c0 80 cd 4b 3c 68 ec b7 3d 9a ec 94 bd b0 17 92 bd
       0.012439132 0.08980638 -0.07271691 -0.07133424
0003d0 3d ae 12 3d fd ad 50 3d 3b a2 2c bd cb 4c 2f 3d
       0.035810698 0.05094718 -0.042146903 0.042797845
0003e0 10 d0 76 3d eb 27 32 bd 6d 11 97 3d ac 04 28 3c
       0.060257018 -0.0434951 0.073763706 0.01025502
0003f0 a0 cd a1 bc 30 70 ee 3c 6f 45 3f 3d 52 77 ab 3d
       -0.01975137 0.02910623 0.046697076 0.08372368

4.bias f4 [128]
000000 d9 c0 09 bd 40 33 fd 3c 4e dc cb 3d d1 bb b2 bd
       -0.03363118 0.030908227 0.09954129 -0.087272294
000010 18 81 91 bd e6 a7 1d bd 32 a3 ca bc 3a 59 66 bc
       -0.07104701 -0.0384902 -0.02473602 -0.014059359
000020 92 07 e9 3d ff 03 a3 3d 69 0a a4 bd 15 58 7b ba
       0.11378397 0.079597466 -0.08009798 -0.00095880154
000030 49 fc 8a bc 08 84 89 3c 8b a1 b7 3d f0 e9 46 3d
       -0.016966002 0.01678659 0.08966359 0.048562944
000040 38 36 52 bd 26 86 cc 3d 7e 49 9f 3d 8d d0 20 bd
       -0.05132124 0.09986524 0.077776894 -0.03926139
000050 83 c3 0e bd 2a 9e 3d 3d f4 1d 82 3d 7c 97 6e bd
       -0.034854423 0.046293415 0.06353369 -0.058249936
000060 1e f6 c9 3d ea f4 52 bd 77 96 05 bd 6e 4e a7 bd
       0.09861396 -0.0515031 -0.032614198 -0.08169256
000070 9a a2 89 bb 0a 22 0b 3d 90 28 a1 bd 13 ef cf 3d
       -0.004200292 0.03396801 -0.07869065 0.10153022
000080 12 a5 3d bd 8f c4 b6 bc 19 78 ce bd 9c e7 48 bb
       -0.0463 -0.022310523 -0.100815006 -0.0030655628
000090 79 86 de 3c e9 7c 53 3d dd 1c 5a bc d4 48 35 bd
       0.027163731 0.051632795 -0.013312546 -0.044258907
0000a0 47 3b fd 3c 5a 83 dc bc e6 f0 e8 3d 39 93 c8 3d
       0.030912055 -0.026918102 0.11374073 0.097937055
0000b0 89 f0 57 3d 8f 46 03 3e 7e 52 d9 3d 73 f7 80 bd
       0.052719627 0.12819885 0.10611437 -0.06297197
0000c0 78 03 a8 3c c1 8d b1 3d 6e 0c c8 3b 89 8e 3f bd
       0.020509467 0.086696155 0.0061049974 -0.04676679
0000d0 3d c6 c8 bc de 67 4b ba e5 c4 a3 bd dd 61 1b bd
       -0.02450859 -0.0007759313 -0.07996539 -0.037935127
0000e0 2e 7e 63 bc 2a 11 99 bd ea 99 1e bd 34 8a 9d 3d
       -0.013885064 -0.07473977 -0.038721003 0.07692376
0000f0 f8 f0 3a 3d c9 57 5b bd fb 1d 1a 3e e4 10 3b 3d
       0.045639962 -0.053550515 0.15050499 0.045670405
000100 3f 47 b9 bd 42 f5 9e bd 5c e2 b8 3c 26 e4 86 bd
       -0.09046792 -0.07761623 0.022568874 -0.065864846
000110 9e 61 a8 3d 70 6f 6e 3d bc 06 6f 3d 45 4f 68 bd
       0.08221744 0.058211744 0.05835603 -0.056716222
000120 f7 f8 b2 3c 7c 16 25 3e c7 8d 0c 3e 84 0b 0b 3e
       0.021847231 0.16121858 0.13725959 0.13578612
000130 68 42 c6 bc 5d 07 a8 bd 91 12 bd 3d 95 8b 4b bc
       -0.024201587 -0.082045294 0.09232057 -0.012423416
000140 01 32 84 3c 0f f2 76 3d 8b 74 58 bd da 92 ed bc
       0.016137125 0.06028944 -0.05284552 -0.029000688
000150 49 67 c4 3d 20 af c6 3c 0e e7 1a 3c ec 80 13 bc
       0.095900126 0.024253428 0.009454502 -0.009002905
000160 9f 4f 84 bd 13 d1 8a bc 9c 03 e2 3d 53 4f 13 3d
       -0.06460499 -0.016945397 0.11035845 0.03596432
000170 48 be a5 bd 7e fe 3f bc 89 42 d6 3c b7 a3 9b 3d
       -0.08092934 -0.0117183905 0.026154773 0.075995855
000180 55 76 12 3e ad 68 af 3d b7 0e 57 bd f6 4a d0 bc
       0.14302953 0.08564887 -0.052504268 -0.02542637
000190 9a c6 4a bc c4 c2 c9 bb 31 00 3d 3c df 2e c4 bc
       -0.012376452 -0.006157251 0.01153569 -0.023948131
0001a0 17 9c b7 3d f6 07 a6 3c 8a ca 9b bc 65 51 e1 bc
       0.08965319 0.020267468 -0.019017477 -0.027504632
0001b0 56 45 0f 3e f9 4f 6b bc d6 27 14 bd bc 9d f8 bd
       0.13991293 -0.014362329 -0.036170803 -0.121394604
0001c0 1e 91 90 bd aa 7e 8e 3d 6d b4 3d 3e ab 48 87 bd
       -0.07058929 0.06957753 0.18525858 -0.06605657
0001d0 9c 9a b3 bd 01 c1 4a bd 3f 59 33 bd b6 9c 82 bd
       -0.08769724 -0.04950047 -0.043786284 -0.063775465
0001e0 a7 e4 5c 3d 42 3e 87 3d 94 75 19 3e 80 c8 6c 3b
       0.053928997 0.066036716 0.14986259 0.003613025
0001f0 80 13 af 3b b5 a5 b1 3b a5 46 a7 3d 26 44 98 3d
       0.0053429008 0.005421365 0.08167771 0.07434873

6.weight f4 [128, 128]
000000 41 42 f1 3b 89 15 39 3d 04 99 c9 bc 0e 9d 2e bc
       0.0073626344 0.045186553 -0.024609096 -0.010657562
000010 f6 1e 4a 3d 3b 46 80 bd a1 27 80 3c f8 52 a4 3d
       0.049345933 -0.062633954 0.015643897 0.080236375
000020 1b 04 b4 3d 7d 48 21 3d ad f6 41 bd f9 89 12 bd
       0.087898456 0.03937577 -0.04735439 -0.035776112
000030 af 97 71 3d 8a 7c c0 bd c4 ed ad 3d c1 1b a5 bc
       0.058982547 -0.09398754 0.08492616 -0.020154836
000040 0c a2 88 3d 76 22 12 3d f7 8b 9b 3d 23 d0 2c bd
       0.06671533 0.035677396 0.075950556 -0.042190682
000050 95 f7 9b 3d 58 08 a7 3d 8a 22 b5 3b 6f 23 99 3d
       0.07615582 0.08155888 0.005527799 0.074774615
000060 1d 10 83 bd 08 93 72 bc 79 ed f5 bb 8f 9c 3d bc
       -0.06399558 -0.014805563 -0.0075051156 -0.011572971
000070 1b e7 55 bd 95 5b 12 3d cf 2d 32 3c 00 8a ba 3d
       -0.052222352 0.03573187 0.010875179 0.09108353
000080 1a 4a 0f bc 64 ea 63 3d 05 dc b5 bc 6a 93 43 bd
       -0.0087456945 0.055643454 -0.02219964 -0.047748007
000090 45 e8 95 3d a8 d9 97 bd 4f bf d4 3c 95 37 99 3c
       0.073196925 -0.074145615 0.02597013 0.018703261
0000a0 61 48 82 3d ce 31 2f bd c1 ef fe bb bb bf 36 bd
       0.063614614 -0.042772107 -0.0077800457 -0.044616442
0000b0 37 c4 2a 3d 95 10 ef 3c 8a 8a 40 3d 93 9c 26 3d
       0.04169103 0.029182712 0.04700712 0.040676665
0000c0 4f 1b d6 bc c8 df 65 bd a7 cc 50 3c cb 13 4a 3d
       -0.026136069 -0.056121618 0.012744105 0.049335282
0000d0 f4 8b 67 3d 76 89 80 3d 09 d6 80 3d 68 1b b1 bd
       0.056529954 0.062762186 0.06290824 -0.086478055
0000e0 3f 50 49 3d 5a dc 35 3d 99 77 e9 3b 98 19 97 bd
       0.049148794 0.044399597 0.007124853 -0.073779285
0000f0 7c a2 38 3d ac 2d 28 bd c3 c6 61 bd 78 52 a4 3d
       0.045076832 -0.04105918 -0.055121195 0.08023542
000100 d8 7d 20 bd 34 8a 51 bd 8e 9d 83 bd b8 a8 94 3d
       -0.039182514 -0.05115719 -0.064265355 0.07258743
000110 4d 65 77 3d 30 73 1b 3d 05 24 c1 3c 82 1f 6b bd
       0.060399342 0.03795165 0.023576746 -0.057403095
000120 c6 fe 94 bd d4 ec 4c 3d 98 b6 4d bd 97 d5 9b bd
       -0.07275157 0.050030544 -0.050222963 -0.076090984
000130 bb 1b f0 bc 03 0a 77 bd cf b5 37 3d ae a4 30 bd
       -0.029310098 -0.060312282 0.04485112 -0.0431258
000140 6c 7b 99 bd 84 05 79 bc 36 2d 71 bd 17 f9 83 bd
       -0.07494244 -0.015199069 -0.058881007 -0.064439945
000150 7b a7 be bc 5a 36 3e bd 6f de 09 bd c1 fc b1 3d
       -0.02327322 -0.046438552 -0.033659395 0.08690787
000160 a1 69 fb 3c 88 43 33 bd 27 f9 cc 3c c0 8c ad bd
       0.030690016 -0.043765575 0.025021149 -0.084741116
000170 66 89 88 bd c5 7a 35 3b 8e 7e be 3d f9 db aa 3d
       -0.06666832 0.0027691585 0.09301482 0.08342738
000180 1a 40 a7 bb 51 33 f7 bc 88 7b 00 bd 10 82 b2 bc
       -0.005104077 -0.030175837 -0.03136781 -0.021790534
000190 e9 0c d8 bc 37 a7 b3 bd 59 fb 40 bd dd f1 81 bc
       -0.026373344 -0.08772128 -0.047114704 -0.0158624
0001a0 74 83 23 3d 51 df d6 3d 30 54 bf 3d 98 74 99 3d
       0.039920285 0.10491813 0.09342229 0.074929416
0001b0 9a c3 98 3d cb 6f ba 3d 99 b6 8f 3d 84 0e 2e 3d
       0.07459183 0.09103354 0.070172496 0.042494312
0001c0 89 96 49 3d 27 6a 58 3d ad f8 87 3a 7f db a1 bc
       0.049215827 0.05283561 0.0010373794 -0.019757984
0001d0 b4 cc ff 3c 1a c8 8c bd 6d 0f 55 3d 27 b9 bb 3d
       0.03122554 -0.06874104 0.052016664 0.091661744
0001e0 99 d9 a8 3d a5 db 93 bd f8 b2 9b 3d a0 ae a3 3c
       0.082446285 -0.07219628 0.07602495 0.019980729
0001f0 cb d2 4f 3d f0 51 0a 3d 2f b8 8f 3d 2e 3d a5 bd
       0.050738137 0.033769548 0.07017552 -0.0806831
000200 f4 b0 b2 3d 82 90 99 bd c9 34 2f bd 6e 55 92 3c
       0.087251574 -0.07498266 -0.04277495 0.017863002
000210 0c f8 ae ba 9e a2 7a bd 8f fd 84 3d a0 46 cf 3c
       -0.001334907 -0.06119024 0.06493675 0.025302231
000220 e0 d8 3d bc 06 dc 16 3d cc cc 93 bd 24 50 a4 bd
       -0.011587352 0.036830924 -0.07216796 -0.08023098
000230 f6 2a 57 3d 33 1f 55 3d 00 16 4c 3d d9 cd e5 3c
       0.052531205 0.052031707 0.04982567 0.028052257
000240 d5 3d 4b bd 96 5a a9 3d 0b cf 13 3d 46 7c 77 3d
       -0.049619514 0.08269231 0.036086123 0.06042125
000250 64 6b 88 bd a1 e7 d8 bd b0 8d 01 bd 47 35 84 bd
       -0.06661108 -0.10591055 -0.031629264 -0.06455474
000260 ad e6 34 3b 3b bc c7 bc e7 c1 93 3d 68 84 88 bc
       0.0027603314 -0.024381747 0.07214718 -0.016664699
000270 02 93 12 bd 16 b4 71 3d 2e b7 d7 3d a3 be 42 3c
       -0.03578473 0.059009634 0.10532986 0.011886272
000280 eb 9b af 3d 6d e7 48 bd 74 b2 8f 3d ad 72 aa 3c
       0.08574661 -0.04904883 0.07016459 0.020806635
000290 75 72 1a 3c ba 50 a6 3d 9c f9 67 3d e3 53 31 bd
       0.009426703 0.08120866 0.05663453 -0.04329289
0002a0 08 e9 fa bc 10 f8 b1 bd be d7 b6 bc 0c dc 07 3c
       -0.030628696 -0.08689892 -0.02231967 0.008292209
0002b0 33 e1 24 3d d9 31 07 3c 6f 32 31 bd df ec b7 3d
       0.04025383 0.008251631 -0.043260988 0.089807265
0002c0 2b cc 95 ba 5b ff 78 bd e4 dc f9 3c 61 b0 51 3d
       -0.0011428645 -0.0607904 0.030500837 0.0511936
0002d0 22 db a2 3c ac e5 18 bd 93 89 d4 bc 1c fe 8b 3d
       0.019879881 -0.037328407 -0.025944507 0.06835577
0002e0 41 33 3e 3d 1e 70 79 bb 97 8b b8 bc e6 9c 88 3d
       0.0464356 -0.0038061212 -0.0225275 0.06670551
0002f0 ca 30 1d bd a8 27 23 3d 4c c9 95 3d c8 7a 9d bd
       -0.038376607 0.03983274 0.07313785 -0.07689434
000300 a1 5c 42 bd 39 bc 8c bd a6 b9 64 ba aa 76 3d bd
       -0.04745162 -0.06871838 -0.00087251735 -0.046255745
000310 26 d4 84 bd 48 75 b7 3d b6 f1 c6 3d 29 1f 34 bc
       -0.064857766 0.089579165 0.097140715 -0.010993757
000320 d8 91 cf 3c cc 36 f4 3b 2e f2 41 3c 8f 78 8a 3d
       0.025338098 0.0074528214 0.011837525 0.06761276
000330 00 9b 17 3d 32 ba 59 3d 28 85 20 bd bc b1 b9 bd
       0.037013054 0.053156085 -0.039189488 -0.09067103
000340 fa 24 16 bc b8 00 a8 3c 40 c6 3a 3b 15 39 7d 3d
       -0.009164089 0.020508155 0.0028499514 0.061822016
000350 85 ac 1d 3d 7b 03 fa 3c 47 6a a5 3c ba cb 04 bc
       0.038494606 0.030519238 0.020192279 -0.008105213
000360 0c 85 42 bc 90 7f 05 3c 5a 08 1c bc b4 95 51 3c
       -0.011872541 0.008148089 -0.009523476 0.01279204
000370 5c b0 72 3d 14 fd 40 3d ca e0 1b 3d b4 58 2f 3d
       0.05925022 0.047116354 0.038056172 0.042809203
000380 79 6d 39 bc f1 19 df bc 83 65 52 3d c8 27 38 3c
       -0.011317604 -0.02723405 0.05136634 0.011239953
000390 37 c1 b6 3d 0d e1 08 bc bc 81 cd 3d b8 a3 92 bd
       0.089235716 -0.008354438 0.100345105 -0.07160133
0003a0 27 14 ea 3d 53 bf 70 bc 32 01 c7 bb bb bf 42 bd
       0.11429625 -0.014694053 -0.0060731405 -0.04754613
0003b0 70 35 e1 3b f8 50 cd 3c 16 09 d2 3d b1 e4 01 bd
       0.0068728253 0.025063023 0.10255639 -0.031712238
0003c0 da 28 41 3b 57 87 42 bd 29 bd 07 bc da 78 2e ba
       0.0029473812 -0.04749235 -0.008284845 -0.00066555815
0003d0 a6 cd ad 3d 92 cd a8 bd 0f 74 84 bd 1a 28 20 3c
       0.0848649 -0.082423344 -0.06467449 0.009775186
0003e0 6a 7c ea bc 6a c4 30 3d 1c c7 67 3d ec 1b 76 bd
       -0.028623778 0.043156065 0.05658637 -0.060085222
0003f0 e3 70 c4 3c 0d 3c 3a 3c 53 75 53 3c d3 b1 ab bd
       0.02397961 0.011366856 0.01290639 -0.08383527

6.bias f4 [128]
000000 96 25 ac bb 36 17 22 3e 60 e0 03 3c 00 6d 08 3e
       -0.005253504 0.15829167 0.008049101 0.1332283
000010 4a 15 17 bd a9 ac 57 bc d1 6c a0 3d 33 94 c1 3d
       -0.036885537 -0.013163724 0.07833255 0.09452095
000020 b9 a4 e5 3c 87 34 23 3e 3c 5e 49 3d 3a 50 d4 bc
       0.028032647 0.15938006 0.049162135 -0.025917161
000030 7d 2e b1 bd 8f c6 00 3b 9a cb 30 3d fb 36 4f 3d
       -0.08651445 0.00196496 0.04316292 0.050589543
000040 93 9c bc bd 20 b9 7d bc 1f df 9d bd 1a 42 af ba
       -0.09209552 -0.015486032 -0.077085726 -0.001337114
000050 2c 34 3c 3d 58 be 54 3e 97 df f0 bd ac 79 b4 bd
       0.045948192 0.20775735 -0.117613964 -0.088122696
000060 bb 96 b4 bb 44 e1 bd 3d 6b cf f6 3c d8 0d 11 bd
       -0.0055111325 0.09271482 0.030128201 -0.035413593
000070 90 e2 1d 3d c3 79 9f bd 27 db 8e 3d ef 01 22 bd
       0.038546145 -0.07786896 0.06975394 -0.039552625
000080 0a 7f 3f 3e 37 46 70 3c 8d 99 48 3d d9 07 74 bd
       0.18700805 0.014665178 0.048974562 -0.059577797
000090 df c4 b5 bd 0f f2 70 3d d6 cd 92 bd 7a 0f 7d 3e
       -0.08875441 0.058824595 -0.07168166 0.24712935
0000a0 1c 4d 1c 3c 40 10 a1 3e 4d e9 d0 3d 16 74 67 3b
       0.009539869 0.3145771 0.102007486 0.0035316995
0000b0 05 7a af bd dc bf 80 3d 34 b7 84 3d 52 38 cf bd
       -0.08568195 0.06286594 0.06480256 -0.10118164
0000c0 37 6e 87 3b d4 fc 90 bc 1b 2f 99 bd 8b 85 ca bd
       0.0041330117 -0.017698683 -0.07479688 -0.098887525
0000d0 b6 d8 20 3c a4 dc 89 bd f1 96 e5 3d 1b f0 ea 3d
       0.009817293 -0.06731537 0.112104304 0.11471578
0000e0 b3 5a 63 bd 16 dc f7 3b 75 ff 7e 3e 3f b2 3d bd
       -0.05550642 0.007564078 0.24902137 -0.046312567
0000f0 03 10 7e 3d f7 75 8d bd 09 89 da 3b 2b 11 a5 3e
       0.06202699 -0.06907266 0.006669168 0.3223966
000100 f7 90 7c 3c 95 65 fa bc 00 25 2b bd 04 dd cb 3c
       0.015415422 -0.030566016 -0.041783333 0.024885662
000110 bb 3e 92 bd ee 16 49 bd dd b2 c7 bd bb 4b 99 3c
       -0.07140871 -0.049094133 -0.09750912 0.018712869
000120 31 56 97 bc 84 a5 99 bd e4 c0 e0 bc 7d 9d 30 3e
       -0.018473716 -0.07502273 -0.027435727 0.17247577
000130 4a 30 d3 3b 4b b3 99 bd 77 7c e0 bc fe 60 2f bd
       0.0064449655 -0.075049005 -0.0274031 -0.04281711
000140 58 d9 56 bd c3 3b e9 bc 7a 03 76 bb 37 e0 48 bd
       -0.05245337 -0.02847088 -0.0037538693 -0.049041953
000150 7d 84 62 bd 2a 62 f8 bc 63 33 34 3c 51 ed 64 3d
       -0.055302132 -0.030320246 0.01099858 0.055890385
000160 76 37 c1 bc d2 24 a5 3c 3f c3 36 bd f8 d5 d7 3d
       -0.023586016 0.020159159 -0.044619795 0.10538858
000170 a5 1d 67 bd a1 73 98 bd 85 fc ca 3b 37 94 9f bd
       -0.056424756 -0.074439295 0.0061946535 -0.077919416
000180 b4 68 e0 bc 8b cd 23 bd cd 50 84 3c 9d db 09 3e
       -0.027393676 -0.039990943 0.01615181 0.13462682
000190 41 57 1c bd a7 b3 c6 3d 12 61 5b bd 44 49 b7 3e
       -0.03816915 0.09702235 -0.05355937 0.35798085
0001a0 23 08 8f bd 42 1a 93 bc 04 16 ae bd 36 0c 0b bd
       -0.06983974 -0.017956857 -0.08500293 -0.033947192
0001b0 93 5d b1 3b dd f7 33 bd 32 b1 f1 3d 6d e6 fe bc
       0.0054127662 -0.043937553 0.118013754 -0.031115735
0001c0 1d d8 1c 3d fa 25 6a 3d 61 28 92 bd 4c a1 08 3d
       0.03829204 0.057165124 -0.07136608 0.03335695
0001d0 42 8b 7c 3d 0d fe dc bd 71 f2 8e 3d 16 2f 50 bd
       0.061656244 -0.10790644 0.06979836 -0.050826155
0001e0 a3 c6 96 bd 42 72 3a bd 1e 8f 25 3e 0c 4c 0a 3d
       -0.07362106 -0.04551912 0.16167876 0.03376393
0001f0 c5 66 06 3d e1 52 80 3d 61 19 50 3e 14 ca a6 3d
       0.032812852 0.06265808 0.20322181 0.08144012

8.weight f4 [49, 128]
000000 6a 3a a1 3d a3 21 b4 bd f3 ec 90 bc 9f db 3a 3d
       0.0787247 -0.08795478 -0.017691111 0.045619603
000010 3b 33 0f be ff b6 be 3d d5 3e 47 be d3 f2 c8 3d
       -0.13984387 0.093122475 -0.19457562 0.0981194
000020 75 91 31 be 01 36 1d be a3 42 ce bd 95 29 4e 3c
       -0.17340644 -0.15352632 -0.10071304 0.012583156
000030 b9 33 63 bb ff 42 48 bb ba 2e 16 3d 73 35 f5 3b
       -0.003466828 -0.003055751 0.036665656 0.0074831783
000040 28 63 07 3d 78 88 68 3d dc f1 5e 3c 9f c4 81 3d
       0.033053547 0.05677077 0.013607468 0.063363306
000050 ac 8a 82 3d e4 44 66 bd eb d0 b7 bd f7 f3 b9 3d
       0.06374106 -0.056218043 -0.08975395 0.09079736
000060 4a b5 57 bd 24 50 07 3d f5 ba 8f 3d 7e be 47 bc
       -0.052663125 0.033035412 0.07018081 -0.012191413
000070 44 cd 6e bd c6 35 06 3c 81 19 ae 3d 97 56 83 3d
       -0.058301225 0.0081915315 0.08500958 0.06413
000080 c2 15 c4 bd 3b 6b a6 3d 14 10 94 3c 10 f2 a4 3d
       -0.095744625 0.08125921 0.018074073 0.08053982
000090 e7 87 aa bd bb d8 4c bc 2d d3 02 3d 2a 20 3f be
       -0.083267026 -0.012502844 0.031939674 -0.18664613
0000a0 4d c1 cd 3b 58 55 62 be 82 36 10 bd 19 2a c7 bc
       0.0062791468 -0.22102869 -0.035208233 -0.024312066
0000b0 e6 d9 34 3d a1 e2 98 3d 0c bf 7c ba 60 4e 41 bc
       0.044153117 0.07465101 -0.00096415053 -0.011798471
0000c0 f8 96 fb b9 48 b9 09 3d 51 de cb bc f2 d0 21 bd
       -0.0004798693 0.033623964 -0.024886282 -0.039505906
0000d0 b7 36 64 bd f0 37 54 3d 01 34 09 bd f2 ab 9c bd
       -0.055716243 0.05181116 -0.03349686 -0.076499835
0000e0 f8 c4 87 3d 43 c8 85 3d 98 7f e5 bc d5 4a b4 bd
       0.06629366 0.065323375 -0.028014943 -0.088033356
0000f0 ec 80 9e bc fc d0 aa bd 1a 88 2a bd 0c 5b 28 be
       -0.019348584 -0.08340642 -0.041633703 -0.16440982
000100 5d 23 91 bd 88 db 9e 3d 10 8d 87 3b ca b1 05 bc
       -0.07086823 0.07756716 0.004136689 -0.008160064
000110 7d e9 f7 bc 9e 89 61 3d a2 22 dc 3d 58 84 b1 3d
       -0.030262703 0.055062883 0.10748793 0.08667821
000120 e4 df e6 bc 7e 81 05 3d 4f a3 a4 3d 5e e2 d8 bd
       -0.028182931 0.032594196 0.08038961 -0.10590051
000130 6d 95 5a bd e4 39 5c bb d7 01 a4 bc 00 38 12 3d
       -0.05336516 -0.0033603841 -0.020020409 0.035697937
000140 6b 22 10 bd 7e 1d ae 3d e4 1b 13 bd 96 fd ac bd
       -0.035189074 0.08501719 -0.03591527 -0.08446805
000150 a0 48 02 bd ed 7c 92 3d c0 ae 36 3d e7 f1 a6 bd
       -0.03180754 0.07152734 0.04460025 -0.08151608
000160 ea 88 21 3d 2a a5 5c 3d 96 c1 cb 3c ae fc 81 bd
       0.039437212 0.05386845 0.024872582 -0.06347023
000170 3d c4 79 bd 84 71 fa ba c4 b8 0c be 5c 74 ff 3c
       -0.060978163 -0.0019107317 -0.13742357 0.031183414
000180 2f d0 a7 3d b4 01 01 3d 9d b4 14 3d e2 da f2 bd
       0.08194005 0.031495765 0.03630506 -0.11858155
000190 a3 ef f4 bc 80 08 31 be d8 de 0b bd e5 e2 69 be
       -0.029899424 -0.17288399 -0.034148067 -0.2284046
0001a0 41 f7 c7 3d e4 0b 3a 3e 5f 94 5e bd b2 8d 43 3d
       0.09763957 0.18168598 -0.054340716 0.047742553
0001b0 9a 47 a8 3b f1 59 55 bd 04 1b 97 3c 10 72 85 3d
       0.0051354887 -0.052087728 0.0184455 0.06515896
0001c0 68 37 b4 bc f5 f7 1c 3d 79 48 58 3d c8 33 92 3d
       -0.021999076 0.038322408 0.05280349 0.07138783
0001d0 6e b1 f5 bc 33 9f 06 3d f4 bd e0 bd c0 67 94 3d
       -0.029991832 0.032866668 -0.10973731 0.07246351
0001e0 38 82 9d bd ce 0c 7b bd cb 30 81 be aa af 53 3c
       -0.07690853 -0.06129151 -0.2523254 0.0129203
0001f0 5c a5 0b bd 9f 89 0d be 45 8a 19 bd 01 80 c7 3d
       -0.034093246 -0.1382203 -0.03748538 0.09741212
000200 c4 14 46 3d a7 33 ca bd 44 83 17 3d b2 48 30 3b
       0.048359647 -0.09873133 0.03699042 0.0026898799
000210 27 90 55 bc a5 e1 1a 3d 43 56 1f bd c3 0a c0 3d
       -0.013034857 0.037812848 -0.038900625 0.09377053
000220 0c e4 21 be 4c f0 51 bc 25 f0 11 be 10 8f 16 bd
       -0.15809649 -0.012813639 -0.14251764 -0.03675753
000230 06 1c 4a 3d 21 94 14 3d 83 fd aa 3d e4 0d 85 3c
       0.04934313 0.03627408 0.08349135 0.016241975
000240 03 34 b2 3d 64 72 de 3c 60 9c 2a 3d df d0 e3 bc
       0.08701327 0.027154155 0.041653037 -0.027809558
000250 85 0c 1e 3d 9a d5 0f be 75 48 22 39 b7 8f 00 3e
       0.03858616 -0.14046326 0.00015476516 0.12554823
000260 51 c2 a4 bc a9 a3 96 3c 34 a3 04 3d b9 27 67 bd
       -0.020112189 0.018388586 0.032382205 -0.056434367
000270 c1 f5 44 3c 42 9b 88 3b 1e 4e 39 bd b4 00 bf bc
       0.012021483 0.004168899 -0.045240514 -0.023315765
000280 b6 d9 c7 bd 36 77 31 bc 0b d0 04 3e f5 88 65 3d
       -0.09758322 -0.010831645 0.12969987 0.056038816
000290 7d fd e7 3c e4 f2 30 bd c3 59 1e 3c b4 f9 b5 bd
       0.028319115 -0.04320039 0.009664956 -0.08885518
0002a0 82 84 37 3d 67 84 70 be 4f a5 fd bd c4 f4 89 3d
       0.044804104 -0.23488007 -0.12385046 0.067361385
0002b0 fe 1d 3b 3d 50 2e 0b bd 02 96 9e 3d 04 02 81 3d
       0.0456829 -0.033979714 0.077434555 0.062992126
0002c0 93 ed 13 bd 7b 03 16 3d b0 1d 7f bc fb 10 57 3c
       -0.03611524 0.036624413 -0.015571043 0.013126607
0002d0 6f ca 15 be 8e ff 8a bd 2d 57 d6 bc 03 23 27 bd
       -0.14628004 -0.067870244 -0.026164616 -0.040804874
0002e0 a3 26 86 bd 53 e3 29 3c 47 75 23 be 7c 78 1a be
       -0.06550338 0.01036914 -0.15962707 -0.15085024
0002f0 15 ad 62 3d 60 5c 40 ba 6b cd 59 bd 53 3a c8 bd
       0.055340845 -0.00073379837 -0.053174417 -0.097767495
000300 cb 72 02 bd aa f3 8b bd a1 af 81 3d df f8 ee 3b
       -0.031847756 -0.068335846 0.06332327 0.0072928513
000310 f1 6e 50 bd 72 31 36 3d 06 e4 0c 3c e1 12 c8 3d
       -0.050887052 0.04448075 0.008599287 0.09769226
000320 6c 3b a3 bd 3b d5 91 bc 21 d2 f9 3c 4c fb 4e bd
       -0.07970318 -0.017801872 0.030495705 -0.050532624
000330 78 3c b3 3d 66 b1 b2 bd 5f cc 8d bd 33 1b c9 3b
       0.08751768 -0.08725242 -0.06923746 0.0061372756
000340 f7 98 16 3d ec 71 96 bd e8 1f 25 3c 0c 6a 78 bc
       0.036766972 -0.073459476 0.010078408 -0.015162002
000350 83 1a 9f 3d ec 9e af 3c fd d2 83 3d 46 ad 05 be
       0.077687286 0.021438085 0.06436727 -0.1305438
000360 23 f6 ac 3d 6d 93 96 3d ee fe b5 bc de 9f d5 bd
       0.08445384 0.07352338 -0.022216287 -0.10430883
000370 6c a2 9d bd 84 58 62 bd 50 6a 16 be fc aa b5 3c
       -0.07696995 -0.055260196 -0.14688993 0.022176258
000380 83 fa 1a bd 82 01 db 3c 52 25 d2 bc c3 35 5f bd
       -0.037836563 0.026734117 -0.025652561 -0.05449463
000390 97 55 85 3c 1a f8 77 be 39 ab 40 3d 80 5c 32 be
       0.016276164 -0.24215737 0.04703829 -0.17418098
0003a0 a0 75 c3 3d f6 c9 d0 3d aa d7 37 3d e9 d2 ae bd
       0.095439196 0.10194771 0.044883408 -0.08536322
0003b0 f7 b3 a4 3d fe ae 32 3d 39 73 93 bd 13 3c d0 3d
       0.08042138 0.043623917 -0.07199711 0.10167708
0003c0 c3 9f 39 bc ac 1b 98 bc 59 83 95 bb 33 fa 76 3b
       -0.011329594 -0.018567882 -0.004562777 0.0037685751
0003d0 4f 71 f3 bd 44 26 fd bb 72 f0 da bc 8f de 83 bd
       -0.11886846 -0.007725509 -0.026725981 -0.06438934
0003e0 84 31 24 bd e6 e1 54 3d 3b 72 42 be 88 b3 39 3c
       -0.040086284 0.051973246 -0.18988888 0.0113343075
0003f0 0b b0 89 3c bb 39 2f be cc 6e 65 bd 7b cf dd 3c
       0.016807577 -0.17111866 -0.056013867 0.027076473
