models/snapsRandom/model_1685684005.9996722.pt (torch, 252691 bytes, 10 tensors)

0.weight f4 [128, 49]
-0.038796574 0.14434089 0.08953217 -0.17164971 0.094628125 0.039912883 -0.029415658 0.12572035
-0.008256876 -0.10378465 0.10925632 0.20507668 -0.080710106 -0.0039300104 0.050201867 -0.038527314
0.026849108 -0.06403541 -0.046864226 0.056680907 -0.0089201685 -0.050919447 0.1962058 -0.10416095
-0.026686035 -0.095935136 -0.09259272 0.09755787 0.08728423 -0.14723252 0.07517297 0.007818305
0.016579363 -0.04849344 -0.037313268 0.18866573 -0.08143581 -0.003202153 -0.21547975 -0.07388388
-0.061676297 0.066726975 0.07107568 -0.03918386 -0.053894125 0.13881843 0.11043774 -0.08464824
-0.036312953 0.008260244 -0.03329232 -0.10580172 0.011682798 0.12315378 0.0044460064 -0.028608654
0.030268101 0.07792498 -0.025683263 0.16423817 0.16077216 0.18314752 -0.12466443 -0.20336859
-0.079047255 0.033110134 0.033790514 -0.036587123 0.12933469 0.15953964 -0.017063057 0.12581778
0.13899384 -0.22052605 0.04701632 -0.024764918 -0.04555906 0.063649535 0.13841076 0.11389566
-0.12781268 -0.117069624 -0.14121789 0.07729251 -0.12158379 -0.04375646 -0.0013940552 -0.13057005
0.12867619 0.036156904 -0.0781452 0.024430253 0.032996166 -0.11909077 -0.0655562 0.103974566
-0.026108919 -0.044150323 0.06488652 -0.15559292 0.040532622 -0.138967 -0.0005563075 -0.13911645
0.10441284 0.048374817 0.12673514 0.013285012 -0.096013494 0.18264489 -0.23984511 0.12456458
-0.12369131 0.04794454 0.12939233 -0.09131983 -0.06823837 0.027849536 -0.100604616 0.08043564
-0.07676721 -0.012965557 -0.09544715 0.014081803 -0.10168262 -0.0067067607 -0.10890298 0.06436399
0.019988876 -0.073303156 0.07403707 -0.18130292 0.011724084 -0.089316756 0.02844766 -0.06869265
0.015778903 -0.11378655 -0.10108124 0.13638729 -0.05655719 0.01823565 -0.10705087 0.10077442
0.023983018 -0.11584242 0.06785504 0.059392102 0.07864728 -0.038439486 -0.08757204 0.14680032
0.062065482 -0.0037434287 0.08285277 0.09462046 0.17095715 0.07513519 -0.14866504 -0.1688287
0.08605346 0.09620139 0.11761084 0.0040689646 0.13230777 -0.025273189 -0.21683203 0.08475427
0.104094446 0.02245007 0.0017007887 0.052206162 0.011025707 -0.21321584 0.057943556 -0.024202399
-0.07643983 0.15182917 -0.024553869 -0.03868541 0.07430518 0.18063983 -0.009180784 0.11536238
-0.112226054 0.039801568 0.062163886 0.02703469 0.08285863 -0.19550054 0.15326177 -0.21958582
-0.03137521 -0.0058398955 0.094856165 0.1015378 0.032172386 -0.110896654 0.028194828 -0.12498689
-0.09107841 0.11220754 0.054704178 0.020998394 -0.062398665 0.022182198 0.15169035 -0.077856906
-0.07132439 -0.13327453 -0.06799597 -0.06923142 0.14521323 -0.037068 0.078744665 0.004168305
-0.017085206 -0.0969849 0.073612295 -0.007513759 -0.16448618 0.07976151 -0.10430453 -0.16360964
0.023183294 0.047181614 0.1244375 0.062089246 0.06738467 -0.025466828 -0.01791034 -0.06613784
0.041462667 0.078845024 0.0031869058 -0.12866776 -0.13250099 0.010122296 -0.031135837 -0.06441522
0.07164923 -0.028982958 0.041499514 0.11711805 -0.0921884 -0.03998619 0.11064047 0.08947412
-0.012023151 0.059894506 -0.02008504 0.13833602 -0.13251197 0.004882419 -0.10135325 0.02737788
00000000: 28e9 1ebd 19ce 133e a45c b73d f1c4 2fbe
00000010: 64cc c13d b17b 233d 1bf9 f0bc d6bc 003e
00000020: d947 07bc 0c8d d4bd c7c1 df3d 9fff 513e
00000030: 574b a5bd 51c7 80bb 79a0 4d3d d1ce 1dbd
00000040: a9f2 db3c ff24 83bd b4f4 3fbd 3d2a 683d
00000050: e625 12bc e990 50bd 2cea 483e 5652 d5bd
00000060: ac9c dabc a479 c4bd 41a1 bdbd 6ccc c73d
00000070: 13c2 b23d 1fc4 16be 49f4 993d 5918 003c
00000080: 72d1 873c 0fa1 46bd ccd5 18bd 9731 413e
00000090: d1c7 a6bd 36db 51bb b9a6 5cbe 6f50 97bd
000000a0: 49a0 7cbd 27a8 883d 2090 913d 417f 20bd
000000b0: 16c0 5cbd 6b26 0e3e 2f2d e23d 0e5c adbd
000000c0: e4bc 14bd f955 073c 875d 08bd 92ae d8bd
000000d0: 3569 3f3c 0d38 fc3d ceaf 913b b25c eabc
000000e0: cff4 f73c 2297 9f3d b565 d2bc 0d2e 283e
000000f0: 75a1 243e 068b 3b3e 1150 ffbd db3f 50be
00000100: 87e3 a1bd 7e9e 073d ec67 0a3d 61dc 15bd
00000110: 5070 043e 5c5e 233e d3c7 8bbc 60d6 003e
00000120: 6754 0e3e 95d1 61be 2f94 403d ccdf cabc
00000130: 239c 3abd b05a 823d 8dbb 0d3e 2142 e93d
00000140: 54e1 02be 33c2 efbd 6c9b 10be 894b 9e3d
00000150: ec00 f9bd f939 33bd bbb8 b6ba 28b4 05be
00000160: b1c3 033e 4319 143d 970a a0bd f421 c83c
00000170: fd26 073d dde5 f3bd 5442 86bd 9ef0 d43d
00000180: 5fe2 d5bc f8d6 34bd 39e3 843d c053 1fbe
00000190: 8905 263d 5e4d 0ebe 2ad5 11ba 8b74 0ebe
000001a0: 66d6 d53d ac24 463d dbc6 013e 61a9 593c
000001b0: b9a2 c4bd 4307 3b3e f599 75be b71b ff3d
000001c0: df51 fdbd 7e61 443d 6c7f 043e e405 bbbd
000001d0: 8fc0 8bbd b624 e43c cb09 cebd 71bb a43d
000001e0: 2138 9dbd 7d6d 54bc cc79 c3bd 5db7 663c
000001f0: fa3e d0bd 63c4 dbbb 8708 dfbd 45d1 833d
00000200: b6bf a33c f71f 96bd bfa0 973d 79a7 39be
00000210: 5f16 403c b4eb b6bd 110b e93c bbae 8cbd
00000220: c242 813c ec08 e9bd ae03 cfbd 1ca9 0b3e
00000230: 83a8 67bd ee62 953c 7d3d dbbd d262 ce3d
00000240: 0978 c43c ca3e edbd 95f7 8a3d 2245 733d
00000250: d311 a13d b972 1dbd f858 b3bd d352 163e
00000260: 6038 7e3d 5054 75bb b7ae a93d 5fc8 c13d
00000270: 640f 2f3e 7ae0 993d a63b 18be 6ee1 2cbe
00000280: cc3c b03d 3c05 c53d f4dd f03d f354 853b
00000290: b07b 073e b809 cfbc 3709 5ebe a693 ad3d
000002a0: 782f d53d 36e9 b73c 00ed de3a 21d6 553d
000002b0: 2ba5 343c 4155 5abe 3956 6d3d 1c44 c6bc
000002c0: 7c8c 9cbd 1b79 1b3e 3225 c9bc 9874 1ebd
000002d0: 502d 983d a6f9 383e 006b 16bc 1d43 ec3d
000002e0: c6d6 e5bd f806 233d 8f9f 7e3d db77 dd3c
000002f0: c9b1 a93d 4b31 48be a7f0 1c3e 1bdb 60be
00000300: 4b83 00bd 985c bfbb f343 c23d 0df3 cf3d
00000310: 31c7 033d c91d e3bd d7f8 e63c 20f9 ffbd
00000320: 5187 babd 11cd e53d 7d11 603d d304 ac3c
00000330: be95 7fbd 71b7 b53c b754 1b3e 7173 9fbd
00000340: 8612 92bd 1e79 08be 7941 8bbd 34c9 8dbd
00000350: c7b2 143e 9dd4 17bd e244 a13d 4796 883b
00000360: 46f6 8bbc 05a0 c6bd 0bc2 963d fb35 f6bb
00000370: 116f 28be 015a a33d 9d9d d5bd 4989 27be
00000380: e4ea bd3c 8241 413d 17d9 fe3d 4b51 7e3d
00000390: f900 8a3d cf9f d0bc b5b8 92bc 4773 87bd
000003a0: c2d4 293d 8079 a13d 68db 503b 7bc1 03be
000003b0: 57ae 07be fdd7 253c 9510 ffbc 20ec 83bd
000003c0: d5bc 923d ab6d edbc 65fb 293d 97db ef3d
000003d0: 46cd bcbd 8fc8 23bd 7997 e23d 353e b73d
000003e0: c0fc 44bc f153 753d 6289 a4bc f5a7 0d3e
000003f0: 38b1 07be b3fc 9f3b 4b92 cfbd 9347 e03c

0.bias f4 [128]
-0.090531126 0.19282112 -0.009264826 -0.06748824 -0.07844525 0.10012954 -0.12027409 0.35602468
0.17148082 -0.29124123 0.20873584 0.22365424 0.060943037 -0.15268509 0.36190155 0.11951863
-0.10489103 -0.2785666 -0.10810307 0.26421624 -0.027983792 -0.16462184 -0.18479839 -0.12681192
-0.06828144 0.04595608 0.08152745 0.36123332 -0.19154716 0.28734028 0.1650712 -0.2315545
-0.0926554 -0.27381504 -0.052044302 -0.15682887 0.07658425 -0.12562774 0.008516754 -0.115724675
-0.14693682 -0.18415293 0.008354797 -0.17564869 -0.1183749 -0.108288825 0.08213958 -0.030232914
-0.17693 0.14546643 -0.047910288 -0.119328775 -0.20730224 -0.030530304 -0.043795735 -0.034225624
0.1442893 0.041876867 0.02564941 -0.12744494 -0.06504537 -0.06903815 -0.1557289 -0.117801026
0.05696224 0.033658046 -0.06148204 -0.16215384 -0.1570723 -0.11495249 0.19126542 -0.14124985
0.07823615 -0.17370585 -0.041140758 -0.16005501 -0.08282034 -0.06760263 -0.04770411 0.012447687
-0.15921886 -0.053754605 -0.057691883 0.045052487 -0.10569874 -0.117046066 0.109592736 -0.01635473
-0.13428414 -0.061541222 0.040391315 -0.1000283 -0.12595952 -0.2794427 0.024594476 -0.20991057
-0.07215885 -0.11157858 0.40805447 -0.053709365 0.08862036 -0.13014789 -0.1577437 -0.09600962
-0.2793846 -0.046704743 0.17604768 -0.10766461 -0.05486722 -0.23401506 -0.11522742 -0.24021703
-0.075309955 -0.27465093 0.21906899 -0.21552661 1.544573e-05 0.08045892 -0.14195742 -0.13169493
0.043429412 -0.070475936 -0.107718974 -0.23825775 0.03410969 -0.20822473 -0.022694046 0.05054824
00000000: 6268 b9bd e672 453e 7fcb 17bc 4637 8abd
00000010: e7a7 a0bd b710 cd3d 4352 f6bd de48 b63e
00000020: ab98 2f3e 921d 95be d9be 553e 9e05 653e
00000030: 689f 793d 7b59 1cbe 294b b93e 2fc6 f43d
00000040: 1cd1 d6bd 48a0 8ebe 2465 ddbd 5a47 873e
00000050: 443e e5bc a192 28be ca3b 3dbe fcda 01be
00000060: 24d7 8bbd 713c 3c3d ddf7 a63d 93f3 b83e
00000070: f024 44be 441e 933e 6d08 293e 9f1c 6dbe
00000080: 1dc2 bdbd 7c31 8cbe 682c 55bd bf97 20be
00000090: 34d8 9c3d 8fa4 00be db89 0b3c 0f01 edbd
000000a0: 9b76 16be 9692 3cbe 8fe2 083c 40dd 33be
000000b0: 8a6e f2bd 88c6 ddbd cc38 a83d 04ab f7bc
000000c0: 232d 35be 27f5 143e 943d 44bd a562 f4bd
000000d0: 0a47 54be b01a fabc 2863 33bd 2b30 0cbd
000000e0: 93c0 133e 1487 2b3d b61e d23c ed80 02be
000000f0: 8236 85bd e063 8dbd 6677 1fbe aa41 f1bd
00000100: 3d51 693d 05dd 093d 97d4 7bbd a80b 26be
00000110: 90d7 20be 366c ebbd 15db 433e cda3 10be
00000120: 463a a03d f2df 31be 3683 28bd 76e5 23be
00000130: b69d a9bd 3f73 8abd 6365 43bd 62f1 4b3c
00000140: 450a 23be ca2d 5cbd 534e 6cbd f588 383d
00000150: 9578 d8bd d9b5 efbd 2872 e03d 5bfa 85bc
00000160: c881 09be a612 7cbd 5d71 253d a3db ccbd
00000170: 88fb 00be 1d13 8fbe 5b7a c93c ccf2 56be
00000180: 05c8 93bd 5083 e4bd 84ec d03e 5afe 5bbd
00000190: 977e b53d 7d45 05be 9187 21be b1a0 c4bd
000001a0: 800b 8fbe 794d 3fbd d845 343e 437f dcbd
000001b0: 73bc 60bd a5a1 6fbe 5bfc ebbd 74fb 75be
000001c0: 1b3c 9abd 0c9f 8cbe 9f53 603e 02b3 5cbe
000001d0: 7491 8137 a5c7 a43d 495d 11be 09db 06be
000001e0: 0ae3 313d b055 90bd c49b dcbd d7f9 73be
000001f0: 9ab6 0b3d dd38 55be dde8 b9bc ac0b 4f3d

2.weight f4 [128, 128]
0.04054473 -0.0140426885 -0.030611278 -0.061415564 0.067473054 -0.014819555 -0.047915485 0.0046017095
-0.0028862478 -0.031048195 0.0064265053 0.05264113 -0.002616542 -0.04583172 0.065188214 -0.06171248
-0.06198005 -0.039876048 -0.08753426 0.023125403 0.07540536 -0.076848835 0.044422 0.0044220746
-0.011489324 -0.06348246 -0.043260567 -0.04059788 0.024879342 0.028645938 -0.080213815 -0.018266616
-0.01267722 -0.0054838904 -0.06142459 0.040914495 0.0055229478 -0.04960763 -0.057010822 -0.012908764
0.018846942 -0.064901814 0.0035016534 -0.035884473 -0.007943155 0.011181936 0.019784726 0.006611385
-0.050775353 -0.08025532 0.03675844 0.07488148 -0.051540673 -0.05226661 0.008887506 -0.01587866
0.08718221 0.07528026 0.0129749365 0.08787484 0.08191073 -0.00786182 0.06356974 -0.08915716
-0.026506789 0.059651215 -0.056644488 -0.007942311 -0.07182957 0.085261725 0.048461206 -0.05094133
0.07840863 -0.04992313 0.0649599 -0.004893276 -0.015755914 0.06288497 -0.082095556 -0.044831052
0.0037392657 -0.08368809 0.01626795 -0.07630362 -0.061727624 0.031836886 -0.021167722 0.07787364
-0.077044725 0.0706437 0.05136775 -0.011157671 0.047359217 -0.07702749 -0.081837155 -0.057679452
-0.07309095 -0.07573472 0.026787722 0.08569346 -0.0048680915 -0.036766924 -0.056926202 -0.022945303
0.051851686 -0.04845784 -0.0453753 -0.07986198 0.02149038 0.07095284 0.042835552 0.07811842
0.056634285 -0.0022195668 -0.06549004 0.08145198 -0.05652565 0.08705964 -0.053169258 0.004988233
0.012966745 0.054450482 0.0013571255 -0.077504314 0.00094447087 0.080453284 0.010879062 0.04503889
-0.02821163 -0.0568212 0.05368529 0.04843856 -0.02004049 -0.025205135 -0.036516085 0.015248054
0.067920454 -0.08246056 -8.71357e-05 0.008230334 -0.005814564 0.054496914 0.028761376 0.07099185
-0.045098092 -0.014719541 -0.014677469 -0.04853469 -0.03740774 -0.030621912 -0.026646389 -0.04395248
0.013516781 -0.08371722 0.07723708 -0.03323723 0.0639713 0.00082932704 -0.07411482 -0.08736945
-0.016039837 0.04728742 0.009877311 0.059934806 -0.053581584 -0.08204382 -0.08319979 0.022105077
0.04429636 -0.03746304 0.017757325 -0.073186725 -0.01463669 0.070046276 -0.02738427 0.07258646
-0.054241177 -0.049096327 0.07600603 0.07240792 0.019015118 -0.02000782 0.036933627 0.026509069
-0.04135498 -0.06931695 -0.008803265 -0.040927622 -0.033545457 0.0135946665 0.074324004 0.06873921
0.067724526 0.03307073 0.028711317 -0.02315192 0.007571972 -0.009028283 -0.07133866 0.08375538
0.061391447 0.009773193 0.04456153 0.039825365 0.06728545 0.049230706 -0.020000895 -0.020586897
-0.053364918 0.006324004 0.07204787 -0.081014186 0.021762934 -0.04866702 0.06891871 -0.08127146
0.012167406 0.05012292 -0.0280523 0.008255098 0.030697495 -0.0020634744 -0.032821774 0.08438586
-0.082635 -0.057501543 -0.028140344 0.0059615416 -0.018838234 0.012818202 -0.015088367 -0.047524955
0.009126532 0.058278088 0.039367512 0.021804878 -0.060354084 0.05057147 -0.013649528 0.0576416
-0.034308277 -0.06833138 0.06376555 -0.013561578 -0.029867431 0.0390885 0.0005071101 -0.031513873
-0.009680658 -0.0032104838 0.009470217 0.06429484 -0.03943957 -0.029180951 -0.0033285802 0.0020792221
00000000: 3b12 263d 4e13 66bc 81c4 fabc e38e 7bbd
00000010: 502f 8a3d b8cd 72bc 0743 44bd f0c9 963b
00000020: 3427 3dbb c958 febc 6f95 d23b 3a9e 573d
00000030: 4a7a 2bbb 0bba 3bbd 6681 853d 3ac6 7cbd
00000040: cbde 7dbd 1155 23bd 2945 b3bd 7c71 bd3c
00000050: 206e 9a3d ec62 9dbd d8f3 353d 0de7 903b
00000060: b83d 3cbc 1803 82bd fe31 31bd f649 26bd
00000070: c3cf cb3c e3aa ea3c 2447 a4bd dfa3 95bc
00000080: 1db4 4fbc 35b2 b3bb 5a98 7bbd f595 273d
00000090: d8f9 b43b 5f31 4bbd 2e84 69bd 487f 53bc
000000a0: e764 9a3c 3eeb 84bd ff7b 653b 99fb 12bd
000000b0: 0224 02bc 7034 373c 9413 a23c 51a4 d83b
000000c0: d1f9 4fbd e75c a4bd 0590 163d 765b 993d
000000d0: 501c 53bd 8315 56bd e79c 113c f713 82bc
000000e0: 968c b23d 892c 9a3d d494 543c b9f7 b33d
000000f0: d0c0 a73d ddce 00bc da30 823d 0798 b6bd
00000100: c424 d9bc d554 743d 0d04 68bd 7720 02bc
00000110: 621b 93bd b39d ae3d 427f 463d dba7 50bd
00000120: b494 a03d 327c 4cbd b209 853d c657 a0bb
00000130: 8c12 81bc d6c9 803d b721 a8bd c4a0 37bd
00000140: 780e 753b a964 abbd 5d44 853c 1345 9cbd
00000150: 1bd6 7cbd 6567 023d ee67 adbc 377c 9f3d
00000160: a0c9 9dbd a5ad 903d fd66 523d aace 36bc
00000170: bdfb 413d 97c0 9dbd 3d9a a7bd 4a41 6cbd
00000180: b5b0 95bd ce1a 9bbd ed71 db3c 0e80 af3d
00000190: 8384 9fbb ea98 16bd 732b 69bd caf7 bbbc
000001a0: 6f62 543d ba7b 46bd 73db 39bd ae8e a3bd
000001b0: 980c b03c b94f 913d 5574 2f3d 8dfc 9f3d
000001c0: 5af9 673d 2776 11bb a41f 86bd 4cd0 a63d
000001d0: 7187 67bd 534c b23d 02c8 59bd 5574 a33b
000001e0: 7872 543c 7807 5f3d 93e1 b13a 95ba 9ebd
000001f0: 5e96 773a b1c4 a43d 183e 323c b37a 383d
00000200: 141c e7bc 59bd 68bd 1be5 5b3d 8367 463d
00000210: f42b a4bc 007b cebc e491 15bd f9d2 793c
00000220: e119 8b3d 15e1 a8bd 9fbc b6b8 86d8 063c
00000230: 1988 bebb 2838 5f3d fa9c eb3c 2d64 913d
00000240: c7b8 38bd 3b2a 71bc c479 70bc 50cc 46bd
00000250: dc38 19bd ceda fabc 8749 dabc 8407 34bd
00000260: 7d75 5d3c ef73 abbd 792e 9e3d c323 08bd
00000270: 6303 833d 3267 593a 83c9 97bd c1ee b2bd
00000280: fa65 83bc 74b0 413d 72d4 213c 337e 753d
00000290: 5d78 5bbd 9706 a8bd a764 aabd b515 b53c
000002a0: 1a70 353d d872 19bd cf77 913c ece2 95bd
000002b0: bace 6fbc 6c74 8f3d fa54 e0bc 36a8 943d
000002c0: ff2b 5ebd 3b19 49bd 0da9 9b3d 9b4a 943d
000002d0: 98c5 9b3c 71e7 a3bc b747 173d 8c29 d93c
000002e0: d763 29bd 0cf6 8dbd 923b 10bc b9a3 27bd
000002f0: f666 09bd 2abc 5e3c 2f37 983d 25c7 8c3d
00000300: 28b3 8a3d 2c75 073d ff33 eb3c 18a9 bdbc
00000310: 4e1e f83b 5deb 13bc 011a 92bd f187 ab3d
00000320: 9975 7b3d be1f 203c 2786 363d ec1f 233d
00000330: f4cc 893d 23a6 493d ebd8 a3bc daa5 a8bc
00000340: 2c95 5abd 9739 cf3b d58d 933d c4ea a5bd
00000350: 2e48 b23c 1257 47bd 4125 8d3d a771 a6bd
00000360: cd59 473c b14d 4d3d f0cd e5bc 6440 073c
00000370: 5079 fb3c 5b3b 07bb 2070 06bd 7ed2 ac3d
00000380: 8a3c a9bd bd86 6bbd 9486 e6bc 0959 c33b
00000390: a452 9abc 7003 523c 3335 77bc 87a9 42bd
000003a0: 7387 153c 01b5 6e3d d43f 213d 25a0 b23c
000003b0: d835 77bd 0824 4f3d 45a2 5fbc 9919 6c3d
000003c0: d686 0cbd 53f1 8bbd 8397 823d 6131 5ebc
000003d0: 8bac f4bc 431b 203d 95ef 043a b114 01bd
000003e0: 9f9b 1ebc fb66 52bb f828 1b3c 03ad 833d
000003f0: 638b 21bd e40c efbc 4f24 5abb 8f43 083b

2.bias f4 [128]
0.05300978 -0.046997815 -0.047751896 -0.030137023 0.013045121 -0.102119885 -0.04662963 0.0235911
0.013534395 -0.061694745 0.035705056 -0.07607614 -0.05906816 -0.015851961 -0.013541232 0.11800149
0.089511216 0.022736417 -0.0659183 -0.0135794915 0.03684855 -0.09813113 -0.0050058146 0.008296444
-0.061190482 -0.013447567 -0.16488615 0.018225111 -0.03514224 0.0025990724 0.023707144 -0.04376433
0.08592475 0.06477072 -0.115208596 -0.06666387 0.006671124 -0.038873114 -0.1851731 -0.10821746
-0.0182175 -0.062364724 -0.014835643 -0.09782844 0.02770782 0.11829819 0.1303087 -0.006995648
-0.06331156 -0.007824042 0.05149795 0.04269806 0.021515891 -0.04012017 -0.032101385 0.0246017
0.015351009 -0.02890755 0.034411445 -0.035756104 -0.06610745 0.013705546 0.058701918 0.05310786
-0.057251506 0.07351436 -0.032188915 0.029870523 0.065148704 -0.19382605 -0.011215381 0.07641045
-0.08595701 0.08226709 0.002269432 0.043241553 -0.01432946 -0.17176205 0.07098572 -0.028975395
-0.0547449 0.07136659 -0.020888168 0.011906335 -0.18696444 0.11825308 0.10795676 0.0072666616
0.08453963 -0.13791105 -0.07044064 0.03380297 -0.017658971 0.005385253 -0.0035905887 0.1157334
0.03550928 0.09753693 -0.04383531 0.10720335 0.07432434 0.039956447 -0.062057305 -0.029954987
0.057420284 0.12553783 -0.09029607 -0.009665221 0.023982858 -0.10330774 -0.08451196 0.023085887
-0.04487617 -0.0844429 -0.06408034 0.07295063 -0.07735669 0.11237346 0.036662754 -0.024394026
0.01361307 0.13330357 0.12633407 -0.01694749 0.07415175 0.050914828 -0.015715776 -0.063173585
00000000: c820 593d c880 40bd 7e97 43bd ebe1 f6bc
00000010: 34bb 553c 3b24 d1bd b6fe 3ebd 1f42 c13c
00000020: 5ebf 5d3c a1b3 7cbd 773f 123d cfcd 9bbd
00000030: 74f1 71bd f9db 81bc 0bdc 5dbc c4aa f13d
00000040: a851 b73d b941 ba3c 2c00 87bd 847c 5ebc
00000050: 81ee 163d f9f8 c8bd d107 a4bb cfed 073c
00000060: dfa2 7abd 2f53 5cbc ead7 28be d44c 953c
00000070: 4ff1 0fbd 3355 2a3b 7c35 c23c 3a42 33bd
00000080: 51f9 af3d 83a6 843d 7cf2 ebbd 1187 88bd
00000090: 7299 da3b 6a39 1fbd 049e 3dbe 1ea1 ddbd
000000a0: de3c 95bc 2772 7fbd 3211 73bc 475a c8bd
000000b0: 83fb e23c 5246 f23d a56f 053e c03b e5bb
000000c0: 7ea9 81bd 6930 00bc 84ef 523d 29e4 2e3d
000000d0: 1842 b03c 0c55 24bd be7c 03bd 8189 c93c
000000e0: cc82 7b3c 87cf ecbc 04f3 0c3d fe74 12bd
000000f0: 5863 87bd 3a8d 603c 6c71 703d a187 593d
00000100: 8e80 6abd b28e 963d 86d8 03bd 07b3 f43c
00000110: af6c 853d 567a 46be b8c0 37bc 157d 9c3d
00000120: 3b0a b0bd a67b a83d c0ba 143b 0e1e 313d
00000130: 1dc6 6abc 64e2 2fbe f660 913d cf5d edbc
00000140: 303c 60bd a628 923d aa1d abbc ca12 433c
00000150: 9b73 3fbe ac2e f23d 6f18 dd3d 2d1d ee3b
00000160: 1d23 ad3d 8e38 0dbe 2f43 90bd fc74 0a3d
00000170: 8ca9 90bc c776 b03b 1550 6bbb a205 ed3d
00000180: 2e72 113d 71c1 c73d a78c 33bd 6e8d db3d
00000190: 5c37 983d 5fa9 233d cd2f 7ebd 2964 f5bc
000001a0: 8831 6b3d fd8c 003e 25ed b8bd e05a 1ebc
000001b0: b377 c43c 0293 d3bd 9b14 adbd 9d1e bd3c
000001c0: 13d0 37bd 66f0 acbd 8e3c 83bd 2467 953d
000001d0: 2f6d 9ebd 0e24 e63d af2b 163d fbd5 c7bc
000001e0: 5b09 5f3c bb80 083e b85d 013e 76d5 8abc
000001f0: dfdc 973d 118c 503d 5fbe 80bc 2761 81bd

4.weight f4 [128, 128]
0.047891676 0.02445571 -0.037241176 0.050553955 0.0013109824 -0.04954332 0.006722358 -0.009038722
0.026027719 0.013636401 0.06780605 0.0067808875 0.007893106 -0.006917039 -0.061716978 0.043406542
0.074091986 -0.038204245 -0.05785222 -0.03418831 -0.0033282966 0.07202171 -0.016148038 0.081148416
0.07143884 -0.070367225 -0.08723314 -0.009058069 -0.011443572 0.011509117 -0.008658851 -0.038952705
0.015274396 -0.043860003 0.04774309 0.06293468 -0.0725429 -0.06669889 0.06713509 -0.019774893
0.035869285 -0.0847329 -0.05293622 -0.06929285 -0.030818623 -0.06684927 -0.03182859 0.0061996253
-0.034073386 0.043701537 -0.034067918 -0.06794771 -0.023046525 0.047750823 -0.017348895 -0.04594995
-0.03281187 0.0702504 -0.0717972 -0.048865166 -0.07462523 0.07483833 -0.04801449 0.07893643
-0.019945145 -0.056621764 -0.04338286 -0.06887414 0.013430672 -0.033455748 0.078761965 0.007982149
0.015930627 -0.04073201 -0.027298307 -0.04801376 0.025849713 0.04256587 -0.05641727 0.03910741
-0.084807895 0.05186114 0.046222635 -0.024832008 0.017360967 -0.060909282 -0.016832365 0.023343956
0.043169655 -0.071296036 -0.073607385 0.06916282 0.030977326 0.07647988 -0.078494005 -0.04111923
-0.03741884 -0.01582083 0.008215723 -0.018250892 0.047063615 -0.05331178 0.07514844 -0.043352075
0.04860719 0.07257964 -0.07817362 0.024509938 0.020397408 0.08065749 0.049241573 -0.08686056
-0.031854462 -0.06929535 -0.04670401 -0.026489008 0.033581365 -0.08543366 0.005376061 -0.080053434
-0.017003676 -0.083606794 -0.060332995 -0.038623348 0.035343647 -0.0492438 -0.052306473 0.038765732
-0.04531396 0.032426886 0.08713547 0.075578235 -0.024534158 0.044406347 -0.024305426 0.060049545
-0.0030602727 0.00565457 -0.08660582 0.0722047 0.05920705 -0.012696568 -0.044505112 -0.034052394
-0.07764209 -0.05718607 0.041798487 -0.05763803 0.03334218 -0.04687397 -0.042699292 -0.08435893
0.006591606 -0.031702336 -0.040297996 -0.00025878864 -0.04929815 0.014521193 0.059184235 -0.03763473
0.022292713 -0.030408489 0.016871443 -0.07256223 -0.053564724 -0.038916014 -0.0063633504 -0.016695157
-0.02619553 0.049195964 -0.063922234 0.08761065 0.018105537 -0.0038831923 0.06572779 0.06305443
-0.019221606 0.020437263 -0.038013816 0.04898648 0.056282382 0.019402862 0.006520077 -0.0329567
-0.03418241 0.061908446 0.022379084 0.03516125 -0.008963646 -0.010572216 0.06048346 -0.06926008
0.014087621 -0.022040328 -0.029039506 -0.08067579 0.055276066 -0.07108741 -0.02866375 0.011509169
0.045524552 -0.0925508 0.04100342 -0.039076973 0.029596185 -0.082783714 -0.077073105 0.079466805
0.028413603 0.010039321 0.042152397 0.07005437 0.054652378 0.017749054 -0.074663386 0.08191279
-0.018601473 -0.012636694 0.018539067 0.0674797 -0.015253338 -0.040307026 0.050188284 0.057940304
0.025189111 0.006335553 0.0023117184 0.0156017095 -0.07555776 -0.046861306 0.035599634 0.023160867
0.032892197 0.0037463591 -0.052934825 -0.0416665 -0.020064654 -0.061060566 0.07890602 -0.054596215
0.011467719 0.08834373 -0.073101684 -0.08401283 0.036285285 0.046199042 -0.040538557 0.03881529
0.062359314 -0.041417997 0.06800194 0.0049140938 -0.019022608 0.032411586 0.044999827 0.07849742
00000000: 102a 443d 5757 c83c 348a 18bd aa11 4f3d
00000010: 45d5 ab3a f0ed 4abd 3a47 dc3b 2617 14bc
00000020: 1538 d53c 366b 5f3c e6dd 8a3d 3532 de3b
00000030: 1652 013c 54a8 e2bb f1ca 7cbd 0fcb 313d
00000040: 8abd 973d 0e7c 1cbd 73f6 6cbd 0b09 0cbd
00000050: 8d1f 5abb 1e80 933d e448 84bc 2431 a63d
00000060: 874e 923d b11c 90bd 4aa7 b2bd 4c68 14bc
00000070: d27d 3bbc bc90 3c3c dadd 0dbc df8c 1fbd
00000080: 7641 7a3c 8ca6 33bd 428e 433d e6e3 803d
00000090: 5f91 94bd 6d99 88bd 1f7e 893d f5fe a1bc
000000a0: aceb 123d 7188 adbd a6d3 58bd 69e9 8dbd
000000b0: 5677 fcbc 45e8 88bd b25e 02bd 3a26 cb3b
000000c0: 8990 0bbd 6200 333d cd8a 0bbd 2b28 8bbd
000000d0: 11cc bcbc 5e96 433d 451f 8ebc 0436 3cbd
000000e0: bd65 06bd 71df 8f3d 690a 93bd d726 48bd
000000f0: 1dd5 98bd d744 993d d8aa 44bd 6ca9 a13d
00000100: 0064 a3bc 39ec 67bd 3ab2 31bd e30d 8dbd
00000110: 520c 5c3c e508 09bd f44d a13d 8fc7 023c
00000120: f280 823c 9cd6 26bd b3a0 dfbc 14aa 44bd
00000130: c7c2 d33c 8d59 2e3d cc15 67bd 172f 203d
00000140: c3af adbd 596c 543d f253 3d3d 7f6c cbbc
00000150: 9638 8e3c 037c 79bd 07e4 89bc d33b bf3c
00000160: aad2 303d a803 92bd 78bf 96bd 3da5 8d3d
00000170: 29c4 fd3c 7ca1 9c3d 77c1 a0bd a36c 28bd
00000180: 7f44 19bd af9a 81bc 3d9b 063c e582 95bc
00000190: c7c5 403d 745d 5abd 6de7 993d f291 31bd
000001a0: 5518 473d a2a4 943d 7e19 a0bd 11c9 c83c
000001b0: 7718 a73c c12f a53d 88b1 493d f3e3 b1bd
000001c0: d379 02bd b8ea 8dbd b44c 3fbd 7aff d8bc
000001d0: 9d8c 093d d8f7 aebd ab29 b03b 0ef3 a3bd
000001e0: 4b4b 8bbc 0a3a abbd bb1f 77bd 8433 1ebd
000001f0: 80c4 103d deb3 49bd 503f 56bd d1c8 1e3d
00000200: 229b 39bd 0ed2 043d 1574 b23d c3c8 9a3d
00000210: dcfb c8bc 6ee3 353d 2c1c c7bc 83f6 753d
00000220: db8e 48bb f949 b93b 645e b1bd 0fe0 933d
00000230: 1783 723d 4405 50bc fe4a 36bd 867a 0bbd
00000240: d102 9fbd f13b 6abd e434 2b3d db15 6cbd
00000250: cf91 083d ecfe 3fbd 74e5 2ebd 60c4 acbd
00000260: 66fe d73b 4fda 01bd 830f 25bd 06ae 87b9
00000270: dbec 49bd 4cea 6d3c 2b6b 723d e026 1abd
00000280: 359f b63c 391b f9bc fb35 8a3c 829b 94bd
00000290: af66 5bbd 6666 1fbd a783 d0bb 48c4 88bc
000002a0: 0298 d6bc b581 493d a9e9 82bd 366d b33d
000002b0: 1052 943c 287d 7ebb 4b9c 863d ae22 813d
000002c0: a176 9dbc 0c6c a73c 60b4 1bbd 0ca6 483d
000002d0: 5b88 663d c0f2 9e3c 5fa6 d53b 9bfd 06bd
000002e0: db02 0cbd b693 7d3d 5754 b73c 3e05 103d
000002f0: 42dc 12bc 1637 2dbc 81bd 773d 3bd8 8dbd
00000300: c4cf 663c eb8d b4bc 42e4 edbc 5939 a5bd
00000310: 2869 623d 4796 91bd 3ed0 eabc f490 3c3c
00000320: f477 3a3d 468b bdbd 34f3 273d 2d0f 20bd
00000330: b373 f23c 828a a9bd 81d8 9dbd 7ebf a23d
00000340: a5c3 e83c f77b 243c fea7 2c3d aa78 8f3d
00000350: 2cdb 5f3d 7766 913c 1ee9 98bd e5c1 a73d
00000360: 1e62 98bc 230a 4fbc 3edf 973c cc32 8a3d
00000370: 23e9 79bc fb18 25bd 3b92 4d3d d052 6d3d
00000380: 6559 ce3c 789a cf3b 3380 173b 509e 7f3c
00000390: 07be 9abd a4f1 3fbd ecd0 113d dcbb bd3c
000003a0: f8b9 063d 7a85 753b 30d2 58bd 7eaa 2abd
000003b0: a15e a4bc a51a 7abd 7b99 a13d 48a0 5fbd
000003c0: 1ae3 3b3c 8fed b43d 56b6 95bd eb0e acbd
000003d0: e19f 143d 353b 3d3d c20b 26bd c8fc 1e3d
000003e0: 7b6c 7f3d eba5 29bd 9a44 8b3d 6806 a13b
000003f0: 4dd5 9bbc 03c2 043d bd51 383d 41c3 a03d

4.bias f4 [128]
-0.033637084 0.020388646 0.038643938 -0.0872706 -0.056029804 -0.039344713 -0.02502725 -0.024742285
0.0911958 0.084883265 -0.068072475 0.045077994 -0.060955487 -0.030880474 0.085935436 0.06283421
-0.13711777 0.063950814 0.064642 -0.04157182 -0.033943832 0.042455327 0.0068524373 -0.060521293
0.07111843 -0.071148664 -0.057471823 -0.081516676 -0.030785682 -0.024487482 -0.070962176 0.07893192
0.009100412 -0.009909726 -0.06256177 -0.045152165 0.0017256987 0.031270552 -0.009010826 0.0028659827
0.010032652 -0.033829354 0.12166174 0.0694111 0.053083833 0.07249409 0.019500487 -0.052144364
-0.022722336 0.0427455 0.063748196 -0.04676679 0.021787243 5.7062858e-05 -0.02829434 -0.03753953
0.003718234 -0.08072689 -0.012189374 0.097885184 0.039725855 -0.0480575 0.12961382 0.048436433
-0.09070621 -0.06551196 0.0038350918 0.0134685235 0.10249214 0.025698058 0.04782718 -0.011312351
0.05280718 0.08169511 0.09396345 0.066413596 -0.024867415 -0.080834426 0.047907885 -0.001123516
0.040275544 0.075261876 -0.05283413 -0.024930624 0.07725425 0.03600488 0.058832455 -0.008914973
-0.079774976 -0.012348826 0.06462462 0.03921722 -0.08132898 -0.006144342 0.051030695 0.05964131
0.06336697 0.08352901 -0.052011535 -0.013709295 0.010396775 -0.029593704 -0.014601627 -0.022702005
0.071528934 0.0047767246 -0.009792744 0.017963191 0.10977615 -0.0036747856 -0.03872122 0.03540258
-0.058962323 0.024167012 0.13163452 -0.06420295 -0.07700359 -0.05284858 -0.041624617 0.016189558
0.0889569 0.07866677 0.073526315 0.014182654 0.032835644 -0.0077617913 0.040518697 0.028700173
00000000: 0ac7 09bd 1706 a73c 1b49 1e3d eeba b2bd
00000010: 827f 65bd ec27 21bd f305 cdbc 55b0 cabc
00000020: ddc4 ba3d 47d7 ad3d 9569 8bbd b4a3 383d
00000030: 76ac 79bd 0cf9 fcbc ebfe af3d 39af 803d
00000040: 9a68 0cbe a5f8 823d 0663 843d 3647 2abd
00000050: b008 0bbd a3e5 2d3d 698a e03b 2de5 77bd
00000060: 8aa6 913d 64b6 91bd 9367 6bbd 37f2 a6bd
00000070: 4132 fcbc f999 c8bc 9e54 91bd 0fa7 a13d
00000080: e519 153c 675c 22bc 6320 80bd 7af1 38bd
00000090: d730 e23a 8d15 003d 25a2 13bc 36d3 3b3b
000000a0: fe5f 243c a690 0abd ca29 f93d 6827 8e3d
000000b0: 6f6e 593d c877 943d 7cbf 9f3c 5495 55bd
000000c0: 3124 babc e815 2f3d 6a8e 823d 898e 3fbd
000000d0: 297b b23c c756 6f38 88c9 e7bc 0dc3 19bd
000000e0: 9dad 733b 2454 a5bd f1b5 47bc 0778 c83d
000000f0: 94b7 223d f1d7 44bd 7cb9 043e 4865 463d
00000100: 2dc4 b9bd 222b 86bd 2a56 7b3b 15ab 5c3c
00000110: 66e7 d13d bc84 d23c 6fe6 433d 7057 39bc
00000120: 574c 583d c44f a73d e96f c03d da03 883d
00000130: c0b6 cbbc 858c a5bd 0f3b 443d f142 93ba
00000140: f8f7 243d e622 9a3d 9a68 58bd 4f3b ccbc
00000150: 7a37 9e3d da79 133d 4dfa 703d 1b10 12bc
00000160: 1061 a3bd bb52 4abc ea59 843d 3ca2 203d
00000170: cf8f a6bd 7a56 c9bb 9005 513d 724a 743d
00000180: 8bc6 813d 4211 ab3d 0c0a 55bd f39c 60bc
00000190: 3c57 2a3c 7f6e f2bc aa3b 6fbc 8ef9 b9bc
000001a0: c37d 923d 1286 9c3b bf71 20bc 8b27 933c
000001b0: 51d2 e03d acd4 70bb 249a 1ebd 4c02 113d
000001c0: 7a82 71bd e6f9 c53c 33cb 063e d67c 83bd
000001d0: 0fb4 9dbd c177 58bd 937e 2abd f79f 843c
000001e0: 092f b63d 0b1c a13d f794 963d 5d5e 683c
000001f0: ab7e 063d a056 febb eff6 253d a01c eb3c

6.weight f4 [128, 128]
0.0073652607 0.0465802 -0.02187974 -0.0106578395 0.027516378 -0.06271435 0.015656354 0.062030517
0.063278876 0.039295793 -0.050671436 -0.043353777 0.06685202 -0.08412045 0.07893908 -0.02581483
0.042503152 -0.0063823094 0.07866176 -0.059547722 0.07616224 0.07939673 -0.004247949 0.08483053
-0.050452743 -0.01749332 -0.0051787393 -0.01158361 -0.06513471 -0.0014400282 0.0050604236 0.08864436
-0.019482102 0.055461265 -0.019167488 -0.03753556 0.080687955 -0.08855126 0.028386386 0.023229957
0.06761862 -0.0435521 -0.008438393 -0.065190546 0.041711975 0.022298371 0.037746344 0.037582446
-0.025698608 -0.06055656 -0.014587824 0.049335282 0.0474778 0.062727645 0.061690003 -0.08646703
0.028257826 0.045061342 -0.032229654 -0.07725799 0.024231965 -0.03996684 -0.060486786 0.07894968
-0.03921874 -0.047947813 -0.08095641 0.07407113 0.06429933 0.03634434 0.020467106 -0.07212149
-0.064421654 0.051819853 -0.043651383 -0.07305397 -0.02867379 -0.051442325 0.03908355 -0.03458607
-0.06907084 -0.014653805 -0.05888062 -0.06237748 -0.031358004 -0.03668694 -0.049549047 0.08690649
0.0305737 -0.04431573 0.025865763 -0.08001348 -0.06666699 0.0017932869 0.10176057 0.082450874
-0.00505548 -0.022259887 -0.031366788 -0.016429324 -0.02966051 -0.08341893 -0.049318843 -0.015395537
0.011792565 0.09073987 0.10360291 0.08687634 0.06860422 0.084145494 0.0684105 0.049533527
0.038356 0.05571139 0.003047653 -0.020498786 0.034492884 -0.06885346 0.05112099 0.101488896
0.07631433 -0.07113351 0.06994023 0.019067124 0.053627905 0.03638661 0.071843415 -0.075153746
0.08725078 -0.08007478 -0.051213346 0.017859884 -0.017943133 -0.06119975 0.06493259 0.022451296
-0.026909791 0.036474515 -0.07126672 -0.069423206 0.049858503 0.052798115 0.043660864 0.025473585
-0.056568492 0.055929363 0.029172827 0.061249837 -0.066612415 -0.0880137 -0.046285857 -0.053925294
-0.0059907166 -0.020449463 0.067751974 -0.01667587 -0.034271725 0.036406167 0.08807255 9.9351106e-05
0.087537736 -0.04930821 0.073538035 0.031047551 0.009483527 0.0704749 0.06456753 -0.043084286
-0.02947594 -0.08561763 -0.022232506 -0.014915441 0.040240318 0.0062731756 -0.041811053 0.08837421
0.00783171 -0.06812269 0.005797084 0.0511936 0.025875589 -0.03736723 -0.021988858 0.06837387
0.03970372 -0.0031125008 -0.040945295 0.06320781 -0.040008802 0.03868785 0.06506825 -0.071380734
-0.047488082 -0.06132583 -0.010287618 -0.04108942 -0.058155086 0.08466668 0.09162245 -0.017704895
0.021687785 -0.0023094632 -3.5712546e-05 0.05763482 0.03665818 0.0664256 -0.03654846 -0.08136533
-0.017625794 0.00786412 0.0028499514 0.061691824 0.035224743 0.037477966 0.008425378 -0.008104913
-0.012122922 0.008400135 -0.01742647 0.013190285 0.058812983 0.046157308 0.049985506 0.038710263
-0.020941775 -0.031186001 0.05135295 0.0080047855 0.08594658 -0.013102586 0.09745005 -0.071637005
0.09557613 -0.029717568 0.0068105827 -0.025682978 -0.0023104057 0.028697154 0.09900456 -0.020233272
-0.010370733 -0.055035334 -0.016466234 -3.7798465e-05 0.08816195 -0.082320616 -0.06533403 -0.0017599934
-0.03193462 0.037131168 0.03833307 -0.063121766 0.019628463 0.014922832 0.008394642 -0.074588776
00000000: 4958 f13b e1ca 3e3d 243d b3bc 389e 2ebc
00000010: 076a e13c 6270 80bd c141 803c b613 7e3d
00000020: 5b98 813d a0f4 203d da8c 4fbd bb93 31bd
00000030: b6e9 883d 5847 acbd d0aa a13d 9f79 d3bc
00000040: c917 2e3d b122 d1bb 6b19 a13d 50e8 73bd
00000050: f3fa 9b3d c19a a23d 6132 8bbb a1bb ad3d
00000060: 89a7 4ebd 274e 8fbc 6ab2 a9bb 2fc9 3dbc
00000070: 5965 85bd 54bf bcba e9d1 a53b 2d8b b53d
00000080: ee98 9fbc 5a2b 633d 2305 9dbc e3be 19bd
00000090: ba3f a53d 5d5a b5bd 918a e83c c04c be3c
000000a0: a27b 8a3d b063 32bd 2f41 0abc 9f82 85bd
000000b0: 2dda 2a3d 13ab b63c e99b 1a3d 0df0 193d
000000c0: e385 d2bc 280a 78bd c501 6fbc cb13 4a3d
000000d0: 1578 423d 5a77 803d a8ae 7c3d a015 b1bd
000000e0: f57c e73c 3e92 383d 3e03 04bd 7039 9ebd
000000f0: 1d82 c63c 45b4 23bd fec0 77bd 5fb0 a13d
00000100: d4a3 20bd ed64 44bd 79cc a5bd 9bb2 973d
00000110: 5eaf 833d cddd 143d a2aa a73c 6fb4 93bd
00000120: 80ef 83bd 0e41 543d cbcb 32bd 529d 95bd
00000130: 4ce5 eabc 30b5 52bd 1316 203d 1faa 0dbd
00000140: 0375 8dbd 8316 70bc ce2c 71bd 877f 7fbd
00000150: 4071 00bd 0b45 16bd f1f3 4abd 08fc b13d
00000160: b275 fa3c 6984 35bd 70e4 d33c 1bde a3bd
00000170: b488 88bd b90c eb3a d967 d03d 01dc a83d
00000180: 71a8 a5bb 5e5a b6bc 767a 00bd ca96 86bc
00000190: 99fa f2bc 8bd7 aabd 8e02 4abd 903d 7cbc
000001a0: 9a35 413c d3d5 b93d c32d d43d 39ec b13d
000001b0: 5f80 8c3d 7954 ac3d ce1a 8c3d abe3 4a3d
000001c0: 2e1b 1d3d a031 643d 22bb 473b 12ed a7bc
000001d0: 6948 0d3d 0b03 8dbd 3e64 513d 69d9 cf3d
000001e0: b04a 9c3d 72ae 91bd d33c 8f3d a832 9c3c
000001f0: efa8 5b3d 200a 153d a422 933d 35ea 99bd
00000200: 89b0 b23d 3ffe a3bd 16c5 51bd e44e 923c
00000210: 7afd 92bc 97ac 7abd 61fb 843d c8eb b73c
00000220: ec71 dcbc 4d66 153d 49f4 91bd c12d 8ebd
00000230: 6e38 4c3d d642 583d bcd5 323d fbad d03c
00000240: 5db4 67bd 3016 653d dafb ee3c 1ce1 7a3d
00000250: 176c 88bd 8740 b4bd 3d96 3dbd c5e0 5cbd
00000260: c64d c4bb a285 a7bc 8cc1 8a3d d69b 88bc
00000270: 8260 0cbd a21e 153d 625f b43d b85a d038
00000280: fc46 b33d 68f7 49bd 1c9b 963d 6f57 fe3c
00000290: cc60 1b3c 2555 903d fb3b 843d 2679 30bd
000002a0: 8777 f1bc 4c58 afbd f220 b6bc e55f 74bc
000002b0: 08d3 243d 368f cd3b 1142 2bbd 8afd b43d
000002c0: 9350 003c e983 8bbd 77f5 bd3b 61b0 513d
000002d0: 0bf9 d33c 610e 19bd fa21 b4bc 9907 8c3d
000002e0: 5ea0 223d 19fb 4bbb 41b6 27bd 1973 813d
000002f0: 45e0 23bd 2777 1e3d 8142 853d 1030 92bd
00000300: dd82 42bd cb30 7bbd 668d 28bc 614d 28bd
00000310: 0734 6ebd b965 ad3d 8da4 bb3d db09 91bc
00000320: 95aa b13c 5d5a 17bb 0eca 15b8 7d12 6c3d
00000330: e326 163d 250a 883d d7b3 15bd dea2 a6bd
00000340: f863 90bc 83d8 003c 40c6 3a3b 91b0 7c3d
00000350: d247 103d 7f82 193d 990a 0a3c 78ca 04bc
00000360: 389f 46bc b8a0 093c f5c1 8ebc 111c 583c
00000370: e2e5 703d 720f 3d3d 9abd 4c3d a78e 1e3d
00000380: 168e abbc c979 ffbc 7957 523d 8126 033c
00000390: c304 b03d 3bac 56bc e493 c73d 6cb6 92bd
000003a0: 6bbd c33d 4272 f3bc 4f2b df3b 1c65 d2bc
000003b0: 2d6a 17bb 4b16 eb3c e7c2 ca3d 3fc0 a5bc
000003c0: 02ea 29bc bb6c 61bd 32e4 86bc cb89 1eb8
000003d0: 418e b43d b697 a8bd d9cd 85bd 94af e6ba
000003e0: e0cd 02bd da16 183d 2303 1d3d fc45 81bd
000003f0: dfcb a03c e57e 743c ae89 093c 00c2 98bd

6.bias f4 [128]
-0.015455849 0.11486089 0.042234242 0.03947804 -0.04362398 -0.007358586 0.13038455 0.067990035
0.12706737 0.13131732 0.068252005 -0.10523493 -0.08325781 0.020203995 0.016216636 0.043803133
-0.087959155 -0.0026082415 -0.07693561 0.032979343 0.04821346 0.120776646 -0.042748414 -0.035852756
-0.0026115335 0.034693625 0.030125825 -0.066187106 0.03103095 -0.062365916 0.07003902 -0.039552625
0.15352227 -0.0407038 0.02922187 -0.06787226 -0.08225277 0.03897749 -0.016638922 0.12678389
-0.028941674 0.18433776 0.08191585 0.0057391147 -0.08568195 0.05130102 0.07851627 -0.04964778
-0.0282082 0.013176594 -0.067376174 -0.084335655 0.07873503 -0.05795197 0.10888319 0.09477588
-0.055553794 -0.0020182857 0.15506376 0.012685349 0.04324846 -0.046356626 0.0060972013 0.22615075
-0.0016685611 -0.027924653 -0.041783333 0.06321013 -0.08476825 -0.049094133 -0.0215561 0.0500356
-0.0011371421 -0.07959499 -0.026589282 0.14146678 -0.011672416 -0.120937295 -0.034448177 -0.032636713
-0.036041677 -0.0041160574 -0.050570477 -0.033183184 -0.032762676 -0.030320246 0.01099858 0.033572085
-0.013747501 0.048952747 0.015299402 0.08266839 -0.045896567 -0.074439295 0.0015366309 -0.06800399
-0.027374271 -0.027251303 0.01605796 0.07408513 -0.033526078 0.16057488 -0.01677297 0.242777
-0.06312573 -0.07225838 -0.044763085 -0.03391713 0.015716966 -0.043937553 0.07483422 -0.0023530996
-0.06344578 0.03998741 -0.05172269 0.03335695 0.044672936 -0.07869681 0.03598854 -0.0496139
-0.06673782 -0.036783714 0.18946163 -0.008528517 0.03613988 0.15283847 0.112373225 -0.0031443648
00000000: 873a 7dbc 303c eb3d d0fd 2c3d bab3 213d
00000010: 0faf 32bd 4b20 f1bb 8783 053e 5c3e 8b3d
00000020: f31d 023e 0c78 063e b5c7 8b3d 6985 d7bd
00000030: 1283 aabd d982 a53c c0d8 843c ea6a 333d
00000040: ee23 b4bd 08ef 2abb 6b90 9dbd 5915 073d
00000050: 7a7b 453d bf59 f73d f618 2fbd 57da 12bd
00000060: 4326 2bbb e71a 0e3d 6fca f63c 1b8d 87bd
00000070: 9e34 fe3c 6773 7fbd 9e70 8f3d ef01 22bd
00000080: f134 1d3e 07b9 26bd b462 ef3c 9d00 8bbd
00000090: 2474 a8bd dca6 1f3d 594e 88bc a3d3 013e
000000a0: 1717 edbc 0ac3 3c3e 7fc3 a73d 2f0f bc3b
000000b0: 057a afbd 0521 523d 23cd a03d 785b 4bbd
000000c0: e214 e7bc a4e2 573c 85fc 89bd 2cb8 acbd
000000d0: d53f a13d 0b5f 6dbd 26fe de3d db19 c23d
000000e0: 608c 63bd 3745 04bb 09c9 1e3e 36d6 4f3c
000000f0: 4c25 313d 72e0 3dbd 08cb c73b 1094 673e
00000100: 9fb3 daba 3ec2 e4bc 0025 2bbd 5074 813d
00000110: fa9a adbd ee16 49bd 6b96 b0bc 21f2 4c3d
00000120: 280c 95ba b302 a3bd c4d1 d9bc abdc 103e
00000130: a93d 3fbc f9ad f7bd 8819 0dbd 13ae 05bd
00000140: 70a0 13bd fedf 86bb fd22 4fbd 17eb 07bd
00000150: 2832 06bd 2a62 f8bc 6333 343c e282 093d
00000160: 333d 61bc ad82 483d 58aa 7a3c 0b4e a93d
00000170: 0afe 3bbd a173 98bd c768 c93a ad45 8bbd
00000180: 0240 e0bc 203e dfbc fc8b 833c f2b9 973d
00000190: a452 09bd be6d 243e 7867 89bc 899a 783e
000001a0: 1048 81bd 34fc 93bd 7f59 37bd b0ec 0abd
000001b0: dec0 803c ddf7 33bd af42 993d 7636 1abb
000001c0: dcef 81bd d7c9 233d 2cdb 53bd 4ca1 083d
000001d0: f8fa 363d cb2b a1bd b868 133d f237 4bbd
000001e0: d7ad 88bd 85aa 16bd 3b02 423e 31bb 0bbc
000001f0: 6907 143d b081 1c3e ef23 e63d b011 4ebb

8.weight f4 [49, 128]
0.078279644 -0.07411538 -0.015654303 0.042298824 -0.12430294 0.083942965 -0.16448256 0.1033727
-0.115335815 -0.15092756 -0.08346824 0.015911654 -0.003343703 0.015141647 0.037397947 0.0075521846
0.03334823 0.06337319 0.013595194 0.06692262 0.06985131 -0.051874653 -0.081062846 0.10251696
-0.026782569 0.042326298 0.07018081 -0.01782585 -0.058266837 0.008981482 0.08501064 0.06413
-0.090943575 0.08306081 0.031221291 0.07964012 -0.07972289 -0.010718422 0.03870891 -0.16762161
0.010211951 -0.19615333 -0.025149383 -0.024296695 0.044153117 0.07049105 0.0035552464 -0.01247367
0.0049700453 0.04142077 -0.02574614 -0.022086674 -0.039584987 0.057510085 -0.0188632 -0.07671298
0.06629366 0.06537474 -0.022281524 -0.071070336 -0.007670774 -0.07675248 -0.039120127 -0.15110983
-0.06951484 0.084490284 0.004136689 0.0026037828 -0.030876886 0.055062883 0.122401126 0.08557115
-0.004468002 0.029797371 0.087115355 -0.102240324 -0.052042644 0.0026099903 -0.019514382 0.040422156
-0.034043632 0.0939641 -0.0425649 -0.08124022 -0.03477859 0.07152734 0.04460025 -0.057943527
0.049957514 0.061167594 0.018025912 -0.05048269 -0.046450876 -0.0019107317 -0.11979441 0.03434735
0.08194005 0.03729185 0.036305033 -0.10381915 -0.024898391 -0.12406858 -0.03047584 -0.22114232
0.10404022 0.17590779 -0.050439984 0.047742553 0.003894465 -0.052087728 0.027420547 0.06879988
-0.026517063 0.03776966 0.042037606 0.07138783 -0.01994839 0.036091134 -0.10870336 0.0817093
-0.059526596 -0.04700425 -0.18997306 0.009323695 -0.034005377 -0.122496 -0.042115718 0.07141599
0.04264548 -0.08948881 0.030246612 0.0002101326 0.011781625 0.029930685 -1.4611708e-05 0.078370094
-0.0963701 -0.0047018575 -0.11912484 -0.038563073 0.049323097 0.024230557 0.07688596 0.015066874
0.08709477 0.03853761 0.041643895 -0.018852308 0.04058737 -0.13730642 -0.00026036662 0.115372956
0.018756852 0.034749545 0.032382205 -0.064296916 0.012557227 0.003413753 -0.045239557 -0.023315765
-0.093109645 -0.009804657 0.123201855 0.039671347 0.038515482 -0.039776046 0.014121907 -0.06837495
0.034080077 -0.20359302 -0.112707004 0.06738131 0.0456829 -0.044755172 0.08244547 0.0656169
-0.034029257 0.031763144 -0.015892316 0.009365166 -0.11624733 -0.059575107 -0.014564894 -0.04305018
-0.06550338 0.011448108 -0.15413786 -0.1263193 0.059877988 0.0028550257 -0.045992658 -0.081817515
-0.03369848 -0.06891261 0.06332327 0.010045922 -0.051351942 0.04448075 0.006330283 0.09593965
-0.063238606 -0.021800777 0.02605151 -0.045601513 0.08275217 -0.088411845 -0.06772923 0.0023140148
0.03721777 -0.06882913 0.00024387057 -0.013100119 0.07544179 0.021438085 0.06436727 -0.10198351
0.08798167 0.07112153 -0.037933625 -0.09490079 -0.05816269 -0.055260196 -0.11741857 0.031039707
-0.037836563 0.027286569 -0.025655566 -0.0426105 0.023132311 -0.1950131 0.04174636 -0.16256234
0.09685038 0.07914961 0.053072736 -0.08536322 0.081760675 0.043623917 -0.07349395 0.087448485
-0.014378826 -0.015157384 -0.019520124 0.0037685751 -0.10438684 -0.0155367125 -0.022905277 -0.060175166
-0.010490294 0.059518505 -0.13483074 0.006907142 0.016968878 -0.14837635 -0.057097476 0.012956326
00000000: 1451 a03d cec9 97bd 743d 80bc 8841 2d3d
00000010: 8a92 febd 4aea ab3d 1e6e 28be 11b5 d33d
00000020: 2f35 ecbd c18c 1abe 66f1 aabd 2859 823c
00000030: 0722 5bbb ac14 783c 972e 193d 5178 f73b
00000040: 2798 083d cec9 813d 60be 5e3c ba0e 893d
00000050: 340e 8f3d 847a 54bd 4704 a6bd 69f4 d13d
00000060: 1e67 dbbc 575e 2d3d f5ba 8f3d 8407 92bc
00000070: 35a9 6ebd 1127 133c 0f1a ae3d 9756 833d
00000080: a040 babd c91b aa3d cbc3 ff3c 5c1a a33d
00000090: c145 a3bd 529c 2fbc 3c8d 1e3d 00a5 2bbe
000000a0: 0750 273c 6bdc 48be 1406 cebc dd09 c7bc
000000b0: e6d9 343d 9d5d 903d 23ff 683b 5d5e 4cbc
000000c0: c3db a23b d3a8 293d 92e9 d2bc 1def b4bc
000000d0: de23 22bd b28f 6b3d ff86 9abc b21b 9dbd
000000e0: f8c4 873d 31e3 853d be87 b6bc 538d 91bd
000000f0: 1e5b fbbb 6730 9dbd 6d3c 20bd 89bc 1abe
00000100: cc5d 8ebd 3e09 ad3d 108d 873b 3aa4 2a3b
00000110: 86f1 fcbc 9e89 613d 71ad fa3d ed3f af3d
00000120: 5168 92bb 9e19 f43c 8969 b23d 6063 d1bd
00000130: ab2a 55bd 5f0c 2b3b a0dc 9fbc b491 253d
00000140: 5671 0bbd 4070 c03d 8858 2ebd 4661 a6bd
00000150: ff73 0ebd ed7c 923d c0ae 363d 3156 6dbd
00000160: 40a0 4c3d df8a 7a3d 14ab 933c f0c6 4ebd
00000170: 4643 3ebd 8471 faba c656 f5bd cfaf 0c3d
00000180: 2fd0 a73d 57bf 183d 96b4 143d 229f d4bd
00000190: b6f7 cbbc ab17 febd 78a8 f9bc 2273 62be
000001a0: 0a13 d53d 2c21 343e 289a 4ebd b28d 433d
000001b0: 483a 7f3b f159 55bd 0ea1 e03c f4e6 8c3d
000001c0: 503a d9bc 5cb4 1a3d a02f 2c3d c833 923d
000001d0: ce6a a3bc 4cd4 133d de9f debd 3557 a73d
000001e0: 29d2 73bd 8787 40bd 4c88 42be 69c2 183c
000001f0: 3949 0bbd 2fdf fabd 8881 2cbd 8c42 923d
00000200: 07ad 2e3d e945 b7bd bec7 f73c 0a57 5c39
00000210: b807 413c 3231 f53c cf24 75b7 8080 a03d
00000220: b05d c5bd 0a12 9abb b9f7 f3bd 50f4 1dbd
00000230: 0407 4a3d 297f c63c 6376 9d3d 0ddb 763c
00000240: be5e b23d 9dd9 1d3d ca92 2a3d 2870 9abc
00000250: f13e 263d 0e9a 0cbe d181 88b9 a848 ec3d
00000260: f8a7 993c 8a55 0e3d 34a3 043d 1aae 83bd
00000270: d4bc 4d3c 45b9 5f3b 1d4d 39bd b400 bfbc
00000280: 45b0 bebd b6a3 20bc 4151 fc3d 6c7e 223d
00000290: 69c2 1d3d 35ec 22bd 925f 673c 2a08 8cbd
000002a0: 8d97 0b3d b07a 50be eed2 e6bd 36ff 893d
000002b0: fe1d 3b3d 3351 37bd 2cd9 a83d 2762 863d
000002c0: 4362 0bbd 121a 023d 9a30 82bc 5a70 193c
000002d0: 1513 eebd 0705 74bd 98a1 6ebc 6355 30bd
000002e0: a326 86bd d890 3b3c 51d6 1dbe d959 01be
000002f0: 9f42 753d 621b 3b3b cc62 3cbd f18f a7bd
00000300: 6b07 0abd 0e22 8dbd a1af 813d a797 243c
00000310: 6a56 52bd 7231 363d 436e cf3b 027c c43d
00000320: 3e83 81bd 8b97 b2bc fa69 d53c a7c8 3abd
00000330: f879 a93d 4511 b5bd 9fb5 8abd baa6 173b
00000340: a971 183d 49f6 8cbd 82b7 7f39 e2a1 56bc
00000350: 3a81 9a3d ec9e af3c fdd2 833d bbdc d0bd
00000360: bc2f b43d 2aa8 913d 4a60 1bbd 585b c2bd
00000370: 003c 6ebd 8458 62bd 2679 f0bd fc46 fe3c
00000380: 83fa 1abd 1588 df3c 9f2b d2bc 5988 2ebd
00000390: f97f bd3c 84b1 47be 3bfe 2a3d be76 26be
000003a0: 7e59 c63d 3119 a23d cc62 593d e9d2 aebd
000003b0: 2472 a73d feae 323d ff83 96bd 3118 b33d
000003c0: 2b95 6bbc ad56 78bc abe8 9fbc 33fa 763b
000003d0: c4c8 d5bd b28d 7ebc d9a3 bbbc 3c7a 76bd
000003e0: 7bdf 2bbc adc9 733d 1211 0abe 4e55 e23b
000003f0: 5102 8b3c f8ef 17be 0bdf 69bd c546 543c

8.bias f4 [49]
-0.05051313 5.9090627e-05 -0.10701635 -0.18102531 -0.18384339 -0.05359523 -0.047883596 -0.07917016
-0.12758914 -0.17060299 -0.1191264 -0.14409627 -0.024585478 -0.26918387 -0.08896764 -0.10743502
-0.0978833 -0.18075265 -0.1475017 -0.10589575 -0.12981091 -0.14145648 -0.16476189 -0.13073167
-0.16910397 -0.22518134 -0.14478156 -0.08343219 -0.17311667 -0.21142448 -0.24952854 -0.22016428
-0.111039564 -0.11014834 -0.059285626 -0.017998815 -0.122660175 -0.14682086 -0.07204487 -0.06432473
-0.050726708 0.019499365 -0.19539538 -0.111123554 -0.043308366 -0.07653816 -0.033719867 -0.06133364
-0.07005442
00000000: dbe6 4ebd 14d8 7738 632b dbbd b35e 39be
00000010: 7141 3cbe ac86 5bbd 9721 44bd f723 a2bd
00000020: baa6 02be 8db2 2ebe 8bf8 f3bd f98d 13be
00000030: 7c67 c9bc 78d2 89be ab34 b6bd e406 dcbd
00000040: 0a77 c8bd 3917 39be b00a 17be dfdf d8bd
00000050: 27ed 04be f8d9 10be 57b7 28be 86de 05be
00000060: 9729 2dbe f095 66be 9e41 14be 7fde aabd
00000070: 7f45 31be a97f 58be 6984 7fbe bf72 61be
00000080: b668 e3bd 7495 e1bd 7cd5 72bd 4072 93bc
00000090: 4235 fbbd 3558 16be 438c 93bd afbc 83bd
000000a0: cfc6 4fbd 22bd 9f3c ba15 48be bf94 e3bd
000000b0: 1d64 31bd 0ac0 9cbd d81d 0abd fc38 7bbd
000000c0: b178 8fbd
