models/snapsRandom/model_1685738289.3707836.pt (torch, 252691 bytes, 10 tensors)

0.weight f4 [128, 49]
00000000: 2204 3ebd 589b ff3d 0ddc f13d 3d01 5fbe
00000010: fdd2 273d 07eb 3cbc bf02 83bd 3ad9 073e
00000020: 0be2 9bbc e618 c7bd 69b4 983d e761 283e
00000030: 0796 67bd d19b 013e aa25 103d 1bc5 b4bd
00000040: ed78 a13c 5456 9ebd 705c 97bd 2f38 813d
00000050: 0b8f 5bbd cd81 2dbd a460 4e3e 114f e8bc
00000060: 1275 fabc 7a2f cfbd a9a4 2cbe b153 4c3d
00000070: a1c6 e53d 651c f4bd d1aa 0a3d cfd6 92bc
00000080: f11f 363c 3e4f 683c bb43 90bd 02f4 753e
00000090: bcfe 673c bd1f 99bc 2c6b 89be 5e61 00bd
000000a0: 6bb1 8fbd e648 b23d 4981 e33b 2441 78bd
000000b0: b0ff 96bd 4c0b 3a3e c3c7 073e 2b94 debc
000000c0: fe66 1ebd 4eeb 35bd 2c13 b5bd 2953 e4bd
000000d0: 6648 7bbb 8515 903d b08c 8fbc 65a8 6cbc
000000e0: 8ec4 493c 80c0 993c 4ca5 21bc 937c 343e
000000f0: 129f 9c3d 7108 f93d 871f 0e3d 50d8 4abe
00000100: 3ddf c9bd 58c6 d33d 1077 9c3c d772 21be
00000110: ba87 6b3e 43a3 3c3e 6889 36bc 2ca7 d23d
00000120: 16eb 083e 53a2 5dbe 627d e2bd 6f4e a6bc
00000130: c642 df3b 6055 16bc a045 d93d 6723 2b3e
00000140: c083 bebd 3f14 0dbe 2c9f e9bd 1f74 d13d
00000150: 4957 9cbc 8e70 be3d 07d3 a13c 00df 13be
00000160: 4d07 c23d 464a cf3d 1ae8 a6bd 4a18 643c
00000170: a6fb 863d 28a3 45be 9844 2a3b 8706 b93d
00000180: f8ff c63d 0a07 c5bd 6903 493c c51c 41be
00000190: 8016 853d eb44 17be 0cdb 40bb b955 2abe
000001a0: 94a3 3c3d 605f 6c3d aa46 f03d 1b51 bdbc
000001b0: ae73 c9bd a6b3 123e 27f7 5bbe f1e6 ed3d
000001c0: ba51 1cbe 20dc 623c d062 013e a8d8 0ebe
000001d0: 9453 a3bd e54d c03c c1a9 c9bd 40c3 bc3d
000001e0: df8f aabd df6c a7bd 0959 cbbd ea5a c7bc
000001f0: 9dfd 20be c2c4 773d f988 bfbd 10f9 9f3d
00000200: 2c21 33bd 3d3d a73b 7691 843d b15c 03be
00000210: fa37 523d 0eaf fdbd 6b45 8a3c d23d e9bd
00000220: 8a30 adbc 5fb5 e4bc ccde a2bd a949 303e
00000230: ddc9 b6bb c41a 6abc 6993 c0bd f873 fa3d
00000240: c14c ad3c d442 8cbd 6a47 9b3d 701a 8d3d
00000250: 88d7 553d 55b8 3cbc 3f26 41bd 7800 593e
00000260: f1dc 043e 345a e23d 9c50 f63d 30c7 983d
00000270: 386c 0a3e b24d 35bc 4263 be3c 9ce8 73bd
00000280: 3512 aebd 3d4a 893d 7e11 e83d a196 233c
00000290: 73d3 323e 2016 23bd 1111 92be 4427 5c3d
000002a0: 94a3 8c3d e0ca a03d 6e6a e03c d0da d83d
000002b0: 791e d3bd 464a 1fbe 4a89 9a3d a7ac 9fbd
000002c0: ea6c a2bd 581f 25bd ee33 e63d 48ce 27bd
000002d0: eb60 9dbb 8f3e 963e f4f5 703c ba37 333e
000002e0: c8e8 4e3d 566b 2f3d e554 29bd b803 4f3d
000002f0: e2dc 4cbd 03a2 0cbe 1905 ac3c 6b4b e3bd
00000300: 8535 2e3d 1edf cfbd 0ccb 9bbd eb5a a93d
00000310: 1956 383c ffc0 c3bd c08a 293d 73ab edbd
00000320: 6a77 cdbd 5b30 0a3e 3644 bd3d 9d29 1b3d
00000330: 39a3 8dbd 7995 223b 79ef b73c c2ee cfbd
00000340: 35e3 56bd 7c05 0fbe 4259 18be 9e5f 80bd
00000350: 5a85 863d b65e 0fbd 2dd8 5f3d d479 57bb
00000360: eede 983d 91b3 87bd 67ca 653c 1c94 393d
00000370: 2595 62be 2d70 a33d b597 59be 9902 3ebe
00000380: e164 2bbc 6525 aebc aef9 473e 3ee6 8f3d
00000390: e916 e53d 17aa a13d 9df5 7cbd 7d4d a8bd
000003a0: c5c8 f53d 5c8b a33d b9e1 b6bc d466 e3bc
000003b0: 4c10 3abe ee3a dfbc 65eb bfbd 1afe d8bc
000003c0: 6fa3 aa3d 849e e33c 7aa9 4d3d c475 6c3e
000003d0: c072 b8bd d9fc 78bd 5e8d d13d 23c4 9e3d
000003e0: 629f f73b 3d84 703d 130d f2bd 1e77 9a3d
000003f0: 4374 15be 1d62 8a3b 7daa 69bd 4bd6 953d
-0.04639066 0.12480801 0.118095495 -0.21777816 0.0409727 -0.011530644 -0.06397008 0.13266459
-0.019028684 -0.09721546 0.074562855 0.16443597 -0.05653956 0.12657095 0.03519217 -0.088266574
0.019710982 -0.077313095 -0.07390678 0.06309544 -0.053603213 -0.042360116 0.20154053 -0.028358014
-0.030573402 -0.10116477 -0.16859688 0.0498845 0.11219526 -0.11919478 0.03385431 -0.017924694
0.011116014 0.014179049 -0.070441686 0.24018863 0.0141598545 -0.018691892 -0.26839578 -0.031342857
-0.07016262 0.087053105 0.006942902 -0.060608998 -0.07372987 0.18168372 0.13259797 -0.027170261
-0.03867244 -0.044413857 -0.08841547 -0.11148674 -0.0038342713 0.070353545 -0.01752314 -0.014444445
0.012314929 0.018768549 -0.00986607 0.17625646 0.07647528 0.12159813 0.034698036 -0.19809079
-0.098570324 0.103405654 0.019099742 -0.15766464 0.23000994 0.18421654 -0.011141159 0.10285792
0.13370928 -0.21643953 -0.11059071 -0.020301072 0.00681338 -0.009175628 0.10608983 0.16712724
-0.09302473 -0.13777255 -0.11407313 0.102272265 -0.01908459 0.09298812 0.019753946 -0.14440536
0.09474049 0.101215884 -0.081497386 0.013921807 0.06590967 -0.1930052 0.0025980826 0.09034448
0.09716791 -0.09620483 0.012268879 -0.18858631 0.06498432 -0.14772384 -0.0029427437 -0.16634263
0.046054438 0.057708144 0.11732228 -0.023109963 -0.09836517 0.14326343 -0.21481 0.11616314
-0.15265551 0.013846427 0.1263535 -0.13949835 -0.07974926 0.023474643 -0.09846831 0.092169285
-0.083282225 -0.081750624 -0.099290915 -0.024335343 -0.15721746 0.060490377 -0.09352297 0.07811177
-0.043732807 0.0051037357 0.06473057 -0.12828328 0.051322915 -0.12386905 0.016878804 -0.113887444
-0.02114131 -0.027918516 -0.079526514 0.17215599 -0.005578263 -0.014288608 -0.09403116 0.122291505
0.021154763 -0.06848684 0.075819805 0.06889808 0.0522075 -0.011518558 -0.047155615 0.21191585
0.12974907 0.11052361 0.12027094 0.07459867 0.13517845 -0.011065887 0.02324069 -0.059548005
-0.084995665 0.06703613 0.11331461 0.009984643 0.17463474 -0.039816022 -0.28528646 0.053748384
0.068671376 0.07851195 0.0273945 0.1058861 -0.103085466 -0.15555677 0.07545717 -0.07796603
-0.0793093 -0.040313095 0.112403736 -0.04096821 -0.0048028133 0.29344603 0.014707077 0.17501727
0.050514966 0.042826973 -0.041340727 0.050540656 -0.050015338 -0.13733678 0.020998525 -0.11098369
0.04253151 -0.10149978 -0.076070875 0.08269294 0.011250996 -0.095582955 0.041392088 -0.11604967
-0.10032542 0.13495009 0.09241526 0.037881482 -0.06915898 0.002480833 0.022453057 -0.10152961
-0.052462775 -0.13966936 -0.14877799 -0.062682375 0.065684035 -0.035002433 0.05464952 -0.0032879012
0.074643955 -0.066260464 0.014025307 0.045307264 -0.22127207 0.0798038 -0.21249278 -0.18555678
-0.010461063 -0.021258065 0.19528839 0.07026337 0.111860104 0.0789377 -0.061757673 -0.08217905
0.120011844 0.07985565 -0.02232443 -0.027758993 -0.1817028 -0.02724978 -0.0937107 -0.026488353
0.08331954 0.027785547 0.050210454 0.23091799 -0.09006262 -0.06078801 0.10232042 0.07752254
0.0075568417 0.058719862 -0.118189 0.07542251 -0.14595132 0.004223122 -0.057047356 0.07316264

0.bias f4 [128]
00000000: f1b5 5d3d 6207 9c3d bffb 143d e83a 4ebe
00000010: 5bcb de3c 12f8 043e a554 53be 8707 e53e
00000020: 7114 593e 7432 e1bd ece9 5f3e 5129 803e
00000030: a5dc 0dbd 089d f6bd 7844 8e3d 0930 033d
00000040: 9d4c 30be 0d27 65be 738a 4fbd c723 153e
00000050: c856 ae3c e0ed d3bd 8490 33be ce7e 3bbe
00000060: 7c5b b3bd 911a cebd 7047 853e cc22 d33e
00000070: 6d9d 65be 3543 833e f760 7d3d ada9 95be
00000080: 6800 24be 8bac ccbe 66b6 59bd 66af a7bd
00000090: 242e f33d 0305 1dbe a4f6 373d 3f37 b9bd
000000a0: ba17 15bd 085a 24be 5fe9 bbbd 7569 54be
000000b0: 2708 42be 870d 7ebe 02d2 603e c470 513d
000000c0: 2099 98be 4fbe 1d3e 8717 aebd 348e 1abd
000000d0: 5483 02be a6b3 e9bd 4a66 5cbd 1051 97bd
000000e0: eb3f 8b3e 5436 c13d 210a 3f3d 1d3f 23be
000000f0: d6c0 0ebd a714 f4bd 2ca0 27be 4609 1ebe
00000100: 4e76 e2bd e85a 2c3e 8b8b 3abe e1e6 4bbe
00000110: 45eb e2bd f78c 84be f41b 9d3e b045 dabd
00000120: 696d f53c fa6f 02be 5f0d 2abd f4b6 7e3c
00000130: 29ac 3dbd 4483 14be 46a3 c8bd 9c86 2cbe
00000140: 8d02 34be 6cd1 0fbe 3b85 1fbe 5239 e0bb
00000150: 778f 41be 22ce bbbd 7994 8b3e 3ed6 8e3e
00000160: 4907 64be 65aa 93bd 2f49 de3c 9f6c 80bd
00000170: f7ec 3bbe 2f71 61be f754 a73e 3fc7 87be
00000180: 7743 7ebd 1f8e a8bd f795 cb3e 80cc 01be
00000190: 0f27 8b3e 259a 6fbe ffdd 0abe 1428 49be
000001a0: cb58 aebe a99c 0bbe e531 4f3e 8ca6 e8bd
000001b0: 5282 52be 3f5b 86be 3e61 b9bd 9542 56be
000001c0: 2745 01be a6f3 96be 7256 9a3e 8b50 90be
000001d0: e574 aabd f70e adbd 0166 37be 725e 4ebe
000001e0: b9fd f63d 4f80 58be aa47 743e d412 5dbe
000001f0: db03 93ba 507c 34bd 2536 0ebc dec5 d8bb
0.05412859 0.07618596 0.036372896 -0.20139658 0.027196577 0.12985256 -0.20637758 0.44732305
0.21199204 -0.10995951 0.21866578 0.25031522 -0.03463425 -0.1204167 0.06946653 0.03202823
-0.17216726 -0.22378178 -0.050669145 0.14564429 0.021281615 -0.103481054 -0.17535597 -0.18310091
-0.08757684 -0.10063661 0.26031065 0.41237485 -0.22423334 0.25637212 0.06186005 -0.29231015
-0.1601578 -0.3997539 -0.053152464 -0.081877515 0.11874035 -0.15333943 0.04491295 -0.090437405
-0.03639958 -0.16049969 -0.091753714 -0.20743354 -0.18948422 -0.24809848 0.21955112 0.051132932
-0.29804325 0.15404628 -0.08500581 -0.03773327 -0.1274541 -0.11411218 -0.053808488 -0.07388508
0.27197203 0.094341904 0.04664052 -0.15942045 -0.03485187 -0.119180016 -0.16369694 -0.15433225
-0.11057721 0.16831553 -0.18217294 -0.19912292 -0.1108003 -0.25888798 0.3068539 -0.10657823
0.029959397 -0.12738028 -0.041516658 0.015546549 -0.046306763 -0.14503199 -0.09796767 -0.16848224
-0.17579098 -0.14044732 -0.15578167 -0.0068427706 -0.18902384 -0.09170176 0.27261713 0.2789783
-0.22268404 -0.072102346 0.027134506 -0.06270718 -0.18352114 -0.22015832 0.3268201 -0.265192
-0.06207606 -0.082302324 0.39762852 -0.12675667 0.27178237 -0.23398645 -0.13561247 -0.19644195
-0.3405212 -0.1363398 0.20233877 -0.11359891 -0.20557526 -0.2624149 -0.090517506 -0.20923837
-0.12624036 -0.29482764 0.30144078 -0.2818645 -0.08323077 -0.0845012 -0.17910005 -0.20153216
0.120601125 -0.21142696 0.23855463 -0.21589214 -0.0011216359 -0.044063866 -0.008679901 -0.0066153845

2.weight f4 [128, 128]
00000000: e10d 233d b086 78bc 5841 0bbd 815c 77bd
00000010: bbf1 833d 5669 6cbc f235 40bd 31a7 513b
00000020: 3f3f 4dbb d40c fdbc 7bdd 013c 9cec 513d
00000030: 7411 dfba 34b6 3abd 0faf 863d a9d2 74bd
00000040: 3954 81bd 3ce0 20bd 6593 b5bd 4e65 a03c
00000050: d31a a03d 3f7e a3bd bd83 323d 3adc 9e3b
00000060: 3e29 4dbc 3fcc 7abd a374 31bd a1e3 35bd
00000070: c94c c33c f4b8 c93c 53ba a2bd e7ad 95bc
00000080: ae80 58bc 88a8 b6bb 6aa5 82bd 1f21 313d
00000090: 515c 463b f9b5 53bd e494 69bd 2050 80bc
000000a0: 52e7 8c3c 4414 86bd 5303 063b 57cc 19bd
000000b0: 55c9 10bc 1a08 313c ea3f b13c 2890 d43b
000000c0: 92ee 53bd 425a 9ebd 8647 133d 701b 973d
000000d0: d897 57bd e0eb 5fbd 1006 df3b 23d0 86bc
000000e0: 8f04 a93d 0943 923d 6c38 3f3c 249b b43d
000000f0: b210 a53d de1c 1bbc af80 803d 784c b8bd
00000100: 09ab cdbc a5d3 6f3d f229 6bbd 3787 09bc
00000110: b39f 96bd c96a ab3d 0f63 3d3d 10b3 42bd
00000120: b16c a03d 9c61 4cbd 9a9f 823d 796c 1abc
00000130: 93a6 88bc fb21 813d 6f34 afbd 5ad9 39bd
00000140: 1de3 da3a fb34 acbd 73ca 8b3c ecd3 9bbd
00000150: 0853 83bd 67b0 023d 167f 6dbc f023 a63d
00000160: ee45 9ebd c424 973d 2c44 5e3d 9632 52bc
00000170: 83b4 3c3d 58e7 9cbd 6911 a9bd e42e 6ebd
00000180: 16fd 99bd 0ae9 9bbd b401 013d 3de4 ae3d
00000190: 1386 7fbb f2a1 1abd 94b9 6cbd e1a1 bcbc
000001a0: a922 573d 1755 4cbd a1e0 51bd 7750 a4bd
000001b0: 5158 bc3c 9fe6 8b3d 9586 253d a014 9d3d
000001c0: ce4b 693d 5133 52bb a3a1 8bbd b577 a53d
000001d0: f082 61bd f265 b33d 20ff 52bd be19 8a3a
000001e0: 810f 933c 9339 5c3d 1049 323b bf88 9ebd
000001f0: 1959 85b9 02ac a13d 8134 0d3c cd93 363d
00000200: 54bb f9bc f305 65bd 3b77 583d cc2e 413d
00000210: 9389 9fbc 310b bfbc a855 0fbd 95d9 5b3c
00000220: f1af 8a3d 852e aebd fa6a bd3a f889 573c
00000230: c187 c5bb cd56 533d 3994 e83c 61e4 8c3d
00000240: 21f5 3dbd 1b71 48bc 5ed9 4bbc b431 42bd
00000250: b68b 0fbd ae9b 01bd a87e d7bc 8fb8 2abd
00000260: e7fa 303c f52a a9bd d985 a43d eb19 06bd
00000270: 9fc6 743d 0079 823b 8cd8 98bd 95fc b3bd
00000280: 586f 6bbc 888a 4f3d df3a 093c 171a 663d
00000290: 40d7 5ebd b4ed acbd bd66 afbd 503d b83c
000002a0: 47bb 343d fbf6 17bd bcb4 a53c 0263 92bd
000002b0: 8eba 51bc 3dc2 963d 7562 01bd 2ddd 903d
000002c0: c4c5 5dbd 57cb 55bd 9ed4 9b3d 447b 903d
000002d0: ceda 953c e9b6 b1bc 73c7 1d3d 8040 e63c
000002e0: 322c 28bd 7d71 8bbd 541e 3fbc df7b 2dbd
000002f0: deba 09bd 0f0c 883c 20ba 983d f635 8d3d
00000300: c281 853d 0d72 053d c635 e63c 8b0a 94bc
00000310: b933 013c fecb 87bb 65de 8ebd b6e0 b03d
00000320: c207 7a3d b085 343c 5c92 333d a193 2e3d
00000330: c9d9 873d ada0 503d 58bb 7ebc 5d1f 9ebc
00000340: 5530 59bd e617 e53b 923c 8d3d d84b a5bd
00000350: 050a b93c 30f6 4bbd 4ede 973d 1e6a a2bd
00000360: 485d 393c 2fb2 573d 8a89 e3bc cc7b a33b
00000370: f07c ed3c 445a 88bb d583 06bd b924 ab3d
00000380: 6819 a8bd 3050 6cbd 5494 f6bc 37a3 9e3b
00000390: 24fc 98bc 7f11 7b3c 91f6 78bc 0743 3ebd
000003a0: 2279 2c3c c602 863d b602 243d 8044 be3c
000003b0: 5683 6bbd e74a 503d c0da 7abc b74d 6e3d
000003c0: b14f 0ebd a825 8cbd 7192 773d 6a1f 91bc
000003d0: 9cd7 fcbc d78b 293d 2274 223a 301a 09bd
000003e0: 7409 43bc 334e ebba 85c4 133c 3ca3 803d
000003f0: a7c9 1cbd 9e9d efbc 9bda 93bb e1d3 db3a
0.039808158 -0.015168831 -0.033997864 -0.060390953 0.06442591 -0.014429411 -0.046926446 0.0031990523
-0.0031318215 -0.030889906 0.00792634 0.05125104 -0.0017018751 -0.04558392 0.065763585 -0.059771214
-0.06314892 -0.039276347 -0.08866004 0.019579556 0.07817616 -0.07983064 0.043582667 0.0048480304
-0.01252204 -0.06122994 -0.043324124 -0.044406537 0.023840325 0.024624325 -0.07945695 -0.0182714
-0.013214273 -0.0055742897 -0.063792065 0.043244477 0.0030267427 -0.051687215 -0.05702676 -0.015663207
0.017200146 -0.06546834 0.0020448759 -0.03754839 -0.008837064 0.010805154 0.021636922 0.0064869113
-0.05174119 -0.07732059 0.035956882 0.0737828 -0.052635044 -0.054668307 0.0068061426 -0.01645667
0.082528226 0.07141692 0.011671167 0.08818653 0.08059825 -0.009467332 0.062745444 -0.0899896
-0.02510597 0.05855145 -0.05741305 -0.008394054 -0.07354679 0.08369977 0.046237048 -0.04753405
0.07833231 -0.049897775 0.06378098 -0.009425276 -0.016680991 0.063053094 -0.08554923 -0.0453733
0.0016699765 -0.08408543 0.017064309 -0.0760878 -0.06412321 0.03190651 -0.014495632 0.08112323
-0.07728182 0.07380059 0.054264233 -0.012829443 0.046070587 -0.07661313 -0.08255274 -0.058150187
-0.075189754 -0.07612808 0.031495765 0.08539627 -0.0038989827 -0.0377521 -0.05779417 -0.023026409
0.05252329 -0.049885835 -0.051239613 -0.0802316 0.022991331 0.06831097 0.04041155 0.076699495
0.05695706 -0.0032074044 -0.06817939 0.08079473 -0.055056512 0.08759679 -0.051512837 0.0010536236
0.017951729 0.053765845 0.0027204193 -0.07740926 -0.0002543412 0.07894136 0.008618475 0.044574548
-0.030484833 -0.055913877 0.052848082 0.04716377 -0.01947478 -0.023320766 -0.034993798 0.013418575
0.067718394 -0.08504967 0.0014451437 0.013155453 -0.006028146 0.05159645 0.02839099 0.06879497
-0.04637635 -0.012233998 -0.012441961 -0.04741068 -0.035045348 -0.03164261 -0.026305512 -0.041679915
0.010802007 -0.082601465 0.08033342 -0.03273956 0.059759732 0.0039817095 -0.07463178 -0.087884106
-0.014369808 0.050669223 0.008375852 0.056177225 -0.054404497 -0.08443776 -0.08564518 0.022490174
0.044123914 -0.037100773 0.020227782 -0.071477905 -0.012800826 0.07361267 -0.031588037 0.07073436
-0.054143682 -0.052195873 0.07608913 0.07054761 0.01829281 -0.021693664 0.038520288 0.028106928
-0.041057773 -0.068087555 -0.011664946 -0.04235446 -0.033625476 0.016607312 0.074573755 0.06895058
0.0651889 0.03257947 0.028101813 -0.018071434 0.007885867 -0.004144191 -0.06976012 0.0863661
0.061042555 0.011018202 0.04384075 0.04262126 0.06633336 0.050934482 -0.015547596 -0.019302065
-0.05302461 0.0069913743 0.068963185 -0.08071107 0.022587785 -0.04979533 0.07415448 -0.079303965
0.011313744 0.052660163 -0.027775545 0.004989123 0.028990239 -0.004161151 -0.03284057 0.08356614
-0.08207971 -0.05769366 -0.030100025 0.004841234 -0.018674918 0.015323996 -0.015195505 -0.04645064
0.010526927 0.06543498 0.040041648 0.023226023 -0.0574983 0.050852682 -0.015310943 0.058179583
-0.03474397 -0.0684312 0.06044239 -0.017715175 -0.03086453 0.041393127 0.00061971147 -0.03347224
-0.011904109 -0.0017952382 0.009019022 0.062811345 -0.03827825 -0.029249962 -0.004512144 0.0016771519

2.bias f4 [128]
00000000: 8fb5 653d 048e 4dbd 8571 5fbd 43a3 cbbc
00000010: 73a8 ea3c 6376 d1bd 3248 26bd 2fd0 83bc
00000020: c29f ffbc f9fa 28be 6221 b33c 6c1c efbd
00000030: 5096 8fbd 65cd 45bd 4be9 f4bd ba88 123e
00000040: 4147 c53d fa39 9d3c f7a6 75bd b216 3cbc
00000050: 47c0 2a3d 76b2 f6bd 4616 c0bb 75e5 13bc
00000060: 9707 a3bd efdc b9bc 3584 86bd 65d1 4d3c
00000070: ae57 a8bc 41df c8ba 6d1d 6f3d 232a 7ebd
00000080: bf9c f53d 3218 af3d 76f9 0fbe 753b cbbd
00000090: c3f7 af3c 52e8 aabc 9418 85be d1fb 13be
000000a0: 19b2 b4bc 4950 20bd 60c0 63bd ce31 eebd
000000b0: 1a0b b03c 101b ee3d 376e 013e 05fd 8dbc
000000c0: 3e67 1fbe 5feb f33c a1c8 8c3d 2ebb 833d
000000d0: 4e40 813a 8430 02bd 47a6 7cbc 7641 72bb
000000e0: a205 583d ecf1 38bb 5f7f 1d3c bbf3 d2bc
000000f0: 00b9 cebd 17bc e03c c4c6 893d cc0f 813d
00000100: f098 6cbd a602 a23d 9c66 51bd f8be f43c
00000110: 69cc 4d3b 2f6a 65be d25b b9bd 30e8 cc3d
00000120: c44b 4ebd cdf2 ab3d 5a7a acbb 800e 163d
00000130: e65d 1fbc bf5f eebd 3e32 a93b 7e85 b0bd
00000140: 6495 4cbd fdda 523d 2896 3abd f0c0 3c3b
00000150: edaa 68be ab76 933d 867a 253d f4ee 1abd
00000160: 192e da3d ee6a 01be 6aac 98bd 543b a73c
00000170: 60b0 65bc 4d31 a7ba eb39 1dbe a2ca cc3d
00000180: d8ce 2c3d c99e 403d 9a13 2fbd 2eb5 c73d
00000190: 954f 4f3d b3fa c03d 2028 62bd 641f 9bbd
000001a0: 79af 603d 8063 1e3e db26 d5bd d4b4 cc3b
000001b0: 1b51 03bb 3d81 f8bd c3b6 93bd 8bd4 b3ba
000001c0: d02f 4dbd d9b4 c0bd 51ab 87bd 7bce b03d
000001d0: 0682 b1bd e3ac 853d d68f 083d 098e debc
000001e0: e796 ef3c c6f2 fd3d e54a e43d 3489 9ebd
000001f0: 2ebc 683d 4e7e c53d 76d7 35bd b100 5cbd
0.05608135 -0.050184265 -0.05455162 -0.024858123 0.028644776 -0.102276586 -0.040596195 -0.01609048
-0.031204108 -0.16501988 0.021866504 -0.11675343 -0.07011092 -0.048291583 -0.119585596 0.1430997
0.09632731 0.019192684 -0.059973683 -0.01148002 0.041687276 -0.120457575 -0.00586203 -0.009026875
-0.07960432 -0.022688357 -0.06568185 0.012562131 -0.020549621 -0.0015325324 0.058377672 -0.062051903
0.119927876 0.08549537 -0.14060006 -0.0992345 0.021480447 -0.020862732 -0.25995314 -0.14451529
-0.02205758 -0.039139066 -0.055603385 -0.11630593 0.021489669 0.116262555 0.126397 -0.017332563
-0.15566728 0.02977532 0.068742044 0.06432186 0.0009861083 -0.03178455 -0.015420503 -0.0036965287
0.052739747 -0.0028220369 0.009612887 -0.025750985 -0.1009388 0.027433438 0.06727365 0.06301841
-0.05776304 0.079106614 -0.051123247 0.029876217 0.0031402356 -0.22403787 -0.090507165 0.10005224
-0.050365224 0.0839592 -0.005263609 0.036634922 -0.009726977 -0.11639356 0.00516346 -0.086192116
-0.049947158 0.051478375 -0.045553356 0.0028801523 -0.22721453 0.072003685 0.04040005 -0.03782554
0.10653324 -0.12638447 -0.074547604 0.020414032 -0.014019102 -0.0012755782 -0.15354125 0.09999587
0.04218945 0.04702643 -0.042743303 0.09751354 0.050613005 0.09422817 -0.055214047 -0.07574347
0.054854844 0.15467644 -0.10407802 0.0062471423 -0.0020037356 -0.12134025 -0.072125934 -0.0013719959
-0.050094426 -0.09409494 -0.06624473 0.08633133 -0.08667378 0.06527116 0.033340298 -0.027167337
0.02924676 0.12399821 0.111470975 -0.07741013 0.056820087 0.09643231 -0.044394933 -0.053711597

4.weight f4 [128, 128]
00000000: ca28 443d 2d59 c83c 9788 18bd 5512 4f3d
00000010: 9a4b a83a f0ed 4abd b928 dc3b 3c38 14bc
00000020: 9735 d53c 464b 5f3c 39dd 8a3d 4208 de3b
00000030: 3b4f 013c 16f8 e2bb f2ca 7cbd d2c5 313d
00000040: f2bd 973d 6a83 1cbd c8f4 6cbd e00c 0cbd
00000050: e586 5abb 8380 933d 4751 84bc 7c2b a63d
00000060: 9e4e 923d eb1c 90bd 66a7 b2bd 828a 14bc
00000070: 457d 3bbc cf85 3c3c 8bfc 0dbc 068e 1fbd
00000080: ba24 7a3c 25a4 33bd 6583 433d e3e2 803d
00000090: 7091 94bd d999 88bd ca7a 893d f5fe a1bc
000000a0: 95eb 123d 6f88 adbd abd3 58bd 69e9 8dbd
000000b0: 4c78 fcbc b8ea 88bd f163 02bd 3a26 cb3b
000000c0: 8990 0bbd a0ef 323d 8a97 0bbd 5528 8bbd
000000d0: f3d2 bcbc 5e96 433d b330 8ebc 5c35 3cbd
000000e0: f56a 06bd f1d4 8f3d f70e 93bd a027 48bd
000000f0: 81d5 98bd d744 993d d8aa 44bd 53a9 a13d
00000100: 0064 a3bc e8f0 67bd 3ab2 31bd 720f 8dbd
00000110: 93cd 5b3c e70b 09bd 6647 a13d 65c1 023c
00000120: e175 823c 1be6 26bd a6a0 dfbc 01ac 44bd
00000130: 9fbf d33c 8d59 2e3d ea17 67bd 922e 203d
00000140: c3af adbd c262 543d bd4c 3d3d c67e cbbc
00000150: 8032 8e3c 9f7d 79bd 6308 8abc 1322 bf3c
00000160: 79b9 303d b003 92bd 78bf 96bd 3da5 8d3d
00000170: 29c4 fd3c 5b9f 9c3d 3bc2 a0bd 6c71 28bd
00000180: 9545 19bd 1897 81bc 459b 063c 40a0 95bc
00000190: e9c2 403d a25d 5abd 6fe7 993d f291 31bd
000001a0: 400b 473d a2a4 943d 7e19 a0bd b1c8 c83c
000001b0: 400b a73c 3c2f a53d 90ae 493d 5be9 b1bd
000001c0: c979 02bd c9ea 8dbd b44c 3fbd 950a d9bc
000001d0: 078b 093d 8dfe aebd 6725 b03b 27f3 a3bd
000001e0: 194f 8bbc 5c3c abbd be24 77bd b93c 1ebd
000001f0: 35bd 103d ceb4 49bd f543 56bd 9cc2 1e3d
00000200: 83b3 32bd 5fca 053d e9a2 b33d 4506 9a3d
00000210: 0aa0 abbc f1df 353d e28b c5bc 9e96 833d
00000220: 571a 47bb e887 993b cadd adbd da61 953d
00000230: 4653 753d 6847 4cbc f70c 3cbd 80b8 05bd
00000240: 0529 9fbd 7236 68bd b059 2f3d 4ba6 6abd
00000250: 6535 0a3d e821 3abd 6d8b 28bd 0700 abbd
00000260: 1660 ed3b c73b 0abd cc37 27bd 8f9b 133a
00000270: 83a2 43bd bbee 543c e733 733d c729 1abd
00000280: 1d84 c73c d5f7 02bd 4ea5 933c d319 94bd
00000290: 0f63 5dbd 52dd 1dbd 62dc a2bb 33f8 8dbc
000002a0: 9047 d6bc 9d6c 4e3d af41 82bd ccc1 b43d
000002b0: 39b8 8a3c 8eb1 74bb 90eb 883d 64cb 813d
000002c0: d4c0 a1bc c5d8 d33c 906c 12bd 6f61 4b3d
000002d0: 125d 673d c20d 9e3c c64c f13b 9636 06bd
000002e0: 7db7 04bd dc8a 863d 9a56 bf3c aac0 0e3d
000002f0: dd7f f0bb 10d2 2cbc b16d 7b3d 33cc 8dbd
00000300: 3607 673c d968 aabc efc6 eebc 3ce6 a3bd
00000310: 6d40 7a3d a269 90bd 4d13 dcbc 8671 373c
00000320: 20b9 3f3d d4b1 bbbd cba0 2e3d d631 13bd
00000330: a4bb f43c cb60 aabd 94e4 9dbd 7cd2 a33d
00000340: 196d f13c c53c 233c cdd3 2a3d 5d2f 9a3d
00000350: 11d0 603d 98b2 a23c cb76 92bd b208 ac3d
00000360: 8c36 77bc fb03 38bc 1fc6 973c df86 893d
00000370: 7748 79bc d627 1fbd 7ae0 4a3d f68b 6e3d
00000380: 011d cc3c 6d3a af3b 296a 1c3b bc5c 923c
00000390: ad31 96bd 10a3 40bd 77c8 123d fdaa bc3c
000003a0: 5a2f 143d f4d0 1e3b 7b18 58bd fcaf 24bd
000003b0: e2d5 b0bc 9db9 6fbd e5cd a23d a625 5cbd
000003c0: 6a49 413c e27b b63d f0dd 95bd e433 a8bd
000003d0: a329 163d 826c 473d 27e7 24bd b319 213d
000003e0: a2af 803d 31a0 32bd 322a 8d3d 903b 143c
000003f0: 9405 a5bc d716 e83c d280 3d3d 1bf6 a23d
0.047890462 0.024456585 -0.037239637 0.050554592 0.0012839914 -0.04954332 0.0067187217 -0.00904661
0.02602653 0.013628786 0.06780476 0.0067758868 0.007892425 -0.006926547 -0.06171698 0.043401547
0.07409276 -0.038211264 -0.05785063 -0.034191966 -0.0033344564 0.07202246 -0.016152037 0.08113763
0.07143901 -0.07036766 -0.08723335 -0.009066226 -0.011443441 0.011506512 -0.008666168 -0.038953803
0.015267545 -0.043857712 0.04773273 0.06293275 -0.072543025 -0.06669969 0.06712873 -0.019774893
0.0358692 -0.08473288 -0.052936237 -0.06929285 -0.03081908 -0.06685394 -0.031833593 0.0061996253
-0.034073386 0.043685555 -0.034080066 -0.06794802 -0.023049807 0.047750823 -0.017357206 -0.045949325
-0.032816846 0.07023037 -0.07180589 -0.048865914 -0.07462598 0.07483833 -0.04801449 0.07893624
-0.019945145 -0.05662623 -0.04338286 -0.068877116 0.013415712 -0.033458617 0.07874946 0.007980679
0.01592535 -0.04074679 -0.027298283 -0.0480156 0.025848208 0.04256587 -0.05641929 0.039106913
-0.084807895 0.051851995 0.04621576 -0.024840724 0.017358065 -0.060910817 -0.016849702 0.023331678
0.04314563 -0.071296096 -0.073607385 0.06916282 0.030977326 0.07647582 -0.078495465 -0.041123793
-0.037419874 -0.015819117 0.00821573 -0.01826489 0.04706088 -0.05331195 0.075148456 -0.043352075
0.048594713 0.07257964 -0.07817362 0.02450976 0.020391107 0.0806565 0.04923874 -0.08687087
-0.031854425 -0.06929547 -0.04670401 -0.026494304 0.033579852 -0.085446455 0.0053755525 -0.08005362
-0.01700549 -0.08361122 -0.060337774 -0.03863213 0.035336692 -0.049244694 -0.052310903 0.038759813
-0.043628227 0.0326637 0.08771307 0.07520727 -0.020950336 0.04440302 -0.024114553 0.06425212
-0.003038069 0.0046853907 -0.084895685 0.07294054 0.05989387 -0.012468196 -0.0459108 -0.032646656
-0.07771496 -0.056692548 0.042810142 -0.057287496 0.033742327 -0.04544249 -0.04114859 -0.083496146
0.0072441204 -0.033748414 -0.040824696 0.0005630785 -0.047762405 0.012996371 0.05937567 -0.0376375
0.024354989 -0.031974632 0.01802316 -0.07231488 -0.054049548 -0.038541146 -0.0049701193 -0.017330265
-0.02615717 0.05039655 -0.063601844 0.08826026 0.016933547 -0.0037337276 0.06685555 0.06337622
-0.019745268 0.0258602 -0.035748065 0.049653467 0.056485243 0.01929367 0.0073638884 -0.0327669
-0.03240155 0.06569454 0.023356725 0.034851708 -0.0073394612 -0.01054813 0.061383907 -0.069237135
0.01410084 -0.020801948 -0.029147593 -0.08002898 0.061096597 -0.07051398 -0.026864672 0.0111965
0.04680741 -0.091647774 0.042633813 -0.0359362 0.02987463 -0.08319243 -0.077096134 0.07999131
0.029470967 0.009963219 0.041705895 0.07528565 0.054885928 0.01986055 -0.07151564 0.08400096
-0.015088689 -0.011231418 0.018527089 0.06715178 -0.015215031 -0.03885635 0.049530484 0.058238946
0.024916174 0.005347541 0.0023866987 0.017866485 -0.07333694 -0.04703051 0.03583571 0.023030752
0.03617797 0.0024233432 -0.05275772 -0.040206894 -0.021586362 -0.058526624 0.079494275 -0.05374684
0.011797288 0.089103475 -0.07317722 -0.08213022 0.0366608 0.048687465 -0.040259507 0.03933115
0.06283499 -0.0436098 0.06892814 0.009047404 -0.020144261 0.028331203 0.04626543 0.07957097

4.bias f4 [128]
00000000: 1fe0 09bd dd9e af3c 9346 863d d1bb b2bd
00000010: 8c68 92bd 01c5 20bd b447 cdbc 7d01 bbbc
00000020: 9a42 b73d 3c78 ad3d cd66 73bd 53cf 073c
00000030: 4666 0ebd f28b e6bb c557 df3d 1e91 803d
00000040: 32ac b0bd 9449 873d 9c06 953d 91c2 41bd
00000050: e43e 0ebd bb00 913c aef5 113d 4557 8fbd
00000060: 25ac ea3d 4bfe 95bd cf82 26bd 6c2d a7bd
00000070: 5455 17bd c64a 66bc bcd7 8fbd 2d28 7a3d
00000080: fad3 47bc 731c a1bc 41d7 84bd fa40 26bd
00000090: 8e8e 3a3c 64d0 093d 6611 b8bc 87ab 8bbc
000000a0: 78dd 743c a690 0abd 0d64 de3d e140 bf3d
000000b0: ee60 593d e831 ad3d fd7f 0a3d f0de 62bd
000000c0: 9789 0a3c 4581 663d 1bfe 193d 898e 3fbd
000000d0: 709a 9ab9 fb7a 5bba 4de8 60bd 1c92 1abd
000000e0: d141 953a 4620 a9bd b612 93b9 d16b aa3d
000000f0: 5b28 083d 5f14 20bd ecc3 e93d d5ff 023d
00000100: 0947 b9bd 5089 86bd 4f4e e63b 2a4a 08bd
00000110: b343 f23d 9ea6 203d c9b3 533d 274f e4bc
00000120: a31a 4b3d e072 d73d 963e c33d eae4 883d
00000130: daa1 e7bc 7f69 c0bd bc5f 843d 553f 10bd
00000140: 8ebd 213c 7bde 8e3d 8b74 58bd 3f61 d9bc
00000150: 53be bf3d 1f73 123d 575e 983d 1887 13bc
00000160: 37fe 9cbd 887c 57bc d1cd d53d e05d ea3c
00000170: 12b9 a3bd bbf9 cbbc 0843 3a3d 2f45 7e3d
00000180: 788e b73d d3e3 993d a60a 55bd 64c9 fdbb
00000190: 5d64 c0b9 a34d 68bc 5d8a d43b f5a1 b9bc
000001a0: b536 993d e20a b6bc 4b2d a1bc 5c77 84bc
000001b0: 83c1 fa3d 87a1 6b3c 84b2 60bd 95b5 f9bc
000001c0: c44f 8fbd e40d 123d a2cb 203e 4fd6 86bd
000001d0: eccb a7bd fb5a 5abd d8c7 3dbd 2a0c 2cbc
000001e0: e5f5 913d f7d5 d13d f4ed cd3d 9cd5 d23a
000001f0: fb20 c0b9 cd9c f2bc d579 0c3d 31cf 063d
-0.033661004 0.021438057 0.0655643 -0.087272294 -0.07148847 -0.039250378 -0.025058605 -0.022827858
0.0894825 0.084701985 -0.05942421 0.008289176 -0.034765504 -0.0070357258 0.109054126 0.06277679
-0.08626594 0.06605831 0.07276651 -0.047304694 -0.034727946 0.017700544 0.03563469 -0.06999067
0.11458615 -0.07323893 -0.040652093 -0.081629604 -0.03694661 -0.014055913 -0.0702357 0.06107347
-0.012196535 -0.019666886 -0.06486369 -0.04058931 0.011386527 0.033646002 -0.022469234 -0.017049564
0.01494538 -0.033829354 0.10858927 0.093385465 0.053070955 0.084567845 0.033813465 -0.05538839
0.008455656 0.056275625 0.03759585 -0.04676679 -0.00029488234 -0.00083725125 -0.05490904 -0.037736997
0.0011387413 -0.08258109 -0.00028051966 0.083213456 0.03324161 -0.039081927 0.11414322 0.03198226
-0.09046752 -0.06569159 0.007028378 -0.033273853 0.11829319 0.0392214 0.05168513 -0.027869774
0.04958595 0.105199575 0.09533422 0.06684287 -0.028275419 -0.09395122 0.064635724 -0.035216648
0.0098718535 0.069760285 -0.05284552 -0.026535628 0.09362473 0.03575432 0.07439869 -0.009004377
-0.07665675 -0.013152249 0.10439647 0.028609216 -0.07994284 -0.024899354 0.045474082 0.062077697
0.08962721 0.07514157 -0.05201211 -0.007744955 -0.0003669587 -0.014178666 0.0064862208 -0.022660235
0.07481138 -0.022221986 -0.019674918 -0.016170196 0.12243941 0.014381773 -0.054857746 -0.030482093
-0.06997636 0.03565778 0.1570268 -0.06583845 -0.08193192 -0.053309422 -0.046333164 -0.010500947
0.07126979 0.10245889 0.100551516 0.0016085389 -0.00036645666 -0.029615784 0.034295876 0.032912437

6.weight f4 [128, 128]
00000000: b354 f13b 1603 3d3d 4d01 cbbc 0e9d 2ebc
00000010: 5026 163d 5d75 80bd c541 803c e211 8a3d
00000020: e832 963d 30f9 203d 2a1b 4abd 6915 1cbd
00000030: 7102 893d 8607 adbd e22e b43d ad51 abbc
00000040: 291d 523d 8d08 103c ed0c 9c3d 2b73 51bd
00000050: 0ffb 9b3d ca7e a03d 458f 963b 09f8 a13d
00000060: bf4a 3fbd 1ae9 89bc 7b0b a3ba cac8 3dbc
00000070: 0e7e 79bd fdde a53b 872d d13b 9b52 b83d
00000080: c44a 8abc 98c4 633d b56e 97bc 283f 27bd
00000090: c1b9 9c3d d688 b1bd 6595 f03c 09aa bd3c
000000a0: b2e3 893d b063 32bd d0a7 16bc a71b 6fbd
000000b0: a6dc 2a3d 0716 b53c 356f 283d 15cb 1c3d
000000c0: 0602 b9bc f394 6dbd 2da0 e9bb cb13 4a3d
000000d0: c68e 543d 9677 803d 873a 843d d737 b1bd
000000e0: 90a0 133d 6e37 363d dd86 9fbc 25a9 a4bd
000000f0: b417 f33c b682 1fbd ef07 62bd 398d a73d
00000100: d87d 20bd 050b 41bd 2ae0 9dbd dd3b a23d
00000110: 7a57 8c3d 5c40 183d 8a93 b43c fd0a 8ebd
00000120: 637d 8bbd b0ed 4f3d 02b6 45bd 1810 9abd
00000130: 574f f0bc e69b 5cbd b9ef 193d ab22 24bd
00000140: ac72 8ebd 9af7 25bc 362d 71bd 46c3 81bd
00000150: 3d86 e7bc f714 14bd b873 35bd c1fc b13d
00000160: 4a7f f03c c297 35bd 0947 cb3c 71ee a7bd
00000170: f381 88bd 9f5b 173b 98c6 ca3d 6658 ad3d
00000180: 1c35 c1bb e890 d4bc 767a 00bd 4a81 58bc
00000190: 4c7f dfbc 529e a6bd 89e9 4cbd c93f 7cbc
000001a0: db72 c03c ed0a c13d f14c ce3d 565d ae3d
000001b0: 3e43 983d 007e ba3d ea13 8f3d 0d0a 4e3d
000001c0: 9081 193d 84db 5d3d ff2e 18b9 2429 a7bc
000001d0: 0549 033d dcfc 8cbd 69c0 513d eb97 d73d
000001e0: e972 a83d be24 85bd f53d 8f3d 2e78 bd3c
000001f0: 59ed 553d 0997 163d 2cc2 8f3d d1ec 9dbd
00000200: 89b0 b23d 6753 9ebd 4e7b 40bd 6e55 923c
00000210: aadb 25bc 94ab 7abd 61fb 843d edf1 b83c
00000220: 1a1e 9dbc 1f79 153d c668 8cbd 118a 8fbd
00000230: 57b1 4a3d 4e81 5b3d 13f3 543d 450e f83c
00000240: 15f9 59bd 10d1 8b3d 0d65 043d 64ab 843d
00000250: 1f6c 88bd f9d4 bbbd 9b71 22bd d679 6abd
00000260: 2c61 693a cc56 a5bc f016 903d 8b90 88bc
00000270: e5f5 00bd b29b 413d a6f8 c23d 153e 5c3a
00000280: 7a94 b93d 9e31 49bd 50d5 9c3d 99f2 ed3c
00000290: 4713 093c e15f 983d e70a 823d 297f 27bd
000002a0: bc53 ebbc 4c58 afbd ee39 a8bc 0060 efba
000002b0: 6fd5 243d 9fc0 d03b 4d91 3abd ce35 b73d
000002c0: 5632 a93b 671b 83bd 75fb b03c 61b0 513d
000002d0: 2914 d43c 570b 19bd c90c adbc 0a01 8c3d
000002e0: cc1d 363d 0655 7ebb ef62 e8bc a3cb 853d
000002f0: 0ded 11bd de86 203d a527 943d 5b64 90bd
00000300: a15c 42bd a1bc 7fbd c511 82bb 2402 0dbd
00000310: dc39 5abd f1b6 b33d f1e2 bf3d 1c37 61bc
00000320: a0d2 ba3c 126f 363b 65bc b33b f117 813d
00000330: 97f9 163d 1111 823d 48ec 16bd b6d0 acbd
00000340: 4185 67bc a6fc 813c 40c6 3a3b cd4d 853d
00000350: 61fd 2a3d 4206 123d 1cea 723c bacb 04bc
00000360: 0a17 3dbc 5544 063c 8029 4fbc 0fa7 463c
00000370: fd62 723d aece 3f3d aedb 503d 09d7 263d
00000380: 329d 86bc 2127 eabc 7957 523d a22a 343c
00000390: a326 b13d 66cf 03bc f738 cb3d a0b6 92bd
000003a0: 6ec8 da3d a9ac c9bc 37b3 7c39 feee 02bd
000003b0: 86ef 433a 67cd f43c cc2d cf3d a318 9bbc
000003c0: 6cf6 84bb 9239 57bd fbd6 48bc bc7a 5eb7
000003d0: dd3f b43d 4395 a8bd 6cfd 85bd 7e9c 093c
000003e0: 0008 dbbc 2446 383d 92b3 3e3d 2719 7bbd
000003f0: abb1 b13c e79d 5b3c 1c76 343c c85f a1bd
0.0073648333 0.04614552 -0.024780894 -0.010657562 0.03665763 -0.06272385 0.015656361 0.06741692
0.07333928 0.039300144 -0.049342312 -0.038106356 0.06689919 -0.084487006 0.08798005 -0.02091297
0.05129734 0.008791101 0.07619653 -0.051135223 0.07616245 0.07836683 0.004594716 0.07908637
-0.046702143 -0.016834784 -0.0012439335 -0.011583516 -0.06091123 0.0050619827 0.006383601 0.09000131
-0.016881354 0.05560741 -0.018485406 -0.040831715 0.07652617 -0.086686775 0.029368112 0.023152368
0.067328826 -0.0435521 -0.009195283 -0.05837598 0.041714333 0.02210523 0.04112168 0.03827961
-0.022583973 -0.058003377 -0.00712969 0.049335282 0.05189397 0.06272809 0.06456476 -0.08653229
0.036041796 0.044486456 -0.019473488 -0.08040074 0.029674388 -0.038943015 -0.055183347 0.08181233
-0.039182514 -0.04712965 -0.077087715 0.07921574 0.06852622 0.037170753 0.022043008 -0.069356896
-0.06811025 0.050763786 -0.04826928 -0.07522601 -0.029334707 -0.053859614 0.037582133 -0.040072124
-0.06955466 -0.010129834 -0.058881007 -0.063360736 -0.028262252 -0.036152806 -0.04429981 0.08690787
0.029357571 -0.04433418 0.024814146 -0.08199776 -0.06665411 0.0023095382 0.0990116 0.08464126
-0.0058962237 -0.025948003 -0.031366788 -0.013214419 -0.02728238 -0.08135666 -0.050027404 -0.015396067
0.023492267 0.09425912 0.10073269 0.08513896 0.074347004 0.09106064 0.0698622 0.050302554
0.037477076 0.054164425 -0.00014513357 -0.02040536 0.03205206 -0.068841666 0.051208887 0.10527023
0.082250424 -0.06501149 0.06994239 0.023128595 0.052228305 0.036765132 0.07019457 -0.07711185
0.08725078 -0.077307515 -0.046992593 0.017863002 -0.010123173 -0.061198786 0.06493259 0.022576297
-0.019179393 0.036492463 -0.068559214 -0.07008756 0.04948553 0.05359011 0.051989626 0.030280242
-0.05321606 0.06826985 0.032322932 0.06478003 -0.066612475 -0.09171481 -0.039659124 -0.057245098
0.00089027244 -0.02018299 0.07035625 -0.016670486 -0.031484503 0.047267623 0.09520082 0.0008401585
0.09061523 -0.049119584 0.07657874 0.029046344 0.0083664125 0.074401625 0.06349736 -0.040892754
-0.028726451 -0.08561763 -0.020535436 -0.0018262863 0.04024261 0.0063706185 -0.045548726 0.08945809
0.005163471 -0.06401711 0.021604279 0.0511936 0.02588852 -0.03736433 -0.02112426 0.06836136
0.04446201 -0.0038808002 -0.028367488 0.06532981 -0.03562646 0.03919112 0.07234124 -0.07050391
-0.04745162 -0.06243575 -0.0039694034 -0.03442587 -0.053277835 0.08775128 0.093694575 -0.013746049
0.022805512 0.00278372 0.005485105 0.063033946 0.03685912 0.063509114 -0.03684643 -0.08438246
-0.014130891 0.015867542 0.0028499514 0.0650898 0.041745547 0.0356505 0.014826324 -0.008105213
-0.0115411375 0.008195003 -0.012644172 0.012124791 0.059176434 0.046827964 0.050990753 0.040732417
-0.016432378 -0.028583111 0.05135295 0.010996493 0.086499475 -0.008045053 0.099229746 -0.07163739
0.1068276 -0.024618464 0.00024099356 -0.031966202 0.00074743514 0.0298831 0.10116157 -0.018932646
-0.004057696 -0.052545138 -0.012258287 -1.32608075e-05 0.088012435 -0.082315944 -0.06542477 0.008399127
-0.026737213 0.044988766 0.04655797 -0.061303284 0.021691164 0.013404346 0.011014488 -0.07879597

6.bias f4 [128]
00000000: afb0 143c bca2 1d3e 71d4 d13c d168 d33d
00000010: 2ef3 5cbd 4af5 1cbd baf5 2b3e 106e 8d3d
00000020: a322 f23d 8dd7 0f3e 29bc 1c3c 8061 dabd
00000030: 7efb acbd b32e c83c 097f 343d a01f 743d
00000040: 01e1 babd b60e c3bc bcb7 9dbd cfe6 153d
00000050: c59d 883d a3d0 243e 9c84 87bd 29e8 9fbd
00000060: 303f 863b 047c 7e3d 6bcf f63c d685 90bd
00000070: 9e34 fe3c 1ab5 7dbd fbfd 8e3d ef01 22bd
00000080: 70dd 223e 77ea e03b 8630 3d3d e887 53bd
00000090: 99d3 41bd 57fa 863d 6015 72bd 1046 2c3e
000000a0: 619f d6bc 04c7 6f3e 3a4c a83d ccfa 663b
000000b0: 057a afbd 52d3 ca3d 2003 fd3d d70d afbd
000000c0: d6d2 e43a cf27 583d 5f36 83bd 4f3a 93bd
000000d0: fad9 3e3d 45c7 0cbd 63bd b23d 417b f63d
000000e0: 3b89 63bd f802 03bb ffec 613e 1e6f 67bd
000000f0: fafc 4b3d 7e67 69bd 2c00 0bbc a3bf 933e
00000100: e94f 0dbc 00eb 9abc 0025 2bbd 2b8a 7b3d
00000110: a994 adbd ee16 49bd 718c 59bd 4222 603d
00000120: 09ae 08bc 3033 95bd 5caf f5bc 3080 213e
00000130: ea24 523c 2e4d c4bd 1f1b 0dbd fdd0 56bd
00000140: 3e4f 2ebd 0f78 b33c d4b1 28bd 492b c7bc
00000150: 578c fdbc 2a62 f8bc 6333 343c f7b2 153d
00000160: 6356 91bc a05d 6c3d b4ea 29bc de53 a93d
00000170: 0c61 9ebd a173 98bd 4dd6 b9ba 771c 9ebd
00000180: 2c47 e0bc 18b3 28bd 938e 823c 35bf aa3d
00000190: 07c4 4ebd 7e0b bd3d 8330 74bd bb63 ac3e
000001a0: 0fc2 86bd e129 adbd 918f 43bd b0ec 0abd
000001b0: d869 523d ddf7 33bd f33c 043e 4076 6b3b
000001c0: 324b ba3b 5c3f 753d 8b18 bcbd 4ca1 083d
000001d0: 3aa2 233d 55ce e4bd 93cb 813d a333 a1bc
000001e0: 6278 b1bd 98c6 83bd ee34 073e 5274 573b
000001f0: e2cf 103d 874b 1b3e 3a61 1e3e 97bb 093c
0.009075328 0.1539411 0.025613995 0.103227265 -0.05394285 -0.038319863 0.16792956 0.069057584
0.11823013 0.1404707 0.009566345 -0.10663128 -0.08446406 0.02443633 0.044066463 0.059600472
-0.09124947 -0.023810726 -0.0770106 0.03659707 0.06670717 0.16095214 -0.0661709 -0.07807953
0.004096888 0.06212999 0.030128201 -0.07056777 0.03103095 -0.06194029 0.06982037 -0.039552625
0.15904784 0.006863888 0.046188854 -0.051643282 -0.047320936 0.06590717 -0.059102416 0.16823602
-0.026199045 0.23415762 0.08217664 0.0035244701 -0.08568195 0.099035874 0.12354112 -0.085475616
0.0017457854 0.05277234 -0.06406855 -0.07188856 0.046594597 -0.034369726 0.08727529 0.120352276
-0.055550795 -0.0019990783 0.22063063 -0.056502454 0.049801804 -0.056983463 -0.008483928 0.28857145
-0.008625009 -0.018910885 -0.041783333 0.061411064 -0.0847562 -0.049094133 -0.05311245 0.05472017
-0.008342274 -0.07285154 -0.029990844 0.15771556 0.012826184 -0.09585033 -0.034449693 -0.0524454
-0.04255604 0.021907834 -0.041185215 -0.024312632 -0.030950708 -0.030320246 0.01099858 0.036547627
-0.017741388 0.057706475 -0.010370899 0.082679495 -0.07733354 -0.074439295 -0.0014178246 -0.07720273
-0.027377687 -0.041186422 0.015937125 0.08337251 -0.050479915 0.092307076 -0.059616577 0.33669838
-0.065799825 -0.084552534 -0.047744337 -0.03391713 0.05137047 -0.043937553 0.12913875 0.0035928637
0.0056852335 0.059874877 -0.09184369 0.03335695 0.039949633 -0.11172167 0.06337657 -0.019677943
-0.08665539 -0.06434363 0.13203785 0.0032875729 0.035354502 0.1516553 0.15466776 0.008406541

8.weight f4 [49, 128]
00000000: 8ecf 993d eb7f aabd 9215 d2bc 6df4 313d
00000010: 67be 0abe b3de 9e3d 941f 40be 988d b83d
00000020: ca6b 1fbe 3a2c 1bbe 083b cbbd b780 c83b
00000030: 7244 63bb b862 7fbb 61ac f93c 6d26 d43b
00000040: c976 083d c01e 703d 60be 5e3c 81ec 793d
00000050: facd 863d dc1a 68bd 2893 a7bd e79c ae3d
00000060: fcec 2cbd 060e 043d f5ba 8f3d c2f0 94bc
00000070: 35a9 6ebd 6756 133c 8119 ae3d 9756 833d
00000080: 8060 c6bd 3656 a73d 96f7 213c 8595 8e3d
00000090: 6b99 abbd 2e95 2dbc 6e37 093d 879e 3ebe
000000a0: 016d 61bb 9af0 60be f0de 0dbd 192a c7bc
000000b0: e6d9 343d 91ab 893d d02c a13b c717 3bbc
000000c0: 9a3b 443b bb73 db3c 8fb9 d2bc 29c9 25bd
000000d0: be26 58bd 3e92 613d 2924 08bd efeb 9dbd
000000e0: f8c4 873d 31e3 853d bc30 e1bc a296 b3bd
000000f0: b323 8dbc 9244 a2bd a2e6 28bd 5c83 27be
00000100: 668e 9bbd c441 a93d 108d 873b 2b95 3fbb
00000110: 86f1 fcbc 9e89 613d 944a dd3d 2d35 ac3d
00000120: cd60 99bc e435 c83c 78a3 aa3d 8ff9 d4bd
00000130: 76a8 5fbd 048e 0d3b a0dc 9fbc c5b8 063d
00000140: 20a4 0ebd 882f bc3d 6e43 36bd 482b a7bd
00000150: db7c 14bd ed7c 923d c0ae 363d 3ad1 92bd
00000160: 9a46 3d3d 3e9e 4b3d 6a04 863c 1627 80bd
00000170: 148e 6fbd 8471 faba a141 09be e9f1 063d
00000180: 2fd0 a73d aa4a 133d 96b4 143d e044 f0bd
00000190: b4a5 f2bc 421a 20be 4740 2fbd 14fd 69be
000001a0: 7fa2 c53d 905b 203e f91d 65bd b28d 433d
000001b0: f6e1 b43b f159 55bd c5c0 dc3c 7893 593d
000001c0: 8651 d6bc 134a 153d 8c21 f83c c833 923d
000001d0: d1e8 efbc 0087 ca3c 1083 dfbd 198a a13d
000001e0: 1628 91bd 40db 6fbd dd32 72be 922b a13b
000001f0: 0459 0bbd 41d4 00be bb43 32bd 72c9 943d
00000200: 4c80 413d 3834 c9bd 90a3 c63c 1b23 383b
00000210: ac20 3cbc 713f d63c 1697 1fbd d614 aa3d
00000220: 5a88 28be 0ea7 83bc dfe3 10be 7bca 33bd
00000230: 4329 4a3d 2357 f13c cc86 a63d f666 5c3c
00000240: bf2b b23d 2170 eb3c ca92 2a3d 22c1 e3bc
00000250: f8c7 1e3d 11c9 16be 3b71 1dbb 3351 f13d
00000260: 6443 59bc e385 4b3c 34a3 043d 049b 80bd
00000270: d4bc 4d3c 7df9 473b 1d4d 39bd b400 bfbc
00000280: d9f9 d3bd 1b90 03bc 7ce8 f53d 1b24 233d
00000290: 2958 f43c 5e3c 2dbd d61e 523c bf82 ccbd
000002a0: 9a72 073d 50f4 78be 16f7 01be c4f4 893d
000002b0: fe1d 3b3d f184 28bd 0a86 ab3d 43fe 813d
000002c0: c1f5 08bd 5ae4 ca3c ec4b 83bc f123 b43b
000002d0: af40 16be d55b 83bd b2f6 e9bc 15e7 36bd
000002e0: a326 86bd d890 3b3c 141f 2bbe 0c60 1abe
000002f0: 02ef 763d 9b78 78b9 7e68 4ebd 2dc7 d6bd
00000300: b3d1 19bd fc36 8bbd a1af 813d 8736 243c
00000310: 6a56 52bd 7231 363d 3d0f 223b 93da c23d
00000320: 49fb 99bd 9969 c8bc eae3 f83c f71c 51bd
00000330: 2f43 a83d 7767 b6bd 9fb5 8abd 7aea 793a
00000340: a4e6 173d 50c4 8abd 0955 f13a d375 8bbc
00000350: 1305 963d ec9e af3c fdd2 833d 4c41 03be
00000360: 93a0 ba3d 04b5 903d b050 03bd 0a30 d9bd
00000370: 7301 99bd 8458 62bd cf6a 18be 6b15 c53c
00000380: 83fa 1abd 5ee5 dd3c 9f2b d2bc fc39 6ebd
00000390: 8d4e 8c3c 8ec5 7abe 25ec 1b3d 2fb4 37be
000003a0: e636 c23d 142b 9b3d cbcf 313d e9d2 aebd
000003b0: ef9f a23d feae 323d 14b1 98bd 0859 b33d
000003c0: e5b1 34bc 5ce5 93bc c5da d2bc 33fa 763b
000003d0: 056a f3bd 2417 cabc 3fc2 cabc 2bd4 85bd
000003e0: 3b2a 0bbd 67da 573d d0a3 51be 9f89 d03b
000003f0: 665a 8a3c 7d00 36be 2fc0 70bd f323 f83b
0.07510291 -0.0832518 -0.025645051 0.043445993 -0.13549195 0.0775732 -0.18762046 0.09011382
-0.15568462 -0.1515359 -0.09923369 0.0061188596 -0.0034678248 -0.0038968753 0.030477704 0.0064743073
0.033316407 0.058623075 0.013595194 0.061016563 0.06582256 -0.05666624 -0.08182365 0.085260205
-0.042218193 0.032239936 0.07018081 -0.018181209 -0.058266837 0.008992768 0.08500958 0.06413
-0.09686375 0.0817074 0.009885689 0.06962112 -0.083788715 -0.010594649 0.033500127 -0.18615161
-0.0034397247 -0.21966782 -0.034636438 -0.024312066 0.044153117 0.06722177 0.004918672 -0.011419243
0.0029942752 0.026788583 -0.025723247 -0.040475044 -0.052771322 0.055071108 -0.03323761 -0.077110164
0.06629366 0.06537474 -0.027489059 -0.08768965 -0.017228937 -0.07923235 -0.041235574 -0.16358703
-0.0759552 0.08264497 0.004136689 -0.0029233198 -0.030876886 0.055062883 0.1080524 0.0840858
-0.018722916 0.02443976 0.083319604 -0.10399162 -0.054604016 0.002159954 -0.019514382 0.032891054
-0.03482449 0.09188753 -0.0444979 -0.08162552 -0.036251884 0.07152734 0.04460025 -0.07168813
0.04620991 0.04971146 0.016359527 -0.06257455 -0.058485106 -0.0019107317 -0.13403942 0.032945547
0.08194005 0.035959877 0.036305033 -0.11731887 -0.029620029 -0.15635017 -0.04278591 -0.22850448
0.09650134 0.15659928 -0.055936787 0.047742553 0.0055201007 -0.052087728 0.026947388 0.053119153
-0.02616192 0.036447596 0.030289434 0.07138783 -0.02928582 0.024722576 -0.1091367 0.07887668
-0.07087724 -0.058558702 -0.23652215 0.004918524 -0.03402044 -0.12580968 -0.043521624 0.07264985
0.047241494 -0.09824413 0.024247915 0.0028097096 -0.011482399 0.026153298 -0.038962446 0.083047554
-0.16458264 -0.016070869 -0.14149426 -0.043894272 0.049355756 0.029460495 0.08131179 0.013452282
0.0869975 0.02873999 0.041643895 -0.027802054 0.038764924 -0.14725138 -0.002402379 0.11783066
-0.013260696 0.012422058 0.032382205 -0.06279567 0.012557227 0.0030513697 -0.045239557 -0.023315765
-0.10350389 -0.008029963 0.120072335 0.039829355 0.029827194 -0.0422939 0.012824735 -0.09985875
0.033068277 -0.24311948 -0.12691912 0.067361385 0.0456829 -0.041142408 0.08375175 0.06347325
-0.033437494 0.02476709 -0.016027413 0.0054974486 -0.14673112 -0.06414 -0.028560016 -0.04465397
-0.06550338 0.011448108 -0.16711074 -0.15075701 0.06028653 -0.00023696052 -0.05039262 -0.104872085
-0.0375535 -0.06797597 0.06332327 0.010022766 -0.051351942 0.04448075 0.002472832 0.09514346
-0.07518632 -0.024464415 0.030382115 -0.051053014 0.08215939 -0.08906453 -0.06772923 0.0009533536
0.03708519 -0.06775725 0.0018412183 -0.017023956 0.073251866 0.021438085 0.06436727 -0.12817878
0.09112658 0.07065776 -0.03205937 -0.10604866 -0.074709795 -0.055260196 -0.14884494 0.024058064
-0.037836563 0.02708691 -0.025655566 -0.058160767 0.0171273 -0.24489424 0.038067 -0.17939828
0.09483127 0.07576576 0.043411057 -0.08536322 0.07940661 0.043623917 -0.0745565 0.08757216
-0.0110287415 -0.018053703 -0.025739083 0.0037685751 -0.11885456 -0.024669237 -0.024750827 -0.065346085
-0.03397582 0.05269852 -0.20472646 0.006364062 0.016888808 -0.17773624 -0.05877703 0.007572645

8.bias f4 [49]
00000000: 706d 96bd 2fa8 5bbc 1680 77bd fe97 e7bd
00000010: 64c4 b8bd d0a6 98bd 6c34 9abd d716 8dbd
00000020: d1ee 11be 42a5 28be b523 02be bd83 aebd
00000030: 1fe9 d9bd cfd7 6cbe 1ee7 21be 93f7 09be
00000040: 2c25 16be 3545 52be 1f1d 32be a77a 05bf
00000050: 630b 1bbe 2924 c9bd a7e8 15be acb5 76bd
00000060: a2bd 01be 3808 39be f975 3cbe 2211 82bd
00000070: 6bd9 05be 6f32 d8bd 3d11 0dbe 9700 17be
00000080: 20b9 9bbd c343 c4bd 0d0a 29be 2d32 aebc
00000090: b978 0cbe fcf9 ecbd 1810 f9bb c7dd 12be
000000a0: c2b2 ddbd 5770 14bc d6d6 70be 0c54 5ebe
000000b0: f5c9 41be 108c 83bd a935 18bd 203a 0ebe
000000c0: 72b7 d9bd
-0.07345092 -0.013406797 -0.060424887 -0.11308287 -0.090218335 -0.07453692 -0.0752953 -0.06889122
-0.14251257 -0.16469291 -0.12708934 -0.08521221 -0.106401674 -0.231292 -0.1581082 -0.13473348
-0.14662617 -0.20534213 -0.17393921 -0.5214028 -0.15141062 -0.0982135 -0.14639531 -0.06023185
-0.12669995 -0.18069541 -0.18404378 -0.06350924 -0.1307122 -0.105564944 -0.13776107 -0.14746319
-0.07603669 -0.09583237 -0.1650774 -0.02126416 -0.13717927 -0.11571118 -0.0076007955 -0.14342414
-0.10825111 -0.009059987 -0.23519453 -0.21711749 -0.18924697 -0.06423199 -0.03716055 -0.1388936
-0.106306925
