models/snapsRandom/model_1685840560.7364044.pt (torch, 252691 bytes, 10 tensors)

0.weight f4 [128, 49]
0	0xbd6fd29a	-0.058550455
1	0x3dd6fb24	0.1049712
2	0x3db7adf0	0.08968723
3	0xbe565f32	-0.20934752
4	0x3c5bcbee	0.01341532
5	0xbd942155	-0.0723292
6	0x3cd97420	0.02654463
7	0x3e0d8dc6	0.13823614
8	0xbc7cc116	-0.015426895
9	0xbe258e31	-0.16167523
10	0x3d875af9	0.066091485
11	0x3e0fe183	0.1405087
12	0xbd5df550	-0.054189026
13	0x3dadb2fc	0.08481404
14	0xbbabd27f	-0.005243599
15	0xbe02fde2	-0.12792161
16	0x3cc238b6	0.023708683
17	0xbc74bdf9	-0.014937871
18	0x3afebb91	0.0019434561
19	0x3d05fa7c	0.032709584
20	0xbdcda546	-0.10041289
21	0xbcd681f7	-0.026185019
22	0x3e23dda7	0.16002522
23	0x3ba594ce	0.0050531393
24	0x3d39b877	0.045341935
25	0xbdae5812	-0.08512892
26	0xbe73995a	-0.23788968
27	0xbc429a3f	-0.011877595
28	0x3e02c58f	0.12770675
29	0xbe17d00a	-0.14825454
30	0x3d104214	0.035219267
31	0xbd2e487a	-0.042549588
32	0x3c26e0bd	0.010185418
33	0xbca21d73	-0.019789433
34	0xbd2b0d29	-0.041760597
35	0x3e8446a5	0.25835148
36	0x3c586ec1	0.01321
37	0xbd9983fe	-0.07495879
38	0xbe579120	-0.21051455
39	0xbd262d98	-0.040570825
40	0x3d35567e	0.04427194
41	0x3e1a9916	0.1509746
42	0x3cc7f8db	0.024410656
43	0xbd006bdd	-0.031352866
44	0xbde23dff	-0.11046981
45	0x3df70158	0.12060803
46	0x3dc8e2f1	0.09808911
47	0xbcf1562f	-0.02946004
48	0xbd0653ce	-0.032794766
49	0xbb2b5925	-0.0026145664
50	0xbde3da90	-0.11125672
51	0xbdf34dcf	-0.11880075
52	0xbd306434	-0.04306431
53	0x3d2f41d0	0.042787373
54	0x3d245d38	0.040127963
55	0x3e17997b	0.14804642
56	0x3b8b0fdc	0.004243834
57	0xbdec3d52	-0.115351334
58	0xbc7f5e1b	-0.015586401
59	0x3e29c0af	0.16577409
60	0x3ddc9d06	0.10772137
61	0x3d85a691	0.06525911
62	0x3dc3cea3	0.09560897
63	0xbe497663	-0.19674067
64	0xbce23f0f	-0.02761796
65	0x3cc28685	0.023745785
66	0xbcb18043	-0.021667605
67	0xbdc03b46	-0.093863055
68	0x3e8100f7	0.2519605
69	0x3da7cb66	0.08193092
70	0xbde391e3	-0.1111181
71	0xbc73c531	-0.014878557
72	0x3e3d6cbf	0.18498515
73	0xbda82057	-0.08209293
74	0xbdc8e77e	-0.09809779
75	0xb9d3c1bd	-0.00040389402
76	0xbcb3cf1b	-0.021949342
77	0xbde13971	-0.10997284
78	0x3de928c9	0.11384732
79	0x3e1c7486	0.15278825
80	0xbe10c469	-0.14137425
81	0xbe17fe4d	-0.14843102
82	0xbdcae164	-0.09906271
83	0x3e0303e0	0.12794447
84	0xbdebf7fe	-0.1152191
85	0x3d5eecc4	0.054425016
86	0x3d526d55	0.0513738
87	0xbe133246	-0.14374647
88	0x3de3fc75	0.11132137
89	0x3e321686	0.17391405
90	0x3cc5dd48	0.024153367
91	0x3ce4e1d8	0.027939722
92	0xbbd94029	-0.006629963
93	0xbe2b7d90	-0.16747117
94	0x3d8c1571	0.06840027
95	0x3dd5d88e	0.10441695
96	0x3cfd717c	0.030937903
97	0xbdcf8f01	-0.10134698
98	0x3cb1146b	0.021616181
99	0xbe26c826	-0.16287288
100	0x3d1d6d10	0.03843409
101	0xbe7b7b77	-0.24558817
102	0x3c96a90c	0.018391155
103	0xbe386da3	-0.18010573
104	0xbb349721	-0.00275559
105	0x3dc2cfad	0.09512267
106	0x3da606de	0.081067786
107	0xbd27f1a4	-0.04100193
108	0xbd78e8dd	-0.06076895
109	0x3e3ce6ac	0.1844737
110	0xbe16f51b	-0.14741938
111	0x3e2cd2bc	0.16877264
112	0xbdc20c6d	-0.09475026
113	0x3c700218	0.014648937
114	0x3e1c5663	0.15267329
115	0xbe215311	-0.15754344
116	0xbe0a66f3	-0.13515835
117	0x3d1d14d5	0.038349945
118	0xbd25d508	-0.040486366
119	0x3dd92c15	0.10604111
120	0xbd902e3d	-0.07040069
121	0xbdf75115	-0.12076012
122	0xbd61a4e4	-0.055088893
123	0x3d34b739	0.044120047
124	0xbe15e6ea	-0.14638868
125	0x3d64e545	0.05588271
126	0xbdfcb907	-0.12339979
127	0x3d83f2f9	0.06442828
128	0x3cea9320	0.028634608
129	0xbcf00b39	-0.029302226
130	0x3db28024	0.08715847
131	0xbe104fb5	-0.14092906
132	0x3d119dcd	0.03555088
133	0xbe29287f	-0.16519354
134	0xbc9acd25	-0.018896649
135	0xbd7473a4	-0.059680596
136	0xbdafd4b5	-0.085854925
137	0xbd8f3472	-0.06992425
138	0xbdb52f36	-0.088468954
139	0x3e2e78ae	0.17038223
140	0xbd3ed3f0	-0.046588838
141	0xbc9a24ae	-0.018816318
142	0xbd8f4271	-0.069950946
143	0x3da047a8	0.07826167
144	0xbd12d440	-0.03584695
145	0xbd80f2cf	-0.06296312
146	0x3da060c2	0.07830955
147	0xbb98cb09	-0.0046628756
148	0x3daab262	0.08334805
149	0xbc682ee8	-0.01417134
150	0x3d72dca1	0.05929244
151	0x3e57c5a0	0.21071482
152	0x3d87587a	0.066086724
153	0x3dad15b4	0.08451405
154	0x3de5e05f	0.11224436
155	0x3da760b1	0.08172739
156	0x3e1e1404	0.15437323
157	0x3da5deb6	0.08099119
158	0xbd7b95f6	-0.06142231
159	0x3c0a5eb9	0.008445435
160	0xbd8ea6b3	-0.06965389
161	0x3e06df4c	0.13171118
162	0x3e472a96	0.19449839
163	0x3da29e4d	0.0794035
164	0x3de3c8e5	0.11122302
165	0xbd8e2ab9	-0.069417424
166	0xbe212876	-0.15738091
167	0x3de5349c	0.11191675
168	0x3d41659b	0.04721604
169	0x3c77c9af	0.015123769
170	0x3cd98b59	0.026555704
171	0x3bd9f067	0.0066509726
172	0xbdffd132	-0.12491073
173	0xbe7b6a18	-0.2455219
174	0x3d9a2c64	0.07527998
175	0xbd544aae	-0.051829033
176	0xbd9041ce	-0.07043801
177	0xbdb657ee	-0.0890349
178	0x3d256e67	0.04038849
179	0xbd5cb858	-0.05388674
180	0xbc338c50	-0.010958746
181	0x3eae72fe	0.34072107
182	0x3cd409c3	0.025883561
183	0x3e3fb73a	0.18722239
184	0x3d497e52	0.049192734
185	0xbdd0926a	-0.10184176
186	0xbd2d875a	-0.04236541
187	0x3d8e15fb	0.06937786
188	0xbdbcd747	-0.092207484
189	0xbe168e10	-0.1470263
190	0xbbabc9ab	-0.0052425466
191	0xbdded466	-0.108803555
192	0xbcbf1f23	-0.023330277
193	0xbda266b1	-0.07929743
194	0x3c1cf229	0.00957922
195	0x3d9c0852	0.076187745
196	0x3cd2fd48	0.02575554
197	0xbd58a88e	-0.05289512
198	0x3ce60562	0.028078739
199	0xbc857ffd	-0.016296381
200	0xbe1ecfe4	-0.15508991
201	0x3cecd46e	0.028909888
202	0x3eacfc0f	0.33786055
203	0x3c09dcc0	0.008414447
204	0x3d376182	0.044770725
205	0xbbb556b7	-0.005534019
206	0x3d1733e5	0.036914725
207	0xbde618c1	-0.1123519
208	0xbd69114e	-0.05690127
209	0xbdeb5560	-0.11490893
210	0xbdc9e816	-0.0985872
211	0xbe001853	-0.12509279
212	0x3d107459	0.035267208
213	0x3d131467	0.03590813
214	0xbe4c7532	-0.19966581
215	0x3d61d911	0.05513865
216	0xbd3aece2	-0.045636065
217	0x3cb42faf	0.021995394
218	0xbd1d0a34	-0.03833981
219	0xbc4d2d20	-0.012522966
220	0xbddb543d	-0.107094266
221	0x3d6c0714	0.057623938
222	0xbe08b310	-0.13349557
223	0xbe1fdfb9	-0.15612687
224	0xbcd42534	-0.025896646
225	0xbd13ccee	-0.036084108
226	0x3e9cd94b	0.3063453
227	0x3bc81319	0.0061057922
228	0x3b3b1594	0.0028546797
229	0x3daefbd8	0.08544129
230	0xbd09fccf	-0.033688363
231	0xbc12f153	-0.008968669
232	0x3ddca416	0.107734844
233	0x3de10997	0.10988157
234	0xbe1df25d	-0.15424486
235	0xbd751fa6	-0.059844635
236	0xbe777ecc	-0.24169463
237	0xbd830fa5	-0.06399468
238	0xbe8ef780	-0.27923203
239	0x3d0ffa07	0.035150554
240	0x3af63676	0.0018784541
241	0xbc1fa63c	-0.009744223
242	0x3d221ce3	0.03957833
243	0x3da697f1	0.08134449
244	0xbcf08273	-0.029359078
245	0xbbc6e81f	-0.0060701515
246	0x3dd0d0cb	0.10196074
247	0x3cef1c67	0.029188348
248	0x3da5d61f	0.08097481
249	0x3e0e61bb	0.13904469
250	0xbd37b60d	-0.04485135
251	0x3d7beaf5	0.06150337
252	0xbdc665c5	-0.0968738
253	0x3e6f53fc	0.23371881
254	0x3da29d63	0.079401754
255	0xbcc7c70a	-0.024386901

0.bias f4 [128]
0	0x3e2521c8	0.16126168
1	0x3e44880f	0.19192527
2	0xbc8d102f	-0.017219631
3	0xbe47f567	-0.19527207
4	0x3dc75bff	0.09734344
5	0x3e26cc2a	0.1628882
6	0xbdeff21e	-0.11716102
7	0x3ece668d	0.40312615
8	0x3ed5ef65	0.41784206
9	0xbe7b4dd5	-0.2454141
10	0x3e895058	0.2681911
11	0x3e91fd41	0.2851353
12	0xbdb7a557	-0.08967083
13	0xbdd0264b	-0.10163554
14	0x3e5cb339	0.21552743
15	0x3d5a5833	0.05330677
16	0xbd8434ce	-0.06455384
17	0xbe3bdc15	-0.18345673
18	0x3b9671c7	0.0045912
19	0x3e662bac	0.22477597
20	0xbb9a5080	-0.0047093034
21	0xbe3c1e10	-0.18370843
22	0xbe6819f8	-0.22666156
23	0xbe107b08	-0.14109433
24	0xbde0e5cf	-0.109813325
25	0xbd291625	-0.041280884
26	0x3eb9b858	0.36273456
27	0x3f06b35c	0.5261743
28	0xbe078474	-0.1323412
29	0x3e816171	0.25269654
30	0x3d67d985	0.056603927
31	0xbeb6f99c	-0.35737312
32	0xbdd600b2	-0.10449351
33	0xbea63d37	-0.32468578
34	0xbdd8606f	-0.10565268
35	0x3d720b38	0.05909273
36	0x3e990860	0.29889202
37	0xbd4e2230	-0.050325572
38	0x3d3da744	0.046302095
39	0xbced81e9	-0.02899261
40	0xbe46a569	-0.19399036
41	0xbd33ffd0	-0.043945134
42	0x3c8b4164	0.016998954
43	0xbdc3fec6	-0.095700786
44	0xbde39cd0	-0.11113894
45	0xbd700fea	-0.058608927
46	0x3e4e821a	0.20166817
47	0x3dd33a43	0.10313847
48	0xbe960b81	-0.29305652
49	0x3e8bb2af	0.27284762
50	0xbe12e429	-0.14344849
51	0xbd010ec0	-0.031508207
52	0xbe956990	-0.291821
53	0xbe0097cb	-0.12557904
54	0x3e75c1b9	0.2399968
55	0xbc9b3ef0	-0.01895091
56	0x3edbcf52	0.4293161
57	0xbe2d743f	-0.16938876
58	0xbd74fa02	-0.05980874
59	0xbe904c9d	-0.2818345
60	0xbd4661d7	-0.04843315
61	0xbe7ad764	-0.24496228
62	0xbe2e003a	-0.16992274
63	0xbe253327	-0.16132794
64	0xbe480f75	-0.19537146
65	0x3e253e8d	0.16137142
66	0xbe1f9ab7	-0.15586363
67	0xbd5a6811	-0.0533219
68	0xbdc16b23	-0.09444263
69	0xbdeea9f3	-0.11653509
70	0x3edd37b8	0.43206573
71	0xbe2e4d54	-0.17021686
72	0x3e49b47e	0.19697759
73	0xbe707c71	-0.2348497
74	0x3da0144f	0.078163736
75	0xbe813a2f	-0.25239703
76	0xbd273683	-0.04082347
77	0x3c5c6187	0.013450987
78	0xbe1c82fb	-0.1528434
79	0xbe864e78	-0.26231742
80	0xbeaf2c81	-0.3421364
81	0xbe665e31	-0.22496869
82	0xbe404786	-0.18777284
83	0x3d0d6dc1	0.034528498
84	0xbe96cd8d	-0.29453698
85	0xbd6f5ef6	-0.05844017
86	0x3ecc970f	0.39959
87	0x3ddc11e7	0.10745602
88	0xbd814993	-0.06312861
89	0xbe7d744c	-0.24751395
90	0x3cd1e7b9	0.02562319
91	0xbde1363b	-0.10996672
92	0xbe43736e	-0.19087002
93	0xbe2a2599	-0.16615905
94	0x3e826133	0.25464782
95	0xbe9721b1	-0.29517892
96	0xbd5ff495	-0.05467661
97	0xbd96f43a	-0.07370801
98	0x3e25d4df	0.16194485
99	0xbe8db991	-0.27680638
100	0x3e695cfd	0.22789378
101	0xbe58c5d0	-0.2116921
102	0xbe80358c	-0.25040853
103	0xbeba3a72	-0.36372715
104	0xbebeca38	-0.37263656
105	0xbeb459ee	-0.3522486
106	0x3e9f78e2	0.31146914
107	0xbe2c9989	-0.16855444
108	0xbdeec73d	-0.116590954
109	0xbd9ad419	-0.07559986
110	0xbe4a24ee	-0.1974065
111	0xbde60a1d	-0.11232398
112	0xbd3d9f78	-0.04629466
113	0xbec1851a	-0.3779686
114	0x3efadd49	0.48996952
115	0xbe786379	-0.24256696
116	0x3ce43803	0.02785874
117	0x3b5f4f09	0.0034074208
118	0xbe916c5d	-0.28402987
119	0xbe014b6d	-0.12626429
120	0x3e16585f	0.14682148
121	0xbed78c70	-0.42099333
122	0x3e8af24e	0.2713799
123	0xbcaafb6d	-0.020871842
124	0x3e001b9e	0.12510535
125	0x3dd1c2e6	0.10242252
126	0xbcd04954	-0.02542559
127	0x3da0fbe3	0.078605436

2.weight f4 [128, 128]
0	0x3d2537cb	0.04033641
1	0xbc070cd1	-0.008242802
2	0xbd09efe9	-0.03367606
3	0xbd81b2a0	-0.06332898
4	0x3d95eddf	0.07320761
5	0x3b0d8226	0.0021592467
6	0xbd2a84aa	-0.041630425
7	0x3c68ef5f	0.014217227
8	0x3b9aa1fc	0.004719017
9	0xbd01f341	-0.031726126
10	0x3c81fab1	0.01586661
11	0x3d8e7c36	0.06957285
12	0xbb7352fd	-0.0037128322
13	0xbd3ab526	-0.045582913
14	0x3d9ad026	0.075592324
15	0xbd83eb7a	-0.06441398
16	0xbd829724	-0.06376484
17	0xbd26fdda	-0.040769435
18	0xbdba49cd	-0.09096108
19	0x3d11c7fc	0.03559111
20	0x3da84685	0.082165755
21	0xbda96bb8	-0.08272499
22	0x3d1ff761	0.03905428
23	0x3ba4ba0b	0.005027061
24	0xbc276ffd	-0.010219571
25	0xbd80bf52	-0.062864915
26	0xbd045796	-0.03231009
27	0xbc9b475f	-0.01895493
28	0x3cb258c2	0.021770839
29	0x3cd65f5c	0.026168518
30	0xbd9e3330	-0.07724607
31	0xbca11853	-0.019664919
32	0xbc5bdb7a	-0.0134190265
33	0xbbb7c87c	-0.0056086164
34	0xbd857683	-0.06516745
35	0x3d286ee1	0.041121367
36	0x3c6c4c12	0.014422433
37	0xbd6b0e2b	-0.05738656
38	0xbd55cd64	-0.05219783
39	0xbc6075f1	-0.013699994
40	0x3c46acfc	0.012126204
41	0xbd82ceb9	-0.063870855
42	0x3b8f3d53	0.004371324
43	0xbd380efc	-0.044936165
44	0xbc0387b5	-0.008027961
45	0x3bda615e	0.006664439
46	0x3cca7e2c	0.024718367
47	0x3b3fb752	0.0029253555
48	0xbd61b841	-0.05510736
49	0xbd82d53c	-0.063883275
50	0x3d0d3baa	0.03448073
51	0x3da5325c	0.08066246
52	0xbd62ce0f	-0.055372294
53	0xbd620193	-0.055177283
54	0x3c2406f5	0.010011424
55	0xbca2218a	-0.019791383
56	0x3dbfb81f	0.0936129
57	0x3d9216d4	0.0713326
58	0x3c188ca0	0.009310871
59	0x3db815ea	0.08988555
60	0x3da5bee3	0.080930494
61	0xbbaf1f90	-0.0053443387
62	0x3d71b6e6	0.059012316
63	0xbdb83cb9	-0.08995957
64	0xbccce704	-0.0250125
65	0x3d86fa87	0.06590753
66	0xbd6db9ed	-0.05803864
67	0xbc157ed6	-0.009124478
68	0xbd9b26b9	-0.07575745
69	0x3dae0500	0.084970474
70	0x3d8e71d0	0.06955302
71	0xbd39f896	-0.045403086
72	0x3da52ddc	0.080653876
73	0xbd48f4fc	-0.04906176
74	0x3d8050d8	0.0626542
75	0xbbb12453	-0.0054059415
76	0xbc835447	-0.016031398
77	0x3d82f20d	0.06393824
78	0xbdb176b8	-0.08665222
79	0xbd402c86	-0.04691746
80	0xbbed0034	-0.00723269
81	0xbdb325cf	-0.08747446
82	0x3c8aeace	0.016957667
83	0xbda300d6	-0.07959144
84	0xbd845826	-0.064621255
85	0x3cf743a3	0.030183619
86	0x3ba84d47	0.0051361653
87	0x3da60666	0.08106689
88	0xbda202f0	-0.079107165
89	0x3d911e81	0.07085896
90	0x3d76fd3c	0.060300097
91	0xbc5bac37	-0.013407758
92	0x3d2f5abb	0.042811137
93	0xbda175e3	-0.07883813
94	0xbd9e0fd4	-0.07717863
95	0xbd71dd71	-0.059049074
96	0xbd9c48da	-0.07631083
97	0xbd9e26d0	-0.07722247
98	0x3cf9b853	0.0304834
99	0x3dad782a	0.08470185
100	0x3bb4620c	0.005504852
101	0xbd0d3eab	-0.034483593
102	0xbd732d74	-0.05936952
103	0xbce7b376	-0.028283816
104	0x3d592287	0.053011443
105	0xbd505a7e	-0.05086755
106	0xbd287210	-0.041124403
107	0xbda5dcc5	-0.08098749
108	0x3cd97ec0	0.026549697
109	0x3d8df6f9	0.06931872
110	0x3d34cbe8	0.044139773
111	0x3d984f70	0.074370265
112	0x3d83dd5a	0.06438704
113	0xbb6cc096	-0.0036125532
114	0xbd73f6cd	-0.05956154
115	0x3d9387a0	0.07203603
116	0xbd529f6f	-0.05142158
117	0x3dc22cc4	0.094811946
118	0xbd592c60	-0.053020835
119	0x3c0b6fd2	0.008510547
120	0x3ccc4960	0.024937332
121	0x3d628651	0.055303875
122	0x3b8a1c6c	0.004214814
123	0xbda943a0	-0.082648516
124	0x3a2c7fb8	0.0006580311
125	0x3dc632cb	0.09677657
126	0x3c408641	0.011750759
127	0x3d5885bf	0.052861925
128	0xbcfdf59d	-0.031000907
129	0xbd6172bb	-0.055041056
130	0x3d5487bc	0.05188726
131	0x3d36abee	0.04459756
132	0xbc9e8fbf	-0.019355653
133	0xbcda7eff	-0.026671885
134	0xbd1c87c0	-0.0382154
135	0x3bcf2798	0.0063218586
136	0x3d7eb697	0.06218585
137	0xbdacc44e	-0.0843588
138	0x3afe483d	0.0019400191
139	0x3c618c36	0.013766339
140	0xbbd3b609	-0.0064609093
141	0x3d46c7ea	0.048530497
142	0x3cd05036	0.025428873
143	0x3d8451b6	0.064608976
144	0xbd430a94	-0.04761751
145	0xbc81fd7e	-0.015867945
146	0xbc8849c1	-0.016636731
147	0xbd3b939a	-0.04579506
148	0xbd23c881	-0.039986137
149	0xbd02bd74	-0.031918958
150	0xbd0300bf	-0.031983133
151	0xbd3b8264	-0.045778647
152	0x3bb89f95	0.005634258
153	0xbda87857	-0.08226078
154	0x3dab73b5	0.08371679
155	0xbd0be60f	-0.034154948
156	0x3d6d240f	0.057895716
157	0x3b6121e6	0.003435248
158	0xbd9969a2	-0.07490851
159	0xbdb70ad6	-0.08937614
160	0xbc72fc37	-0.0148306405
161	0x3d4fb391	0.050708357
162	0x3bf2a750	0.007405199
163	0x3d5afa5a	0.05346141
164	0xbd6bb9a5	-0.05755009
165	0xbdaed125	-0.08535985
166	0xbdb024fa	-0.08600803
167	0x3c93d7fd	0.018047327
168	0x3d3038bb	0.043022852
169	0xbd27102f	-0.04078692
170	0x3caf1f34	0.021377183
171	0xbd900c52	-0.070336
172	0xbc64b713	-0.013959664
173	0x3d963d54	0.07335916
174	0xbd1975f4	-0.037466004
175	0x3d8fed89	0.07027728
176	0xbd64f478	-0.055897206
177	0xbd57a4bb	-0.052647334
178	0x3d9561f6	0.07294075
179	0x3d914684	0.07093528
180	0x3c915e7d	0.01774525
181	0xbcbced70	-0.023062438
182	0x3d116b19	0.035502527
183	0x3ce42c7b	0.027853241
184	0xbd238ef2	-0.039931245
185	0xbd93618a	-0.071963385
186	0xbc542354	-0.012947876
187	0xbd3d1d6a	-0.04617063
188	0xbd1257f2	-0.035728402
189	0x3c9a2782	0.018817667
190	0x3d91ab46	0.07112746
191	0x3d895af2	0.067067996
192	0x3d84c1dd	0.06482289
193	0x3d018b7c	0.031627163
194	0x3cdc79e3	0.026913589
195	0xbc97d9c6	-0.01853646
196	0x3c01e62f	0.007928415
197	0xbbc8b63a	-0.0061252387
198	0xbd859cb2	-0.06524028
199	0x3db0a741	0.08625651
200	0x3d777a5d	0.06041943
201	0x3c04e7f9	0.008111947
202	0x3d2ed1bc	0.042680487
203	0x3d317dbc	0.0433328
204	0x3d859bd0	0.065238595
205	0x3d43da5e	0.047815673
206	0xbc8545b4	-0.016268589
207	0xbca9f3a8	-0.020746067
208	0xbd607203	-0.05479623
209	0x3bf5d319	0.0075019714
210	0x3d898582	0.06714918
211	0xbda64d79	-0.081202455
212	0x3ca5f244	0.020257123
213	0xbd5ee19c	-0.054414377
214	0x3d940bdf	0.07228827
215	0xbda2df91	-0.07952798
216	0x3c2e71f7	0.0106472885
217	0x3d5685a8	0.05237356
218	0xbcf2b2c0	-0.02962625
219	0x3bd3c47e	0.0064626327
220	0x3cd11c6e	0.025526252
221	0xbb8aa90e	-0.0042315787
222	0xbd23fbcc	-0.040035054
223	0x3da8eed8	0.08248681
224	0xbdaecbd6	-0.08534972
225	0xbd71cf3b	-0.05903552
226	0xbcf2a91e	-0.029621657
227	0x3babbe23	0.005241172
228	0xbcb49fcb	-0.022048851
229	0x3c7320cf	0.014839365
230	0xbc8c3a76	-0.01711772
231	0xbd33beb3	-0.043883037
232	0x3bc85ffe	0.006114959
233	0x3d8819f3	0.066455744
234	0x3d164887	0.03669026
235	0x3cbdf379	0.023187386
236	0xbd5f8891	-0.0545736
237	0x3d33a03c	0.043853983
238	0xbc571f6a	-0.013130048
239	0x3d5e3730	0.05425185
240	0xbd0895cc	-0.033345982
241	0xbd8e8449	-0.06958825
242	0x3d60827e	0.054811947
243	0xbc9b7ee6	-0.018981408
244	0xbd08548b	-0.03328375
245	0x3d221e15	0.03957947
246	0xb9b92a4a	-0.00035317458
247	0xbd0b29d3	-0.033975434
248	0xbc7d78d1	-0.015470699
249	0xbb050a94	-0.0020300495
250	0x3b544fd9	0.0032396226
251	0x3d79b973	0.060967874
252	0xbd1ea33d	-0.038729895
253	0xbd0ad213	-0.03389175
254	0xbbbc5772	-0.005747729
255	0xba9d04f8	-0.001197963

2.bias f4 [128]
0	0x3dca0fc1	0.09866286
1	0xbd61ebe3	-0.0551566
2	0xbd9a8aa7	-0.07545977
3	0x3cd6ac8b	0.026205322
4	0x3dd21d94	0.10259548
5	0xbdca8b45	-0.09889845
6	0xbd14c788	-0.0363231
7	0x3d9d7d85	0.076899566
8	0xbd3ee8fb	-0.046608906
9	0xbdfacf32	-0.122465506
10	0x3c94c735	0.018161396
11	0xbd19ef7f	-0.037581917
12	0xbd9db841	-0.07701159
13	0xbd1f837a	-0.038943745
14	0xbe5276f6	-0.20553192
15	0x3e1acc4d	0.15116997
16	0x3ce2ff0e	0.02770951
17	0x3cb1c67b	0.021701088
18	0xbc873610	-0.016505271
19	0xbc69192f	-0.014227196
20	0x3cf8dec2	0.030379657
21	0xbd6bcac0	-0.057566404
22	0x3e06c63f	0.13161562
23	0xbd073794	-0.033011988
24	0xbdee57fc	-0.116378754
25	0xbd5e1415	-0.05421837
26	0xbd1449db	-0.036203247
27	0x3bb17e51	0.0054166694
28	0xbd10fb09	-0.035395656
29	0x3d26c535	0.040715415
30	0x3da96c80	0.08272648
31	0x3b933d9b	0.004493428
32	0x3e202efd	0.15642925
33	0x3df56eaa	0.11983998
34	0xbe5a00aa	-0.21289316
35	0x3d16dc9a	0.036831476
36	0x3d96fd17	0.07372492
37	0xbccac3b4	-0.024751522
38	0xbec5a97f	-0.38605878
39	0xbd237c0a	-0.039913215
40	0xbcde0b66	-0.027105045
41	0xbd0ec974	-0.03486009
42	0xbd47ea00	-0.048807144
43	0xbdee6b4c	-0.11641559
44	0xbbbfdd8a	-0.005855267
45	0x3d8c83fa	0.0686111
46	0x3de12a8a	0.10994442
47	0xbd0b1d5f	-0.033963557
48	0xbdd45bd4	-0.10369077
49	0x3e4a46e8	0.19753611
50	0x3e01cd5a	0.12675992
51	0x3dd55746	0.10417037
52	0x3b08ec90	0.0020892955
53	0xbb968658	-0.0045936517
54	0xbcdef18a	-0.027214784
55	0x3c216485	0.009850626
56	0x3dae3cee	0.08507715
57	0x3b168668	0.0022968296
58	0xbb353ece	-0.0027655843
59	0xbca65d01	-0.02030802
60	0xbde7bb17	-0.113149814
61	0x3ce0c4cc	0.02743759
62	0x3de6f4a6	0.11277132
63	0x3d82c5fb	0.06385418
64	0xbd681c52	-0.056667633
65	0x3d999d0b	0.07500657
66	0x3c76794d	0.015043569
67	0xbd0e6ac6	-0.034769796
68	0xbc1ee332	-0.009697722
69	0xbe423ac1	-0.18967725
70	0xbda89ebb	-0.082334004
71	0x3db2b510	0.08725941
72	0xbdb6af89	-0.089201994
73	0x3e096d3f	0.1342058
74	0xbbf4908d	-0.007463521
75	0x3d8dde85	0.06927208
76	0xbd10ad14	-0.03532131
77	0xbe6b0ef8	-0.22954929
78	0xbcf78fa7	-0.030219866
79	0x3c88cf5e	0.016700443
80	0x3c3fa1fb	0.011696334
81	0x3cd05454	0.025430836
82	0xbd082a62	-0.033243544
83	0xbcc55923	-0.024090355
84	0xbe782a3d	-0.24234863
85	0x3c21fe64	0.009887312
86	0xbdaabce6	-0.08336811
87	0xbdec8ddb	-0.11550494
88	0x3ea67d4c	0.3251747
89	0xbe4bf832	-0.19918898
90	0xbd9632bc	-0.073338956
91	0x3cd5be86	0.026091825
92	0xbbe417f3	-0.006960863
93	0x3d99b459	0.07505102
94	0xbe39b60a	-0.18135849
95	0x3c92cd5a	0.017920185
96	0x3d416e57	0.04722437
97	0x3d1f3939	0.03887293
98	0xbd3fb4d1	-0.0468033
99	0x3e03f97e	0.12888142
100	0x3c45d37d	0.0120743485
101	0xbbd273bd	-0.0064224885
102	0xbd29433b	-0.04132388
103	0xbda5576d	-0.08073316
104	0x3dfdbeda	0.12389918
105	0x3e5fc5d7	0.21852814
106	0xbdd71314	-0.10501686
107	0x3d845636	0.06461756
108	0xbd1fa709	-0.038977657
109	0xbe518420	-0.20460558
110	0xbd7030fb	-0.05864046
111	0xbe00e491	-0.12587191
112	0x3cb12b0f	0.021626977
113	0xbdadc196	-0.08484189
114	0xbd99b379	-0.07504935
115	0x3cd0c3c1	0.025483968
116	0xbd5461d4	-0.05185111
117	0xbc9df67a	-0.019282568
118	0x3c075646	0.008260315
119	0xbaf2010a	-0.0018463444
120	0x3d119f8b	0.035552543
121	0x3d9cd829	0.07658417
122	0x3de216da	0.11039515
123	0xbddad597	-0.1068527
124	0xbbee74c1	-0.0072771017
125	0x3df2dd31	0.11858595
126	0xbbb3a730	-0.005482577
127	0xbcc793d1	-0.024362477

4.weight f4 [128, 128]
0	0x3d4456b0	0.047934234
1	0x3cc85a06	0.024456989
2	0xbd186a94	-0.037211016
3	0x3d4f416c	0.0505995
4	0x3ab000f0	0.0013428014
5	0xbd4aee38	-0.04954359
6	0x3bdc6a87	0.0067265662
7	0xbc141f89	-0.009040722
8	0x3cd535bc	0.0260266
9	0x3c5fa108	0.013649233
10	0x3d8aded9	0.06780786
11	0x3be02b01	0.006841064
12	0x3c01527b	0.0078932
13	0xbbe2d38a	-0.00692219
14	0xbd7cc954	-0.06171544
15	0x3d31f299	0.04344425
16	0x3d97bb72	0.07408799
17	0xbd1c8138	-0.03820917
18	0xbd6ce859	-0.05783877
19	0xbd0c0b14	-0.034190252
20	0xbb59fbbd	-0.003326162
21	0x3d939e64	0.07207945
22	0xbc83f3ef	-0.016107528
23	0x3da64ad0	0.08119738
24	0x3d924ecd	0.07143936
25	0xbd901441	-0.07035113
26	0xbdb28398	-0.08716506
27	0xbc1460fb	-0.009056325
28	0xbc3af930	-0.01141195
29	0x3c3dec57	0.011591992
30	0xbc0dce9f	-0.008655219
31	0xbd1f91a2	-0.038957246
32	0x3c7b4629	0.015336552
33	0xbd3374f0	-0.043812692
34	0x3d439568	0.047749907
35	0x3d81200b	0.0630494
36	0xbd94832b	-0.07251581
37	0xbd8895e2	-0.06669213
38	0x3d897d0a	0.067133024
39	0xbca1b00f	-0.019737272
40	0x3d12eb95	0.0358692
41	0xbdad86a2	-0.08472945
42	0xbd58d3ab	-0.052936237
43	0xbd8de969	-0.06929285
44	0xbcfc7812	-0.030818973
45	0xbd88e7e0	-0.06684852
46	0xbd025b83	-0.031825554
47	0x3bcb2bf1	0.0062003066
48	0xbd0b89a1	-0.0340668
49	0x3d33a021	0.043853883
50	0xbd0b3192	-0.03398282
51	0xbd8b285b	-0.067948066
52	0xbcbcd09e	-0.023048695
53	0x3d43963d	0.0477507
54	0xbc8e1ff9	-0.01734923
55	0xbd3c1400	-0.04591751
56	0xbd063386	-0.03276398
57	0x3d8fe015	0.07025162
58	0xbd930197	-0.071780376
59	0xbd48271b	-0.04886542
60	0xbd98d375	-0.07462207
61	0x3d9944d7	0.07483833
62	0xbd44a61a	-0.04800997
63	0x3da1ac19	0.07894153
64	0xbca365a2	-0.019945923
65	0xbd67c20f	-0.056581553
66	0xbd319a7d	-0.043360222
67	0xbd8d0f9f	-0.06887745
68	0x3c5c84c7	0.013459391
69	0xbd09090c	-0.033455893
70	0x3da153c3	0.078773044
71	0x3c02dbf6	0.007987013
72	0x3c8268b4	0.015919067
73	0xbd2691a5	-0.04066624
74	0xbcdfa153	-0.027298605
75	0xbd44abdb	-0.048015457
76	0x3cd3ca3f	0.025853274
77	0x3d2e6bfa	0.042583443
78	0xbd671831	-0.056419555
79	0x3d2038b5	0.03911658
80	0xbdada053	-0.08477845
81	0x3d54961f	0.05190098
82	0x3d3d722e	0.04625147
83	0xbccb1994	-0.02479247
84	0x3c8e367a	0.01735996
85	0xbd79809f	-0.06091368
86	0xbc89ef2e	-0.016837683
87	0x3cbf84b5	0.02337871
88	0x3d318858	0.04334292
89	0xbd9203bb	-0.07129618
90	0xbd96bf78	-0.073607385
91	0x3d8da72e	0.069166526
92	0x3cfdea65	0.030995557
93	0x3d9c9840	0.07646227
94	0xbda0c1d6	-0.07849471
95	0xbd285a6e	-0.041101865
96	0xbd1941ff	-0.037416454
97	0xbc815d44	-0.015791543
98	0x3c069b45	0.00821573
99	0xbc95a50c	-0.018267177
100	0x3d40cd67	0.047070887
101	0xbd5a57e0	-0.05330646
102	0x3d99ee54	0.075161606
103	0xbd3191f2	-0.043352075
104	0x3d475188	0.04866174
105	0x3d94d29e	0.072667345
106	0xbda010be	-0.07815693
107	0x3cc93e4c	0.024565838
108	0x3ca71d0e	0.020399597
109	0x3da538bc	0.08067462
110	0x3d49b403	0.04924394
111	0xbdb1d5f3	-0.08683386
112	0xbd026e7f	-0.03184366
113	0xbd8de912	-0.0692922
114	0xbd3f4c8f	-0.04670387
115	0xbcd8a10c	-0.02644398
116	0x3d099f6f	0.033599313
117	0xbdaef8b4	-0.0854353
118	0x3bb06ada	0.0053838314
119	0xbda3efc0	-0.08004713
120	0xbc8b20f5	-0.016983489
121	0xbdab3164	-0.0835903
122	0xbd76f00a	-0.060287513
123	0xbd1e21ba	-0.038606383
124	0x3d10c906	0.03534796
125	0xbd496819	-0.04917154
126	0xbd5632da	-0.05229459
127	0x3d1eb028	0.038742214
128	0xbd2294f0	-0.03969282
129	0x3d06514b	0.03279237
130	0x3dbdeaef	0.09273326
131	0x3d990110	0.07470906
132	0xbbe58a3f	-0.0070050056
133	0x3d35dfdb	0.04440294
134	0xbcbddafe	-0.023175713
135	0x3d8bc56a	0.06824763
136	0xbb1e9dc9	-0.0024202934
137	0x3bd41de2	0.006473289
138	0xbda40cf1	-0.08010281
139	0x3d96cb97	0.073630504
140	0x3d7a9f42	0.061187036
141	0xbc030b65	-0.007998322
142	0xbd3125f9	-0.043249104
143	0xbce3d131	-0.027809711
144	0xbda47783	-0.080306076
145	0xbd618400	-0.055057526
146	0x3d2df017	0.042465296
147	0xbd61605a	-0.05502353
148	0x3cfeced8	0.03110449
149	0xbd2a5052	-0.041580506
150	0xbd21d38e	-0.039508395
151	0xbd9fd668	-0.078045666
152	0x3ba79651	0.0051143547
153	0xbce8c94d	-0.0284163
154	0xbd1b83c1	-0.037967447
155	0x3b1649a3	0.0022932074
156	0xbd1d8cea	-0.038464464
157	0x3c77adaa	0.015117088
158	0x3d71e307	0.0590544
159	0xbd03d1a3	-0.032182347
160	0x3d09082d	0.033455063
161	0xbcc9a8d9	-0.024616646
162	0x3caf8298	0.021424577
163	0xbd8fa91f	-0.07014679
164	0xbd757eac	-0.059935257
165	0xbd2f5de4	-0.04281415
166	0xbb9025ed	-0.0043990524
167	0xbcb09b8a	-0.021558542
168	0xbcda3364	-0.026635833
169	0x3d5bc1ce	0.053651623
170	0xbd83a4b7	-0.06427901
171	0x3db4ac4f	0.08821928
172	0x3c8d19af	0.017224161
173	0xbb84074d	-0.0040291906
174	0x3d7dadab	0.0619332
175	0x3d8493d6	0.0647351
176	0xbc8b4fed	-0.017005885
177	0x3d27b3e6	0.04094305
178	0xbcfbb3b4	-0.030725338
179	0x3d538413	0.051639628
180	0x3d714a43	0.058908712
181	0x3ca25432	0.019815538
182	0x3c316cef	0.010829194
183	0xbd06861b	-0.032842737
184	0xbccb0662	-0.024783317
185	0x3d8f6fa7	0.07003718
186	0x3cd5210f	0.02601674
187	0x3d07c5b9	0.033147547
188	0xbbd3adbd	-0.00645992
189	0xbc23b5e8	-0.0099921
190	0x3d72b094	0.05925043
191	0xbd8b0d96	-0.06789701
192	0x3c66df25	0.014091288
193	0xbc8323aa	-0.016008217
194	0xbcdf36aa	-0.027247746
195	0xbdaee707	-0.08540159
196	0x3d929afc	0.07158467
197	0xbd966202	-0.07342912
198	0xbcb8ddde	-0.022566732
199	0x3c2a65bd	0.010400233
200	0x3d5aaa97	0.053385343
201	0xbdb8afc5	-0.090179004
202	0x3d2ca08f	0.042145308
203	0xbd065b78	-0.032802075
204	0x3cff5df5	0.031172732
205	0xbdb0280d	-0.08601389
206	0xbd9930d8	-0.07480019
207	0x3dab0887	0.08351236
208	0x3cf6eb85	0.030141601
209	0x3c318abf	0.010836302
210	0x3d12221e	0.035677068
211	0x3db2aa00	0.08723831
212	0x3d67227e	0.05642938
213	0x3c920d2a	0.017828543
214	0xbd8c7e47	-0.06860023
215	0x3dc1aee6	0.09457187
216	0xba05483d	-0.00050843117
217	0xbc65c650	-0.014024332
218	0x3c97fe27	0.018553806
219	0x3d8a928a	0.06766231
220	0xbc8122fb	-0.01576375
221	0xbd1c9a8d	-0.03823333
222	0x3d546f59	0.051864002
223	0x3d70174d	0.05861597
224	0x3cc1526a	0.023598868
225	0x3b284637	0.0025676617
226	0x3b1326d3	0.002245356
227	0x3c4f5b69	0.012656071
228	0xbd8e12ef	-0.06937205
229	0xbd45e4cf	-0.048313912
230	0x3d1e4ff8	0.038650483
231	0x3cbf12d1	0.023324402
232	0x3d433a1d	0.047662843
233	0xbbe69615	-0.007036934
234	0xbd4c00d5	-0.04980548
235	0xbd18ce00	-0.037305832
236	0xbcd262aa	-0.025681812
237	0xbd6e30a1	-0.058151845
238	0x3daab89e	0.08335994
239	0xbd6ca6ae	-0.057776146
240	0x3c4f96d5	0.0126702385
241	0x3db856bc	0.09000918
242	0xbd94ed6c	-0.07271847
243	0xbd95f8d5	-0.073228516
244	0x3d0b46c7	0.034003045
245	0x3d515326	0.051104687
246	0xbd2e8108	-0.042603523
247	0x3d35d0dd	0.04438864
248	0x3d744ced	0.059643675
249	0xbd44f0a3	-0.04808105
250	0x3d94a321	0.07257677
251	0x3c3c283b	0.011484201
252	0xbca8c8c7	-0.02060355
253	0x3cce942f	0.025217144
254	0x3d42d53d	0.04756664
255	0x3dab68e4	0.08369616

4.bias f4 [128]
0	0xbd093036	-0.033493243
1	0x3cf392e8	0.029733136
2	0x3dc119a4	0.09428719
3	0xbdb2bbd1	-0.087272294
4	0xbd867a2a	-0.0656627
5	0xbd1da7e6	-0.0384902
6	0xbccabed3	-0.024749195
7	0xbc0f234d	-0.008736444
8	0x3df5cb7e	0.12001704
9	0x3da30525	0.079599656
10	0xbd97c651	-0.07410873
11	0xbac6e238	-0.001517362
12	0xbca4dc5c	-0.020124607
13	0x3c9fc122	0.019501273
14	0x3db9f90d	0.09080706
15	0x3d464e52	0.048414536
16	0xbd1e41f4	-0.038637117
17	0x3dd49fa1	0.10382009
18	0x3da4daf9	0.08049578
19	0xbd1772e5	-0.036974806
20	0xbd0ec383	-0.034854423
21	0x3d655e7b	0.055998307
22	0x3d95f00b	0.07321175
23	0xbd79538c	-0.060870692
24	0x3daee95f	0.08540606
25	0xbd4271c3	-0.047471773
26	0xbd0fa8ad	-0.03507297
27	0xbda74e6e	-0.08169256
28	0x3bce17b0	0.006289445
29	0x3d20836b	0.03918783
30	0xbd94c00a	-0.07263191
31	0x3dd70953	0.10499825
32	0xbd45421b	-0.048158746
33	0xbcb6d5fb	-0.02231883
34	0xbdce4e6b	-0.10073551
35	0xbbc30f61	-0.005952761
36	0x3ce2c600	0.027682304
37	0x3d4aa3b4	0.049472526
38	0xbc7d4aa2	-0.015459688
39	0xbd2642e2	-0.04059113
40	0x3d220fff	0.039566036
41	0xbc9395c6	-0.018015753
42	0x3df97ec4	0.12182382
43	0x3dc81d3b	0.097712
44	0x3d57b4d3	0.05266268
45	0x3e045f0f	0.12926887
46	0x3e00a2b9	0.12562074
47	0xbd2998ec	-0.041405603
48	0x3cb93a2e	0.02261075
49	0x3da74ba7	0.081687264
50	0x3c65e4f1	0.014031635
51	0xbd3f8e89	-0.04676679
52	0xbcc2f4a6	-0.023798298
53	0xba4b5712	-0.000775681
54	0xbd97d4fb	-0.0741367
55	0xbd1b343b	-0.037891608
56	0xbcc9ec97	-0.024648948
57	0xbd87d132	-0.06631698
58	0xbcdb907b	-0.026802292
59	0x3daee8ae	0.08540474
60	0x3d586e72	0.052839704
61	0xbd3be58e	-0.045873217
62	0x3e257542	0.16158012
63	0x3d3419f1	0.043970052
64	0xbdb9473f	-0.09046792
65	0xbd90fd8e	-0.07079612
66	0x3cba9e68	0.022780612
67	0xbd856ab8	-0.065144956
68	0x3d9d407d	0.07678316
69	0x3d5595e4	0.0521449
70	0x3d9f5bf0	0.077812076
71	0xbd660cd0	-0.056164563
72	0x3c9be87b	0.019031754
73	0x3e337ccd	0.17528076
74	0x3e1ea36e	0.15492031
75	0x3e0cfcb1	0.13768269
76	0xbcc4a02c	-0.024002157
77	0xbdae5ccb	-0.085137926
78	0x3db44d5e	0.08803819
79	0xbb0aaf11	-0.0021161477
80	0x3cad5b5d	0.02116173
81	0x3d936ed4	0.07198873
82	0xbd58748b	-0.05284552
83	0xbd10a004	-0.035308853
84	0x3da3cade	0.07997678
85	0x3cd96ae8	0.026540235
86	0x3d262d36	0.04057046
87	0xbc1380ec	-0.009002905
88	0xbd8c7012	-0.06857313
89	0xbc8de8e3	-0.017322963
90	0x3db58d70	0.08864868
91	0x3d0da6d5	0.03458293
92	0xbda58a2b	-0.08082994
93	0xbc8b95be	-0.017039176
94	0x3d116dbc	0.03550504
95	0x3da9ceab	0.08291372
96	0x3e17463e	0.14772889
97	0x3daed24d	0.085362054
98	0xbd571463	-0.052509677
99	0xbcdfe019	-0.027328538
100	0x3b8947de	0.0041894754
101	0xb98c66d4	-0.00026779494
102	0x3cc877e8	0.024471238
103	0xbcc42edf	-0.023948131
104	0x3dd12a59	0.10213155
105	0x3d248cd5	0.04017337
106	0xbc06f1e7	-0.008236385
107	0xbcb9ff7b	-0.02270483
108	0x3e0dd3e0	0.13850355
109	0xbcac0323	-0.02099759
110	0xbc866d0e	-0.016409423
111	0xbde85e5c	-0.113461226
112	0xbd93673b	-0.07197424
113	0x3da3a937	0.079912595
114	0x3e4684b4	0.1938656
115	0xbd891971	-0.06694306
116	0xbdb1a9b7	-0.08674949
117	0xbd4dece8	-0.05027476
118	0xbd16dbff	-0.0368309
119	0xbd467aaa	-0.048456825
120	0x3d83ea28	0.06441146
121	0x3da00b4e	0.07814656
122	0x3e1bbc0a	0.1520845
123	0x3a6693f8	0.0008795853
124	0x3ce79926	0.028271269
125	0x3c2b63ae	0.010460777
126	0x3d9cbae7	0.07652836
127	0x3d9fd20a	0.07803734

6.weight f4 [128, 128]
0	0x3bf15494	0.007364819
1	0x3d41edd9	0.04734597
2	0xbcb6d940	-0.02232039
3	0xbc2e9d0e	-0.010657562
4	0x3d4964a8	0.04916826
5	0xbd80463b	-0.062633954
6	0x3c8027a8	0.01564391
7	0x3dafbc0e	0.085807905
8	0x3db97e08	0.09057242
9	0x3d21487d	0.03937577
10	0xbd49282e	-0.049110584
11	0xbd161372	-0.03663964
12	0x3d6d401a	0.05792246
13	0xbdcd2d98	-0.10018462
14	0x3dafa4f2	0.08576383
15	0xbca66419	-0.020311402
16	0x3d908b40	0.0705781
17	0x3d386239	0.045015547
18	0x3d9e6399	0.077338405
19	0xbd3724c9	-0.044712815
20	0x3d9bf795	0.07615582
21	0x3da66356	0.081244156
22	0xba289811	-0.0006431351
23	0x3d9154ec	0.07096276
24	0xbd9a3371	-0.07529343
25	0xbc6aa129	-0.01432065
26	0xbc11a803	-0.008890155
27	0xbc3d9c8f	-0.011572971
28	0xbd48ea38	-0.049051493
29	0x3d42f14f	0.04759341
30	0x3bec34e8	0.0072084554
31	0x3db8d1dd	0.09024403
32	0xbc0c5639	-0.008565479
33	0x3d63ea64	0.055643454
34	0xbcdb1ace	-0.02674618
35	0xbd551de6	-0.052030466
36	0x3d90c335	0.07068483
37	0xbd8bbd97	-0.06823271
38	0x3cc3f21e	0.023919161
39	0x3c634b35	0.013872911
40	0x3d7b2875	0.06131788
41	0xbd3128cb	-0.043251794
42	0xbbef73b9	-0.0073074964
43	0xbd3b7ea6	-0.04577508
44	0x3d2ac1a5	0.04168858
45	0x3d0b980e	0.034080558
46	0x3d53a0f2	0.05166716
47	0x3d1f4619	0.03888521
48	0xbce5b742	-0.028041486
49	0xbd5be9f7	-0.053689923
50	0x3c8d86e0	0.017276227
51	0x3d4a13cb	0.049335282
52	0x3d6f5fa7	0.05844083
53	0x3d808976	0.062762186
54	0x3d73b341	0.05949712
55	0xbdb1190d	-0.08647356
56	0x3d61ddc1	0.05514312
57	0x3d271caa	0.04079882
58	0x3c713c32	0.014723824
59	0xbd8ca3bb	-0.068671666
60	0x3d4d2922	0.050088055
61	0xbd40406c	-0.046936437
62	0xbd6de145	-0.058076162
63	0x3d9ad1c6	0.07559542
64	0xbd207dd8	-0.039182514
65	0xbd62d5ac	-0.055379555
66	0xbd84d3b6	-0.06485693
67	0x3d80962e	0.062786445
68	0x3d6925a2	0.056920655
69	0x3d1bba3a	0.038019396
70	0x3cd11ccb	0.025526425
71	0xbd6a59ac	-0.057214424
72	0xbda1a91c	-0.07893583
73	0x3d53a759	0.051673267
74	0xbd45a503	-0.04825307
75	0xbd96b1bf	-0.07358121
76	0xbceff379	-0.029290901
77	0xbd8938d1	-0.0670029
78	0x3d403c26	0.046932362
79	0xbd476d6f	-0.04868835
80	0xbda64255	-0.081181206
81	0xbccc4699	-0.024936007
82	0xbd712d36	-0.058881007
83	0xbd8630cd	-0.06552277
84	0xbccbc3c5	-0.024873624
85	0xbd448446	-0.04797771
86	0xbd08ee38	-0.033430308
87	0x3db1fcc1	0.08690787
88	0x3cfa8595	0.030581275
89	0xbd3343d2	-0.04376585
90	0x3cdb3c91	0.026762279
91	0xbdb11a68	-0.08647615
92	0xbd888983	-0.06666853
93	0x3b3acaad	0.0028502152
94	0x3db40162	0.08789326
95	0x3da9d633	0.082928084
96	0xbb7855ef	-0.0037893017
97	0xbd100a46	-0.035166048
98	0xbd007b95	-0.031367857
99	0xbcf09242	-0.029366616
100	0xbccc1faf	-0.024917452
101	0xbdc261c4	-0.094913036
102	0xbd405996	-0.046960436
103	0xbc81f1dd	-0.0158624
104	0x3d42b7ac	0.047538444
105	0x3dd6b337	0.10483401
106	0x3dafeef5	0.08590499
107	0x3d88cdb7	0.06679862
108	0x3d919816	0.07109086
109	0x3db6ecbc	0.08931872
110	0x3d907201	0.070529945
111	0x3cf55052	0.029945526
112	0x3d63c130	0.05560416
113	0x3d51955a	0.051167823
114	0x3bbeaedb	0.0058191842
115	0xbc928c2e	-0.017889109
116	0x3cf11908	0.029430881
117	0xbd8cc970	-0.06874359
118	0x3d5cc794	0.05390127
119	0x3d9f910b	0.077913366
120	0x3da1897d	0.07887552
121	0xbda2a518	-0.079416454
122	0x3da2f386	0.07956605
123	0x3c8995fe	0.016795155
124	0x3d50fc46	0.051021837
125	0x3cfcd371	0.030862542
126	0x3d93e2f5	0.07221023
127	0xbda4c7fa	-0.08045955
128	0x3db2b0f4	0.087251574
129	0xbd98fe61	-0.07470394
130	0xbd269af5	-0.040675122
131	0x3c92556e	0.017863002
132	0xbb33c9b1	-0.002743345
133	0xbd7aa29e	-0.06119024
134	0x3d84fd8f	0.06493675
135	0x3ccb90ae	0.024849262
136	0xbc3b6ca8	-0.01143948
137	0x3d16dc06	0.036830924
138	0xbd929a9d	-0.071583964
139	0xbda57dd4	-0.080806404
140	0x3d593120	0.053025365
141	0x3d4cf5a6	0.050038956
142	0x3d5863c7	0.05282953
143	0x3cddf998	0.027096555
144	0xbd502bff	-0.050823208
145	0x3dafa75c	0.08576843
146	0x3d147906	0.03624823
147	0x3d787336	0.06065675
148	0xbd886b64	-0.06661108
149	0xbddd2ac1	-0.1079917
150	0xbd06377b	-0.032767754
151	0xbd83595f	-0.064135306
152	0x3b484f80	0.0030564964
153	0xbcc5ce56	-0.02414624
154	0x3d96d697	0.073651485
155	0xbc888468	-0.016664699
156	0xbd0efb9d	-0.034907926
157	0x3d75a95f	0.059975978
158	0x3dd3e25e	0.103459105
159	0x3c21534f	0.0098465225
160	0x3daeba26	0.08531599
161	0xbd48e76d	-0.04904883
162	0x3d8ead23	0.06966617
163	0x3cbe9dd1	0.023268612
164	0x3c07cd16	0.008288642
165	0x3da6ea47	0.081501536
166	0x3d656b1c	0.05601035
167	0xbd35ba30	-0.044367015
168	0xbcee0e45	-0.029059539
169	0xbdb2f7fa	-0.08738704
170	0xbcba9fe3	-0.022781318
171	0x3c30bf82	0.0107878465
172	0x3d24e4a1	0.0402571
173	0x3c2c7ee1	0.010528297
174	0xbd2ba672	-0.04190678
175	0x3db2aa9a	0.08723946
176	0xba79ae8c	-0.00095246057
177	0xbd771095	-0.06031855
178	0x3d00c5f2	0.031438775
179	0x3d51b061	0.0511936
180	0x3c9b796f	0.018978802
181	0xbd18e5ac	-0.037328407
182	0xbcea67bd	-0.02861392
183	0x3d8c0102	0.0683613
184	0x3d46c1ea	0.048524775
185	0xbb9d4b97	-0.004800271
186	0xbcaea323	-0.021318024
187	0x3d85c0c3	0.06530907
188	0xbd1c77aa	-0.038200058
189	0x3d213c56	0.03936418
190	0x3d97878e	0.07398902
191	0xbda140ec	-0.07873711
192	0xbd425ca1	-0.04745162
193	0xbd90b391	-0.070654996
194	0xbab1bb04	-0.0013559763
195	0xbd40ce61	-0.04707182
196	0xbd85b1ab	-0.06528028
197	0x3db802d2	0.08984913
198	0x3dc9facd	0.098622896
199	0xbc36c8a7	-0.011156238
200	0x3cc054de	0.023477968
201	0x3c18f0d1	0.009334759
202	0x3c5a765e	0.013333885
203	0x3d8d8262	0.06909634
204	0x3d179857	0.037010517
205	0x3d4ed79f	0.0504986
206	0xbd1fbf49	-0.039000783
207	0xbdbd5074	-0.09243861
208	0xbc291ddb	-0.0103220595
209	0x3c94815f	0.018128095
210	0x3b3ac640	0.0028499514
211	0x3d7ae967	0.061257746
212	0x3d2861d8	0.041108936
213	0x3cf7c0d9	0.030243324
214	0x3c9e6cec	0.019339047
215	0xbc04cbba	-0.008105213
216	0xbc407967	-0.011747695
217	0x3c056f03	0.008144143
218	0xbc0ab7ec	-0.008466702
219	0x3c4cf531	0.01250963
220	0x3d72afeb	0.0592498
221	0x3d407699	0.046988104
222	0x3d188bdc	0.037242755
223	0x3d2da63c	0.04239486
224	0xbc1ff805	-0.009763722
225	0xbcdf9bbc	-0.02729594
226	0x3d526702	0.051367767
227	0x3c20ab39	0.009806448
228	0x3db800f2	0.08984555
229	0xbc126064	-0.008934114
230	0x3dcd8a41	0.100361355
231	0xbd92a3b8	-0.07160133
232	0x3defccee	0.11709009
233	0xbc76efcb	-0.01507182
234	0xbc1c1308	-0.009526022
235	0xbd438277	-0.047731843
236	0x3bba6d57	0.005689304
237	0x3cce4766	0.02518053
238	0x3dd2929a	0.10281868
239	0xbd101799	-0.035178754
240	0x3b949f52	0.004535594
241	0xbd431205	-0.047624607
242	0xbbec14d8	-0.007204633
243	0xbb101e34	-0.0021990659
244	0x3da9c500	0.08289528
245	0xbda8d12d	-0.08243022
246	0xbd83c742	-0.0643449
247	0x3be32740	0.006932169
248	0xbceebbd3	-0.029142296
249	0x3d352450	0.044224083
250	0x3d6f633f	0.058444258
251	0xbd77bdde	-0.060483806
252	0x3cc91926	0.024548125
253	0x3c43946f	0.011937245
254	0x3c4d4674	0.012529004
255	0xbda83e59	-0.08215017

6.bias f4 [128]
0	0xbc2c061b	-0.0104995025
1	0x3e25d6bf	0.161952
2	0x3c863b02	0.016385559
3	0x3e102793	0.14077596
4	0xbcb3dea2	-0.021956746
5	0xbc67b6b0	-0.014142677
6	0x3d5fa7cd	0.054603387
7	0x3ddcd564	0.107828885
8	0x3d1a685b	0.037697177
9	0x3e1b433b	0.15162365
10	0x3d3cd857	0.046104755
11	0xbcb01301	-0.021493437
12	0xbdb12e7d	-0.08651445
13	0xbc0702a8	-0.008240379
14	0x3d29263d	0.041296232
15	0x3d2fd362	0.0429262
16	0xbdbc9f40	-0.09210062
17	0xbc5639bb	-0.013075287
18	0xbd9ddf1f	-0.077085726
19	0xbc71e7ac	-0.014764708
20	0x3d43d83f	0.04781365
21	0x3e4f5d16	0.20250353
22	0xbdfe6c35	-0.124229826
23	0xbdb8ad6a	-0.09017451
24	0x3caf7c4f	0.02142158
25	0x3dbf2cd2	0.09334721
26	0x3cf6cf6b	0.030128201
27	0xbd2e8c52	-0.04261429
28	0x3d41731b	0.047228914
29	0xbda43770	-0.08018386
30	0x3d8edb27	0.06975394
31	0xbd2201ef	-0.039552625
32	0x3e593e4a	0.21215168
33	0x3c209947	0.009802169
34	0x3d57aca2	0.05265487
35	0xbd7039b9	-0.0586488
36	0xbd9f866a	-0.07789309
37	0x3d685278	0.056719273
38	0xbd9624ab	-0.073312126
39	0x3e7dc3b1	0.24781682
40	0x3c7ae2ee	0.015312893
41	0x3e9fbcb8	0.31198668
42	0x3dc380e3	0.095460676
43	0x3b5f3606	0.00340593
44	0xbdaf7a05	-0.08568195
45	0x3d55b23d	0.052171934
46	0x3d99600c	0.074890226
47	0xbdc7210f	-0.09723102
48	0xbbd7b459	-0.0065827784
49	0xbc984bd7	-0.01859085
50	0xbd979b01	-0.074026115
51	0xbdd390c3	-0.103303455
52	0x3c9795dd	0.018504078
53	0xbd7e5c61	-0.06209982
54	0x3dc7d57a	0.09757514
55	0x3dcca3c8	0.09992176
56	0xbd635ab3	-0.05550642
57	0x3cc803d1	0.024415882
58	0x3e74d99b	0.23911135
59	0xbcff3660	-0.031153858
60	0x3d61c00a	0.055114783
61	0xbdc08708	-0.09400755
62	0x3c67533f	0.0141189685
63	0x3ea0facf	0.31441352
64	0x3bb21b5c	0.0054353904
65	0xbcb8618f	-0.022507457
66	0xbd2b2500	-0.041783333
67	0x3c908fc0	0.01764667
68	0xbd8e95b3	-0.069621466
69	0xbd4916ee	-0.049094133
70	0xbdb6ee4a	-0.08932169
71	0x3c81e979	0.015858399
72	0x3c1a8a28	0.009432353
73	0xbd82be36	-0.06383936
74	0xbcb1f6ac	-0.021724068
75	0x3e3b6bc2	0.18302825
76	0x3c3a021c	0.011353042
77	0xbd77be3d	-0.06048416
78	0xbd17bfe0	-0.03704822
79	0xbd0b8c45	-0.03406932
80	0xbd5882ef	-0.052859243
81	0xbcbc6724	-0.0229984
82	0xbc206189	-0.009788879
83	0xbd7c0c80	-0.06153536
84	0xbd710b00	-0.05884838
85	0xbcf8622a	-0.030320246
86	0x3c343363	0.01099858
87	0x3cef3257	0.029198809
88	0xbcaff573	-0.021479344
89	0x3ce395e8	0.027781442
90	0xbd5d5d90	-0.054044306
91	0x3dd6f46c	0.104958385
92	0xbd5af5e8	-0.05345717
93	0xbd9873a1	-0.074439295
94	0x3bf1e98d	0.0073825778
95	0xbda3db06	-0.0800076
96	0xbcdcb94a	-0.026943821
97	0xbcfd5b9f	-0.030927477
98	0x3c8450cd	0.01615181
99	0x3e2f1d4e	0.17101023
100	0xbd04310f	-0.03227335
101	0x3ddf92a8	0.10916644
102	0xbd7e1f85	-0.062041778
103	0x3eb26c42	0.3484822
104	0xbd4f378a	-0.050590076
105	0xbcd0296c	-0.025410376
106	0xbda4f908	-0.080553114
107	0xbd0b294c	-0.03397493
108	0x3d03ec78	0.032207936
109	0xbd33f7dd	-0.043937553
110	0x3dde5f79	0.10858054
111	0xbceae58a	-0.028673906
112	0x3d1b15fb	0.03786276
113	0x3d4bea4e	0.049783997
114	0xbd791673	-0.060812425
115	0x3d08a14c	0.03335695
116	0x3d7570b0	0.05992192
117	0xbdcd91f5	-0.10037605
118	0x3d610110	0.054932654
119	0xbd311f0d	-0.043242503
120	0xbd64c88b	-0.055855315
121	0xbd21033d	-0.03930973
122	0x3e1553a5	0.14582689
123	0x3d2c0ae3	0.04200257
124	0x3d0666c5	0.032812852
125	0x3d3e7769	0.046500597
126	0x3e3e3a8b	0.1857702
127	0x3d821638	0.06351894

8.weight f4 [49, 128]
0	0x3da2c4ea	0.079477146
1	0xbdb4c6d7	-0.08826988
2	0xbca2bc5f	-0.019865213
3	0x3d3b432b	0.045718353
4	0xbe0c45f6	-0.13698563
5	0x3dc2a9e9	0.09505064
6	0xbe47eb95	-0.19523461
7	0x3dc99f91	0.09844888
8	0xbe24f4f1	-0.16109063
9	0xbe1e4dff	-0.1545944
10	0xbdd0f0ae	-0.10202156
11	0x3c583a64	0.013197515
12	0xbb6333b9	-0.003466828
13	0xbc3492e0	-0.011021346
14	0x3d1b91bd	0.037980784
15	0x3beb75d6	0.007185678
16	0x3d076328	0.033053547
17	0x3d6811f0	0.05665773
18	0x3c5ef1dc	0.013607468
19	0x3d7f67ba	0.06235478
20	0x3d8665bc	0.06562373
21	0xbd61c23d	-0.05511688
22	0xbdb7c287	-0.0897265
23	0x3db476c8	0.08811718
24	0xbd4282ee	-0.047488146
25	0x3d169164	0.03675975
26	0x3d8fbaf5	0.07018081
27	0xbc1b87ce	-0.009492828
28	0xbd6b64b6	-0.057469092
29	0x3c071a30	0.00824599
30	0x3dae1981	0.08500958
31	0x3d835697	0.06413
32	0xbdbf493d	-0.09340141
33	0x3da5cfc9	0.080962725
34	0x3c7cecfb	0.01543736
35	0x3da4c931	0.08046187
36	0xbdab8a51	-0.08375991
37	0xbc4d1cf6	-0.012519112
38	0x3d02a57d	0.031896103
39	0xbe429372	-0.19001558
40	0x3ba802dc	0.005127294
41	0xbe65b8d4	-0.22433788
42	0xbd139084	-0.036026493
43	0xbcc72a22	-0.024312083
44	0x3d34d9e6	0.044153117
45	0x3d9aa427	0.07550841
46	0xba17e2bc	-0.0005793979
47	0xbc2c520b	-0.010517607
48	0xba104ce5	-0.0005504622
49	0x3cfcf516	0.030878585
50	0xbccbe19f	-0.024887858
51	0xbd2de70f	-0.042456683
52	0xbd6c2b18	-0.057658285
53	0x3d5380b7	0.051636424
54	0xbd0be48d	-0.03415351
55	0xbd9df8e6	-0.07713489
56	0x3d87c4f8	0.06629366
57	0x3d854b7b	0.065085374
58	0xbcfaf658	-0.030635044
59	0xbdb80c38	-0.089867055
60	0xbc9f3a25	-0.019436905
61	0xbdaa9191	-0.08328546
62	0xbd16bbd4	-0.03680022
63	0xbe2bd1fd	-0.16779323
64	0xbd8f0ef4	-0.06985274
65	0x3d9afd73	0.07567873
66	0x3b878d10	0.004136689
67	0xbbe016c1	-0.00683865
68	0xbcea2bc4	-0.028585322
69	0x3d61899e	0.055062883
70	0x3dd05c05	0.10173801
71	0x3db4a164	0.08819845
72	0xbcd179c6	-0.025570761
73	0x3d136aa5	0.035990376
74	0x3d9d9e17	0.07696169
75	0xbddbe814	-0.10737625
76	0xbd66ae16	-0.056318365
77	0xbac58536	-0.0015069607
78	0xbcaafe05	-0.02087308
79	0x3d16301d	0.03666698
80	0xbd10226b	-0.035189074
81	0x3da98db6	0.08278982
82	0xbd15f0e0	-0.03660667
83	0xbdad1e92	-0.084530964
84	0xbd022bb5	-0.031779964
85	0x3d927ced	0.07152734
86	0x3d36aec0	0.04460025
87	0xbda6f1b0	-0.08151567
88	0x3d186e56	0.0372146
89	0x3d61fc42	0.055172212
90	0x3cd2616a	0.025681216
91	0xbd849418	-0.06473559
92	0xbd67225d	-0.056429256
93	0xbafa7184	-0.0019107317
94	0xbe06b96f	-0.13156675
95	0x3d0179fc	0.031610474
96	0x3da7d02f	0.08194005
97	0x3cfb68e6	0.030689668
98	0x3d14b49d	0.03630506
99	0xbde73ae5	-0.1129053
100	0xbcf3a173	-0.02974007
101	0xbe2e2be5	-0.17008932
102	0xbd139da5	-0.036039013
103	0xbe6cb67b	-0.23116486
104	0x3dc94c1a	0.09828968
105	0x3e386eba	0.18010989
106	0xbd60250e	-0.054722838
107	0x3d438db2	0.047742553
108	0x3bcbc1e7	0.0062181833
109	0xbd5559f1	-0.052087728
110	0x3c87329c	0.016503625
111	0x3d7e1f6a	0.062041678
112	0xbcc38305	-0.023866186
113	0x3d1cdf97	0.03829917
114	0x3d5edb3e	0.054408304
115	0x3d9233c8	0.07138783
116	0xbcfbd203	-0.03073979
117	0x3ceba347	0.02876438
118	0xbde15fe7	-0.1100462
119	0x3d8e65e3	0.06953027
120	0xbd9784c5	-0.07398371
121	0xbd81be4e	-0.06335126
122	0xbe76eefb	-0.24114601
123	0x3c6a1cb2	0.014289068
124	0xbd0ba55c	-0.034093246
125	0xbe0e3f2f	-0.1389129
126	0xbd15e9d6	-0.036599956
127	0x3dd095a8	0.10184795
128	0x3d438d9f	0.047742482
129	0xbdc76108	-0.09735304
130	0x3d02931b	0.031878572
131	0x3b9d2d0a	0.004796629
132	0xbcbd6b34	-0.023122407
133	0x3d053276	0.032518826
134	0xbd46783e	-0.048454516
135	0x3db96b8f	0.09053718
136	0xbe48c210	-0.19605279
137	0xbc938244	-0.018006451
138	0xbe1649cb	-0.14676587
139	0xbd2983ca	-0.04138545
140	0x3d4a1c06	0.04934313
141	0x3d08684b	0.033302587
142	0x3da6cf31	0.081449874
143	0x3c6cb908	0.014448412
144	0x3db23403	0.08701327
145	0x3cd670d2	0.026176844
146	0x3d2a9c60	0.041653037
147	0xbd0a3b2e	-0.033747844
148	0x3d157b77	0.0364947
149	0xbe15e65c	-0.14638656
150	0xba9514f1	-0.0011374039
151	0x3df1f671	0.11814583
152	0xbcef21ba	-0.029190887
153	0x3c9e4d29	0.019323902
154	0x3d04a334	0.032382205
155	0xbd7bb08b	-0.06144766
156	0x3c5740e6	0.013138032
157	0x3b85395a	0.0040656747
158	0xbd394e1e	-0.045240514
159	0xbcbf00b4	-0.023315765
160	0xbdd16998	-0.102252185
161	0xbc5844e7	-0.013200021
162	0x3e002203	0.12512974
163	0x3d45f13a	0.048325755
164	0x3ce4fef0	0.027953595
165	0xbd32ae9d	-0.043623555
166	0x3c1274d7	0.00893899
167	0xbdce2dcb	-0.10067328
168	0x3d113374	0.03544946
169	0xbe7c845f	-0.2465987
170	0xbe0218c6	-0.12704763
171	0x3d89f4c4	0.067361385
172	0x3d3b1dfe	0.0456829
173	0xbd1c71a2	-0.038194306
174	0x3da31fee	0.079650745
175	0x3d7604be	0.060063116
176	0xbd16ffb5	-0.036864955
177	0x3cf0681b	0.029346516
178	0xbc7f197f	-0.015570044
179	0x3be00737	0.0068367976
180	0xbe1a24ab	-0.1505305
181	0xbd8c9093	-0.06863513
182	0xbcf0ea03	-0.02940846
183	0xbd345618	-0.044027418
184	0xbd8626a3	-0.06550338
185	0x3c470069	0.012146094
186	0xbe2ce6ec	-0.16884965
187	0xbe205894	-0.1565879
188	0x3d5a7590	0.053334773
189	0xbb1199e8	-0.002221698
190	0xbd6fa670	-0.058508337
191	0xbde1f0d0	-0.110322595
192	0xbd107361	-0.035266284
193	0xbd916343	-0.07099011
194	0x3d81afa1	0.06332327
195	0x3bd8ccfd	0.0066162334
196	0xbd636c96	-0.055523477
197	0x3d363172	0.04448075
198	0x3af220ef	0.001847295
199	0x3dbe56ad	0.09293876
200	0xbda1ce50	-0.07900679
201	0xbcd5756b	-0.026056966
202	0x3cf02274	0.029313304
203	0xbd68d72e	-0.056845836
204	0x3daae02a	0.08343537
205	0xbdb9ce35	-0.09072534
206	0xbd90c246	-0.07068305
207	0xba90949a	-0.0011030615
208	0x3d1698ae	0.0367667
209	0xbd9b8700	-0.075941086
210	0x3ae856d4	0.0017726072
211	0xbc86a4a1	-0.016435923
212	0x3d9f6932	0.07783736
213	0x3caf9eec	0.021438085
214	0x3d83d2fd	0.06436727
215	0xbe0cf2b0	-0.13764453
216	0x3db0d8b7	0.08635085
217	0x3d986e04	0.07442859
218	0xbcdf4416	-0.027254146
219	0xbdda29da	-0.10652514
220	0xbdaa195b	-0.083056174
221	0xbd625884	-0.055260196
222	0xbe22d69d	-0.15902181
223	0x3ca0c266	0.019623946
224	0xbd1af928	-0.03783527
225	0x3ced62ca	0.02897777
226	0xbcd22552	-0.025652561
227	0xbd6b0462	-0.057377227
228	0x3c7302f0	0.014832243
229	0xbe892434	-0.26785433
230	0x3d26766d	0.040640283
231	0xbe3ed4c4	-0.18635851
232	0x3dba8a4e	0.09108411
233	0x3dbf3c35	0.093376555
234	0x3d2f4f64	0.042800322
235	0xbdaed2e9	-0.08536322
236	0x3da59380	0.08084774
237	0x3d32aefe	0.043623917
238	0xbd9c10a8	-0.076203644
239	0x3dc6342f	0.09677922
240	0xbc32238a	-0.010872731
241	0xbc9e462e	-0.019320574
242	0xbc49cfff	-0.012317657
243	0x3b76fa33	0.0037685751
244	0xbdfb492c	-0.12269816
245	0xbc8a0853	-0.016849672
246	0xbcedd511	-0.029032262
247	0xbd8e48c6	-0.06947474
248	0xbd40ac5d	-0.04703938
249	0x3d407443	0.046985876
250	0xbe611626	-0.21981105
251	0x3bbce27c	0.0057643037
252	0x3c89b00b	0.016807577
253	0xbe424aed	-0.18973894
254	0xbd51caf3	-0.051218938
255	0x3c9d9fe0	0.019241273

8.bias f4 [49]
0	0xbd62159c	-0.05519639
1	0xbb870182	-0.004120053
2	0xbda69cf8	-0.08135408
3	0xbe1db060	-0.15399313
4	0xbe1e2d83	-0.15447049
5	0xbe66d638	-0.22542655
6	0xbc3c0db1	-0.011477874
7	0xbde13be0	-0.109977484
8	0xbe3e63ed	-0.18592806
9	0xbe5b493d	-0.21414657
10	0xbe5afd45	-0.21385677
11	0xbdd863dc	-0.10565922
12	0xbe0a69e7	-0.13516961
13	0xbe2c9541	-0.16853811
14	0xbe68d34d	-0.22736855
15	0xbe897845	-0.2684957
16	0xbdaee88e	-0.0854045
17	0xbe0682d0	-0.13135839
18	0xbe0fabfd	-0.14030452
19	0xbe8c38a2	-0.27386957
20	0xbdd0a7c9	-0.101882525
21	0xbdeff46b	-0.11716541
22	0xbe001c34	-0.12510759
23	0xbd97fdf8	-0.074214876
24	0xbdf01c4a	-0.11724146
25	0xbe09e3a5	-0.13465746
26	0xbd00c317	-0.031436052
27	0xbdf5de17	-0.12005251
28	0xbdde5b7e	-0.108572945
29	0xbdabb561	-0.08384205
30	0xbd19eea7	-0.037581112
31	0xbdf1ec34	-0.1181263
32	0xbd35852f	-0.044316467
33	0xbe20f6f0	-0.15719199
34	0xbda1cf74	-0.07900897
35	0xbd9ea8a2	-0.07747008
36	0xbda3d266	-0.07999115
37	0xbe16f930	-0.14743495
38	0xbe0dddf3	-0.13854198
39	0xbe090dab	-0.1338412
40	0xbe2fe537	-0.17177282
41	0xbe014fa1	-0.12628032
42	0xbe992ec5	-0.29918495
43	0xbe9cbda0	-0.30613422
44	0xbe098181	-0.13428308
45	0xbc87fbbb	-0.016599527
46	0xbbb97173	-0.005659276
47	0xbddfee94	-0.10934177
48	0xbd8f3577	-0.069926195
