models/snapsRandom/model_1685781525.6360621.pt (torch, 252563 bytes, 10 tensors)

0.weight f4 [128, 49]
0	0xbda59854	-0.08085695
1	0x3de424d1	0.11139835
2	0x3d108506	0.03528311
3	0xbe1d2d1d	-0.1534924
4	0x3d4cf1ac	0.050035164
5	0xbd490332	-0.049075313
6	0xbdb2e2f1	-0.08734692
7	0x3d93c047	0.07214408
8	0xbd16068c	-0.036627337
9	0xbdfc27d2	-0.123122826
10	0x3de621c3	0.11236908
11	0x3e2dac34	0.16960222
12	0xbd1fdb3e	-0.039027445
13	0x3dc8c564	0.09803274
14	0x3bb86de5	0.005628335
15	0xbde0186c	-0.10942158
16	0xbc51ad30	-0.012797639
17	0xbda912f6	-0.0825557
18	0xbc37e13a	-0.011223132
19	0x3cb5d76b	0.022197446
20	0xbce9216a	-0.028458316
21	0xbdb33780	-0.0875082
22	0x3e7a31b2	0.2443302
23	0xbde26600	-0.11054611
24	0xbd25e41b	-0.04050074
25	0xbda5eb12	-0.08101477
26	0xbd7baf30	-0.06144637
27	0x3d705fbd	0.058685053
28	0x3e1f1b57	0.15537773
29	0xbd8579b5	-0.065173544
30	0x3e36ade1	0.17839767
31	0xbce82a8e	-0.028340604
32	0xbb8235d3	-0.0039737015
33	0x3d2836ce	0.04106789
34	0xbd781757	-0.060569134
35	0x3e0f6ed7	0.14007126
36	0xbd75aa1e	-0.05997669
37	0xbc07e17c	-0.008293506
38	0xbe44ae81	-0.19207193
39	0xbbe017a0	-0.006838754
40	0xbdfb639b	-0.122748576
41	0x3d8e93ce	0.06961785
42	0x3e476793	0.19473104
43	0xbd337b31	-0.043818656
44	0xbdcb683c	-0.099319905
45	0x3e053e44	0.13012034
46	0x3df867d5	0.121291794
47	0xbe27b411	-0.16377284
48	0xbd952726	-0.072828576
49	0x3b7589a1	0.0037466066
50	0xbd18c496	-0.037296854
51	0xbdfebefd	-0.12438772
52	0x3d6cf482	0.05785037
53	0x3dff5dfd	0.12469099
54	0xb91343aa	-0.0001404422
55	0xbe04eae5	-0.1298023
56	0x3d34aa5e	0.044107787
57	0x3ddab8fd	0.10679815
58	0x3c445fdb	0.011985744
59	0x3e072e9a	0.13201371
60	0x3d91a556	0.071116135
61	0x3d4e6830	0.05039233
62	0x3c9a2a1f	0.018818913
63	0xbe0e792c	-0.13913411
64	0xbce73647	-0.028224124
65	0x3e0fdcca	0.14049068
66	0xbd847092	-0.064667836
67	0xbe189fb1	-0.14904667
68	0x3e67f901	0.22653581
69	0x3e28bd56	0.16478476
70	0x3ce9c900	0.028538227
71	0x3d3997d3	0.045310806
72	0x3e0a73fb	0.13520806
73	0xbe3c1fab	-0.18371455
74	0xbe1c973a	-0.15292063
75	0xbd40b8fd	-0.04705142
76	0x3d94511c	0.07242033
77	0x3d1e44a5	0.038639683
78	0xbc5ffd65	-0.013671254
79	0x3e02458c	0.12721843
80	0xbe2ee3a8	-0.17079031
81	0xbde5dd5f	-0.11223864
82	0xbdffa41b	-0.124824725
83	0x3e61017d	0.21973224
84	0xbddffb8e	-0.10936652
85	0x3d28056f	0.041020807
86	0xbcfa3817	-0.030544324
87	0xbdf456fa	-0.11930652
88	0x3d9d5dd7	0.07683914
89	0x3d998a28	0.07497054
90	0xbd096a63	-0.033548724
91	0x3dd73249	0.10507638
92	0xbc93d001	-0.01804352
93	0xbe56cae5	-0.20975836
94	0xbd6ff212	-0.058580466
95	0x3dfe5ccf	0.124200456
96	0x3cb08437	0.02154742
97	0xbd955543	-0.07291653
98	0x3d21a787	0.039466407
99	0xbe2fbaed	-0.1716115
100	0x3d54356f	0.05180877
101	0xbdf9fd48	-0.12206513
102	0xbcd37982	-0.025814775
103	0xbe81f4f2	-0.2538219
104	0x3d4f8417	0.05066308
105	0x3d7709f6	0.060312234
106	0x3e0b33f2	0.13594034
107	0xbd0727c1	-0.032996897
108	0xbd71ca52	-0.05903084
109	0x3e2afb67	0.16697465
110	0xbe64771e	-0.22311065
111	0x3d3bf0ac	0.04588382
112	0xbe0cf278	-0.1376437
113	0x3c6d8b87	0.014498598
114	0x3e01a3bd	0.12660117
115	0xbdce5e81	-0.10076619
116	0xbd9da32a	-0.07697137
117	0xbce8b546	-0.02840675
118	0xbd8f5139	-0.06997914
119	0x3dcf5af0	0.10124767
120	0xbe4069e3	-0.18790393
121	0x3d5cb828	0.053886563
122	0xbcf26d92	-0.029593263
123	0x3c6dad42	0.01450664
124	0xbdccce42	-0.10000278
125	0x3def05cf	0.1167103
126	0xbe16acea	-0.14714399
127	0x3d53a84b	0.05167417
128	0x3bcc69d6	0.0062382026
129	0xbdc26afb	-0.09493061
130	0x3d6179e8	0.0550479
131	0xbdd0aa52	-0.10188736
132	0x3d105d44	0.035245195
133	0xbd938e32	-0.07204856
134	0x3d26892a	0.040658154
135	0xbdf6082f	-0.1201328
136	0x3c5f76ba	0.013639146
137	0xbdb4ca27	-0.0882762
138	0xbd84ebb1	-0.06490267
139	0x3e2a2c8f	0.1661856
140	0xbcd3b8b3	-0.025844907
141	0xbd0b978b	-0.03408007
142	0xbe26a991	-0.16275622
143	0x3dbdf962	0.092760816
144	0x3d4a107d	0.04933213
145	0xbdbc894b	-0.09205874
146	0x3d7ca7df	0.06168353
147	0x3db6b456	0.08921115
148	0x3ccd6c41	0.025076034
149	0xbd499f72	-0.049224325
150	0xbd9b4ed6	-0.07583396
151	0x3de3b3dd	0.111182906
152	0xbd05766c	-0.03258364
153	0xbce31010	-0.02771762
154	0x3d2d0f98	0.0422512
155	0x3dad3769	0.08457834
156	0x3dd081c6	0.10181002
157	0x3c620fe7	0.013797737
158	0xbddf7146	-0.10910277
159	0xbea5ae30	-0.32359457
160	0xbd377a22	-0.04479421
161	0x3e05183f	0.1299753
162	0x3cd34dc8	0.025793925
163	0x3d45212b	0.048127335
164	0x3d786eac	0.06065242
165	0xbd746860	-0.059669852
166	0xbe3c8d76	-0.18413338
167	0x3e5bc75b	0.21462767
168	0x3dc31bb1	0.09526766
169	0xbd32eb52	-0.04368145
170	0x3d401824	0.046898022
171	0xbd1c23c9	-0.038120065
172	0xbd0d06b5	-0.034430224
173	0xbe63bf8d	-0.2224104
174	0x3d928f7d	0.071562745
175	0x3d8b2f78	0.06796163
176	0xbdc66154	-0.096865326
177	0x3dd10ee7	0.102079205
178	0x3d9a6c28	0.075401604
179	0xbd53841b	-0.051639657
180	0x3d87c113	0.06628623
181	0x3e69ea36	0.2284325
182	0xbbe9fbd6	-0.007140617
183	0x3e3f35b7	0.18672834
184	0xbe32a98e	-0.17447492
185	0x3dbf4717	0.09339731
186	0xbc5f1ca7	-0.013617671
187	0x3dcfb4a0	0.10141873
188	0x3cf3e094	0.029770173
189	0xbd8d8f6d	-0.06912122
190	0x3dfdd1af	0.123935096
191	0xbe0f8c4d	-0.14018364
192	0x3dbad893	0.091233395
193	0xbd4486ef	-0.047980245
194	0xbc89bda6	-0.016814064
195	0x3de8a9d8	0.1136052
196	0x3c9842d5	0.018586555
197	0xbd74b8a4	-0.0597464
198	0x3d00292d	0.03128927
199	0xbdb059e0	-0.08610892
200	0xbd2ed031	-0.042679016
201	0x3e521ae5	0.20518072
202	0x3e1b88d4	0.15188915
203	0x3c9651c4	0.018349536
204	0xbca0133c	-0.019540422
205	0x3d196aa8	0.03745523
206	0x3e32c019	0.17456092
207	0x3cbc8eb6	0.023017269
208	0xbdb3d1af	-0.08780228
209	0xbe1e5eb9	-0.15465821
210	0xbd756d7b	-0.05991886
211	0xbcca86d1	-0.024722489
212	0x3dcde025	0.10052518
213	0xbc8632d3	-0.016381657
214	0xbd507b08	-0.05089858
215	0xbd50706b	-0.05088846
216	0x3d232602	0.03983117
217	0xbd68919f	-0.0567795
218	0x3cc6277a	0.024188746
219	0xb9dff42e	-0.00042715803
220	0xbe8bffdb	-0.2734364
221	0x3dbe55df	0.09293722
222	0xbe3215f7	-0.17391191
223	0xbe26d534	-0.16292268
224	0xbc0c06f7	-0.008546582
225	0xbddec542	-0.10877468
226	0xbb285db0	-0.0025690608
227	0x3e091ecf	0.13390659
228	0x3e21b49b	0.15791552
229	0xbd2db198	-0.042405695
230	0xbd1fbf15	-0.03900059
231	0xbca4241c	-0.02003675
232	0x3d919023	0.0710757
233	0x3ddefa29	0.10887558
234	0xbdbd2a39	-0.09236569
235	0xbdde73b6	-0.10861914
236	0xbe1c7fc2	-0.1528311
237	0x3d22eda2	0.039777406
238	0xbdb6be2c	-0.08922991
239	0x3d3c7802	0.046012886
240	0x3d039b65	0.032130618
241	0x3c3ef1f6	0.011654368
242	0x3d06f22f	0.032945808
243	0x3e29e430	0.16590953
244	0xbde6b962	-0.11265828
245	0xbcd91e2b	-0.026503643
246	0x3d9ef583	0.077616714
247	0x3cc4aca7	0.024008108
248	0xbd85c5e5	-0.06531886
249	0x3d03f3a4	0.032214776
250	0xbd9ae82f	-0.07563817
251	0x3e0bdff9	0.13659658
252	0xbded466f	-0.115857
253	0xbd127c52	-0.035763092
254	0xbd7ad969	-0.061242495
255	0x3bc18ac1	0.0059064333

0.bias f4 [128]
0	0x3dcd2e72	0.10018624
1	0x3df830f5	0.12118713
2	0xbba44f3f	-0.0050143297
3	0x3df7a406	0.12091832
4	0xbdc1463a	-0.09437223
5	0x3e1c3c77	0.1525744
6	0xbe0bc7fa	-0.13650504
7	0x3f0932c0	0.53593063
8	0x3d128ae2	0.03577698
9	0xbefcf6ac	-0.49406946
10	0x3e43ef26	0.19134197
11	0x3ea28d1e	0.3174829
12	0xbdcad509	-0.099039145
13	0xbe3d3e14	-0.18480712
14	0xbd5bd4c3	-0.053669702
15	0x3e1092ca	0.14118496
16	0xbdcfd826	-0.10148649
17	0xbe61127a	-0.21979704
18	0x3b025678	0.0019887965
19	0xbd37cbed	-0.044872213
20	0x3dc0ef73	0.09420671
21	0xbe65fe52	-0.22460297
22	0xbe5d951e	-0.21638915
23	0xbe61d35e	-0.22053286
24	0xbe0db785	-0.13839538
25	0x3d6875f7	0.056753125
26	0x3e4b7d3d	0.19871993
27	0x3ed514fa	0.41617566
28	0xbe92617c	-0.2859
29	0x3e6fd033	0.23419265
30	0x3e22ad74	0.1588648
31	0xbeab5716	-0.3346488
32	0xbe7cf6eb	-0.24703567
33	0xbebced22	-0.36899668
34	0xbd21e332	-0.03952331
35	0xbe576040	-0.2103281
36	0x3e6438bd	0.22287269
37	0xbe18f61c	-0.14937633
38	0x3d9bb1dc	0.07602283
39	0xbda7e76d	-0.08198438
40	0xbdea4f9b	-0.11440965
41	0xbe1fd01b	-0.1560673
42	0x3c1f80d2	0.009735303
43	0xbe0ddf95	-0.13854821
44	0xbe2ed4f7	-0.17073427
45	0xbda3c539	-0.079966016
46	0x3ed9e5be	0.42558092
47	0xbd3ae9f6	-0.04563328
48	0xbeae8a86	-0.3409006
49	0x3e667abc	0.22507757
50	0xbe6ff6aa	-0.23433939
51	0xbe5ba1d7	-0.21448456
52	0xbe84809d	-0.25879374
53	0x3e4d36d1	0.20040442
54	0xbe43494d	-0.19070931
55	0xbcf867e2	-0.030322973
56	0x3eaedf72	0.3415485
57	0x3e0bad33	0.13640289
58	0x3dd715c2	0.10502197
59	0xbe016b02	-0.12638476
60	0xba1e3a62	-0.00060359214
61	0xbcbdffa2	-0.023193184
62	0xbe5859a1	-0.2112794
63	0x3e37d40f	0.17951988
64	0xbe0bc983	-0.1365109
65	0x3de69400	0.112586975
66	0xbe569112	-0.20953777
67	0xbe47bd5b	-0.19505827
68	0xbe0bcc4a	-0.13652149
69	0xbe52e5a2	-0.2059541
70	0x3eb1e75f	0.34746835
71	0x3e422e1c	0.18962902
72	0x3da273f7	0.07932275
73	0xbdc96a59	-0.09834737
74	0x3d2d075f	0.042243358
75	0x3d8313fe	0.064002976
76	0xbddc866c	-0.107678264
77	0xbe64f684	-0.22359663
78	0x3cca6485	0.024706135
79	0x3e20dc9c	0.15709156
80	0xbe772a3f	-0.2413721
81	0x3e175e22	0.14782003
82	0x3de15167	0.110018544
83	0x3cad64c5	0.021166215
84	0xbe50c624	-0.20388085
85	0xbdb5598a	-0.08854969
86	0x3e853b83	0.26021966
87	0x3e24188e	0.16024992
88	0xbdf98d0f	-0.12185108
89	0x3d1afe12	0.037839957
90	0x3e0fddff	0.14049529
91	0xbddba92b	-0.107256256
92	0xbdf89d47	-0.12139373
93	0xbe0ba602	-0.13637546
94	0x3e7a0dc0	0.24419308
95	0xbe577d9b	-0.21044008
96	0x3b08ab13	0.0020853921
97	0xbd95f3b9	-0.07321877
98	0x3eb2696a	0.3484605
99	0xbd8bf990	-0.0683471
100	0x3eb4cc11	0.3531194
101	0xbe7b5b0f	-0.24546455
102	0xbe262b72	-0.1622751
103	0x3d2e04b9	0.042484973
104	0xbe8e1708	-0.27751946
105	0xbd8727ca	-0.06599386
106	0x3e5c765b	0.21529524
107	0xbe1c10ed	-0.15240832
108	0xbe6b4080	-0.22973824
109	0xbe1b5538	-0.15169227
110	0xbe2be227	-0.16785489
111	0xbe927d30	-0.28611135
112	0xbe04503a	-0.12921229
113	0xbe1d8a6a	-0.15384832
114	0x3dd224c6	0.1026092
115	0xbe613bf8	-0.21995533
116	0x3e037304	0.12836844
117	0xbd711ca1	-0.058865193
118	0xbd8a4e79	-0.06753249
119	0xbe475f31	-0.19469906
120	0x3de118b4	0.1099104
121	0xbe16949c	-0.14705127
122	0x3e4c75a8	0.19966757
123	0xbe97bf1f	-0.29638
124	0xbe4c7725	-0.19967325
125	0xbe65ccfc	-0.22441477
126	0x3d1e5792	0.038657732
127	0x3cbae33a	0.022813428

2.weight f4 [128, 128]
0	0x3d354a3f	0.04426026
1	0xbc065283	-0.008198383
2	0xbcff66ee	-0.03117701
3	0xbd6dec09	-0.05808643
4	0x3d6ac953	0.057320904
5	0xbc681f1a	-0.014167571
6	0xbd2a38fa	-0.041558243
7	0x3d08085b	0.033211093
8	0x3c09e759	0.008416974
9	0xbd07fd0b	-0.033200305
10	0x3bd000c6	0.0063477485
11	0x3d83f321	0.064428575
12	0xbb1bc052	-0.0023765755
13	0xbd16d81d	-0.036827195
14	0x3d9bccec	0.07607445
15	0xbd46042b	-0.04834382
16	0xbd7b80d7	-0.061402168
17	0xbd2b0de9	-0.041761313
18	0xbda880e1	-0.08227707
19	0x3d14f6b7	0.036368098
20	0x3dab1daa	0.08355267
21	0xbd9ca0dc	-0.07647869
22	0x3d3e4e0b	0.046461146
23	0x3c2024a6	0.009774363
24	0xbc2e81f6	-0.010651102
25	0xbd7d7ca3	-0.06188644
26	0xbd20cedc	-0.039259776
27	0xbc34889e	-0.0110189
28	0x3cc8b772	0.024501536
29	0x3d5b0f5b	0.05348144
30	0xbd85aa44	-0.06526616
31	0xbc9748cd	-0.018467331
32	0xbc247542	-0.010037722
33	0x3bd2b3c9	0.0064301235
34	0xbd7f0602	-0.06226159
35	0x3d44c038	0.048034877
36	0x3cc40066	0.023925971
37	0xbd525a2f	-0.051355537
38	0xbd4e917b	-0.05043171
39	0xbbe7ad20	-0.0070701987
40	0x3ca83897	0.020534797
41	0xbd7db27a	-0.061937787
42	0x3ca799a6	0.020459007
43	0xbd1e61e0	-0.03866756
44	0xbbdd2270	-0.00674849
45	0x3c8806b6	0.016604763
46	0x3d3c3308	0.045947105
47	0x3b76608e	0.0037594172
48	0xbd444efc	-0.047926888
49	0xbda2da75	-0.079518236
50	0x3d3dd867	0.046348955
51	0x3d9f5984	0.077807456
52	0xbd59d4d4	-0.053181484
53	0xbd62f1e8	-0.05540648
54	0x3c017092	0.007900374
55	0xbc5bce26	-0.013415849
56	0x3d9a502a	0.07534821
57	0x3db6c091	0.08923448
58	0x3cfad121	0.030617299
59	0x3dbd6bce	0.09249078
60	0x3da69e2e	0.08135639
61	0xbc09ac82	-0.0084029455
62	0x3d82e6d3	0.063916825
63	0xbd9d0ae6	-0.07668094
64	0xbcea4032	-0.028595064
65	0x3d9b45f1	0.075817
66	0xbd616490	-0.055027544
67	0xbb5fc3b8	-0.0034143757
68	0xbd8b68fe	-0.06807135
69	0x3dc006da	0.09376307
70	0x3d7ea437	0.062168326
71	0xbd503061	-0.050827388
72	0x3dad49fe	0.084613785
73	0xbd5d3d19	-0.054013345
74	0x3d8e6c85	0.06954292
75	0xbacdf8d0	-0.0015714411
76	0xbbbefb26	-0.005828279
77	0x3d83a531	0.06427992
78	0xbda4eae2	-0.08052613
79	0xbd39f06f	-0.04539531
80	0xbc0415bf	-0.008061825
81	0xbd8df168	-0.0693081
82	0x3ca44d80	0.020056486
83	0xbd8fcaaf	-0.07021081
84	0xbd7877aa	-0.060660996
85	0x3d065218	0.032793134
86	0x3c3816f7	0.011235944
87	0x3da2e7e6	0.07954387
88	0xbd933d60	-0.07189441
89	0x3d9c71ca	0.07638891
90	0x3d6ffba4	0.058589593
91	0xbbf614e9	-0.007509817
92	0x3d46f362	0.04857195
93	0xbd8f029f	-0.06982922
94	0xbd685ccf	-0.056729134
95	0xbd73880e	-0.059455924
96	0xbd977758	-0.0739581
97	0xbd8e1c7f	-0.06939029
98	0x3d212957	0.039346065
99	0x3daff9ce	0.08592568
100	0x3c20b6d6	0.0098092165
101	0xbd0d7a7d	-0.034540642
102	0xbd6cfb81	-0.05785704
103	0xbcc17300	-0.023614407
104	0x3d5143ed	0.05109017
105	0xbd2d3d14	-0.042294577
106	0xbcedcaba	-0.029027332
107	0xbda1ebf1	-0.079063304
108	0x3cb33cbb	0.021879544
109	0x3dad9ff4	0.08477774
110	0x3d399235	0.04530545
111	0x3d9b8416	0.07593553
112	0x3d606e40	0.054792643
113	0x396dd938	0.00022683002
114	0xbd85d389	-0.06534488
115	0x3dbb7c0e	0.09154521
116	0xbc96ed96	-0.018423837
117	0x3dd09889	0.10185344
118	0xbd65c8d9	-0.056099746
119	0x3bd1b1d8	0.0063993745
120	0x3cabf9fb	0.020993223
121	0x3d5f245b	0.05447803
122	0x3c013536	0.007886222
123	0xbda5d92e	-0.08098064
124	0x3a1408b7	0.00056470506
125	0x3dbb608f	0.091492765
126	0x3c33bca8	0.010970272
127	0x3d64b305	0.05583479
128	0xbd0b9891	-0.034081046
129	0xbd763cc9	-0.060116563
130	0x3d5c3102	0.053757675
131	0x3d360072	0.04443402
132	0xbc99bdd8	-0.018767282
133	0xbcce782e	-0.02520379
134	0xbd10e3f0	-0.03537363
135	0x3cb36f6b	0.021903714
136	0x3d811f4d	0.06304798
137	0xbdae09a6	-0.08497934
138	0x3b1a1bab	0.0023515027
139	0x3c4b0985	0.012392406
140	0xbbb7a46c	-0.0056043174
141	0x3d45649f	0.048191663
142	0x3cd2d75d	0.025737459
143	0x3d905c1f	0.07048821
144	0xbd2eeb92	-0.042705126
145	0xbc5f4249	-0.013626643
146	0xbc51102b	-0.012760202
147	0xbd4c89f6	-0.049936257
148	0xbd216250	-0.0394004
149	0xbcf79915	-0.030224362
150	0xbcd1821b	-0.025574734
151	0xbd303581	-0.043019775
152	0x3c566383	0.013085249
153	0xbdaa5275	-0.08316509
154	0x3d9f8279	0.077885576
155	0xbcf52890	-0.029926568
156	0x3d7a6c97	0.061138716
157	0x3bee285a	0.007267994
158	0xbd977aba	-0.07396455
159	0xbdb5fd9d	-0.088862635
160	0xbc810e47	-0.015753878
161	0x3d4ff123	0.050767075
162	0x3c4d83b4	0.0125436075
163	0x3d6605ee	0.056158
164	0xbd64fff0	-0.055908144
165	0xbdac1664	-0.08402708
166	0xbdb085ab	-0.08619245
167	0x3cbd59a4	0.023114033
168	0x3d3d2c20	0.04618466
169	0xbd1e9c35	-0.03872319
170	0x3cba81c9	0.022766965
171	0xbd90557f	-0.07047557
172	0xbc85df1c	-0.016341738
173	0x3d99151f	0.07474732
174	0xbce80da6	-0.02832682
175	0x3d99ac7c	0.07503602
176	0xbd5d0358	-0.053958267
177	0xbd4b9875	-0.04970594
178	0x3d9fd660	0.07804561
179	0x3d8fabca	0.07015188
180	0x3c9da518	0.019243762
181	0xbcbdc49a	-0.023165036
182	0x3d1128c4	0.035439268
183	0x3cddaab3	0.027058935
184	0xbd23a44a	-0.0399516
185	0xbd8b64f1	-0.068063624
186	0xbbd6fce7	-0.00656091
187	0xbd2f128b	-0.042742293
188	0xbcf06c51	-0.029348524
189	0x3c5bb079	0.013408774
190	0x3d9a6cab	0.07540258
191	0x3d8f9233	0.07010307
192	0x3d8c981f	0.06864952
193	0x3d156f36	0.036483012
194	0x3cf5b269	0.0299923
195	0xbc8d7421	-0.017267289
196	0x3bfe597c	0.007762132
197	0xbbf10315	-0.0073551037
198	0xbd8e5fcb	-0.06951865
199	0x3db3dde2	0.08782555
200	0x3d7a4af1	0.061106626
201	0x3c15576b	0.00911508
202	0x3d3f28cf	0.046669777
203	0x3d24509d	0.04011594
204	0x3d82c242	0.06384708
205	0x3d457b1d	0.048213113
206	0xbc5ce08e	-0.013481272
207	0xbca7cf0d	-0.020484472
208	0xbd4eadc1	-0.050458673
209	0x3bf0f50c	0.0073534306
210	0x3d894f96	0.06704633
211	0xbda6b18b	-0.081393324
212	0x3cb42528	0.021990374
213	0xbd4a2d5b	-0.04935966
214	0x3da16d50	0.07882178
215	0xbda015cc	-0.078166574
216	0x3c2a9be1	0.010413141
217	0x3d58d87c	0.05294083
218	0xbced11a5	-0.028939078
219	0x3c1e67f4	0.009668339
220	0x3cf73514	0.030176677
221	0xbbaced80	-0.0052773356
222	0xbce0883b	-0.02740871
223	0x3da8f8d2	0.08250584
224	0xbdaa918a	-0.083285406
225	0xbd6a6f09	-0.057234798
226	0xbd0a8baf	-0.03382462
227	0x3bf47236	0.007459904
228	0xbc66ef23	-0.014095101
229	0x3c6f10f8	0.014591448
230	0xbc719293	-0.014744419
231	0xbd3b57cb	-0.045738023
232	0x3c2cb1c3	0.010540429
233	0x3d7e063a	0.062017657
234	0x3d27401c	0.040832624
235	0x3cad39f1	0.021145793
236	0xbd73f6e2	-0.059561618
237	0x3d4bc02f	0.049743827
238	0xbc517f65	-0.012786721
239	0x3d664c70	0.05622524
240	0xbd04e1e8	-0.032442003
241	0xbd8a18a1	-0.06742979
242	0x3d77f0da	0.06053243
243	0xbc9a6d57	-0.018850965
244	0xbd1ae584	-0.03781654
245	0x3d2029bd	0.039102305
246	0xba2853aa	-0.00064211583
247	0xbd0875d3	-0.03331549
248	0xbc6b4e14	-0.014361877
249	0xb9217239	-0.00015396708
250	0x3c768115	0.015045424
251	0x3d812d52	0.06307472
252	0xbd09308b	-0.03349356
253	0xbcecc734	-0.028903581
254	0xba6d0022	-0.00090408523
255	0x3982f101	0.00024975094

2.bias f4 [128]
0	0x3dbd407f	0.09240817
1	0xbd2c6a2e	-0.04209345
2	0xbcd6125e	-0.026131805
3	0xbcd09b34	-0.025464632
4	0x3d2b8b58	0.041880935
5	0xbdce8bc4	-0.10085252
6	0xbc54a39e	-0.0129784625
7	0xbcec0025	-0.028808663
8	0x3e1dc4d9	0.15407123
9	0xbe1a2b6d	-0.15055628
10	0x3c2de2df	0.010613172
11	0xbdef9280	-0.116978645
12	0xbd9aef24	-0.07565144
13	0x3d8e0202	0.06933977
14	0xbdba15c1	-0.090861805
15	0x3e3f6025	0.1868902
16	0x3e066c60	0.1312728
17	0x3e5bcc4b	0.2146465
18	0xbd68a58f	-0.056798514
19	0xbc93e659	-0.018054174
20	0x3c2e1540	0.010625184
21	0xbe06b1f5	-0.13153823
22	0xbd8533fe	-0.06504057
23	0xbd70a9a8	-0.058755547
24	0xbd731076	-0.05934187
25	0xbcc34025	-0.023834297
26	0xbe38ce7b	-0.18047516
27	0xbc8e64cd	-0.01738205
28	0x3c82fad9	0.015988754
29	0x3cce3df0	0.025176018
30	0x3dfeb26a	0.124363735
31	0xbdda5283	-0.10660269
32	0x3e2ed9b7	0.17075239
33	0x3deef68e	0.1166812
34	0xbda39e6c	-0.07989201
35	0xbde762f8	-0.11298174
36	0x3dbd7183	0.09250166
37	0x3c6b8ed0	0.014377311
38	0xbeaf9258	-0.3429134
39	0xbdf38486	-0.11890511
40	0xbcbeeb38	-0.02330552
41	0xbcb170cb	-0.02166023
42	0xbd84b72e	-0.06480251
43	0xbde3166d	-0.11088262
44	0x3de522cf	0.1118828
45	0x3e08b101	0.13348772
46	0x3e030f86	0.1279889
47	0xbc7dd638	-0.015492968
48	0xbe1fd12e	-0.1560714
49	0xba4ecd4e	-0.0007888869
50	0x3ded15f3	0.11576452
51	0x3d163847	0.036674764
52	0xbcef0f7c	-0.029182188
53	0xbd10dd12	-0.03536708
54	0xbd81f89d	-0.06346247
55	0x3c2b823b	0.010468061
56	0x3de2847c	0.11060426
57	0xbd82bcb7	-0.06383651
58	0xbcfa7443	-0.030573016
59	0x3d7725cb	0.060338777
60	0xbd05cb58	-0.032664627
61	0x3ca4e968	0.020130828
62	0x3db1a98f	0.08674919
63	0x3d9c1454	0.07621065
64	0xbd55ccbd	-0.052197207
65	0x3d877b05	0.06615261
66	0xbd284ce7	-0.041088965
67	0xbc10a6a7	-0.0088287955
68	0xbbed7710	-0.0072468594
69	0xbe837ff4	-0.25683558
70	0xbe189b4b	-0.1490299
71	0x3dbb7ef3	0.09155073
72	0xbde7ef6e	-0.113249645
73	0x3dc4a772	0.0960225
74	0x3cfcd7e1	0.030864658
75	0x3da9099a	0.082537845
76	0xbd16aa51	-0.03678352
77	0xbe952345	-0.2912847
78	0x3b8976aa	0.004195054
79	0xbdb29ef5	-0.08721725
80	0xbd034334	-0.03204651
81	0x3c5aecda	0.013362134
82	0xbd7f8b04	-0.062388435
83	0xbd2815cd	-0.041036416
84	0xbe5cbfa5	-0.21557482
85	0x3d8e6715	0.06953255
86	0x3c8c2b6b	0.017110547
87	0xbd99f8fc	-0.07518193
88	0x3df94694	0.12171665
89	0xbdb881a6	-0.090091035
90	0xbd99bdfa	-0.07506938
91	0x3ca3dfe0	0.020004213
92	0x3bb4f102	0.0055218944
93	0x3d4a071b	0.049323183
94	0xbdf65a90	-0.12028992
95	0x3ca0f226	0.019646715
96	0x3d12470c	0.035712287
97	0x3d0babdf	0.034099456
98	0xbce33e90	-0.027739793
99	0x3be6c2d1	0.007042267
100	0x3ce889df	0.028386055
101	0x3d09f6c2	0.033682592
102	0xbca0c996	-0.019627374
103	0xbdb5cb67	-0.088766865
104	0xbc4a6e17	-0.012355349
105	0x3dfb8abf	0.12282323
106	0xbd615811	-0.055015627
107	0x3d38233d	0.04495548
108	0x3cfd3be3	0.030912345
109	0xbe072c91	-0.13200594
110	0xbd1ca55c	-0.038243636
111	0xbd3e5d81	-0.04647589
112	0xbd085032	-0.033279605
113	0xbdb5e701	-0.08881951
114	0xbd855f92	-0.06512369
115	0x3d16c18b	0.03680567
116	0xbd0a904a	-0.03382901
117	0x3cd7a55c	0.026323967
118	0x3d507b14	0.050898626
119	0x3bf9cdad	0.0076233954
120	0x3c7cd5e0	0.015431851
121	0x3d6dd4c2	0.05806423
122	0x3d848460	0.06470561
123	0xbd516537	-0.051121917
124	0x3bedd80d	0.0072584213
125	0x3ce6688a	0.02812602
126	0xbd230827	-0.039802697
127	0x3c161ad9	0.009161674

4.weight f4 [128, 128]
0	0x3d44268c	0.047888324
1	0x3cc85734	0.024455644
2	0xbd188aa9	-0.03724161
3	0x3d4f11aa	0.050553955
4	0x3aa7af66	0.0012793362
5	0xbd4aedf0	-0.04954332
6	0x3bdc290a	0.0067187594
7	0xbc143d07	-0.009047753
8	0x3cd53597	0.02602653
9	0x3c5f4928	0.013628282
10	0x3d8adbd5	0.06780211
11	0x3bde03bd	0.006775348
12	0x3c014f82	0.007892491
13	0xbbe2f748	-0.006926451
14	0xbd7ccaf1	-0.061716978
15	0x3d31c41b	0.04339991
16	0x3d97bd0c	0.07409105
17	0xbd1c836a	-0.038211264
18	0xbd6cf67d	-0.057852257
19	0xbd0c0ce0	-0.034191966
20	0xbb5aa0c7	-0.003335999
21	0x3d93801e	0.07202171
22	0xbc84512f	-0.016151993
23	0x3da628fa	0.081132844
24	0x3d924e87	0.07143884
25	0xbd901ceb	-0.07036766
26	0xbdb2a75a	-0.08723326
27	0xbc148a18	-0.009066127
28	0xbc3b8aa0	-0.011446625
29	0x3c3c77dc	0.011503186
30	0xbc0e01b2	-0.008667396
31	0xbd1f8dfa	-0.03895376
32	0x3c7a1f73	0.015266287
33	0xbd33a6b8	-0.043860167
34	0x3d4381af	0.047731098
35	0x3d80e2e3	0.06293275
36	0xbd94916f	-0.07254302
37	0xbd8899fe	-0.06669997
38	0x3d897aca	0.06712873
39	0xbca1fef5	-0.019774893
40	0x3d12eb95	0.0358692
41	0xbdad8871	-0.0847329
42	0xbd58d3ab	-0.052936237
43	0xbd8de969	-0.06929285
44	0xbcfc784c	-0.03081908
45	0xbd88eab7	-0.06685393
46	0xbd0263ea	-0.031833567
47	0x3bcb263a	0.0061996253
48	0xbd0b9089	-0.034073386
49	0x3d32ecad	0.043682743
50	0xbd0b9b7b	-0.034083825
51	0xbd8b2855	-0.06794802
52	0xbcbcd2f3	-0.023049807
53	0x3d43965e	0.047750823
54	0xbc8e30cd	-0.017357254
55	0xbd3c3644	-0.04595019
56	0xbd066cc6	-0.03281858
57	0x3d8fd4fd	0.07023046
58	0xbd930ef7	-0.07180589
59	0xbd4827a0	-0.048865914
60	0xbd98d581	-0.07462598
61	0x3d9944d7	0.07483833
62	0xbd44aad8	-0.04801449
63	0x3da1a953	0.07893624
64	0xbca36400	-0.019945145
65	0xbd67f35a	-0.056628563
66	0xbd31b23a	-0.04338286
67	0xbd8d0f72	-0.068877116
68	0x3c5bc810	0.013414398
69	0xbd090bd8	-0.03345856
70	0x3da14766	0.07874946
71	0x3c02c1cc	0.007980775
72	0x3c827017	0.01592259
73	0xbd26e71b	-0.040747743
74	0xbcdfa098	-0.027298257
75	0xbd44ac01	-0.0480156
76	0x3cd3bf9f	0.025848208
77	0x3d2e598d	0.04256587
78	0xbd6717ea	-0.05641929
79	0x3d202e92	0.039106913
80	0xbdadafc3	-0.084807895
81	0x3d546114	0.051850393
82	0x3d3d4bce	0.04621487
83	0xbccb829d	-0.024842555
84	0x3c8e3280	0.017358065
85	0xbd797eff	-0.06091213
86	0xbc8a0ad0	-0.016850859
87	0x3cbf1e59	0.0233299
88	0x3d30b5d0	0.04314214
89	0xbd9203b0	-0.071296096
90	0xbd96bf78	-0.073607385
91	0x3d8da53d	0.06916282
92	0x3cfdc429	0.030977326
93	0x3d9c9f5b	0.07647582
94	0xbda0c23b	-0.078495465
95	0xbd287692	-0.041128702
96	0xbd194595	-0.037419874
97	0xbc819c38	-0.015821561
98	0x3c069b3d	0.008215723
99	0xbc95a018	-0.018264815
100	0x3d40c02d	0.047058273
101	0xbd5a5da2	-0.05331195
102	0x3d99e719	0.075147815
103	0xbd3191f2	-0.043352075
104	0x3d47098a	0.04859308
105	0x3d94a4a2	0.07257964
106	0xbda0197e	-0.07817362
107	0x3cc8c594	0.024508275
108	0x3ca70b40	0.020391107
109	0x3da52f3c	0.0806565
110	0x3d49ae99	0.049238775
111	0xbdb1e9a5	-0.08687142
112	0xbd0279c9	-0.031854425
113	0xbd8deacb	-0.06929549
114	0xbd3f4cb4	-0.04670401
115	0xbcd90deb	-0.026495894
116	0x3d098b0c	0.03357987
117	0xbdaeff5a	-0.08544798
118	0x3bb02567	0.0053755525
119	0xbda3f327	-0.08005362
120	0xbc8b4ee7	-0.017005397
121	0xbdab3ce3	-0.083612226
122	0xbd7727aa	-0.06034056
123	0xbd1e3e24	-0.03863348
124	0x3d10bb47	0.03533485
125	0xbd49b4cc	-0.049244687
126	0xbd5643f5	-0.052310903
127	0x3d1ec168	0.038758665
128	0xbd2e71ad	-0.04258888
129	0x3cfddf7f	0.03099036
130	0x3dbf950b	0.093545996
131	0x3d9fa776	0.077956125
132	0xbc71fd5e	-0.01476988
133	0x3d35fc68	0.044430166
134	0xbcca1905	-0.024670133
135	0x3d876629	0.066112824
136	0x3b6f9cc4	0.0036561945
137	0x3bf34370	0.0074238107
138	0xbdb07e45	-0.08617834
139	0x3da12360	0.07868075
140	0x3d74a699	0.059729192
141	0xbc285db5	-0.010276248
142	0xbd36868b	-0.044561904
143	0xbce973a4	-0.028497525
144	0xbda13217	-0.07870882
145	0xbd58c958	-0.05292639
146	0x3d275b0c	0.040858313
147	0xbd60e5b8	-0.054906577
148	0x3d21e50e	0.039525084
149	0xbd2a8646	-0.04163196
150	0xbd2c6987	-0.042092826
151	0xbda59cee	-0.080865726
152	0x3c1bbbcb	0.009505223
153	0xbd02e954	-0.0319608
154	0xbd2d0dfe	-0.042249672
155	0xbb1cdc1f	-0.0023934913
156	0xbd4377bd	-0.047721613
157	0x3c92f31e	0.017938193
158	0x3d79a726	0.06095042
159	0xbd1e7f44	-0.03869559
160	0x3cf322d1	0.029679688
161	0xbcea1e15	-0.028578797
162	0x3cd2612b	0.025681099
163	0xbd9015dd	-0.0703542
164	0xbd5b8d48	-0.053601533
165	0xbd1e9a46	-0.038721345
166	0x3a150ec2	0.0005686098
167	0xbc801140	-0.015633225
168	0xbcd55b14	-0.026044406
169	0x3d55059c	0.052007303
170	0xbd7955d1	-0.060872857
171	0x3db33641	0.087505825
172	0x3ca155ef	0.019694297
173	0x3b5e065d	0.0033878305
174	0x3d914426	0.070930764
175	0x3d80326e	0.06259619
176	0xbcb64e34	-0.022254087
177	0x3cf413d3	0.02979461
178	0xbd111f09	-0.035429988
179	0x3d465df6	0.048429452
180	0x3d6e140d	0.05812459
181	0x3ca0f465	0.019647786
182	0x3a985b91	0.0011623969
183	0xbd0680cb	-0.03283767
184	0xbcd1b430	-0.025598615
185	0x3d95f62e	0.07322346
186	0x3cb30c11	0.02185634
187	0x3cf1daad	0.029523218
188	0xbbf7a56b	-0.007557561
189	0xbc2dcab2	-0.010607408
190	0x3d86e664	0.06586912
191	0xbd890715	-0.06690804
192	0x3c663660	0.01405105
193	0xbc80d181	-0.0157249
194	0xbceb7e88	-0.028746858
195	0xbd99d82b	-0.07511934
196	0x3d5c3e8a	0.05377058
197	0xbd967cc1	-0.07348014
198	0xbd007b74	-0.031367734
199	0x3c74eba9	0.014948764
200	0x3d3c1be9	0.045925055
201	0xbdb3828b	-0.087651335
202	0x3d3e5c30	0.046474636
203	0xbd025c33	-0.03182621
204	0x3ce52d86	0.027975809
205	0xbd9e883a	-0.07740827
206	0xbd9dc3e7	-0.07703381
207	0x3da49f49	0.08038194
208	0x3d000861	0.03125799
209	0x3c93f2c4	0.018060096
210	0x3d3c7836	0.04601308
211	0x3da26c81	0.07930852
212	0x3d6610b9	0.05616829
213	0x3cddd1ae	0.027077522
214	0xbd923d08	-0.07140547
215	0x3dbd8e82	0.09255697
216	0xbbb36968	-0.005475212
217	0xbc8ec3e2	-0.017427389
218	0x3c983ad1	0.018582733
219	0x3d8a7248	0.06760079
220	0xbc5cb8e7	-0.0134718185
221	0xbd332eac	-0.04374568
222	0x3d4b8092	0.04968316
223	0x3d94599a	0.07243653
224	0x3cd7f7ed	0.026363337
225	0x3c4ba545	0.01242954
226	0x3b326866	0.002722287
227	0x3c94663f	0.018115161
228	0xbd9c326d	-0.076268055
229	0xbd37908f	-0.044815596
230	0x3d1da95c	0.03849159
231	0x3cb61bf4	0.022230126
232	0x3d14f3b3	0.036365222
233	0x3b914a34	0.0044338945
234	0xbd47e932	-0.048806377
235	0xbd169000	-0.036758423
236	0xbc7eac97	-0.015544078
237	0xbd7400e6	-0.05957117
238	0x3dabdb6b	0.0839146
239	0xbd475b72	-0.048671193
240	0x3c0321d8	0.008003674
241	0x3db45e87	0.08807092
242	0xbd9555eb	-0.07291778
243	0xbda31591	-0.07963098
244	0x3d1c1af3	0.03811164
245	0x3d64b162	0.055833228
246	0xbd221963	-0.039574992
247	0x3d27d5c7	0.04097536
248	0x3d7bee6b	0.06150667
249	0xbd006b7b	-0.0313525
250	0x3d93aecf	0.072110765
251	0x3be102d5	0.0068667927
252	0xbc842c77	-0.016134484
253	0x3d0076c0	0.03136325
254	0x3d46203f	0.048370596
255	0x3dadfae1	0.08495117

4.bias f4 [128]
0	0xbd09e5f3	-0.033666562
1	0x3d15d736	0.036582194
2	0x3dc42e3f	0.09579133
3	0xbdb2f0b2	-0.08737315
4	0xbd8ddbab	-0.06926664
5	0xbd1d3159	-0.03837714
6	0xbcd32150	-0.02577272
7	0xbd9583d8	-0.07300538
8	0x3dc8fdc1	0.09814025
9	0x3dae1900	0.08500862
10	0xbd60026d	-0.054689813
11	0x3caeaff6	0.02132414
12	0xbc975415	-0.01847271
13	0xbaf73655	-0.0018860797
14	0x3d9578ff	0.07298469
15	0x3d0214b4	0.031758025
16	0xbe01aac9	-0.12662806
17	0x3d25ce0c	0.040479705
18	0x3de6c216	0.11267488
19	0xbd78bbc4	-0.060725942
20	0xbca00fb7	-0.019538743
21	0x3c4b1d9a	0.012397194
22	0x3d16a140	0.036774874
23	0xbd980e41	-0.07424594
24	0x3dea6e8e	0.11446868
25	0xbd88f0b1	-0.06686533
26	0xbd377a68	-0.04479447
27	0xbda6fa6e	-0.081532344
28	0xbda4d83e	-0.080490574
29	0xbd630d94	-0.05543287
30	0xbca7aecf	-0.020469097
31	0x3dcd2b93	0.10018077
32	0xbc914797	-0.017734332
33	0xbcada031	-0.02119455
34	0xbd8130f9	-0.06308169
35	0xbd61f22e	-0.0551626
36	0x3ca950af	0.020668356
37	0x3d0471f7	0.032335248
38	0xbd2bf143	-0.041978132
39	0xbceba153	-0.028763449
40	0x3c4db3c5	0.012555067
41	0xbd0a90a6	-0.033829354
42	0x3de95147	0.113924555
43	0x3e19ba7a	0.15012541
44	0x3d5989a9	0.0531098
45	0x3dab6f37	0.08370822
46	0xbc5a8e67	-0.013339615
47	0xbd1b67fc	-0.037940964
48	0xbc9ef74a	-0.019405026
49	0x3d7fed5a	0.062482215
50	0x3cbdea5c	0.02318304
51	0xbd3dd239	-0.046343062
52	0x3bda3645	0.0066593015
53	0xba1663fe	-0.0005736946
54	0xbd1c9771	-0.038230363
55	0xbd1c04fe	-0.0380907
56	0xbc32d5a0	-0.01091519
57	0xbdaa340f	-0.08310711
58	0xbd26210b	-0.040558856
59	0x3e13f6a8	0.1444956
60	0x3cb55708	0.022136226
61	0xbc3f37a9	-0.011670985
62	0x3deaf749	0.11472947
63	0x3d3fdef6	0.04684349
64	0xbdb9d17e	-0.090731606
65	0xbd97782a	-0.07395966
66	0x3c536871	0.012903319
67	0xbd3712fc	-0.04469584
68	0x3da1b432	0.07895698
69	0x3d32f1d2	0.04368765
70	0x3dd5e921	0.104448564
71	0xbd83a900	-0.064287186
72	0x3d2bcfbd	0.04194616
73	0x3e2afe44	0.16698557
74	0x3e4bcd9d	0.19902654
75	0x3e13e556	0.14442953
76	0xbcfceb8b	-0.030874034
77	0xbd9fa0ab	-0.07794317
78	0x3d6f4915	0.058419306
79	0xbd5d958b	-0.054097693
80	0xba825a99	-0.0009945213
81	0x3d945501	0.07242776
82	0xbd58689a	-0.05283413
83	0xbd2e483a	-0.04254935
84	0x3dde5763	0.108565114
85	0x3cee7268	0.029107288
86	0x3dde7a1f	0.108631365
87	0xbc27bcd4	-0.010237891
88	0xbd8d2c51	-0.06893218
89	0xbc4509dc	-0.012026276
90	0x3e07a44d	0.1324627
91	0x3d6313e9	0.05543891
92	0xbd9888f8	-0.07448
93	0xbc872218	-0.01649575
94	0x3d6350e1	0.055497054
95	0x3da2d0c6	0.079499766
96	0x3dd51e7e	0.104062065
97	0x3db65f43	0.089048885
98	0xbd550ae7	-0.05201235
99	0x3bb18362	0.0054172734
100	0x3cc128bc	0.023578994
101	0xbcc4056e	-0.02392837
102	0x3c6003be	0.013672767
103	0xbcca8874	-0.024723269
104	0x3df87260	0.1213119
105	0x3c4f20cf	0.0126420995
106	0xbd1239e7	-0.03569975
107	0xbcf47eec	-0.029845677
108	0x3ded2d6a	0.11580928
109	0x3c2c3ce6	0.010512566
110	0xbd3ad7cd	-0.04561596
111	0xbd3cca8e	-0.04609161
112	0xbd3a8558	-0.045537323
113	0x3ca755ca	0.02042665
114	0x3e42089a	0.18948594
115	0xbd31bec2	-0.04339481
116	0xbd95d259	-0.07315511
117	0xbd57e00f	-0.052703913
118	0xbcd5071f	-0.026004372
119	0xbbbcce1b	-0.0057618744
120	0x3d5665c4	0.052343145
121	0x3da8cf35	0.082426466
122	0x3dfcf913	0.12352195
123	0x3bb3a0b0	0.005481802
124	0x3d0f6e88	0.03501752
125	0x3bdfec88	0.0068336166
126	0x3dd0b899	0.10191459
127	0x3d356bc1	0.044292215

6.weight f4 [128, 128]
0	0x3bf1570a	0.007365112
1	0x3d4f250f	0.05057245
2	0xbc96a4d0	-0.018389136
3	0xbc2ea0b5	-0.010658433
4	0x3d0fb8b2	0.03508825
5	0xbd8070ec	-0.06271538
6	0x3c809194	0.015694417
7	0x3d631aec	0.055445597
8	0x3d8eadb0	0.06966722
9	0x3d20f629	0.039297257
10	0xbd27a13c	-0.04092525
11	0xbd495860	-0.049156547
12	0x3d8bfb27	0.06835013
13	0xbdb0255d	-0.086008765
14	0x3dbf3dbe	0.09337948
15	0xbd0fd462	-0.035114653
16	0x3d513d68	0.051083952
17	0xbc272570	-0.010201797
18	0x3d9e7c3f	0.07738542
19	0xbd8823cd	-0.066474535
20	0x3d9fb586	0.07798295
21	0x3d8d2d73	0.068934344
22	0x3b9c99b4	0.004779065
23	0x3db5ed50	0.088831544
24	0xbd5a640f	-0.05331808
25	0xbc56dc18	-0.013113998
26	0x3a945f7e	0.0011319963
27	0xbc3dc775	-0.011583199
28	0xbd917f85	-0.071044005
29	0xbae01845	-0.0017097077
30	0x3c1d5c73	0.009604561
31	0x3de75f51	0.11297477
32	0xbc88b977	-0.016689999
33	0x3d630125	0.055421013
34	0xbc867dcf	-0.016417412
35	0xbcc28d47	-0.023749007
36	0x3d9dc77c	0.07704064
37	0xbdc335b2	-0.09531726
38	0x3d065ac9	0.032801423
39	0x3d19fa53	0.037592243
40	0x3d95c494	0.07312885
41	0xbd3263b0	-0.0435521
42	0xbcc26853	-0.023731386
43	0xbd7e58dd	-0.062096465
44	0x3d2ad59f	0.04170763
45	0x3c906c2b	0.017629704
46	0x3d2f18c2	0.04274822
47	0x3d22b41c	0.039722547
48	0xbc36aef0	-0.011150107
49	0xbd623448	-0.05522564
50	0xbc45dca4	-0.012076531
51	0x3d4a13cb	0.049335282
52	0x3d3905a2	0.045171387
53	0x3d80774b	0.06272753
54	0x3d88918f	0.06668388
55	0xbdb0d730	-0.08634794
56	0x3cad3016	0.021141093
57	0x3d375a16	0.044763647
58	0xbd3b20c3	-0.04568554
59	0xbdb05859	-0.08610601
60	0x3c85f0cc	0.016350172
61	0xbd074057	-0.033020344
62	0xbd317aea	-0.04333011
63	0x3d93189c	0.07182428
64	0xbd209121	-0.039200906
65	0xbd450a11	-0.048105303
66	0xbdd0731c	-0.10178205
67	0x3d9968a4	0.07490662
68	0x3d5f82e9	0.054568205
69	0x3d05d4ae	0.03267353
70	0x3cfccc81	0.030859234
71	0xbd9a0253	-0.075199746
72	0xbd74ba41	-0.059747938
73	0x3d6d11c1	0.05787826
74	0xbd39f017	-0.045394983
75	0xbd8c00c3	-0.06836083
76	0xbcf3c5d6	-0.029757421
77	0xbd39b733	-0.045340728
78	0x3cd2d7e0	0.025737703
79	0xbcd16227	-0.025559498
80	0xbd6c7fa4	-0.057738915
81	0x3b4a9a36	0.003091467
82	0xbd712cce	-0.05888062
83	0xbd829764	-0.06376532
84	0xbd00ea11	-0.031473223
85	0xbd102b53	-0.035197567
86	0xbd017b92	-0.031611986
87	0x3db1aeb9	0.08675904
88	0x3cea203b	0.028579822
89	0xbd35e888	-0.044411212
90	0x3ceee530	0.02916202
91	0xbd9cb974	-0.0765256
92	0xbd875d27	-0.06609564
93	0x3b3876e8	0.0028147046
94	0x3dd65980	0.104662895
95	0x3db2bb5b	0.087271415
96	0xbb94ec0c	-0.0045447405
97	0xbc2f222c	-0.0106893
98	0xbd007a76	-0.031366788
99	0xbc834898	-0.016025826
100	0xbd008aa1	-0.031382207
101	0xbdb8bcfd	-0.09020422
102	0xbd52b091	-0.051437918
103	0xbc7c0099	-0.015381002
104	0x3d00a517	0.031407442
105	0x3dc6523a	0.09683652
106	0x3dd71a3f	0.10503053
107	0x3db29685	0.087201156
108	0x3d8dbc5c	0.06920692
109	0x3db1c28a	0.086796835
110	0x3d8ce08c	0.068787664
111	0x3d4a3906	0.049370788
112	0x3d08771c	0.033316717
113	0x3d6517e2	0.05593098
114	0x3ade4203	0.0016956929
115	0xbcc0e374	-0.023545958
116	0x3d111169	0.035416994
117	0xbd8d66e6	-0.06904392
118	0x3d5c5e44	0.053800836
119	0x3de8e959	0.113726325
120	0x3da69ed6	0.08135764
121	0xbd8c7ff9	-0.06860346
122	0x3d94c342	0.07263805
123	0x3cbe3a33	0.02322111
124	0x3d5f66cc	0.054541394
125	0x3d026d6c	0.031842634
126	0x3d8dc519	0.06922359
127	0xbdab99d9	-0.083789535
128	0x3db2b089	0.08725078
129	0xbd964b3f	-0.07338571
130	0xbd52746b	-0.051380556
131	0x3c924b81	0.017858269
132	0xbbccff27	-0.0062560025
133	0xbd7aaeca	-0.061201848
134	0x3d84f6bb	0.064923726
135	0x3c8b2a4e	0.016987946
136	0xbcae7231	-0.021294685
137	0x3d156f87	0.036483314
138	0xbd9666d5	-0.073438324
139	0xbd971f2c	-0.073789924
140	0x3d8568fb	0.06514164
141	0x3d62f005	0.05540468
142	0x3d7c0395	0.061526854
143	0x3d3a8899	0.045540426
144	0xbd58e7d5	-0.052955467
145	0x3d95f832	0.0732273
146	0x3d0552ee	0.03254979
147	0x3d8fa60c	0.07014093
148	0xbd89600c	-0.067077726
149	0xbdb8f70e	-0.09031497
150	0xbd747ea1	-0.059691075
151	0xbd2e7154	-0.042588547
152	0x3bd6f232	0.0065596336
153	0xbbde3259	-0.0067809043
154	0x3dc7a5f8	0.09748453
155	0xbc889bcb	-0.01667585
156	0xbc7377ab	-0.014860074
157	0x3d801808	0.062545836
158	0x3ddc8865	0.10768203
159	0x3bff4b77	0.0077909785
160	0x3daca16a	0.08429225
161	0xbd496e16	-0.04917725
162	0x3dad1b89	0.084525175
163	0x3cf191ec	0.029488526
164	0x3bf9fa7e	0.007628738
165	0x3db09344	0.08621839
166	0x3d901875	0.07035915
167	0xbd6236aa	-0.055227913
168	0xbd0a6bcf	-0.03379422
169	0xbdaf584c	-0.08561763
170	0xbc637d05	-0.013884787
171	0x398b2e34	0.0002654657
172	0x3d24c800	0.040229797
173	0x3c860e55	0.016364256
174	0xbd656310	-0.056002676
175	0x3db5e9eb	0.08882507
176	0x3aaee3ea	0.001334307
177	0xbd3ae62f	-0.045629676
178	0x3d2eb189	0.04264978
179	0x3d51b061	0.0511936
180	0x3d0a3045	0.03373744
181	0xbd190fd2	-0.037368603
182	0xbc1f531a	-0.009724403
183	0x3d8bf54c	0.06833896
184	0x3d6b9aed	0.057520796
185	0xbb1bdc6b	-0.0023782502
186	0xbca234d6	-0.019800585
187	0x3d9d851e	0.07691406
188	0xbc5601fc	-0.013061997
189	0x3d155be2	0.03646458
190	0x3d70fced	0.05883496
191	0xbd9d68bc	-0.07685992
192	0xbd42b097	-0.04753169
193	0xbd82219a	-0.06354065
194	0x3b85f5b5	0.0040881285
195	0xbccde9ab	-0.025135836
196	0xbd458be5	-0.048229117
197	0x3dbf9fc5	0.093566455
198	0x3dd5c000	0.10437012
199	0xbc8bcbca	-0.017064948
200	0x3c976260	0.018479526
201	0xbb58ed95	-0.0033100594
202	0x3b89eb24	0.004208939
203	0x3d6cf9dd	0.057855476
204	0x3d1b722d	0.037950683
205	0x3dba32f5	0.090917505
206	0xbd461b90	-0.04836613
207	0xbda6180e	-0.08110057
208	0xbc7429b4	-0.014902521
209	0x3ca35cda	0.019941736
210	0x3b3ac640	0.0028499514
211	0x3db8bdd1	0.090205796
212	0x3d70556f	0.058675226
213	0x3d1a0379	0.037600968
214	0x3b5b1a0b	0.003343227
215	0xbbfe3067	-0.007757235
216	0xbc2ed5b2	-0.010671066
217	0x3c08be2f	0.008346125
218	0xbc8c13b5	-0.01709924
219	0x3c1a4a6b	0.009417157
220	0x3d760695	0.06006487
221	0x3d42de8f	0.04757553
222	0x3d45701e	0.048202626
223	0x3d2db928	0.042412907
224	0xbc49346a	-0.012280563
225	0xbd1a02f5	-0.037600476
226	0x3d525779	0.05135295
227	0x3bb0cc33	0.005395436
228	0x3db7fba0	0.089835405
229	0xbbe78c96	-0.0070663197
230	0x3dcfa923	0.10139682
231	0xbd92ba26	-0.07164411
232	0x3df0a26a	0.11749728
233	0xbcaeda67	-0.021344377
234	0x3c495275	0.012287726
235	0xbca70455	-0.020387808
236	0xbc8bff69	-0.017089562
237	0x3d0ee322	0.03488458
238	0x3ddb8338	0.10718387
239	0xbc310b4c	-0.010805916
240	0xbc1e9534	-0.0096791275
241	0xbd2ab0db	-0.04167257
242	0xbc68e272	-0.014214145
243	0xbaeddff8	-0.0018148413
244	0x3dc8f7d1	0.09812892
245	0xbda8dc59	-0.08245153
246	0xbd8b87e9	-0.06813032
247	0x3cc97714	0.024592914
248	0xbcd98821	-0.02655417
249	0x3d2509ec	0.040292665
250	0x3d27fb4d	0.041011143
251	0xbd69a8bc	-0.057045683
252	0x3ca301fd	0.019898409
253	0x3ce7bd58	0.028288528
254	0x3c780e3e	0.015140114
255	0xbda8d5a1	-0.082438715

6.bias f4 [128]
0	0x3bf6192e	0.007510326
1	0x3e11a408	0.14222729
2	0x3cda3fe3	0.026641792
3	0x3da73e20	0.08166146
4	0xbd8b457d	-0.06800363
5	0xbcb66ab5	-0.022267679
6	0x3e562661	0.20913078
7	0x3d418345	0.04724433
8	0x3e649191	0.22321154
9	0x3e440b45	0.19144924
10	0x3c48f307	0.0122649735
11	0xbde0d0b0	-0.10977304
12	0xbdaf8ff3	-0.08572378
13	0x3acf0ddd	0.0015796978
14	0x3c3decf8	0.011592142
15	0x3d472bc4	0.048625723
16	0xbdbc41e5	-0.09192256
17	0xbc665a3b	-0.014059599
18	0xbd9d8352	-0.07691063
19	0x3c84f018	0.016227767
20	0x3d715e33	0.058927726
21	0x3e224fe2	0.15850785
22	0xbd3c4eec	-0.045973703
23	0xbd9a6f5a	-0.0754077
24	0xbb04af4c	-0.0020246087
25	0x3d102654	0.035192803
26	0x3cf6ca6f	0.030125825
27	0xbd20bc5c	-0.039242133
28	0x3cfe349e	0.03103095
29	0xbd7568c9	-0.059914384
30	0x3d8906e0	0.066907644
31	0xbd2201ef	-0.039552625
32	0x3e285635	0.16439135
33	0xbcf18cca	-0.029486079
34	0x3c26b8ae	0.010175867
35	0xbd803268	-0.06259614
36	0xbde8d30c	-0.11368379
37	0x3d5c79f4	0.05382724
38	0x3cabf516	0.02099089
39	0x3e054dd1	0.13017966
40	0xbd751910	-0.059838355
41	0x3e6b59fa	0.22983542
42	0x3e026ad1	0.1273606
43	0x3adf1316	0.0017019238
44	0xbdaf575f	-0.085615866
45	0x3d311a41	0.04323793
46	0x3d80ec34	0.06295052
47	0xbdd04161	-0.1016872
48	0xbcf4ce8e	-0.02988365
49	0xbc49fc5e	-0.012328235
50	0xbd8f5fac	-0.0700067
51	0xbdc0bb75	-0.094107546
52	0x3d5750bd	0.052567232
53	0xbc6edfff	-0.014579772
54	0x3d8f3fc1	0.06994582
55	0x3e052c55	0.13005193
56	0xbd63aebb	-0.055586558
57	0xb9da9f52	-0.00041698903
58	0x3e541388	0.20710576
59	0xbd4d3540	-0.05009961
60	0x3d22e625	0.039770264
61	0xbd3bd118	-0.045853704
62	0x3b8399e2	0.004016147
63	0x3e89175e	0.2677564
64	0x3a9124dd	0.0011073608
65	0xbccac1c6	-0.024750602
66	0xbd2b2500	-0.041783333
67	0x3cf7b79e	0.030238923
68	0xbdad9afa	-0.08476825
69	0xbd4916ee	-0.049094133
70	0xbd0582d7	-0.03259548
71	0x3d052321	0.032504205
72	0x3d22e2e4	0.03976716
73	0xbdab248e	-0.08356582
74	0x3bf50505	0.007477405
75	0x3e31f687	0.17379199
76	0x3c3b5001	0.011432649
77	0xbdb268b7	-0.08711379
78	0xbd0d625b	-0.034517627
79	0xbd013722	-0.03154672
80	0x3b38f88a	0.0028224313
81	0xbbbdbf13	-0.0057906
82	0xbdb15f1e	-0.0866072
83	0xbd2056bd	-0.03914522
84	0xbd5c0840	-0.053718805
85	0xbcf8622a	-0.030320246
86	0x3c5fa479	0.013650053
87	0x3bfead6d	0.007772139
88	0xbb8c2152	-0.004276433
89	0xbab84fcc	-0.0014061867
90	0xbd55efba	-0.052230574
91	0x3d9a65a0	0.07538915
92	0xbdea33e8	-0.114356816
93	0xbd9873a1	-0.074439295
94	0xbd416b1f	-0.0472213
95	0xbdb129d5	-0.08650557
96	0xbc1b03b8	-0.009461336
97	0x3d04843a	0.032352664
98	0x3ca03aaa	0.019559223
99	0x3e0119bb	0.12607472
100	0xbcfd1235	-0.03089247
101	0x3e0ba768	0.13638079
102	0xbd9942a1	-0.074834116
103	0x3e9b1582	0.30289847
104	0xbd8be16d	-0.06830106
105	0xbdb591a8	-0.08865672
106	0xbd3228f3	-0.043496083
107	0xbd0aecb0	-0.03391713
108	0x3ba58b17	0.005051981
109	0xbd33f7dd	-0.043937553
110	0x3dde4e10	0.10854733
111	0xbd4a6c64	-0.049419776
112	0xbc1d7172	-0.009609567
113	0x3d6f45b9	0.058416102
114	0xbd8d9558	-0.06913251
115	0x3d08a14c	0.03335695
116	0x3d0b092e	0.0339443
117	0xbd809d94	-0.06280056
118	0x3d67b402	0.056568153
119	0xbc611aab	-0.013739268
120	0xbe01c311	-0.12672068
121	0xbd408f10	-0.047011435
122	0x3e1dd144	0.1541186
123	0xbca93bf1	-0.020658465
124	0x3d2c212f	0.042023834
125	0x3e8410d4	0.2579409
126	0x3e05f12b	0.1308028
127	0x3c7de14b	0.015495609

8.weight f4 [49, 128]
0	0x3d94f54d	0.0727335
1	0xbda77ee7	-0.081785016
2	0xbcb35dc5	-0.021895299
3	0x3d28776a	0.041129507
4	0xbe0cb28b	-0.13739984
5	0x3dab5680	0.08366108
6	0xbe45914e	-0.1929371
7	0x3dc19a79	0.094532914
8	0xbe238ce4	-0.15971714
9	0xbe237068	-0.15960848
10	0xbdde7456	-0.10862033
11	0x3c8b31e7	0.016991569
12	0xbb68361b	-0.003543264
13	0x3b6b8af6	0.0035940981
14	0x3d0195ff	0.031637188
15	0x3b8d42f2	0.004310959
16	0x3d0897e8	0.033347994
17	0x3d60f1c2	0.05491806
18	0x3c5ebd97	0.013595006
19	0x3d79a301	0.06094647
20	0x3d82cd3b	0.06386801
21	0xbd6cd113	-0.057816576
22	0xbda2da86	-0.07951836
23	0x3dba7fe2	0.09106423
24	0xbd2b6e93	-0.0418535
25	0x3d057e32	0.032591052
26	0x3d8fbaf5	0.07018081
27	0xbc97c0f0	-0.018524617
28	0xbd6ea935	-0.058266837
29	0x3c0d1266	0.008610344
30	0x3dae00ea	0.08496268
31	0x3d835697	0.06413
32	0xbdca2f14	-0.09872261
33	0x3dac9d65	0.08428458
34	0x3c98913a	0.018623937
35	0x3d9b6431	0.07587469
36	0xbda3de8c	-0.08001432
37	0xbc617977	-0.01376187
38	0x3d1c2625	0.038122315
39	0xbe4cebcf	-0.20011829
40	0x3b9da448	0.0048108436
41	0xbe758fdb	-0.23980658
42	0xbd11067c	-0.035406575
43	0xbcc80dc0	-0.024420619
44	0x3d34d9e6	0.044153117
45	0x3d8259f6	0.06364815
46	0x3aa1f4f0	0.0012356322
47	0xbc321a00	-0.010870457
48	0x3b9b65e2	0.00474237
49	0x3cf0169a	0.029307652
50	0xbcd2f0af	-0.025749533
51	0xbd024295	-0.03180178
52	0xbd7cd9fb	-0.06173132
53	0x3d60f39a	0.054919817
54	0xbd22772d	-0.039664436
55	0xbd9f2e12	-0.07772459
56	0x3d87c4f8	0.06629366
57	0x3d85c307	0.06531339
58	0xbcf1da9f	-0.029523192
59	0xbdbf6071	-0.093445666
60	0xbc95dab8	-0.01829277
61	0xbd9f5d51	-0.077814706
62	0xbd2bae45	-0.041914243
63	0xbe29cc8b	-0.16581933
64	0xbd9694cd	-0.073526
65	0x3da977c4	0.082747966
66	0x3b878d10	0.004136689
67	0x389688b8	7.178023e-05
68	0xbcfcf186	-0.030876886
69	0x3d61899e	0.055062883
70	0x3dee9c16	0.11650865
71	0x3db12881	0.08650304
72	0xbc6e485d	-0.01454362
73	0x3ce880cd	0.02838173
74	0x3da97723	0.08274677
75	0xbdd7279c	-0.10505602
76	0xbd67f5c6	-0.056630872
77	0xbb18413c	-0.0023232242
78	0xbc9fdca0	-0.019514382
79	0x3d08dcb8	0.03341362
80	0xbd09c94d	-0.03363924
81	0x3db7b9c4	0.08970979
82	0xbd37913c	-0.04481624
83	0xbdacc24f	-0.08435499
84	0xbd113ccb	-0.035458367
85	0x3d927ced	0.07152734
86	0x3d36ba08	0.044611007
87	0xbd9eb539	-0.07749409
88	0x3d3f3517	0.04668149
89	0x3d5d7588	0.054067165
90	0x3c7b6850	0.015344694
91	0xbd7a4002	-0.0610962
92	0xbd6ecb36	-0.058299266
93	0xbafa7184	-0.0019107317
94	0xbe0ef50d	-0.13960667
95	0x3d058eec	0.032607004
96	0x3da790af	0.08181893
97	0x3d13c0d8	0.036072582
98	0x3d14a564	0.03629054
99	0xbdefb93e	-0.11705254
100	0xbcf4a069	-0.029861646
101	0xbe2dc4df	-0.16969632
102	0xbd0c2e3a	-0.034223773
103	0xbe6c321c	-0.2306599
104	0x3dd60659	0.104504295
105	0x3e29a1fc	0.16565698
106	0xbd6be1ba	-0.057588317
107	0x3d438db2	0.047742553
108	0x3b88768b	0.004164522
109	0xbd5559f1	-0.052087728
110	0x3cdbb5a5	0.026820013
111	0x3d7b07ff	0.061286923
112	0xbcf09235	-0.029366592
113	0x3d13f1a9	0.036119137
114	0x3d1f46e0	0.03888595
115	0x3d9233c8	0.07138783
116	0xbd1196f0	-0.035544336
117	0x3d098691	0.0335756
118	0xbde566ae	-0.11201225
119	0x3da510e3	0.080598615
120	0xbd968d1c	-0.07351133
121	0xbd494462	-0.04913748
122	0xbe7f3832	-0.2492378
123	0x3c17e67a	0.0092712585
124	0xbd0bad36	-0.034100734
125	0xbe023381	-0.1271496
126	0xbd310c75	-0.04322477
127	0x3d902e9f	0.07040142
128	0x3d2abb5a	0.04168258
129	0xbdcb2373	-0.09918871
130	0x3cb84d37	0.022497756
131	0xbc05ef11	-0.008174674
132	0xbc813b85	-0.015775451
133	0x3d1372ca	0.035998143
134	0xbd382c27	-0.044963982
135	0x3da4134c	0.08011493
136	0xbe321867	-0.17392121
137	0xbcc03ad2	-0.023465548
138	0xbe1f2960	-0.15543127
139	0xbcf9b3ce	-0.030481245
140	0x3d4a19c8	0.049340993
141	0x3cd8b212	0.026452098
142	0x3d94edcc	0.07271919
143	0x3c0dc741	0.008653463
144	0x3db25d37	0.087091856
145	0x3cc18498	0.023622796
146	0x3d2a9066	0.041641615
147	0xbcc40ed9	-0.023932861
148	0x3d14e8ea	0.036354937
149	0xbe144159	-0.14478053
150	0x3b1d4e7e	0.0024003084
151	0x3dfa7669	0.12229616
152	0xbc310ff2	-0.010807024
153	0x3c3bbf39	0.011459165
154	0x3d04a334	0.032382205
155	0xbd86c9db	-0.065814696
156	0x3c4dbcd4	0.012557227
157	0x3b55a72c	0.0032600863
158	0xbd397496	-0.0452772
159	0xbcbf00b4	-0.023315765
160	0xbdd3c895	-0.10340992
161	0xbbe4ae14	-0.0069787595
162	0x3e002b18	0.12516439
163	0x3d471e3e	0.048612826
164	0x3d1ddee7	0.038542654
165	0xbd35e15a	-0.044404365
166	0x3cb7084e	0.022342827
167	0xbdec07de	-0.11524938
168	0x3d3ed763	0.046592128
169	0xbe89725d	-0.26845065
170	0xbe0aa277	-0.13538538
171	0x3d897d8e	0.06713401
172	0x3d3b1dfe	0.0456829
173	0xbd35d94f	-0.044396695
174	0x3d9f8858	0.077896774
175	0x3d8964ea	0.06708701
176	0xbd0d6a3f	-0.034525152
177	0x3d037224	0.032091275
178	0xbc8233b6	-0.015893798
179	0x3c5358db	0.012899603
180	0xbe1a4033	-0.15063553
181	0xbd76cebd	-0.060255755
182	0xbd228c98	-0.039684862
183	0xbd338e97	-0.043837156
184	0xbd8626a3	-0.06550338
185	0x3c3cbd57	0.0115197515
186	0xbe27e58f	-0.16396163
187	0xbe215517	-0.15755115
188	0x3d67200f	0.056427058
189	0x3b432a72	0.0029779938
190	0xbd594b72	-0.053050466
191	0xbdd0afc8	-0.101897776
192	0xbd12f925	-0.035882134
193	0xbd90056a	-0.07032283
194	0x3d81afa1	0.06332327
195	0x3c309974	0.010778774
196	0xbd52566a	-0.051351942
197	0x3d363172	0.04448075
198	0x3c17687e	0.0092412215
199	0x3dd5618c	0.10418996
200	0xbd9dc162	-0.077029005
201	0xbc936fc1	-0.017997624
202	0x3c9df0b2	0.019279812
203	0xbd45e0c1	-0.048310045
204	0x3d998032	0.074951544
205	0xbdb6dc98	-0.08928794
206	0xbd8ab60d	-0.06773005
207	0x3b100eb7	0.0021981427
208	0x3d0af13a	0.033921458
209	0xbd997ba0	-0.07494283
210	0x3b917763	0.004439281
211	0xbc9dfcbe	-0.019285556
212	0x3d9a31b7	0.075290136
213	0x3caf9eec	0.021438085
214	0x3d83e976	0.064410135
215	0xbe04f829	-0.1298529
216	0x3da98518	0.08277339
217	0x3d97da14	0.07414642
218	0xbcf222ee	-0.029557671
219	0xbde09f43	-0.10967877
220	0xbd990e05	-0.07473377
221	0xbd625884	-0.055260196
222	0xbe200306	-0.15626153
223	0x3cc8b3dd	0.024499828
224	0xbd1c1980	-0.038110256
225	0x3c8a7ac8	0.01690425
226	0xbcd25221	-0.025673928
227	0xbd889a92	-0.06670107
228	0x3c9065df	0.0176267
229	0xbe879e73	-0.26488075
230	0x3d48d311	0.049029414
231	0xbe32c65d	-0.17458482
232	0x3dd32110	0.103090405
233	0x3db882d0	0.090093255
234	0x3d3b0e79	0.0456681
235	0xbdaed2e9	-0.08536322
236	0x3d9f2e27	0.07772475
237	0x3d32aefe	0.043623917
238	0xbd981c4e	-0.07427274
239	0x3dba6527	0.091013245
240	0xbc6ba88b	-0.0143834455
241	0xbc8ec006	-0.017425548
242	0xbc5d7db9	-0.013518744
243	0x3b76fa33	0.0037685751
244	0xbdff94f5	-0.12479583
245	0xbc2cb493	-0.010541099
246	0xbcd493e7	-0.025949432
247	0xbd7bd4f2	-0.061482377
248	0xbd1cdef6	-0.03829857
249	0x3d6c4c09	0.0576897
250	0xbe5ca226	-0.2154623
251	0x3b951f1f	0.004550829
252	0x3c8a276b	0.0168645
253	0xbe390fc0	-0.18072414
254	0xbd81364d	-0.06309185
255	0x3c8150fa	0.015785683

8.bias f4 [49]
0	0xbdb40bd4	-0.087913185
1	0xbd7a67d1	-0.061134163
2	0xbdbbab40	-0.09163523
3	0xbddfffa3	-0.10937431
4	0xbe00c68f	-0.12575744
5	0xbda09bf8	-0.07842249
6	0xbd3537b0	-0.04424256
7	0xbdc99ffe	-0.09844969
8	0xbe10c227	-0.14136563
9	0xbe04c25c	-0.12964767
10	0xbdf39dc9	-0.118953295
11	0xbdce936b	-0.100867115
12	0xbe182394	-0.14857322
13	0xbe39aac0	-0.18131542
14	0xbe189594	-0.1490081
15	0xbdc4fae4	-0.09618166
16	0xbe26b28c	-0.16279048
17	0xbe4a0ce8	-0.19731486
18	0xbe574633	-0.21022873
19	0xbe2925d3	-0.16518335
20	0xbe219aa4	-0.15781647
21	0xbe1b8495	-0.15187295
22	0xbe389d2f	-0.18028711
23	0xbe4381a1	-0.19092418
24	0xbe657121	-0.22406437
25	0xbe06dbf3	-0.13169841
26	0xbdaa7371	-0.083228
27	0xbe3e8d55	-0.18608601
28	0xbe3c2e1d	-0.18376966
29	0xbdf9eb55	-0.12203089
30	0xbe3da2d5	-0.18519147
31	0xbe949fb0	-0.29028082
32	0xbdeed5d0	-0.11661875
33	0xbe4a44b9	-0.19752778
34	0xbe023f52	-0.12719467
35	0xbdb9e3ee	-0.09076677
36	0xbdd3b713	-0.10337653
37	0xbe2aa98c	-0.1666624
38	0xbe000b25	-0.12504251
39	0xbe05d15c	-0.13068146
40	0xbdf6b2c7	-0.12045818
41	0xbdb3787b	-0.08763214
42	0xbe410939	-0.18851174
43	0xbe0d518f	-0.13800643
44	0xbdd0f22b	-0.1020244
45	0xbdae86d0	-0.08521807
46	0xbd7a5548	-0.061116487
47	0xbe08ed46	-0.13371763
48	0xbe215aac	-0.15757245
