models/snapsRandom/model_1685823179.5294771.pt (torch, 252691 bytes, 10 tensors)

0.weight f4 [128, 49]
0	0xbd85e0cd	-0.06537018
1	0x3dc5495c	0.09633133
2	0x3db77e6e	0.089596614
3	0xbe4e7a3a	-0.20163813
4	0x3d0e08af	0.03467625
5	0xbd79ebdb	-0.061015945
6	0x3ca832cf	0.02053204
7	0x3e05ae51	0.13054778
8	0xbcca7d08	-0.024717823
9	0xbe1660f7	-0.14685427
10	0x3db2b4c2	0.08725883
11	0x3e14f824	0.14547783
12	0xbd52f577	-0.051503625
13	0x3dbe4cfa	0.09292026
14	0x3c45ba33	0.012068319
15	0xbdb943e2	-0.09046151
16	0x3cd4a874	0.025959231
17	0xbc8ec529	-0.017427998
18	0xbba37fac	-0.004989585
19	0x3d3eeb7a	0.046611287
20	0xbda87ff9	-0.08227534
21	0xbd13a37e	-0.03604459
22	0x3e15402b	0.1457526
23	0x3b58b4e7	0.003306681
24	0x3d1ce37b	0.03830288
25	0xbdb0a1a3	-0.0862458
26	0xbe619858	-0.22030771
27	0xbc7dd9cb	-0.01549382
28	0x3df9e71c	0.12202284
29	0xbe255136	-0.16144261
30	0x3d252913	0.040322375
31	0xbd222dad	-0.03959434
32	0x3c364e67	0.011127091
33	0xbbbe18b9	-0.005801287
34	0xbd57dbd7	-0.05269989
35	0x3e8434ee	0.25821632
36	0x3c8316d3	0.016002094
37	0xbdb9ea0b	-0.09077843
38	0xbe5982e9	-0.21241345
39	0xbd105811	-0.035240237
40	0x3d12c852	0.03583557
41	0x3e0dde52	0.1385434
42	0x3c72c816	0.014818212
43	0xbd1fcdee	-0.03901475
44	0xbde0a1e4	-0.10968378
45	0x3df97f7b	0.12182518
46	0x3de194ca	0.110147074
47	0xbcceb06d	-0.02523061
48	0xbd39065e	-0.045172088
49	0xbbd8c37c	-0.0066151004
50	0xbdd0383c	-0.10166976
51	0xbdf915d4	-0.121623665
52	0xbcddb8fb	-0.027065745
53	0x3d585a40	0.052820444
54	0x3d2c9ffd	0.042144764
55	0x3e1db1e7	0.15399896
56	0xbc57dd5b	-0.013175334
57	0xbdd854e9	-0.1056307
58	0xb9fea581	-0.00048569965
59	0x3e2f3d2d	0.1711318
60	0x3df8ca94	0.12148014
61	0x3d8f74b6	0.07004683
62	0x3dd84394	0.105597645
63	0xbe481d37	-0.19542395
64	0xbdaea6a1	-0.08527876
65	0x3c62217d	0.01380193
66	0xbcc54737	-0.02408181
67	0xbdbfb039	-0.09359784
68	0x3e808f68	0.2510941
69	0x3dbace93	0.09121432
70	0xbdda96d0	-0.106732965
71	0xbcd6cdb5	-0.026221136
72	0x3e39fa54	0.18161899
73	0xbdba6ed6	-0.091031715
74	0xbdd39859	-0.103317924
75	0xbab6b5da	-0.0013939694
76	0xbc5aa40b	-0.013344775
77	0xbde3f139	-0.11129994
78	0x3de1a153	0.11017098
79	0x3e23786c	0.15963906
80	0xbe0e130f	-0.13874458
81	0xbe13869c	-0.14406818
82	0xbd9e79e3	-0.07738092
83	0x3df56ede	0.11984037
84	0xbde5a682	-0.112133995
85	0x3d6a958a	0.057271518
86	0x3d55d902	0.052208908
87	0xbe0cdc87	-0.13756
88	0x3dba74d8	0.091043174
89	0x3e32e815	0.17471345
90	0x3c843223	0.016137188
91	0x3d089ce9	0.033352766
92	0xbc60cc67	-0.013720608
93	0xbe2c1b4d	-0.1680729
94	0x3d4672c7	0.048449304
95	0x3dd921ff	0.10602187
96	0x3cfe86a1	0.031070055
97	0xbddcb804	-0.10777286
98	0x3c98e632	0.018664453
99	0xbe243726	-0.16036662
100	0x3d1ac9c2	0.037790067
101	0xbe713134	-0.23553926
102	0x3cca9539	0.024729358
103	0xbe31966f	-0.17342542
104	0xbc6e9d7e	-0.014563916
105	0x3dbe95d6	0.09305923
106	0x3dacd8f2	0.084398165
107	0xbce01144	-0.027351983
108	0xbd5e0480	-0.05420351
109	0x3e3f214b	0.18665044
110	0xbe121b6e	-0.14268276
111	0x3e257373	0.16157322
112	0xbdb2fea8	-0.08739978
113	0x3ca5f359	0.020257639
114	0x3e1d69a3	0.15372328
115	0xbe20ccfb	-0.15703194
116	0xbe0b1e82	-0.13585857
117	0x3d2afa85	0.04174282
118	0xbd112031	-0.03543109
119	0x3dd59c34	0.10430184
120	0xbd88a83b	-0.066727124
121	0xbdfc3ac5	-0.12315897
122	0xbd7ce8e4	-0.06174554
123	0x3d35139e	0.04420816
124	0xbe128d22	-0.1431165
125	0x3d605f05	0.054778118
126	0xbe04ee57	-0.12981544
127	0x3d7abecc	0.061217114
128	0x3cc8e9ed	0.024525607
129	0xbd003c75	-0.031307656
130	0x3da2998c	0.07939443
131	0xbe04c09c	-0.129641
132	0x3ccb5667	0.024821473
133	0xbe2aff23	-0.1669889
134	0xbc9bb23e	-0.019005891
135	0xbd800462	-0.06250836
136	0xbdaa5805	-0.0831757
137	0xbd94e410	-0.07270062
138	0xbdae0513	-0.084970616
139	0x3e295e0e	0.16539785
140	0xbd4dd1a6	-0.050248764
141	0xbce4fd87	-0.027952923
142	0xbd8a57eb	-0.0675505
143	0x3d9199f0	0.071094394
144	0xbd0d48a9	-0.034493122
145	0xbd6b16b1	-0.057394687
146	0x3d979863	0.07402112
147	0x3d164910	0.03669077
148	0x3dacb533	0.084329985
149	0xbc274c8f	-0.010211124
150	0x3d842e65	0.064541616
151	0x3e4eedf2	0.20207956
152	0x3c18f755	0.009336312
153	0x3e0368f4	0.12833005
154	0x3deaf152	0.114718094
155	0x3dc48af6	0.09596817
156	0x3e158856	0.1460279
157	0x3ce59487	0.028024925
158	0xbd6730a6	-0.05644288
159	0x3c9779d1	0.018490704
160	0xbdbff4c8	-0.0937286
161	0x3dfcfe04	0.12353137
162	0x3e09e39b	0.13465731
163	0x3da7cc17	0.08193224
164	0x3deca604	0.115551025
165	0xbd898832	-0.0671543
166	0xbe1ef727	-0.15523969
167	0x3de013bd	0.10941265
168	0x3d524764	0.051337615
169	0x3d261968	0.040551573
170	0x3ce53284	0.02797819
171	0x3c180cd1	0.009280399
172	0xbe0104d7	-0.12599503
173	0xbe6a0829	-0.22854675
174	0x3da10de0	0.078639746
175	0xbd4d2efa	-0.05009363
176	0xbd946cf1	-0.072473414
177	0xbdb52c4b	-0.08846339
178	0x3d8abfa2	0.06774832
179	0xbd6a2254	-0.057161644
180	0xbcc24807	-0.023715986
181	0x3ea90574	0.33011973
182	0x3ce19831	0.02753839
183	0x3e4a8997	0.19779049
184	0x3d66cc18	0.056346983
185	0xbdd2a4ce	-0.1028534
186	0xbda19bf7	-0.07891076
187	0x3da4d13f	0.08047723
188	0xbd893e6e	-0.06701361
189	0xbe0a8163	-0.1352592
190	0x3c4f3d32	0.012648867
191	0xbdd6540d	-0.1046525
192	0xbd10b7f6	-0.03533169
193	0xbd9f1576	-0.07767765
194	0x3c147397	0.009060762
195	0x3d9931d5	0.07480208
196	0x3c95a68d	0.018267894
197	0xbd7fd6da	-0.062460758
198	0x3d2f6228	0.04281822
199	0xbcf99dd1	-0.03047076
200	0xbe30cd7a	-0.17265883
201	0x3d1b1f1c	0.037871465
202	0x3e85a75c	0.26104248
203	0x3d006682	0.03134776
204	0x3cc8ec8c	0.024526857
205	0xbc981eda	-0.018569399
206	0x3d377e94	0.04479845
207	0xbe04af70	-0.12957549
208	0xbd8cd8b5	-0.06877271
209	0xbde89590	-0.11356652
210	0xbddfb99b	-0.10924073
211	0xbd763596	-0.060109697
212	0x3d669a2d	0.056299377
213	0x3d22abf3	0.039714765
214	0xbe4a4d09	-0.19755949
215	0x3d58d1c3	0.05293442
216	0xbd8e2144	-0.06939939
217	0x3c8ea88e	0.017414358
218	0xbd278a91	-0.04090363
219	0xbc4e11e7	-0.01257751
220	0xbdcce45d	-0.10004494
221	0x3d808c45	0.06276754
222	0xbe121029	-0.14263977
223	0xbe11a161	-0.14221717
224	0xbc86d083	-0.016456848
225	0xbd1e9eb0	-0.038725555
226	0x3e9f602f	0.3112807
227	0xba428024	-0.0007419607
228	0x3c1375a0	0.009000212
229	0x3dad4937	0.0846123
230	0x3c1eccbd	0.009692368
231	0xbbf4d217	-0.0074713337
232	0x3dd43ef1	0.103635676
233	0x3de71ade	0.112844214
234	0xbe1305f2	-0.14357737
235	0xbc541c24	-0.012946162
236	0xbe83c1fa	-0.2573393
237	0xbd70eaef	-0.0588178
238	0xbe94b9d3	-0.29048023
239	0x3d6811eb	0.056657713
240	0xbb2e0e6e	-0.0026558894
241	0xbbd0d234	-0.0063727144
242	0x3d0c0a7f	0.034189697
243	0x3db5d610	0.0887872
244	0xbcdf164e	-0.027232315
245	0xbbe7b502	-0.0070711384
246	0x3ded4686	0.11585717
247	0x3c2e488f	0.0106374165
248	0x3de4bd2d	0.11168895
249	0x3e1ae8e7	0.15127908
250	0xbd5bd3bf	-0.053668734
251	0x3d559276	0.05214163
252	0xbdf693c8	-0.12039906
253	0x3e504714	0.20339614
254	0x3dced5be	0.10099362
255	0xbcf6f03d	-0.030143851

0.bias f4 [128]
0	0x3df72978	0.120684564
1	0x3e335934	0.17514497
2	0xbceed888	-0.029155985
3	0xbe40e213	-0.1883624
4	0x3dbf22f3	0.09332838
5	0x3e43f338	0.1913575
6	0xbe01e29c	-0.12684101
7	0x3eec1f10	0.4611745
8	0x3ebec6dd	0.37261096
9	0xbe7c4f0b	-0.24639527
10	0x3e8ae259	0.27125815
11	0x3e84312d	0.25818768
12	0xbdac787e	-0.084214196
13	0xbdd3086a	-0.10304339
14	0x3e8369c3	0.25666627
15	0x3caf0183	0.021363026
16	0xbdbd7cf0	-0.092523456
17	0xbe354628	-0.17702544
18	0xbd098fc6	-0.03358438
19	0x3e6882e1	0.22706176
20	0xbb16ffee	-0.002304073
21	0xbe4199be	-0.18906304
22	0xbe67126c	-0.22565621
23	0xbe082924	-0.13296944
24	0xbe01e3e6	-0.12684593
25	0xbd91c4d2	-0.071176186
26	0x3eb64119	0.3559654
27	0x3f04760a	0.51742613
28	0xbe333579	-0.17500867
29	0x3e965dfb	0.29368576
30	0x3dff772a	0.124739006
31	0xbeb35293	-0.35023937
32	0xbdcfcb92	-0.1014625
33	0xbea14b8d	-0.31502953
34	0xbdd88ab1	-0.10573328
35	0x3d2e7ca6	0.042599343
36	0x3e905cfc	0.2819594
37	0xbd5f29f2	-0.05448336
38	0x3d070825	0.03296675
39	0xbd8acc00	-0.06777191
40	0xbe23ad8d	-0.15984173
41	0xbd51f38a	-0.051257648
42	0x3d26a1bb	0.040681582
43	0xbe0489bc	-0.12943166
44	0xbde8b55e	-0.11362718
45	0xbdcc1fd9	-0.09967012
46	0x3e757ff8	0.23974597
47	0x3dd5ea28	0.104450524
48	0xbe976952	-0.2957254
49	0x3e7934f8	0.24336612
50	0xbe15d09d	-0.14630361
51	0xbd37e981	-0.04490042
52	0xbe8c55f5	-0.2740933
53	0xbdc1c2a5	-0.094609536
54	0x3e56f5d1	0.20992209
55	0xbc8d3a83	-0.017239815
56	0x3ecef564	0.40421593
57	0xbe39886e	-0.1811845
58	0xbd7de885	-0.061989326
59	0xbe9053d2	-0.2818895
60	0xbd01513d	-0.031571615
61	0xbe760d74	-0.2402857
62	0xbe46c1c2	-0.1940985
63	0xbe4a5a78	-0.19761074
64	0xbe494f26	-0.19659099
65	0x3e2a42cf	0.16627048
66	0xbe4230be	-0.18963906
67	0xbc86d3eb	-0.016458472
68	0xbded9738	-0.11601108
69	0xbdae2c73	-0.08504572
70	0x3ed9b13d	0.42518035
71	0xbe1c3a01	-0.15256502
72	0x3e3eb590	0.18623948
73	0xbe73ae31	-0.23796917
74	0x3d213762	0.039359458
75	0xbe8970d4	-0.26843894
76	0xbd8f1b13	-0.06987586
77	0xbce270e4	-0.027641721
78	0xbe14ca44	-0.14530283
79	0xbe90f027	-0.28308222
80	0xbe9d4984	-0.3072015
81	0xbe5d24eb	-0.21596114
82	0xbe5b4f04	-0.21416861
83	0x3ccff251	0.0253841
84	0xbe95ca17	-0.29255745
85	0xbddbd662	-0.1073425
86	0x3ec3dcfd	0.38254538
87	0x3e1358ab	0.14389293
88	0xbde6c552	-0.112681046
89	0xbe7b9f70	-0.2457254
90	0x3c45d5db	0.012074913
91	0xbdeed4df	-0.11661696
92	0xbe3d9658	-0.18514383
93	0xbe3f9bf7	-0.1871184
94	0x3e9a1b01	0.30098727
95	0xbe9469e0	-0.28987026
96	0xbd130b1a	-0.03589926
97	0xbda683be	-0.081305966
98	0x3dae2e87	0.08504968
99	0xbe89a1f1	-0.26881364
100	0x3e80abb5	0.25131002
101	0xbe56b4ae	-0.20967361
102	0xbe61c2d2	-0.22046974
103	0xbebadeb5	-0.36498037
104	0xbe9bb1c3	-0.3040906
105	0xbeb6c430	-0.35696554
106	0x3e8f51f2	0.27992207
107	0xbe1892b5	-0.14899714
108	0xbe030088	-0.12793171
109	0xbdc0f480	-0.09421635
110	0xbe584135	-0.21118625
111	0xbdbaf7ca	-0.09129293
112	0xbcaf115e	-0.021370586
113	0xbec7139f	-0.38882157
114	0x3ee9bcee	0.45651954
115	0xbe5f5577	-0.21809946
116	0x3cac20ed	0.021011794
117	0xbd3951ec	-0.045244142
118	0xbe8e1d59	-0.27756765
119	0xbe167b1e	-0.14695403
120	0x3e1c6277	0.15271936
121	0xbece573a	-0.40300924
122	0x3e84e5dc	0.2595662
123	0xbd268fe3	-0.040664565
124	0x3ddf8205	0.10913471
125	0x3debf5f6	0.11521523
126	0x3b9a2e32	0.004705214
127	0x3d6fd554	0.058553055

2.weight f4 [128, 128]
0	0x3d2bc949	0.041940007
1	0xbc501c28	-0.0127020255
2	0xbd095a88	-0.033533603
3	0xbd80081f	-0.06251549
4	0x3d8e4e11	0.06948484
5	0xba191252	-0.0005839217
6	0xbd35a764	-0.04434909
7	0x3c242534	0.010018636
8	0x3c06b86c	0.008222681
9	0xbd01910a	-0.03163246
10	0x3c454517	0.012040398
11	0x3d8f7f20	0.07006669
12	0xbb509b2a	-0.0031830766
13	0xbd405d06	-0.046963714
14	0x3d8c5547	0.06852203
15	0xbd7cae6b	-0.061689775
16	0xbd830971	-0.06398285
17	0xbd2a1b32	-0.04152984
18	0xbdb4698d	-0.08809195
19	0x3d062524	0.032750264
20	0x3da457d6	0.08024566
21	0xbda93958	-0.082628906
22	0x3d20b8fe	0.039238922
23	0x3b845a37	0.0040390748
24	0xbc2b09bd	-0.0104393335
25	0xbd7d4783	-0.061835777
26	0xbcf034c9	-0.029322045
27	0xbca5b982	-0.020230059
28	0x3cac82c8	0.021058455
29	0x3cde09c8	0.027104273
30	0xbd9d43ed	-0.076789714
31	0xbca0b78d	-0.019618774
32	0xbc5718b1	-0.0131284455
33	0xbbb67cdb	-0.005569083
34	0xbd86d418	-0.065834224
35	0x3d2420d3	0.040070366
36	0x3c80618a	0.01567151
37	0xbd6d7001	-0.057968143
38	0xbd5b5220	-0.053545117
39	0xbc5b8e07	-0.013400561
40	0x3c423622	0.011853727
41	0xbd8119f6	-0.0630378
42	0x3b7f9114	0.0038996385
43	0xbd36d305	-0.044634838
44	0xbc09ea48	-0.008417673
45	0x3ba930f2	0.0051633054
46	0x3cb0e02b	0.021591267
47	0x3bacc992	0.0052730525
48	0xbd614e3f	-0.055006262
49	0xbd8220bd	-0.063539006
50	0x3d0c5cb9	0.034268115
51	0x3da1ecc5	0.07906488
52	0xbd625cde	-0.055264346
53	0xbd601917	-0.054711428
54	0x3c3e76b6	0.011624983
55	0xbca1f785	-0.019771347
56	0x3dbab7bc	0.09117076
57	0x3d9253a0	0.071448565
58	0x3c0a7ef3	0.008453119
59	0x3db81266	0.08987884
60	0x3da180e0	0.07885909
61	0xbbc2a0d3	-0.005939582
62	0x3d709e99	0.058745
63	0xbdba642e	-0.09101139
64	0xbcd28be3	-0.025701469
65	0x3d72510b	0.05915932
66	0xbd6b32a4	-0.05742134
67	0xbbfdbf62	-0.007743762
68	0xbd997c62	-0.07494427
69	0x3db2cc2b	0.08730348
70	0x3d83464e	0.06409894
71	0xbd3b3c29	-0.04571167
72	0x3da7c5f1	0.08192051
73	0xbd49209d	-0.049103368
74	0x3d7246e3	0.059149634
75	0xbbb16fa4	-0.00541492
76	0xbc8bbded	-0.017058337
77	0x3d84bea4	0.06481674
78	0xbdb1fb3f	-0.086904995
79	0xbd3faeb4	-0.04679747
80	0xbbe4ec3a	-0.006986168
81	0xbdb28f38	-0.08718723
82	0x3c891356	0.016732853
83	0xbd9da50b	-0.07697495
84	0xbd81daf5	-0.06340591
85	0x3cfd5eed	0.030929053
86	0x3b1e7af1	0.0024182166
87	0x3da2912a	0.07937844
88	0xbda58b52	-0.08083214
89	0x3d9143ee	0.07093035
90	0x3d72354f	0.05913287
91	0xbc5c806d	-0.0134583535
92	0x3d2f8c95	0.04285868
93	0xbda25c27	-0.07927733
94	0xbda6e796	-0.0814964
95	0xbd7255c2	-0.059163816
96	0xbd9904bf	-0.07471608
97	0xbd9e557b	-0.07731148
98	0x3cf6949f	0.030100165
99	0x3dae1240	0.08499575
100	0x3b2e7e45	0.0026625555
101	0xbd0eed22	-0.034894116
102	0xbd759595	-0.059957106
103	0xbce7b119	-0.028282689
104	0x3d54a1e9	0.051912222
105	0xbd50215a	-0.050813057
106	0xbd25eb71	-0.040507738
107	0xbda5a6e8	-0.080884755
108	0x3cb9e78c	0.022693418
109	0x3d8e9173	0.06961336
110	0x3d333ea4	0.04376091
111	0x3d98945e	0.07450174
112	0x3d787c97	0.060665693
113	0xbb703f03	-0.0036658652
114	0xbd80fc5e	-0.06298135
115	0x3d93c16f	0.07214629
116	0xbd4bdf6a	-0.04977361
117	0x3db877e0	0.09007239
118	0xbd58b746	-0.05290916
119	0x3bc94973	0.006142789
120	0x3cabb342	0.0209595
121	0x3d624c6d	0.055248667
122	0x3ba3e24f	0.0050013433
123	0xbda946d4	-0.082654625
124	0x3ae30b05	0.001732201
125	0x3db7961a	0.089641765
126	0x3c26c18c	0.010177981
127	0x3d44dbfe	0.048061363
128	0xbcfde96c	-0.030995093
129	0xbd6291b5	-0.05531474
130	0x3d54977d	0.051902283
131	0x3d3684de	0.044560306
132	0xbc9e84b2	-0.019350383
133	0xbcd9b8f7	-0.026577456
134	0xbd1b432f	-0.03790587
135	0x3c0b0a17	0.008486292
136	0x3d81a91b	0.063310824
137	0xbdacd661	-0.08439327
138	0x3b3aa09a	0.0028477074
139	0x3c518843	0.012788835
140	0xbbd514fe	-0.0065027466
141	0x3d4709e9	0.048593435
142	0x3cdc1a15	0.026867906
143	0x3d847546	0.06467681
144	0xbd431979	-0.047631714
145	0xbc863617	-0.016383214
146	0xbc7c908a	-0.01541532
147	0xbd3bb886	-0.045830272
148	0xbd220713	-0.039557528
149	0xbd023ce2	-0.031796344
150	0xbd02d485	-0.031940956
151	0xbd378a02	-0.04480935
152	0x3bc2a560	0.0059401244
153	0xbda8cb0b	-0.082418524
154	0x3dabb9a3	0.08385017
155	0xbd08a221	-0.033357743
156	0x3d6ce1e3	0.05783261
157	0x3b99e992	0.004697033
158	0xbd99791f	-0.07493805
159	0xbdb7107a	-0.089386895
160	0xbc7289fd	-0.014803407
161	0x3d4f8c21	0.050670747
162	0x3bf3a353	0.0074352412
163	0x3d59c51b	0.05316649
164	0xbd6c149c	-0.057636842
165	0xbdaec14b	-0.085329615
166	0xbdb038c4	-0.08604577
167	0x3c94fd74	0.018187262
168	0x3d3038a2	0.04302276
169	0xbd25a687	-0.040442016
170	0x3cb30115	0.021851102
171	0xbd902aa6	-0.070393845
172	0xbc5e1b24	-0.0135562755
173	0x3d965000	0.073394775
174	0xbd186ca7	-0.037212994
175	0x3d8f978b	0.070113264
176	0xbd65027a	-0.055910565
177	0xbd551c8e	-0.052029185
178	0x3d956c10	0.07296002
179	0x3d91679c	0.0709984
180	0x3c914ccc	0.017736815
181	0xbcbcfb54	-0.023069061
182	0x3d13f411	0.03612143
183	0x3ce1f10e	0.027580764
184	0xbd23f6e1	-0.040030364
185	0xbd93635e	-0.07196687
186	0xbc53b7ff	-0.012922286
187	0xbd3d1dd6	-0.046171032
188	0xbd12698c	-0.03574519
189	0x3c997372	0.018731806
190	0x3d9299e2	0.07158257
191	0x3d89480e	0.067031965
192	0x3d850f9f	0.0649712
193	0x3d030103	0.031983387
194	0x3cdbb0c1	0.026817681
195	0xbc96bdab	-0.018400988
196	0x3c028d6d	0.007968289
197	0xbbc35ea5	-0.0059622102
198	0xbd858003	-0.06518557
199	0x3db0bd6a	0.08629878
200	0x3d78364d	0.06059866
201	0x3c064bf5	0.0081968205
202	0x3d2bb027	0.04191604
203	0x3d31799c	0.043328866
204	0x3d85605a	0.06512518
205	0x3d432aa5	0.04764809
206	0xbc87579a	-0.016521264
207	0xbca66e37	-0.020316226
208	0xbd6070fa	-0.054795243
209	0x3bf55dec	0.007488003
210	0x3d89fffb	0.067382775
211	0xbda6196d	-0.08110318
212	0x3ca616f8	0.020274624
213	0xbd5ea1f8	-0.054353684
214	0x3d971cca	0.07378538
215	0xbda31b61	-0.079642065
216	0x3c32f3a4	0.010922346
217	0x3d56a905	0.052407283
218	0xbcf31c17	-0.02967648
219	0x3bd57457	0.006514113
220	0x3cd1901b	0.02558141
221	0xbb8ac28e	-0.0042346185
222	0xbd238fab	-0.039931934
223	0x3da8db39	0.082449384
224	0xbdaef8c2	-0.085435405
225	0xbd71c280	-0.05902338
226	0xbcf5841e	-0.029970225
227	0x3ba70bb5	0.005097831
228	0xbcb03e60	-0.021514118
229	0x3c7023b8	0.0146569535
230	0xbc91dc49	-0.017805235
231	0xbd33c09d	-0.043884862
232	0x3ba10258	0.0049136095
233	0x3d8810f3	0.06643858
234	0x3d179fa4	0.03701748
235	0x3cbcfbb8	0.023069248
236	0xbd601433	-0.054706763
237	0x3d33ee34	0.04392834
238	0xbc543bcc	-0.01295371
239	0x3d5e8137	0.054322448
240	0xbd08d5f0	-0.03340715
241	0xbd8e72f4	-0.06955519
242	0x3d5e8f7a	0.05433605
243	0xbc9b862b	-0.018984875
244	0xbd06fd2f	-0.0329563
245	0x3d21d432	0.039509006
246	0xb9e4086a	-0.00043493818
247	0xbd0b382f	-0.033989128
248	0xbc7ac83d	-0.01530653
249	0xbb0617c8	-0.0020460952
250	0x3b65e5b6	0.0035079545
251	0x3d7a042a	0.061039127
252	0xbd1ec162	-0.038758643
253	0xbd0b41a7	-0.033998158
254	0xbbbc66ef	-0.0057495753
255	0xbadfcb07	-0.0017074057

2.bias f4 [128]
0	0x3dc2b651	0.0950743
1	0xbd5aeb40	-0.053447008
2	0xbd967d5d	-0.0734813
3	0x3cef6e68	0.02922745
4	0x3dbf5530	0.0934242
5	0xbdca682d	-0.09883151
6	0xbcfec1e2	-0.03109831
7	0x3d6ed27a	0.058306195
8	0xbd3edea9	-0.046599064
9	0xbdf070f2	-0.117402926
10	0x3c9082e7	0.017640544
11	0xbd406edf	-0.046980735
12	0xbd9cb73f	-0.07652139
13	0xbd48cf80	-0.049026012
14	0xbe4dde64	-0.20104367
15	0x3e225414	0.15852386
16	0x3cd5bd9f	0.026091395
17	0x3cd52ad8	0.026021406
18	0xbc35b280	-0.011089921
19	0xbc3e430d	-0.011612666
20	0x3cd0cb67	0.025487615
21	0xbd889438	-0.066688955
22	0x3e0cc3ba	0.13746539
23	0xbccbfbb5	-0.024900297
24	0xbdec198e	-0.11528312
25	0xbd49fff3	-0.049316358
26	0xbd358032	-0.04431171
27	0x3bb9c9c3	0.005669804
28	0xbd20dda5	-0.039273877
29	0x3cea3402	0.028589252
30	0x3d91f8e7	0.071275525
31	0xbc11fcf3	-0.008910405
32	0x3e2616ef	0.16219686
33	0x3de6bcf4	0.11266509
34	0xbe579667	-0.21053468
35	0x3d213994	0.03936155
36	0x3d9f481a	0.07777424
37	0xbca2f61f	-0.01989275
38	0xbeaec062	-0.3413115
39	0xbd702c61	-0.058636073
40	0xbcdcb7a1	-0.02694303
41	0xbcb4dabf	-0.022076963
42	0xbd47e4f2	-0.048802324
43	0xbdeae562	-0.114695325
44	0xbc54f792	-0.0129984785
45	0x3da26acb	0.079305254
46	0x3dcf6ad5	0.101277985
47	0xbd09fdda	-0.033689357
48	0xbde29b1e	-0.110647425
49	0x3e39019e	0.18067023
50	0x3df96038	0.121765554
51	0x3df4ea2a	0.11958726
52	0x3ae661ce	0.0017576755
53	0xbc400c50	-0.0117216855
54	0xbd19c85e	-0.0375446
55	0x3b3a06b5	0.0028385345
56	0x3d9984cf	0.07496034
57	0xbc7cdbcc	-0.015433263
58	0xbc3a3ebd	-0.011367497
59	0xbc8afb7d	-0.016965622
60	0xbddf2c56	-0.10897128
61	0x3cede1b3	0.029038286
62	0x3dbea323	0.093084596
63	0x3d7fb12f	0.062424835
64	0xbd60a13c	-0.054841265
65	0x3d9c2926	0.07625036
66	0x3a85798e	0.0010183321
67	0xbd80c376	-0.06287281
68	0xbc9bde7e	-0.019026991
69	0xbe3c638c	-0.18397349
70	0xbd8a4bae	-0.06752716
71	0x3da8f9ba	0.082507566
72	0xbdc47ff9	-0.09594721
73	0x3e06bde7	0.1315838
74	0xbc38ad05	-0.01127172
75	0x3d94e932	0.07271041
76	0xbce1579e	-0.0275076
77	0xbe7375da	-0.23775426
78	0xbd01a33c	-0.031649813
79	0x3a0a53f3	0.00052767916
80	0x39bbef61	0.0003584577
81	0x3cdec2ea	0.027192552
82	0xbd06cf28	-0.032912403
83	0xbcba8796	-0.02276973
84	0xbe782951	-0.24234511
85	0xba00e0ff	-0.00049163395
86	0xbd982414	-0.07428756
87	0xbdf05fe8	-0.11737043
88	0x3e965106	0.2935869
89	0xbe488f1e	-0.19585845
90	0xbd9bfcb4	-0.07616559
91	0x3cdd4a6e	0.02701303
92	0xbc2e77e0	-0.010648698
93	0x3d60b46d	0.054859567
94	0xbe354403	-0.17701726
95	0x3d1cc0bb	0.03826974
96	0x3d4a3ad8	0.049372524
97	0x3d213d43	0.039365064
98	0xbd3fb06e	-0.046799116
99	0x3df2007f	0.11816501
100	0x3c381263	0.0112348525
101	0xbc6aa5a1	-0.014321716
102	0xbd2e5d38	-0.04256937
103	0xbd9d6a7e	-0.076863274
104	0x3dd7daf3	0.10539808
105	0x3e4e4041	0.20141698
106	0xbde81a29	-0.11333115
107	0x3d7aea97	0.06125888
108	0xbdb5fe6b	-0.08886417
109	0xbe5c2595	-0.21498711
110	0xbd5d3561	-0.054005984
111	0xbe31cb5d	-0.17362733
112	0x3c8a42b2	0.016877506
113	0xbdb0ae31	-0.086269744
114	0xbd98e6ef	-0.07465922
115	0x3cb383f1	0.0219135
116	0xbd6726e7	-0.056433585
117	0xbc0d3159	-0.008617722
118	0x3c4f0987	0.012636549
119	0xbc86e5d6	-0.016467016
120	0x3d176ae9	0.03696719
121	0x3db1f782	0.086897865
122	0x3dcdf043	0.10055592
123	0xbdd0d135	-0.10196153
124	0xbaadcacc	-0.0013259291
125	0x3ddf822a	0.10913499
126	0xbbbb1348	-0.0057090856
127	0xbbf6a29b	-0.0075267083

4.weight f4 [128, 128]
0	0x3d442ef1	0.04789633
1	0x3cc85943	0.024456626
2	0xbd187105	-0.03721716
3	0x3d4f25e8	0.05057326
4	0x3aae03e2	0.0013276304
5	0xbd4aee38	-0.04954359
6	0x3bdc3444	0.0067200977
7	0xbc144a8d	-0.009050977
8	0x3cd535bc	0.0260266
9	0x3c5f896a	0.013643602
10	0x3d8adc2a	0.06780274
11	0x3bded8ef	0.006800763
12	0x3c01527b	0.0078932
13	0xbbe2d47b	-0.0069223023
14	0xbd7cc954	-0.06171544
15	0x3d31c69e	0.043402307
16	0x3d97bb53	0.07408776
17	0xbd1c8138	-0.03820917
18	0xbd6ced64	-0.05784358
19	0xbd0c0b14	-0.034190252
20	0xbb5a4edd	-0.0033311166
21	0x3d9392ef	0.0720576
22	0xbc844a25	-0.016148636
23	0x3da63a9d	0.08116648
24	0x3d924ecd	0.07143936
25	0xbd901441	-0.07035113
26	0xbdb29c6d	-0.08721242
27	0xbc146bb5	-0.0090588825
28	0xbc3b4f8f	-0.011432542
29	0x3c3cecc9	0.011531063
30	0xbc0e1557	-0.00867208
31	0xbd1f91d1	-0.03895742
32	0x3c7a8ab4	0.015291858
33	0xbd339afa	-0.04384897
34	0x3d439568	0.047749907
35	0x3d80fb0b	0.06297883
36	0xbd948e8d	-0.07253752
37	0xbd889768	-0.066695035
38	0x3d897d0a	0.067133024
39	0xbca1e46a	-0.019762237
40	0x3d12eb95	0.0358692
41	0xbdad86a2	-0.08472945
42	0xbd58d3ab	-0.052936237
43	0xbd8de969	-0.06929285
44	0xbcfc7812	-0.030818973
45	0xbd88e818	-0.06684893
46	0xbd025b50	-0.031825364
47	0x3bcb2bf1	0.0062003066
48	0xbd0b974b	-0.03407983
49	0x3d332078	0.043732136
50	0xbd0b8e53	-0.034071278
51	0xbd8b2b2e	-0.06795345
52	0xbcbcd09e	-0.023048695
53	0x3d43963d	0.0477507
54	0xbc8e207f	-0.01734948
55	0xbd3c2923	-0.04593767
56	0xbd065cb7	-0.032803264
57	0x3d8fd9eb	0.070239864
58	0xbd9301aa	-0.07178052
59	0xbd48271b	-0.04886542
60	0xbd98d375	-0.07462207
61	0x3d9944d7	0.07483833
62	0xbd44a61c	-0.048009977
63	0x3da1abd8	0.07894105
64	0xbca365a2	-0.019945923
65	0xbd67e856	-0.056618057
66	0xbd31a6ae	-0.04337185
67	0xbd8d0ffb	-0.06887814
68	0x3c5bd646	0.013417786
69	0xbd090a08	-0.033456832
70	0x3da15384	0.078772575
71	0x3c02c664	0.00798187
72	0x3c8268b4	0.015919067
73	0xbd26c28d	-0.04071288
74	0xbcdfa153	-0.027298605
75	0xbd44adc7	-0.04801729
76	0x3cd3ca3f	0.025853274
77	0x3d2e6bee	0.0425834
78	0xbd671831	-0.056419555
79	0x3d203876	0.039116345
80	0xbdadb085	-0.08480934
81	0x3d547cf3	0.051876973
82	0x3d3d5cca	0.04623107
83	0xbccb4532	-0.024813268
84	0x3c8e367a	0.01735996
85	0xbd79809f	-0.06091368
86	0xbc89f27e	-0.016839262
87	0x3cbf604c	0.023361348
88	0x3d30e328	0.043185383
89	0xbd9203bb	-0.07129618
90	0xbd96bf78	-0.073607385
91	0x3d8da72e	0.069166526
92	0x3cfde7da	0.030994345
93	0x3d9c982a	0.076462105
94	0xbda0c1d6	-0.07849471
95	0xbd285e00	-0.04110527
96	0xbd194447	-0.03741863
97	0xbc8161a2	-0.015793625
98	0x3c069b45	0.00821573
99	0xbc95aefb	-0.018271914
100	0x3d40c712	0.04706485
101	0xbd5a57e0	-0.05330646
102	0x3d99eb3d	0.07515571
103	0xbd3191f2	-0.043352075
104	0x3d47151c	0.048604116
105	0x3d94b614	0.07261291
106	0xbda0119d	-0.078158595
107	0x3cc8da58	0.024518177
108	0x3ca70360	0.020387352
109	0x3da538bc	0.08067462
110	0x3d49b28c	0.04924254
111	0xbdb1d5f3	-0.08683386
112	0xbd027458	-0.031849235
113	0xbd8de912	-0.0692922
114	0xbd3f4c8f	-0.04670387
115	0xbcd8db2f	-0.026471702
116	0x3d098dec	0.033582613
117	0xbdaefa30	-0.08543813
118	0x3bb048f0	0.0053797886
119	0xbda3efc0	-0.08004713
120	0xbc8b533a	-0.017007459
121	0xbdab34d8	-0.083596885
122	0xbd7714f1	-0.060322706
123	0xbd1e32a6	-0.03862252
124	0x3d10c731	0.035346214
125	0xbd49a4a2	-0.04922927
126	0xbd56353c	-0.052296862
127	0x3d1eb028	0.038742214
128	0xbd28cf9b	-0.041213613
129	0x3d064d63	0.032788645
130	0x3dc13282	0.09433462
131	0x3d9c2b95	0.076255
132	0xbb98a119	-0.004657876
133	0x3d35dfdb	0.04440294
134	0xbcbeae53	-0.023276484
135	0x3d891638	0.06693691
136	0xbb1e9d3e	-0.002420261
137	0x3bd5b3f2	0.0065216953
138	0xbda43528	-0.08017951
139	0x3d9b6424	0.0758746
140	0x3d7a5b43	0.06112219
141	0xbc05544a	-0.008137772
142	0xbd31278d	-0.04325061
143	0xbcee0ecb	-0.029059788
144	0xbda4fa53	-0.08055558
145	0xbd618338	-0.05505678
146	0x3d2baa46	0.041910432
147	0xbd6155e8	-0.055013567
148	0x3d076f4a	0.033065118
149	0xbd285529	-0.04109684
150	0xbd1be2b6	-0.038058005
151	0xbd9b8388	-0.07593447
152	0x3ba9fa2f	0.005187295
153	0xbcee8756	-0.029117268
154	0xbd19ba98	-0.037531465
155	0x3af39c3c	0.001858599
156	0xbd1edcc6	-0.038784765
157	0x3c8c4509	0.017122762
158	0x3d778c87	0.06043675
159	0xbd04c4eb	-0.032414358
160	0x3d015b3c	0.03158115
161	0xbcb4ad65	-0.022055337
162	0x3caf867d	0.021426434
163	0xbd873573	-0.066019915
164	0xbd70f56b	-0.0588278
165	0xbd2eb520	-0.042653203
166	0xbb86f1ce	-0.004118181
167	0xbc93c8bd	-0.018040055
168	0xbcda3985	-0.026638756
169	0x3d5fea8a	0.054667033
170	0xbd83a4b7	-0.06427901
171	0x3db4a6be	0.08820866
172	0x3c8bc20e	0.017060306
173	0xbb75813e	-0.0037461068
174	0x3d849628	0.064739525
175	0x3d8492fb	0.06473347
176	0xbc8ce7fe	-0.017200466
177	0x3d249ee4	0.040190592
178	0xbce7e70a	-0.02830841
179	0x3d5a235c	0.053256378
180	0x3d6c7e1c	0.057737455
181	0x3ca4cd6d	0.020117486
182	0x3c275901	0.010214091
183	0xbcffaed5	-0.031211296
184	0xbccb5741	-0.02482188
185	0x3d9137d0	0.070907235
186	0x3ce3d2bc	0.027810447
187	0x3d07ac5d	0.033123363
188	0xbbd3be69	-0.0064619076
189	0xbc23d852	-0.010000305
190	0x3d74d4bc	0.05977319
191	0xbd8b5013	-0.06802382
192	0x3c66e398	0.0140923485
193	0xbc78abd7	-0.015177689
194	0xbcdd8e73	-0.027045464
195	0xbdabeaa2	-0.08394362
196	0x3d88ebe7	0.0668562
197	0xbd95f3ad	-0.07321868
198	0xbcb84f72	-0.02249882
199	0x3c32509d	0.0108834775
200	0x3d5944c4	0.053044096
201	0xbdb438f8	-0.087999284
202	0x3d2c7e37	0.042112555
203	0xbd0b2381	-0.033969406
204	0x3cff8522	0.031191412
205	0xbdae811a	-0.08520718
206	0xbd99311d	-0.07480071
207	0x3daa57d9	0.08317537
208	0x3cf6362e	0.030055132
209	0x3c55c191	0.013046638
210	0x3d1dc225	0.03851523
211	0x3db1a54d	0.08674107
212	0x3d67227e	0.05642938
213	0x3c96e24f	0.01841846
214	0xbd8f9967	-0.07011681
215	0x3dc196aa	0.09452565
216	0x39aa64e6	0.00032500102
217	0xbc64acee	-0.013957245
218	0x3c97fe27	0.018553806
219	0x3d8a928a	0.06766231
220	0xbc720390	-0.014771357
221	0xbd229dc4	-0.03970124
222	0x3d54bd95	0.051938612
223	0x3d7857cb	0.0606306
224	0x3cca9d15	0.024733106
225	0x3bb66c1c	0.005567087
226	0x3b132aae	0.002245586
227	0x3c838ac9	0.016057389
228	0xbd90dd52	-0.070734635
229	0xbd482cc5	-0.04887082
230	0x3d204a95	0.039133627
231	0x3cbe8ccc	0.023260497
232	0x3d4781be	0.048707716
233	0xbb21a905	-0.0024667394
234	0xbd4a05ef	-0.049322065
235	0xbd0e6a58	-0.034769386
236	0xbcbc65b0	-0.022997707
237	0xbd6db1d9	-0.058030937
238	0x3daa4760	0.08314395
239	0xbd623606	-0.055227302
240	0x3c513008	0.012767799
241	0x3db8205a	0.089905456
242	0xbd94edf7	-0.07271951
243	0xbd937649	-0.072002955
244	0x3d121789	0.035666976
245	0x3d529f85	0.05142166
246	0xbd2f62e0	-0.042818904
247	0x3d2fe842	0.042946108
248	0x3d782115	0.060578424
249	0xbd365e4a	-0.044523515
250	0x3d976c6f	0.07393729
251	0x3c312d7c	0.010814067
252	0xbca332a5	-0.01992161
253	0x3ce77ec2	0.028258685
254	0x3d41080f	0.047126826
255	0x3dab6717	0.08369272

4.bias f4 [128]
0	0xbd09c0d9	-0.03363118
1	0x3d051c3d	0.032497633
2	0x3de29524	0.110636026
3	0xbdb2bbd1	-0.087272294
4	0xbd890e2b	-0.066921555
5	0xbd1da7e6	-0.0384902
6	0xbccaaaf5	-0.024739722
7	0xbc6108ae	-0.01373498
8	0x3de4887c	0.11158845
9	0x3da303fa	0.07959743
10	0xbda49b9c	-0.08037493
11	0xbc666b97	-0.014063737
12	0xbc875b26	-0.016522955
13	0x3ccc1001	0.024909975
14	0x3dba3524	0.09092167
15	0x3d5ed4c1	0.054402117
16	0xbd31dcfd	-0.04342364
17	0x3dd474ce	0.10373841
18	0x3dad196a	0.08452113
19	0xbd01f29b	-0.031725507
20	0xbd0ec383	-0.034854423
21	0x3d33b8f4	0.043877557
22	0x3d86e7a5	0.065871514
23	0xbd88e8fd	-0.06685064
24	0x3dd3b2f4	0.10336867
25	0xbd6ad7a3	-0.057334553
26	0xbd0a0e2d	-0.033704925
27	0xbda74e6e	-0.08169256
28	0xbba56522	-0.0050474564
29	0x3d03a048	0.032135278
30	0xbd9c9c00	-0.07646942
31	0x3dda1282	0.10648061
32	0xbd44c530	-0.048039615
33	0xbcb6d5fb	-0.02231883
34	0xbdc3686c	-0.09541401
35	0xbc1ad2dc	-0.009449687
36	0x3cdbd404	0.026834495
37	0x3d625868	0.055260092
38	0xbca83d6d	-0.020537103
39	0xbd4b7bbc	-0.04967855
40	0x3cf9473c	0.030429475
41	0xbce9b5d0	-0.028529078
42	0x3ddb09a0	0.10695195
43	0x3dc7ce5c	0.09756157
44	0x3d57b4d3	0.05266268
45	0x3df345c7	0.11878543
46	0x3dd3eef8	0.10348314
47	0xbd694e0b	-0.056959193
48	0x3c82e496	0.015978139
49	0x3daffce9	0.08593161
50	0x3c923998	0.017849728
51	0xbd3f8e89	-0.04676679
52	0xbcbe80e7	-0.023254825
53	0xba4b56e5	-0.0007756784
54	0xbda3cd3e	-0.07998131
55	0xbd1b343b	-0.037891608
56	0xbc82f91a	-0.015987922
57	0xbd8e4fad	-0.06948791
58	0xbccca696	-0.024981778
59	0x3db99d32	0.09063186
60	0x3d3dc335	0.046328742
61	0xbd4dce3a	-0.0502455
62	0x3e1f089d	0.1553063
63	0x3d3f95e2	0.0467738
64	0xbdb9473f	-0.09046792
65	0xbda474f0	-0.080301166
66	0x3d02779b	0.031852346
67	0xbd8a4222	-0.06750895
68	0x3da3f983	0.08006575
69	0x3d5f07a6	0.054450653
70	0x3d8ab1f1	0.06772221
71	0xbd3f62b7	-0.046725
72	0x3cab75aa	0.02093013
73	0x3e294c84	0.16533095
74	0x3e104bc1	0.14091398
75	0x3e0453a3	0.1292253
76	0xbcc4a007	-0.024002088
77	0xbdb5e6b5	-0.088818945
78	0x3db40595	0.08790127
79	0xbc8f3065	-0.017479131
80	0x3c71497c	0.014726993
81	0x3d805e87	0.0626803
82	0xbd58748b	-0.05284552
83	0xbcb26f5a	-0.021781612
84	0x3dcb0d36	0.09914629
85	0x3cc929bd	0.024556035
86	0x3cc4c2d5	0.024018684
87	0xbc1380ec	-0.009002905
88	0xbd84c0d7	-0.06482094
89	0xbc8bdb41	-0.017072322
90	0x3de5fb88	0.112296164
91	0x3d2394dd	0.03993689
92	0xbda58a4d	-0.080830194
93	0xbc71ac6f	-0.014750584
94	0x3c970c1d	0.018438393
95	0x3d9f80b1	0.07788218
96	0x3e1c2fbc	0.15252584
97	0x3da7c927	0.08192664
98	0xbd571157	-0.05250677
99	0xbcb20362	-0.021730129
100	0xbc619163	-0.013767573
101	0xbb928b58	-0.0044721775
102	0x3c4820b6	0.01221483
103	0xbcc42edf	-0.023948131
104	0x3dbc02d2	0.091802254
105	0x3ca7b04e	0.02046981
106	0xbcb4b17c	-0.022057287
107	0xbd03ffde	-0.032226436
108	0x3e0ecc5c	0.13945144
109	0xbc52a8a9	-0.0128575945
110	0xbd0e1056	-0.034683548
111	0xbdfa0254	-0.12207475
112	0xbd83f981	-0.064440735
113	0x3d952efe	0.07284354
114	0x3e3693ea	0.17829862
115	0xbd84d89f	-0.0648663
116	0xbdb47a06	-0.088123366
117	0xbd4b1623	-0.049581658
118	0xbd2595bd	-0.040426005
119	0xbd7577f5	-0.059928853
120	0x3d75a73e	0.059973948
121	0x3d921a57	0.0713393
122	0x3e1a3ed2	0.15063027
123	0x3c06c6a1	0.008226068
124	0x3ba7dd7b	0.005122838
125	0x3c072d25	0.008250509
126	0x3d9553c4	0.07291368
127	0x3d8bf052	0.06832947

6.weight f4 [128, 128]
0	0x3bf14241	0.0073626344
1	0x3d361991	0.044457976
2	0xbccaa579	-0.024737107
3	0xbc2e9d0e	-0.010657562
4	0x3d46c127	0.04852405
5	0xbd80463b	-0.062633954
6	0x3c8027a1	0.015643897
7	0x3da4fa4c	0.08055553
8	0x3db32176	0.087466165
9	0x3d21487d	0.03937577
10	0xbd46a73c	-0.04849933
11	0xbd1498ea	-0.036278643
12	0x3d6d3a9a	0.057917215
13	0xbdc2d86a	-0.09513934
14	0x3dab7ea7	0.083737664
15	0xbcb0f1f3	-0.021599745
16	0x3d875c1b	0.066093646
17	0x3d12c2fe	0.03583049
18	0x3d9bb2b3	0.076024435
19	0xbd308064	-0.043091193
20	0x3d9bf795	0.07615582
21	0x3da52c72	0.08065118
22	0x3b66220e	0.0035115513
23	0x3d966e57	0.073452644
24	0xbd8725fe	-0.06599043
25	0xbc7e4cd4	-0.015521247
26	0xbc0bed55	-0.008540471
27	0xbc3d9c8f	-0.011572971
28	0xbd5a07f9	-0.05323026
29	0x3d109760	0.035300612
30	0x3c2d835e	0.010590402
31	0x3db7b0ad	0.08969245
32	0xbc0b6ea1	-0.008510263
33	0x3d63ea64	0.055643454
34	0xbcbc2210	-0.022965461
35	0xbd48cee6	-0.04902544
36	0x3d936b7e	0.07198237
37	0xbd989dce	-0.07451974
38	0x3cca8a0b	0.024724027
39	0x3c8f582c	0.017498098
40	0x3d817d88	0.06322771
41	0xbd2f952d	-0.042866874
42	0xbbfb864e	-0.0076759225
43	0xbd37bb69	-0.044856463
44	0x3d2ac1a5	0.04168858
45	0x3ce5f2bb	0.028069844
46	0x3d3b606b	0.04574625
47	0x3d25a16e	0.040437154
48	0xbce5f509	-0.028070943
49	0xbd6568c9	-0.056008134
50	0x3c5b60fb	0.013389821
51	0x3d4a13cb	0.049335282
52	0x3d65e297	0.056124296
53	0x3d808976	0.062762186
54	0x3d7fd010	0.062454283
55	0xbdb1190d	-0.08647356
56	0x3d45e0fc	0.048310265
57	0x3d33b68a	0.043875255
58	0x3c090bf3	0.008364665
59	0xbd9729e5	-0.073810376
60	0x3d3464c2	0.044041403
61	0xbd29e1ff	-0.041475292
62	0xbd6a1e6a	-0.05715791
63	0x3da18126	0.07885961
64	0xbd207dd8	-0.039182514
65	0xbd5221fe	-0.05130195
66	0xbd835929	-0.0641349
67	0x3d8f3717	0.069929294
68	0x3d705f29	0.0586845
69	0x3d1b81d2	0.037965603
70	0x3cc0b39f	0.02352315
71	0xbd6b499d	-0.05744325
72	0xbd968cb8	-0.07351059
73	0x3d4cf80e	0.05004125
74	0xbd4d958f	-0.05019146
75	0xbd9baaca	-0.07600935
76	0xbcefeacc	-0.029286765
77	0xbd8183e1	-0.06323982
78	0x3d364881	0.04450274
79	0xbd3d1fad	-0.046172787
80	0xbd9da346	-0.076971576
81	0xbc92b7b1	-0.017909857
82	0xbd712d36	-0.058881007
83	0xbd86665a	-0.06562491
84	0xbcc423d9	-0.023942875
85	0xbd3ef3ee	-0.04661935
86	0xbd0931be	-0.033494703
87	0x3db1fcc1	0.08690787
88	0x3cfb5873	0.030681824
89	0xbd334585	-0.04376747
90	0x3ccd8bf8	0.025091156
91	0xbdaf3070	-0.085541606
92	0xbd888974	-0.06666842
93	0x3b382d1a	0.0028103055
94	0x3dbcb773	0.09214678
95	0x3daad2ef	0.08341014
96	0xbbaae8f8	-0.0052157603
97	0xbd03a5b5	-0.032140452
98	0xbd007b95	-0.031367857
99	0xbcbe5519	-0.023233937
100	0xbcd76bdd	-0.02629655
101	0xbdb6479f	-0.089003794
102	0xbd40a57e	-0.047032826
103	0xbc81f1dd	-0.0158624
104	0x3d22dbcb	0.039760392
105	0x3dd4fbc1	0.10399581
106	0x3dbadff9	0.09124751
107	0x3d9422fb	0.072332345
108	0x3d95c67f	0.07313251
109	0x3db9c93e	0.09071587
110	0x3d8fe4be	0.07026051
111	0x3d236b2d	0.039897133
112	0x3d4afc3c	0.049556956
113	0x3d508cc8	0.05091551
114	0x3a88517d	0.0010400262
115	0xbca1997a	-0.019726504
116	0x3cfccbb3	0.03085885
117	0xbd8cc673	-0.06873789
118	0x3d562966	0.052285574
119	0x3db5f09b	0.088837825
120	0x3da6a79e	0.08137439
121	0xbd951e74	-0.07281199
122	0x3d9ad9cc	0.07561073
123	0x3c9f73a5	0.019464323
124	0x3d502121	0.050812844
125	0x3d03aa2a	0.032144703
126	0x3d8fdb5f	0.070242636
127	0xbda6ece8	-0.08150655
128	0x3db2b0f4	0.087251574
129	0xbd98298e	-0.07429801
130	0xbd2c0569	-0.041997347
131	0x3c92556e	0.017863002
132	0xbaab73c4	-0.0013080765
133	0xbd7aa29e	-0.06119024
134	0x3d84fd8f	0.06493675
135	0x3cd0452e	0.025423612
136	0xbc35d337	-0.011097721
137	0x3d16dc06	0.036830924
138	0xbd9376f0	-0.0720042
139	0xbda50be1	-0.08058906
140	0x3d5854d2	0.052815266
141	0x3d5599a6	0.052148484
142	0x3d4e1a23	0.050317895
143	0x3ceac30a	0.028657455
144	0xbd4a617f	-0.049409386
145	0x3dade273	0.084904574
146	0x3d14e8ea	0.036354937
147	0x3d7ee3e0	0.062229037
148	0xbd886b64	-0.06661108
149	0xbdd8bb8a	-0.10582645
150	0xbd022b1b	-0.03177939
151	0xbd84ed21	-0.06490541
152	0x3b5c6497	0.0033629292
153	0xbcc85ebb	-0.024459234
154	0x3d949dae	0.072566375
155	0xbc888468	-0.016664699
156	0xbd0c9a0d	-0.0343266
157	0x3d7ccdcd	0.061719704
158	0x3dd78ff6	0.10525505
159	0x3c4b7df3	0.012420165
160	0x3dafc95c	0.08583328
161	0xbd48e76d	-0.04904883
162	0x3d8f8684	0.07008079
163	0x3cac9032	0.021064851
164	0x3c24a269	0.010048487
165	0x3da868d0	0.082231164
166	0x3d68565f	0.056722995
167	0xbd349e63	-0.04409636
168	0xbcf88453	-0.030336535
169	0xbdb20fc5	-0.08694414
170	0xbcb6ccb9	-0.022314416
171	0x3c2ed90d	0.010671866
172	0x3d24e4a1	0.0402571
173	0x3c16f886	0.009214526
174	0xbd2c3dfe	-0.042051308
175	0x3db701c2	0.08935882
176	0xbad9228b	-0.0016566081
177	0xbd772c0c	-0.06034474
178	0x3d049565	0.032369036
179	0x3d51b061	0.0511936
180	0x3ca469f0	0.020070046
181	0xbd18e5ac	-0.037328407
182	0xbcd9048e	-0.02649143
183	0x3d8c0102	0.0683613
184	0x3d44618c	0.04794459
185	0xbb839f24	-0.004016774
186	0xbca7bb24	-0.020474978
187	0x3d89cb97	0.06728285
188	0xbd19b2fd	-0.037524212
189	0x3d247256	0.0401481
190	0x3d981c59	0.07427282
191	0xbd9ced15	-0.07662407
192	0xbd425ca1	-0.04745162
193	0xbd8cbfcd	-0.068725206
194	0x3a371a8b	0.0006984851
195	0xbd3e5514	-0.046467856
196	0xbd830003	-0.063964866
197	0x3db7c2d2	0.08972706
198	0x3dc74863	0.097306035
199	0xbc1d61a9	-0.0096058035
200	0x3ccc18da	0.024914194
201	0x3bffa70b	0.0078018955
202	0x3c46b69a	0.012128497
203	0x3d8ae881	0.06782628
204	0x3d179e46	0.037016176
205	0x3d5862d4	0.052828625
206	0xbd1cfa9a	-0.03832493
207	0xbdba48ab	-0.090958916
208	0xbc18ce77	-0.009326569
209	0x3ca537ef	0.020168273
210	0x3b3ac640	0.0028499514
211	0x3d7d9f10	0.061919272
212	0x3d25915c	0.04042183
213	0x3cf9e2f6	0.030503731
214	0x3c9ee28c	0.019395135
215	0xbc04cbba	-0.008105213
216	0xbc423427	-0.011853254
217	0x3c056d87	0.008143789
218	0xbc11d026	-0.008899724
219	0x3c56dcda	0.013114179
220	0x3d72b0ed	0.05925076
221	0x3d40766b	0.046987932
222	0x3d1a9029	0.037735138
223	0x3d2f796c	0.042840406
224	0xbc30cd53	-0.010791141
225	0xbce0be14	-0.027434386
226	0x3d526702	0.051367767
227	0x3c3fdc69	0.011710265
228	0x3db6f6e8	0.089338124
229	0xbc06db8d	-0.008231056
230	0x3dcd81fe	0.1003456
231	0xbd92a3b8	-0.07160133
232	0x3debf5c9	0.11521489
233	0xbc678e8e	-0.014133109
234	0xbbde98fe	-0.0067931404
235	0xbd43b964	-0.047784224
236	0x3beeda50	0.0072892085
237	0x3ccd7b84	0.02508331
238	0x3dd214e8	0.10257894
239	0xbd062917	-0.03275403
240	0x3b81357e	0.0039431443
241	0xbd407a5b	-0.046991687
242	0xbc007af6	-0.007841816
243	0xba2ea598	-0.00066622486
244	0x3dad4cdb	0.08461925
245	0xbda8cb92	-0.08241953
246	0xbd847d14	-0.06469169
247	0x3c161af1	0.009161697
248	0xbcea5e8c	-0.028609537
249	0x3d31df34	0.043425754
250	0x3d6c06f0	0.057623804
251	0xbd76beed	-0.060240675
252	0x3cc5041c	0.024049811
253	0x3c4dbfce	0.012557937
254	0x3c57aba1	0.013163478
255	0xbdaabf7a	-0.083373025

6.bias f4 [128]
0	0xbc37c6af	-0.011216803
1	0x3e25a361	0.16175605
2	0x3bd6ba0d	0.0065529407
3	0x3e0c277c	0.13686937
4	0xbce50d22	-0.027960364
5	0xbc9d06f4	-0.019168355
6	0x3db5515f	0.08853411
7	0x3dc8a84a	0.097977236
8	0x3d1f8aad	0.03895061
9	0x3e278ef1	0.16363122
10	0x3d2290fe	0.039689057
11	0xbcdd4b35	-0.0270134
12	0xbdb12e7d	-0.08651445
13	0xbc6a5893	-0.014303344
14	0x3d3bdabc	0.0458629
15	0x3d4232c9	0.047411714
16	0xbdbc9f40	-0.09210062
17	0xbc61cf21	-0.013782294
18	0xbd9ddf1f	-0.077085726
19	0xba971816	-0.0011527564
20	0x3d41c88f	0.04731041
21	0x3e5fdf55	0.21862538
22	0xbdedac22	-0.11605097
23	0xbdb20100	-0.08691597
24	0x3bb3fb37	0.0054925936
25	0x3dbe318f	0.09286796
26	0x3cf6cf6b	0.030128201
27	0xbd20d530	-0.03926581
28	0x3d35a522	0.044346936
29	0xbda43770	-0.08018386
30	0x3d8edb27	0.06975394
31	0xbd2201ef	-0.039552625
32	0x3e395ba9	0.18101372
33	0x3cd1fd54	0.025633492
34	0x3d530151	0.051514927
35	0xbd6a0af0	-0.057139337
36	0xbdb5e3c6	-0.08881335
37	0x3d95d1d9	0.07315416
38	0xbd906b67	-0.07051735
39	0x3e801c6d	0.25021687
40	0x3c7c68bb	0.015405829
41	0x3e99a856	0.30011243
42	0x3db82e34	0.089931875
43	0x3b5f3606	0.00340593
44	0xbdaf7a05	-0.08568195
45	0x3d778dd0	0.060437977
46	0x3d8e9b82	0.069632545
47	0xbdd5fa1f	-0.104480974
48	0x3b93e9cb	0.0045139543
49	0xbca50c7a	-0.02014755
50	0xbd992a4a	-0.07478769
51	0xbdde7769	-0.108626194
52	0x3b9627d0	0.0045823827
53	0xbd86d3f0	-0.065833926
54	0x3dd0b811	0.10191358
55	0x3ddb8ebb	0.10720583
56	0xbd635ab3	-0.05550642
57	0x3c2ff77c	0.010740157
58	0x3e7f8684	0.24953657
59	0xbd340e1b	-0.043958765
60	0x3d6bb45c	0.05754505
61	0xbda86996	-0.08223264
62	0x3bdb362d	0.006689808
63	0x3ea3b1c2	0.31971556
64	0x3c42112a	0.011844913
65	0xbc8af032	-0.016960237
66	0xbd2b2500	-0.041783333
67	0x3c744eed	0.0149113955
68	0xbd929980	-0.07158184
69	0xbd4916ee	-0.049094133
70	0xbdc371cb	-0.09543189
71	0x3cd81d3d	0.02638113
72	0xbc06134d	-0.008183313
73	0xbd96108e	-0.07327376
74	0xbccf5243	-0.02530778
75	0x3e33ee66	0.1757141
76	0x3c80e1ab	0.015732607
77	0xbd957df9	-0.07299418
78	0xbce0cfde	-0.027442869
79	0xbd2b65b5	-0.041845042
80	0xbd56f37f	-0.05247831
81	0xbcf0e300	-0.029405117
82	0xbb7ab31f	-0.0038253737
83	0xbd64e66d	-0.055883814
84	0xbd617986	-0.055047534
85	0xbcf8622a	-0.030320246
86	0x3c343363	0.01099858
87	0x3d811de5	0.0630453
88	0xbcd1121a	-0.025521327
89	0x3c9e6519	0.019335316
90	0xbd2ae513	-0.04172237
91	0x3de91b8f	0.113822095
92	0xbd414d32	-0.04719276
93	0xbd9873a1	-0.074439295
94	0x3c85b437	0.016321285
95	0xbdad9cbd	-0.08477161
96	0xbcde64ee	-0.027147736
97	0xbd2a99cf	-0.04165059
98	0x3c8450cd	0.01615181
99	0x3e11c064	0.14233547
100	0xbd0cb8df	-0.034355994
101	0x3ddb71d9	0.10715074
102	0xbd7ae8db	-0.061257225
103	0x3eb3c331	0.35109857
104	0xbd82b643	-0.0638242
105	0xbcf023f8	-0.029314026
106	0xbda92f70	-0.08261001
107	0xbd0b294c	-0.03397493
108	0x3c1dfdc5	0.009643023
109	0xbd33f7dd	-0.043937553
110	0x3dfb51d0	0.12271464
111	0xbd16a170	-0.036775053
112	0x3d08cc19	0.033397768
113	0x3d5f803f	0.054565664
114	0xbd90dc2e	-0.07073246
115	0x3d08a14c	0.03335695
116	0x3d628002	0.05529786
117	0xbdf45dba	-0.119319394
118	0x3d79bc03	0.060970318
119	0xbd3690d1	-0.0445717
120	0xbda1c0bf	-0.078980915
121	0xbd4e27a5	-0.050330777
122	0x3e2b066e	0.16701671
123	0x3d01e2a1	0.03171027
124	0x3d0666c5	0.032812852
125	0x3d8389fb	0.06422802
126	0x3e4a9641	0.1978388
127	0x3d999cad	0.07500587

8.weight f4 [49, 128]
0	0x3da0fe8c	0.07861051
1	0xbdb5adf1	-0.08871067
2	0xbc991b50	-0.018689781
3	0x3d37dc29	0.044887695
4	0xbe0fb753	-0.14034776
5	0x3dbda279	0.09259505
6	0xbe47c12e	-0.19507286
7	0x3dc68418	0.09693164
8	0xbe33390a	-0.17502227
9	0xbe1e2092	-0.15442112
10	0xbdce555e	-0.10074876
11	0x3c46ed41	0.012141527
12	0xbb6333b9	-0.003466828
13	0xbb6bb7bd	-0.003596767
14	0x3d1422c3	0.036165964
15	0x3bf5082d	0.0074777813
16	0x3d076328	0.033053547
17	0x3d688417	0.056766596
18	0x3c5ef1dc	0.013607468
19	0x3d80ad2d	0.06283031
20	0x3d82e477	0.063912325
21	0xbd69f32b	-0.05711667
22	0xbdb750d5	-0.08950964
23	0x3db98885	0.09059242
24	0xbd57c339	-0.052676413
25	0x3d05cfc4	0.032668844
26	0x3d8fbaf5	0.07018081
27	0xbc4bd109	-0.012439975
28	0xbd6e6614	-0.058202818
29	0x3c071a30	0.00824599
30	0x3dae1981	0.08500958
31	0x3d835697	0.06413
32	0xbdc46e89	-0.095913954
33	0x3da5a04c	0.08087215
34	0x3c8d84db	0.017275264
35	0x3da3d190	0.07998955
36	0xbdaa8920	-0.08326936
37	0xbc531e7b	-0.012885685
38	0x3d0333df	0.03203189
39	0xbe3fb4ff	-0.18721388
40	0x3bb36d9d	0.0054757134
41	0xbe62a8d5	-0.22134717
42	0xbd104bf3	-0.03522868
43	0xbcc72a22	-0.024312083
44	0x3d34d9e6	0.044153117
45	0x3d970d67	0.07375603
46	0xba2cfa20	-0.0006598551
47	0xbc40678b	-0.011743437
48	0xb99f3b5a	-0.00030371064
49	0x3d07f269	0.033190165
50	0xbccbde51	-0.024886282
51	0xbd22e7ca	-0.039771833
52	0xbd649268	-0.055803686
53	0x3d543c98	0.0518156
54	0xbd09c7b4	-0.033637717
55	0xbd9ce946	-0.07661681
56	0x3d87c4f8	0.06629366
57	0x3d860c25	0.06545285
58	0xbce8b6cc	-0.028407477
59	0xbdb458e1	-0.08806015
60	0xbca05527	-0.019571854
61	0xbdaa4703	-0.08314326
62	0xbd29d47b	-0.041462403
63	0xbe289a35	-0.16465075
64	0xbd922337	-0.07135623
65	0x3d9e36ae	0.07725273
66	0x3b878d10	0.004136689
67	0xbc055ef6	-0.008140316
68	0xbcf7f7be	-0.0302695
69	0x3d61899e	0.055062883
70	0x3ddb1bac	0.10698637
71	0x3db121e3	0.086490415
72	0xbce37143	-0.027763968
73	0x3d051540	0.03249097
74	0x3da453bb	0.08023783
75	0xbdd91029	-0.105987854
76	0xbd5ca5b5	-0.053868968
77	0xbb5a94f8	-0.0033352952
78	0xbca1d54f	-0.019755034
79	0x3d10403d	0.035217512
80	0xbd10226b	-0.035189074
81	0x3daea808	0.08528143
82	0xbd16f4ac	-0.03685443
83	0xbdad03ca	-0.08447988
84	0xbd024bd0	-0.03181058
85	0x3d927ced	0.07152734
86	0x3d36aec0	0.04460025
87	0xbda8792d	-0.082262374
88	0x3d2363c9	0.039890084
89	0x3d5a0755	0.05322965
90	0x3cc963f6	0.024583798
91	0xbd82af8c	-0.06381139
92	0xbd7accc9	-0.061230455
93	0xbafa7184	-0.0019107317
94	0xbe0daddc	-0.13835853
95	0x3d006333	0.031344604
96	0x3da7d02f	0.08194005
97	0x3d0325cb	0.032018464
98	0x3d14b49d	0.03630506
99	0xbdf41f4f	-0.11920034
100	0xbcf4ee17	-0.029898686
101	0xbe31d16f	-0.17365049
102	0xbd0ea1c1	-0.03482223
103	0xbe6a20ca	-0.2286407
104	0x3dc787e4	0.09742716
105	0x3e3827a5	0.17983873
106	0xbd5e961b	-0.05434237
107	0x3d438db2	0.047742553
108	0x3bacbb73	0.005271369
109	0xbd5559f1	-0.052087728
110	0x3c941c51	0.018079909
111	0x3d844304	0.06458095
112	0xbcb7bb8d	-0.022428298
113	0x3d1cfc6b	0.038326662
114	0x3d5412b8	0.051775664
115	0x3d9233c8	0.07138783
116	0xbcf5c53e	-0.030001279
117	0x3d0395a2	0.032125123
118	0xbde0c3eb	-0.109748684
119	0x3d93e3b9	0.07221169
120	0xbd9d904b	-0.07693537
121	0xbd7b178c	-0.061301753
122	0xbe8237d5	-0.2543322
123	0x3c46d07c	0.0121346675
124	0xbd0ba55c	-0.034093246
125	0xbe0ea3ce	-0.13929674
126	0xbd1e0347	-0.038577344
127	0x3dc4845f	0.0959556
128	0x3d39c71d	0.045355905
129	0xbdcc17a4	-0.099654466
130	0x3d10404a	0.03521756
131	0x39081198	0.00012976525
132	0xbc6c8289	-0.014435419
133	0x3d0e56c5	0.03475072
134	0xbd2eafd1	-0.04264814
135	0x3db202e1	0.08691955
136	0xbe2a4215	-0.16626771
137	0xbc6db159	-0.014507615
138	0xbe1311d3	-0.14362268
139	0xbd29dca7	-0.041470196
140	0x3d4a1c06	0.04934313
141	0x3cf03b41	0.02932513
142	0x3da39b0f	0.079885595
143	0x3c80fe7b	0.015746346
144	0x3db23403	0.08701327
145	0x3cdc514f	0.02689424
146	0x3d2a9c60	0.041653037
147	0xbceea557	-0.029131575
148	0x3d1b7617	0.037954416
149	0xbe1181b3	-0.14209633
150	0xba26dcc0	-0.0006365292
151	0x3df2553e	0.11832665
152	0xbcbe20d7	-0.023209019
153	0x3c8af0e3	0.016960567
154	0x3d04a334	0.032382205
155	0xbd6d4025	-0.0579225
156	0x3c4402e2	0.011963578
157	0x3b85395a	0.0040656747
158	0xbd394e1e	-0.045240514
159	0xbcbf00b4	-0.023315765
160	0xbdc9a996	-0.09846799
161	0xbc65d10f	-0.014026894
162	0x3df58ed2	0.119901314
163	0x3d5028c0	0.050820112
164	0x3ce83de4	0.028349824
165	0xbd338778	-0.043830365
166	0x3c183447	0.009289808
167	0xbdbbf530	-0.09177625
168	0x3d207df1	0.039182607
169	0xbe73a686	-0.23793992
170	0xbdff6f61	-0.12472416
171	0x3d89f4c4	0.067361385
172	0x3d3b1dfe	0.0456829
173	0xbd137971	-0.036004487
174	0x3d9b7ed8	0.07592553
175	0x3d80e4fa	0.06293674
176	0xbd1676e2	-0.03673447
177	0x3d091221	0.033464555
178	0xbc7f1db0	-0.015571043
179	0x3bd2ed03	0.0064369454
180	0xbe16a30a	-0.14710632
181	0xbd8b5958	-0.0680415
182	0xbcdd8cd1	-0.027044686
183	0xbd2acea3	-0.04170097
184	0xbd8626a3	-0.06550338
185	0x3c201976	0.009771695
186	0xbe25d5df	-0.16194867
187	0xbe1bfca6	-0.15233096
188	0x3d53d31d	0.051715005
189	0xbafa5880	-0.0019099861
190	0xbd5f3c5f	-0.054500934
191	0xbdcedf2b	-0.1010116
192	0xbd07d3a5	-0.033160824
193	0xbd8e4c75	-0.06948177
194	0x3d81afa1	0.06332327
195	0x3ba97dd0	0.0051724687
196	0xbd505688	-0.050863773
197	0x3d363172	0.04448075
198	0x3b6df730	0.0036310665
199	0x3dc52afc	0.09627339
200	0xbda8d746	-0.08244185
201	0xbca57bbf	-0.020200608
202	0x3ce65bdd	0.028119976
203	0xbd54fad6	-0.05199703
204	0x3db0527e	0.08609484
205	0xbdb5f406	-0.088844344
206	0xbd8fa999	-0.0701477
207	0x3b3a1478	0.0028393548
208	0x3d1698ae	0.0367667
209	0xbd99ca67	-0.07509308
210	0x3c10714d	0.0088160755
211	0xbc7fd6ae	-0.0156151485
212	0x3d9f2390	0.07770455
213	0x3caf9eec	0.021438085
214	0x3d83d2fd	0.06436727
215	0xbe089ed9	-0.13341846
216	0x3da86f82	0.082243934
217	0x3d8f4c93	0.06997027
218	0xbcbffea1	-0.023436846
219	0xbdd6fa23	-0.104969285
220	0xbd9ff28b	-0.07809933
221	0xbd625884	-0.055260196
222	0xbe189759	-0.14901485
223	0x3cb0354f	0.021509795
224	0xbd1afa83	-0.037836563
225	0x3cc9f26f	0.024651734
226	0xbcd22552	-0.025652561
227	0xbd66b912	-0.05632884
228	0x3c810664	0.015750118
229	0xbe7d045d	-0.24708696
230	0x3d33a48e	0.043858103
231	0xbe35c6a7	-0.17751561
232	0x3dba9c80	0.09111881
233	0x3dbe5b2d	0.09294734
234	0x3d36c278	0.044619054
235	0xbdaed2e9	-0.08536322
236	0x3da2897c	0.07936379
237	0x3d32aefe	0.043623917
238	0xbd97cc24	-0.074119836
239	0x3dc369f7	0.095416956
240	0xbc4f583d	-0.012655315
241	0xbc9a036e	-0.018800464
242	0xbc0be140	-0.0085375905
243	0x3b76fa33	0.0037685751
244	0xbdf5b26d	-0.11996923
245	0xbc2cf5d9	-0.0105566615
246	0xbce0855c	-0.02740734
247	0xbd86c1d0	-0.065799356
248	0xbd2745cc	-0.040838048
249	0x3d3f18dc	0.046654567
250	0xbe4b3f0e	-0.19848272
251	0x3c09d3c4	0.008412305
252	0x3c89b00b	0.016807577
253	0xbe33f342	-0.17573264
254	0xbd69bde3	-0.057065856
255	0x3cd1ce1b	0.025610974

8.bias f4 [49]
0	0xbd7a54d2	-0.061116047
1	0xbcb1545f	-0.021646677
2	0xbdadc806	-0.08485417
3	0xbe2b53d9	-0.16731204
4	0xbe11dd3c	-0.1424455
5	0xbe5c0906	-0.21487817
6	0xbcad868d	-0.021182323
7	0xbe006517	-0.12538563
8	0xbe7ba24b	-0.24573629
9	0xbe52701d	-0.2055058
10	0xbe5b49c0	-0.21414852
11	0xbdff7bae	-0.12474762
12	0xbe0ee928	-0.1395613
13	0xbe2917e3	-0.16513018
14	0xbe5b4f2c	-0.2141692
15	0xbe714ee2	-0.23565248
16	0xbdc2ed3d	-0.09517906
17	0xbe0f9693	-0.14022283
18	0xbe026372	-0.12733248
19	0xbe8e0805	-0.27740493
20	0xbd782f53	-0.060592007
21	0xbdf4b071	-0.11947716
22	0xbe18bde8	-0.14916193
23	0xbda13cf8	-0.07872957
24	0xbe0296fa	-0.12752905
25	0xbe0a9388	-0.13532841
26	0xbd58021a	-0.05273638
27	0xbda90aa0	-0.0825398
28	0xbe0ca4b3	-0.13734703
29	0xbd93be17	-0.07213991
30	0xbd2d3e2d	-0.042295624
31	0xbdee3c3b	-0.11632582
32	0xbd09bccd	-0.03362732
33	0xbdda35ba	-0.10654779
34	0xbd98b7db	-0.07456943
35	0xbdd6e08e	-0.10492049
36	0xbdbacc30	-0.09120977
37	0xbe1c5f3b	-0.15270703
38	0xbe10cfc0	-0.1414175
39	0xbdfed26e	-0.1244248
40	0xbe3420e1	-0.17590667
41	0xbdef25c4	-0.11677125
42	0xbe9f8123	-0.3115321
43	0xbe98ba20	-0.29829502
44	0xbe081f2f	-0.13293146
45	0xbc8321f0	-0.016007394
46	0xbb9f6d8d	-0.0048653544
47	0xbdd5e4a1	-0.10443998
48	0xbd8be8c6	-0.068315074
