models/snapsRandom/model_1685814560.897229.pt (torch, 252679 bytes, 10 tensors)

0.weight f4 [128, 49]
-0.062883906 0.116779834 0.09690064 -0.20035733 0.019572515 -0.04492025 -0.0017811144 0.13398875
-0.03500928 -0.15105101 0.074921876 0.124726266 -0.05608033 0.08716009 0.01080624 -0.08848449
0.016988706 -0.014173851 0.0013123858 0.034907363 -0.06817039 -0.043140993 0.16173798 0.01684531
0.028784625 -0.09468762 -0.21632457 -0.012835599 0.12066749 -0.13283053 0.03992999 -0.027306603
0.024908118 -0.011621229 -0.047904134 0.26777738 0.025166258 -0.049941916 -0.24338695 -0.044301227
0.010973751 0.12637585 -0.031118503 -0.03487991 -0.0900441 0.1343077 0.11546224 -0.02815429
-0.046292048 -0.008822862 -0.07472576 -0.131507 0.007241439 0.030471716 0.07237756 0.1538108
0.012673629 -0.052532654 -0.005229841 0.17243029 0.10678612 0.08732781 0.103616215 -0.21113548
-0.11672898 -0.00083696377 -0.0068924683 -0.09373429 0.22980048 0.08768253 -0.10823078 -0.06065208
0.16619547 -0.12407452 -0.118943445 0.03309822 -0.00013494918 -0.1125475 0.11244165 0.15272726
-0.13519838 -0.09804259 -0.07344602 0.119992554 -0.09367619 0.03830981 0.034936298 -0.17530216
0.099021606 0.12889384 0.010020745 0.029106388 0.00053707114 -0.1501031 0.056173682 0.120532
0.05407531 -0.11248021 0.021453844 -0.1446606 0.03888092 -0.23483334 0.015244737 -0.15614359
-0.005885619 0.10258857 0.101487674 -0.02446073 -0.06301179 0.18668793 -0.15076016 0.14478552
-0.08552777 0.012604085 0.1708912 -0.15508313 -0.12042328 0.02676009 -0.041096795 0.08367922
-0.055321246 -0.12954551 -0.07148102 0.04425018 -0.14524911 0.037903856 -0.10258501 0.050686143
0.012561038 -0.01256494 0.07517923 -0.15334055 0.029768702 -0.16623501 -0.028216515 -0.059113093
-0.040273685 -0.066310644 -0.105930544 0.14112177 -0.045133512 -0.04760104 -0.06746795 0.0844186
-0.023475647 -0.062673315 0.07658001 0.048568033 0.096633084 0.0012449281 0.06655996 0.18234915
0.027380561 0.14218803 0.112592675 0.11115025 0.15330486 0.023891814 -0.08055167 -0.006867486
-0.10053004 0.11407243 0.10734362 0.089141175 0.12745874 -0.06123683 -0.18949398 0.1032037
0.049470257 0.077154465 0.038099945 0.0001885575 -0.13072844 -0.23211105 0.06259227 -0.032172553
-0.08240916 -0.0838757 0.08826072 -0.05062808 -0.04556157 0.3297113 0.032406762 0.20096162
0.076578476 -0.0838819 -0.078819476 0.0718867 -0.06627152 -0.15679623 0.034908388 -0.10081805
-0.046409767 -0.08780223 0.0070281764 0.084593706 0.0147827 -0.06746169 -8.575087e-05 -0.03782387
-0.16308412 0.035952494 0.16213572 0.017576605 -0.044450402 -0.007883902 0.023299193 -0.13844109
-0.05867322 -0.09506456 -0.088269435 0.056268323 0.0780881 0.043279234 -0.20644657 0.043199696
-0.01280156 0.033417694 -0.022809042 -0.017835448 -0.08489967 0.056974743 -0.13150236 -0.1441765
-0.065005526 0.017706737 0.3110015 0.005429499 -0.0029105418 0.11544439 0.01952208 -0.011783551
0.12751906 0.15387332 -0.1724341 -0.04753406 -0.26072165 -0.044517465 -0.3005148 0.044464953
0.0018312004 -0.0103409635 0.03927379 0.074409746 -0.0531943 -0.03090245 0.14909263 0.03888245
0.085428424 0.1415492 -0.09971981 0.10452256 -0.12592955 0.1783614 0.077587485 -0.023428176
00000000: 47c9 80bd 442a ef3d d873 c63d 792a 4dbe
00000010: 8a56 a03c 4cfe 37bd 4874 e9ba 5934 093e
00000020: e465 0fbd 1ead 1abe a470 993d 7c70 ff3d
00000030: 7db4 65bd fd80 b23d a80c 313c 5b37 b5bd
00000040: e62b 8b3c 7139 68bc 5c04 ac3a 06fb 0e3d
00000050: eb9c 8bbd 9cb4 30bd a49e 253e 2dff 893c
00000060: bccd eb3c 95eb c1bd 3084 5dbe 674c 52bc
00000070: 8420 f73d ba04 08be a18d 233d 19b2 dfbc
00000080: 1c0c cc3c f866 3ebc 2037 44bd 1e1a 893e
00000090: 7829 ce3c e58f 4cbd 6e3a 79be 3475 35bd
000000a0: 3fcb 333c ac68 013e 3bec febc 3dde 0ebd
000000b0: 0b69 b8bd f587 093e 7877 ec3d d3a3 e6bc
000000c0: bb9c 3dbd c48d 10bc d209 99bd c5a9 06be
000000d0: 9849 ed3b d29f f93c b03a 943d 9480 1d3e
000000e0: 0ea5 4f3c 7b2c 57bd 165f abbb 9191 303e
000000f0: aeb2 da3d ecd8 b23d bd34 d43d e633 58be
00000100: 9a0f efbd b067 5bba 37da e1bb c3f7 bfbd
00000110: d150 6b3e e692 b33d 19a8 ddbd 516e 78bd
00000120: 252f 2a3e c81a febd 9f98 f3bd 0092 073d
00000130: 2581 0db9 4e7f e6bd cf47 e63d 8964 1c3e
00000140: 7271 0abe 8eca c8bd de6a 96bd a8be f53d
00000150: 4dd9 bfbd bfea 1c3d 5d19 0f3d 6982 33be
00000160: d7cb ca3d bffc 033e 0d2e 243c 8570 ee3c
00000170: 3cca 0c3a a1b4 19be 6016 663d 7bd9 f63d
00000180: 127e 5d3d 065c e6bd f9bf af3c e921 14be
00000190: 9941 1f3d 2778 70be 10c5 793c 1be4 1fbe
000001a0: 27dc c0bb f519 d23d c5d8 cf3d de61 c8bc
000001b0: 530c 81bd 1f2b 3f3e df60 1abe a842 143e
000001c0: 2f29 afbd 5d81 4e3c 1afe 2e3e 1dce 1ebe
000001d0: 7ba0 f6bd fa37 db3c 1d55 28bd 0360 ab3d
000001e0: 8898 62bd 94a7 04be a464 92bd ad3f 353d
000001f0: 2fbc 14be 1341 1b3d 1718 d2bd 469c 4f3d
00000200: d0cc 4d3c 2edd 4dbc 91f7 993d 4e05 1dbe
00000210: 7edd f33c 8339 2abe 5226 e7bc 9220 72bd
00000220: 05f6 24bd e0cd 87bd 1df2 d8bd 3a82 103e
00000230: ebdd 38bd 4ff9 42bd a32c 8abd a9e3 ac3d
00000240: 0050 c0bc de5a 80bd fbd5 9c3d 46ef 463d
00000250: 91e7 c53d db2c a33a 9750 883d bcb9 3a3e
00000260: 334d e03c bd99 113e fd96 e63d bea2 e33d
00000270: f3fb 1c3e c4b8 c33c 46f8 a4bd a608 e1bb
00000280: b2e2 cdbd ce9e e93d f9d6 db3d a68f b63d
00000290: 8b84 023e 78d3 7abd b60a 42be 765c d33d
000002a0: 53a1 4a3d 2903 9e3d b00e 1c3d 85b7 4539
000002b0: addd 05be 85ae 6dbe 6030 803d 5ec7 03bd
000002c0: 22c6 a8bd 06c7 abbd 09c2 b43d 645f 4fbd
000002d0: c59e 3abd ebcf a83e f4bc 043d e2c8 4d3e
000002e0: 2dd5 9c3d 46ca abbd 1b6c a1bd 5639 933d
000002f0: 5db9 87bd 318f 20be 19fc 0e3d b279 cebd
00000300: 2b18 3ebd a8d1 b3bd 9e4c e63b 773f ad3d
00000310: 2333 723c 5b29 8abd 26d5 b3b8 34ed 1abd
00000320: 86ff 26be ec42 133d e806 263e d0fc 8f3c
00000330: a011 36bd 7b2b 01bc f3dd be3c 80c3 0dbe
00000340: 5553 70bd 35b1 c2bd 9bc6 b4bd 9d79 663d
00000350: a7ec 9f3d 9145 313d bb66 53be 2af2 303d
00000360: a2bd 51bc fee0 083d 07da babc a51b 92bc
00000370: e1df adbd 595e 693d 8ea8 06be 01a3 13be
00000380: 9e21 85bd b80d 913c 973b 9f3e f0e9 b13b
00000390: cabe 3ebb 1c6e ec3d c5ec 9f3c cc0f 41bc
000003a0: 5b94 023e f890 1d3e 9192 30be 13b3 42bd
000003b0: 4f7d 85be f257 36bd 13dd 99be e220 363d
000003c0: e404 f03a 256d 29bc 8edd 203d 2364 983d
000003d0: 44e2 59bd 2327 fdbc bdab 183e 3443 1f3d
000003e0: 19f5 ae3d 46f2 103e e639 ccbd ed0f d63d
000003f0: adf3 00be 5fa4 363e 30e6 9e3d 72ec bfbc

0.bias f4 [128]
0.11289428 0.08133288 -0.019796025 -0.16509406 0.07411785 0.13284287 -0.10062071 0.5203896
0.38408545 -0.20305441 0.31538302 0.25608078 -0.080931254 -0.121002465 0.26441258 0.012028773
-0.12030538 -0.24125655 -0.12564056 0.17991322 -0.03769442 -0.24913688 -0.1741319 -0.15931575
-0.086268105 -0.088590056 0.35189942 0.50919694 -0.19974971 0.31647652 0.08409261 -0.35213238
-0.12731634 -0.3356922 -0.120202124 -0.050483443 0.28781298 -0.050812077 0.022558542 -0.04798695
-0.13818288 -0.05240265 0.018403433 -0.18904324 -0.16531739 -0.15315275 0.28456882 0.09295183
-0.31517056 0.23655805 -0.11990485 -0.07283078 -0.22968374 -0.10433335 0.044882808 -0.014866545
0.3824463 -0.16094826 -0.0187208 -0.28232667 -0.03723987 -0.2978073 -0.13472092 -0.20830931
-0.13395844 0.16136654 -0.16299982 -0.056993473 -0.12236822 -0.17109819 0.43337163 -0.10834768
0.2053284 -0.13675882 0.030117732 -0.18043588 -0.030894589 -0.021631321 -0.119711176 -0.27732876
-0.32383758 -0.20682146 -0.19569297 0.042623885 -0.2798059 -0.11740139 0.41339073 0.19491695
-0.19105 -0.19825415 -0.013094255 -0.11000518 -0.1874679 -0.21592118 0.3656657 -0.3065179
-0.028491873 -0.09032374 0.099397704 -0.24757096 0.23464902 -0.21274339 -0.20758916 -0.34567252
-0.2862822 -0.37105152 0.27026412 -0.14554739 -0.14866205 -0.10616647 -0.21585599 -0.15195368
-0.02083127 -0.37337562 0.43251702 -0.19671327 0.03556474 -0.059190094 -0.2868641 -0.14624748
0.12665571 -0.40120232 0.27257875 -0.068477385 0.10180672 0.1349313 0.00943647 0.07826109
00000000: 1e35 e73d da91 a63d 462b a2bc 6b0e 29be
00000010: 19cb 973d f607 083e 3b12 cebd 4138 053f
00000020: d9a6 c43e 7fed 4fbe e279 a13e 051d 833e
00000030: 49bf a5bd 24d0 f7bd 1661 873e 5514 453c
00000040: ab62 f6bd f50b 77be eba7 00be 2c3b 383e
00000050: 7765 1abd bd1d 7fbe a24f 32be ab23 23be
00000060: 55ad b0bd b46e b5bd 292c b43e bb5a 023f
00000070: 308b 4cbe 3609 a23e bf38 ac3d b24a b4be
00000080: 375f 02be d9df abbe 882c f6bd bac7 4ebd
00000090: 395c 933e 5320 50bd b1cc b83c f78d 44bd
000000a0: d07f 0dbe 29a4 56bd ccc2 963c 8d94 41be
000000b0: f648 29be 13d4 1cbe 01b3 913e 875d be3d
000000c0: 095e a1be 463c 723e ad90 f5bd 4e28 95bd
000000d0: 3732 6bbe b9ac d5bd 09d7 373d cf92 73bc
000000e0: 00d0 c33e 9fcf 24be 5d5c 99bc 1f8d 90be
000000f0: d588 18bd 337a 98be 48f4 09be 094f 55be
00000100: 672c 09be 453d 253e 6de9 26be fd71 69bd
00000110: 309c fabd 5d34 2fbe e3e2 dd3e 63e5 ddbd
00000120: 9c41 523e 810a 0cbe 76b9 f63c 2fc4 38be
00000130: a616 fdbc 2b34 b1bc 222b f5bd 09fe 8dbe
00000140: 0ace a5be 01c9 53be bd63 48be 6296 2e3d
00000150: b842 8fbe 2470 f0bd f3a7 d33e 4f98 473e
00000160: 9ca2 43be 2303 4bbe 4989 56bc 654a e1bd
00000170: 96f7 3fbe 711a 5dbe 8938 bb3e eaef 9cbe
00000180: ca67 e9bc a7fb b8bd 0691 cb3d 3e83 7dbe
00000190: d547 703e 67d9 59be 4192 54be fdfb b0be
000001a0: 9593 92be 77fa bdbe 0f60 8a3e 600a 15be
000001b0: dd3a 18be ce6d d9bd 5a09 5dbe bf99 1bbe
000001c0: 57a6 aabc 172b bfbe df72 dd3e 346f 49be
000001d0: 55ac 113d 5071 72bd dadf 92be e6c1 15be
000001e0: 09b2 013e 646a cdbe 718f 8b3e df3d 8cbd
000001f0: 0b80 d03d 6e2b 0a3e 6d9b 1a3c 5a47 a03d

2.weight f4 [128, 128]
0.04136571 -0.011806186 -0.034035146 -0.061741877 0.066491775 -0.006154604 -0.045158464 0.0031086695
0.0030984068 -0.031220948 0.0103258155 0.06394367 -0.002695776 -0.046960197 0.06476407 -0.06324828
-0.06415078 -0.042020053 -0.08877276 0.027255075 0.079828456 -0.08252386 0.040141147 0.0041923043
-0.011335913 -0.06312296 -0.035869326 -0.029972969 0.021131773 0.025817148 -0.079817966 -0.018714761
-0.013774219 -0.0052531906 -0.06612003 0.040547926 0.012091931 -0.05612063 -0.055153944 -0.013517694
0.013032001 -0.063694745 0.0026500202 -0.045235403 -0.009136384 0.006046226 0.016421115 0.0034858175
-0.05420158 -0.07085663 0.03464365 0.07500198 -0.054404147 -0.055268753 0.010722692 -0.020021996
0.086194515 0.07265883 0.008190858 0.0901788 0.079312235 -0.005817067 0.0595441 -0.090897925
-0.025496596 0.056584686 -0.056209292 -0.0072708726 -0.07533722 0.08493075 0.054357823 -0.045859933
0.0761574 -0.049452867 0.058930766 -0.00576843 -0.016259346 0.06410393 -0.086901285 -0.046330296
-0.0047019236 -0.08679348 0.016084174 -0.07918284 -0.06376095 0.030733109 -0.007558489 0.07527821
-0.07996362 0.07111262 0.05775593 -0.013338244 0.043936435 -0.079249255 -0.08341089 -0.058749083
-0.07594813 -0.07663792 0.028539453 0.085141964 -0.0008010859 -0.035001233 -0.05950802 -0.028342916
0.051802132 -0.05070054 -0.045324177 -0.08032683 0.021481324 0.06984102 0.044595353 0.07369939
0.058519352 -0.0037493529 -0.06826591 0.073629886 -0.05246187 0.089686066 -0.05273817 0.00577661
0.021507682 0.05534766 -0.00066768774 -0.08257481 0.001418912 0.08607334 0.0091387285 0.047038928
-0.029952692 -0.055100523 0.052829087 0.04493393 -0.01903723 -0.026478916 -0.037868556 0.009047335
0.063500844 -0.084359795 0.0032443076 0.013188714 -0.006399939 0.048450045 0.027406806 0.06433121
-0.047417086 -0.014951783 -0.014964663 -0.04657765 -0.039489377 -0.03182297 -0.032026485 -0.044802986
0.0059843427 -0.08219816 0.08434805 -0.031413723 0.05785876 0.006199293 -0.07476555 -0.08925213
-0.014780231 0.05073228 0.0076952386 0.054953836 -0.056370653 -0.08481155 -0.08632637 0.018503143
0.043057155 -0.040298395 0.021914717 -0.0704729 -0.013446402 0.073525794 -0.036686733 0.07058232
-0.05594612 -0.051733423 0.0735941 0.071059614 0.018456211 -0.023014216 0.037225574 0.027733194
-0.038667552 -0.07188198 -0.013296659 -0.046211276 -0.03611203 0.01873552 0.07215273 0.06701982
0.06489937 0.031780183 0.026983026 -0.01795333 0.008387076 -0.0055635166 -0.06521063 0.08609762
0.061819635 0.0083530145 0.043076687 0.043251097 0.065164864 0.047939997 -0.016609285 -0.01994019
-0.054588903 0.0075056436 0.06748032 -0.08091111 0.020589352 -0.054302193 0.074082695 -0.07958801
0.010761934 0.052569404 -0.029764717 0.006388558 0.025451673 -0.0039364295 -0.039138835 0.082600206
-0.085014515 -0.058890503 -0.028575279 0.0050700665 -0.020914601 0.01480574 -0.016815877 -0.04411502
0.0057080355 0.066554375 0.038209703 0.023042051 -0.054714765 0.043620523 -0.012835488 0.05425653
-0.033276584 -0.06957772 0.05581616 -0.018462576 -0.032663494 0.039662637 -0.00037388148 -0.03388755
-0.015515834 -0.002002778 0.0047266725 0.06182791 -0.038291518 -0.03395788 -0.0051939175 -0.0013357839
00000000: 176f 293d bc6e 41bc 7068 0bbd 0de5 7cbd
00000010: d72c 883d 8fac c9bb 15f8 38bd d2ba 4b3b
00000020: a40e 4b3b 13c3 ffbc 9c2d 293c e6f4 823d
00000030: 9eab 30bb 5659 40bd 06a3 843d 5088 81bd
00000040: 7c61 83bd 381d 2cbd 7ece b5bd 0946 df3c
00000050: 1a7d a33d 4502 a9bd 0b6b 243d 995f 893b
00000060: 44ba 39bc 9c46 81bd b7eb 12bd df89 f5bc
00000070: 8a1c ad3c 7c7e d33c 9a77 a3bd b34f 99bc
00000080: 43ad 61bc f522 acbb f069 87bd 9515 263d
00000090: 3c1d 463c bfde 65bd 1ae9 61bd 5179 5dbc
000000a0: 2d84 553c 6472 82bd f6ab 2d3b c248 39bd
000000b0: c6b0 15bc 6b1f c63b 9385 863c 5072 643b
000000c0: 7a02 5ebd 481d 91bd 80e6 0d3d a39a 993d
000000d0: e2d6 5ebd 7d61 62bd 3bae 2f3c 2b05 a4bc
000000e0: c086 b03d 27ce 943d f332 063c aaaf b83d
000000f0: 746e a23d 189d bebb 84e4 733d b128 babd
00000100: 3dde d0bc 58c5 673d b73b 66bd 8040 eebb
00000110: 674a 9abd 2cf0 ad3d 4fa6 5e3d a0d7 3bbd
00000120: 69f8 9b3d 178f 4abd 6361 713d 1905 bdbb
00000130: 5232 85bc ec48 833d 4df9 b1bd d6c4 3dbd
00000140: 9812 9abb c8c0 b1bd f5c2 833c 9d2a a2bd
00000150: 1a95 82bd 00c4 fb3c 34ad f7bb 762b 9a3d
00000160: f7c3 a3bd 7ea3 913d 7b91 6c3d a688 5abc
00000170: b1f6 333d 6f4d a2bd 54d3 aabd e1a2 70bd
00000180: b18a 9bbd 58f4 9cbd 92cb e93c e95e ae3d
00000190: f7ff 51ba 745d 0fbd aebe 73bd 672f e8bc
000001a0: 792e 543d 5fab 4fbd d8a5 39bd 6582 a4bd
000001b0: 9af9 af3c cf08 8f3d 9ea9 363d b5ef 963d
000001c0: fdb1 6f3d b4b7 75bb ffce 8bbd 44cb 963d
000001d0: 42e2 56bd 54ad b73d fb03 58bd b849 bd3b
000001e0: e130 b03c 3ab4 623d c407 2fba fb1c a9bd
000001f0: c9fa b93a 3847 b03d 9bba 153c e4ab 403d
00000200: 595f f5bc 16b1 61bd 5063 583d a40c 383d
00000210: f7f3 9bbc 50ea d8bc 0f1c 1bbd 463b 143c
00000220: bb0c 823d d4c4 acbd 739e 543b 7a15 583c
00000230: 94b6 d1bb 8e73 463d 3d84 e03c 15c0 833d
00000240: 6b38 42bd 53f8 74bc 592e 75bc 35c8 3ebd
00000250: 9dbf 21bd cd58 02bd 342e 03bd 5683 37bd
00000260: 4e18 c43b 8257 a8bd acbe ac3d adab 00bd
00000270: 4ffd 6c3d 7023 cb3b ae1e 99bd d2c9 b6bd
00000280: c828 72bc a7cc 4f3d 5728 fc3b 4617 613d
00000290: eae4 66bd aeb1 adbd e1cb b0bd e793 973c
000002a0: b35c 303d ee0f 25bd 7e86 b33c 1954 90bd
000002b0: 4c4e 5cbc b194 963d d444 16bd 778d 903d
000002c0: c227 65bd 6de6 53bd 81b8 963d b487 913d
000002d0: 7b31 973c 4f88 bcbc d879 183d b930 e33c
000002e0: de61 1ebd dc36 93bd 3bda 59bc 0948 3dbd
000002f0: 35ea 13bd 3c7b 993c cfc4 933d b041 893d
00000300: f6e9 843d f02b 023d 820b dd3c dd12 93bc
00000310: f269 093c 294e b6bb 278d 85bd f353 b03d
00000320: 9636 7d3d 15db 083c 2e71 303d 1028 313d
00000330: 2875 853d bb5c 443d 3210 88bc 9c59 a3bc
00000340: 9d98 5fbd e7f1 f53b 1f33 8a3d b9b4 a5bd
00000350: 00ab a83c fa6b 5ebd abb8 973d 0aff a2bd
00000360: d352 303c 0453 573d 23d5 f3bc 1c57 d13b
00000370: 0780 d03c 2afd 80bb 0b50 20bd 4c2a a93d
00000380: 171c aebd 2b37 71bd b416 eabc cd22 a63b
00000390: 1955 abbc c693 723c 73c1 89bc f4b1 34bd
000003a0: 790a bb3b a94d 883d c781 1c3d afc2 bc3c
000003b0: 971c 60bd 6fab 323d f04b 52bc 183c 5e3d
000003c0: 074d 08bd c37e 8ebd 7c9f 643d d43e 97bc
000003d0: 28ca 05bd 4a75 223d 8605 c4b9 accd 0abd
000003e0: 2036 7ebc 0a41 03bb 34e2 9a3b 433f 7d3d
000003f0: 91d7 1cbd 6b17 0bbd bd31 aabb 7815 afba

2.bias f4 [128]
0.07677856 -0.051824357 -0.05510436 0.025614915 0.09650906 -0.0988656 -0.034461007 0.052026536
-0.041552912 -0.109363645 0.020857735 -0.047967795 -0.07780526 -0.034220625 -0.19062218 0.1438
0.02335395 0.030901093 -0.026943197 -0.010530011 0.055500016 -0.06993739 0.10665328 0.0036387055
-0.10954575 -0.044197958 -0.040591404 0.009829504 -0.020435719 0.022058511 0.08366596 -0.0055739298
0.14634523 0.099770725 -0.1851 0.00944937 0.06672068 -0.012868463 -0.31164938 -0.06645481
-0.028127626 -0.0075706625 -0.04887887 -0.10740076 -0.005784454 0.07927692 0.09206187 -0.032740116
-0.12907104 0.15952668 0.11979295 0.0942736 0.015354538 -0.017385567 -0.04158254 0.005453735
0.072099105 -0.030550115 0.01895938 -0.019856855 -0.10524911 0.030088587 0.10164789 0.09127934
-0.055865277 0.075787865 -0.015171854 -0.07154495 -0.09136988 -0.21742159 -0.04889871 0.08794469
-0.06978835 0.13483158 -0.0060329703 0.07255075 -0.019575965 -0.24063177 -0.02364777 0.001769506
-0.006796791 0.038613584 -0.026268851 -0.0130925365 -0.26572376 -0.016666874 -0.102097034 -0.094357036
0.2651822 -0.18628648 -0.076955974 0.027326113 -0.01042789 0.067852624 -0.19634289 0.07334671
0.042133227 0.0571239 -0.04658099 0.12248545 0.007899001 0.016972853 -0.049130317 -0.07442118
0.095670596 0.17312762 -0.11342269 0.049070075 -0.11868796 -0.18113524 -0.033425126 -0.12826729
-9.1683887e-07 -0.07212321 -0.075149246 0.032446843 -0.056381993 0.022874214 0.0071466165 -0.021940961
0.04436946 0.09485951 0.11135003 -0.075834125 0.013780087 0.0969746 -0.00061750074 -0.0050376295
00000000: 143e 9d3d c745 54bd 1cb5 61bd 5fd6 d13c
00000010: 8ba6 c53d 0c7a cabd fc26 0dbd c719 553d
00000020: 6333 2abd 0cfa dfbd d7dd aa3c e179 44bd
00000030: 5d58 9fbd ed2a 0cbd 7632 43be 4f40 133e
00000040: c850 bf3c 4a24 fd3c fbb7 dcbc 1186 2cbc
00000050: fc53 633d 563b 8fbd 096d da3d 5977 6e3b
00000060: 8659 e0bd eb08 35bd 2c43 26bd ee0b 213c
00000070: cf68 a7bc 0db4 b43c 0f59 ab3d 83a5 b6bb
00000080: 86db 153e 9854 cc3d db8a 3dbe 88d1 1a3c
00000090: daa4 883d 3fd6 52bc 8290 9fbe 7619 88bd
000000a0: e86b e6bc 5213 f8bb 3635 48bd eef4 dbbd
000000b0: 848b bdbb f05b a23d ef8a bc3d 801a 06bd
000000c0: 332b 04be f65a 233e 0256 f53d 8412 c13d
000000d0: 9a91 7b3c 2d6c 8ebc 7452 2abd 3fb5 b23b
000000e0: b2a8 933d 3c44 fabc b450 9b3c d8aa a2bc
000000f0: d88c d7bd 577c f63c c52c d03d aaf0 ba3d
00000100: fdd2 64bd ab36 9b3d 5e93 78bc 2986 92bd
00000110: 2220 bbbd c4a3 5ebe 044a 48bd 581c b43d
00000120: 32ed 8ebd 4a11 0a3e 39b0 c5bb 7d95 943d
00000130: c65d a0bc 2d68 76be f8b8 c1bc c5ee e73a
00000140: 9eb7 debb 4729 1e3d c631 d7bc 1482 56bc
00000150: f20c 88be f888 88bc 4018 d1bd 433e c1bd
00000160: f6c5 873e e2c1 3ebe 189b 9dbd 03db df3c
00000170: bed9 2abc 51f6 8a3d 1c0e 49be cd36 963d
00000180: e493 2c3d c0fa 693d b5cb 3ebd a7d9 fa3d
00000190: d06a 013c a70a 8b3c df3c 49bd 226a 98bd
000001a0: f2ee c33d 5e48 313e 284a e8bd b4fd 483d
000001b0: ac12 f3bd 847b 39be c9e8 08bd 8058 03be
000001c0: b01c 76b5 55b5 93bd d9e7 99bd fbe6 043d
000001d0: cef0 66bd b462 bb3c 2a2e ea3b 88bd b3bc
000001e0: c0bc 353d b445 c23d 7c0b e43d ec4e 9bbd
000001f0: e0c5 613c 9e9a c63d c6df 21ba b312 a5bb

4.weight f4 [128, 128]
0.047895595 0.024456626 -0.037218504 0.05057249 0.0013252839 -0.04954359 0.0067200977 -0.0090516545
0.0260266 0.013643602 0.06780231 0.00679983 0.0078932 -0.0069223023 -0.061715752 0.043402
0.07408728 -0.03820917 -0.057843734 -0.034190603 -0.0033315239 0.07205662 -0.016149744 0.08116548
0.07143936 -0.07035146 -0.08721381 -0.0090588825 -0.011432938 0.011529765 -0.008672081 -0.03895742
0.015291094 -0.043849535 0.047749337 0.06297708 -0.07253752 -0.06669508 0.06713189 -0.019762946
0.0358692 -0.084729716 -0.052936237 -0.06929285 -0.030818973 -0.06684913 -0.03182628 0.0062003066
-0.034080166 0.04372967 -0.03407239 -0.06795363 -0.023048777 0.0477507 -0.01734948 -0.045938313
-0.032804243 0.07023795 -0.071781695 -0.04886542 -0.07462281 0.07483833 -0.048009977 0.07894105
-0.019945923 -0.056618705 -0.043372568 -0.06887937 0.013417786 -0.033456832 0.07877142 0.007981492
0.015919067 -0.040714197 -0.027298605 -0.048017375 0.02585289 0.042581655 -0.056419555 0.039116334
-0.08480941 0.051875554 0.046230268 -0.024814857 0.01735996 -0.0609142 -0.016839262 0.023360075
0.043183036 -0.07129618 -0.073607385 0.069166526 0.030993743 0.076462105 -0.07849471 -0.04110569
-0.03741902 -0.015795173 0.00821573 -0.018271914 0.04706485 -0.053307105 0.07515533 -0.043352075
0.04860232 0.07261091 -0.07815924 0.024517344 0.020387135 0.08067408 0.04924209 -0.08683536
-0.031849235 -0.0692922 -0.04670387 -0.026473237 0.033582613 -0.08543815 0.0053791096 -0.08004732
-0.017007468 -0.083598055 -0.060323793 -0.03862252 0.035345946 -0.049230568 -0.052297153 0.038741384
-0.039198752 0.032739468 0.09627355 0.07985139 -0.00068133743 0.04440294 -0.022955924 0.06713945
-0.0024196077 0.008419771 -0.07961181 0.0794747 0.061193936 -0.008791568 -0.043054126 -0.027011616
-0.080158316 -0.05512914 0.04287616 -0.054965284 0.035593443 -0.041592162 -0.036825128 -0.06938089
0.005284894 -0.0284823 -0.03398788 0.0018378482 -0.039375506 0.021384895 0.062523425 -0.03284925
0.033382703 -0.020924455 0.021784177 -0.06263342 -0.05380616 -0.040180966 -0.005234006 -0.015282093
-0.026633581 0.055503335 -0.06428311 0.08806976 0.017079044 -0.0006745383 0.06723322 0.0647344
-0.01765025 0.044264443 -0.024120066 0.05387171 0.05888715 0.02005611 0.009663219 -0.029526064
-0.024693407 0.07250366 0.029982043 0.033122376 -0.006612836 -0.009969746 0.061606526 -0.06774707
0.014059795 -0.01307869 -0.02667748 -0.08380228 0.0680056 -0.072668016 -0.023442762 0.012838596
0.0537206 -0.0839151 0.04256182 -0.033494085 0.030974578 -0.08442422 -0.074897476 0.08186475
0.031444434 0.018453889 0.04085138 0.08845157 0.056492705 0.018317536 -0.06974504 0.09532279
0.0059635327 -0.014081001 0.018556833 0.067641966 -0.014344011 -0.036844153 0.051374916 0.06698134
0.025678303 0.009561465 0.0022900477 0.020246731 -0.06905901 -0.046670593 0.0387075 0.023294915
0.050776623 0.0029442958 -0.049017534 -0.03357305 -0.022034133 -0.05885932 0.08474611 -0.051676888
0.0136409225 0.08987753 -0.072769895 -0.07193571 0.036941797 0.056736115 -0.042273052 0.042393293
0.06235771 -0.038537577 0.07698607 0.013329975 -0.015423826 0.032019332 0.049726933 0.08312305
00000000: 2c2e 443d 4359 c83c 6e72 18bd 1925 4f3d
00000010: 26b5 ad3a 38ee 4abd 4434 dc3b 644d 14bc
00000020: bc35 d53c 6a89 5f3c f0db 8a3d 1cd1 de3b
00000030: 7b52 013c 7bd4 e2bb a8c9 7cbd 4cc6 313d
00000040: 12bb 973d 3881 1cbd 8ded 6cbd 720b 0cbd
00000050: b255 5abb 6c92 933d 784c 84bc 163a a63d
00000060: cd4e 923d 6d14 90bd 279d b2bd b56b 14bc
00000070: 3851 3bbc 57e7 3c3c 5815 0ebc d191 1fbd
00000080: 7f87 7a3c 929b 33bd cf94 433d 21fa 803d
00000090: 8d8e 94bd 6e97 88bd 727c 893d e7e5 a1bc
000000a0: 95eb 123d c686 adbd abd3 58bd 69e9 8dbd
000000b0: 1278 fcbc 32e8 88bd 465c 02bd f12b cb3b
000000c0: a597 0bbd e21d 333d 7e8f 0bbd 462b 8bbd
000000d0: cad0 bcbc 3d96 433d 7f20 8ebc d029 3cbd
000000e0: be5d 06bd ead8 8f3d 4802 93bd 1b27 48bd
000000f0: d8d3 98bd d744 993d 1ca6 44bd d8ab a13d
00000100: a265 a3bc 04e9 67bd 6fa7 31bd a110 8dbd
00000110: 46d6 5b3c 080a 09bd e952 a13d cec4 023c
00000120: b468 823c eec3 26bd 53a1 dfbc dead 44bd
00000130: 71c9 d33c 1a6a 2e3d 3118 67bd 7338 203d
00000140: 8eb0 adbd 767b 543d f35b 3d3d 8748 cbbc
00000150: 7a36 8e3c 2b81 79bd 7ef2 89bc a15d bf3c
00000160: b2e0 303d bb03 92bd 78bf 96bd 2ea7 8d3d
00000170: 97e6 fd3c 2a98 9c3d d6c1 a0bd 715e 28bd
00000180: b044 19bd e164 81bc 459b 063c fbae 95bc
00000190: 12c7 403d 8d58 5abd 0aeb 993d f291 31bd
000001a0: 3a13 473d 07b5 943d f411 a0bd 99d8 c83c
000001b0: ec02 a73c 7438 a53d 13b2 493d bdd6 b1bd
000001c0: 5874 02bd 12e9 8dbd 8f4c 3fbd 67de d8bc
000001d0: ec8d 093d 32fa aebd 3e43 b03b d9ef a3bd
000001e0: 3f53 8bbc 7535 abbd 1516 77bd a632 1ebd
000001f0: e9c6 103d fea5 49bd 8a35 56bd 49af 1e3d
00000200: df8e 20bd d219 063d 112b c53d 2089 a33d
00000210: c89b 32ba dbdf 353d 100e bcbc 6880 893d
00000220: 4892 1ebb 14f3 093c 840b a3bd a2c3 a23d
00000230: 7ea6 7a3d 820a 10bc 8659 30bd 7747 ddbc
00000240: 0b2a a4bd 18cf 61bd ea9e 2f3d 4723 61bd
00000250: 6eca 113d 8b5c 2abd f2d5 16bd 9117 8ebd
00000260: e72c ad3b b653 e9bc e036 0bbd f4e3 f03a
00000270: 3648 21bd 602f af3c 480c 803d ef8c 06bd
00000280: 4dbc 083d c369 abbc bb74 b23c f345 80bd
00000290: d963 5cbd cc94 24bd 0682 abbb be61 7abc
000002a0: ab2e dabc 7757 633d dda6 83bd eb5d b43d
000002b0: 5ae9 8b3c 80d3 30ba 92b1 893d 7893 843d
000002c0: 4297 90bc a24e 353d 7297 c5bc 95a8 5c3d
000002d0: a733 713d b64c a43c 7a52 1e3c a5e0 f1bc
000002e0: d449 cabc cd7c 943d e79c f53c 54ab 073d
000002f0: 7db0 d8bb 2558 23bc 2057 7c3d fabe 8abd
00000300: 0e5b 663c 0048 56bc bb8a dabc 88a0 abbd
00000310: 8546 8b3d f8d2 94bd 090b c0bc f958 523c
00000320: 220a 5c3d aedb abbd 4e55 2e3d 1831 09bd
00000330: 66be fd3c 9be6 acbd d963 99bd b5a8 a73d
00000340: e1cb 003d 9c2c 973c c753 273d 1926 b53d
00000350: e564 673d a80e 963c 7dd6 8ebd 9838 c33d
00000360: bd69 c33b 00b4 66bc 8004 983c df87 8a3d
00000370: 2503 6bbc e5e9 16bd 816e 523d 832d 893d
00000380: 4e5b d23c b1a7 1c3c a014 163b 79dc a53c
00000390: cf6e 8dbd aa29 3fbd c18b 1e3d fad4 be3c
000003a0: 26fb 4f3d 16f5 403b 9cc6 48bd e583 09bd
000003b0: ed80 b4bc 7816 71bd 5e8f ad3d 25ab 53bd
000003c0: 2d7e 5f3c b611 b83d 6208 95bd 0853 93bd
000003d0: 4850 173d 2164 683d 8226 2dbd 97a4 2d3d
000003e0: cc6a 7f3d 94d9 1dbd dfaa 9d3d f865 5a3c
000003f0: 37b4 7cbc b426 033d 78ae 4b3d 6b3c aa3d

4.bias f4 [128]
-0.03363298 0.04597265 0.07031074 -0.087272294 -0.0668915 -0.03841885 -0.02475614 -0.008806429
0.111528814 0.079597466 -0.08322718 -0.0015696812 -0.020694146 0.029561289 0.081142746 0.05093281
-0.045761473 0.110026196 0.06687017 -0.016360039 -0.034854423 0.035235964 0.05379958 -0.070427224
0.1085375 -0.064126566 -0.041188948 -0.08169256 -0.002751314 0.04134143 -0.07217722 0.104345754
-0.039119624 -0.022309817 -0.08992021 -0.019291272 0.025047673 0.058074776 -0.02078356 -0.05123513
0.03147766 -0.0268692 0.15071875 0.1037735 0.052628677 0.11252788 0.08798374 -0.06117582
0.0009823987 0.0620343 0.025759362 -0.04676679 -0.02521229 -0.000782311 -0.07776691 -0.037936088
-0.0067589898 -0.07722786 -0.015357186 0.0995583 0.044098984 -0.04805061 0.15381 0.05001718
-0.09046792 -0.08079414 0.045965977 -0.06739172 0.08312648 0.05610288 0.060853533 -0.030658426
0.029263603 0.14312401 0.12462449 0.12133426 -0.023178667 -0.09943028 0.09095105 -0.03268058
0.0049382113 0.05287851 -0.05284552 -0.026112488 0.10729114 0.04078036 0.022477886 -0.009002905
-0.06282651 -0.017593894 0.08177409 0.03725098 -0.08092934 -0.025550772 0.017730217 0.070176534
0.13009118 0.07336378 -0.052141845 -0.008687415 -0.015265769 0.0037042631 0.011711509 -0.023948131
0.0803833 0.016829142 -0.022830158 -0.04059012 0.14609756 -0.015415112 -0.038100224 -0.118632145
-0.055528086 0.066456154 0.16444384 -0.067046516 -0.07936228 -0.050148215 -0.040639065 -0.056015372
0.060318407 0.077500604 0.13003747 0.008265563 0.0064177727 0.005772457 0.064979516 0.05884572
00000000: bcc2 09bd d14d 3c3d 14ff 8f3d d1bb b2bd
00000010: 69fe 88bd 165d 1dbd 63cd cabc d748 10bc
00000020: 3869 e43d ff03 a33d 0373 aabd c3bd cdba
00000030: c586 a9bc 842a f23c 2b2e a63d ec9e 503d
00000040: 6270 3bbd 6a55 e13d 3af3 883d 7d05 86bc
00000050: 83c3 0ebd 9653 103d f35c 5c3d 263c 90bd
00000060: e948 de3d ca54 83bd beb5 28bd 6e4e a7bd
00000070: 644f 34bb a255 293d a6d1 93bd 3ab3 d53d
00000080: e63b 20bd 14c3 b6bc 1628 b8bd bb08 9ebc
00000090: c730 cd3c d1df 6d3d 4942 aabc eddb 51bd
000000a0: b8ee 003d cc1c dcbc 0456 1a3e 3387 d43d
000000b0: 2b91 573d 0475 e63d d230 b43d 7f93 7abd
000000c0: d5c3 803a ae17 7e3d 4c05 d33c 898e 3fbd
000000d0: 018a cebc 0114 4dba 4244 9fbd df62 1bbd
000000e0: 847a ddbb a429 9ebd b59c 7bbc 39e5 cb3d
000000f0: 23a1 343d b7d0 44bd 5e80 1d3e d1de 4c3d
00000100: 3f47 b9bd 6677 a5bd d246 3c3d ac04 8abd
00000110: 373e aa3d 22cc 653d 8e41 793d 6127 fbbc
00000120: 39ba ef3c 1a8f 123e 203b ff3d 197e f83d
00000130: 30e1 bdbc 1aa2 cbbd 8b44 ba3d 12dc 05bd
00000140: b8d0 a13b 2397 583d 8b74 58bd dbe9 d5bc
00000150: 75bb db3d 4f09 273d 8b23 b83c ec80 13bc
00000160: 2fab 80bd 1221 90bc 2d79 a73d 7c94 183d
00000170: 48be a5bd da4f d1bc f63e 913c b7b8 8f3d
00000180: 9f36 053e c03f 963d b092 55bd a955 0ebc
00000190: 471d 7abc 39c3 723b a1e1 3f3c df2e c4bc
000001a0: 00a0 a43d 45dd 893c 5006 bbbc d341 26bd
000001b0: 999a 153e aa8f 7cbc fb0e 1cbd 69f5 f2bd
000001c0: 6b71 63bd 2a1a 883d f763 283e af4f 89bd
000001d0: b188 a2bd 3768 4dbd 2675 26bd 6070 65bd
000001e0: 6f10 773d a3b8 9e3d 8b28 053e 496c 073c
000001f0: 2e4c d23b e126 bd3b fb13 853d 3608 713d

6.weight f4 [128, 128]
0.0073626344 0.04587285 -0.024359547 -0.010657562 0.047341164 -0.062633954 0.015643897 0.0768122
0.08689708 0.03937577 -0.05065167 -0.038112566 0.060246233 -0.094081774 0.08582008 -0.020478306
0.063650854 0.03166408 0.075905874 -0.047511417 0.07615582 0.07822422 0.008008247 0.07382616
-0.06014898 -0.015646627 -0.004808095 -0.011572971 -0.055560835 0.029835872 0.008895298 0.093604326
-0.01337792 0.055643454 -0.025188006 -0.047442097 0.07330664 -0.0771008 0.026472688 0.01804114
0.06287506 -0.0427939 -0.007417643 -0.047019135 0.041689843 0.029697496 0.048170883 0.040028557
-0.026073564 -0.056399636 0.0069547966 0.049335282 0.05330954 0.062762186 0.05987958 -0.086478055
0.04615649 0.04451603 -0.00085307984 -0.07286934 0.043462764 -0.04141774 -0.05219949 0.079910286
-0.039182514 -0.053948976 -0.068665236 0.07018007 0.060543325 0.03817726 0.023457393 -0.06260251
-0.07452875 0.050189584 -0.050167408 -0.076223075 -0.029202493 -0.062172767 0.042624738 -0.044136494
-0.072811425 -0.015327622 -0.058881007 -0.06521206 -0.025115808 -0.045344714 -0.037201617 0.08690787
0.029584836 -0.043789864 0.024859715 -0.08342612 -0.06666832 0.002250151 0.09099154 0.08351305
-0.0050414675 -0.030575184 -0.031366967 -0.021764232 -0.026323311 -0.08902837 -0.04744554 -0.0158624
0.03812851 0.10523537 0.09297913 0.07353177 0.07617403 0.08877226 0.06989233 0.037838735
0.046345238 0.054680143 0.0013265702 -0.019811567 0.027469113 -0.06874437 0.051819358 0.09228979
0.08301666 -0.07217793 0.07685234 0.019341456 0.050856415 0.034508407 0.070428945 -0.080083236
0.087251574 -0.07660307 -0.04295564 0.017863002 -0.0038455792 -0.061190236 0.06493675 0.024786768
-0.013246208 0.036830924 -0.072781466 -0.079451025 0.051297035 0.05165173 0.048535578 0.02653081
-0.050733134 0.078153744 0.035987943 0.056730542 -0.06661108 -0.10631304 -0.033657555 -0.06492732
-0.0005189165 -0.024779288 0.07087399 -0.016664699 -0.038033962 0.05517664 0.10408301 0.009615475
0.08682695 -0.04904883 0.070730366 0.019793553 0.0076951087 0.07995868 0.055313863 -0.04284419
-0.031953346 -0.08599929 -0.023530694 0.0042594247 0.040243212 0.006860385 -0.04676337 0.09037296
-0.0027964113 -0.06070591 0.028361708 0.0511936 0.018729066 -0.037328407 -0.024668636 0.06835577
0.04421826 -0.0036443216 -0.025346193 0.06472948 -0.04045208 0.039003283 0.069105394 -0.078338735
-0.04745162 -0.0683624 -0.0024247724 -0.04749219 -0.06749621 0.08955547 0.09703108 -0.0126792425
0.023758987 0.007199232 0.011539003 0.06745572 0.03701017 0.050956935 -0.04052917 -0.09278518
-0.011971196 0.017909447 0.0028499514 0.061366074 0.035141673 0.029614579 0.021322215 -0.008105213
-0.011577472 0.008129853 -0.009260662 0.012027632 0.05925022 0.046706263 0.037660137 0.04229345
-0.0116278855 -0.028925681 0.051363695 0.008887253 0.08902654 -0.009226934 0.10041608 -0.07160133
0.11279437 -0.016838163 -0.0066673784 -0.048497654 0.00431704 0.025081696 0.10247155 -0.032441866
0.0024945042 -0.049433023 -0.0085679935 -0.00063068204 0.085564315 -0.0824345 -0.064670205 0.008208307
-0.029408418 0.042264067 0.054379698 -0.060727715 0.023886956 0.009239729 0.012635857 -0.08471295
00000000: 4142 f13b 2be5 3b3d ac8d c7bc 0e9d 2ebc
00000010: cfe8 413d 3b46 80bd a127 803c b74f 9d3d
00000020: 19f7 b13d 7d48 213d 2078 4fbd ec1b 1cbd
00000030: c1c4 763d f2ad c0bd 70c2 af3d 1fc2 a7bc
00000040: 615b 823d 32b2 013d 8a74 9b3d 559b 42bd
00000050: 95f7 9b3d 0534 a03d 0635 033c 2b32 973d
00000060: c75e 76bd 5b2d 80bc 398d 9dbb 8f9c 3dbc
00000070: c293 63bd 5c6a f43c 95bd 113c a0b3 bf3d
00000080: 102f 5bbc 64ea 633d 1457 cebc a552 42bd
00000090: cb21 963d 06e7 9dbd 40dd d83c 03cb 933c
000000a0: a4c4 803d a848 2fbd b30f f3bb 2397 40bd
000000b0: f8c2 2a3d 2a48 f33c d54e 453d fcf4 233d
000000c0: 3a98 d5bc 4e03 67bd 10e5 e33b cb13 4a3d
000000d0: 1b5b 5a3d 7689 803d 4a44 753d 681b b1bd
000000e0: 960e 3d3d 7156 363d 38a1 5fba 853c 95bd
000000f0: 0306 323d a6a5 29bd 22cf 55bd 01a8 a33d
00000100: d87d 20bd 9af9 5cbd 5ca0 8cbd 92ba 8f3d
00000110: 47fc 773d c25f 1c3d b829 c03c bf35 80bd
00000120: 87a2 98bd 9893 4d3d 577c 4dbd d81a 9cbd
00000130: 113a efbc dfa8 7ebd 4797 2e3d 78c8 34bd
00000140: 281e 95bd b520 7bbc 362d 71bd e78d 85bd
00000150: abbf cdbc 61bb 39bd b960 18bd c1fc b13d
00000160: e65b f23c 005d 33bd 9aa6 cb3c 50db aabd
00000170: 6689 88bd 4577 133b c659 ba3d e408 ab3d
00000180: e532 a5bb cf78 fabc a67a 00bd e74a b2bc
00000190: fca3 d7bc 8254 b6bd 4156 42bd ddf1 81bc
000001a0: a42c 1c3d a485 d73d d86b be3d d397 963d
000001b0: 2101 9c3d 3bce b53d b623 8f3d cafc 1a3d
000001c0: 81d4 3d3d 49f8 5f3d 4fe0 ad3a de4b a2bc
000001d0: e806 e13c d9c9 8cbd 8940 543d 6e02 bd3d
000001e0: a304 aa3d 06d2 93bd c264 9d3d f971 9e3c
000001f0: d14e 503d b058 0d3d 0d3d 903d ae02 a4bd
00000200: f4b0 b23d 12e2 9cbd 41f2 2fbd 6e55 923c
00000210: 1d06 7cbb 9da2 7abd 8ffd 843d 9f0d cb3c
00000220: a006 59bc 06dc 163d 730e 95bd 38b7 a2bd
00000230: d71c 523d c490 533d 3ecd 463d 2457 d93c
00000240: 8ccd 4fbd 120f a03d 1868 133d 495e 683d
00000250: 646b 88bd a7ba d9bd 81dc 09bd 9df8 84bd
00000260: e607 08ba effd cabc 6226 913d 6884 88bc
00000270: 80c9 1bbd e700 623d 7929 d53d 3a8a 1d3c
00000280: 54d2 b13d 6de7 48bd 15db 903d 1726 a23c
00000290: 4027 fc3b 60c1 a33d ca90 623d 647d 2fbd
000002a0: 83e1 02bd 6520 b0bd 71c3 c0bc a592 8b3b
000002b0: 11d6 243d 15cd e03b f38a 3fbd 7515 b93d
000002c0: ff43 37bb c3a6 78bd d056 e83c 61b0 513d
000002d0: b36d 993c ace5 18bd e115 cabc 1cfe 8b3d
000002e0: 351e 353d 92d5 6ebb d2a2 cfbc e490 843d
000002f0: 15b1 25bd e8c1 1f3d 2187 8d3d 0f70 a0bd
00000300: a15c 42bd 9601 8cbd eee8 1ebb 2c87 42bd
00000310: 743b 8abd dc68 b73d 3bb8 c63d 99bc 4fbc
00000320: 35a2 c23c 89e7 eb3b 160e 3d3c 3926 8a3d
00000330: fa97 173d 38b8 503d ea01 26bd 2806 bebd
00000340: d622 44bc d5b6 923c 40c6 3a3b fe5a 7b3d
00000350: b7f0 0f3d 469a f23c edab ae3c bacb 04bc
00000360: 70af 3dbc 1333 053c 08ba 17bc 8c0f 453c
00000370: 5cb0 723d 114f 3f3d 8441 1a3d e63b 2d3d
00000380: e382 3ebc 8df5 ecbc bd62 523d d79b 113c
00000390: 8c53 b63d 912c 17bc f2a6 cd3d b8a3 92bd
000003a0: bc00 e73d 30f0 89bc 067a dabb 7aa5 46bd
000003b0: f575 8d3b 2178 cd3c 9bdc d13d c3e1 04bd
000003c0: d67a 233b 487a 4abd c560 0cbc 5b54 25ba
000003d0: 583c af3d 6bd3 a8bd d071 84bd 237c 063c
000003e0: ece9 f0bc 161d 2d3d 3fbd 5e3d a0bd 78bd
000003f0: 94ae c33c 3b62 173c a006 4f3c fc7d adbd

6.bias f4 [128]
0.0056508672 0.14724942 0.00077966094 0.13534464 -0.03936033 -0.018385181 0.0977614 0.08127981
0.076890565 0.15819573 0.039260786 -0.037454017 -0.08582691 -0.0044912063 0.05280955 0.04364015
-0.09222685 -0.018013569 -0.077078424 -0.0063135573 0.044362508 0.2121654 -0.110452265 -0.0962525
-0.010569921 0.1021811 0.030128201 -0.03566946 0.033580806 -0.07822383 0.06975394 -0.039552625
0.18951331 0.005324471 0.045750488 -0.06108201 -0.08246807 0.07091505 -0.06974662 0.22280225
-0.0051250663 0.30444127 0.08668756 0.0035266369 -0.08568195 0.057344154 0.07863364 -0.10006724
0.0021128196 -0.019784434 -0.07077044 -0.106774844 0.018599512 -0.063211665 0.11645213 0.120555624
-0.05550642 0.006750974 0.2457287 -0.05098218 0.05914648 -0.065459065 0.01473722 0.2988327
0.010391755 -0.033456106 -0.041783333 0.01919577 -0.07845476 -0.049094133 -0.097713046 0.016902147
-0.017038606 -0.06764015 -0.01720853 0.17518163 0.016325884 -0.08579417 -0.02778013 -0.051789418
-0.052340806 -0.0341234 -0.0096481955 -0.05297691 -0.049836818 -0.030320246 0.01099858 0.059081286
-0.013602931 0.020605832 -0.03713149 0.10966377 -0.046852577 -0.074439295 0.030208666 -0.08293095
-0.027380208 -0.038418584 0.01615181 0.113337845 -0.042497054 0.11842169 -0.06292188 0.33062333
-0.076303184 -0.056347515 -0.077303246 -0.033951286 0.011784943 -0.043937553 0.12211263 -0.036500588
0.03638883 0.056987375 -0.07565151 0.03335695 0.058625754 -0.116471514 0.059912816 -0.04681847
-0.0716817 -0.052259248 0.20277962 0.021290181 0.033010714 0.08908123 0.19666392 0.070639074
00000000: e92a b93b 8dc8 163e 2962 4c3a c997 0a3e
00000010: 4c38 21bd 859c 96bc 2137 c83d 0776 a63d
00000020: cd78 9d3d 10fe 213e ebcf 203d 6269 19bd
00000030: 05c6 afbd f82a 93bb d44e 583d 04c0 323d
00000040: 6ee1 bcbd 3191 93bc 4bdb 9dbd f5e1 cebb
00000050: 76b5 353d e341 593e cc34 e2bd 0820 c5bd
00000060: 762d 2dbc 5344 d13d 6bcf f63c 241a 12bd
00000070: 078c 093d d133 a0bd 27db 8e3d ef01 22bd
00000080: c70f 423e e678 ae3b dd64 3b3d 2131 7abd
00000090: 05e5 a8bd e93b 913d 51d7 8ebd 4626 643e
000000a0: 2cf0 a7bb badf 9b3e 3f89 b13d 261f 673b
000000b0: 057a afbd b4e1 6a3d ad0a a13d 0ef0 ccbd
000000c0: 3b77 0a3b f712 a2bc 18f0 90bd c5ac dabd
000000d0: 015e 983c 1e75 81bd 747e ee3d dee5 f63d
000000e0: b35a 63bd 4637 dd3b 4ea0 7b3e b1d2 50bd
000000f0: 9443 723d 670f 86bd 6174 713c 9a00 993e
00000100: 2e42 2a3c 4509 09bd 0025 2bbd 7340 9d3c
00000110: e4ac a0bd ee16 49bd c71d c8bd 5f76 8a3c
00000120: 8c94 8bbc eb86 8abd e7f8 8cbc d062 333e
00000130: dcbd 853c dbb4 afbd 2893 e3bc 2421 54bd
00000140: 5063 56bd fac4 0bbd 7713 1ebc 51fe 58bd
00000150: b121 4cbd 2a62 f8bc 6333 343c 38ff 713d
00000160: d4de 5ebc 90cd a83c 3017 18bd 6697 e03d
00000170: 7de8 3fbd a173 98bd 2a78 f73c b4d7 a9bd
00000180: 754c e0bc ce5c 1dbd cd50 843c ac1d e83d
00000190: 6411 2ebd 1287 f23d 30dd 80bd 7647 a93e
000001a0: d844 9cbd a7cc 66bd 2a51 9ebd 8110 0bbd
000001b0: a215 413c ddf7 33bd 3016 fa3d a481 15bd
000001c0: 740c 153d 986b 693d 2eef 9abd 4ca1 083d
000001d0: 8f21 703d 9e88 eebd 2467 753d b9c4 3fbd
000001e0: dbcd 92bd cb0d 56bd 76a5 4f3e bf68 ae3c
000001f0: 3e36 073d 3870 b63d 4462 493e 38ab 903d

8.weight f4 [49, 128]
0.07913207 -0.08807954 -0.02022996 0.045364268 -0.14026368 0.090691306 -0.19540149 0.09652345
-0.17565688 -0.15389706 -0.10141984 0.01173843 -0.0034668108 -0.0030649917 0.03559766 0.007613123
0.033058625 0.056803692 0.013607468 0.0629578 0.06385593 -0.056730438 -0.08932654 0.090289764
-0.052232884 0.033342745 0.07018081 -0.013394791 -0.058303215 0.008483349 0.08500958 0.06413
-0.09573835 0.081763335 0.016913285 0.07792736 -0.08470745 -0.012728057 0.03163726 -0.18606077
0.0040690335 -0.22070178 -0.035239447 -0.024312066 0.044153117 0.07237289 3.6658857e-05 -0.012526538
0.00024600854 0.03129979 -0.025152259 -0.038652148 -0.058304965 0.051785573 -0.03401827 -0.076697394
0.06629366 0.06523699 -0.027661694 -0.08764115 -0.018591432 -0.082608595 -0.0416148 -0.16389963
-0.07227988 0.07750402 0.004136689 -0.0071477043 -0.030935384 0.055062883 0.10693896 0.08611801
-0.026102806 0.0313471 0.080765955 -0.10575379 -0.054352023 -0.00266286 -0.01937913 0.034929197
-0.035190437 0.08646675 -0.038424343 -0.08563385 -0.03297685 0.07152734 0.04460025 -0.08192984
0.04125706 0.052537363 0.022825269 -0.063286215 -0.06140889 -0.0019107317 -0.13876279 0.031376835
0.08194005 0.03355402 0.03630506 -0.118505895 -0.029861908 -0.17470951 -0.036741856 -0.2278995
0.09818181 0.1776151 -0.056124106 0.047742553 0.006160478 -0.052087728 0.01871738 0.06329946
-0.022421105 0.038338654 0.049109273 0.07138783 -0.02966365 0.030438814 -0.11048907 0.07230371
-0.077555336 -0.060212962 -0.2531283 0.011343784 -0.034093246 -0.14052594 -0.039486807 0.092703864
0.047358632 -0.10230254 0.033607274 0.0013415597 -0.01655619 0.033362422 -0.046884388 0.088658996
-0.17595924 -0.019597443 -0.14564776 -0.039406117 0.04934313 0.033307116 0.08125959 0.0145572815
0.08701327 0.027111666 0.041653037 -0.029192975 0.03811234 -0.14674284 -0.0013147778 0.122195296
-0.023530694 0.012816605 0.032382205 -0.05822728 0.012446126 0.0041380604 -0.045240514 -0.023315765
-0.10212216 -0.011216715 0.12304613 0.050143443 0.026989995 -0.045544807 0.009547532 -0.0980716
0.04072897 -0.2438972 -0.12699029 0.067361385 0.0456829 -0.037894893 0.07580816 0.062153064
-0.03522365 0.031664483 -0.01586265 0.009537416 -0.15010738 -0.067969866 -0.030872814 -0.04457475
-0.06550338 0.011382122 -0.16749485 -0.15130806 0.055288777 -0.0010849372 -0.055269446 -0.105440535
-0.033603102 -0.06841798 0.06332327 0.004750929 -0.051441245 0.04448075 0.0064334394 0.0957245
-0.081541464 -0.021361906 0.03057607 -0.053373415 0.08687979 -0.089324296 -0.06853425 0.00426024
0.036766972 -0.07221097 0.008393963 -0.017922949 0.07692237 0.021438085 0.06436727 -0.13722041
0.08554129 0.07011222 -0.024838304 -0.10659005 -0.08068802 -0.055260196 -0.15556347 0.021673143
-0.037836563 0.026646793 -0.025652561 -0.059671033 0.015502655 -0.25504532 0.04390577 -0.18054208
0.09300854 0.09371435 0.043303482 -0.08536322 0.07905096 0.043623917 -0.07639595 0.09598885
-0.009581105 -0.018565444 -0.010531609 0.0037685751 -0.119495794 -0.012171482 -0.029511146 -0.06516642
-0.042592164 0.050104596 -0.21109633 0.008450802 0.016807577 -0.1830537 -0.059228644 0.021529213
00000000: ff0f a23d 0c63 b4bd 4db9 a5bc e2cf 393d
00000010: 48a1 0fbe 5dbc b93d 5417 48be 16ae c53d
00000020: 66df 33be 3197 1dbe 34b5 cfbd 8b52 403c
00000030: 6f33 63bb 07de 48bb dace 113d 8177 f93b
00000040: 7b68 073d fdaa 683d dcf1 5e3c 05f0 803d
00000050: e6c6 823d 2d5e 68bd d5f0 b6bd d7e9 b83d
00000060: 26f2 55bd 6792 083d f5ba 8f3d d375 5bbc
00000070: 5acf 6ebd bffd 0a3c 8119 ae3d 9756 833d
00000080: 7812 c4bd 8973 a73d bb8d 8a3c 6198 9f3d
00000090: 197b adbd 5789 50bc 1296 013d b786 3ebe
000000a0: 8755 853b a6ff 61be 3d57 10bd 192a c7bc
000000b0: e6d9 343d 3d38 943d 26c2 1938 1c3c 4dbc
000000c0: b5fa 8039 3534 003d 1c0c cebc b751 1ebd
000000d0: 30d1 6ebd 1c1d 543d be56 0bbd 8613 9dbd
000000e0: f8c4 873d f99a 853d c79a e2bc 347d b3bd
000000f0: 0f4d 98bc b22e a9bd 4874 2abd 4ed5 27be
00000100: 7907 94bd 6dba 9e3d 108d 873b 4a37 eabb
00000110: 346c fdbc 9e89 613d d002 db3d a45e b03d
00000120: 8dd5 d5bc d165 003d 9f68 a53d 7195 d8bd
00000130: 3aa0 5ebd 6183 2ebb fbc0 9ebc eb11 0f3d
00000140: d923 10bd 7b15 b13d d862 1dbd cd60 afbd
00000150: bc12 07bd ed7c 923d c0ae 363d d5ca a7bd
00000160: 2afd 283d 6b31 573d 0ffc ba3c 349c 81bd
00000170: e387 7bbd 8471 faba d517 0ebe ff84 003d
00000180: 2fd0 a73d f16f 093d 9db4 143d 38b3 f2bd
00000190: f6a0 f4bc 0de7 32be a17e 16bd 7d5e 69be
000001a0: 8b13 c93d bce0 353e 64e2 65bd b28d 433d
000001b0: d6dd c93b f159 55bd 3155 993c 26a3 813d
000001c0: 77ac b7bc fe08 1d3d ce26 493d c833 923d
000001d0: 2f01 f3bc d25a f93c 1848 e2bd f813 943d
000001e0: 55d5 9ebd dea1 76bd 089a 81be 47db 393c
000001f0: 5ca5 0bbd 08e6 0fbe ebbc 21bd 86db bd3d
00000200: 20fb 413d fe83 d1bd c8a7 093d 46d7 af3a
00000210: d9a0 87bc 09a7 083d d809 40bd d992 b53d
00000220: a92e 34be d18a a0bc b024 15be 4f68 21bd
00000230: 061c 4a3d 0b6d 083d 6e6b a63d aa81 6e3c
00000240: 0334 b23d 4919 de3c 609c 2a3d 1b26 efbc
00000250: af1b 1c3d c143 16be 9f54 acba 8741 fa3d
00000260: 71c3 c0bc bdfc 513c 34a3 043d ba7f 6ebd
00000270: d6ea 4b3c 9198 873b 1e4e 39bd b400 bfbc
00000280: 6c25 d1bd 50c6 37bc 9cff fb3d 3663 4d3d
00000290: 1f1a dd3c 318d 3abd 406d 1c3c c3d9 c8bd
000002a0: 6cd3 263d 30c0 79be be09 02be c4f4 893d
000002b0: fe1d 3b3d ad37 1bbd 4f41 9b3d 3694 7e3d
000002c0: ad46 10bd 9eb2 013d 63f2 81bc d242 1c3c
000002d0: c0b5 19be c933 8bbd fce8 fcbc 0394 36bd
000002e0: a326 86bd 147c 3a3c c583 2bbe 80f0 1abe
000002f0: 7c76 623d 7434 8eba 3762 62bd 35f1 d7bd
00000300: 68a3 09bd ba1e 8cbd a1af 813d aead 9b3b
00000310: 0eb4 52bd 7231 363d 9acf d23b 350b c43d
00000320: 36ff a6bd 2aff aebc ab7a fa3c 159e 5abd
00000330: 08ee b13d a8ef b6bd af5b 8cbd 7c99 8b3b
00000340: f798 163d 58e3 93bd d586 093c 26d3 92bc
00000350: 7a89 9d3d ec9e af3c fdd2 833d 8283 0cbe
00000360: 4630 af3d ff96 8f3d b379 cbbc e24b dabd
00000370: c33f a5bd 8458 62bd 084c 1fbe e08b b13c
00000380: 83fa 1abd 604a da3c 5225 d2bc 9d69 74bd
00000390: d9fe 7d3c 4d95 82be 89d6 333d 06e0 38be
000003a0: 437b be3d 4fed bf3d fe5e 313d e9d2 aebd
000003b0: 78e5 a13d feae 323d 7b75 9cbd cd95 c43d
000003c0: 11fa 1cbc 8f16 98bc c58c 2cbc 33fa 763b
000003d0: 36ba f4bd e56a 47bc 5cc1 f1bc f975 85bd
000003e0: 1f75 2ebd 7a3a 4d3d a329 58be 3c75 0a3c
000003f0: 0bb0 893c 6e72 3bbe bc99 72bd 085e b03c

8.bias f4 [49]
-0.06372098 -0.027017552 -0.060844947 -0.16155809 -0.15496762 -0.22467276 -0.02162127 -0.08388886
-0.2491484 -0.21305288 -0.16774069 -0.077078745 -0.15066457 -0.16963094 -0.24485725 -0.16738144
-0.09077753 -0.15170886 -0.15822513 -0.30701774 -0.069897905 -0.10846775 -0.13939051 -0.083850004
-0.16258518 -0.15225987 -0.057072006 -0.12069286 -0.08917529 -0.06741964 -0.06040007 -0.13303289
-0.056924976 -0.1268549 -0.091358624 -0.11646986 -0.12679172 -0.18171078 -0.08111242 -0.13164586
-0.15010385 -0.115199775 -0.2753957 -0.31872258 -0.14228179 -0.038581908 -0.028265618 -0.10597769
-0.07276638
00000000: 2580 82bd ea53 ddbc 8d38 79bd 7c6f 25be
00000010: d5af 1ebe 9e10 66be 171f b1bc eccd abbd
00000020: c220 7fbe 892a 5abe 37c4 2bbe 76db 9dbd
00000030: d047 1abe bcb3 2dbe dcbb 7abe 0a66 2bbe
00000040: 92e9 b9bd 9159 1bbe c505 22be 6e31 9dbe
00000050: a226 8fbd 5724 debd 63bc 0ebe 8db9 abbd
00000060: bb7c 26be 03ea 1bbe 56c4 69bd d12d f7bd
00000070: 89a1 b6bd 4f13 8abd 1066 77bd c639 08be
00000080: 2a2a 69bd 40e6 01be 3b1a bbbd c087 eebd
00000090: b0d5 01be 6412 3abe 451e a6bd 2cce 06be
000000a0: d3b4 19be dced ebbd aa00 8dbe 9b2f a3be
000000b0: 51b2 11be 1008 1ebd 4c8d e7bc d50a d9bd
000000c0: 8a06 95bd
