models/snapsRandom/model_1685828584.1008942.pt (torch, 252691 bytes, 10 tensors)

0.weight f4 [128, 49]
0	0xbd85f16a	-0.06540187
1	0x3dc95e4d	0.098324396
2	0x3db66287	0.08905511
3	0xbe5318c0	-0.2061491
4	0x3cbefc2b	0.023313602
5	0xbd796c78	-0.06089446
6	0x3ce1be55	0.027556578
7	0x3e0780d6	0.13232741
8	0xbc9c56d2	-0.019084368
9	0xbe209cf8	-0.15684879
10	0x3dab3551	0.08359779
11	0x3e13d8e2	0.14438203
12	0xbd5a5729	-0.05330578
13	0x3dbc8955	0.092058815
14	0x3a3df611	0.00072464446
15	0xbdd39ec6	-0.10333018
16	0x3cb91dea	0.022597272
17	0xbc925c42	-0.017866258
18	0xba2f3241	-0.00066832086
19	0x3d2fba3d	0.04290222
20	0xbdb233ca	-0.08701284
21	0xbd050d53	-0.03248341
22	0x3e19c5f5	0.15016921
23	0x3b626df3	0.0034550398
24	0x3d2fdfa1	0.04293788
25	0xbda8565e	-0.08219598
26	0xbe63e2e1	-0.22254516
27	0xbbecd702	-0.0072277794
28	0x3dfce234	0.12347832
29	0xbe20ec5c	-0.15715164
30	0x3d17f3f8	0.0370979
31	0xbd3190e0	-0.043351054
32	0x3c520947	0.012819595
33	0xbb71bdb0	-0.0036886744
34	0xbd48a387	-0.048984077
35	0x3e849702	0.2589646
36	0x3c81ffc0	0.015869021
37	0xbdadfb2f	-0.08495175
38	0xbe55b4aa	-0.20869699
39	0xbd4e6f31	-0.05039901
40	0x3d08faf5	0.033442456
41	0x3e10b26b	0.14130561
42	0x3c868584	0.016421087
43	0xbd1502b7	-0.036379542
44	0xbddcf554	-0.1078898
45	0x3dfb1a62	0.122608915
46	0x3ddbb3fa	0.10727687
47	0xbceb1a36	-0.028699022
48	0xbd300e45	-0.04298236
49	0xbbd4d806	-0.0064954786
50	0xbddd85ba	-0.10816522
51	0xbdf75bf9	-0.12078089
52	0xbd1135ee	-0.035451822
53	0x3d39c734	0.04535599
54	0x3d335a8f	0.043787535
55	0x3e152ca0	0.14567804
56	0xbb75c1e4	-0.00374996
57	0xbdcf819d	-0.10132144
58	0xbc386f8a	-0.011257062
59	0x3e2f6f7f	0.17132376
60	0x3de96db8	0.1139788
61	0x3d8b9ceb	0.06817039
62	0x3dc63aef	0.096792094
63	0xbe4d7dad	-0.20067473
64	0xbd257dc2	-0.040403135
65	0x3c4f11ba	0.012638504
66	0xbcde7cde	-0.02715915
67	0xbdbb1ab6	-0.09135954
68	0x3e816a34	0.2527634
69	0x3dc001b4	0.09375325
70	0xbddb61d6	-0.1071202
71	0xbcbf1941	-0.023327472
72	0x3e374b4f	0.17899822
73	0xbdad004b	-0.084473215
74	0xbdc5ae80	-0.09652424
75	0x3b59f0b6	0.0033255047
76	0xbcabfc14	-0.020994224
77	0xbde6f4c8	-0.11277157
78	0x3dec01f2	0.115238085
79	0x3e1f547f	0.15559576
80	0xbe0fe0c6	-0.14050588
81	0xbe1254f9	-0.14290227
82	0xbdb1aa3a	-0.08675046
83	0x3dff9896	0.12480275
84	0xbde5adc9	-0.112147875
85	0x3d6f35a6	0.058400773
86	0x3d536997	0.05161437
87	0xbe119b0c	-0.14219302
88	0x3dd64973	0.10463228
89	0x3e2fd5fc	0.17171472
90	0x3c9f2ab3	0.01942954
91	0x3cde0c66	0.027105521
92	0xbc37d0e6	-0.011219239
93	0xbe2805da	-0.16408482
94	0x3d74a657	0.059728947
95	0x3ddae4c7	0.10688167
96	0x3cd64a5c	0.026158504
97	0xbdde2e38	-0.10848659
98	0x3ca23625	0.019801209
99	0xbe282cbd	-0.16423316
100	0x3d1a4da7	0.03767171
101	0xbe776f24	-0.2416349
102	0x3cbbcb39	0.022924053
103	0xbe316bdf	-0.17326306
104	0xba54b9f1	-0.00081148656
105	0x3dc23083	0.09481909
106	0x3daaf1e6	0.0834692
107	0xbd11cbf0	-0.03559488
108	0xbd68a7e9	-0.056800757
109	0x3e3e1a9d	0.1856484
110	0xbe14896b	-0.14505546
111	0x3e28db51	0.16489913
112	0xbdbed94f	-0.09318792
113	0x3cab303a	0.02089702
114	0x3e1e4403	0.15455632
115	0xbe235107	-0.15948878
116	0xbe0a313c	-0.13495344
117	0x3d2ee06a	0.042694487
118	0xbd16a340	-0.03677678
119	0x3dd76c4b	0.10518702
120	0xbd8fe106	-0.07025342
121	0xbe002c04	-0.1251679
122	0xbd683f7a	-0.05670116
123	0x3d3ca030	0.046051204
124	0xbe0f31fb	-0.1398391
125	0x3d702f1c	0.058638677
126	0xbe041fb8	-0.12902725
127	0x3d8364bb	0.06415697
128	0x3ccdd538	0.025126085
129	0xbcf95f40	-0.030440927
130	0x3da805d1	0.082042344
131	0xbe05cdbe	-0.13066766
132	0x3cd4d189	0.02597882
133	0xbe2b0788	-0.16702092
134	0xbca08a63	-0.019597238
135	0xbd802430	-0.06256902
136	0xbdad4256	-0.08459918
137	0xbd9bb6e1	-0.07603241
138	0xbdc0a3a2	-0.094062105
139	0x3e2bfa4f	0.16794704
140	0xbd4d6180	-0.05014181
141	0xbccd6e64	-0.025077052
142	0xbd851c9b	-0.06499597
143	0x3d9911c0	0.07474089
144	0xbd08a83e	-0.033363573
145	0xbd7e1286	-0.062029384
146	0x3d9aa3aa	0.07550748
147	0x3c844849	0.01614775
148	0x3dadb885	0.0848246
149	0xbc28a30f	-0.010292782
150	0x3d827be7	0.06371289
151	0x3e555d6a	0.20836416
152	0x3d024ba1	0.031810407
153	0x3de3bc94	0.11119953
154	0x3dea7825	0.11448697
155	0x3dbda986	0.0926085
156	0x3e1318f2	0.14364985
157	0x3d7a1069	0.061050806
158	0xbd6e0983	-0.05811454
159	0x3c872be4	0.01650042
160	0xbdb7d045	-0.08975271
161	0x3dfbdd8d	0.12298117
162	0x3e36011f	0.17773865
163	0x3da70e16	0.081569836
164	0x3dea43b1	0.11438692
165	0xbd8aca5b	-0.067768775
166	0xbe1f9cef	-0.15587209
167	0x3ddf8d6a	0.109156445
168	0x3d4e21b1	0.0503251
169	0x3ced541e	0.028970774
170	0x3ce8957b	0.02839159
171	0x3c087fee	0.008331282
172	0xbe0126f5	-0.12612517
173	0xbe70449e	-0.23463675
174	0x3d9b9cf4	0.07598296
175	0xbd503417	-0.050830927
176	0xbd915e1d	-0.07098029
177	0xbdb722de	-0.08942197
178	0x3d5e6d85	0.054303665
179	0xbd6024e8	-0.054722697
180	0xbca8d345	-0.020608554
181	0x3ea903d3	0.3301073
182	0x3cf0db56	0.029401463
183	0x3e473f7a	0.19457808
184	0x3d624608	0.05524257
185	0xbdcefa2e	-0.10106312
186	0xbd7b39ab	-0.061334293
187	0x3d8f4008	0.06994635
188	0xbdb9d9e2	-0.09074761
189	0xbe0de809	-0.13858046
190	0x3b07fc8c	0.0020749895
191	0xbdda0696	-0.106457874
192	0xbcff9abc	-0.031201713
193	0xbda2fd3c	-0.07958457
194	0x3c0e8c70	0.008700475
195	0x3d9c25f8	0.076244295
196	0x3cbffa44	0.023434766
197	0xbd628795	-0.055305082
198	0x3d1f30d6	0.038864933
199	0xbca620db	-0.020279339
200	0xbe20d4ad	-0.1570613
201	0x3d138f86	0.036025546
202	0x3e95dbcb	0.2926925
203	0x3c89e7ed	0.016834224
204	0x3cd63b12	0.026151214
205	0xbb814f64	-0.0039462317
206	0x3d184a91	0.037180487
207	0xbdfadf2f	-0.122496
208	0xbd7b9692	-0.061422892
209	0xbde0aa46	-0.10969977
210	0xbdc1a84f	-0.094559304
211	0xbe083145	-0.13300045
212	0x3d3dfa2b	0.046381157
213	0x3d1e1045	0.038589735
214	0xbe4d8df0	-0.20073676
215	0x3d4da577	0.050206628
216	0xbd82c356	-0.063849136
217	0x3c949303	0.018136507
218	0xbd195cca	-0.037442006
219	0xbc16fe8b	-0.009215961
220	0xbddb6e73	-0.10714426
221	0x3d7f7887	0.062370803
222	0xbe0bf9f9	-0.13669576
223	0xbe13b5a8	-0.14424765
224	0xbca0015d	-0.0195319
225	0xbd1d316e	-0.038377218
226	0x3e9f93a4	0.31167328
227	0x3b8b00bd	0.0042420314
228	0x3bbfb839	0.0058508185
229	0x3dc0f836	0.094223425
230	0xba84e256	-0.0010138254
231	0xbc10f62f	-0.008847757
232	0x3dd53316	0.104101345
233	0x3de4253d	0.11139915
234	0xbe18ab28	-0.14909041
235	0xbd20484b	-0.039131444
236	0xbe79d29a	-0.24396744
237	0xbd79b411	-0.06096274
238	0xbe92f8ef	-0.28705546
239	0x3d29c2b5	0.041445453
240	0xbbd779fa	-0.00657582
241	0xbc74b314	-0.014935274
242	0x3d10a509	0.03531364
243	0x3db9c7c8	0.090713084
244	0xbcc74f8a	-0.02432992
245	0xbb8499dd	-0.0040466622
246	0x3dd2d2d2	0.10294117
247	0x3c845aea	0.016156632
248	0x3dc22dcd	0.09481392
249	0x3e0ef7ad	0.13961668
250	0xbd56286d	-0.052284647
251	0x3d8c3c74	0.06847468
252	0xbdd26bd2	-0.10274471
253	0x3e660c41	0.22465612
254	0x3daf2180	0.085513115
255	0xbcd30579	-0.025759446

0.bias f4 [128]
0	0x3e0c8b34	0.13724977
1	0x3e410f02	0.18853381
2	0xbcb5a260	-0.022172153
3	0xbe429aa2	-0.190043
4	0x3db1215e	0.086489424
5	0x3e380194	0.17969352
6	0xbdf20f48	-0.11819321
7	0x3ee3d2e4	0.44496834
8	0x3ecf89f6	0.40534943
9	0xbe713283	-0.23554425
10	0x3e8a4eba	0.2701319
11	0x3e8cef15	0.27526155
12	0xbda26314	-0.07929054
13	0xbdd689d5	-0.10475508
14	0x3e609461	0.21931602
15	0x3d3762fd	0.044772137
16	0xbd9476c8	-0.07249218
17	0xbe3093c1	-0.17243864
18	0xbbf71b38	-0.0075410865
19	0x3e662d8e	0.22478315
20	0x3ab2eba3	0.0013650547
21	0xbe48cd21	-0.196095
22	0xbe674c07	-0.22587596
23	0xbe03e20a	-0.12879196
24	0xbdcdd80f	-0.100509755
25	0xbd5aa28e	-0.05337768
26	0x3eb738cf	0.3578553
27	0x3f033a7c	0.51261115
28	0xbe15239c	-0.14564365
29	0x3e8ae214	0.2712561
30	0x3d9ac8e1	0.07557846
31	0xbeb79e84	-0.35863125
32	0xbdd42850	-0.103592515
33	0xbea29738	-0.31755996
34	0xbdd7b641	-0.10532809
35	0x3d2fbbea	0.04290382
36	0x3e965b92	0.29366738
37	0xbd53723f	-0.051622625
38	0x3d17a117	0.03701886
39	0xbd0c1d47	-0.03420761
40	0xbe3c5bd0	-0.18394399
41	0xbd3f8157	-0.046754207
42	0x3cc9134b	0.024545332
43	0xbdeafb33	-0.11473694
44	0xbdd883df	-0.105720274
45	0xbd8891ba	-0.0666842
46	0x3e5c5805	0.21517952
47	0x3dc13592	0.09434046
48	0xbe995716	-0.29949254
49	0x3e877794	0.26458418
50	0xbe1ffd66	-0.15624008
51	0xbcee973d	-0.02912485
52	0xbe943347	-0.28945372
53	0xbdb8666a	-0.09003909
54	0x3e763695	0.24044259
55	0xbc8d5e37	-0.01725684
56	0x3ed5a9e4	0.4173118
57	0xbe333572	-0.17500857
58	0xbd6ab7c3	-0.057304155
59	0xbe9124da	-0.28348428
60	0xbd02d494	-0.03194101
61	0xbe72f42f	-0.23725961
62	0xbe2b4567	-0.16725694
63	0xbe2ad658	-0.16683328
64	0xbe411023	-0.18853812
65	0x3e28a8ba	0.16470614
66	0xbe371387	-0.17878543
67	0xbd24400c	-0.040100142
68	0xbde6088a	-0.112320974
69	0xbdf5fc1f	-0.12010979
70	0x3edb5a14	0.42842162
71	0xbe205a96	-0.15659556
72	0x3e41b2f7	0.18915926
73	0xbe70dc07	-0.23521434
74	0x3d797982	0.060906895
75	0xbe897c6f	-0.26852748
76	0xbd57602e	-0.05258196
77	0xbbb2d3c5	-0.005457374
78	0xbe1d018d	-0.15332623
79	0xbe8cbe91	-0.2748914
80	0xbea560ce	-0.3230042
81	0xbe62b1b6	-0.22138104
82	0xbe46d7da	-0.19418278
83	0x3d001b76	0.03127619
84	0xbe9295a2	-0.28629786
85	0xbda0def2	-0.078550234
86	0x3ec9ad7f	0.3939018
87	0x3dfabf35	0.12243501
88	0xbda99aa9	-0.08281452
89	0xbe7b133f	-0.2451906
90	0x3c53c089	0.012924322
91	0xbde192b5	-0.1101431
92	0xbe4109f7	-0.18851458
93	0xbe2f58be	-0.17123696
94	0x3e8b0c20	0.27157688
95	0xbe9529f4	-0.2913357
96	0xbd445bf2	-0.04793925
97	0xbda7725a	-0.08176108
98	0x3e0e7442	0.13911536
99	0xbe8962b6	-0.26833123
100	0x3e700372	0.23438814
101	0xbe4a6787	-0.19766055
102	0xbe668f95	-0.2251571
103	0xbebad57d	-0.36491004
104	0xbeb4a263	-0.3528014
105	0xbeb670b2	-0.35632855
106	0x3e987eb4	0.29784167
107	0xbe2301e2	-0.15918687
108	0xbde91d81	-0.113825805
109	0xbdc53375	-0.09628955
110	0xbe45395a	-0.19260159
111	0xbdc07db1	-0.09398974
112	0xbd25ea22	-0.04050649
113	0xbec0eec4	-0.37682164
114	0x3ef60a06	0.48054522
115	0xbe73deab	-0.2381541
116	0x3c970bb6	0.018438201
117	0xbc9acc08	-0.018896118
118	0xbe90ccb3	-0.28281173
119	0xbdf27170	-0.11838043
120	0x3e27116c	0.1631524
121	0xbed40902	-0.41413122
122	0x3e8cc0fe	0.2749099
123	0xbcaaaccc	-0.02083435
124	0x3ddc84d4	0.107675225
125	0x3ddab896	0.10679738
126	0xbbb6cb67	-0.0055784467
127	0x3d8cd7cd	0.06877098

2.weight f4 [128, 128]
0	0x3d2ae543	0.041722547
1	0xbc3474a5	-0.011014138
2	0xbd070c27	-0.032970574
3	0xbd80ca3c	-0.06288573
4	0x3d8f9ccc	0.070123285
5	0xb9c84b54	-0.00038203096
6	0xbd330df5	-0.043714482
7	0x3c4997a8	0.012304224
8	0x3bf37e9a	0.0074308636
9	0xbd019ca8	-0.03164354
10	0x3c555d50	0.013022736
11	0x3d8ee1d7	0.06976669
12	0xbb58d882	-0.0033088033
13	0xbd3eabc2	-0.04655052
14	0x3d916614	0.07099548
15	0xbd7f9b3b	-0.0624039
16	0xbd82cc4b	-0.06386622
17	0xbd2a47c6	-0.041572355
18	0xbdb5e0ea	-0.088807896
19	0x3d069b4f	0.032862958
20	0x3da5c2f4	0.08093825
21	0xbda9179b	-0.082564555
22	0x3d20b0be	0.039231054
23	0x3b9566ce	0.0045593744
24	0xbc283944	-0.010267559
25	0xbd7e0063	-0.062012088
26	0xbcfc46e0	-0.030795515
27	0xbca495df	-0.020090995
28	0x3cada226	0.021195482
29	0x3cde19a8	0.027111843
30	0xbd9e0102	-0.07715036
31	0xbca11c35	-0.01966677
32	0xbc58ae34	-0.013225127
33	0xbbb68abf	-0.005570739
34	0xbd85f8ea	-0.06541617
35	0x3d23d9b9	0.04000256
36	0x3c7572b4	0.014980961
37	0xbd6cf4f1	-0.05785078
38	0xbd596752	-0.05307705
39	0xbc57b3c4	-0.013165418
40	0x3c456820	0.012048751
41	0xbd82a033	-0.06378212
42	0x3b6224ac	0.0034506721
43	0xbd367e8e	-0.044554286
44	0xbc0578fd	-0.008146522
45	0x3bb7f141	0.0056134765
46	0x3cb96941	0.022633197
47	0x3b9fd351	0.004877486
48	0xbd619e2a	-0.055082478
49	0xbd8399b2	-0.064257994
50	0x3d0c376b	0.03423254
51	0x3da24e3e	0.0792508
52	0xbd62cf61	-0.055373553
53	0xbd607929	-0.054803047
54	0x3c3801c4	0.01123089
55	0xbca114b4	-0.019663192
56	0x3dbc7b1f	0.09203171
57	0x3d9246f4	0.071424395
58	0x3c0c7596	0.008572957
59	0x3db811c6	0.08987765
60	0x3da3441b	0.079719745
61	0xbbbe6441	-0.005810291
62	0x3d71446f	0.058903154
63	0xbdb98cdb	-0.09060069
64	0xbcd1cbea	-0.02560993
65	0x3d7ca83f	0.06168389
66	0xbd6b7e62	-0.057493575
67	0xbbfa7393	-0.007643172
68	0xbd99fb35	-0.07518617
69	0x3db1167a	0.08646865
70	0x3d86a5cc	0.06574592
71	0xbd3b2fe7	-0.04569998
72	0x3da7767e	0.081768975
73	0xbd48da55	-0.049036343
74	0x3d786359	0.06064162
75	0xbbb06ea7	-0.0053842845
76	0xbc87cc32	-0.01657686
77	0x3d83c665	0.06434325
78	0xbdb1de9b	-0.08685037
79	0xbd3facae	-0.04679554
80	0xbbe98800	-0.007126808
81	0xbdb2f27f	-0.08737659
82	0x3c88d5c7	0.0167035
83	0xbda061a3	-0.07831123
84	0xbd821052	-0.06350769
85	0x3cfc2f24	0.030784197
86	0x3b38d3dd	0.0028202452
87	0x3da4481e	0.08021568
88	0xbda47d36	-0.080316946
89	0x3d918dc6	0.07107119
90	0x3d7430e0	0.059616923
91	0xbc5c1f84	-0.013435248
92	0x3d2fb0c8	0.0428932
93	0xbda1f7ba	-0.07908578
94	0xbda2ffc3	-0.07958939
95	0xbd7101c0	-0.05883956
96	0xbd998883	-0.07496741
97	0xbd9e4f34	-0.077299505
98	0x3cefbfa8	0.029266194
99	0x3dadac24	0.08480099
100	0x3b581c05	0.0032975685
101	0xbd0edf59	-0.03488097
102	0xbd7551e9	-0.05989257
103	0xbce7b715	-0.028285543
104	0x3d558336	0.052127086
105	0xbd504ab7	-0.050852504
106	0xbd26e656	-0.04074701
107	0xbda5b890	-0.08091843
108	0x3cc464ec	0.023973905
109	0x3d8e87d8	0.06959504
110	0x3d346024	0.044037
111	0x3d9836cf	0.07432329
112	0x3d7bc156	0.061463676
113	0xbb6b4a57	-0.0035902464
114	0xbd7d1157	-0.061784115
115	0x3d93886d	0.072037555
116	0xbd4cbfc3	-0.049987566
117	0x3dbb3d65	0.091425695
118	0xbd58f809	-0.05297092
119	0x3be02db7	0.006841387
120	0x3caf1f65	0.021377275
121	0x3d626788	0.055274516
122	0x3b9bf12b	0.004758974
123	0xbda93bf8	-0.08263391
124	0x3aadc955	0.0013258854
125	0x3dbcc744	0.092176944
126	0x3c382f2c	0.011241715
127	0x3d4ad2dc	0.049517497
128	0xbcfeab3e	-0.031087514
129	0xbd6278fe	-0.05529117
130	0x3d5422b1	0.051790897
131	0x3d368b16	0.044566236
132	0xbc9ee53b	-0.019396415
133	0xbcd99f4a	-0.026565213
134	0xbd1b5ba9	-0.03792921
135	0x3bea6d57	0.0071541476
136	0x3d806610	0.06269467
137	0xbdacd13c	-0.08438346
138	0x3b1e302b	0.0024137597
139	0x3c597944	0.013273541
140	0xbbd4fe05	-0.006500008
141	0x3d46df75	0.04855295
142	0x3cd57d6f	0.026060788
143	0x3d8470b6	0.064668104
144	0xbd431805	-0.04763033
145	0xbc84c138	-0.016205415
146	0xbc836459	-0.01603906
147	0xbd3b6bcb	-0.045757096
148	0xbd230363	-0.03979815
149	0xbd029bf7	-0.03188702
150	0xbd030e8a	-0.031996287
151	0xbd39798f	-0.045281943
152	0x3bbd713c	0.005781321
153	0xbda8a96f	-0.08235442
154	0x3dab994a	0.08378847
155	0xbd0aeb3e	-0.03391575
156	0x3d6ce715	0.057837564
157	0x3b84bfd3	0.0040511875
158	0xbd99ba78	-0.07506269
159	0xbdb7108f	-0.08938705
160	0xbc72be82	-0.014815928
161	0x3d4f88ec	0.05066769
162	0x3bf2cea7	0.007409889
163	0x3d5a8caf	0.053356823
164	0xbd6c1abf	-0.057642695
165	0xbdaed50b	-0.085367285
166	0xbdb033b8	-0.086036146
167	0x3c93c4f7	0.018038256
168	0x3d302a81	0.043009285
169	0xbd2638a7	-0.04058137
170	0x3cb0594c	0.021526955
171	0xbd902245	-0.070377864
172	0xbc635c24	-0.0138769485
173	0x3d962ae1	0.07332397
174	0xbd19a0d6	-0.0375069
175	0x3d8f91ab	0.07010206
176	0xbd64ed2a	-0.05589024
177	0xbd5678f6	-0.05236145
178	0x3d95660c	0.072948545
179	0x3d916647	0.07099586
180	0x3c91507f	0.017738579
181	0xbcbd1b6c	-0.023084365
182	0x3d11e88d	0.03562217
183	0x3ce2a4c8	0.027666464
184	0xbd24dc04	-0.040248886
185	0xbd935a3d	-0.07194946
186	0xbc537142	-0.012905421
187	0xbd3d1dd6	-0.046171032
188	0xbd12697f	-0.03574514
189	0x3c9a1f89	0.018813865
190	0x3d91f9e4	0.07127741
191	0x3d8949f0	0.067035556
192	0x3d84e92e	0.06489788
193	0x3d017b32	0.03161163
194	0x3cdc59c8	0.02689828
195	0xbc97c7df	-0.018527923
196	0x3c01f745	0.007932489
197	0xbbc67abd	-0.006057112
198	0xbd85e639	-0.06538052
199	0x3db0b406	0.08628087
200	0x3d77b666	0.060476683
201	0x3c0519eb	0.008123855
202	0x3d2d28ef	0.042275365
203	0x3d31799c	0.043328866
204	0x3d856ff5	0.06515495
205	0x3d436907	0.047707584
206	0xbc871912	-0.016491447
207	0xbca85512	-0.020548377
208	0xbd607203	-0.05479623
209	0x3bf56360	0.007488653
210	0x3d89d463	0.06729963
211	0xbda60429	-0.08106262
212	0x3ca5a0ab	0.020218214
213	0xbd5ec426	-0.05438628
214	0x3d953ce1	0.07287002
215	0xbda33580	-0.07969189
216	0x3c338520	0.010957032
217	0x3d5686ec	0.052374765
218	0xbcf328fb	-0.029682627
219	0x3bd55e58	0.006511491
220	0x3cd13b93	0.025541103
221	0xbb8aa943	-0.0042316034
222	0xbd2418ab	-0.040062588
223	0x3da8e292	0.0824634
224	0xbdaeeb64	-0.08540991
225	0xbd71dae6	-0.05904665
226	0xbcf3e2c6	-0.02977122
227	0x3ba7a6a5	0.005116301
228	0xbcb31b58	-0.021863624
229	0x3c708cfd	0.014682052
230	0xbc8fb4cb	-0.017542263
231	0xbd33c09d	-0.043884862
232	0x3bb00c63	0.0053725704
233	0x3d8814e0	0.066446066
234	0x3d16fd62	0.03686274
235	0x3cbd31c0	0.023095012
236	0xbd5f95b6	-0.054586135
237	0x3d33b73c	0.043875918
238	0xbc5730e6	-0.013134217
239	0x3d5e65c3	0.054296266
240	0xbd08d277	-0.03340384
241	0xbd8e823d	-0.06958435
242	0x3d6038a8	0.05474153
243	0xbc9b9018	-0.018989608
244	0xbd082440	-0.033237696
245	0x3d21c6e2	0.03949631
246	0xb9dbb831	-0.00041908168
247	0xbd0b41d5	-0.03399833
248	0xbc7a0658	-0.0152603015
249	0xbb05ae05	-0.0020397913
250	0x3b6549a2	0.0034986516
251	0x3d79c659	0.060980175
252	0xbd1f1fb6	-0.0388486
253	0xbd0b6392	-0.034030505
254	0xbbbbd18a	-0.005731766
255	0xbacc590f	-0.0015590506

2.bias f4 [128]
0	0x3dc4893d	0.095964886
1	0xbd5e0950	-0.0542081
2	0xbd9fbd15	-0.077997364
3	0x3ce14818	0.027500197
4	0x3dcb96e4	0.099408895
5	0xbdca731a	-0.09885235
6	0xbd139b70	-0.03603691
7	0x3d731d40	0.059354067
8	0xbd3edea9	-0.046599064
9	0xbdf4c89f	-0.11952328
10	0x3c79b713	0.015241402
11	0xbd13624d	-0.03598242
12	0xbd9c9a44	-0.07646611
13	0xbd239f66	-0.039946936
14	0xbe4ebdbd	-0.20189567
15	0x3e1eb193	0.15497427
16	0x3cd1fc16	0.0256329
17	0x3cc83370	0.02443859
18	0xbc27cba4	-0.010241423
19	0xbc54a265	-0.012978171
20	0x3cd61e43	0.026137477
21	0xbd6ed3e8	-0.05830756
22	0x3e035d7f	0.12828635
23	0xbd032272	-0.03201527
24	0xbdeb6310	-0.11493504
25	0xbd5e23cf	-0.05423337
26	0xbd0bf179	-0.034165833
27	0x3b537b6a	0.0032269605
28	0xbd1b83aa	-0.03796736
29	0x3d1a7efc	0.037718758
30	0x3d872556	0.06598918
31	0xbb871670	-0.004122548
32	0x3e1d0f93	0.15337972
33	0x3deb7c70	0.11498344
34	0xbe58e1c0	-0.21179867
35	0x3cf31268	0.029671863
36	0x3da1ba27	0.07896834
37	0xbcb6e1e4	-0.02232451
38	0xbeb6c0fe	-0.35694116
39	0xbd2d0cf4	-0.04224868
40	0xbcdddc16	-0.027082484
41	0xbd0a430e	-0.033755355
42	0xbd47e823	-0.048805367
43	0xbdecda85	-0.11565117
44	0xbc49022b	-0.012268583
45	0x3d980c81	0.0742426
46	0x3ddaf760	0.10691714
47	0xbd0a5528	-0.033772618
48	0xbdd96528	-0.10614997
49	0x3e46d64b	0.19417684
50	0x3dfe553b	0.124186
51	0x3dd7d0ad	0.105378486
52	0xbb75f5f2	-0.0037530628
53	0xbc2e40cd	-0.010635567
54	0xbd119d92	-0.03555066
55	0x3c1bf401	0.009518624
56	0x3dac8f3e	0.08425759
57	0xbc114a44	-0.008867804
58	0xbb72523e	-0.003697529
59	0xbc8d3ffe	-0.017242428
60	0xbde14a83	-0.1100054
61	0x3ce3a5e4	0.027789064
62	0x3dce33a2	0.10068442
63	0x3d80498e	0.062640294
64	0xbd5c75bb	-0.053823214
65	0x3d97cff1	0.074127086
66	0x3c1c4ee3	0.009540292
67	0xbd39e6cb	-0.045386117
68	0x39ef8f5a	0.00045692438
69	0xbe3f2a3d	-0.18668456
70	0xbd8b086e	-0.06788717
71	0x3db4b819	0.08824176
72	0xbdbaccb7	-0.091210775
73	0x3e08adf8	0.13347614
74	0xbc1e3f24	-0.009658609
75	0x3d814f3e	0.063139424
76	0xbcfa8719	-0.030581998
77	0xbe6d6500	-0.2318306
78	0xbce99044	-0.028511174
79	0x3c51b68f	0.012799873
80	0x3c188962	0.009310098
81	0x3c9d4921	0.01919991
82	0xbcfea647	-0.031085147
83	0xbcc5c3c8	-0.024141207
84	0xbe782951	-0.24234511
85	0x3c39ffc2	0.011352481
86	0xbdb9d3a1	-0.09073568
87	0xbdf2e945	-0.11860899
88	0x3ea148fc	0.31500995
89	0xbe45e9f7	-0.19327532
90	0xbd9aecff	-0.07564735
91	0x3cd927ed	0.026508296
92	0xbbfc2f4f	-0.0076960693
93	0x3d984d2f	0.074365966
94	0xbe354fa4	-0.17706162
95	0x3ca7b300	0.020471096
96	0x3d411cce	0.04714661
97	0x3d127811	0.035759035
98	0xbd3fb06e	-0.046799116
99	0x3e0434bd	0.12910743
100	0x3b2faa38	0.002680434
101	0xbbacf4e5	-0.005278217
102	0xbd2a87ff	-0.041633602
103	0xbda1876e	-0.07887159
104	0x3debdba6	0.11516504
105	0x3e590d59	0.21196498
106	0xbdda945f	-0.10672831
107	0x3d7eee27	0.06223884
108	0xbd7105fa	-0.05884359
109	0xbe553afe	-0.20823285
110	0xbd6e083a	-0.058113314
111	0xbe09c082	-0.13452342
112	0x3cb7348d	0.022363925
113	0xbdb2281c	-0.086990565
114	0xbd991931	-0.07475508
115	0x3cad66aa	0.021167118
116	0xbd59f335	-0.053210456
117	0xbc50fb9f	-0.012755304
118	0x3c304144	0.010757748
119	0xbc58a7a8	-0.013223566
120	0x3d211b05	0.03933241
121	0x3da267db	0.07929965
122	0x3dd89700	0.10575676
123	0xbdcef07b	-0.10104462
124	0xbbae001d	-0.005310072
125	0x3deb9378	0.11502737
126	0xbc0a2227	-0.008430994
127	0xbc4d659f	-0.012536435

4.weight f4 [128, 128]
0	0x3d444715	0.04791935
1	0x3cc85a06	0.024456989
2	0xbd186c5b	-0.03721271
3	0x3d4f3748	0.05058983
4	0x3ab12cdb	0.0013517396
5	0xbd4aee38	-0.04954359
6	0x3bdc54af	0.0067239623
7	0xbc143a71	-0.009047137
8	0x3cd535bc	0.0260266
9	0x3c5f9c39	0.013648086
10	0x3d8adead	0.06780753
11	0x3bdfbee1	0.0068281745
12	0x3c01527b	0.0078932
13	0xbbe2d38a	-0.00692219
14	0xbd7cc954	-0.06171544
15	0x3d31e181	0.043427948
16	0x3d97bb72	0.07408799
17	0xbd1c8138	-0.03820917
18	0xbd6ce89f	-0.057839032
19	0xbd0c0b14	-0.034190252
20	0xbb5a0efe	-0.0033273096
21	0x3d939afe	0.07207297
22	0xbc8417ce	-0.016124632
23	0x3da645e0	0.08118796
24	0x3d924ecd	0.07143936
25	0xbd901441	-0.07035113
26	0xbdb28ae0	-0.087178946
27	0xbc14668b	-0.009057651
28	0xbc3b2173	-0.011421549
29	0x3c3d8cdf	0.011569231
30	0xbc0deea4	-0.008662853
31	0xbd1f91a2	-0.038957246
32	0x3c7b0488	0.015320905
33	0xbd3382c4	-0.04382588
34	0x3d439568	0.047749907
35	0x3d811249	0.06302316
36	0xbd94860e	-0.072521314
37	0xbd8895f0	-0.06669223
38	0x3d897d0a	0.067133024
39	0xbca1c288	-0.01974608
40	0x3d12eb95	0.0358692
41	0xbdad86a2	-0.08472945
42	0xbd58d3ab	-0.052936237
43	0xbd8de969	-0.06929285
44	0xbcfc7812	-0.030818973
45	0xbd88e7e0	-0.06684852
46	0xbd025b31	-0.03182525
47	0x3bcb2bf1	0.0062003066
48	0xbd0b8cae	-0.03406971
49	0x3d337065	0.04380836
50	0xbd0b554b	-0.03401689
51	0xbd8b288d	-0.06794844
52	0xbcbcd09e	-0.023048695
53	0x3d43963d	0.0477507
54	0xbc8e207f	-0.01734948
55	0xbd3c1a86	-0.045923732
56	0xbd06442e	-0.032779865
57	0x3d8fde84	0.07024863
58	0xbd930197	-0.071780376
59	0xbd48271b	-0.04886542
60	0xbd98d375	-0.07462207
61	0x3d9944d7	0.07483833
62	0xbd44a61a	-0.04800997
63	0x3da1ac19	0.07894153
64	0xbca365a2	-0.019945923
65	0xbd67cfbd	-0.0565946
66	0xbd31a097	-0.04336604
67	0xbd8d0fa2	-0.06887747
68	0x3c5c40f2	0.013443219
69	0xbd09090c	-0.033455893
70	0x3da153c3	0.078773044
71	0x3c02d869	0.0079861665
72	0x3c8268b4	0.015919067
73	0xbd26a5fa	-0.04068563
74	0xbcdfa153	-0.027298605
75	0xbd44abe4	-0.04801549
76	0x3cd3ca3f	0.025853274
77	0x3d2e6bfc	0.04258345
78	0xbd671831	-0.056419555
79	0x3d2038b2	0.03911657
80	0xbdada5b7	-0.08478873
81	0x3d548ddb	0.051893096
82	0x3d3d6a54	0.04624398
83	0xbccb2793	-0.024799144
84	0x3c8e367a	0.01735996
85	0xbd79809f	-0.06091368
86	0xbc89ef64	-0.016837783
87	0x3cbf7b87	0.023374332
88	0x3d3146de	0.043280475
89	0xbd9203bb	-0.07129618
90	0xbd96bf78	-0.073607385
91	0x3d8da72e	0.069166526
92	0x3cfdea1b	0.03099542
93	0x3d9c9840	0.07646227
94	0xbda0c1d6	-0.07849471
95	0xbd285a82	-0.04110194
96	0xbd19421f	-0.037416574
97	0xbc815a78	-0.01579021
98	0x3c069b45	0.00821573
99	0xbc95a740	-0.018268228
100	0x3d40ccd2	0.047070332
101	0xbd5a57e0	-0.05330646
102	0x3d99ee16	0.075161144
103	0xbd3191f2	-0.043352075
104	0x3d473b35	0.04864045
105	0x3d94c8db	0.07264873
106	0xbda010cd	-0.078157045
107	0x3cc919d3	0.024548447
108	0x3ca71786	0.020396959
109	0x3da538bc	0.08067462
110	0x3d49b3b9	0.049243663
111	0xbdb1d5f3	-0.08683386
112	0xbd027013	-0.031845164
113	0xbd8de912	-0.0692922
114	0xbd3f4c8f	-0.04670387
115	0xbcd8b0fd	-0.026451582
116	0x3d099849	0.033592496
117	0xbdaef8b7	-0.08543532
118	0x3bb06233	0.0053828
119	0xbda3efc0	-0.08004713
120	0xbc8b341e	-0.016992625
121	0xbdab316d	-0.083590366
122	0xbd76fd6a	-0.06030027
123	0xbd1e2512	-0.03860957
124	0x3d10c909	0.035347972
125	0xbd497ecf	-0.0491932
126	0xbd5632ed	-0.05229466
127	0x3d1eb028	0.038742214
128	0xbd293a2a	-0.041315235
129	0x3d064c5d	0.03278767
130	0x3dbf5684	0.093426734
131	0x3d9a30bf	0.07528829
132	0xbbcc86ba	-0.0062416466
133	0x3d35dfdb	0.04440294
134	0xbcbe5df0	-0.023238152
135	0x3d89b5aa	0.06724103
136	0xbb1e9d3e	-0.002420261
137	0x3bd41e17	0.0064733136
138	0xbda52849	-0.080643244
139	0x3d992ecd	0.0747963
140	0x3d7a655a	0.061131813
141	0xbc0521ff	-0.008125781
142	0xbd31278d	-0.04325061
143	0xbcef8188	-0.02923657
144	0xbda4f58d	-0.080546476
145	0xbd61833b	-0.05505679
146	0x3d2b24d8	0.041783184
147	0xbd6167ba	-0.055030562
148	0x3d056907	0.032570865
149	0xbd2a5109	-0.041581187
150	0xbd1f33e9	-0.038867865
151	0xbd9ec661	-0.077526815
152	0x3ba94e5e	0.005166813
153	0xbcee0825	-0.029056618
154	0xbd1db93d	-0.038506735
155	0x3b05fa5a	0.002044341
156	0xbd1e8970	-0.03870529
157	0x3c848179	0.016175019
158	0x3d760267	0.060060885
159	0xbd04dfe4	-0.03244008
160	0x3d00dfa4	0.03146328
161	0xbcbdad96	-0.023154061
162	0x3caf8298	0.021424577
163	0xbd8b6895	-0.06807057
164	0xbd73ad62	-0.059491523
165	0xbd2ede99	-0.042692754
166	0xbb8dc206	-0.004326108
167	0xbc9ffca4	-0.019529648
168	0xbcda3625	-0.026637146
169	0x3d5d51c8	0.05403307
170	0xbd83a4b7	-0.06427901
171	0x3db4a6e9	0.08820898
172	0x3c8bd01b	0.017067006
173	0xbb834988	-0.0040065683
174	0x3d8269d6	0.06367843
175	0x3d8493d6	0.0647351
176	0xbc8c73ac	-0.017145
177	0x3d205643	0.039144766
178	0xbcf45ed0	-0.029830366
179	0x3d57037d	0.05249356
180	0x3d6c635c	0.057711944
181	0x3ca377b9	0.01995455
182	0x3c2b4c38	0.010455184
183	0xbd038e34	-0.032118037
184	0xbccac29e	-0.024751004
185	0x3d8f7bc6	0.0700603
186	0x3cdd04f5	0.026979903
187	0x3d07b7bb	0.033134203
188	0xbbd3d2a9	-0.0064643216
189	0xbc242e64	-0.010020826
190	0x3d7371bd	0.05943464
191	0xbd8b405e	-0.067993864
192	0x3c66ddb4	0.014090944
193	0xbc814f8f	-0.015785007
194	0xbce0d8e6	-0.027447175
195	0xbdad39dc	-0.084583014
196	0x3d8972b6	0.067113325
197	0xbd969915	-0.07353417
198	0xbcb89762	-0.022533122
199	0x3c2eccf2	0.01066898
200	0x3d59dd75	0.053189714
201	0xbdb6c06b	-0.089234196
202	0x3d2c8487	0.042118575
203	0xbd0a3a78	-0.033747166
204	0x3cff5c0b	0.03117182
205	0xbdaf697a	-0.0856504
206	0xbd993ad1	-0.074819215
207	0x3daa2a17	0.08308809
208	0x3cf332bf	0.029687284
209	0x3c4179cf	0.011808827
210	0x3d17ac70	0.037029684
211	0x3db07e4b	0.086178385
212	0x3d67227e	0.05642938
213	0x3c94c595	0.01816062
214	0xbd8ff521	-0.070291765
215	0x3dc03a56	0.09386127
216	0xbabaa28b	-0.0014239115
217	0xbc6610af	-0.014042064
218	0x3c97fe27	0.018553806
219	0x3d8a928a	0.06766231
220	0xbc76b410	-0.015057579
221	0xbd220b03	-0.039561283
222	0x3d5459da	0.0518435
223	0x3d7339c9	0.05938128
224	0x3cc61d11	0.024183782
225	0x3b8839df	0.0041572894
226	0x3b132aae	0.002245586
227	0x3c713e4b	0.014724324
228	0xbd90f967	-0.0707882
229	0xbd46ccd3	-0.04853518
230	0x3d1ee729	0.03879467
231	0x3cbe9517	0.023264451
232	0x3d425db2	0.047452636
233	0xbb8d3595	-0.004309366
234	0xbd4ae669	-0.049536142
235	0xbd141408	-0.036151916
236	0xbcc083aa	-0.023500282
237	0xbd6e335a	-0.05815444
238	0x3da99a32	0.082813635
239	0xbd65f6b7	-0.05614349
240	0x3c4ce1c2	0.012504997
241	0x3db820c9	0.08990628
242	0xbd94ee08	-0.07271963
243	0xbd94f1ea	-0.07272704
244	0x3d0f2a2b	0.034952324
245	0x3d4fe97e	0.050759785
246	0xbd2f64de	-0.042820804
247	0x3d3114d1	0.043232743
248	0x3d7629ba	0.060098387
249	0xbd3c1a4b	-0.045923512
250	0x3d950f08	0.072782576
251	0x3c277f15	0.01022317
252	0xbca892e5	-0.020577857
253	0x3cd7fa29	0.026364403
254	0x3d406c6a	0.04697839
255	0x3dab67ac	0.08369383

4.bias f4 [128]
0	0xbd0963e2	-0.03354252
1	0x3cf4a743	0.029864913
2	0x3dcf1e91	0.10113252
3	0xbdb2bbd1	-0.087272294
4	0xbd890340	-0.06690073
5	0xbd1da7e6	-0.0384902
6	0xbcca94a1	-0.024729075
7	0xbc5b8975	-0.0133994715
8	0x3de98387	0.1140204
9	0x3da303fa	0.07959743
10	0xbd993e1e	-0.07482551
11	0xbbef6c37	-0.0073066014
12	0xbcb0f24f	-0.021599917
13	0x3c99b3fe	0.018762585
14	0x3dbf2d3d	0.093348004
15	0x3d5b5a47	0.053552892
16	0xbd35549e	-0.04427015
17	0x3dc7aca2	0.09749724
18	0x3db05310	0.08609593
19	0xbd1468d0	-0.03623277
20	0xbd0ec383	-0.034854423
21	0x3d6e48a5	0.058174748
22	0x3d8f41a2	0.0699494
23	0xbd7c67db	-0.06162248
24	0x3dc4acbd	0.0960326
25	0xbd47daa8	-0.04879251
26	0xbd0361ec	-0.032075807
27	0xbda74e6e	-0.08169256
28	0x3aa64ca8	0.001268764
29	0x3cd0e31e	0.025498923
30	0xbd9e266f	-0.077221744
31	0x3dcdf9aa	0.10057385
32	0xbd307657	-0.043081608
33	0xbcb6d5fb	-0.02231883
34	0xbdc53a06	-0.09630208
35	0xbb2458c2	-0.0025077318
36	0x3cd4f800	0.025997162
37	0x3d3b3af4	0.04571052
38	0xbc7310e1	-0.014835567
39	0xbd3a0e30	-0.045423687
40	0x3d116075	0.03549238
41	0xbcca41c4	-0.024689563
42	0x3debbded	0.11510835
43	0x3dbbc6c5	0.09168772
44	0x3d57b4d3	0.05266268
45	0x3e033a95	0.12815316
46	0x3df8f935	0.121569075
47	0xbd3ed9da	-0.04659448
48	0x3ccbecb1	0.024893137
49	0x3da0f112	0.078584805
50	0x3c1cb581	0.009564758
51	0xbd3f8e89	-0.04676679
52	0xbc9bb8a2	-0.019008938
53	0xba4b5712	-0.000775681
54	0xbd9e276d	-0.077223636
55	0xbd1b343b	-0.037891608
56	0xbcb3c1ba	-0.021942962
57	0xbd8275a9	-0.06370098
58	0xbcd512c7	-0.02600993
59	0x3da97428	0.08274108
60	0x3d4a00b1	0.049317066
61	0xbd4672ed	-0.048449446
62	0x3e21896b	0.15775077
63	0x3d3eb849	0.046562467
64	0xbdb9473f	-0.09046792
65	0xbd939510	-0.07206166
66	0x3cbe5c05	0.023237238
67	0xbd7095e6	-0.058736704
68	0x3daa5207	0.08316427
69	0x3d5818ca	0.052758016
70	0x3d997818	0.07493609
71	0xbd597cb4	-0.05309744
72	0x3c8ae53f	0.016955016
73	0x3e360926	0.17776927
74	0x3e2029cd	0.15640946
75	0x3e129610	0.14315057
76	0xbcc480bf	-0.023987172
77	0xbda66acb	-0.08125838
78	0x3db1e980	0.08687115
79	0xbb7971e2	-0.0038062264
80	0x3c66ee64	0.014094923
81	0x3d87dd10	0.06633961
82	0xbd58748b	-0.05284552
83	0xbce15b76	-0.027509432
84	0x3db8e4d0	0.090280175
85	0x3cd4791b	0.025936654
86	0x3d078ef6	0.033095323
87	0xbc1380ec	-0.009002905
88	0xbd862e78	-0.06551832
89	0xbc8c1128	-0.017098024
90	0x3dbd6abd	0.09248874
91	0x3d1c1f95	0.038116056
92	0xbda58a4d	-0.080830194
93	0xbc84c537	-0.01620732
94	0x3d010ed7	0.031508293
95	0x3da84711	0.0821668
96	0x3e1561b3	0.1458805
97	0x3dacf53f	0.084452145
98	0xbd571463	-0.052509677
99	0xbcdce849	-0.026966231
100	0xbb8a4e73	-0.0042207777
101	0xbbfc34d6	-0.007696728
102	0x3cad4461	0.02115077
103	0xbcc42edf	-0.023948131
104	0x3dca7a6e	0.09886633
105	0x3cd4bc00	0.025968552
106	0xbc429c76	-0.0118781235
107	0xbca1f236	-0.019768815
108	0x3e102b8e	0.14079115
109	0xbc6aeb5f	-0.014338343
110	0xbcbcef19	-0.02306323
111	0xbde4676c	-0.11152539
112	0xbd89ab04	-0.06722072
113	0x3d9e1817	0.077194385
114	0x3e3d8cd9	0.1851076
115	0xbd83e753	-0.06440606
116	0xbdb21535	-0.08695451
117	0xbd4bfcb8	-0.04980156
118	0xbd21bd8e	-0.039487414
119	0xbd5756fc	-0.05257319
120	0x3d80d826	0.06291227
121	0x3d9cc12f	0.07654034
122	0x3e12d9e1	0.14340927
123	0x3b9b2e99	0.0047357795
124	0x3ca96822	0.020679537
125	0x3c0f98d6	0.008764466
126	0x3da53ae1	0.08067871
127	0x3d9f6c9c	0.077843875

6.weight f4 [128, 128]
0	0x3bf14aef	0.007363669
1	0x3d3a27bb	0.045448046
2	0xbcc5b2f6	-0.024133187
3	0xbc2e9d0e	-0.010657562
4	0x3d44d58a	0.04805521
5	0xbd80463b	-0.062633954
6	0x3c8027a1	0.015643897
7	0x3da903ec	0.08252701
8	0x3db3c84e	0.087784395
9	0x3d21487d	0.03937577
10	0xbd47a567	-0.048741724
11	0xbd14571c	-0.036215886
12	0x3d6bdcc2	0.057583578
13	0xbdc5fc2c	-0.096672386
14	0x3daccada	0.08437128
15	0xbcac62ec	-0.021043263
16	0x3d89c91a	0.0672781
17	0x3d1dd038	0.03852865
18	0x3d9c4831	0.07630957
19	0xbd33b2dd	-0.04387175
20	0x3d9bf795	0.07615582
21	0x3da6ccb8	0.08144516
22	0x3ae9f4d9	0.001784946
23	0x3d94f52a	0.07273324
24	0xbd8e145e	-0.069374785
25	0xbc740187	-0.014892942
26	0xbc0cdb7b	-0.00859725
27	0xbc3d9c8f	-0.011572971
28	0xbd5379c5	-0.0516298
29	0x3d21827d	0.039431084
30	0x3c0e62f7	0.008690587
31	0x3db797bf	0.0896449
32	0xbc0922bf	-0.0083701005
33	0x3d63ea64	0.055643454
34	0xbcc5471b	-0.024081757
35	0xbd4af5c4	-0.049550787
36	0x3d91e4ce	0.07123719
37	0xbd954527	-0.072885804
38	0x3cca7bd6	0.024717253
39	0x3c84e195	0.016220847
40	0x3d80607b	0.06268402
41	0xbd2f6495	-0.042820532
42	0xbc00a3a6	-0.007851517
43	0xbd3c47e3	-0.045966994
44	0x3d2ac1a5	0.04168858
45	0x3cf90f84	0.030402906
46	0x3d46a61b	0.048498254
47	0x3d2027c3	0.03910042
48	0xbce33fff	-0.027740477
49	0xbd63c18e	-0.05560451
50	0x3c6d933a	0.014500434
51	0x3d4a13cb	0.049335282
52	0x3d6962f9	0.056979153
53	0x3d808976	0.062762186
54	0x3d7c2607	0.061559703
55	0xbdb1190d	-0.08647356
56	0x3d50734d	0.05089121
57	0x3d2f4cf6	0.042798005
58	0x3c2c28a5	0.010507737
59	0xbd943536	-0.07236712
60	0x3d3da6c2	0.04630161
61	0xbd31cf14	-0.043410376
62	0xbd6bcb68	-0.05756703
63	0x3d9ee2a8	0.07758075
64	0xbd207dd8	-0.039182514
65	0xbd586e18	-0.05283937
66	0xbd8503de	-0.06494878
67	0x3d8a3864	0.06749037
68	0x3d6eafef	0.058273252
69	0x3d1b9ed6	0.037993275
70	0x3cc2d1d3	0.023781693
71	0xbd6e1877	-0.0581288
72	0xbd9aa22e	-0.075504646
73	0x3d4e1217	0.05031022
74	0xbd4c602f	-0.049896415
75	0xbd9acab3	-0.07558193
76	0xbcefe95c	-0.02928608
77	0xbd838ead	-0.064236976
78	0x3d3949f8	0.045236558
79	0xbd4022dc	-0.046908244
80	0xbda13d0a	-0.078729704
81	0xbcacc838	-0.021091565
82	0xbd712d36	-0.058881007
83	0xbd869c95	-0.065728344
84	0xbcc880c3	-0.02447546
85	0xbd405a79	-0.04696128
86	0xbd0ba80a	-0.0340958
87	0x3db1fcc1	0.08690787
88	0x3cfa32d6	0.030541819
89	0xbd3344e3	-0.043766867
90	0x3cd37ccd	0.025816346
91	0xbdb03d01	-0.086053856
92	0xbd888974	-0.06666842
93	0x3b367463	0.0027840368
94	0x3dba608a	0.091004446
95	0x3daa98cb	0.08329924
96	0xbba5fac8	-0.005065296
97	0xbd07dd38	-0.033169955
98	0xbd007b95	-0.031367857
99	0xbcd24cd2	-0.025671396
100	0xbcd5e914	-0.026112117
101	0xbdbb8540	-0.09156275
102	0xbd4083e2	-0.047000773
103	0xbc81f1dd	-0.0158624
104	0x3d2e9c15	0.04262932
105	0x3dd4d67a	0.10392471
106	0x3db74ce5	0.08950213
107	0x3d90f116	0.070772335
108	0x3d93719c	0.07199404
109	0x3db8c95a	0.0902278
110	0x3d8fff4e	0.070311174
111	0x3d155a33	0.036462974
112	0x3d552524	0.052037373
113	0x3d4f0450	0.050541222
114	0x3acb71da	0.0015521601
115	0xbc9c64d5	-0.01909105
116	0x3cf65493	0.030069625
117	0xbd8cc993	-0.06874385
118	0x3d58a9a5	0.05289616
119	0x3dad56cd	0.084638216
120	0x3da4157b	0.080119096
121	0xbd9a236d	-0.07526288
122	0x3d9bff58	0.07617062
123	0x3c928355	0.01788489
124	0x3d507cc8	0.05090025
125	0x3d01b4a2	0.031666405
126	0x3d90b872	0.0706643
127	0xbda4e27d	-0.08051012
128	0x3db2b0f4	0.087251574
129	0xbd990d29	-0.07473213
130	0xbd28e27c	-0.041231617
131	0x3c92556e	0.017863002
132	0xbb244282	-0.0025064056
133	0xbd7aa29e	-0.06119024
134	0x3d84fd8f	0.06493675
135	0x3cce09bf	0.025151132
136	0xbc3b5a0b	-0.011435042
137	0x3d16dc06	0.036830924
138	0xbd945b2e	-0.07243954
139	0xbda5022a	-0.080570534
140	0x3d5715a4	0.052510872
141	0x3d51fa27	0.051263954
142	0x3d4f66be	0.050635092
143	0x3ce1a5b5	0.027544836
144	0xbd4ed20c	-0.050493285
145	0x3dace897	0.084428005
146	0x3d16741f	0.036731835
147	0x3d7ba6f0	0.0614385
148	0xbd886b64	-0.06661108
149	0xbddb20f1	-0.106996424
150	0xbd06ddbe	-0.032926314
151	0xbd8524c2	-0.065011516
152	0x3b29c5e4	0.0025905306
153	0xbccb33ab	-0.02480491
154	0x3d94770d	0.0724927
155	0xbc888468	-0.016664699
156	0xbd0f27ad	-0.034949947
157	0x3d7763e2	0.06039799
158	0x3dd612c1	0.10452796
159	0x3c3286ea	0.010896424
160	0x3dafd235	0.08585016
161	0xbd48e76d	-0.04904883
162	0x3d8e9cc7	0.06963497
163	0x3cb04b34	0.021520235
164	0x3c132aa6	0.008982336
165	0x3da76a59	0.08174581
166	0x3d65e5e9	0.056127463
167	0xbd357f06	-0.044310592
168	0xbcf55ab0	-0.02995047
169	0xbdb23aee	-0.08702646
170	0xbcb69904	-0.02228976
171	0x3c2b2e5e	0.0104480665
172	0x3d24e4a1	0.0402571
173	0x3c184ce2	0.009295674
174	0xbd2f5d67	-0.042813685
175	0x3db53b30	0.0884918
176	0xbb0a0893	-0.002106224
177	0xbd75cb11	-0.060008112
178	0x3d020cfe	0.03175067
179	0x3d51b061	0.0511936
180	0x3c9ebe22	0.019377772
181	0xbd18e5ac	-0.037328407
182	0xbcdf8833	-0.027286625
183	0x3d8c0102	0.0683613
184	0x3d426bf3	0.04746623
185	0xbb8c4e56	-0.0042817993
186	0xbcab4833	-0.02090845
187	0x3d88d143	0.066805385
188	0xbd1c846a	-0.038212217
189	0x3d229a62	0.039698012
190	0x3d9673a6	0.07346277
191	0xbd9f498b	-0.07777699
192	0xbd425ca1	-0.04745162
193	0xbd8d900a	-0.06912239
194	0xb8292d5d	-4.0334988e-05
195	0xbd429ddf	-0.04751384
196	0xbd849504	-0.06473735
197	0x3db7fd55	0.08983866
198	0x3dc81967	0.0977047
199	0xbc26b372	-0.010174619
200	0x3cc569bc	0.02409827
201	0x3c0fb985	0.008772259
202	0x3c573b37	0.0131366765
203	0x3d8ca969	0.0686825
204	0x3d17992b	0.037011307
205	0x3d51959b	0.051168066
206	0xbd1e0775	-0.03858133
207	0xbdbd8e41	-0.092556484
208	0xbc27cc2b	-0.0102415485
209	0x3c96fc6e	0.018430915
210	0x3b3ac640	0.0028499514
211	0x3d7b45bd	0.061345804
212	0x3d2633dd	0.040576804
213	0x3cf94d7d	0.030432457
214	0x3c9d632a	0.019212324
215	0xbc04cbba	-0.008105213
216	0xbc41494f	-0.011797263
217	0x3c056b36	0.008143237
218	0xbc0b2f0a	-0.008495102
219	0x3c50cc29	0.012743988
220	0x3d72b0ed	0.05925076
221	0x3d40767b	0.04698799
222	0x3d199c7b	0.037502747
223	0x3d2eb853	0.042656254
224	0xbc266a13	-0.010157126
225	0xbce59ab6	-0.028027873
226	0x3d526702	0.051367767
227	0x3c2c43ed	0.010514242
228	0x3db7b302	0.0896969
229	0xbc0e490e	-0.00868441
230	0x3dcd8887	0.10035806
231	0xbd92a3b8	-0.07160133
232	0x3dec0468	0.11524278
233	0xbc77394c	-0.015089344
234	0xbc078cd4	-0.008273322
235	0xbd465bbf	-0.04842734
236	0x3bcee7f0	0.00631427
237	0x3ccdcf6b	0.025123319
238	0x3dd27839	0.10276837
239	0xbd0d0fcf	-0.034438904
240	0x3b816f50	0.003950037
241	0xbd43d360	-0.047809005
242	0xbbef5a3a	-0.007304457
243	0xba9151f9	-0.0011087052
244	0x3dabe1b3	0.08392658
245	0xbda8ce78	-0.08242506
246	0xbd848869	-0.06471331
247	0x3bee9e93	0.007282087
248	0xbcee715b	-0.029106786
249	0x3d328cef	0.043591436
250	0x3d6e2fe9	0.05815116
251	0xbd77a02f	-0.060455497
252	0x3cc72441	0.02430928
253	0x3c43a14e	0.0119403135
254	0x3c5ad6ec	0.013356905
255	0xbdaa5c79	-0.08318419

6.bias f4 [128]
0	0xbc383f03	-0.011245492
1	0x3e234b95	0.15946801
2	0x3c8e3f78	0.017364249
3	0x3e0d7a20	0.13816118
4	0xbcb6d211	-0.022316964
5	0xbc8690ae	-0.01642641
6	0x3d955b07	0.07292753
7	0x3ddb84b4	0.107186705
8	0x3cd5b2ab	0.026086172
9	0x3e2755ba	0.16341296
10	0x3d163502	0.036671646
11	0xbce1f2c9	-0.02758159
12	0xbdb12e7d	-0.08651445
13	0xbc486975	-0.012232174
14	0x3d38a6c9	0.045080934
15	0x3d32c3f9	0.043643925
16	0xbdbc9f40	-0.09210062
17	0xbc55880c	-0.013032924
18	0xbd9ddf1f	-0.077085726
19	0xbbe1affc	-0.006887434
20	0x3d44cb67	0.048045542
21	0x3e5c8eaf	0.21538804
22	0xbdf0d35a	-0.11759062
23	0xbdb0f26c	-0.08639988
24	0x3affa68d	0.0019504592
25	0x3db63a30	0.08897817
26	0x3cf6cf6b	0.030128201
27	0xbd1f5078	-0.0388951
28	0x3d3738cd	0.044731904
29	0xbda43770	-0.08018386
30	0x3d8edb27	0.06975394
31	0xbd2201ef	-0.039552625
32	0x3e40d579	0.18831433
33	0x3c9f031b	0.01941066
34	0x3d75c2a5	0.06000008
35	0xbd5feaf3	-0.054667424
36	0xbda60cd6	-0.08107917
37	0x3d7c7e40	0.06164384
38	0xbd8e3279	-0.06943221
39	0x3e827bb3	0.25485
40	0x3c901a23	0.017590588
41	0x3e9c3150	0.30506372
42	0x3db9c0be	0.09069966
43	0x3b5f3606	0.00340593
44	0xbdaf7a05	-0.08568195
45	0x3d67425f	0.05645978
46	0x3d98c42d	0.074592926
47	0xbdcf21eb	-0.10113891
48	0xbb8bd9b5	-0.004267896
49	0xbc7df7f4	-0.015501011
50	0xbd98d8eb	-0.07463249
51	0xbdd8e351	-0.10590232
52	0x3c4e67d7	0.012598
53	0xbd78c753	-0.060736965
54	0x3dc2cf01	0.09512139
55	0x3dce78c2	0.100816265
56	0xbd635ab3	-0.05550642
57	0x3cb550cb	0.022133252
58	0x3e7df105	0.24798973
59	0xbd157d53	-0.03649647
60	0x3d68fb65	0.056880374
61	0xbdb28edf	-0.08718657
62	0x3b874537	0.004128124
63	0x3ea4a3f1	0.32156327
64	0x3c7f1fd5	0.015571554
65	0xbc80375a	-0.015651394
66	0xbd2b2500	-0.041783333
67	0x3c830985	0.01599575
68	0xbd8c4a43	-0.06850102
69	0xbd4916ee	-0.049094133
70	0xbdaf3e33	-0.085567854
71	0x3cace3ca	0.021104712
72	0xbab931b5	-0.0014129194
73	0xbd94acba	-0.072595075
74	0xbcd1e45f	-0.025621591
75	0x3e3ebcc6	0.18626699
76	0x3c8651e0	0.016396463
77	0xbd824e5f	-0.06362604
78	0xbd043548	-0.032277375
79	0xbd162c7e	-0.036663525
80	0xbd583ca4	-0.052792206
81	0xbcc5e793	-0.024158275
82	0xbba0486d	-0.0048914463
83	0xbd6a74bf	-0.057240244
84	0xbd68e29d	-0.05685674
85	0xbcf8622a	-0.030320246
86	0x3c343363	0.01099858
87	0x3d391102	0.045182236
88	0xbcb2a156	-0.021805447
89	0x3cb80494	0.02246312
90	0xbd2cf474	-0.042225316
91	0x3dda0f84	0.106474906
92	0xbd71c689	-0.05902723
93	0xbd9873a1	-0.074439295
94	0x3c49759f	0.012296109
95	0xbdb75342	-0.08951427
96	0xbcdcf3e7	-0.02697177
97	0xbd24a6a6	-0.04019799
98	0x3c8450cd	0.01615181
99	0x3e18e81f	0.14932297
100	0xbcff30a6	-0.031151127
101	0x3de06d81	0.10958386
102	0xbd71aab2	-0.05900068
103	0x3eb46f0b	0.3524097
104	0xbd73604a	-0.059418
105	0xbcb81767	-0.022472097
106	0xbdaa72c9	-0.08322675
107	0xbd0b294c	-0.03397493
108	0x3ca1e7b4	0.019763805
109	0xbd33f7dd	-0.043937553
110	0x3de031c2	0.109469905
111	0xbcf9c4f6	-0.030489426
112	0x3d142e82	0.036177166
113	0x3d55936f	0.052142557
114	0xbd6c84cd	-0.057743836
115	0x3d08a14c	0.03335695
116	0x3d62c7c2	0.055366285
117	0xbde152fc	-0.11002156
118	0x3d672031	0.056427184
119	0xbd2f4e84	-0.042799488
120	0xbd9378e4	-0.072007924
121	0xbd44abfb	-0.048015576
122	0x3e12c3fc	0.14332575
123	0x3d0abb5a	0.03387008
124	0x3d0666c5	0.032812852
125	0x3d71b9d6	0.059015118
126	0x3e4385f0	0.19094062
127	0x3d9ac5d9	0.07557268

8.weight f4 [49, 128]
0	0x3da1a630	0.07893026
1	0xbdb5b43f	-0.0887227
2	0xbc96636a	-0.018357951
3	0x3d3919a9	0.045190487
4	0xbe0e5267	-0.13898621
5	0x3dc0a448	0.09406334
6	0xbe46c2fa	-0.19410315
7	0x3dc91bff	0.09819793
8	0xbe2e81b0	-0.1704166
9	0xbe1e106a	-0.15435949
10	0xbdcf30a3	-0.101166986
11	0x3c520b3e	0.012820063
12	0xbb6333b9	-0.003466828
13	0xbbaece7d	-0.005334674
14	0x3d182b2c	0.037150547
15	0x3bf0a6e8	0.0073441155
16	0x3d076328	0.033053547
17	0x3d68247b	0.056675415
18	0x3c5ef1dc	0.013607468
19	0x3d80b6e6	0.06284885
20	0x3d830424	0.06397274
21	0xbd624a54	-0.055246666
22	0xbdb78be6	-0.089622304
23	0x3db984ba	0.09058519
24	0xbd516f9a	-0.051131822
25	0x3d093025	0.03349318
26	0x3d8fbaf5	0.07018081
27	0xbc380e47	-0.011233873
28	0xbd6da100	-0.05801487
29	0x3c071a30	0.00824599
30	0x3dae1981	0.08500958
31	0x3d835697	0.06413
32	0xbdc5593f	-0.09636163
33	0x3da6524d	0.081211664
34	0x3c8ff187	0.017571224
35	0x3da604d7	0.08106392
36	0xbdaab696	-0.08335607
37	0xbc49733c	-0.01229554
38	0x3d030410	0.031986296
39	0xbe40ce1b	-0.18828623
40	0x3bcfdf36	0.0063437475
41	0xbe63c632	-0.22243574
42	0xbd1185d1	-0.035528008
43	0xbcc72a22	-0.024312083
44	0x3d34d9e6	0.044153117
45	0x3d993d89	0.0748244
46	0xba00357c	-0.00048907823
47	0xbc3c32bd	-0.011486706
48	0xba053297	-0.0005081086
49	0x3d082b7b	0.03324459
50	0xbccbdcf3	-0.02488563
51	0xbd25212a	-0.04031483
52	0xbd66f4b5	-0.056385715
53	0x3d53c4bf	0.051701304
54	0xbd0ae622	-0.033910878
55	0xbd9d935f	-0.076941244
56	0x3d87c4f8	0.06629366
57	0x3d857882	0.06517126
58	0xbcf13ccd	-0.029447937
59	0xbdb57057	-0.08859318
60	0xbc9e24e3	-0.019304698
61	0xbdaa8144	-0.08325437
62	0xbd25170b	-0.04030518
63	0xbe29ec3d	-0.16594024
64	0xbd906c3e	-0.070518956
65	0x3d9d2a7e	0.0767412
66	0x3b878d10	0.004136689
67	0xbbfff4dd	-0.0078111724
68	0xbcf1606f	-0.029464928
69	0x3d61899e	0.055062883
70	0x3dd89d59	0.10576887
71	0x3db2e112	0.08734335
72	0xbce0bf6b	-0.027435025
73	0x3d0a5985	0.03377678
74	0x3da29737	0.07938998
75	0xbdda102a	-0.10647614
76	0xbd5d50a6	-0.05403199
77	0xbb2fd910	-0.002683226
78	0xbca66e70	-0.020316333
79	0x3d14282b	0.03617112
80	0xbd10226b	-0.035189074
81	0x3dac667c	0.08417985
82	0xbd134fe9	-0.03596488
83	0xbdad15bf	-0.08451413
84	0xbd026523	-0.031834733
85	0x3d927ced	0.07152734
86	0x3d36aec0	0.04460025
87	0xbda68e7f	-0.08132648
88	0x3d1efcb8	0.03881523
89	0x3d5e2b41	0.05424047
90	0x3cd0b89a	0.02547865
91	0xbd83689e	-0.064164385
92	0xbd730295	-0.059328634
93	0xbafa7184	-0.0019107317
94	0xbe0b8f1d	-0.13628812
95	0x3d000c8b	0.031261962
96	0x3da7d02f	0.08194005
97	0x3cfe6479	0.031053768
98	0x3d14b49d	0.03630506
99	0xbdf196ac	-0.117963165
100	0xbcf3f8d2	-0.029781733
101	0xbe305f24	-0.17223793
102	0xbd0e2fca	-0.034713544
103	0xbe6b43d8	-0.22975099
104	0x3dc8ba9a	0.098012164
105	0x3e39e668	0.181543
106	0xbd5e8b74	-0.05433221
107	0x3d438db2	0.047742553
108	0x3baf3179	0.005346474
109	0xbd5559f1	-0.052087728
110	0x3c8d2802	0.017230991
111	0x3d84ae43	0.0647855
112	0xbcbc9dac	-0.023024403
113	0x3d1cdfc8	0.038299352
114	0x3d5beb04	0.053690925
115	0x3d9233c8	0.07138783
116	0xbcf8bb78	-0.03036283
117	0x3d01df91	0.03170735
118	0xbde12b6a	-0.10994609
119	0x3d91fff8	0.071289
120	0xbd9e1129	-0.07718117
121	0xbd7cd3b9	-0.061725352
122	0xbe7ff77a	-0.24996749
123	0x3c593c23	0.013258967
124	0xbd0ba55c	-0.034093246
125	0xbe0d733f	-0.13813494
126	0xbd1a8114	-0.037720755
127	0x3dca14bc	0.09867236
128	0x3d39a854	0.045326546
129	0xbdcaa3fe	-0.0989456
130	0x3d09f331	0.03367919
131	0x3ac079af	0.0014684702
132	0xbc90fa29	-0.01769741
133	0x3d08e3d1	0.033420388
134	0xbd40e21c	-0.047090635
135	0x3db18c78	0.086693704
136	0xbe357112	-0.17718914
137	0xbc8a9de7	-0.016920997
138	0xbe15b7fb	-0.14620964
139	0xbd2d30f0	-0.042283
140	0x3d4a1c06	0.04934313
141	0x3cf155ac	0.029459797
142	0x3da368ce	0.07978974
143	0x3c6d5bcd	0.014487219
144	0x3db23403	0.08701327
145	0x3cd67dd1	0.02618304
146	0x3d2a9c60	0.041653037
147	0xbcfc157d	-0.030771965
148	0x3d166ec4	0.036726728
149	0xbe14b8af	-0.14523576
150	0xba7165d2	-0.0009208593
151	0x3def46ca	0.11683424
152	0xbcd4c62b	-0.0259734
153	0x3c8d56f0	0.01725337
154	0x3d04a334	0.032382205
155	0xbd746ce3	-0.059674155
156	0x3c49c9e2	0.012316199
157	0x3b85395a	0.0040656747
158	0xbd394e1e	-0.045240514
159	0xbcbf00b4	-0.023315765
160	0xbdcf6200	-0.10126114
161	0xbc69b4f0	-0.01426433
162	0x3df5ef65	0.120085515
163	0x3d483595	0.048879225
164	0x3ce6c886	0.028171789
165	0xbd320dc6	-0.043470167
166	0x3c15ee16	0.009151002
167	0xbdcadb19	-0.09905071
168	0x3d1580ab	0.03649966
169	0xbe7bc95d	-0.24588533
170	0xbe01ec34	-0.1268776
171	0x3d89f4c4	0.067361385
172	0x3d3b1dfe	0.0456829
173	0xbd183686	-0.037161373
174	0x3d9e5e17	0.0773279
175	0x3d7ff01f	0.062484857
176	0xbd172402	-0.036899574
177	0x3d00b1ec	0.03141968
178	0xbc7f1a55	-0.015570243
179	0x3bb2f01f	0.0054607536
180	0xbe194462	-0.14967492
181	0xbd8c8255	-0.06860796
182	0xbcf07616	-0.029353183
183	0xbd340adb	-0.043955665
184	0xbd8626a3	-0.06550338
185	0x3c256aa4	0.010096226
186	0xbe2c6696	-0.16836008
187	0xbe1fbda9	-0.15599693
188	0x3d53cb2d	0.051707435
189	0xbb0bdd28	-0.0021341536
190	0xbd667e75	-0.056272943
191	0xbde05ef2	-0.109556094
192	0xbd0c98dc	-0.034325466
193	0xbd8fb06a	-0.0701607
194	0x3d81afa1	0.06332327
195	0x3bade8eb	0.005307307
196	0xbd576391	-0.05258519
197	0x3d363172	0.04448075
198	0x3b10b63c	0.0022081276
199	0x3dc24ed1	0.09487689
200	0xbda7b2e5	-0.08188418
201	0xbcb919d9	-0.022595333
202	0x3ce4fbf5	0.027952174
203	0xbd653002	-0.055953987
204	0x3dadb72b	0.08482202
205	0xbdb73dac	-0.0894731
206	0xbd905958	-0.07048291
207	0x3a447baa	0.0007495234
208	0x3d1698ae	0.0367667
209	0xbd9aff6d	-0.0756825
210	0x3bc0a2c7	0.0058787796
211	0xbc8688e8	-0.016422704
212	0x3d9f26e3	0.07771089
213	0x3caf9eec	0.021438085
214	0x3d83d2fd	0.06436727
215	0xbe0c34ef	-0.13692068
216	0x3daa40ec	0.08313164
217	0x3d90be2b	0.07067522
218	0xbccc88bc	-0.024967544
219	0xbdd935e9	-0.10605986
220	0xbda43a5c	-0.08018944
221	0xbd625884	-0.055260196
222	0xbe1bf12e	-0.15228721
223	0x3cac5f5a	0.02104156
224	0xbd1af991	-0.03783566
225	0x3cd1fcab	0.025633177
226	0xbcd22552	-0.025652561
227	0xbd6a56d6	-0.05721172
228	0x3c7c8a72	0.015413867
229	0xbe8333fd	-0.256256
230	0x3d2d39fe	0.042291634
231	0xbe3e61f8	-0.1859206
232	0x3db925d1	0.09040416
233	0x3dba63c8	0.09101063
234	0x3d322210	0.043489516
235	0xbdaed2e9	-0.08536322
236	0x3da385e2	0.079845205
237	0x3d32aefe	0.043623917
238	0xbd9b4738	-0.07581943
239	0x3dc17067	0.09445267
240	0xbc4df711	-0.012571112
241	0xbc9e452c	-0.019320093
242	0xbc30e472	-0.010796653
243	0x3b76fa33	0.0037685751
244	0xbdfb1c7f	-0.122612946
245	0xbc592a28	-0.01325468
246	0xbced7b6e	-0.02898952
247	0xbd8978ae	-0.06712471
248	0xbd2f04f3	-0.04272933
249	0x3d3b7de2	0.045774348
250	0xbe5301d1	-0.20606162
251	0x3be665b5	0.0070311674
252	0x3c89b00b	0.016807577
253	0xbe3a7a52	-0.18210724
254	0xbd61c1e8	-0.055116564
255	0x3cbcdc6e	0.023054328

8.bias f4 [49]
0	0xbd6f96e5	-0.058493514
1	0xbc83b3a9	-0.01607688
2	0xbd9933c3	-0.07480576
3	0xbe2df39c	-0.16987461
4	0xbe0c3784	-0.13693053
5	0xbe52aaaf	-0.20572923
6	0xbcdb111b	-0.026741555
7	0xbdeb082e	-0.114761695
8	0xbe591fac	-0.21203488
9	0xbe4faaaf	-0.20279954
10	0xbe64d10e	-0.22345373
11	0xbde7eea9	-0.11324818
12	0xbe18c9ad	-0.14920683
13	0xbe285622	-0.16439107
14	0xbe5258e3	-0.2054172
15	0xbe8a141c	-0.26968467
16	0xbdbf85c9	-0.09351689
17	0xbe0f2263	-0.13977961
18	0xbe060fdc	-0.13091987
19	0xbe8e5920	-0.27802372
20	0xbd8d7d8a	-0.0690871
21	0xbdf2ae22	-0.118496194
22	0xbe0d4029	-0.13794006
23	0xbd9c2cf2	-0.0762576
24	0xbe04f67b	-0.1298465
25	0xbe0b1396	-0.1358169
26	0xbd403f0d	-0.04693513
27	0xbdba957b	-0.091105424
28	0xbdf536f4	-0.11973372
29	0xbda402d7	-0.08008354
30	0xbd0ae272	-0.03390736
31	0xbde238ef	-0.110460155
32	0xbd2bc3dc	-0.041934833
33	0xbdf51eee	-0.1196879
34	0xbd9a0d2c	-0.075220436
35	0xbdb0a4c7	-0.08625179
36	0xbdad2e8a	-0.08456142
37	0xbe1e7887	-0.15475665
38	0xbe0c25d9	-0.13686313
39	0xbe009e37	-0.12560354
40	0xbe283380	-0.16425896
41	0xbe002d71	-0.12517335
42	0xbe94ee06	-0.29087847
43	0xbe99bbeb	-0.30026183
44	0xbe0a462f	-0.13503335
45	0xbc9c01e5	-0.019043872
46	0xbc23ded8	-0.010001861
47	0xbde37542	-0.111063495
48	0xbd8e60fd	-0.06952093
