models/snapsRandom/model_1685747889.1404154.pt (torch, 252563 bytes, 10 tensors)

0.weight f4 [128, 49]
-0.080851346 0.11196127 0.03633262 -0.1537591 0.047071982 -0.049721442 -0.07671368 0.071792185
-0.036913037 -0.12219657 0.11099523 0.16821502 -0.043977585 0.10548074 0.0058307988 -0.11296582
-0.012613353 -0.082305655 -0.0019484133 0.011657021 -0.028335417 -0.088140845 0.24551007 -0.10857784
-0.043415252 -0.07935384 -0.06279754 0.06293923 0.15725973 -0.0485022 0.17586774 -0.022799144
-0.0037287658 0.04072059 -0.05827349 0.1382558 -0.07835192 -0.009258417 -0.19565909 -0.0050316267
-0.1218617 0.06666354 0.1934005 -0.041744567 -0.09861293 0.13117072 0.12145765 -0.1647632
-0.0727772 0.0040015015 -0.037605837 -0.12555227 0.05630075 0.11425147 -0.012905067 -0.11357588
0.0414429 0.10275942 0.0002666805 0.11888057 0.060277686 0.055857528 0.03165609 -0.139153
-0.040692087 0.14077266 -0.064961545 -0.1361247 0.23732051 0.1639878 0.017788813 0.05273155
0.14880152 -0.1773472 -0.14904074 -0.037094425 0.07786208 0.04040513 0.015498083 0.11918486
-0.18331878 -0.11227336 -0.116218895 0.22071357 -0.11219254 0.007128816 -0.040800024 -0.12479646
0.08732047 0.08191874 -0.037853755 0.104559824 -0.013854491 -0.20840082 -0.056461234 0.12433978
0.023262275 -0.07299713 0.03951507 -0.17131996 0.051734984 -0.121277474 -0.030922381 -0.25357592
0.07163104 0.059215467 0.13529938 -0.032750502 -0.060167927 0.16670881 -0.22573948 0.04663566
-0.13760877 0.014295992 0.12678628 -0.10096171 -0.07582687 -0.031240273 -0.06961223 0.099379204
-0.18853186 0.052474193 -0.03031767 0.014846702 -0.10201195 0.115031004 -0.14650922 0.045080636
0.016645497 -0.0924788 0.055188693 -0.1050722 0.035718877 -0.07318073 0.04666946 -0.11991316
0.010589965 -0.08941578 -0.06302918 0.16515315 -0.03015482 -0.033240095 -0.16273797 0.09102731
0.049332615 -0.09393231 0.06251933 0.09108178 0.028106349 -0.047654945 -0.073794715 0.09419871
-0.034630988 0.031335674 0.038732663 0.08283141 0.0991376 0.005288678 -0.106099725 -0.32846996
-0.0121275 0.13030788 0.014012967 0.048605967 0.0633462 -0.039585613 -0.2023751 0.21572293
0.07876376 -0.04386745 0.046589945 -0.039751098 -0.029554596 -0.22534047 0.075745545 0.07127475
-0.116660364 0.08444165 0.09647512 -0.051055025 0.06406337 0.22924046 -0.009125971 0.19898054
-0.18395591 0.08302941 -0.0017709867 0.10377772 0.027243149 -0.076341875 0.12937875 -0.13729435
0.08471018 -0.045745563 -0.019802824 0.11612918 0.0161741 -0.061819818 0.028145358 -0.08844806
-0.0550898 0.20003729 0.09699209 0.020263381 -0.01726091 0.020304633 0.1709678 0.024682496
-0.071499966 -0.1448301 -0.061293997 -0.034613393 0.098612614 -0.02226292 -0.05583541 -0.015212858
0.03900902 -0.07308751 0.018207662 0.0068050097 -0.25254983 0.08736408 -0.17323714 -0.16403197
-0.013392524 -0.080973454 0.029441344 0.11731543 0.1572712 -0.041453496 -0.04049862 -0.019197514
0.045775678 0.11897267 -0.08115502 -0.08784088 -0.1567219 0.043553654 -0.0690048 0.036907624
0.026721047 0.014276362 0.029924085 0.16528118 -0.114937745 -0.024083491 0.08067623 0.027724417
-0.057423115 0.039648265 -0.0773291 0.13622381 -0.11457986 -0.024658946 -0.04754444 0.0068592564
00000000: 6495 a5bd f34b e53d 83d1 143d 0773 1dbe
00000010: 8dce 403d b6a8 4bbd 101c 9dbd c807 933d
00000020: 2032 17bd 3242 fabd 7851 e33d 8f40 2c3e
00000030: d721 34bd 4906 d83d 4910 bf3b a05a e7bd
00000040: 3da8 4ebc de8f a8bd e761 ffba 17fd 3e3c
00000050: ad1f e8bc 3083 b4bd fe66 7b3e 0f5e debd
00000060: 31d4 31bd 4484 a2bd ff9b 80bd 48e6 803d
00000070: b208 213e 3eaa 46bd ac16 343e 45c5 babc
00000080: 4f5e 74bb a2ca 263d 2fb0 6ebd ee92 0d3e
00000090: f976 a0bd 9eb0 17bc db5a 48be 58e0 a4bb
000000a0: a192 f9bd e586 883d c80a 463e 5afc 2abd
000000b0: 93f5 c9bd 9e51 063e cabe f83d afb7 28be
000000c0: 360c 95bd 071f 833b 9408 1abd c690 00be
000000d0: 9d9b 663d adfc e93d c66f 53bc 799a e8bd
000000e0: 08c0 293d 8873 d23d 40d1 8b39 a877 f33d
000000f0: bce5 763d ddca 643d d1a9 013d 207e 0ebe
00000100: bfac 26bd b526 103e 8f0a 85bd 4664 0bbe
00000110: 2604 733e 6bec 273e d8b9 913c 0afd 573d
00000120: 6d5f 183e 819a 35be 239e 18be 53f0 17bd
00000130: 2776 9f3d d97f 253d aceb 7d3c 3117 f43d
00000140: ebb7 3bbe 93ef e5bd 2c04 eebd bd02 623e
00000150: 34c5 e5bd d898 e93b ed1d 27bd 4995 ffbd
00000160: 13d5 b23d 03c5 a73d 8a0c 1bbd 7623 d63d
00000170: f2fd 62bc 0667 55be e543 67bd dba5 fe3d
00000180: 8790 be3c 857f 95bd 8eda 213d 806e 2fbe
00000190: 10e8 533d 5360 f8bd ef50 fdbc b4d4 81be
000001a0: 4bb3 923d eb8b 723d ec8b 0a3e 6425 06bd
000001b0: a572 76bd b7b5 2a3e 4028 67be 0905 3f3d
000001c0: 50e9 0cbe bd39 6a3c 43d4 013e 03c5 cebd
000001d0: 1e4b 9bbd 9aeb ffbc db90 8ebd 5387 cb3d
000001e0: 7f0e 41be 2eef 563d c35c f8bc 953f 733c
000001f0: a4eb d0bd 6095 eb3d 8306 16be 79a6 383d
00000200: 235c 883c 8665 bdbd 8a0d 623d 1830 d7bd
00000210: f54d 123d c7df 95bd 7a28 3f3d 0895 f5bd
00000220: 8881 2d3c 9f1f b7bd 7115 81bd e81d 293e
00000230: 3e07 f7bc c426 08bd c8a4 26be 876c ba3d
00000240: ff10 4a3d 955f c0bd 220a 803d 1689 ba3d
00000250: 493f e63c d531 43bd af21 97bd 41eb c03d
00000260: 39d9 0dbd d659 003d 24a6 1e3d 84a3 a93d
00000270: a708 cb3d a64c ad3b d04a d9bd 372d a8be
00000280: 6cb2 46bc 6e6f 053e a596 653c 0d17 473d
00000290: a7bb 813d 8624 22bd 6b3b 4fbe 79e6 5c3e
000002a0: e54e a13d 5bae 33bd 19d5 3e3d 0cd2 22bd
000002b0: 7b1c f2bc a7bf 66be 7b20 9b3d 7ff8 913d
000002c0: a1eb eebd beef ac3d bf94 c53d 131f 51bd
000002d0: a833 833d 03be 6a3e 1985 15bc 8ec1 4b3e
000002e0: f05e 3cbe 530b aa3d 7420 e8ba 6a89 d43d
000002f0: 062d df3c 2159 9cbd dd7b 043e e496 0cbe
00000300: 887c ad3d b35f 3bbd 8839 a2bc 23d5 ed3d
00000310: 8c7f 843c c736 7dbd 1891 e63c 4224 b5bd
00000320: d8a5 61bd 93d6 4c3e caa3 c63d 64ff a53c
00000330: c066 8dbc e755 a63c 2f12 2f3e f232 ca3c
00000340: 936e 92bd 574e 14be 6a0f 7bbd c6c6 0dbd
00000350: 69f5 c93d ba60 b6bc acb3 64bd 5a3f 79bc
00000360: ecc7 1f3d e8ae 95bd 3c28 953c 8ffc de3b
00000370: 364e 81be f0eb b23d 1465 31be fff7 27be
00000380: 516c 5bbc 69d5 a5bd f92e f13c 1243 f03d
00000390: b40b 213e 24cb 29bd e2e1 25bd 1b44 9dbc
000003a0: 477f 3b3d f1a7 f33d 9a34 a6bd ebe5 b3bd
000003b0: b57b 20be 5165 323d 6352 8dbd 732c 173d
000003c0: 19e6 da3c 67e7 693c 5b23 f53c 783f 293e
000003d0: 7b64 ebbd be4a c5bc 9439 a53d 511e e33c
000003e0: 8034 6bbd 3866 223d b85e 9ebd 417e 0b3e
000003f0: d8a8 eabd 8f01 cabc f5bd 42bd 9dc3 e03b

0.bias f4 [128]
0.0652992 0.07383658 -0.005584991 0.09422288 -0.116396 0.11647108 -0.11685666 0.5536883
0.051664416 -0.4470576 0.19541618 0.32187608 -0.09278073 -0.18702503 -0.058606796 0.12906517
-0.117221594 -0.26766628 -0.059462108 -0.06280436 0.068494156 -0.22325473 -0.22290048 -0.2771339
-0.12916458 0.01898564 0.2039813 0.4272755 -0.285845 0.2713663 0.16612455 -0.3199284
-0.2384794 -0.3692761 -0.035446048 -0.1969248 0.18827459 -0.12462033 0.075003035 -0.078739926
-0.1386304 -0.14317371 0.015179318 -0.11296009 -0.18802692 -0.09031187 0.4333421 -0.054038648
-0.34090042 0.20969306 -0.22893827 -0.21068197 -0.2305925 0.14893158 -0.20803645 -0.033346683
0.31537262 0.13279259 0.09412183 -0.102546334 -0.009157336 -0.020487545 -0.2027117 0.14210063
-0.12952085 0.10160238 -0.21171866 -0.19388907 -0.14121665 -0.21676996 0.35050473 0.1595347
0.04335704 -0.08094591 0.02449194 0.062030435 -0.10650381 -0.22359659 0.018888121 0.07770453
-0.23662786 0.13175702 0.05273657 0.032123834 -0.21951087 -0.09116564 0.26051354 0.15648618
-0.11922333 0.0023985645 0.14397866 -0.107028306 -0.15629844 -0.17128296 0.26197776 -0.21758425
-0.010901626 -0.06082607 0.35321552 -0.07418689 0.3500314 -0.24573703 -0.16237092 -0.00628554
-0.29253685 -0.064903736 0.20535193 -0.13950053 -0.22831048 -0.17476235 -0.16865946 -0.2782837
-0.11948935 -0.15428026 0.084167965 -0.2314889 0.06632617 -0.062782496 -0.048081372 -0.19412963
0.099369235 -0.15188561 0.19573213 -0.2631494 -0.19967325 -0.226754 0.048064772 0.0120760435
00000000: 96bb 853d a237 973d 4d02 b7bb edf7 c03d
00000010: 0761 eebd 6488 ee3d 8b52 efbd 84be 0d3f
00000020: 119e 533d bce4 e4be 2e1b 483e f1cc a43e
00000030: d303 bebd 7d83 3fbe ae0d 70bd a929 043e
00000040: e011 f0bd 8e0b 89be 8a8e 73bd 939f 80bd
00000050: aa46 8c3d e39c 64be 0640 64be 7fe4 8dbe
00000060: b843 04be c687 9b3c 79e0 503e dbc3 da3e
00000070: 475a 92be 86f0 8a3e 8e1c 2a3e a8cd a3be
00000080: f233 74be c211 bdbe e02f 11bd a8a6 49be
00000090: 0ecb 403e f238 ffbd 319b 993d 6642 a1bd
000000a0: 21f5 0dbe 219c 12be adb2 783c 9f57 e7bd
000000b0: 218a 40be 6ef5 b8bd 04df dd3e a157 5dbd
000000c0: 808a aebe c7b9 563e cb6e 6abe 04bd 57be
000000d0: 7120 6cbe 8581 183e 8207 55be 8896 08bd
000000e0: 8578 a13e c8fa 073e f2c2 c03d d003 d2bd
000000f0: a708 16bc 7fd5 a7bc a893 4fbe d482 113e
00000100: 1da1 04be e914 d03d c7cc 58be db8a 46be
00000110: 199b 10be f2f8 5dbe 5b75 b33e 105d 233e
00000120: 2797 313d f8c6 a5bd 52a3 c83c a013 7e3d
00000130: ab1e dabd 81f6 64be 43bb 9a3c 8d23 9f3d
00000140: 934e 72be 50eb 063e 4d02 583d 4894 033d
00000150: 75c7 60be 0db5 babd 0862 853e ea3d 203e
00000160: 5c2b f4bd 3c31 1d3b 246f 133e a831 dbbd
00000170: b30c 20be cd64 2fbe f321 863e 68ce 5ebe
00000180: bc9c 32bc c224 79bd aad8 b43e 4cef 97bd
00000190: 5137 b33e 7da2 7bbe 9044 26be eef6 cdbb
000001a0: 64c7 95be 40ec 84bd c747 523e 3ad9 0ebe
000001b0: 39ca 69be e7f4 32be 11b5 2cbe 337b 8ebe
000001c0: d5b6 f4bd a5fb 1dbe 4160 ac3d 6d0b 6dbe
000001d0: 04d6 873d 1c94 80bd f9f0 44bd ebc9 46be
000001e0: 1982 cb3d e787 1bbe 016e 483e 85bb 86be
000001f0: 2577 4cbe 3332 68be 91df 443d 99da 453c

2.weight f4 [128, 128]
0.044300374 -0.00809196 -0.031023664 -0.054781426 0.06084776 -0.013889858 -0.041541528 0.03392715
0.00882927 -0.032977678 0.0069910516 0.066673666 -0.002375947 -0.036823545 0.07770591 -0.048204046
-0.060596246 -0.04018205 -0.08204804 0.038134534 0.08356816 -0.07647925 0.04649129 0.010531794
-0.010660577 -0.0615352 -0.038062956 -0.010081182 0.024501948 0.053770665 -0.064191096 -0.018448828
-0.010001835 0.0064299824 -0.06195519 0.04835074 0.02447382 -0.051198658 -0.0503632 -0.00627337
0.0205054 -0.061632734 0.020478996 -0.03861639 -0.0063329213 0.016680479 0.04774596 0.005255255
-0.047926888 -0.078318916 0.046373326 0.07802251 -0.05307543 -0.054129314 0.007998004 -0.013293942
0.07713728 0.089604005 0.03117367 0.092620604 0.08135639 -0.008255801 0.06392774 -0.07603197
-0.028589692 0.07587518 -0.054982796 -0.0033816814 -0.06801645 0.09381054 0.06539707 -0.04960952
0.084844835 -0.054017805 0.06960427 -0.0015450747 -0.005813158 0.06427992 -0.08053628 -0.045026783
-0.008058794 -0.06916813 0.020830676 -0.06975622 -0.06074661 0.032969873 0.01158504 0.08331516
-0.07188776 0.0764573 0.06031834 -0.0074265935 0.049494065 -0.06978345 -0.05602339 -0.059454203
-0.073529296 -0.0694237 0.041403946 0.08599447 0.011127377 -0.034544796 -0.05767814 -0.023532016
0.05126667 -0.042293824 -0.027970511 -0.079026714 0.021884913 0.0847405 0.045383535 0.075962104
0.05482368 0.00064366334 -0.06115635 0.09159447 -0.018386662 0.10218654 -0.05574645 0.006399231
0.021976095 0.054453343 0.010400842 -0.08091504 0.00056470506 0.09149342 0.011199659 0.056456782
-0.034220114 -0.06007499 0.053740356 0.0440986 -0.019283848 -0.025388354 -0.0354354 0.021669954
0.062807046 -0.08499518 0.0021713916 0.011900103 -0.0056082914 0.04817422 0.025199069 0.07038335
-0.04273968 -0.013954822 -0.012679427 -0.050093487 -0.039440706 -0.030220333 -0.02549012 -0.04357498
0.013034756 -0.08329236 0.07762612 -0.030059597 0.061137363 0.0071280836 -0.07400715 -0.088862926
-0.01577776 0.05077419 0.012470682 0.05600892 -0.05594108 -0.08405652 -0.086190335 0.022993928
0.046014473 -0.038772956 0.022764504 -0.070477076 -0.016356433 0.074735 -0.028873293 0.0747195
-0.053958267 -0.049813394 0.07803435 0.06999439 0.019235663 -0.02339092 0.03543176 0.027080368
-0.040181983 -0.0680976 -0.006707252 -0.04283768 -0.029348524 0.013408232 0.07540725 0.069810495
0.06864952 0.036460683 0.029970193 -0.017342335 0.0077496395 -0.0073323487 -0.0699227 0.08763147
0.0608337 0.008991801 0.04663757 0.04005336 0.06385283 0.048213076 -0.013495579 -0.020679487
-0.05045854 0.0071138204 0.066864826 -0.08139913 0.021971285 -0.04935933 0.07861316 -0.07858582
0.010427008 0.052932013 -0.029061738 0.0096799135 0.030027835 -0.005322929 -0.027684994 0.08250365
-0.08339855 -0.057235025 -0.03420421 0.0074180365 -0.014396761 0.014590688 -0.014735572 -0.045734584
0.010483101 0.06201514 0.04070541 0.021134872 -0.05949827 0.049586073 -0.012789613 0.056182906
-0.032461092 -0.06746693 0.060134064 -0.01893847 -0.037814166 0.03906325 -0.000758868 -0.03331549
-0.014500729 -0.00015507718 0.014788945 0.06306722 -0.03349356 -0.028939039 -0.001069877 0.00014074249
00000000: 4f74 353d 2494 04bc 5725 febc 7d62 60bd
00000010: 803b 793d 4992 63bc 7327 2abd 32f7 0a3d
00000020: a4a8 103c 9a13 07bd 3115 e53b 348c 883d
00000030: c7b5 1bbb 49d4 16bd 4724 9f3d 9b71 45bd
00000040: c533 78bd ef95 24bd ce08 a8bd f532 1c3d
00000050: c925 ab3d 27a1 9cbd a76d 3e3d 8c8d 2c3c
00000060: b3a9 2ebc 550c 7cbd e7e7 1bbd 8b2b 25bc
00000070: 4fb8 c83c a13e 5c3d 9f76 83bd ff21 97bc
00000080: bdde 23bc 9ab2 d23b bac4 7dbd 6d0b 463d
00000090: 527d c83c afb5 51bd a549 4ebd d790 cdbb
000000a0: f1fa a73c 9b72 7cbd 91c3 a73c 382c 1ebd
000000b0: 6584 cfbb 80a5 883c 4591 433d 4634 ac3b
000000c0: fc4e 44bd ab65 a0bd f5f1 3d3d 44ca 9f3d
000000d0: 9f65 59bd b3b6 5dbd 0f0a 033c d6ce 59bc
000000e0: 26fa 9d3d 4e82 b73d ed5f ff3c dfaf bd3d
000000f0: 2e9e a63d 5743 07bc 8cec 823d a6b6 9bbd
00000100: ee34 eabc 7264 9b3d a435 61bd 339f 5dbb
00000110: 354c 8bbd be1f c03d e6ee 853d 5a33 4bbd
00000120: 21c3 ad3d c641 5dbd af8c 8e3d 1b84 caba
00000130: 4e7c bebb 31a5 833d 35f0 a4bd 016e 38bd
00000140: 0809 04bc 05a8 8dbd 18a5 aa3c 59dc 8ebd
00000150: 70d1 78bd 6b0b 073d 2ecf 3d3c 23a1 aa3d
00000160: e439 93bd a595 9c3d 5d10 773d c85a f3bb
00000170: 4aba 4a3d a0ea 8ebd c878 65bd 4086 73bd
00000180: 8796 96bd 032e 8ebd 2f97 293d de1d b03d
00000190: 9a4f 363c d87e 0dbd ea3f 6cbd 37c6 c0bc
000001a0: 00fd 513d 4a3c 2dbd 6a22 e5bc c2d8 a1bd
000001b0: fd47 b33c 6d8c ad3d 16e4 393d 0592 9b3d
000001c0: cc8e 603d 84bb 283a 157f 7abd e295 bb3d
000001d0: a09f 96bc 2d47 d13d 6456 64bd a4b0 d13b
000001e0: 3607 b43c 780a 5f3d 4b68 2a3c c9b6 a5bd
000001f0: b708 143a e760 bb3d c67e 373c 3a3f 673d
00000200: 642a 0cbd 3111 76bd d91e 5c3d bca0 343d
00000210: 29f9 9dbc 3dfb cfbc b624 11bd 3085 b13c
00000220: fba0 803d f411 aebd e84d 0e3b a6f8 423c
00000230: c2c5 b7bb 5552 453d 476e ce3c 2525 903d
00000240: cd0f 2fbd c4a2 64bc 5fbd 4fbc d42e 4dbd
00000250: 948c 21bd a290 f7bc a8d0 d0bc ae7b 32bd
00000260: bb8f 553c 2f95 aabd 71fa 9e3d 8b3f f6bc
00000270: 2c6b 7a3d b392 e93b 1091 97bd c4fd b5bd
00000280: 5c40 81bc 99f8 4f3d d551 4c3c 9c69 653d
00000290: 7922 65bd d325 acbd 8f84 b0bd c35d bc3c
000002a0: ac79 3c3d 64d0 1ebd a07c ba3c 4956 90bd
000002b0: edfd 85bc aa0e 993d af87 ecbc 8a06 993d
000002c0: 5803 5dbd 2109 4cbd 79d0 9f3d 3859 8f3d
000002d0: 1c94 9d3c 519e bfbc e520 113d a6d7 dd3c
000002e0: dd95 24bd c176 8bbd 82c8 dbbb 9076 2fbd
000002f0: 516c f0bc 33ae 5b3c 1e6f 9a3d cef8 8e3d
00000300: 1f98 8c3d cc57 153d 0d84 f53c 8311 8ebc
00000310: b0f0 fd3b 3344 f0bb a233 8fbd 2178 b33d
00000320: c22c 793d 5952 133c 0907 3f3d fe0e 243d
00000330: 46c5 823d 137b 453d 901c 5dbc 0768 a9bc
00000340: 9dad 4ebd 0d1b e93b 6df0 883d 96b4 a6bd
00000350: 20fd b33c 022d 4abd f0ff a03d 9af1 a0bd
00000360: 0bd6 2a3c 3dcf 583d e212 eebc 8098 1e3c
00000370: effc f53c f76b aebb a4cb e2bc acf7 a83d
00000380: dccc aabd 466f 6abd b719 0cbd 0013 f33b
00000390: 64e0 6bbc c80d 6f3c 786d 71bc 3054 3bbd
000003a0: 50c1 2b3c 9603 7e3d b7ba 263d 0a23 ad3c
000003b0: 75b4 73bd c41a 4b3d 868b 51bc 0c20 663d
000003c0: ecf5 04bd 1a2c 8abd 234f 763d da24 9bbc
000003d0: 07e3 1abd c900 203d c5ee 46ba d375 08bd
000003e0: 7794 6dbc 379c 22b9 554d 723c 6329 813d
000003f0: 8b30 09bd 9011 edbc 1d3b 8cba 4694 1339

2.bias f4 [128]
0.09627381 -0.042744525 -0.0221475 -0.0169873 0.008281947 -0.101208575 -0.008081174 -0.030013677
0.1337563 -0.15682904 0.01084203 -0.12682307 -0.07566568 0.058332466 -0.090861805 0.19537099
0.12617339 0.19965596 -0.06345465 -0.017783897 0.008883832 -0.13177502 -0.06503712 -0.06011487
-0.05956741 -0.020424051 -0.2144106 -0.018566992 0.008669625 0.009897468 0.11758974 -0.105210684
0.17789412 0.10602458 -0.08640481 -0.107730694 0.086466655 0.021247486 -0.34290543 -0.126861
-0.023623437 -0.0144927865 -0.06480321 -0.11093317 0.11554599 0.1364139 0.1200584 -0.01141857
-0.15604378 -0.03474531 0.08514596 0.03861554 -0.028757934 -0.035280958 -0.060817253 -0.00014018315
0.09271102 -0.072419174 -0.042960607 0.050534137 -0.062352832 0.020130828 0.08746796 0.07688544
-0.053216446 0.057263155 -0.043584693 -0.015769335 -0.0050472417 -0.2516071 -0.15221357 0.08782844
-0.11006206 0.07784375 0.03273799 0.08776145 -0.03623862 -0.29445317 0.003536044 -0.09515333
-0.036308765 0.018794956 -0.054791775 -0.054039106 -0.21557482 0.08703878 0.0074712886 -0.07292402
0.07561963 -0.0992031 -0.07494958 0.020308271 -0.0009414387 0.042622782 -0.12028992 0.046012037
0.03256068 0.05118519 -0.027801273 0.007402642 0.04636943 0.032162067 -0.025666235 -0.088930756
-0.018115215 0.12030077 -0.059165128 0.0376929 0.03767134 -0.16882043 -0.02358676 -0.046972897
-0.0393182 -0.09479217 -0.064327255 0.02325381 -0.029515179 0.024597658 0.04541962 0.0049301405
0.015049669 0.07621549 0.056951057 -0.055439487 0.018590389 0.027994309 -0.04080699 -0.0067147105
00000000: 342b c53d e214 2fbd ad6e b5bc f328 8bbc
00000010: 01b1 073c 7146 cfbd e766 04bc 3edf f5bc
00000020: 69f7 083e cb97 20be c5a2 313c e8dd 01be
00000030: 9cf6 9abd 06ee 6e3d c115 babd 550f 483e
00000040: 9933 013e 9d72 4c3e 83f4 81bd 89af 91bc
00000050: 7e8d 113c 08f0 06be 2e32 85bd 033b 76bd
00000060: f5fc 73bd 5750 a7bc 748e 5bbe ce19 98bc
00000070: 0b0b 0e3c fd28 223c e4d2 f03d b378 d7bd
00000080: e029 363e 6a23 d93d 01f5 b0bd e9a1 dcbd
00000090: 6e15 b13d 350f ae3c 4d91 afbe dae7 01be
000000a0: f085 c1bc 2773 6dbc 8cb7 84bd ee30 e3bd
000000b0: 60a3 ec3d 16b0 0b3e 2ee1 f53d f414 3bbc
000000c0: f1c9 1fbe 1951 0ebd 0161 ae3d 542b 1e3d
000000d0: c295 ebbc c482 10bd 831b 79bd 21fe 12b9
000000e0: 46df bd3d 8150 94bd 76f7 2fbd e2fc 4e3d
000000f0: af65 7fbd 68e9 a43c 6722 b33d 1d76 9d3d
00000100: 7df9 59bd c58c 6a3d dd85 32bd b12e 81bc
00000110: 5563 a5bb a5d2 80be e0dd 1bbe 66df b33d
00000120: 3868 e1bd 8b6c 9f3d 4518 063d 46bc b33d
00000130: f26e 14bd 91c2 96be f9bc 673b c0df c2bd
00000140: 80b8 14bd e1f7 993c 576d 60bd 1c58 5dbd
00000150: a5bf 5cbe 6341 b23d b6d1 f43b 3059 95bd
00000160: 77de 9a3d ff2a cbbd 2a7f 99bd 885d a63c
00000170: e2ca 76ba 3a95 2e3d 905a f6bd 1e77 3c3d
00000180: 595e 053d 90a7 513d 7fbf e3bc dd91 f23b
00000190: dfed 3d3d 5fbc 033d ff41 d2bc 5421 b6bd
000001a0: 5c66 94bc 4060 f63d 2257 72bd df63 1a3d
000001b0: 434d 1a3d 43df 2cbe 0539 c1bc a766 40bd
000001c0: 1f0c 21bd 6622 c2bd 02be 83bd c67e be3c
000001d0: d1c9 f1bc 0781 c93c ec09 3a3d 048d a13b
000001e0: e392 763c de16 9c3d 8345 693d 8414 63bd
000001f0: df4a 983c 5254 e53c 3b25 27bd 1307 dcbb

4.weight f4 [128, 128]
0.047888324 0.024455644 -0.03724161 0.050553955 0.0012793362 -0.04954332 0.0067187594 -0.009047753
0.02602653 0.013628282 0.06780211 0.006775348 0.007892491 -0.006926451 -0.061716978 0.04339991
0.07409105 -0.038211264 -0.057852257 -0.034191966 -0.003335999 0.07202171 -0.016151993 0.081132844
0.07143884 -0.07036766 -0.08723326 -0.009066127 -0.011446625 0.011503186 -0.008667396 -0.03895376
0.015266287 -0.043860167 0.047731098 0.06293275 -0.07254302 -0.06669997 0.06712873 -0.019774893
0.0358692 -0.0847329 -0.052936237 -0.06929285 -0.03081908 -0.06685393 -0.031833567 0.0061996253
-0.034073386 0.043682743 -0.034083825 -0.06794802 -0.023049807 0.047750823 -0.017357254 -0.04595019
-0.03281858 0.07023046 -0.07180589 -0.048865914 -0.07462598 0.07483833 -0.04801449 0.07893624
-0.019945145 -0.056628563 -0.04338286 -0.068877116 0.013414398 -0.03345856 0.07874946 0.007980775
0.01592259 -0.040747743 -0.027298257 -0.0480156 0.025848208 0.04256587 -0.05641929 0.039106913
-0.084807895 0.051850393 0.04621487 -0.024842555 0.017358065 -0.06091213 -0.016850859 0.0233299
0.04314214 -0.071296096 -0.073607385 0.06916282 0.030977326 0.07647582 -0.078495465 -0.041128702
-0.037419874 -0.015821561 0.008215723 -0.018264815 0.047058273 -0.05331195 0.075147815 -0.043352075
0.04859308 0.07257964 -0.07817362 0.024508275 0.020391107 0.0806565 0.049238775 -0.08687142
-0.031854425 -0.06929549 -0.04670401 -0.026495894 0.03357987 -0.08544798 0.0053755525 -0.08005362
-0.017005397 -0.083612226 -0.06034056 -0.03863348 0.03533485 -0.049244687 -0.052310903 0.038758665
-0.04246182 0.030993706 0.09331035 0.07785048 -0.013780105 0.0444292 -0.024656987 0.066083364
0.004399776 0.007324029 -0.08630346 0.07839364 0.059729192 -0.010245656 -0.044561904 -0.028151464
-0.07860651 -0.0531514 0.04069151 -0.054906603 0.03952677 -0.041618146 -0.042092826 -0.080899
0.0094266785 -0.031609163 -0.040173635 -0.002372883 -0.04765727 0.017782409 0.061071306 -0.038694423
0.029904235 -0.028125629 0.02566749 -0.07035061 -0.052900236 -0.038698867 0.0005686098 -0.0150043415
-0.026042972 0.05207696 -0.060872857 0.087505825 0.020083666 0.004489261 0.07095892 0.06259132
-0.022254087 0.029697662 -0.03526894 0.048420943 0.05812459 0.019648341 0.0011687367 -0.03289379
-0.025551967 0.07299838 0.022655014 0.029645428 -0.0075364704 -0.010607408 0.06590631 -0.06697997
0.014071203 -0.015031091 -0.028668214 -0.07533573 0.057245407 -0.07347916 -0.031367727 0.015182875
0.045926474 -0.08749404 0.04648264 -0.031832036 0.027871687 -0.077393636 -0.077008955 0.08035164
0.031259168 0.01921551 0.045947257 0.079382814 0.05616829 0.027861768 -0.07039185 0.09233879
-0.005713679 -0.01646031 0.018582668 0.06760443 -0.013614687 -0.043745916 0.04968316 0.07290619
0.026350396 0.013376409 0.0027238883 0.018115161 -0.07619634 -0.044713248 0.038474288 0.02222693
0.036029838 0.004494716 -0.048852082 -0.03672927 -0.014667633 -0.05752325 0.08387969 -0.04650321
0.00811229 0.08817186 -0.07299811 -0.08019789 0.038020004 0.05768624 -0.039052643 0.040962476
0.061519332 -0.030959513 0.07190965 0.008804865 -0.014876817 0.031697214 0.048378073 0.084792085
00000000: 8c26 443d 3457 c83c a98a 18bd aa11 4f3d
00000010: 66af a73a f0ed 4abd 0a29 dc3b 073d 14bc
00000020: 9735 d53c 2849 5f3c d5db 8a3d bd03 de3b
00000030: 824f 013c 48f7 e2bb f1ca 7cbd 1bc4 313d
00000040: 0cbd 973d 6a83 1cbd 7df6 6cbd e00c 0cbd
00000050: c7a0 5abb 1e80 933d 2f51 84bc fa28 a63d
00000060: 874e 923d eb1c 90bd 5aa7 b2bd 188a 14bc
00000070: a08a 3bbc dc77 3c3c b201 0ebc fa8d 1fbd
00000080: 731f 7a3c b8a6 33bd af81 433d e3e2 803d
00000090: 6f91 94bd fe99 88bd ca7a 893d f5fe a1bc
000000a0: 95eb 123d 7188 adbd abd3 58bd 69e9 8dbd
000000b0: 4c78 fcbc b7ea 88bd ea63 02bd 3a26 cb3b
000000c0: 8990 0bbd adec 323d 7b9b 0bbd 5528 8bbd
000000d0: f3d2 bcbc 5e96 433d cd30 8ebc 4436 3cbd
000000e0: c66c 06bd fdd4 8f3d f70e 93bd a027 48bd
000000f0: 81d5 98bd d744 993d d8aa 44bd 53a9 a13d
00000100: 0064 a3bc 5af3 67bd 3ab2 31bd 720f 8dbd
00000110: 10c8 5b3c d80b 09bd 6647 a13d ccc1 023c
00000120: 1770 823c 1be7 26bd 98a0 dfbc 01ac 44bd
00000130: 9fbf d33c 8d59 2e3d ea17 67bd 922e 203d
00000140: c3af adbd 1461 543d ce4b 3d3d 9d82 cbbc
00000150: 8032 8e3c ff7e 79bd d00a 8abc 591e bf3c
00000160: d0b5 303d b003 92bd 78bf 96bd 3da5 8d3d
00000170: 29c4 fd3c 5b9f 9c3d 3bc2 a0bd 9276 28bd
00000180: 9545 19bd 389c 81bc 3d9b 063c 18a0 95bc
00000190: 2dc0 403d a25d 5abd 19e7 993d f291 31bd
000001a0: 8a09 473d a2a4 943d 7e19 a0bd 94c5 c83c
000001b0: 400b a73c 3c2f a53d 99ae 493d a5e9 b1bd
000001c0: c979 02bd cbea 8dbd b44c 3fbd eb0d d9bc
000001d0: 0c8b 093d 5aff aebd 6725 b03b 27f3 a3bd
000001e0: e74e 8bbc e33c abbd aa27 77bd 243e 1ebd
000001f0: 47bb 103d ccb4 49bd f543 56bd 68c1 1e3d
00000200: 72ec 2dbd 83e6 fd3c 7f19 bf3d 1370 9f3d
00000210: f3c5 61bc 65fb 353d 73fd c9bc b756 873d
00000220: ff2b 903b 69fe ef3b debf b0bd d88c a03d
00000230: 99a6 743d 65dd 27bc 8b86 36bd e69d e6bc
00000240: 73fc a0bd 48b5 59bd 24ac 263d bfe5 60bd
00000250: d3e6 213d ca77 2abd 8769 2cbd 60ae a5bd
00000260: 5b72 1a3c 9c78 01bd 1c8d 24bd 5f82 1bbb
00000270: 4534 43bd 6aac 913c e825 7a3d 0b7e 1ebd
00000280: baf9 f43c b867 e6bc a144 d23c fb13 90bd
00000290: ebad 58bd b482 1ebd c20e 153a c5d4 75bc
000002a0: 1258 d5bc a74e 553d d155 79bd 4136 b33d
000002b0: 8086 a43c a71a 933b e952 913d e12f 803d
000002c0: 344e b6bc 8348 f33c 2a76 10bd 0a55 463d
000002d0: 0d14 6e3d 8ff5 a03c 4c30 993a a4bb 06bd
000002e0: 5c52 d1bc 2d80 953d 0297 b93c f8da f23c
000002f0: 7ff4 f6bb b2ca 2dbc e3f9 863d cb2c 89bd
00000300: e78a 663c f744 76bc 9ad9 eabc 9f49 9abd
00000310: 297a 6a3d 3e7c 96bd 727b 00bd 98c1 783c
00000320: 661d 3c3d 1330 b3bd 9564 3e3d 4f62 02bd
00000330: 2a53 e43c 8e80 9ebd dfb6 9dbd 678f a43d
00000340: 9d09 003d d869 9d3c 3133 3c3d 7593 a23d
00000350: b910 663d 5d3e e43c 9a29 90bd 1f1c bd3d
00000360: d039 bbbb c6d7 86bc ae3a 983c 3174 8a3d
00000370: 2310 5fbc eb2e 33bd 9280 4b3d d74f 953d
00000380: c9dc d73c ba28 5b3c 4383 323b 3f66 943c
00000390: d40c 9cbd 3d25 37bd 3797 1d3d 4015 b63c
000003a0: 0694 133d 6948 933b 1f19 48bd 6e71 16bd
000003b0: 8350 70bc 809d 6bbd 1dc9 ab3d 267a 3ebd
000003c0: 69e9 043c 7393 b43d 0880 95bd cb3e a4bd
000003d0: ddba 1b3d 6848 6c3d aaf5 1fbd 45c8 273d
000003e0: b2fb 7b3d ce9e fdbc 5e45 933d 4842 103c
000003f0: e5bd 73bc f0d4 013d 1628 463d 79a7 ad3d

4.bias f4 [128]
-0.033666562 0.038635764 0.09794876 -0.08737315 -0.07089221 -0.0394496 -0.02577272 -0.07313671
0.09671272 0.08508122 -0.056553837 0.013882618 -0.013208502 -0.0049012853 0.06857143 0.025701024
-0.12922908 0.022759082 0.10974467 -0.06466633 -0.014273624 0.0007054685 0.041249573 -0.07773319
0.12248653 -0.077663556 -0.04278591 -0.081532344 -0.08305819 -0.06847942 -0.01116767 0.10106711
-0.019359762 -0.02119455 -0.067411855 -0.059483696 0.020808429 0.03289556 -0.04695295 -0.041925542
0.01271833 -0.033829354 0.11272189 0.15602916 0.0531098 0.08581823 -0.012819645 -0.0465618
-0.032562718 0.055676583 0.017620135 -0.04634443 0.0017753742 -0.0004256932 -0.036040295 -0.03809535
-0.017870028 -0.079244174 -0.052043125 0.16193801 0.012585861 -0.008037964 0.12158655 0.043319058
-0.090731606 -0.074177824 0.0049140067 -0.06259373 0.07686034 0.038525533 0.115634196 -0.0705667
0.041088358 0.16773719 0.18822719 0.15038207 -0.030852588 -0.10016877 0.055307545 -0.06995528
0.0070647784 0.07270693 -0.05283413 -0.041826688 0.10880785 0.030474544 0.10521629 -0.010224016
-0.068866976 -0.012026276 0.13913678 0.060481574 -0.07447153 -0.016424308 0.050431192 0.08590737
0.09415563 0.08491614 -0.05201235 0.011009483 0.016994555 -0.024354806 0.0053519253 -0.024760073
0.1176919 0.012774619 -0.046030246 -0.041218795 0.12001209 0.010719611 -0.0625088 -0.056836482
-0.045087345 0.01819917 0.19372661 -0.04197501 -0.07911001 -0.0526753 -0.021859726 -0.008304463
0.04975718 0.082859255 0.11388541 0.0068454035 0.026604418 0.016810043 0.09768502 0.037709717
00000000: f3e5 09bd 8940 1e3d 5c99 c83d b2f0 b2bd
00000010: ef2f 91bd e795 21bd 5021 d3bc b3c8 95bd
00000020: 5211 c63d 103f ae3d ffa4 67bd ec73 633c
00000030: 7968 58bc f69a a0bb 2e6f 8c3d f48a d23c
00000040: a154 04be 4171 ba3c d0c1 e03d c86f 84bd
00000050: ebdb 69bc 31ef 383a 50f5 283d 9432 9fbd
00000060: 38da fa3d 120e 9fbd 4740 2fbd 6efa a6bd
00000070: 6a1a aabd f03e 8cbd 9af8 36bc 46fc ce3d
00000080: 5d98 9ebc 31a0 adbc 3a0f 8abd 2da5 73bd
00000090: 7076 aa3c 7fbd 063d bd51 40bd 1eba 2bbd
000000a0: 8b60 503c a690 0abd bcda e63d 1cc6 1f3e
000000b0: a989 593d 78c1 af3d 7d09 52bc 96b7 3ebd
000000c0: 7c60 05bd 210d 643d 1a58 903c a8d3 3dbd
000000d0: acb3 e83a 932f dfb9 fd9e 13bd df09 1cbd
000000e0: 2a64 92bc c54a a2bd 2c2b 55bd 14d3 253e
000000f0: ed34 4e3c aab1 03bc 5e02 f93d 536f 313d
00000100: 7ed1 b9bd 8bea 97bd ad05 a13b 2431 80bd
00000110: f468 9d3d f3cc 1d3d 9fd1 ec3d 4685 90bd
00000120: 444c 283d 4cc3 2b3e a1be 403e c2fd 193e
00000130: 91be fcbc 4925 cdbd 2a8a 623d b744 8fbd
00000140: a87f e73b 5fe7 943d 9a68 58bd 7652 2bbd
00000150: a6d6 de3d c0a5 f93c a37b d73d a282 27bc
00000160: 210a 8dbd dc09 45bc df79 0e3e 87bb 773d
00000170: 8884 98bd 458c 86bc f090 4e3d 34f0 af3d
00000180: abd4 c03d 83e8 ad3d e70a 55bd 1e61 343c
00000190: 2a38 8b3c bb83 c7bc 345f af3b a3d5 cabc
000001a0: 7308 f13d a34c 513c 368a 3cbd 0ad5 28bd
000001b0: e6c8 f53d 4fa1 2f3c 9d04 80bd 5fcd 68bd
000001c0: 82ad 38bd 6d16 953c 4560 463e fded 2bbd
000001d0: 6e04 a2bd 0ec2 57bd 2b13 b3bc 710f 08bc
000001e0: 2fce 4b3d 1db2 a93d c13c e93d 684f e03b
000001f0: 82f1 d93c 37b5 893c 150f c83d 8175 1a3d

6.weight f4 [128, 128]
0.007365112 0.0505415 -0.018819295 -0.010658433 0.03444791 -0.06271435 0.015694417 0.055445995
0.069214135 0.039296072 -0.04027894 -0.048800424 0.06762759 -0.08598769 0.093061835 -0.03513071
0.05061997 -0.01033239 0.07730084 -0.06680781 0.077325076 0.06916184 0.004639023 0.089365326
-0.053096768 -0.012807758 0.0010674116 -0.011583199 -0.07156362 -0.003725738 0.008581524 0.11218343
-0.017617209 0.055421013 -0.01553033 -0.0228333 0.07764939 -0.09539832 0.03343435 0.038563963
0.07312882 -0.0435521 -0.023720024 -0.0633433 0.04170763 0.017398246 0.042755786 0.03978203
-0.01020401 -0.055187445 -0.0122738015 0.049335282 0.045077488 0.06272753 0.066760495 -0.08634794
0.019614317 0.044613548 -0.045963634 -0.08658331 0.016217472 -0.033065155 -0.044126824 0.07230083
-0.039200906 -0.048606128 -0.101816714 0.076552086 0.054975137 0.032694966 0.029832646 -0.075243995
-0.059286546 0.057675887 -0.045476917 -0.0685322 -0.029757421 -0.043930132 0.025144024 -0.023866255
-0.057745006 0.003731051 -0.05888062 -0.06379567 -0.032692652 -0.035255212 -0.03239244 0.08675904
0.028580125 -0.044411212 0.02882044 -0.07667405 -0.06609564 0.0028105013 0.10528727 0.08728931
-0.0048632533 -0.00986198 -0.031366788 -0.016067145 -0.031517476 -0.090128124 -0.05142268 -0.015382741
0.029523397 0.09648435 0.10645656 0.08869607 0.06908564 0.08618597 0.06885097 0.05099891
0.032156453 0.055620432 0.00087092665 -0.024005668 0.03608545 -0.06904393 0.053475708 0.114738554
0.08095198 -0.068885475 0.07271119 0.022805292 0.05455717 0.030854946 0.06918498 -0.08318312
0.08725078 -0.07343335 -0.05148918 0.017858269 -0.006620415 -0.06119975 0.064923726 0.016932406
-0.021042284 0.03648296 -0.07317253 -0.0737225 0.06561208 0.0554047 0.061621744 0.04555387
-0.053030234 0.07306618 0.032487363 0.06954834 -0.06678373 -0.09071461 -0.05948548 -0.043826792
0.006285104 -0.007413167 0.09769348 -0.01667585 -0.015557196 0.061666388 0.10828626 0.008149201
0.08399506 -0.04917725 0.08466747 0.028036276 0.0070347786 0.08580588 0.0704331 -0.05596852
-0.033794038 -0.08561763 -0.013940445 0.00024324341 0.040229797 0.016336203 -0.056024037 0.08886952
0.00026751703 -0.045704555 0.042327013 0.0511936 0.03284949 -0.037368603 -0.010030454 0.06833896
0.057432093 -0.002627204 -0.020376815 0.076229274 -0.013533 0.03655275 0.05899286 -0.07691261
-0.04753169 -0.0638276 0.0037792032 -0.026990041 -0.04865388 0.09354297 0.104022875 -0.017409626
0.018014563 -0.0030595467 0.0043245936 0.057860654 0.037950683 0.089642316 -0.048825804 -0.082189985
-0.015284803 0.019565163 0.0028499514 0.090225 0.05821663 0.03771813 0.0033159596 -0.007756816
-0.01066839 0.008346125 -0.017107844 0.009266852 0.06006487 0.04757436 0.047418334 0.04247086
-0.012320223 -0.038258266 0.05135295 0.0052945954 0.08937792 -0.007045699 0.10139335 -0.07164411
0.117827356 -0.021182999 0.011114593 -0.022125924 -0.01693887 0.034917783 0.107011005 -0.013394945
-0.00959183 -0.041322697 -0.01428025 -0.0018454378 0.09841989 -0.08245153 -0.068044424 0.023570813
-0.026619231 0.040623803 0.04095794 -0.056930706 0.019843167 0.028011661 0.015108156 -0.08247056
00000000: 0a57 f13b 9b04 4f3d ec2a 9abc b5a0 2ebc
00000010: 4019 0d3d 6270 80bd 9491 803c 571b 633d
00000020: 24c0 8d3d ebf4 203d 88fb 24bd f4e2 47bd
00000030: 5580 8a3d 501a b0bd 3497 be3d 38e5 0fbd
00000040: e356 4f3d 2f49 29bc e74f 9e3d 88d2 88bd
00000050: 9c5c 9e3d b9a4 8d3d f202 983b 2b05 b73d
00000060: ff7b 59bd a1d7 51bc 64e8 8b3a 75c7 3dbc
00000070: f28f 92bd 832b 74bb 8599 0c3c 6dc0 e53d
00000080: f751 90bc 2501 633d ed72 7ebc e70c bbbc
00000090: a506 9f3d 3260 c3bd 75f2 083d 3ff5 1d3d
000000a0: 90c4 953d b063 32bd 7f50 c2bc 22ba 81bd
000000b0: 9fd5 2a3d c486 8e3c b120 2f3d 7bf2 223d
000000c0: b82e 27bc 3b0c 62bd 0e18 49bc cb13 4a3d
000000d0: 2ca3 383d 4b77 803d bab9 883d 30d7 b0bd
000000e0: 34ae a03c b2bc 363d 5d44 3cbd 9752 b1bd
000000f0: 81da 843c 546f 07bd 54be 34bd 7512 943d
00000100: 2191 20bd 3817 47bd 4885 d0bd 57c7 9c3d
00000110: 9c2d 613d 28eb 053d 9863 f43c 8619 9abd
00000120: 73d6 72bd 8d3d 6c3d 0146 3abd 9c5a 8cbd
00000130: d6c5 f3bc 15f0 33bd d7fa cd3c 2a83 c3bc
00000140: 0786 6cbd a684 743b ce2c 71bd 4ea7 82bd
00000150: bbe8 05bd c567 10bd efad 04bd b9ae b13d
00000160: de20 ea3c 88e8 35bd d818 ec3c 4907 9dbd
00000170: 275d 87bd 6330 383b daa0 d73d bdc4 b23d
00000180: ed5b 9fbb 2494 21bc 767a 00bd 3f9f 83bc
00000190: 7818 01bd 1895 b8bd 97a0 52bd e407 7cbc
000001a0: 0ddb f13c 9699 c53d e605 da3d 49a6 b53d
000001b0: c67c 8d3d 4582 b03d bd01 8d3d 3ce4 503d
000001c0: 7cb6 033d 40d2 633d e64e 643a 89a7 c4bc
000001d0: 56ce 133d e766 8dbd 5809 5b3d 0cfc ea3d
000001e0: 27ca a53d d413 8dbd 9be9 943d 2ad2 ba3c
000001f0: 5777 5f3d 83c3 fc3c dbb0 8d3d e95b aabd
00000200: 89b0 b23d 3964 96bd 52e6 52bd 814b 923c
00000210: 11f0 d8bb 97ac 7abd bbf6 843d d4b5 8a3c
00000220: de60 acbc 286f 153d 7bdb 95bd d2fb 96bd
00000230: a05f 863d 0af0 623d 1567 7c3d b296 3a3d
00000240: 3b36 59bd b9a3 953d 7811 053d 5c6f 8e3d
00000250: e9c5 88bd 95c8 b9bd 0ca7 73bd b983 33bd
00000260: 46f3 cd3b 27ea f2bb 8513 c83d cb9b 88bc
00000270: 9ce3 7ebc e595 7c3d 30c5 dd3d 3a84 053c
00000280: 9a05 ac3d 166e 49bd 2366 ad3d 55ac e53c
00000290: 0084 e63b feba af3d 3b3f 903d 3f3f 65bd
000002a0: 9e6b 0abd 4c58 afbd 7766 64bc 280f 7f39
000002b0: 00c8 243d 80d3 853c 7679 65bd 3901 b63d
000002c0: 8741 8c39 b334 3bbd 175f 2d3d 61b0 513d
000002d0: 308d 063d d20f 19bd c656 24bc 4cf5 8b3d
000002e0: ea3d 6b3d 2b2d 2cbb 47ed a6bc 181e 9c3d
000002f0: 84b9 5dbc 56b8 153d 7fa2 713d 5c84 9dbd
00000300: 97b0 42bd 0bb8 82bd 82ac 773b 381a ddbc
00000310: 4a49 47bd 7593 bf3d f209 d53d a29e 8ebc
00000320: 4793 933c ad82 48bb 52b5 8d3b 4bff 6c3d
00000330: 2d72 1b3d 6496 b73d 91fd 47bd 3953 a8bd
00000340: 1c6d 7abc 1f47 a03c 40c6 3a3b e3c7 b83d
00000350: 9074 6e3d 537e 1a3d 9250 593b e42c febb
00000360: 79ca 2ebc 2fbe 083c c025 8cbc ffd3 173c
00000370: 9506 763d 55dd 423d ba39 423d edf5 2d3d
00000380: c3da 49bc b3b4 1cbd 7957 523d 497e ad3b
00000390: c50b b73d 9bdf e6bb 51a7 cf3d 26ba 92bd
000003a0: 784f f13d f887 adbc fb19 363c 6d41 b5bc
000003b0: 63c3 8abc f305 0f3d 9628 db3d 7976 5bbc
000003c0: 0d27 1dbc fd41 29bd b6f7 69bc 9ee2 f1ba
000003d0: 5e90 c93d 59dc a8bd e05a 8bbd 9417 c13c
000003e0: 9310 dabc 2565 263d 83c3 273d 2c30 69bd
000003f0: 238e a23c b678 e53c 3388 773c 53e6 a8bd

6.bias f4 [128]
0.0058891843 0.1440934 0.028732568 0.077692896 -0.06489175 -0.022515949 0.22557962 0.041391436
0.23195435 0.20460542 0.014746839 -0.1160136 -0.08572378 -0.003292453 0.010955556 0.05170011
-0.09192256 -0.010452938 -0.07691063 0.017045604 0.0577339 0.15897709 -0.047969542 -0.08970411
-0.0022907797 0.03444171 0.030125825 -0.039030768 0.03103095 -0.058512993 0.06692286 -0.039552625
0.1664645 -0.031652257 -0.0063970145 -0.07227392 -0.11435838 0.04973838 0.02255752 0.13354108
-0.06974104 0.23744641 0.14364977 0.0017019238 -0.085615866 0.044311877 0.057083927 -0.101830766
-0.02988365 -0.024104737 -0.07000636 -0.101372086 0.05209027 -0.018532949 0.07803045 0.13167094
-0.055586558 -0.0035269854 0.20630035 -0.054344054 0.040022768 -0.042374812 0.0042799306 0.26945302
0.001607557 -0.031022074 -0.041783333 0.033705123 -0.08476825 -0.049094133 -0.04410088 0.03165046
0.041707393 -0.08058676 0.0037322473 0.17297246 0.0109964525 -0.08781114 -0.034517627 -0.0300707
0.005558726 -0.005373256 -0.090272285 -0.03455309 -0.05373748 -0.030320246 0.013532586 0.0076472233
0.0014901556 -0.0047244797 -0.060032733 0.072792016 -0.11420003 -0.074439295 -0.049862165 -0.08640645
-0.014114095 0.028250791 0.019412221 0.14012794 -0.030779904 0.14777963 -0.07946656 0.30469477
-0.07951764 -0.098002546 -0.043630995 -0.03391713 0.006698794 -0.043937553 0.10652012 -0.06405371
-0.0034541183 0.058417786 -0.07400024 0.03335695 0.033609238 -0.062259622 0.060140148 -0.017207254
-0.12631942 -0.05210038 0.15873311 -0.018211545 0.042023834 0.2770438 0.13193676 0.012931333
00000000: 0ffa c03b 388d 133e 9060 eb3c 741d 9f3d
00000010: f7e5 84bd 5e73 b8bc 58fe 663e 118a 293d
00000020: 7185 6d3e 1584 513e ba9c 713c 8a98 edbd
00000030: f38f afbd 32c6 57bb ef7e 333c 7fc3 533d
00000040: e541 bcbd cd42 2bbc 5283 9dbd 39a3 8b3c
00000050: 627a 6c3d e4ca 223e b67b 44bd cab6 b7bd
00000060: e820 16bb c012 0d3d 6fca f63c bade 1fbd
00000070: 9e34 fe3c 52ab 6fbd da0e 893d ef01 22bd
00000080: ab75 2a3e cca5 01bd 0c9e d1bb 5904 94bd
00000090: ba34 eabd 79ba 4b3d 8cca b83c febe 083e
000000a0: 64d4 8ebd 2725 733e ed18 133e 1613 df3a
000000b0: 5f57 afbd 5f80 353d d6d0 693d a68c d0bd
000000c0: 8ece f4bc 4c77 c5bc 7f5f 8fbd 2b9c cfbd
000000d0: 9b5c 553d 69d2 97bc 6ece 9f3d bfd4 063e
000000e0: bbae 63bd ff24 67bb 6640 533e df97 5ebd
000000f0: eaee 233d 3691 2dbd a93e 8c3b bff5 893e
00000100: a9b4 d23a 0122 febc 0025 2bbd 620e 0a3d
00000110: fa9a adbd ee16 49bd 20a3 34bd eaa3 013d
00000120: 5fd5 2a3d ac0a a5bd b898 743b b11f 313e
00000130: 772a 343c 54d6 b3bd 5b62 0dbd d456 f6bc
00000140: f925 b63b 2312 b0bb ade0 b8bd 8a87 0dbd
00000150: d51b 5cbd 2a62 f8bc c8b7 5d3c 8f95 fa3b
00000160: 5351 c33a cfcf 9abb e2e4 75bd fb13 953d
00000170: b5e1 e9bd a173 98bd 453c 4cbd ddf5 b0bd
00000180: ce3e 67bc 346e e73c 6106 9f3c b37d 0f3e
00000190: 2326 fcbc 8b53 173e 5dbf a2bd f400 9c3e
000001a0: 25da a2bd 8fb5 c8bd 6ab6 32bd b0ec 0abd
000001b0: 8f81 db3b ddf7 33bd 3827 da3d 972e 83bd
000001c0: 7d5e 62bb 7d47 6f3d 708d 97bd 4ca1 083d
000001d0: d7a9 093d f203 7fbd 8455 763d 3af6 8cbc
000001e0: e159 01be 3567 55bd ef8a 223e 6130 95bc
000001f0: 2f21 2c3d afd8 8d3e 6e1a 073e f1dd 533c

8.weight f4 [49, 128]
0.07212387 -0.08217346 -0.022419596 0.040801976 -0.13738139 0.08338642 -0.19337732 0.0936316
-0.1597704 -0.15998153 -0.10859406 0.016814332 -0.003543264 0.0025731237 0.031124849 0.0043229554
0.033347994 0.054920625 0.013595006 0.06086727 0.06387169 -0.05779 -0.07952111 0.090405636
-0.041828442 0.032611016 0.07018081 -0.018536404 -0.058266837 0.008611218 0.08496268 0.06413
-0.09869952 0.08389311 0.017435756 0.07535189 -0.08001389 -0.013749077 0.03813385 -0.20004058
0.004474628 -0.23971178 -0.035611067 -0.024420619 0.044153117 0.063419804 0.0009759835 -0.010870457
0.00474237 0.028746104 -0.025749533 -0.032394025 -0.06171369 0.054845247 -0.039628703 -0.07770866
0.06629366 0.06533651 -0.029464012 -0.093419686 -0.018737746 -0.07793133 -0.04194264 -0.16576196
-0.073702805 0.08247402 0.004136689 -3.213939e-05 -0.030876886 0.055062883 0.115831904 0.08643101
-0.015106324 0.028538847 0.08231541 -0.10502895 -0.057029225 -0.0023031358 -0.019514382 0.033055823
-0.03389331 0.0895885 -0.044660732 -0.084337346 -0.035458367 0.07152734 0.044611007 -0.07745918
0.046448812 0.053579632 0.015156791 -0.061080717 -0.058282644 -0.0019107317 -0.13958257 0.032607123
0.0816764 0.035584047 0.03629054 -0.11718104 -0.029850071 -0.16964172 -0.03461571 -0.23060335
0.104129806 0.16483179 -0.057583403 0.047742553 0.0040033744 -0.052087728 0.026831204 0.06047035
-0.029695189 0.036125477 0.038433332 0.07138783 -0.03551614 0.03320773 -0.11199957 0.08046942
-0.073496535 -0.04955562 -0.24914534 0.009229255 -0.034100734 -0.12730081 -0.043437373 0.07053485
0.043325145 -0.09777174 0.023857357 -0.007738605 -0.015452598 0.037254896 -0.04174951 0.082198836
-0.17032573 -0.02071977 -0.15512249 -0.029274687 0.049340993 0.029353697 0.07407231 0.008945408
0.087091856 0.024612522 0.041641615 -0.023474064 0.036463875 -0.14466055 0.0024119532 0.124818735
-0.010387211 0.011695438 0.032382205 -0.065400705 0.012557227 0.0034156514 -0.0452772 -0.023315765
-0.103265025 -0.0057368847 0.12818737 0.04983953 0.03854093 -0.04418548 0.023400122 -0.1143971
0.048243534 -0.26699948 -0.13288188 0.06713401 0.0456829 -0.043473177 0.07816161 0.06708701
-0.034525152 0.033597782 -0.015893798 0.015113035 -0.15045393 -0.05990729 -0.03885504 -0.04380362
-0.06550338 0.011486183 -0.16372964 -0.15731719 0.057769127 0.0037209021 -0.05248921 -0.101605766
-0.03534846 -0.06987346 0.06332327 0.01146931 -0.051351942 0.04448075 0.01121527 0.10416876
-0.07501905 -0.017928058 0.020204669 -0.048176024 0.0759292 -0.08904831 -0.06773005 0.0036164247
0.03508372 -0.07426599 0.004490313 -0.019050337 0.075290136 0.021438085 0.064410135 -0.12921724
0.08389122 0.07512657 -0.029102156 -0.10952646 -0.07452898 -0.055260196 -0.15588264 0.024523739
-0.037793856 0.018044213 -0.025674105 -0.06404381 0.017648082 -0.26225743 0.050080735 -0.17432317
0.104483806 0.092716485 0.04572654 -0.08536322 0.07785745 0.043623917 -0.07423134 0.093226485
-0.013832118 -0.017390983 -0.011667636 0.0037685751 -0.12437901 -0.009133975 -0.025885124 -0.060709454
-0.03806288 0.059312575 -0.21391387 0.0046775616 0.0168645 -0.17773165 -0.06299233 0.015904246
00000000: aeb5 933d 8f4a a8bd 4da9 b7bc f91f 273d
00000010: b5ad 0cbe 80c6 aa3d b404 46be edc1 bf3d
00000020: da9a 23be 33d2 23be 9066 debd 36be 893c
00000030: 1b36 68bb daa1 283b 8af9 fe3c 94a7 8d3b
00000040: e897 083d 73f4 603d 97bd 5e3c f54f 793d
00000050: 29cf 823d 35b5 6cbd f7db a2bd 9726 b93d
00000060: 4d54 2bbd 2193 053d f5ba 8f3d a8d9 97bc
00000070: 35a9 6ebd 1116 0d3c ea00 ae3d 9756 833d
00000080: f922 cabd 27d0 ab3d 6ed5 8e3c 1752 9a3d
00000090: 53de a3bd cf43 61bc 3d32 1c3d 70d7 4cbe
000000a0: e69f 923b 0177 75be e9dc 11bd c00d c8bc
000000b0: e6d9 343d 3ee2 813d 25d9 7f3a 001a 32bc
000000c0: e265 9b3b f37c eb3c aff0 d2bc 99af 04bd
000000d0: 7fc7 7cbd 69a5 603d b551 22bd b825 9fbd
000000e0: f8c4 873d 26cf 853d 835e f1bc d252 bfbd
000000f0: e77f 99bc 769a 9fbd 0ccc 2bbd 81bd 29be
00000100: 7ff1 96bd 24e8 a83d 108d 873b 68cd 06b8
00000110: 86f1 fcbc 9e89 613d 4739 ed3d be02 b13d
00000120: 8480 77bc 4dca e93c fb94 a83d 6b19 d7bd
00000130: 7a97 69bd 35f0 16bb a0dc 9fbc 8b65 073d
00000140: b6d3 0abd 2d7a b73d 2cee 36bd 0fb9 acbd
00000150: cb3c 11bd ed7c 923d 08ba 363d eba2 9ebd
00000160: 1c41 3e3d 5176 5b3d 3054 783c c62f 7abd
00000170: c8b9 6ebd 8471 faba bcee 0ebe 0c8f 053d
00000180: f545 a73d 94c0 113d 64a5 143d 9dfc efbd
00000190: 2388 f4bc 8fb6 2dbe 34c9 0dbd 4923 6cbe
000001a0: 0242 d53d aac9 283e 93dc 6bbd b28d 433d
000001b0: bd2e 833b f159 55bd 1dcd db3c c2af 773d
000001c0: 5343 f3bc 4ff8 133d 456c 1d3d c833 923d
000001d0: 5f79 11bd d404 083d 0860 e5bd 27cd a43d
000001e0: 5a85 96bd d5fa 4abd f51f 7fbe 4d36 173c
000001f0: 36ad 0bbd 255b 02be 63eb 31bd 9374 903d
00000200: b575 313d 8d3c c8bd 8170 c33c 2094 fdbb
00000210: e52c 7dbc 9798 183d 8901 2bbd dd57 a83d
00000220: de69 2ebe 82bc a9bc 6ed8 1ebe 78d1 efbc
00000230: c819 4a3d 2a77 f03c 39b3 973d c38f 123c
00000240: 375d b23d 33a0 c93c 6690 2a3d ae4c c0bc
00000250: 255b 153d e521 14be dc11 1e3b f7a0 ff3d
00000260: 1f2f 2abc 399e 3f3c 34a3 043d cef0 85bd
00000270: d4bc 4d3c 1fd9 5f3b 9674 39bd b400 bfbc
00000280: 9d7c d3bd 7afc bbbb 8d43 033e 8924 4c3d
00000290: 18dd 1d3d d5fb 34bd 9db1 bf3c 0749 eabd
000002a0: 039b 453d 28b4 88be 3012 08be 8e7d 893d
000002b0: fe1d 3b3d ee10 32bd 3213 a03d ea64 893d
000002c0: 3f6a 0dbd d49d 093d b633 82bc aa9c 773c
000002d0: 9810 1abe 5961 75bd 7626 1fbd 6d6b 33bd
000002e0: a326 86bd 8b30 3c3c bea8 27be c217 21be
000002f0: 529f 6c3d 61da 733b edfe 56bd af16 d0bd
00000300: 8cc9 10bd d119 8fbd a1af 813d c6e9 3b3c
00000310: 6a56 52bd 7231 363d 40c0 373c 6e56 d53d
00000320: 96a3 99bd dddd 92bc 4384 a53c 3954 45bd
00000330: c580 9b3d f65e b6bd 0db6 8abd 8a01 6d3b
00000340: f2b3 0f3d c418 98bd 7a23 933b 740f 9cbc
00000350: b731 9a3d ec9e af3c 76e9 833d 8651 04be
00000360: 29cf ab3d f6db 993d a567 eebc 694f e0bd
00000370: a6a2 98bd 8458 62bd b39f 1fbe 02e6 c83c
00000380: bbcd 1abd 75d1 933c 8052 d2bc 6729 83bd
00000390: b692 903c 9b46 86be 7521 4d3d c681 32be
000003a0: 9bfb d53d 24e2 bd3d c14b 3b3d e9d2 aebd
000003b0: ba73 9f3d feae 323d 9a06 98bd 87ed be3d
000003c0: 1ca0 62bc 8977 8ebc 9d29 3fbc 33fa 763b
000003d0: 6cba febd aba6 15bc 0a0d d4bc 7aaa 78bd
000003e0: d3e7 1bbd bef1 723d 3d0c 5bbe 3b46 993b
000003f0: 6b27 8a3c 49ff 35be 1f02 81bd 9f49 823c

8.bias f4 [49]
-0.09013084 -0.058365874 -0.09451529 -0.10929243 -0.12705803 -0.08505497 -0.08443482 -0.10124927
-0.14162163 -0.14185701 -0.10570784 -0.10042371 -0.14761889 -0.18163675 -0.1525026 -0.110520765
-0.16680445 -0.19894403 -0.20976005 -0.16494499 -0.16039155 -0.15612516 -0.18105008 -0.19002858
-0.22609766 -0.13231148 -0.0841999 -0.1884181 -0.1841253 -0.12203089 -0.17912048 -0.29495183
-0.121688694 -0.20075075 -0.12991965 -0.08538433 -0.10337653 -0.17463958 -0.12933202 -0.1314554
-0.11908939 -0.08281612 -0.18032762 -0.14160071 -0.109803505 -0.08706106 -0.06416646 -0.13215156
-0.15922156
00000000: 8596 b8bd 0e11 6fbd 3b91 c1bd b6d4 dfbd
00000010: 801b 02be 4d31 aebd 2aec acbd c75b cfbd
00000020: 4305 11be f742 11be 5a7d d8bd f2aa cdbd
00000030: 6829 17be fcfe 39be a429 1cbe b658 e2bd
00000040: c9ce 2abe fcb7 4bbe 57cb 56be 57e7 28be
00000050: af3d 24be 46df 1fbe 3165 39be da96 42be
00000060: 2586 67be a97c 07be ff70 acbd adf0 40be
00000070: 588b 3cbe 55eb f9bd 5c6b 37be ed03 97be
00000080: ec37 f9bd 9b91 4dbe a809 05be fbdd aebd
00000090: 13b7 d3bd b8d4 32be 9d6f 04be 3f9c 06be
000000a0: 23e5 f3bd 7f9b a9bd cea7 38be c7ff 10be
000000b0: a9e0 e0bd 124d b2bd b469 83bd bd52 07be
000000c0: fa0a 23be
