models/snapsRandom/model_1685750263.3681884.pt (torch, 252563 bytes, 10 tensors)

0.weight f4 [128, 49]
00000000: 6495 a5bd c25f e53d 82d1 143d 0773 1dbe
00000010: 18ce 403d 07a6 4bbd 2d99 9dbd 1006 933d
00000020: 93e0 16bd 693b fabd 2994 e33d e155 2c3e
00000030: 7b7b 33bd f7ba d73d a770 bd3b a211 e7bd
00000040: d804 4fbc d98f a8bd 0c56 0cbb 6aaf 2d3c
00000050: 0416 e8bc fb83 b4bd 675e 7b3e 0cd8 e0bd
00000060: 96b9 36bd 2285 a2bd 88a3 80bd 17b8 803d
00000070: 4104 213e faa4 4bbd de85 343e 1fb1 b3bc
00000080: 4a08 76bb 41b3 263d a4b1 6ebd de9f 0d3e
00000090: ce26 9ebd cbb0 ffbb 3f0b 48be f798 a9bb
000000a0: 6c9c f9bd 3887 883d e556 463e 5056 2cbd
000000b0: 93f5 c9bd c451 063e 9fca f83d afb7 28be
000000c0: 2a0c 95bd 9410 833b 54e7 19bd c690 00be
000000d0: c49a 663d ebfc e93d 2aa4 52bc fcd9 e8bd
000000e0: 8bbf 293d 46a3 d23d 96ee 8c39 5cac f33d
000000f0: 2f13 773d a04a 653d d2d4 003d 207e 0ebe
00000100: 0a3e 26bd b526 103e 6f0a 85bd f581 0bbe
00000110: 2ae3 723e 6bec 273e 6cba 913c 51e2 573d
00000120: 1542 183e 10e4 35be 3ca2 18be 6e23 18bd
00000130: d85f 9f3d d97f 253d 0176 783c a8f9 f33d
00000140: 3c9b 3bbe 93ef e5bd 941d eebd bd02 623e
00000150: 34c5 e5bd 4419 f83b bfd9 25bd 527f ffbd
00000160: 03e3 b23d 49af a73d d9fa 1abd 1949 d63d
00000170: effb 6abc 0667 55be 4952 67bd 6bae fe3d
00000180: 107a be3c 857f 95bd 73da 213d 806e 2fbe
00000190: a6f8 533d bd61 f8bd c25a fdbc 9bde 81be
000001a0: 1595 923d 8988 723d c688 0a3e 7638 06bd
000001b0: 8586 76bd 22b3 2a3e 511a 67be cddc 3e3d
000001c0: 50e9 0cbe 806f 6a3c 43d4 013e 72c5 cebd
000001d0: 5332 9bbd feca ffbc a588 8ebd 4e86 cb3d
000001e0: 0e0c 41be 3e33 573d 8be8 f7bc 9d8a 733c
000001f0: 83e2 d0bd 349a eb3d 5407 16be 4ce2 383d
00000200: bf9f 883c 8582 bdbd 8006 623d d726 d7bd
00000210: f54d 123d 81df 95bd 54ee 3e3d 25ab f5bd
00000220: cc8f 2d3c 3c1b b7bd b610 81bd ca0c 293e
00000230: dcf7 f6bc f93e 08bd c8a4 26be cd6d ba3d
00000240: 4012 4a3d e961 c0bd 220a 803d ae92 ba3d
00000250: 01d0 e73c 1ad9 42bd db98 97bd 7779 c03d
00000260: c04c 0cbd b33b fc3c 5398 1e3d b1af a93d
00000270: 48ab ca3d 1f86 9a3b 8303 dbbd a6f3 a8be
00000280: 56a3 60bc b351 053e 58d5 6c3c ec10 473d
00000290: 0618 833d c8e0 26bd d5cc 50be 80f3 5c3e
000002a0: d241 a03d 7ff2 2ebd 2d45 313d d368 31bd
000002b0: c181 ebbc 7d02 66be d28a 9c3d a122 923d
000002c0: 48de f5bd 127f ac3d 98de c93d d023 51bd
000002d0: ab85 813d 03be 6a3e 3e43 1bbc 221a 4f3e
000002e0: 20a9 38be 25ad aa3d 553f ffba dcda d63d
000002f0: 1bb0 e23c a35d 99bd dc7b 043e e496 0cbe
00000300: 83b7 af3d 2c39 3bbd c85d a1bc 77d6 ed3d
00000310: f369 843c 2fb8 7dbd 4729 e63c 38dd b4bd
00000320: ff1d 61bd 54af 4c3e ab2d c73d 1f0a a63c
00000330: 035c 8dbc 3b50 a73c 127c 2f3e 7dbb ce3c
00000340: dba8 90bd 38a3 13be 64c0 7abd a986 0ebd
00000350: 44f5 c93d 7ab1 b9bc 9f3a 62bd 860e 6dbc
00000360: 3cab 1f3d 1e0e 95bd f63e 8f3c 270e 0a3c
00000370: cf84 80be f990 b13d 4ad7 31be c0ab 28be
00000380: a029 5cbc 8565 a2bd 300f f43c d284 ee3d
00000390: ef0c 213e e9de 27bd e2e1 25bd bc80 9bbc
000003a0: 533e 343d d9de ef3d cd99 a6bd aed7 b3bd
000003b0: f932 21be dd4a 313d 5918 8fbd 6c2d 173d
000003c0: 19e6 da3c cbc1 5e3c bbf4 f43c 772b 293e
000003d0: 8164 ebbd 0921 c5bc 17a7 a53d 51cf e33c
000003e0: 7820 6cbd b779 213d b45f 9dbd fe12 0b3e
000003f0: b3a7 eabd fac0 c9bc fa4d 43bd 8eca ce3b
-0.080851346 0.11199905 0.036332615 -0.1537591 0.047071546 -0.049718883 -0.076952316 0.07178891
-0.036835264 -0.12218363 0.11112244 0.16829635 -0.043818932 0.105337076 0.0057812515 -0.1128266
-0.012635432 -0.08230562 -0.0021413593 0.010600904 -0.02833081 -0.08814236 0.2454773 -0.10978708
-0.044610582 -0.07935549 -0.06281191 0.06285112 0.15724279 -0.04971788 0.17629191 -0.021935044
-0.0037541562 0.040698294 -0.05827488 0.13830516 -0.07722245 -0.007803058 -0.1953554 -0.0051757055
-0.12188038 0.06666416 0.19369085 -0.0420745 -0.09861293 0.13117129 0.12148022 -0.1647632
-0.07277711 0.003999779 -0.037574127 -0.12555227 0.05629994 0.114251934 -0.012856523 -0.11369702
0.041442435 0.10285048 0.0002688064 0.11898109 0.06032103 0.05597937 0.03145296 -0.139153
-0.04058651 0.14077266 -0.06496131 -0.13623793 0.23719469 0.1639878 0.017789088 0.052706067
0.14868958 -0.1776278 -0.14905638 -0.037143163 0.077819526 0.04040513 0.015164853 0.119128525
-0.18320936 -0.11227336 -0.11626735 0.22071357 -0.11219254 0.0075713713 -0.040490862 -0.12475456
0.08734705 0.0818773 -0.037836883 0.10463161 -0.014342292 -0.20840082 -0.056474958 0.12435611
0.023251563 -0.07299713 0.03951497 -0.17131996 0.0517508 -0.12128017 -0.030927066 -0.25365147
0.071573414 0.05921224 0.13528737 -0.03276869 -0.06018688 0.16669896 -0.22568633 0.04659729
-0.13760877 0.01430881 0.12678628 -0.100962535 -0.07577958 -0.031224724 -0.069596566 0.09937726
-0.18852255 0.052539103 -0.030262252 0.014864591 -0.10199454 0.11504021 -0.14651233 0.04513769
0.016677735 -0.0925341 0.05518198 -0.10505455 0.035718877 -0.073180206 0.046614006 -0.11995534
0.010593366 -0.089407414 -0.063020155 0.16508785 -0.030147485 -0.03326318 -0.16273797 0.09102974
0.04933381 -0.09393675 0.06251933 0.09110008 0.028297426 -0.047570325 -0.07402202 0.093981676
-0.034252882 0.030790186 0.038719486 0.082854636 0.098959506 0.0047156955 -0.10694029 -0.3299839
-0.013710817 0.13019447 0.014455162 0.048600122 0.064010665 -0.04074171 -0.20390637 0.21577263
0.07825054 -0.04271173 0.04327886 -0.04331286 -0.028748395 -0.22461887 0.076436654 0.07135511
-0.120052874 0.08422674 0.098569095 -0.051059544 0.06324323 0.22924046 -0.009476481 0.20224813
-0.18033266 0.08333806 -0.001947383 0.10490963 0.027671864 -0.07488563 0.12937874 -0.13729435
0.08579924 -0.04570882 -0.019698039 0.116131715 0.016163802 -0.06194323 0.028095854 -0.08831257
-0.054960247 0.19988757 0.09725507 0.020268498 -0.017255789 0.020423999 0.17137173 0.025235886
-0.070634566 -0.14417732 -0.061218634 -0.03479639 0.09861234 -0.022667635 -0.055231687 -0.014468795
0.03898166 -0.07278083 0.017486077 0.008426226 -0.25101325 0.086702295 -0.17367283 -0.16471767
-0.013437659 -0.079295196 0.029792398 0.11646427 0.1572759 -0.040984068 -0.04049862 -0.018982284
0.04400475 0.11712427 -0.08134804 -0.08781372 -0.15742101 0.043284286 -0.06987066 0.036908552
0.026721047 0.0135960085 0.029901853 0.16520487 -0.11493779 -0.024063604 0.080885105 0.027808817
-0.057648152 0.039422717 -0.076842695 0.13581464 -0.11457767 -0.024628151 -0.047681786 0.0063107675

0.bias f4 [128]
00000000: 0e1a 8d3d 9bc6 9c3d 235f a7bb aee4 cf3d
00000010: 77a9 f2bd 7004 fc3d a8de ebbd 11bb 0d3f
00000020: 476c 463d c53b e4be 73b4 453e f189 a43e
00000030: b1de bdbd 2a02 40be 4835 7dbd 4dee 0a3e
00000040: 9b59 f0bd 6110 89be 8435 6abd 5f68 88bd
00000050: 2307 943d 7c8f 64be ab89 64be e869 8fbe
00000060: 1e46 04be 3855 cc3c b393 4e3e 4dc2 da3e
00000070: f202 92be e297 893e cb77 293e e3cd a3be
00000080: a933 74be c211 bdbe 47ba 0bbd de92 46be
00000090: a4a1 473e ab43 fcbd 0f49 9f3d 3846 9fbd
000000a0: b5da 0cbe b810 12be 28bf 713c b13d e7bd
000000b0: 42c0 40be 37bd b7bd 7a12 de3e e70a 5ebd
000000c0: 808a aebe 5d9c 623e b16d 6abe 24b5 57be
000000d0: a628 6cbe 1735 213e 3cf6 55be 1b78 01bd
000000e0: 8e86 a73e 92fa 073e 52d7 ba3d 52df d1bd
000000f0: 6c8f f0bb b296 b0bc 1fb8 4fbe 761f 1c3e
00000100: 9b9e 04be 05b4 d23d be2e 58be 4d3b 47be
00000110: fe68 10be dc07 5cbe dff0 b23e 18aa 2a3e
00000120: 9fec 403d 86b7 9cbd ae59 d63c 5dd0 7f3d
00000130: cb8d dabd 81f6 64be b44f a43c 35c5 b33d
00000140: 934e 72be 7327 0c3e 528a 803d fa6c 0a3d
00000150: 550d 60be 0e51 babd 7b90 853e 44f6 1b3e
00000160: 5fde fabd 5b60 d13b dbb8 113e ada8 dabd
00000170: 25d9 21be 8495 2fbe b397 853e 31c0 5dbe
00000180: d838 58bc 022a 79bd ae13 b43e 6b6a 95bd
00000190: 69f8 b23e 7da2 7bbe e957 26be 3416 75bb
000001a0: b6bc 95be 1b2a 85bd 5ed6 523e 94ca 0ebe
000001b0: 7f35 69be 4dc0 36be 2bbb 2cbe 8e4d 8ebe
000001c0: 719b f4bd 92b0 21be 6784 a93d 63fb 67be
000001d0: 0676 923d 28d2 80bd 12e5 22bd 6694 46be
000001e0: 0a65 d03d e787 1bbe 9fa9 453e bfb6 86be
000001f0: 2577 4cbe ee2a 68be 4229 523d 1f47 4c3c
0.06889735 0.076550685 -0.0051077767 0.10151039 -0.11848729 0.12305534 -0.11517078 0.55363566
0.048443105 -0.4457685 0.19307117 0.3213649 -0.09270991 -0.18750826 -0.06181839 0.13567467
-0.11735841 -0.2677031 -0.057179943 -0.06660532 0.07227924 -0.2232036 -0.22318141 -0.28010488
-0.12917373 0.02494298 0.2017353 0.42726365 -0.28517872 0.2687369 0.16549604 -0.31993017
-0.23847832 -0.3692761 -0.034113195 -0.19391963 0.19495255 -0.12317594 0.07777607 -0.07777065
-0.13755305 -0.1426419 0.014755048 -0.112910636 -0.1882334 -0.08971637 0.43373471 -0.054209616
-0.34090042 0.2212996 -0.22893406 -0.21065193 -0.23062381 0.15742908 -0.20894712 -0.031608682
0.32719845 0.13279179 0.091231 -0.10247673 -0.007341316 -0.021556232 -0.2028508 0.15246376
-0.12951128 0.10288242 -0.2111158 -0.19456215 -0.14102551 -0.21487373 0.34949395 0.16666448
0.04710066 -0.07652192 0.02616581 0.06245457 -0.10671576 -0.22359659 0.020057537 0.08777849
-0.23662786 0.13686924 0.062763825 0.033795334 -0.21880086 -0.09097491 0.26086792 0.15230662
-0.12249445 0.0063896603 0.14230673 -0.106767036 -0.1580549 -0.1714688 0.260923 -0.21655346
-0.013197146 -0.060831077 0.35171264 -0.07295688 0.34955147 -0.24573703 -0.16244473 -0.0037397267
-0.29245538 -0.065021716 0.20589587 -0.13944465 -0.22774313 -0.17846794 -0.16868274 -0.27793545
-0.119437106 -0.15790012 0.08277207 -0.2265449 0.071514174 -0.06290084 -0.03976924 -0.19392547
0.10175522 -0.15188561 0.19302987 -0.263113 -0.19967325 -0.22672626 0.051308878 0.012468128

2.weight f4 [128, 128]
00000000: ae74 353d be8c 04bc 5d25 febc 5b49 60bd
00000010: 1c4b 793d b471 63bc 6f27 2abd 9e17 0b3d
00000020: b95d 113c d812 07bd 31ac e63b dd83 883d
00000030: 48ac 1bbb 96d0 16bd be25 9f3d 456f 45bd
00000040: e521 78bd fda4 24bd ce08 a8bd 9852 1c3d
00000050: c925 ab3d 27a1 9cbd 446b 3e3d df60 2c3c
00000060: fabd 2ebc 4c04 7cbd aaeb 1bbd 172f 25bc
00000070: 9cb8 c83c 493f 5c3d 9e74 83bd ff21 97bc
00000080: 06df 23bc 9ab2 d23b 07bf 7dbd b914 463d
00000090: a34d c83c 26bc 51bd db4e 4ebd 2755 cdbb
000000a0: 83e1 a73c b570 7cbd 91c3 a73c 382c 1ebd
000000b0: d93b cfbb 39a7 883c 74ca 433d b2b8 ad3b
000000c0: fc4e 44bd d354 a0bd f5f1 3d3d 3cc3 9f3d
000000d0: 9f65 59bd 68a6 5dbd c304 033c 39b5 59bc
000000e0: 9efe 9d3d 3e83 b73d 6a92 ff3c dfaf bd3d
000000f0: 2e9e a63d 9241 07bc 8cec 823d 35b2 9bbd
00000100: ee34 eabc 7264 9b3d 3d32 61bd 559d 5dbb
00000110: 184a 8bbd 2521 c03d e60a 863d 9509 4bbd
00000120: 2cc5 ad3d be2f 5dbd fe8c 8e3d 2e3d caba
00000130: 679e bebb 31a5 833d 35f0 a4bd cb79 38bd
00000140: 0809 04bc 05a8 8dbd 9ab4 aa3c 63e0 8ebd
00000150: a2d0 78bd 060c 073d 9ffe 3d3c 4ec4 aa3d
00000160: 2533 93bd 868f 9c3d 8b24 773d 2446 f3bb
00000170: 8cc8 4a3d fee9 8ebd 037e 65bd a788 73bd
00000180: df91 96bd 032e 8ebd 8ea3 293d de1d b03d
00000190: 51bd 363c d87e 0dbd f73f 6cbd 37c6 c0bc
000001a0: f7fc 513d 4a3c 2dbd 3322 e5bc c2d8 a1bd
000001b0: 1854 b33c d89e ad3d 16e4 393d 3392 9b3d
000001c0: cc8e 603d 8de5 2b3a d776 7abd 3997 bb3d
000001d0: a09f 96bc f93e d13d 754a 64bd 41bf d13b
000001e0: b811 b43c 780a 5f3d f6eb 2a3c c9b6 a5bd
000001f0: b708 143a e760 bb3d 5b09 383c e540 673d
00000200: 882a 0cbd 3111 76bd 0220 5c3d 9ea1 343d
00000210: 1bf3 9dbc 83fa cfbc b624 11bd 5983 b13c
00000220: fba0 803d f411 aebd f842 0e3b 3603 433c
00000230: c2c5 b7bb 4952 453d ad6e ce3c 2725 903d
00000240: cd0f 2fbd 1099 64bc c7be 4fbc d42e 4dbd
00000250: 948c 21bd a290 f7bc b6d0 d0bc a37a 32bd
00000260: bb8f 553c 2f95 aabd 77fa 9e3d 623e f6bc
00000270: 2c6b 7a3d 0794 e93b 1091 97bd c4fd b5bd
00000280: 5c40 81bc 99f8 4f3d d551 4c3c 9869 653d
00000290: 7922 65bd d325 acbd 8f84 b0bd 8f5f bc3c
000002a0: ac79 3c3d 64d0 1ebd a07c ba3c 4956 90bd
000002b0: edfd 85bc aa0e 993d 0b8a ecbc 8b06 993d
000002c0: 5803 5dbd 2109 4cbd 79d0 9f3d 3859 8f3d
000002d0: 1c94 9d3c 689e bfbc e520 113d 9ed8 dd3c
000002e0: d195 24bd c176 8bbd 80c8 dbbb 9076 2fbd
000002f0: 516c f0bc 33ae 5b3c 1e6f 9a3d cef8 8e3d
00000300: 1f98 8c3d cc57 153d 0d84 f53c 8311 8ebc
00000310: b0f0 fd3b 1444 f0bb 9a33 8fbd 7478 b33d
00000320: c82c 793d 0450 133c 0907 3f3d 010f 243d
00000330: 46c5 823d 137b 453d 901c 5dbc 7a65 a9bc
00000340: 9dad 4ebd 1023 e93b 6df0 883d 96b4 a6bd
00000350: 20fd b33c 022d 4abd f0ff a03d 9ff1 a0bd
00000360: 47d3 2a3c 3dcf 583d 3c14 eebc 8098 1e3c
00000370: 3cfc f53c 586c aebb eacb e2bc acf7 a83d
00000380: d4cc aabd 466f 6abd 2519 0cbd 0013 f33b
00000390: 5ce2 6bbc c80d 6f3c 8a6d 71bc 3054 3bbd
000003a0: 51c1 2b3c 9603 7e3d dcba 263d 0a23 ad3c
000003b0: 75b4 73bd ae19 4b3d 868b 51bc 0c20 663d
000003c0: ecf5 04bd 1a2c 8abd 734f 763d da24 9bbc
000003d0: 07e3 1abd 2201 203d 8df9 46ba d375 08bd
000003e0: 4a92 6dbc 379c 22b9 4450 723c 6329 813d
000003f0: 8b30 09bd 9011 edbc 0545 8cba 3586 1339
0.044300728 -0.008090196 -0.031023676 -0.054757457 0.060862646 -0.013882089 -0.041541513 0.03395807
0.008872443 -0.032976955 0.00703957 0.06665776 -0.002375381 -0.036820017 0.077708706 -0.048201818
-0.0605792 -0.040196408 -0.08204804 0.038164705 0.08356816 -0.07647925 0.046489015 0.010521143
-0.010665411 -0.061527535 -0.038066544 -0.010082028 0.024502091 0.05377129 -0.06418727 -0.018448828
-0.010001903 0.0064299824 -0.061949756 0.048359606 0.024451083 -0.051204823 -0.05036817 -0.0062662545
0.020493275 -0.061630923 0.020478996 -0.03861639 -0.006324273 0.0166813 0.047800496 0.0053015584
-0.047926888 -0.07828679 0.046373326 0.0780091 -0.05307543 -0.054113775 0.007996741 -0.013287836
0.0771458 0.08960579 0.031197745 0.092620604 0.08135639 -0.008255379 0.06392774 -0.0760235
-0.028589692 0.07587518 -0.05497955 -0.00338157 -0.06801242 0.09381322 0.065450475 -0.049569685
0.08484873 -0.05400061 0.06960486 -0.001542961 -0.005817223 0.06427992 -0.08053628 -0.045038026
-0.008058794 -0.06916813 0.02083807 -0.06976392 -0.060745843 0.03297045 0.011596351 0.083382234
-0.071874894 0.076445624 0.060337584 -0.007424133 0.049507663 -0.06978224 -0.056028377 -0.059456494
-0.073520415 -0.0694237 0.041415744 0.08599447 0.011153535 -0.034544796 -0.05767819 -0.023532016
0.051266637 -0.042293824 -0.027970409 -0.079026714 0.021890685 0.08477563 0.045383535 0.07596245
0.05482368 0.0006557338 -0.06114849 0.09159703 -0.018386662 0.10217089 -0.05573507 0.006400973
0.021981105 0.054453343 0.010432234 -0.08091504 0.00056470506 0.09149342 0.011232699 0.056458373
-0.03422025 -0.06007499 0.053741463 0.044099443 -0.01928096 -0.025388008 -0.0354354 0.021669077
0.062807046 -0.08499518 0.0021707397 0.011902621 -0.0056082914 0.048174176 0.025199259 0.07038336
-0.04273968 -0.013952509 -0.012679762 -0.050093487 -0.039440706 -0.030220333 -0.025490146 -0.043573987
0.013034756 -0.08329236 0.07762616 -0.030059043 0.061137363 0.007128242 -0.07400715 -0.088862926
-0.01577776 0.05077419 0.012470682 0.056008905 -0.05594108 -0.08405652 -0.086190335 0.022994785
0.046014473 -0.038772956 0.022764504 -0.070477076 -0.016356433 0.074735 -0.028874418 0.07471951
-0.053958267 -0.049813394 0.07803435 0.06999439 0.019235663 -0.023390964 0.03543176 0.02708083
-0.04018194 -0.0680976 -0.006707251 -0.04283768 -0.029348524 0.013408232 0.07540725 0.069810495
0.06864952 0.036460683 0.029970193 -0.017342335 0.0077496395 -0.0073323343 -0.06992264 0.08763209
0.060833722 0.008991245 0.04663757 0.04005337 0.06385283 0.048213076 -0.013495579 -0.02067827
-0.05045854 0.0071147755 0.066864826 -0.08139913 0.021971285 -0.04935933 0.07861316 -0.078585856
0.010426349 0.052932013 -0.029062383 0.0096799135 0.030027501 -0.005322974 -0.027685124 0.08250365
-0.08339849 -0.057235025 -0.034203667 0.0074180365 -0.01439723 0.014590688 -0.014735589 -0.045734584
0.010483102 0.06201514 0.040705547 0.021134872 -0.05949827 0.049585037 -0.012789613 0.056182906
-0.032461092 -0.06746693 0.060134362 -0.01893847 -0.037814166 0.03906358 -0.00075902866 -0.03331549
-0.01450021 -0.00015507718 0.014789645 0.06306722 -0.03349356 -0.028939039 -0.0010701722 0.00014069008

2.bias f4 [128]
00000000: 3a44 c53d 4914 2fbd df63 b3bc f775 96bc
00000010: cd2a 653c 7146 cfbd 54b8 03bc ade3 f5bc
00000020: aa89 0f3e 0fe6 1fbe 6f19 2d3c 93d1 01be
00000030: 09f4 9abd dbf5 843d c115 babd abf7 483e
00000040: 2ddf 003e 6c2d 553e 8d7a 82bd 697c 91bc
00000050: 1f40 0f3c 74f5 06be 2e32 85bd 09d7 7cbd
00000060: 6ca0 74bd 5a56 b1bc 5bbe 5cbe b119 98bc
00000070: 925b 313c bc0d 543c 7bd5 f93d b378 d7bd
00000080: 4d59 373e fd06 de3d 3cfe b0bd 094e ddbd
00000090: 2595 b63d ffeb ae3c 4d91 afbe 5cf3 01be
000000a0: 0286 c1bc c4ff 6abc 8cb7 84bd ef39 e3bd
000000b0: 0842 f23d bd43 0b3e 28af f53d cc2a 38bc
000000c0: f1c9 1fbe 322a f5bc 280e ba3d b224 1e3d
000000d0: 87ab ecbc c482 10bd 585d 75bd 1ef0 9838
000000e0: ab99 ca3d df69 94bd 4bf9 32bd 5f4a 5a3d
000000f0: 7215 76bd 68e9 a43c 16fd b23d 4cf1 9d3d
00000100: b30d 5abd 3454 6d3d 6e8f 32bd a02d 8abc
00000110: ce38 3ebc 1723 81be e0dd 1bbe cf44 b23d
00000120: e686 dcbd 78f3 a63d 8cea 073d 13e0 b63d
00000130: 43aa 13bd 59c4 96be 34d7 193b 95e4 c2bd
00000140: 3112 11bd 251c 813c 9f01 69bd 4ee0 60bd
00000150: a5bf 5cbe 0a24 ac3d 749e 7f3b de57 99bd
00000160: 9a9e af3d c72e cdbd 2a7f 99bd da60 a63c
00000170: adb9 8dba 1867 2e3d 905a f6bd b4a2 283d
00000180: 04fb 073d 8787 413d 3cc1 e3bc dd91 f23b
00000190: 44ef 343d 644f f93c 3d3e cdbc 6e21 b6bd
000001a0: 6212 93bc 5822 f53d d9da 6bbd add0 223d
000001b0: 0353 0f3d e49c 2ebe 178e c5bc dcc9 4bbd
000001c0: 3d7b 23bd 710f c2bd deb6 83bd e829 bd3c
000001d0: f3c7 f0bc fc89 b43c fcd8 343d fe8a a63b
000001e0: 6045 743c 5460 923d a8b3 663d 75b8 6abd
000001f0: ee53 6c3c a0e7 d43c bb58 28bd 09c6 7d3a
0.09632154 -0.042743955 -0.021898208 -0.018366797 0.013987255 -0.101208575 -0.008039553 -0.03001579
0.14017358 -0.15615104 0.010565146 -0.12677602 -0.07566077 0.06492206 -0.090861805 0.19625728
0.12585135 0.20818108 -0.06371031 -0.017759519 0.008743315 -0.1317957 -0.06503712 -0.06172851
-0.059723303 -0.021647621 -0.2155699 -0.018566938 0.010825055 0.012942728 0.12198921 -0.105210684
0.1790516 0.10841177 -0.08642241 -0.108059 0.08915166 0.021352766 -0.34290543 -0.1269049
-0.02362347 -0.014343206 -0.06480321 -0.11095034 0.11829001 0.13600059 0.11996299 -0.011240672
-0.15604378 -0.029927347 0.09084731 0.038609214 -0.028890384 -0.035280958 -0.059903473 7.29265e-05
0.09892591 -0.07246756 -0.043694776 0.053293582 -0.060079046 0.020130828 0.087396786 0.07712039
-0.05323572 0.05794163 -0.043593816 -0.016867459 -0.011610223 -0.25222084 -0.15221357 0.087045304
-0.10767917 0.08151907 0.033182666 0.089294575 -0.036051046 -0.29446676 0.0023474218 -0.09516255
-0.03541774 0.01576049 -0.05688631 -0.054901414 -0.21557482 0.084053114 0.0039004358 -0.074874625
0.08575173 -0.10018688 -0.07494958 0.020309854 -0.0010812782 0.042578787 -0.12028992 0.04117079
0.03319837 0.04724839 -0.027802102 0.007402642 0.044173494 0.030433364 -0.025054092 -0.08893095
-0.017953102 0.11969441 -0.057581756 0.03974979 0.034991276 -0.17052037 -0.024115605 -0.049753055
-0.03991245 -0.094756015 -0.064313635 0.023091272 -0.029392218 0.022038452 0.044152245 0.005082487
0.014909118 0.071472794 0.056323677 -0.05730482 0.014424307 0.025989354 -0.041100245 0.00096806936

4.weight f4 [128, 128]
00000000: 8c26 443d 3457 c83c a98a 18bd aa11 4f3d
00000010: 66af a73a f0ed 4abd 0a29 dc3b 073d 14bc
00000020: 9735 d53c 2849 5f3c d5db 8a3d bd03 de3b
00000030: 824f 013c 48f7 e2bb f1ca 7cbd 1bc4 313d
00000040: 0cbd 973d 6a83 1cbd 7df6 6cbd e00c 0cbd
00000050: c7a0 5abb 1e80 933d 2f51 84bc fa28 a63d
00000060: 874e 923d eb1c 90bd 5aa7 b2bd 188a 14bc
00000070: a08a 3bbc dc77 3c3c b201 0ebc fa8d 1fbd
00000080: 731f 7a3c b8a6 33bd af81 433d e3e2 803d
00000090: 6f91 94bd fe99 88bd ca7a 893d f5fe a1bc
000000a0: 95eb 123d 7188 adbd abd3 58bd 69e9 8dbd
000000b0: 4c78 fcbc b7ea 88bd ea63 02bd 3a26 cb3b
000000c0: 8990 0bbd adec 323d 7b9b 0bbd 5528 8bbd
000000d0: f3d2 bcbc 5e96 433d cd30 8ebc 4436 3cbd
000000e0: c66c 06bd fdd4 8f3d f70e 93bd a027 48bd
000000f0: 81d5 98bd d744 993d d8aa 44bd 53a9 a13d
00000100: 0064 a3bc 5af3 67bd 3ab2 31bd 720f 8dbd
00000110: 10c8 5b3c d80b 09bd 6647 a13d ccc1 023c
00000120: 1770 823c 1be7 26bd 98a0 dfbc 01ac 44bd
00000130: 9fbf d33c 8d59 2e3d ea17 67bd 922e 203d
00000140: c3af adbd 1461 543d ce4b 3d3d 9d82 cbbc
00000150: 8032 8e3c ff7e 79bd d00a 8abc 591e bf3c
00000160: d0b5 303d b003 92bd 78bf 96bd 3da5 8d3d
00000170: 29c4 fd3c 5b9f 9c3d 3bc2 a0bd 9276 28bd
00000180: 9545 19bd 389c 81bc 3d9b 063c 18a0 95bc
00000190: 2dc0 403d a25d 5abd 19e7 993d f291 31bd
000001a0: 8a09 473d a2a4 943d 7e19 a0bd 94c5 c83c
000001b0: 400b a73c 3c2f a53d 99ae 493d a5e9 b1bd
000001c0: c979 02bd cbea 8dbd b44c 3fbd eb0d d9bc
000001d0: 0c8b 093d 5aff aebd 6725 b03b 27f3 a3bd
000001e0: e74e 8bbc e33c abbd aa27 77bd 243e 1ebd
000001f0: 47bb 103d ccb4 49bd f543 56bd 68c1 1e3d
00000200: 31e1 2dbd 83e6 fd3c 3e1b bf3d 3b70 9f3d
00000210: fd6e 61bc 65fb 353d 8def c9bc b756 873d
00000220: 879a 903b ed00 f03b dcbf b0bd 3c8f a03d
00000230: 99a6 743d 52a0 27bc 8b86 36bd f57a e6bc
00000240: 60fa a0bd 83a1 59bd edac 263d bfe5 60bd
00000250: 10e8 213d ca77 2abd 8769 2cbd 09ac a5bd
00000260: 2178 1a3c 0372 01bd 907e 24bd 5182 1bbb
00000270: f02b 43bd a7bc 913c ad35 7a3d 0b7e 1ebd
00000280: ad16 f53c 534b e6bc a144 d23c f113 90bd
00000290: 7697 58bd ff81 1ebd c20e 153a 02ce 75bc
000002a0: 1258 d5bc 5152 553d d155 79bd 4136 b33d
000002b0: bda9 a43c 53ae 933b 6e58 913d e12f 803d
000002c0: 344e b6bc 2455 f33c 056d 10bd 0a55 463d
000002d0: 0d14 6e3d 8ff5 a03c 673c 993a 60b8 06bd
000002e0: 2f34 d1bc a380 953d 26a3 b93c 1ce5 f23c
000002f0: f4e5 f6bb b2ca 2dbc 45fa 863d 272b 89bd
00000300: fa8a 663c e32a 76bc e7d4 eabc 9f49 9abd
00000310: b390 6a3d 3e7c 96bd 727b 00bd d8cd 783c
00000320: 6e1d 3c3d 522e b3bd a464 3e3d ab55 02bd
00000330: 6b54 e43c 8e80 9ebd dfb6 9dbd 678f a43d
00000340: ec0c 003d de71 9d3c d933 3c3d 4f95 a23d
00000350: b910 663d b649 e43c 4024 90bd 2a1d bd3d
00000360: 19e6 babb f1bd 86bc ae3a 983c 3174 8a3d
00000370: be0a 5fbc 8f29 33bd 9280 4b3d 8557 953d
00000380: aadd d73c 774e 5b3c 4383 323b 3f66 943c
00000390: c309 9cbd 9722 37bd 3797 1d3d 4015 b63c
000003a0: 0e94 133d d249 933b a115 48bd db6f 16bd
000003b0: 2e46 70bc 9599 6bbd 41ca ab3d 0f70 3ebd
000003c0: 8cf8 043c 7895 b43d 0880 95bd cb3e a4bd
000003d0: f6c0 1b3d 215c 6c3d 39f2 1fbd 45c8 273d
000003e0: b2fb 7b3d 5a90 fdbc b545 933d f480 103c
000003f0: 7b74 73bc 76d5 013d 4828 463d 0faa ad3d
0.047888324 0.024455644 -0.03724161 0.050553955 0.0012793362 -0.04954332 0.0067187594 -0.009047753
0.02602653 0.013628282 0.06780211 0.006775348 0.007892491 -0.006926451 -0.061716978 0.04339991
0.07409105 -0.038211264 -0.057852257 -0.034191966 -0.003335999 0.07202171 -0.016151993 0.081132844
0.07143884 -0.07036766 -0.08723326 -0.009066127 -0.011446625 0.011503186 -0.008667396 -0.03895376
0.015266287 -0.043860167 0.047731098 0.06293275 -0.07254302 -0.06669997 0.06712873 -0.019774893
0.0358692 -0.0847329 -0.052936237 -0.06929285 -0.03081908 -0.06685393 -0.031833567 0.0061996253
-0.034073386 0.043682743 -0.034083825 -0.06794802 -0.023049807 0.047750823 -0.017357254 -0.04595019
-0.03281858 0.07023046 -0.07180589 -0.048865914 -0.07462598 0.07483833 -0.04801449 0.07893624
-0.019945145 -0.056628563 -0.04338286 -0.068877116 0.013414398 -0.03345856 0.07874946 0.007980775
0.01592259 -0.040747743 -0.027298257 -0.0480156 0.025848208 0.04256587 -0.05641929 0.039106913
-0.084807895 0.051850393 0.04621487 -0.024842555 0.017358065 -0.06091213 -0.016850859 0.0233299
0.04314214 -0.071296096 -0.073607385 0.06916282 0.030977326 0.07647582 -0.078495465 -0.041128702
-0.037419874 -0.015821561 0.008215723 -0.018264815 0.047058273 -0.05331195 0.075147815 -0.043352075
0.04859308 0.07257964 -0.07817362 0.024508275 0.020391107 0.0806565 0.049238775 -0.08687142
-0.031854425 -0.06929549 -0.04670401 -0.026495894 0.03357987 -0.08544798 0.0053755525 -0.08005362
-0.017005397 -0.083612226 -0.06034056 -0.03863348 0.03533485 -0.049244687 -0.052310903 0.038758665
-0.042451087 0.030993706 0.09331368 0.07785078 -0.013759372 0.0444292 -0.02465036 0.066083364
0.0044129523 0.007324329 -0.08630344 0.0783982 0.059729192 -0.010231094 -0.044561904 -0.028134802
-0.07860255 -0.053132545 0.04069226 -0.054906603 0.039527953 -0.041618146 -0.042092826 -0.08089454
0.009428055 -0.03160287 -0.040159762 -0.0023728798 -0.047649324 0.017790152 0.061086345 -0.038694423
0.02991804 -0.02811209 0.02566749 -0.070350535 -0.05287882 -0.038698193 0.0005686098 -0.015002729
-0.026042972 0.052080456 -0.060872857 0.087505825 0.020100469 0.004506865 0.07096945 0.06259132
-0.022254087 0.029703684 -0.03526022 0.048420943 0.05812459 0.019648341 0.0011690975 -0.032890677
-0.025537578 0.07299926 0.022660803 0.029650263 -0.007534737 -0.010607408 0.06590704 -0.06697684
0.0140712205 -0.015024873 -0.028665973 -0.07533573 0.057266902 -0.07347916 -0.031367727 0.015185796
0.045926504 -0.08749069 0.046482697 -0.03181998 0.027872285 -0.077393636 -0.077008955 0.08035164
0.031262323 0.019219335 0.045947883 0.079386346 0.05616829 0.02786718 -0.07038164 0.09234078
-0.0057036993 -0.016447993 0.018582668 0.06760443 -0.013613401 -0.043740805 0.04968316 0.07292084
0.026350815 0.013385407 0.0027238883 0.018115161 -0.076190494 -0.04471072 0.038474288 0.02222693
0.036029868 0.004494884 -0.048848752 -0.036727767 -0.01466517 -0.057519514 0.08388186 -0.046493586
0.008115899 0.088175714 -0.07299811 -0.08019789 0.03802582 0.05770505 -0.03904936 0.040962476
0.061519332 -0.030952621 0.0719103 0.008819807 -0.014859314 0.031697713 0.04837826 0.08479702

4.bias f4 [128]
00000000: f3e5 09bd 206a 1e3d dcf5 cc3d b2f0 b2bd
00000010: 2c55 91bd e795 21bd 5021 d3bc 72c9 95bd
00000020: ac98 c63d 103f ae3d 1b42 68bd 003c 603c
00000030: 9ffb 57bc b7ed a0bb 6461 8c3d 98b1 d23c
00000040: a154 04be 86c7 c93c 983a e53d 8c2c 82bd
00000050: 6ea2 69bc 01df 143a 2da5 283d 10e1 9fbd
00000060: a3db fa3d 121c 9fbd de1d 2fbd 6efa a6bd
00000070: cfdb a9bd 8599 88bd 8c8f 33bc f514 cf3d
00000080: 771a 9cbc 31a0 adbc 9541 8abd e7fd 73bd
00000090: 4ab2 aa3c 8941 083d 89fd 40bd 8947 2cbd
000000a0: d829 503c a690 0abd 42eb e63d 0047 213e
000000b0: a989 593d cdde af3d f608 52bc f17f 3ebd
000000c0: 1a6b 06bd 2bd4 683d 59e9 9d3c a8d3 3dbd
000000d0: f5d8 d33a d0bd fcb9 6964 14bd c309 1cbd
000000e0: 3d6e 8dbc bd62 a2bd c097 4abd ec6b 263e
000000f0: 76f1 4e3c 14d7 01bc 951b f93d 78f0 303d
00000100: 7ed1 b9bd 2bd9 97bd 29e5 d23b d22b 81bd
00000110: ba1d 9d3d d560 213d 9abf ed3d 8b58 8fbd
00000120: 28a7 273d 1669 2d3e 216f 443e c53c 1c3e
00000130: 91be fcbc 8e1f cebd a8c7 623d fe3c 90bd
00000140: 19f7 ca3b a019 943d 9a68 58bd 0657 2bbd
00000150: d4b4 e03d 8b2f f93c f585 d73d a082 27bc
00000160: 210a 8dbd dc09 45bc 1a2d 0f3e e8d8 773d
00000170: 8884 98bd df8c 86bc 616e 4d3d 97d9 af3d
00000180: db9d c53d 4799 ad3d e70a 55bd 0977 323c
00000190: 459e 9c3c bfe8 c7bc d09f c73b 94d7 cabc
000001a0: 3bf8 f13d 8cfb 553c 12bd 3dbd 4a9d 2abd
000001b0: 28d3 f53d b787 303c 6dbe 78bd 0d21 6bbd
000001c0: c6fc 34bd edaf 943c ed99 473e 4ff3 2bbd
000001d0: bc20 a2bd 0ec2 57bd da8a b3bc ad41 11bc
000001e0: 3ddf 4b3d 14ad a93d 2c12 ed3d b260 e23b
000001f0: d74a e63c 8975 8e3c 8876 cc3d f247 1a3d
-0.033666562 0.038675427 0.100078315 -0.08737315 -0.07096323 -0.0394496 -0.02577272 -0.07313813
0.096970886 0.08508122 -0.056703668 0.01368618 -0.01318255 -0.0049111503 0.06854513 0.025719449
-0.12922908 0.024631273 0.111928165 -0.06356153 -0.014259918 0.0005678982 0.04117315 -0.07806599
0.12248924 -0.07769026 -0.042753093 -0.081532344 -0.08293878 -0.066699065 -0.010959517 0.10111419
-0.019055588 -0.02119455 -0.0675079 -0.059568312 0.020836968 0.033265624 -0.04711679 -0.04206041
0.012705289 -0.033829354 0.112753406 0.1574974 0.0531098 0.08587418 -0.012819519 -0.046508733
-0.032816984 0.056842964 0.019276308 -0.04634443 0.0016162681 -0.00048206607 -0.03622857 -0.038095247
-0.01726448 -0.07928989 -0.049461126 0.16252106 0.012630811 -0.007924814 0.12163464 0.04319808
-0.090731606 -0.074144684 0.0064360094 -0.06307186 0.076716855 0.039398987 0.11608811 -0.0699931
0.040930897 0.16934618 0.19183017 0.15257557 -0.030852588 -0.10064612 0.05536619 -0.07042883
0.006194007 0.0723145 -0.05283413 -0.04183104 0.1097199 0.030418178 0.10523597 -0.0102240145
-0.068866976 -0.012026276 0.13982049 0.060509592 -0.07447153 -0.016424594 0.050154094 0.08586424
0.09649249 0.08476501 -0.05201235 0.010892638 0.019118438 -0.024402974 0.006092049 -0.024760999
0.11814924 0.013060462 -0.04632289 -0.04165391 0.120031655 0.010774544 -0.06072848 -0.057404567
-0.044186376 0.018150294 0.19492312 -0.041980084 -0.079164 -0.0526753 -0.021916796 -0.008865756
0.049773443 0.08284965 0.11575732 0.0069084996 0.028111858 0.01739003 0.099835455 0.03766627

6.weight f4 [128, 128]
00000000: 0a57 f13b 7205 4f3d 9309 9abc b5a0 2ebc
00000010: e630 0d3d 6270 80bd 9491 803c 571b 633d
00000020: e9c4 8d3d ebf4 203d 9fe4 24bd dde0 47bd
00000030: ce8a 8a3d 511a b0bd b2a7 be3d 51df 0fbd
00000040: e356 4f3d cb3e 29bc 0551 9e3d 6ec6 88bd
00000050: b860 9e3d 65aa 8d3d 17fe 983b 2419 b73d
00000060: 5358 59bd 34c6 51bc afdd 8f3a 75c7 3dbc
00000070: 098c 92bd 9de1 71bb aad7 0c3c 5bcb e53d
00000080: fe27 90bc 2501 633d d329 7ebc d2d0 babc
00000090: e90a 9f3d a05d c3bd 07fe 083d ae08 1e3d
000000a0: 8fc4 953d b063 32bd 334f c2bc 93a2 81bd
000000b0: 9fd5 2a3d ec87 8e3c b120 2f3d 7bf2 223d
000000c0: 7be2 26bc 080b 62bd deb9 48bc cb13 4a3d
000000d0: 50b8 383d 4b77 803d 99c1 883d 30d7 b0bd
000000e0: 60e0 a03c 9bbf 363d 892d 3cbd 5344 b1bd
000000f0: 58f2 843c 9561 07bd 3da6 34bd 651a 943d
00000100: 2191 20bd 8a0b 47bd db81 d0bd 4ed2 9c3d
00000110: 0b38 613d cbeb 053d da8f f43c c51a 9abd
00000120: 18c7 72bd c44a 6c3d 3840 3abd 7956 8cbd
00000130: d6c5 f3bc 80d6 33bd 2812 ce3c 734b c3bc
00000140: 146e 6cbd 3fe0 763b ce2c 71bd 4ea7 82bd
00000150: 0ac8 05bd fe67 10bd e184 04bd b9ae b13d
00000160: de20 ea3c 88e8 35bd 252f ec3c 8f01 9dbd
00000170: 275d 87bd 6330 383b 31ad d73d a2c9 b23d
00000180: 2bb0 9ebb fa5f 21bc 767a 00bd e689 83bc
00000190: 3918 01bd 0b95 b8bd 639e 52bd e407 7cbc
000001a0: 6c1e f23c 809d c53d 6a0e da3d 99b3 b53d
000001b0: dd7e 8d3d 7e8a b03d eb02 8d3d 0a20 513d
000001c0: bec9 033d f9d7 633d a296 703a 48a7 c4bc
000001d0: 65ce 133d e766 8dbd f313 5b3d a80e eb3d
000001e0: 91ca a53d bc0a 8dbd 8dea 943d 03e9 ba3c
000001f0: 9778 5f3d bef8 fc3c 04b3 8d3d 6e57 aabd
00000200: 89b0 b23d 4164 96bd fbde 52bd 814b 923c
00000210: 13f6 d8bb 97ac 7abd bbf6 843d d4b5 8a3c
00000220: cf5d acbc 286f 153d 1de3 95bd 29f9 96bd
00000230: bc5a 863d 17f0 623d a769 7c3d ab8e 3a3d
00000240: 3b36 59bd 2ca3 953d da16 053d 106e 8e3d
00000250: 9ec5 88bd 70c9 b9bd 5dac 73bd 6682 33bd
00000260: 8ce9 cd3b b7f4 f2bb d50b c83d cb9b 88bc
00000270: 58d9 7ebc e997 7c3d bcbf dd3d 146d 053c
00000280: fa04 ac3d 166e 49bd 405e ad3d 3ab0 e53c
00000290: 4152 e63b f5b8 af3d 903a 903d 9643 65bd
000002a0: 986b 0abd 4c58 afbd bb68 64bc de53 8639
000002b0: 00c8 243d 8cd3 853c 7679 65bd 3901 b63d
000002c0: 7ed4 8b39 9135 3bbd 4057 2d3d 61b0 513d
000002d0: 5a8c 063d d20f 19bd 3a8b 24bc 4cf5 8b3d
000002e0: d03e 6b3d f1ac 2bbb d6d7 a6bc d61b 9c3d
000002f0: 76e8 5dbc fbb0 153d be9f 713d f388 9dbd
00000300: 97b0 42bd 15b9 82bd 8c45 783b 4833 ddbc
00000310: 2649 47bd 6b93 bf3d 7307 d53d ee8b 8ebc
00000320: 2084 933c b78d 47bb a71f 8e3b b40b 6d3d
00000330: 2d72 1b3d a390 b73d f202 48bd f856 a8bd
00000340: 9d84 7abc eb43 a03c 40c6 3a3b e3c7 b83d
00000350: c779 6e3d 3683 1a3d 6da7 593b e42c febb
00000360: 79ca 2ebc 2fbe 083c 640c 8cbc 64cb 173c
00000370: 9506 763d 55dd 423d 4033 423d 8be9 2d3d
00000380: b1bc 49bc 99b1 1cbd 7957 523d a92b ad3b
00000390: 2c0e b73d 7feb e6bb bda6 cf3d 26ba 92bd
000003a0: 464c f13d 1b93 adbc 27fc 353c 1745 b5bc
000003b0: afc7 8abc 8d07 0f3d 7f27 db3d 3c88 5bbc
000003c0: 1b18 1dbc 5541 29bd 9fbc 69bc c2e5 f1ba
000003d0: 5e90 c93d 59dc a8bd 525a 8bbd c609 c13c
000003e0: e011 dabc 295c 263d 2fc4 273d bd2c 69bd
000003f0: 958c a23c 2977 e53c 9eac 773c c4e9 a8bd
0.007365112 0.050542302 -0.018803393 -0.010658433 0.03447046 -0.06271435 0.015694417 0.055445995
0.06922323 0.039296072 -0.040257093 -0.04879843 0.06764756 -0.085987695 0.09309329 -0.03512508
0.05061997 -0.010329912 0.07730297 -0.066784725 0.077332914 0.06917266 0.0046689617 0.08940342
-0.05306275 -0.012803603 0.0010976101 -0.011583199 -0.07155616 -0.0036908158 0.00859634 0.112204276
-0.017597195 0.055421013 -0.015512901 -0.022804651 0.07765753 -0.09539342 0.033445384 0.038582496
0.07312881 -0.0435521 -0.023719406 -0.06329837 0.04170763 0.017398797 0.042755786 0.03978203
-0.010185833 -0.0551863 -0.012251345 0.049335282 0.04509765 0.06272753 0.06677551 -0.08634794
0.01963824 0.044616323 -0.045941863 -0.0865561 0.01622884 -0.033052046 -0.04410385 0.07231597
-0.039200906 -0.04859499 -0.10181018 0.076573 0.054985087 0.032695573 0.02985375 -0.07524637
-0.0592719 0.05768849 -0.0454714 -0.06852431 -0.029757421 -0.043905735 0.025155142 -0.023839688
-0.057722166 0.0037670282 -0.05888062 -0.06379567 -0.032661475 -0.035255425 -0.032353286 0.08675904
0.028580125 -0.044411212 0.028831074 -0.07666313 -0.06609564 0.0028105013 0.105310805 0.08729865
-0.004842778 -0.009849543 -0.031366788 -0.016056966 -0.03151724 -0.09012803 -0.05142058 -0.015382741
0.029555522 0.09649181 0.106472805 0.08872146 0.06908963 0.08620165 0.06885322 0.051055945
0.03217482 0.05562589 0.00091777195 -0.024005547 0.036085505 -0.06904393 0.053485822 0.11477405
0.08095277 -0.06886813 0.072712995 0.022816187 0.054558363 0.030880328 0.0691891 -0.08317457
0.08725078 -0.07343341 -0.051482182 0.017858269 -0.006621131 -0.06119975 0.064923726 0.016932406
-0.021040825 0.03648296 -0.07318709 -0.07371742 0.06560275 0.05540475 0.061624195 0.045546215
-0.053030234 0.07306513 0.032492496 0.069545865 -0.066783175 -0.09071624 -0.05949055 -0.04382553
0.0062839445 -0.007414426 0.09767882 -0.01667585 -0.0155547485 0.06166831 0.10827586 0.008143682
0.08399387 -0.04917725 0.084652424 0.028038133 0.0070288484 0.085802 0.0704242 -0.055972658
-0.033794016 -0.08561763 -0.013940985 0.00025620958 0.040229797 0.016336225 -0.056024037 0.08886952
0.00026670465 -0.04570538 0.042319536 0.0511936 0.032848693 -0.037368603 -0.01004296 0.06833896
0.05743295 -0.002619561 -0.02036659 0.07622497 -0.013544193 0.036545735 0.058990233 -0.076921366
-0.04753169 -0.06382958 0.003788325 -0.027001992 -0.048653744 0.093542896 0.104018115 -0.017400708
0.018007338 -0.003044946 0.0043372693 0.05787249 0.037950683 0.08963134 -0.048830934 -0.08219713
-0.0152904065 0.019563636 0.0028499514 0.090225 0.058221605 0.03772279 0.0033211366 -0.007756816
-0.01066839 0.008346125 -0.017095752 0.009264801 0.06006487 0.04757436 0.047412157 0.042459052
-0.012313054 -0.038255308 0.05135295 0.0052847457 0.0893825 -0.0070471163 0.10139225 -0.07164411
0.11782126 -0.02118831 0.011107481 -0.022127671 -0.01694092 0.03491931 0.10700893 -0.01339918
-0.009588267 -0.04132207 -0.014266162 -0.0018455314 0.09841989 -0.08245153 -0.068043366 0.02356423
-0.026619852 0.040615235 0.04095858 -0.05692743 0.019842425 0.028010922 0.015116839 -0.08247712

6.bias f4 [128]
00000000: fe30 c63b 548c 133e 611e eb3c a4f5 9e3d
00000010: 2aea 84bd b20a b9bc 96ee 663e 5df5 293d
00000020: ce91 6d3e 8b8a 513e 307d 743c d594 edbd
00000030: f38f afbd 81a3 5bbb b183 343c de1c 543d
00000040: e541 bcbd 9a04 2abc 5283 9dbd 8d29 8c3c
00000050: 680f 6c3d 8ff8 223e 5b72 44bd 01bb b7bd
00000060: 8afc 15bb 174e 0d3d 6fca f63c 809c 1fbd
00000070: 9e34 fe3c b86b 6fbd da0e 893d ef01 22bd
00000080: 6fa4 2a3e 5d11 02bd e431 d0bb 6a0b 94bd
00000090: 4834 eabd 7a6d 4b3d b995 b83c 2f13 093e
000000a0: 76ee 8ebd cf57 733e 4026 133e 1613 df3a
000000b0: 5f57 afbd 365e 353d bb0d 6a3d f492 d0bd
000000c0: 8ece f4bc 27e0 c6bc ac5f 8fbd d9a4 cfbd
000000d0: 79c0 553d d5f9 98bc 96de 9f3d a6f9 063e
000000e0: bbae 63bd ff24 67bb 0a8e 533e eb09 5dbd
000000f0: 43ea 233d 0386 2dbd 826f 8b3b e31c 8a3e
00000100: 727e de3a 8a5b fdbc 0025 2bbd cafd 093d
00000110: fa9a adbd ee16 49bd 91a5 34bd eaa3 013d
00000120: d5c1 2a3d ac0a a5bd a254 743b c334 313e
00000130: b878 323c 09d8 b3bd 5b62 0dbd 2954 f6bc
00000140: 7a90 b53b 581c aebb 89e0 b8bd 9850 0dbd
00000150: d51b 5cbd 2a62 f8bc c3cf 5d3c 458a f43b
00000160: 9d94 cf3a bfc7 9abb 9d91 75bd b444 953d
00000170: 33e4 e9bd a173 98bd c1e9 4bbd 2ef5 b0bd
00000180: 1138 67bc 028d e83c f200 9f3c 1890 0f3e
00000190: eaad fbbc 2a67 173e a8fe a2bd db28 9c3e
000001a0: 899e a2bd 96c5 c8bd e6de 32bd b0ec 0abd
000001b0: b3be d93b ddf7 33bd 452e da3d 2e50 83bd
000001c0: df91 61bb 24dd 6f3d 7ca4 97bd 4ca1 083d
000001d0: c7a5 0a3d 0e43 7fbd 079e 763d 3bae 8cbc
000001e0: 5055 01be 3f42 55bd 29a0 223e 6130 95bc
000001f0: 2f21 2c3d f0dc 8d3e 480b 073e 3d31 533c
0.006048321 0.14409 0.02870101 0.07761696 -0.06489976 -0.022588108 0.22551951 0.041493762
0.23200151 0.20463006 0.014922425 -0.11600653 -0.08572378 -0.0033514204 0.011017726 0.051785342
-0.09192256 -0.010377074 -0.07691063 0.017109657 0.05763188 0.1591513 -0.04796062 -0.08971215
-0.002288612 0.0344983 0.030125825 -0.03896761 0.03103095 -0.058452338 0.06692286 -0.039552625
0.16664289 -0.03175484 -0.0063536037 -0.072287396 -0.11435753 0.04966495 0.02253233 0.13386224
-0.069790766 0.23763965 0.1437006 0.0017019238 -0.085615866 0.0442793 0.057142 -0.10184279
-0.02988365 -0.024276806 -0.0700067 -0.10138864 0.05218551 -0.018673817 0.07806127 0.13181171
-0.055586558 -0.0035269854 0.20659652 -0.053964537 0.04001833 -0.04236413 0.004255236 0.26975164
0.001697494 -0.030927438 -0.041783333 0.033689298 -0.08476825 -0.049094133 -0.04410321 0.03165046
0.04168876 -0.08058676 0.003728189 0.17305283 0.010893039 -0.0878144 -0.034517627 -0.030069428
0.0055409046 -0.0053134374 -0.09027202 -0.03450069 -0.05373748 -0.030320246 0.013538304 0.007462772
0.0015837137 -0.0047235186 -0.05995332 0.07288495 -0.11420479 -0.074439295 -0.049783472 -0.08640514
-0.014112488 0.02838755 0.01940963 0.14019811 -0.030722577 0.14785448 -0.07958728 0.3049992
-0.079403944 -0.098033115 -0.043669604 -0.03391713 0.0066450476 -0.043937553 0.106533565 -0.064117774
-0.0034419221 0.058560506 -0.0740442 0.03335695 0.033849504 -0.062319808 0.0602093 -0.017172923
-0.126302 -0.05206513 0.15881409 -0.018211545 0.042023834 0.27707624 0.13187897 0.012890157

8.weight f4 [49, 128]
00000000: 5bb5 933d ee4e a8bd 54ab b7bc 1b1e 273d
00000010: d7af 0cbe 80c6 aa3d 580b 46be edc1 bf3d
00000020: f4a4 23be 74d7 23be 9e6c debd 36be 893c
00000030: 1b36 68bb 1182 283b 4af7 fe3c af75 8d3b
00000040: e897 083d f5ed 603d 97bd 5e3c 134e 793d
00000050: 12ce 823d 51c1 6cbd f7db a2bd 9726 b93d
00000060: a95f 2bbd dd8a 053d f5ba 8f3d a8d9 97bc
00000070: 35a9 6ebd 1116 0d3c ea00 ae3d 9756 833d
00000080: 9c27 cabd 15d0 ab3d 6ed5 8e3c 1752 9a3d
00000090: 8cde a3bd 6857 61bc cc30 1c3d 1ddf 4cbe
000000a0: dd9f 923b 2c80 75be 29ee 11bd c00d c8bc
000000b0: e6d9 343d eee0 813d 25d9 7f3a 001a 32bc
000000c0: e265 9b3b 737b eb3c aff0 d2bc 63b1 04bd
000000d0: a0d1 7cbd e19f 603d 4e5f 22bd ee28 9fbd
000000e0: f8c4 873d 26cf 853d 9886 f1bc ad59 bfbd
000000f0: 5e84 99bc 1f9b 9fbd 3fd0 2bbd a4c3 29be
00000100: 51f2 96bd 24e8 a83d 108d 873b 89fd 17b8
00000110: 86f1 fcbc 9e89 613d 4739 ed3d be02 b13d
00000120: 12a7 77bc 4dca e93c fb94 a83d 511f d7bd
00000130: 7f99 69bd 534e 17bb a0dc 9fbc 5b64 073d
00000140: a4d7 0abd 2d7a b73d 2cee 36bd b7bb acbd
00000150: cb3c 11bd ed7c 923d 08ba 363d a5a9 9ebd
00000160: c13f 3e3d 5176 5b3d 3054 783c ab36 7abd
00000170: f1c1 6ebd 8471 faba e0f1 0ebe ec8e 053d
00000180: f545 a73d 68be 113d 64a5 143d 3f06 f0bd
00000190: 9790 f4bc 1dc0 2dbe 34c9 0dbd 6d29 6cbe
000001a0: 0242 d53d aac9 283e 93e0 6bbd b28d 433d
000001b0: bd2e 833b f159 55bd 2dc3 db3c c2af 773d
000001c0: 5343 f3bc 52f5 133d 456c 1d3d c833 923d
000001d0: 2086 11bd db02 083d 8362 e5bd 9bcc a43d
000001e0: be89 96bd d5fa 4abd 8c29 7fbe 4d36 173c
000001f0: 36ad 0bbd 1062 02be 63eb 31bd 5374 903d
00000200: b575 313d 8d3c c8bd 8170 c33c 2094 fdbb
00000210: e52c 7dbc 9798 183d 8901 2bbd dd57 a83d
00000220: de69 2ebe 82bc a9bc 6ed8 1ebe 78d1 efbc
00000230: c819 4a3d 2a77 f03c 39b3 973d c38f 123c
00000240: 375d b23d 33a0 c93c 6690 2a3d ae4c c0bc
00000250: 255b 153d e521 14be dc11 1e3b f7a0 ff3d
00000260: 212f 2abc 399e 3f3c 34a3 043d cef0 85bd
00000270: d4bc 4d3c 1fd9 5f3b 9674 39bd b400 bfbc
00000280: 9d7c d3bd 7afc bbbb 8d43 033e 8924 4c3d
00000290: 18dd 1d3d d5fb 34bd 9db1 bf3c 0749 eabd
000002a0: 039b 453d 28b4 88be 3012 08be 8e7d 893d
000002b0: fe1d 3b3d ee10 32bd 3213 a03d ea64 893d
000002c0: 3f6a 0dbd d49d 093d b633 82bc aa9c 773c
000002d0: 9810 1abe 5961 75bd 7626 1fbd 6d6b 33bd
000002e0: a326 86bd 8b30 3c3c bea8 27be c217 21be
000002f0: 529f 6c3d 61da 733b edfe 56bd af16 d0bd
00000300: 8cc9 10bd d119 8fbd a1af 813d c6e9 3b3c
00000310: 6a56 52bd 7231 363d 40c0 373c 6e56 d53d
00000320: 96a3 99bd dddd 92bc 4384 a53c 3954 45bd
00000330: c580 9b3d f65e b6bd 0db6 8abd 8a01 6d3b
00000340: f2b3 0f3d c418 98bd 7a23 933b 740f 9cbc
00000350: b731 9a3d ec9e af3c 76e9 833d 8651 04be
00000360: 29cf ab3d f6db 993d a567 eebc 694f e0bd
00000370: a6a2 98bd 8458 62bd b39f 1fbe 02e6 c83c
00000380: bbcd 1abd 75d1 933c 8052 d2bc 6729 83bd
00000390: b692 903c 9b46 86be 7521 4d3d c681 32be
000003a0: 9bfb d53d 24e2 bd3d c14b 3b3d e9d2 aebd
000003b0: ba73 9f3d feae 323d 9a06 98bd 87ed be3d
000003c0: 1ca0 62bc 8977 8ebc 9d29 3fbc 33fa 763b
000003d0: 6cba febd aba6 15bc 0a0d d4bc 7aaa 78bd
000003e0: d3e7 1bbd bef1 723d 3d0c 5bbe 3b46 993b
000003f0: 6b27 8a3c 49ff 35be 1f02 81bd 9f49 823c
0.07212325 -0.0821818 -0.022420563 0.040800195 -0.13738953 0.08338642 -0.19340265 0.0936316
-0.15980893 -0.16000158 -0.10860561 0.016814332 -0.003543264 0.0025712291 0.031123776 0.0043170075
0.033347994 0.054914434 0.013595006 0.060865473 0.06386961 -0.05780155 -0.07952111 0.090405636
-0.041839276 0.032603133 0.07018081 -0.018536404 -0.058266837 0.008611218 0.08496268 0.06413
-0.09870836 0.08389298 0.017435756 0.07535189 -0.08001432 -0.013753749 0.038132474 -0.20006986
0.0044746236 -0.23974675 -0.035627518 -0.024420619 0.044153117 0.0634173 0.0009759835 -0.010870457
0.00474237 0.028745389 -0.025749533 -0.03239573 -0.06172335 0.054839972 -0.03964167 -0.077714786
0.06629366 0.06533651 -0.029483125 -0.09343276 -0.018739875 -0.07793259 -0.041946646 -0.16578537
-0.07370437 0.08247402 0.004136689 -3.623733e-05 -0.030876886 0.055062883 0.115831904 0.08643101
-0.015115516 0.028538847 0.08231541 -0.1050402 -0.05703115 -0.0023087456 -0.019514382 0.03305469
-0.033897057 0.0895885 -0.044660732 -0.08434241 -0.035458367 0.07152734 0.044611007 -0.07747201
0.04644752 0.053579632 0.015156791 -0.06108729 -0.058290426 -0.0019107317 -0.13959455 0.032607004
0.0816764 0.035581976 0.03629054 -0.11719941 -0.029854102 -0.16967817 -0.03461571 -0.23062678
0.104129806 0.16483179 -0.057587218 0.047742553 0.0040033744 -0.052087728 0.026826466 0.06047035
-0.029695189 0.036122628 0.038433332 0.07138783 -0.035528302 0.03320585 -0.1120043 0.08046838
-0.07350491 -0.04955562 -0.24918193 0.009229255 -0.034100734 -0.1273272 -0.043437373 0.07053437
0.043325145 -0.09777174 0.023857357 -0.007738605 -0.015452598 0.037254896 -0.04174951 0.082198836
-0.17032573 -0.02071977 -0.15512249 -0.029274687 0.049340993 0.029353697 0.07407231 0.008945408
0.087091856 0.024612522 0.041641615 -0.023474064 0.036463875 -0.14466055 0.0024119532 0.124818735
-0.010387213 0.011695438 0.032382205 -0.065400705 0.012557227 0.0034156514 -0.0452772 -0.023315765
-0.103265025 -0.0057368847 0.12818737 0.04983953 0.03854093 -0.04418548 0.023400122 -0.1143971
0.048243534 -0.26699948 -0.13288188 0.06713401 0.0456829 -0.043473177 0.07816161 0.06708701
-0.034525152 0.033597782 -0.015893798 0.015113035 -0.15045393 -0.05990729 -0.03885504 -0.04380362
-0.06550338 0.011486183 -0.16372964 -0.15731719 0.057769127 0.0037209021 -0.05248921 -0.101605766
-0.03534846 -0.06987346 0.06332327 0.01146931 -0.051351942 0.04448075 0.01121527 0.10416876
-0.07501905 -0.017928058 0.020204669 -0.048176024 0.0759292 -0.08904831 -0.06773005 0.0036164247
0.03508372 -0.07426599 0.004490313 -0.019050337 0.075290136 0.021438085 0.064410135 -0.12921724
0.08389122 0.07512657 -0.029102156 -0.10952646 -0.07452898 -0.055260196 -0.15588264 0.024523739
-0.037793856 0.018044213 -0.025674105 -0.06404381 0.017648082 -0.26225743 0.050080735 -0.17432317
0.104483806 0.092716485 0.04572654 -0.08536322 0.07785745 0.043623917 -0.07423134 0.093226485
-0.013832118 -0.017390983 -0.011667636 0.0037685751 -0.12437901 -0.009133975 -0.025885124 -0.060709454
-0.03806288 0.059312575 -0.21391387 0.0046775616 0.0168645 -0.17773165 -0.06299233 0.015904246

8.bias f4 [49]
00000000: 4b9c b8bd 0e11 6fbd 3b91 c1bd 1fdc dfbd
00000010: 801b 02be 5239 aebd 6aeb aebd 4646 cfbd
00000020: ec03 11be e962 10be 853a d9bd aac4 cdbd
00000030: 0928 17be fcfe 39be a429 1cbe 0929 e2bd
00000040: cece 2abe ae9d 4bbe 35cc 56be 57e7 28be
00000050: af3d 24be f9d7 1fbe 3165 39be da96 42be
00000060: 8298 67be a97c 07be 0470 acbd adf0 40be
00000070: 588b 3cbe 55eb f9bd 8c7a 37be e32e 97be
00000080: ec37 f9bd bb9b 4dbe a809 05be e3dd aebd
00000090: 13b7 d3bd 1f02 33be 9d6f 04be 0a8c 06be
000000a0: 23e5 f3bd 7f9b a9bd 5e1b 39be c7ff 10be
000000b0: a9e0 e0bd 124d b2bd b469 83bd ca51 07be
000000c0: fa0a 23be
-0.090141855 -0.058365874 -0.09451529 -0.10930657 -0.12705803 -0.08507027 -0.085409954 -0.101208255
-0.14161652 -0.14100231 -0.10606865 -0.10047276 -0.14761366 -0.18163675 -0.1525026 -0.11042983
-0.16680452 -0.19884369 -0.20976336 -0.16494499 -0.16039155 -0.15609731 -0.18105008 -0.19002858
-0.22616771 -0.13231148 -0.08419803 -0.1884181 -0.1841253 -0.12203089 -0.17917842 -0.2952796
-0.121688694 -0.20078938 -0.12991965 -0.08538415 -0.10337653 -0.17481278 -0.12933202 -0.13139358
-0.11908939 -0.08281612 -0.18076846 -0.14160071 -0.109803505 -0.08706106 -0.06416646 -0.13214794
-0.15922156
