models/snapsRandom/model_1685772302.0595198.pt (torch, 252563 bytes, 10 tensors)

0.weight f4 [128, 49]
-0.08085695 0.11141179 0.035141744 -0.15349218 0.049359664 -0.049750604 -0.08633936 0.07225461
-0.03660818 -0.12387845 0.11130751 0.16899763 -0.037883118 0.09848827 0.0056283604 -0.1101539
-0.012747838 -0.0825557 -0.010806666 0.020204905 -0.028371695 -0.08825413 0.24454914 -0.10965317
-0.042136203 -0.08101477 -0.06058849 0.05869223 0.155639 -0.062495466 0.17952867 -0.028610012
-0.0038771299 0.041103948 -0.060289033 0.14007331 -0.063173495 -0.008296844 -0.19207193 -0.0052182786
-0.12277671 0.06961761 0.19558619 -0.043293044 -0.099077575 0.13018063 0.12135106 -0.16377284
-0.072828576 0.003765219 -0.037295584 -0.12436219 0.05783756 0.12294369 -0.0019732972 -0.12674336
0.04342958 0.10640215 0.0102628 0.12961496 0.06990357 0.052503128 0.020393198 -0.139137
-0.030313779 0.14048858 -0.064670555 -0.14714189 0.22780403 0.16484371 0.027645107 0.044679545
0.13875006 -0.18462126 -0.15291399 -0.045378506 0.07179622 0.038860004 -0.0116733005 0.12841928
-0.17219853 -0.11224226 -0.12400445 0.21955177 -0.10936797 0.037912 -0.031841576 -0.12058192
0.07787353 0.074779 -0.033079386 0.10561498 -0.018645046 -0.20962109 -0.05828153 0.12424879
0.021824468 -0.072913565 0.0394667 -0.1716101 0.05182457 -0.12208201 -0.026502766 -0.25387174
0.051450495 0.0603012 0.13587706 -0.033352826 -0.0593429 0.16648956 -0.22265674 0.04596424
-0.13763185 0.014032204 0.12661196 -0.10077385 -0.07659552 -0.028745 -0.06996014 0.1015321
-0.18822117 0.0550188 -0.029102398 0.014532029 -0.10034206 0.1158856 -0.14715077 0.050639145
0.007906754 -0.094962865 0.05509014 -0.102468245 0.035410367 -0.07204695 0.04158871 -0.11995814
0.013481965 -0.0880854 -0.065054156 0.16630048 -0.02613952 -0.034475517 -0.1627675 0.092870794
0.049349904 -0.09200815 0.061679725 0.08924185 0.025071247 -0.04921499 -0.07582736 0.10612798
-0.03577363 -0.02443232 0.04175662 0.084023535 0.09701976 0.0091776615 -0.110108025 -0.31959695
-0.037167877 0.13031887 0.022217281 0.04808647 0.060963538 -0.055126786 -0.18345293 0.21471584
0.091577955 -0.04396147 0.05094647 -0.039409127 -0.03435299 -0.22015093 0.07068155 0.068118766
-0.09787019 0.10243648 0.07666905 -0.051532164 0.06835814 0.22833467 -0.0071334294 0.18653217
-0.17770924 0.09131713 -0.00821284 0.10132173 0.029958598 -0.06742348 0.122906856 -0.13949731
0.09178558 -0.047886077 -0.016352398 0.113529734 0.01858291 -0.05977023 0.030540803 -0.086362146
-0.045407087 0.20647527 0.15066959 0.018819934 -0.019011375 0.035881016 0.17656432 0.024031367
-0.0914626 -0.15200678 -0.060821068 -0.022553124 0.100292906 -0.017215947 -0.052358914 -0.051108517
0.039669715 -0.061163593 0.024371518 -0.0057392796 -0.2694023 0.092474945 -0.17702176 -0.16151936
-0.00902601 -0.1065777 -0.001457646 0.13710414 0.15783739 -0.043276876 -0.038835593 -0.020046538
0.068916894 0.11258173 -0.08942841 -0.105553776 -0.1523065 0.039909985 -0.088787146 0.04687391
0.030715663 0.010872275 0.032931715 0.16443639 -0.11276254 -0.026656056 0.077502236 0.025346648
-0.06514956 0.033547428 -0.07950465 0.12878214 -0.115813985 -0.03591268 -0.060887873 0.004162267
00000000: 5498 a5bd dd2b e43d caf0 0f3d 0e2d 1dbe
00000010: 5c2d 4a3d 4ac7 4bbd b1d2 b0bd 3afa 933d
00000020: 75f2 15bd fcb3 fdbd 31f5 e33d b70d 2d3e
00000030: 542b 1bbd 38b4 c93d 1c6e b83b 5e98 e1bd
00000040: 4fdc 50bc f612 a9bd 710e 31bc c284 a53c
00000050: c26b e8bc 95be b4bd 176b 7a3e d791 e0bd
00000060: 0397 2cbd 12eb a5bd a32b 78bd 4467 703d
00000070: d45f 1f3e 3ffb 7fbd 5dd6 373e 8b5f eabc
00000080: 7217 7ebb 9d5c 283d a2f1 76bd 616f 0f3e
00000090: 1b61 81bd 7cef 07bc 81ae 44be 18fe aabb
000000a0: 5b72 fbbd ad93 8e3d bf47 483e 0c54 31bd
000000b0: 2fe9 cabd 124e 053e e886 f83d 11b4 27be
000000c0: 2627 95bd e4c1 763b 41c3 18bd 9bb1 febd
000000d0: 14e7 6c3d e7c9 fb3d 6f52 01bb 03c9 01be
000000e0: 37e3 313d 5fe9 d93d 4e25 283c c9b9 043e
000000f0: 9a29 8f3d 850d 573d a30f a73c ee79 0ebe
00000100: 9a54 f8bc 3ddc 0f3e ff71 84bd 5dac 16be
00000110: 7645 693e cacc 283e fe77 e23c e601 373d
00000120: 7f14 0e3e 5b0d 3dbe 7c95 1cbe d0de 39bd
00000130: e609 933d ab2b 1f3d 5f41 3fbc 5880 033e
00000140: d054 30be 45df e5bd 0cf6 fdbd 2ed2 603e
00000150: 50fc dfbd 9d49 1b3d 506c 02bd a7f3 f6bd
00000160: 287c 9f3d bb25 993d 407e 07bd ab4c d83d
00000170: 7fbd 98bc e9a6 56be 9db8 6ebd 2676 fe3d
00000180: 3ac9 b23c b553 95bd d6a7 213d 8fba 2fbe
00000190: 0046 543d 2206 fabd 541c d9bc 7afb 81be
000001a0: c1bd 523d 64fe 763d 5b23 0b3e f99c 08bd
000001b0: 8a11 73bd 3d7c 2a3e 2100 64be 0045 3c3d
000001c0: 5def 0cbe 54e7 653c 91a6 013e 8562 cebd
000001d0: 1dde 9cbd a27a ebbc 4347 8fbd 10f0 cf3d
000001e0: 0dbd 40be 655b 613d 2768 eebc bf17 6e3c
000001f0: 2380 cdbd 6e55 ed3d b1ae 16be fe6a 4f3d
00000200: 548b 013c e47b c2bd 33a6 613d dfda d1bd
00000210: 760a 113d 5a8d 93bd ec58 2a3d 9dac f5bd
00000220: 76e3 5c3c 1e66 b4bd 1d3b 85bd ac4a 2a3e
00000230: 8c22 d6bc 3336 0dbd 86ac 26be 0b33 be3d
00000240: 2023 4a3d c56e bcbd e1a3 7c3d 6ec4 b63d
00000250: 3762 cd3c a895 49bd 604b 9bbd a059 d93d
00000260: 5f87 12bd 4a26 c8bc fd08 2b3d 8814 ac3d
00000270: 4cb2 c63d e75d 163c 5180 e1bd 36a2 a3be
00000280: 583d 18bd 4f72 053e 0401 b63c 52f6 443d
00000290: e7b4 793d a0cc 61bd 16db 3bbe 78de 5b3e
000002a0: 398d bb3d f110 34bd 3fad 503d 776b 21bd
000002b0: b9b5 0cbd 3f6f 61be 7dc1 903d da81 8b3d
000002c0: 2b70 c8bd 38ca d13d aa04 9d3d 6413 53bd
000002d0: 5aff 8b3d 90d0 693e 8bbf e9bb 4a02 3f3e
000002e0: 69f9 35be 7a04 bb3d 268f 06bc c481 cf3d
000002f0: bc6b f53c 5215 8abd 97b6 fb3d 62d8 0ebe
00000300: 14fa bb3d 3124 44bd 77f5 85bc 4782 e83d
00000310: 303b 983c a1d1 74bd b530 fa3c a3de b0bd
00000320: c8fc 39bd 416e 533e 2149 1a3e 432c 9a3c
00000330: bebd 9bbc f9f7 123d 47cd 343e 6edd c43c
00000340: be50 bbbd aaa7 1bbe 831f 79bd 54c1 b8bc
00000350: 5e66 cd3d 7508 8dbc 4d76 56bd 2a57 51bd
00000360: b67c 223d ad86 7abd c7a6 c73c 9110 bcbb
00000370: 19ef 89be 8163 bd3d 3145 35be 5565 25be
00000380: d4e1 13bc 6945 dabd 7c0e bfba 0765 0c3e
00000390: 20a0 213e 1843 31bd 1212 1fbd a338 a4bc
000003a0: 4d24 8d3d 4091 e63d 3e26 b7bd 942c d8bd
000003b0: 3cf6 1bbe a778 233d 09d6 b5bd dbfe 3f3d
000003c0: 6a9f fb3c a021 323c 68e3 063d 0362 283e
000003d0: 0cf0 e6bd cd5d dabc 7eb9 9e3d c6a3 cf3c
000003e0: 226d 85bd 0769 093d 55d3 a2bd 77df 033e
000003f0: e22f edbd 2d19 13bd 9065 79bd a063 883b

0.bias f4 [128]
0.096066765 0.118067786 -0.00489641 0.11656746 -0.095909186 0.14737502 -0.13426259 0.5415702
0.038692925 -0.48709738 0.1905625 0.3142771 -0.0960979 -0.18704231 -0.052819323 0.13733737
-0.100337945 -0.218649 -0.009771758 -0.042677432 0.099395804 -0.22460085 -0.21723048 -0.2221607
-0.1372233 0.05270339 0.2031133 0.4179231 -0.2858565 0.23693852 0.15848413 -0.33330688
-0.24536745 -0.36932772 -0.038555093 -0.21200773 0.21689264 -0.14652815 0.07917594 -0.08632403
-0.11705186 -0.1556007 0.008831746 -0.13260439 -0.17580223 -0.078617826 0.42758048 -0.04570518
-0.3409006 0.22375455 -0.23352833 -0.21492782 -0.25727814 0.19308145 -0.19270563 -0.028910022
0.33871722 0.13533176 0.10933649 -0.12525955 -0.0003641766 -0.0216361 -0.20941296 0.17828701
-0.13472381 0.11227003 -0.21025833 -0.19823943 -0.13523898 -0.20868032 0.34952658 0.18533984
0.07443565 -0.09679955 0.04071043 0.06381111 -0.10666241 -0.22359663 0.024864417 0.15288772
-0.24173127 0.14610481 0.10473205 0.02022477 -0.20632708 -0.08776697 0.26311392 0.16400242
-0.12564093 0.03651434 0.14188796 -0.10662657 -0.120096155 -0.1397302 0.24981056 -0.21125336
0.001351247 -0.07103392 0.34967008 -0.067869976 0.35026214 -0.24552879 -0.1622248 0.036968384
-0.27937314 -0.06600015 0.21446544 -0.15005906 -0.23054281 -0.15432271 -0.16143744 -0.28598624
-0.128013 -0.15306756 0.10411738 -0.22352573 0.12267562 -0.06035943 -0.06508421 -0.19463034
0.10816153 -0.1483358 0.20168163 -0.294011 -0.19967325 -0.22595192 0.040406387 0.022013487
00000000: a7be c43d 86cd f13d 1072 a0bb ecba ee3d
00000010: 096c c4bd 7ae9 163e 227c 09be 58a4 0a3f
00000020: 797c 1e3d d464 f9be d122 433e eee8 a03e
00000030: face c4bd 0588 3fbe 1359 58bd 2ba2 0c3e
00000040: fb7d cdbd 86e5 5fbe b919 20bc 88ce 2ebd
00000050: 0790 cb3d c4fd 65be ab71 5ebe 187e 63be
00000060: 4484 0cbe 83df 573d effc 4f3e 04fa d53e
00000070: c85b 92be 03a0 723e aa49 223e 33a7 aabe
00000080: 9b41 7bbe 8618 bdbe f2eb 1dbd 8e18 59be
00000090: 1b19 5e3e 7a0b 16be ff26 a23d a7ca b0bd
000000a0: e3b8 efbd ca55 1fbe 07b3 103c 72c9 07be
000000b0: 8005 34be 6202 a1bd d4eb da3e 5b35 3bbd
000000c0: 868a aebe ea1f 653e 0d22 6fbe 0a16 5cbe
000000d0: f6b9 83be 25b7 453e a054 45be b6d4 ecbc
000000e0: 586c ad3e 6994 0a3e cfeb df3d 0a44 00be
000000f0: f5ee beb9 313e b1bc 5a70 56be df90 363e
00000100: 0af5 09be d4ed e53d f64d 57be 47ff 4abe
00000110: 167c 0abe 4bb0 55be 26f5 b23e bac9 3d3e
00000120: b871 983d d83e c6bd fbbf 263d 66af 823d
00000130: d271 dabd 84f6 64be 76b0 cb3c 998e 1c3e
00000140: 6788 77be 809c 153e c27d d63d 6bae a53c
00000150: 6847 53be 2bbf b3bd deb6 863e 40f0 273e
00000160: 04a8 00be 1090 153d 144b 113e 085f dabd
00000170: f9f4 f5bd 6f15 0fbe 57ce 7f3e cd52 58be
00000180: 531c b13a 3b7a 91bd f507 b33e 6aff 8abd
00000190: 8f55 b33e e66b 7bbe 421e 26be 296c 173d
000001a0: ff09 8fbe 162b 87bd d49c 5b3e 15a9 19be
000001b0: 6a13 6cbe c606 1ebe db4f 25be ca6c 92be
000001c0: d715 03be bebd 1cbe 7e3b d53d eee3 64be
000001d0: 5b3d fb3d 733b 77bd df4a 85bd 2d4d 47be
000001e0: cb83 dd3d 57e5 17be a185 4e3e 9c88 96be
000001f0: 2577 4cbe f15f 67be 2b81 253d a155 b43c

2.weight f4 [128, 128]
0.04427387 -0.008141215 -0.031223804 -0.0577869 0.057619415 -0.014176525 -0.04158549 0.03335031
0.008546476 -0.033202365 0.0064344415 0.06448294 -0.0023572422 -0.036826007 0.07625757 -0.04835167
-0.061260663 -0.041685816 -0.08227219 0.036534294 0.08355794 -0.07647869 0.04646072 0.009755603
-0.010666517 -0.06181925 -0.03923456 -0.010947636 0.024501536 0.053483512 -0.06515731 -0.018463165
-0.010034255 0.006430438 -0.062241703 0.048061304 0.023947136 -0.051348876 -0.05040669 -0.0070424834
0.020502754 -0.061931107 0.02046211 -0.03866611 -0.0066799438 0.016636828 0.046086777 0.0038522761
-0.047926888 -0.07941251 0.046348955 0.07780633 -0.05317892 -0.05519993 0.00786778 -0.013415885
0.075549096 0.08927822 0.030689644 0.09248189 0.08135639 -0.008365674 0.063889705 -0.0766375
-0.028594755 0.07582628 -0.05502674 -0.0034151417 -0.0680536 0.093717225 0.062517315 -0.050805047
0.084613904 -0.054009136 0.06954747 -0.0015688476 -0.0058258274 0.06427992 -0.08052848 -0.045465846
-0.0080624735 -0.06927863 0.020180438 -0.070223115 -0.06066663 0.03283076 0.011343113 0.079932705
-0.07188061 0.076389775 0.058817353 -0.0075031416 0.048644815 -0.06979276 -0.056612846 -0.05945609
-0.073986515 -0.06938864 0.03954411 0.085944265 0.009861985 -0.03454025 -0.05786018 -0.023594867
0.05109591 -0.042294577 -0.028925346 -0.07904945 0.0218842 0.084779 0.045327723 0.075912096
0.054791767 0.000263307 -0.064852305 0.09154645 -0.018420551 0.101810716 -0.056074593 0.0063998154
0.021083621 0.05448624 0.008051689 -0.08098011 0.00056470506 0.091492765 0.010978216 0.055944618
-0.034081046 -0.060116045 0.053761836 0.044423956 -0.018772975 -0.025204439 -0.03536775 0.021904763
0.06305586 -0.08497934 0.0023511518 0.012378123 -0.0056043174 0.048193406 0.025730273 0.07049465
-0.042708464 -0.0136258295 -0.012745362 -0.049921483 -0.0394004 -0.030224362 -0.025564125 -0.04302145
0.013090434 -0.08316509 0.07787754 -0.029924272 0.061138716 0.0072726854 -0.073979795 -0.088862635
-0.015759319 0.05077419 0.012533884 0.056161378 -0.05589414 -0.08402708 -0.086191714 0.023117859
0.046189167 -0.038723476 0.022766965 -0.07047704 -0.016346367 0.07474732 -0.028330445 0.075014934
-0.053958267 -0.049709883 0.07804561 0.0701504 0.019242926 -0.023188042 0.035440348 0.027060797
-0.039971408 -0.06805864 -0.00656101 -0.042742327 -0.029348524 0.013408774 0.07540538 0.070089504
0.06864952 0.036481805 0.029991167 -0.017267289 0.007762132 -0.007358112 -0.0695228 0.08782979
0.06109623 0.009116861 0.046667818 0.04011594 0.06383897 0.048213113 -0.013481477 -0.02047113
-0.050458673 0.007352761 0.06703723 -0.081387654 0.021990798 -0.04935966 0.07882582 -0.07817295
0.010413721 0.05294083 -0.028950837 0.009674353 0.03017484 -0.0052772937 -0.027414909 0.0825062
-0.08329675 -0.057234798 -0.03385017 0.007459904 -0.014097515 0.014591448 -0.014743152 -0.045736387
0.010540356 0.062017657 0.040830575 0.021145793 -0.0595588 0.049764767 -0.012786721 0.056227885
-0.032442003 -0.0674292 0.060522996 -0.018853636 -0.037813198 0.039116696 -0.00064333883 -0.03331549
-0.014367159 -0.00015395753 0.015050289 0.06307472 -0.03349356 -0.028901882 -0.0009045256 0.00024969652
00000000: 8458 353d bb62 05bc 10c9 ffbc f5b1 6cbd
00000010: 5602 6c3d a844 68bc 8c55 2abd 569a 083d
00000020: 8506 0c3c 34ff 07bd 02d8 d23b a20f 843d
00000030: f67b 1abb ded6 16bd ee2c 9c3d 670c 46bd
00000040: 76ec 7abd bfbe 2abd 527e a8bd fca4 153d
00000050: 6d20 ab3d dca0 9cbd 994d 3e3d f7d5 1f3c
00000060: 9dc2 2ebc 2f36 7dbd 6bb4 20bd b75d 33bc
00000070: 72b7 c83c 8711 5b3d 3271 85bd 1040 97bc
00000080: b766 24bc 6cb6 d23b 28f1 7ebd eedb 443d
00000090: c92c c43c 3353 52bd 3f77 4ebd a2c4 e6bb
000000a0: 64f5 a73c 79ab 7dbd 28a0 a73c 5b60 1ebd
000000b0: 6ee3 dabb f549 883c 7dc5 3c3d 7876 7c3b
000000c0: fc4e 44bd 07a3 a2bd 67d8 3d3d ed58 9f3d
000000d0: 24d2 59bd 5219 62bd dce7 003c 4dce 5bbc
000000e0: 7cb9 9a3d 80d7 b63d d968 fb3c 2567 bd3d
000000f0: 2e9e a63d 2e10 09bc 9bd8 823d 1ff4 9cbd
00000100: 8c3f eabc cf4a 9b3d b863 61bd 92d0 5fbb
00000110: b05f 8bbd d1ee bf3d 1409 803d f418 50bd
00000120: 0e4a ad3d af38 5dbd e76e 8e3d caa1 cdba
00000130: 95e6 bebb 31a5 833d 1eec a4bd 653a 3abd
00000140: 7718 04bc f4e1 8dbd 7251 a53c 23d1 8fbd
00000150: 927d 78bd 8c79 063d 77d8 393c c2b3 a33d
00000160: 2436 93bd 3e72 9c3d 77ea 703d eadc f5bb
00000170: c93f 473d 82ef 8ebd dfe2 67bd 3b88 73bd
00000180: 3e86 97bd a21b 8ebd 01f9 213d 8c03 b03d
00000190: 2a94 213c 147a 0dbd ccfe 6cbd 064a c1bc
000001a0: f249 513d 143d 2dbd d9f4 ecbc aee4 a1bd
000001b0: 7e46 b33c 9da0 ad3d 90a9 393d cd77 9b3d
000001c0: 556d 603d 780c 8a39 49d1 84bd b57c bb3d
000001d0: b2e6 96bc 2382 d03d 79ae 65bd 8bb5 d13b
000001e0: 8fb7 ac3c f72c 5f3d 3beb 033c e6d8 a5bd
000001f0: b708 143a 8f60 bb3d fadd 333c 2f26 653d
00000200: 9198 0bbd 3e3c 76bd 5f35 5c3d e5f5 353d
00000210: c8c9 99bc 8a79 cebc c6dd 10bd 9e71 b33c
00000220: 6e23 813d a609 aebd c815 1a3b 9ccd 4a3c
00000230: 6ca4 b7bb 7366 453d 4bc8 d23c 805f 903d
00000240: 12ef 2ebd df3e 5fbc ecd1 50bc 787a 4cbd
00000250: 5062 21bd 1599 f7bc db6b d1bc 4337 30bd
00000260: 4279 563c 7552 aabd 427e 9f3d bf23 f5bc
00000270: 976c 7a3d b54f ee3b b882 97bd 9dfd b5bd
00000280: b019 81bc 99f8 4f3d eb5a 4d3c 7909 663d
00000290: 41f1 64bd 6416 acbd 4885 b0bd aa61 bd3c
000002a0: da30 3d3d 829c 1ebd c981 ba3c 4456 90bd
000002b0: d1e8 85bc 1f15 993d 4015 e8bc 6ea1 993d
000002c0: 5803 5dbd 979c 4bbd 60d6 9f3d 03ab 8f3d
000002d0: 57a3 9d3c d9f4 bdbc e629 113d 9bae dd3c
000002e0: 0fb9 23bd 5462 8bbd befd d6bb 9412 2fbd
000002f0: 516c f0bc 79b0 5b3c 236e 9a3d 168b 8f3d
00000300: 1f98 8c3d f26d 153d 09b0 f53c 2174 8dbc
00000310: 7c59 fe3b 511c f1bb f861 8ebd 1be0 b33d
00000320: 0a40 7a3d e35e 153c c126 3f3d 9d50 243d
00000330: 02be 823d 1d7b 453d 6ae1 5cbc 12b3 a7bc
00000340: c1ad 4ebd 6eef f03b d14a 893d 92ae a6bd
00000350: 0c26 b43c 5b2d 4abd 6e6f a13d 2419 a0bd
00000360: 509e 2a3c 7cd8 583d 4e2a edbc 2d81 1e3c
00000370: 3a31 f73c 26ed acbb 3b95 e0bc 03f9 a83d
00000380: 7d97 aabd 096f 6abd 7aa6 0abd 3672 f43b
00000390: 43f9 66bc f810 6f3c 438d 71bc 1456 3bbd
000003a0: 75b1 2c3c 3a06 7e3d f63d 273d f139 ad3c
000003b0: eef3 73bd 24d6 4b3d 657f 51bc 364f 663d
000003c0: e8e1 04bd 5218 8abd f6e6 773d f172 9abc
000003d0: 03e2 1abd d438 203d bda5 28ba d375 08bd
000003e0: 3c64 6bbc a96f 21b9 7d95 763c 522d 813d
000003f0: 8b30 09bd a4c3 ecbc af1d 6dba b3e9 8239

2.bias f4 [128]
0.09283488 -0.042106938 -0.025816778 -0.024692137 0.03924051 -0.10080444 -0.012693759 -0.02868607
0.15267572 -0.15139973 0.010815786 -0.11735258 -0.075658955 0.068242624 -0.090861805 0.18816705
0.12969063 0.21127379 -0.05805498 -0.018054174 0.010487669 -0.13150115 -0.06503948 -0.058561176
-0.058939733 -0.023242453 -0.18153174 -0.01739904 0.014797731 0.024086067 0.12367757 -0.10648404
0.16985144 0.11619364 -0.07746216 -0.1136802 0.09232882 0.014866398 -0.3429134 -0.11885468
-0.023317626 -0.021599904 -0.06480251 -0.11088278 0.11144288 0.13269225 0.12756582 -0.015177282
-0.15611687 -0.0056220614 0.1130751 0.036401816 -0.029182188 -0.03536708 -0.06174863 0.009872238
0.108788684 -0.06411469 -0.030711532 0.059572455 -0.036246732 0.020130828 0.08700659 0.07541727
-0.052130688 0.06533806 -0.040921338 -0.00734053 -0.0046429723 -0.2566455 -0.15019378 0.09134014
-0.11100818 0.09424597 0.03128946 0.082332745 -0.036950037 -0.29197258 0.0035450666 -0.09072403
-0.032353804 0.015230936 -0.0621073 -0.041127652 -0.21557482 0.07179865 0.018031314 -0.07331732
0.11613012 -0.08949226 -0.07509012 0.02015833 0.005212154 0.049246866 -0.12028992 0.022372909
0.035545796 0.03664515 -0.027761305 0.007042267 0.031529058 0.035043538 -0.01981357 -0.088767014
-0.011189792 0.124503754 -0.05532008 0.044747062 0.031617947 -0.13249362 -0.0360949 -0.04413183
-0.033130404 -0.089448094 -0.06525063 0.037216924 -0.033227455 0.027360573 0.05181905 0.007182267
0.015127101 0.05905365 0.06561361 -0.05026753 0.008977339 0.029351851 -0.040740594 0.005364972
00000000: 3720 be3d 5378 2cbd b57d d3bc 2a47 cabc
00000010: a8ba 203d 8f72 cebd 7cf9 4fbc 0dff eabc
00000020: 0657 1c3e 8808 1bbe b234 313c 8d56 f0bd
00000030: 15f3 9abd cac2 8b3d c115 babd ddae 403e
00000040: 9fcd 043e 2858 583e 0fcb 6dbd 59e6 93bc
00000050: 79d4 2b3c 3da8 06be 6b33 85bd d8dd 6fbd
00000060: ca6a 71bd f566 bebc 75e3 39be 6e88 8ebc
00000070: 2f72 723c 2550 c53c aa4a fd3d 4e14 dabd
00000080: 89ed 2d3e eef6 ed3d 7ba4 9ebd 2ad1 e8bd
00000090: e416 bd3d 3192 733c 5892 afbe 156a f3bd
000000a0: 9b04 bfbc 48f2 b0bc 2eb7 84bd 8316 e3bd
000000b0: 2a3c e43d 7ae0 073e 9da0 023e 22aa 78bc
000000c0: 1add 1fbe 4539 b8bb eb93 e73d 121a 153d
000000d0: 7c0f efbc 12dd 10bd 22ec 7cbd 2bbf 213c
000000e0: 9acc de3d 904e 83bd c096 fbbc 3f02 743d
000000f0: 7477 14bd 68e9 a43c 8330 b23d 5f74 9a3d
00000100: fd86 55bd f6cf 853d 229d 27bd d488 f0bb
00000110: 1324 98bb 0a67 83be 66cc 19be 8a10 bb3d
00000120: 4258 e3bd 0804 c13d 6029 003d 129e a83d
00000130: ec58 17bd 6e7d 95be 5954 683b 85cd b9bd
00000140: 6c85 04bd 2d8b 793c 3964 7ebd 7875 28bd
00000150: a5bf 5cbe 2c0b 933d 68b6 933c 6427 96bd
00000160: a1d5 ed3d b847 b7bd d9c8 99bd 1523 a53c
00000170: b7ca aa3b 15b7 493d 905a f6bd 6447 b73c
00000180: 7898 113d 3a19 163d ad6b e3bc d1c2 e63b
00000190: 9d24 013d d089 0f3d 1150 a2bc 7bcb b5bd
000001a0: 6455 37bc d3fb fe3d 4f97 62bd b248 373d
000001b0: d281 013d 68ac 07be 3fd8 13bd 94c3 34bd
000001c0: bfb3 07bd 9030 b7bd 1fa2 85bd c670 183d
000001d0: 8319 08bd 4823 e03c 3640 543d 3959 eb3b
000001e0: a9d7 773c 3de2 713d 6e60 863d 53e5 4dbd
000001f0: b015 133c 4b73 f03c 9cdf 26bd a6cc af3b

4.weight f4 [128, 128]
0.047888324 0.024455644 -0.03724161 0.050553955 0.0012793362 -0.04954332 0.0067187594 -0.009047753
0.02602653 0.013628282 0.06780211 0.006775348 0.007892491 -0.006926451 -0.061716978 0.04339991
0.07409105 -0.038211264 -0.057852257 -0.034191966 -0.003335999 0.07202171 -0.016151993 0.081132844
0.07143884 -0.07036766 -0.08723326 -0.009066127 -0.011446625 0.011503186 -0.008667396 -0.03895376
0.015266287 -0.043860167 0.047731098 0.06293275 -0.07254302 -0.06669997 0.06712873 -0.019774893
0.0358692 -0.0847329 -0.052936237 -0.06929285 -0.03081908 -0.06685393 -0.031833567 0.0061996253
-0.034073386 0.043682743 -0.034083825 -0.06794802 -0.023049807 0.047750823 -0.017357254 -0.04595019
-0.03281858 0.07023046 -0.07180589 -0.048865914 -0.07462598 0.07483833 -0.04801449 0.07893624
-0.019945145 -0.056628563 -0.04338286 -0.068877116 0.013414398 -0.03345856 0.07874946 0.007980775
0.01592259 -0.040747743 -0.027298257 -0.0480156 0.025848208 0.04256587 -0.05641929 0.039106913
-0.084807895 0.051850393 0.04621487 -0.024842555 0.017358065 -0.06091213 -0.016850859 0.0233299
0.04314214 -0.071296096 -0.073607385 0.06916282 0.030977326 0.07647582 -0.078495465 -0.041128702
-0.037419874 -0.015821561 0.008215723 -0.018264815 0.047058273 -0.05331195 0.075147815 -0.043352075
0.04859308 0.07257964 -0.07817362 0.024508275 0.020391107 0.0806565 0.049238775 -0.08687142
-0.031854425 -0.06929549 -0.04670401 -0.026495894 0.03357987 -0.08544798 0.0053755525 -0.08005362
-0.017005397 -0.083612226 -0.06034056 -0.03863348 0.03533485 -0.049244687 -0.052310903 0.038758665
-0.042533357 0.03099036 0.09352256 0.07795272 -0.014417403 0.044430166 -0.024649752 0.066108026
0.003844379 0.0074082315 -0.08618582 0.078652255 0.059729192 -0.010222022 -0.044561904 -0.028380716
-0.07867673 -0.05292276 0.0408379 -0.054906577 0.039522603 -0.041630544 -0.042092826 -0.080827184
0.009504477 -0.031897612 -0.041779723 -0.0023889206 -0.047665447 0.017929109 0.061034694 -0.03869559
0.029775813 -0.028458353 0.025678609 -0.0703542 -0.053431008 -0.038712487 0.0005686098 -0.015515471
-0.026044406 0.05204357 -0.060872857 0.087505825 0.019794215 0.0037275245 0.07093572 0.06259776
-0.022254087 0.029788446 -0.03535907 0.048426017 0.05812459 0.019647786 0.0011636948 -0.032812696
-0.02555527 0.073178664 0.022013282 0.029572202 -0.007521285 -0.010607408 0.06590227 -0.066911064
0.014035518 -0.01563339 -0.028726947 -0.07515597 0.05464851 -0.07348014 -0.031366397 0.015002597
0.045938935 -0.08760944 0.04647604 -0.031783666 0.02797879 -0.07740843 -0.077030666 0.0803733
0.03127675 0.018321859 0.04600891 0.079291776 0.05616829 0.02722082 -0.07124924 0.09250478
-0.005466596 -0.017202403 0.018582733 0.06760079 -0.013496475 -0.043712027 0.04968316 0.0725317
0.026374105 0.012709382 0.0027227101 0.018115161 -0.07625265 -0.044798166 0.03848849 0.022230126
0.036278497 0.0044840537 -0.04880479 -0.03671442 -0.015279869 -0.05911183 0.08392921 -0.048152003
0.008037047 0.0881176 -0.072921924 -0.079709575 0.03812186 0.056251828 -0.039535593 0.04097794
0.061509673 -0.03133287 0.07207218 0.007418595 -0.01584074 0.031397108 0.04837204 0.08494904
00000000: 8c26 443d 3457 c83c a98a 18bd aa11 4f3d
00000010: 66af a73a f0ed 4abd 0a29 dc3b 073d 14bc
00000020: 9735 d53c 2849 5f3c d5db 8a3d bd03 de3b
00000030: 824f 013c 48f7 e2bb f1ca 7cbd 1bc4 313d
00000040: 0cbd 973d 6a83 1cbd 7df6 6cbd e00c 0cbd
00000050: c7a0 5abb 1e80 933d 2f51 84bc fa28 a63d
00000060: 874e 923d eb1c 90bd 5aa7 b2bd 188a 14bc
00000070: a08a 3bbc dc77 3c3c b201 0ebc fa8d 1fbd
00000080: 731f 7a3c b8a6 33bd af81 433d e3e2 803d
00000090: 6f91 94bd fe99 88bd ca7a 893d f5fe a1bc
000000a0: 95eb 123d 7188 adbd abd3 58bd 69e9 8dbd
000000b0: 4c78 fcbc b7ea 88bd ea63 02bd 3a26 cb3b
000000c0: 8990 0bbd adec 323d 7b9b 0bbd 5528 8bbd
000000d0: f3d2 bcbc 5e96 433d cd30 8ebc 4436 3cbd
000000e0: c66c 06bd fdd4 8f3d f70e 93bd a027 48bd
000000f0: 81d5 98bd d744 993d d8aa 44bd 53a9 a13d
00000100: 0064 a3bc 5af3 67bd 3ab2 31bd 720f 8dbd
00000110: 10c8 5b3c d80b 09bd 6647 a13d ccc1 023c
00000120: 1770 823c 1be7 26bd 98a0 dfbc 01ac 44bd
00000130: 9fbf d33c 8d59 2e3d ea17 67bd 922e 203d
00000140: c3af adbd 1461 543d ce4b 3d3d 9d82 cbbc
00000150: 8032 8e3c ff7e 79bd d00a 8abc 591e bf3c
00000160: d0b5 303d b003 92bd 78bf 96bd 3da5 8d3d
00000170: 29c4 fd3c 5b9f 9c3d 3bc2 a0bd 9276 28bd
00000180: 9545 19bd 389c 81bc 3d9b 063c 18a0 95bc
00000190: 2dc0 403d a25d 5abd 19e7 993d f291 31bd
000001a0: 8a09 473d a2a4 943d 7e19 a0bd 94c5 c83c
000001b0: 400b a73c 3c2f a53d 99ae 493d a5e9 b1bd
000001c0: c979 02bd cbea 8dbd b44c 3fbd eb0d d9bc
000001d0: 0c8b 093d 5aff aebd 6725 b03b 27f3 a3bd
000001e0: e74e 8bbc e33c abbd aa27 77bd 243e 1ebd
000001f0: 47bb 103d ccb4 49bd f543 56bd 68c1 1e3d
00000200: 7537 2ebd 7fdf fd3c c288 bf3d ada5 9f3d
00000210: f936 6cbc 68fc 353d 47ee c9bc a563 873d
00000220: faf1 7b3b c0c0 f23b 3182 b0bd 6f14 a13d
00000230: 99a6 743d 457a 27bc 8b86 36bd ad7e e8bc
00000240: 4421 a1bd 89c5 58bd a445 273d b8e5 60bd
00000250: 74e2 213d ca84 2abd 8769 2cbd b988 a5bd
00000260: aab8 1b3c 12a7 02bd 3721 2bbd 708f 1cbb
00000270: d83c 43bd 11e0 923c 84ff 793d 447f 1ebd
00000280: 68ec f33c 7e21 e9bc f25b d23c dd15 90bd
00000290: 79da 5abd fc90 1ebd c20e 153a 9a34 7ebc
000002a0: 145b d5bc a32b 553d d155 79bd 4136 b33d
000002b0: 7a27 a23c 7c49 743b bf46 913d 4133 803d
000002c0: 344e b6bc e606 f43c acd4 10bd 5c5a 463d
000002d0: 0d14 6e3d 65f4 a03c 1e87 983a 9b66 06bd
000002e0: 4959 d1bc b2de 953d 3355 b43c 6741 f23c
000002f0: 1d75 f6bb b2ca 2dbc c5f7 863d ab08 89bd
00000300: 3bf5 653c 9811 80bc c654 ebbc 60eb 99bd
00000310: 1ed7 5f3d c17c 96bd 0d7a 00bd 74cd 753c
00000320: 772a 3c3d 946c b3bd a95d 3e3d 972f 02bd
00000330: c733 e53c 5088 9ebd 41c2 9dbd c29a a43d
00000340: 0d1c 003d b917 963c d773 3c3d ba63 a23d
00000350: b910 663d 32fe de3c 1feb 91bd 2573 bd3d
00000360: 2221 b3bb 0eec 8cbc d13a 983c 4872 8a3d
00000370: 5220 5dbc 620b 33bd 9280 4b3d 808b 943d
00000380: 820e d83c 033b 503c 7f6f 323b 3f66 943c
00000390: 592a 9cbd 487e 37bd 1ba6 1d3d f41b b63c
000003a0: c398 143d f8ee 923b 88e7 47bd dc61 16bd
000003b0: 6a58 7abc 3f1f 72bd 14e3 ab3d 093b 45bd
000003c0: d2ad 033c 0077 b43d 1758 95bd c63e a3bd
000003d0: ab25 1c3d 5168 663d 13f0 21bd 7cd8 273d
000003e0: 91f1 7b3d e556 00bd 949a 933d af17 f33b
000003f0: 71c4 81bc 419a 003d c321 463d c3f9 ad3d

4.bias f4 [128]
-0.033666562 0.037207723 0.0974861 -0.08737315 -0.06896924 -0.038608637 -0.02577272 -0.072969414
0.09857074 0.08503231 -0.054603845 0.020761902 -0.017351553 -0.0024440654 0.07245564 0.031536784
-0.12713335 0.03848608 0.11337687 -0.0612375 -0.019230237 0.012788603 0.037449885 -0.07417303
0.11562392 -0.06887322 -0.04494229 -0.081532344 -0.08095582 -0.057846006 -0.019306028 0.100668706
-0.017326044 -0.02119455 -0.06407394 -0.055549197 0.020195277 0.03263767 -0.04284427 -0.029120626
0.01261271 -0.033829354 0.11381656 0.15240063 0.0531098 0.084195375 -0.013105949 -0.03883492
-0.019555675 0.062834255 0.022286655 -0.046343062 0.007043398 -0.00057445874 -0.037914872 -0.03809292
-0.011087254 -0.082847744 -0.04137373 0.14764254 0.021707801 -0.010932147 0.115505226 0.046707414
-0.090731606 -0.0742032 0.011728373 -0.04547405 0.0782402 0.043511305 0.10676207 -0.0640394
0.042101268 0.1695431 0.19951288 0.14707227 -0.03087379 -0.07902775 0.05812657 -0.054851715
8.345169e-05 0.072830334 -0.05283413 -0.042307362 0.10946857 0.02993972 0.109252356 -0.010237891
-0.06892947 -0.012026276 0.13590512 0.05584934 -0.07448 -0.016487848 0.05570547 0.07986112
0.10365887 0.08875147 -0.05201235 0.0056457315 0.023163319 -0.024647823 0.0124000395 -0.024733406
0.121560946 0.012759271 -0.035995983 -0.03055008 0.116688475 0.010713577 -0.047039 -0.0450612
-0.04530534 0.02060222 0.19249964 -0.0431182 -0.074238405 -0.052703924 -0.025642896 -0.0048553534
0.052668717 0.0825461 0.123133585 0.0055787438 0.03424594 0.0073089865 0.102576226 0.04356406
00000000: f3e5 09bd 2067 183d cba6 c73d b2f0 b2bd
00000010: bf3f 8dbd 1724 1ebd 5021 d3bc fd70 95bd
00000020: 75df c93d 6b25 ae3d 48a8 5fbd dd14 aa3c
00000030: d824 8ebc 9d2c 20bb 9f63 943d b72c 013d
00000040: 3f2f 02be 94a3 1d3d 2232 e83d 2cd4 7abd
00000050: bb88 9dbc 4a87 513c 0d65 193d 08e8 97bd
00000060: 3ccc ec3d 670d 8dbd 6815 38bd 6efa a6bd
00000070: 2acc a5bd efef 6cbd ad27 9ebc 652b ce3d
00000080: 59ef 8dbc 31a0 adbc 3339 83bd 8e87 63bd
00000090: 9170 a53c 14af 053d 797d 2fbd 618e eebc
000000a0: 8aa5 4e3c a690 0abd a818 e93d e90e 1c3e
000000b0: a989 593d a06e ac3d 56ba 56bc 5d11 1fbd
000000c0: 3933 a0bc 3faf 803d 8192 b63c 39d2 3dbd
000000d0: 4ecc e63b 4697 16ba a04c 1bbd 5207 1cbd
000000e0: 50a7 35bc 14ac a9bd 8077 29bd 9b2f 173e
000000f0: 8fd4 b13c bf1c 33bc 018e ec3d 4650 3f3d
00000100: 7ed1 b9bd d9f7 97bd 5d28 403c ff42 3abd
00000110: 663c a03d e938 323d 12a6 da3d 1727 83bd
00000120: 6172 2c3d b59c 2d3e 1b4d 4c3e 1d9a 163e
00000130: 08eb fcbc 4dd9 a1bd 2016 6e3d 31ac 60bd
00000140: c902 af38 1228 953d 9a68 58bd 7c4a 2dbd
00000150: 0f31 e03d 2544 f53c b3bf df3d d4bc 27bc
00000160: e52a 8dbd dc09 45bc b62a 0b3e 47c2 643d
00000170: f888 98bd 8611 87bc 6b2b 643d 3a8e a33d
00000180: 1a4b d43d 55c3 b53d e70a 55bd d4ff b83b
00000190: 00c1 bd3c 3bea c9bc 8929 4b3c b69d cabc
000001a0: f2f4 f83d 430c 513c 8670 13bd 2944 fabc
000001b0: 5efa ee3d 0088 2f3c f7ab 40bd 1892 38bd
000001c0: 1892 39bd fdc5 a83c a01e 453e b69c 30bd
000001d0: 4e0a 98bd 12e0 57bd 0d11 d2bc a819 9fbb
000001e0: 27bb 573d ee0d a93d 762d fc3d e5cd b63b
000001f0: 7945 0c3d 3980 ef3b 7c13 d23d 3a70 323d

6.weight f4 [128, 128]
0.007365112 0.0505847 -0.018398218 -0.010658433 0.03504936 -0.06271538 0.015694417 0.055445716
0.069623895 0.039297257 -0.040682938 -0.049030036 0.06828898 -0.08600669 0.09348703 -0.035057507
0.050912127 -0.010204122 0.07741419 -0.06650954 0.07790343 0.069057874 0.0048793852 0.08919833
-0.05305112 -0.012990973 0.001201805 -0.011583199 -0.07111877 -0.002240515 0.009364863 0.1128311
-0.01688604 0.055421013 -0.016173562 -0.023470668 0.077146724 -0.09531054 0.032999236 0.037846282
0.07312885 -0.0435521 -0.023719063 -0.062225536 0.04170763 0.017647844 0.04274517 0.039733414
-0.01082911 -0.055215664 -0.01213883 0.049335282 0.04528744 0.06272753 0.06673586 -0.08634794
0.02089386 0.044729147 -0.045714363 -0.086116664 0.01635398 -0.033017065 -0.043375492 0.07201938
-0.039200906 -0.048217185 -0.10175186 0.075419866 0.054784197 0.032670718 0.030766394 -0.07520018
-0.05956275 0.057903007 -0.045353297 -0.06833238 -0.029757421 -0.044855013 0.025626179 -0.025051828
-0.057630453 0.0034634646 -0.05888062 -0.06376761 -0.03156091 -0.03516899 -0.031590503 0.08675904
0.028579816 -0.044411212 0.029173551 -0.07657927 -0.06609564 0.0028146296 0.10491872 0.08727193
-0.0045899847 -0.010414914 -0.031366788 -0.016040223 -0.031386618 -0.09016522 -0.051436946 -0.015381549
0.031145735 0.09681173 0.10543948 0.08775879 0.06921064 0.08669311 0.06880895 0.05000041
0.033180352 0.055946723 0.0015406923 -0.023666665 0.035560157 -0.06904392 0.053802203 0.11420269
0.08121916 -0.06862571 0.07266781 0.023209235 0.05455639 0.031731557 0.06924511 -0.08359024
0.08725078 -0.0734021 -0.0514549 0.017858269 -0.0066359984 -0.06120185 0.064923726 0.016965624
-0.021306487 0.036483314 -0.07365964 -0.07396856 0.065108605 0.0554027 0.061289992 0.045350246
-0.05305926 0.073144145 0.032489154 0.06995937 -0.067090355 -0.09074012 -0.059880447 -0.043464113
0.0063046687 -0.007168092 0.09743898 -0.01667585 -0.015126643 0.06215235 0.10765718 0.0075773117
0.084074035 -0.04917725 0.08440885 0.02886211 0.007373411 0.08612621 0.07025276 -0.055864707
-0.03379422 -0.08561763 -0.013917332 0.00023562241 0.040229797 0.016344285 -0.05601163 0.08880175
0.00043391465 -0.045673177 0.042498406 0.0511936 0.03316659 -0.037368603 -0.010119551 0.06833896
0.057264723 -0.002488201 -0.020009443 0.07674416 -0.013411316 0.036420554 0.05881884 -0.07699888
-0.04753169 -0.06361398 0.0040062843 -0.026279444 -0.0484365 0.093555704 0.10423036 -0.01716851
0.018098634 -0.0032766466 0.004201778 0.057800077 0.037950683 0.08982774 -0.048572607 -0.0820425
-0.015413331 0.019244289 0.0028499514 0.090206146 0.058534775 0.037595768 0.0029045367 -0.007757235
-0.01067106 0.008346125 -0.01714913 0.00926565 0.06006487 0.04757553 0.04761139 0.042409316
-0.0123080695 -0.038172983 0.05135295 0.005239542 0.089680664 -0.007065329 0.10139632 -0.07164411
0.11740869 -0.021385502 0.011432161 -0.021460867 -0.017096505 0.03470177 0.107101046 -0.012557624
-0.009792538 -0.041719653 -0.014280898 -0.0018814512 0.09801316 -0.08245153 -0.06819258 0.023507407
-0.026740838 0.040301967 0.040981993 -0.05704457 0.019867035 0.02816131 0.015097155 -0.082584836
00000000: 0a57 f13b e731 4f3d dcb7 96bc b5a0 2ebc
00000010: eb8f 0f3d ec70 80bd 9491 803c 0c1b 633d
00000020: f996 8e3d 29f6 203d 27a3 26bd b8d3 48bd
00000030: 18db 8b3d 4724 b0bd 2176 bf3d 7698 0fbd
00000040: 3c89 503d 312f 27bc 558b 9e3d 2736 88bd
00000050: d58b 9f3d 376e 8d3d 40e3 9f3b 9dad b63d
00000060: 224c 59bd 17d8 54bc e285 9d3a 75c7 3dbc
00000070: b8a6 91bd 9bd5 12bb 156f 193c fe13 e73d
00000080: 9854 8abc 2501 633d 6b7e 84bc 8f45 c0bc
00000090: 1aff 9d3d 2c32 c3bd 352a 073d b404 1b3d
000000a0: 94c4 953d b063 32bd 7b4e c2bc 34e0 7ebd
000000b0: 9fd5 2a3d 3692 903c 8f15 2f3d 81bf 223d
000000c0: 946c 31bc d229 62bd f1e1 46bc cb13 4a3d
000000d0: 537f 393d 4b77 803d d0ac 883d 30d7 b0bd
000000e0: 9a29 ab3c e935 373d fc3e 3bbd ef5d b0bd
000000f0: c8f8 853c e73c 07bd 80aa 31bd e67e 933d
00000100: 2191 20bd 627f 45bd 4763 d0bd bb75 9a3d
00000110: 6565 603d bbd1 053d ce09 fc3c 8d02 9abd
00000120: 12f8 73bd b42b 6d3d 61c4 39bd d9f1 8bbd
00000130: d6c5 f3bc e4b9 37bd feed d13c 7e39 cdbc
00000140: e90d 6cbd 4bfb 623b ce2c 71bd 9898 82bd
00000150: 0346 01bd 5c0d 10bd 0b65 01bd b9ae b13d
00000160: 3820 ea3c 88e8 35bd 5ffd ee3c 98d5 9cbd
00000170: 275d 87bd a675 383b a0df d63d a0bb b23d
00000180: 9567 96bb 51a3 2abc 767a 00bd c966 83bc
00000190: 418f 00bd 8ba8 b8bd 8caf 52bd e402 7cbc
000001a0: 5725 ff3c 3a45 c63d a7f0 d73d e1ba b33d
000001b0: 4fbe 8d3d 288c b13d b5eb 8c3d 3bcd 4c3d
000001c0: 1fe8 073d 6428 653d 0ef1 c93a 98e0 c1bc
000001d0: 87a7 113d e666 8dbd b35f 5c3d 1ae3 e93d
000001e0: 3b56 a63d a38b 8cbd dcd2 943d 4b21 be3c
000001f0: 8576 5f3d f3f8 013d 61d0 8d3d 5c31 abbd
00000200: 89b0 b23d d753 96bd 60c2 52bd 814b 923c
00000210: ca72 d9bb cbae 7abd bbf6 843d 7efb 8a3c
00000220: f18a aebc 876f 153d deda 96bd d47c 97bd
00000230: a957 853d f1ed 623d 370b 7b3d 2ec1 393d
00000240: ab54 59bd 99cc 953d 5913 053d dc46 8f3d
00000250: ab66 89bd f5d5 b9bd 3345 75bd 6d07 32bd
00000260: 6597 ce3b 50e2 eabb 178e c73d cb9b 88bc
00000270: bdd5 77bc 7693 7e3d 5e7b dc3d 194b f83b
00000280: 022f ac3d 166e 49bd 8cde ac3d 3b70 ec3c
00000290: a89c f13b f062 b03d aee0 8f3d 64d2 64bd
000002a0: cf6b 0abd 4c58 afbd 8505 64bc 6911 7739
000002b0: 00c8 243d 73e4 853c 736c 65bd b1dd b53d
000002c0: 0a7f e339 cc13 3bbd cf12 2e3d 61b0 513d
000002d0: b1d9 073d d20f 19bd 79cc 25bc 4cf5 8b3d
000002e0: 6a8e 6a3d 1611 23bb d8ea a3bc 0b2c 9d3d
000002f0: 23bb 5bbc b82d 153d 06ec 703d 97b1 9dbd
00000300: 97b0 42bd 0c48 82bd 2647 833b fd47 d7bc
00000310: 5a65 46bd 229a bf3d ba76 d53d faa4 8cbc
00000320: 9643 943c 02bd 56bb 12af 893b c6bf 6c3d
00000330: 2d72 1b3d 9bf7 b73d 12f4 46bd e605 a8bd
00000340: 3288 7cbc 33a6 9d3c 40c6 3a3b 00be b83d
00000350: 29c2 6f3d 05fe 193d 0a5a 3e3b 6730 febb
00000360: abd5 2ebc 2fbe 083c 557c 8cbc f4ce 173c
00000370: 9506 763d 8fde 423d 2904 433d 64b5 2d3d
00000380: c9a7 49bc 465b 1cbd 7957 523d 77b0 ab3b
00000390: 7faa b73d 4684 e7bb e0a8 cf3d 26ba 92bd
000003a0: f873 f03d a630 afbc f54d 3b3c b3ce afbc
000003b0: f80d 8cbc 7123 0e3d cb57 db3d 7ebe 4dbc
000003c0: e270 20bc 3ae2 2abd 6dfa 69bc 079b f6ba
000003d0: 20bb c83d 59dc a8bd 8da8 8bbd 9b92 c03c
000003e0: 9a0f dbbc ad13 253d bcdc 273d 91a7 69bd
000003f0: 31c0 a23c 8cb2 e63c 0f5a 773c 3d22 a9bd

6.bias f4 [128]
0.0077493885 0.14227967 0.027062021 0.08141677 -0.06752945 -0.022268748 0.2116496 0.04791923
0.22375186 0.19351315 0.0125133265 -0.11016459 -0.08572378 0.0028897887 0.012283054 0.049300555
-0.09192256 -0.013686461 -0.07691063 0.016021252 0.058803655 0.15886022 -0.046227798 -0.07595223
-0.0021251785 0.035329055 0.030125825 -0.039847564 0.03103095 -0.059689097 0.066907644 -0.039552625
0.16506205 -0.028004525 0.010081773 -0.06325557 -0.11411272 0.05300941 0.021320593 0.13138278
-0.060740888 0.23168722 0.1299056 0.0017019238 -0.085615866 0.042791538 0.06329562 -0.10184443
-0.02988365 -0.013868665 -0.0700067 -0.09403704 0.052637774 -0.014162334 0.07117692 0.13059771
-0.055586558 -0.00091393286 0.20793164 -0.05006384 0.03986677 -0.044976316 0.0048602954 0.26848277
0.00082677545 -0.02434585 -0.041783333 0.030645547 -0.08476825 -0.049094133 -0.03234011 0.033408713
0.040878177 -0.08270348 0.007995424 0.17407843 0.011984364 -0.08718101 -0.034517627 -0.031631157
0.0029993618 -0.005520683 -0.088038184 -0.038369905 -0.053728078 -0.030320246 0.013650053 0.007727082
-0.0034009386 -0.0014710508 -0.053053036 0.075246654 -0.11475729 -0.074439295 -0.04739608 -0.086486615
-0.009718644 0.032712214 0.019575706 0.12754568 -0.030824535 0.13856873 -0.0751486 0.30397207
-0.06859002 -0.0900244 -0.043555126 -0.03391713 0.0051620514 -0.043937553 0.1083628 -0.05180105
-0.008266411 0.05874524 -0.07065353 0.03335695 0.034153722 -0.062762596 0.05718977 -0.014035616
-0.1267576 -0.047922317 0.15508577 -0.020451685 0.042023834 0.2606834 0.13099141 0.014577617
00000000: 95ee fd3b c3b1 113e 2cb1 dd3c d6bd a63d
00000010: e14c 8abd f36c b6bc acba 583e f446 443d
00000020: 351f 653e 5028 463e b204 4d3c f99d e1bd
00000030: f38f afbd 9c62 3d3b dd3e 493c 61ef 493d
00000040: e541 bcbd 2e3d 60bc 5283 9dbd 003f 833c
00000050: 1adc 703d 41ac 223e 5c59 3dbd d88c 9bbd
00000060: 9446 0bbb 33b5 103d 6fca f63c 3337 23bd
00000070: 9e34 fe3c 8e7c 74bd e006 893d ef01 22bd
00000080: 0706 293e bf69 e5bc 052e 253c 238c 81bd
00000090: eeb3 e9bd 6520 593d 86a8 ae3c 3589 063e
000000a0: 70cb 78bd 6a3f 6d3e f905 053e 1613 df3a
000000b0: 5f57 afbd 2e46 2f3d 22a1 813d d093 d0bd
000000c0: 8ece f4bc 6639 63bc ac5f 8fbd 7e96 c0bd
000000d0: b59a 573d 2209 68bc 34c5 913d 68bb 053e
000000e0: bbae 63bd ff94 6fba 08ec 543e be0f 4dbd
000000f0: 574b 233d 1639 38bd 1d43 9f3b 9376 893e
00000100: f6bb 583a f370 c7bc 0025 2bbd 5f0c fb3c
00000110: fa9a adbd ee16 49bd 1077 04bd 93d7 083d
00000120: e06f 273d 7160 a9bd 3dff 023c 9e41 323e
00000130: 115a 443c f58b b2bd 5b62 0dbd ac8f 01bd
00000140: f190 443b d8e6 b4bb 5d4d b4bd c329 1dbd
00000150: f911 5cbd 2a62 f8bc 79a4 5f3c 7633 fd3b
00000160: 48e2 5ebb 46d0 c0ba 244e 59bd eb1a 9a3d
00000170: df05 ebbd a173 98bd 6422 42bd e51f b1bd
00000180: f33a 1fbc 3efd 053d 3b5d a03c 569b 023e
00000190: bc83 fcbc f6e4 0d3e 82e7 99bd 3aa2 9b3e
000001a0: ed78 8cbd b65e b8bd dc66 32bd b0ec 0abd
000001b0: 6d26 a93b ddf7 33bd 51ed dd3d 562d 54bd
000001c0: d76f 07bc d99e 703d ccb2 90bd 4ca1 083d
000001d0: c6e4 0b3d ad89 80bd d23f 6a3d a4f5 65bc
000001e0: bfcc 01be 314a 44bd cece 1e3e 4b8a a7bc
000001f0: 2f21 2c3d 4b78 853e 9d22 063e f5d6 6e3c

8.weight f4 [49, 128]
0.07295385 -0.081841886 -0.021671906 0.04113449 -0.13739984 0.08390803 -0.19299057 0.094914496
-0.15971714 -0.1596477 -0.10862033 0.017283132 -0.003543264 0.0040867687 0.03182043 0.0043113823
0.033347994 0.05491806 0.013595006 0.061025627 0.06386801 -0.057816572 -0.07951836 0.0916041
-0.0418535 0.032591052 0.07018081 -0.018407153 -0.058266837 0.008610344 0.08496268 0.06413
-0.09872261 0.08448038 0.019244248 0.076275714 -0.08001432 -0.013761856 0.03831593 -0.20011829
0.005190442 -0.23980658 -0.03542031 -0.024420619 0.044153117 0.063767895 0.0013190614 -0.010870457
0.00474237 0.029655641 -0.025749533 -0.031389095 -0.06173132 0.0549131 -0.039664436 -0.07772459
0.06629366 0.06534741 -0.029522024 -0.093445666 -0.018094024 -0.077697165 -0.041909683 -0.16581933
-0.07350703 0.08282543 0.004136689 7.1796705e-05 -0.030876886 0.055062883 0.11687435 0.0865957
-0.014512164 0.028487287 0.08291137 -0.10505602 -0.056508675 -0.0023229248 -0.019514382 0.03364081
-0.033589825 0.0898458 -0.04471368 -0.08435499 -0.035458367 0.07152734 0.044611007 -0.07749409
0.046798922 0.054263946 0.01552573 -0.0610962 -0.058299266 -0.0019107317 -0.13960667 0.032607004
0.08186636 0.036170155 0.03629054 -0.11705279 -0.029861646 -0.16969632 -0.033947207 -0.2306599
0.104727685 0.16631956 -0.057588317 0.047742553 0.004178975 -0.052087728 0.026820015 0.0617907
-0.02920228 0.036119137 0.039224587 0.07138783 -0.035544336 0.033848215 -0.11201225 0.080679506
-0.07351133 -0.04885336 -0.2492378 0.009425618 -0.034100734 -0.1271496 -0.043254424 0.070491955
0.041548673 -0.09923705 0.022357076 -0.0082315765 -0.015775451 0.035914347 -0.044995993 0.07987978
-0.17392121 -0.02349348 -0.15543127 -0.03056149 0.049340993 0.026180737 0.07259344 0.008653481
0.087091856 0.023622796 0.041641615 -0.023972718 0.036354937 -0.14478053 0.0024003084 0.12209972
-0.010806939 0.011459195 0.032382205 -0.06584775 0.012557227 0.0032600863 -0.0452772 -0.023315765
-0.10340992 -0.007079155 0.12485176 0.048430238 0.038542654 -0.044404365 0.022313451 -0.11524938
0.04646542 -0.26845065 -0.13539232 0.06713401 0.0456829 -0.04446726 0.077833176 0.06708701
-0.034525152 0.031906016 -0.015893798 0.012720385 -0.15063553 -0.060261823 -0.039684862 -0.043837156
-0.06550338 0.011502662 -0.16396163 -0.15755115 0.056308344 0.002951986 -0.053047966 -0.101897776
-0.035918042 -0.070380874 0.06332327 0.010771266 -0.051351942 0.04448075 0.009063625 0.10415865
-0.07711309 -0.017982772 0.019163951 -0.048310045 0.07485264 -0.08928794 -0.06773005 0.002081663
0.033869028 -0.07499485 0.0044318414 -0.019285556 0.075290136 0.021438085 0.064410135 -0.1298529
0.08270929 0.074017644 -0.02961958 -0.10967877 -0.07473377 -0.055260196 -0.15626153 0.024499828
-0.03814072 0.016803363 -0.025673928 -0.0667038 0.0176267 -0.26488075 0.048900556 -0.17458482
0.10299981 0.089812614 0.0456681 -0.08536322 0.07771564 0.043623917 -0.07427274 0.09076196
-0.0144757675 -0.017425548 -0.013640725 0.0037685751 -0.12479583 -0.010680817 -0.025949432 -0.06151668
-0.03829857 0.057562605 -0.2154623 0.0044892854 0.0168645 -0.1807271 -0.06311015 0.015797662
00000000: d468 953d b89c a7bd 4889 b1bc a47c 283d
00000010: 8bb2 0cbe f9d7 ab3d 529f 45be 8862 c23d
00000020: e48c 23be b07a 23be 5674 debd 5b95 8d3c
00000030: 1b36 68bb 4dea 853b 2456 023d 7f46 8d3b
00000040: e897 083d c2f1 603d 97bd 5e3c 02f6 793d
00000050: 3bcd 823d 12d1 6cbd 86da a2bd ee9a bb3d
00000060: 936e 2bbd 327e 053d f5ba 8f3d 99ca 96bc
00000070: 35a9 6ebd 6612 0d3c ea00 ae3d 9756 833d
00000080: 142f cabd 0d04 ad3d 1da6 9d3c 7136 9c3d
00000090: 8cde a3bd 6879 61bc 2af1 1c3d cfeb 4cbe
000000a0: 9514 aa3b db8f 75be e314 11bd c00d c8bc
000000b0: e6d9 343d be98 823d 5be4 ac3a 001a 32bc
000000c0: e265 9b3b 63f0 f23c aff0 d2bc da91 00bd
000000d0: fbd9 7cbd 8fec 603d 2d77 22bd 122e 9fbd
000000e0: f8c4 873d ddd4 853d 2cd8 f1bc 7160 bfbd
000000f0: eb39 94bc b11f 9fbd 7da9 2bbd 8bcc 29be
00000100: db8a 96bd 61a0 a93d 108d 873b 9091 9638
00000110: 86f1 fcbc 9e89 613d d25b ef3d 1659 b13d
00000120: 6dc4 6dbc 2c5e e93c 70cd a93d 9c27 d7bd
00000130: a475 67bd 363c 18bb a0dc 9fbc f2ca 093d
00000140: 7c95 09bd 1301 b83d b125 37bd 4fc2 acbd
00000150: cb3c 11bd ed7c 923d 08ba 363d 39b5 9ebd
00000160: 3ab0 3f3d df43 5e3d a25f 7e3c 0240 7abd
00000170: 36cb 6ebd 8471 faba 0df5 0ebe ec8e 053d
00000180: 8da9 a73d 2827 143d 64a5 143d 60b9 efbd
00000190: 69a0 f4bc dfc4 2dbe 3a0c 0bbd 1c32 6cbe
000001a0: 787b d63d ad4f 2a3e bae1 6bbd b28d 433d
000001b0: c8ef 883b f159 55bd a6b5 db3c 3f18 7d3d
000001c0: 9f39 efbc a9f1 133d f6a9 203d c833 923d
000001d0: f096 11bd 6da4 0a3d ae66 e5bd 4c3b a53d
000001e0: 1c8d 96bd 761a 48bd 3238 7fbe e86d 1a3c
000001f0: 36ad 0bbd 8133 02be 8d2b 31bd 165e 903d
00000200: f12e 2a3d cb3c cbbd 3026 b73c bcdd 06bc
00000210: 853b 81bc ec1a 133d b84d 38bd 0398 a33d
00000220: 6718 32be 6675 c0bc 6029 1fbe 175c fabc
00000230: c819 4a3d fc78 d63c dfab 943d 54c7 0d3c
00000240: 375d b23d 9884 c13c 6690 2a3d 6f62 c4bc
00000250: eae8 143d 5941 14be 7e4e 1d3b 6b0f fa3d
00000260: 960f 31bc 59bf 3b3c 34a3 043d 2fdb 86bd
00000270: d4bc 4d3c 2ca7 553b 9674 39bd b400 bfbc
00000280: 95c8 d3bd 42f8 e7bb 48b2 ff3d c95e 463d
00000290: e7de 1d3d 5ae1 35bd b3ca b63c de07 ecbd
000002a0: 8652 3e3d 5d72 89be 49a4 0abe 8e7d 893d
000002b0: fe1d 3b3d 4d23 36bd 0067 9f3d ea64 893d
000002c0: 3f6a 0dbd e2af 023d b633 82bc 2969 503c
000002d0: 3340 1abe 1ad5 76bd 988c 22bd 978e 33bd
000002e0: a326 86bd a975 3c3c 8fe5 27be 1755 21be
000002f0: 94a3 663d 1b76 413b d348 59bd c8af d0bd
00000300: cc1e 13bd d923 90bd a1af 813d f779 303c
00000310: 6a56 52bd 7231 363d 997f 143c 2151 d53d
00000320: 78ed 9dbd 9b50 93bc b8fd 9c3c c1e0 45bd
00000330: 574c 993d 98dc b6bd 0db6 8abd 836c 083b
00000340: 40ba 0a3d e696 99bd fb38 913b befc 9dbc
00000350: b731 9a3d ec9e af3c 76e9 833d 29f8 04be
00000360: 7d63 a93d 9096 973d c3a4 f2bc 439f e0bd
00000370: 050e 99bd 8458 62bd 0603 20be ddb3 c83c
00000380: 7239 1cbd 35a7 893c 2152 d2bc 009c 88bd
00000390: df65 903c 739e 87be f34b 483d 5dc6 32be
000003a0: 90f1 d23d adef b73d 790e 3b3d e9d2 aebd
000003b0: 6129 9f3d feae 323d 4e1c 98bd 68e1 b93d
000003c0: c52b 6dbc 06c0 8ebc 597d 5fbc 33fa 763b
000003d0: f594 ffbd 98fe 2ebc e793 d4bc eaf8 7bbd
000003e0: f6de 1cbd c4c6 6b3d 26a2 5cbe db1a 933b
000003f0: 6b27 8a3c 8610 39be e53f 81bd 196a 813c

8.bias f4 [49]
-0.08803523 -0.061509952 -0.091592856 -0.10968008 -0.12290164 -0.073697515 -0.04438359 -0.09961139
-0.14198214 -0.12763345 -0.11044588 -0.10076846 -0.14840747 -0.18126835 -0.14972122 -0.09843353
-0.16449827 -0.19825172 -0.21071504 -0.16507377 -0.15841047 -0.14949463 -0.18064259 -0.19084294
-0.22465189 -0.1319759 -0.08328414 -0.18690163 -0.18420151 -0.12203089 -0.184908 -0.29284632
-0.11739658 -0.19798252 -0.12887953 -0.090499766 -0.10337653 -0.16824363 -0.12685746 -0.13107523
-0.12076103 -0.087410115 -0.18793476 -0.13943063 -0.10418979 -0.0861522 -0.06257762 -0.13291584
-0.15768033
00000000: d14b b4bd dcf1 7bbd 0995 bbbd f39f e0bd
00000010: dbb3 fbbd b9ee 96bd 91cb 35bd 0e01 ccbd
00000020: c463 11be 58b2 02be 7331 e2bd b25f cebd
00000030: 21f8 17be 699e 39be 8550 19be 8597 c9bd
00000040: 3c72 28be 8002 4bbe afc5 57be 1909 29be
00000050: 5b36 22be 1f15 19be 5ffa 38be 556c 43be
00000060: 250b 66be b124 07be e090 aabd 2463 3fbe
00000070: 529f 3cbe 55eb f9bd 8658 3dbe f4ef 95be
00000080: 9e6d f0bd eebb 4abe fff8 03be f157 b9bd
00000090: 13b7 d3bd 0f48 2cbe ece6 01be 9638 06be
000000a0: 8f51 f7bd 1304 b3bd f871 40be e7c6 0ebe
000000b0: 7561 d5bd 9170 b0bd b228 80bd 171b 08be
000000c0: f476 21be
