models/snapsRandom/model_1685757168.5051649.pt (torch, 252563 bytes, 10 tensors)

0.weight f4 [128, 49]
0	0xbda5862d	-0.080822326
1	0x3de43a45	0.111439265
2	0x3d14221a	0.036165334
3	0xbe1d3429	-0.15351929
4	0x3d428989	0.047494445
5	0xbd493114	-0.04911907
6	0xbdadaf09	-0.08480651
7	0x3d94ef50	0.07272208
8	0xbd1605d4	-0.036626652
9	0xbe003028	-0.1251837
10	0x3de0968c	0.109662145
11	0x3e2bd3c4	0.16780001
12	0xbd17c6d7	-0.037054863
13	0x3dcdeb99	0.10054702
14	0x3bb4f11c	0.0055219065
15	0xbde3417d	-0.11096475
16	0xbc509e63	-0.012733075
17	0xbda907b4	-0.082534224
18	0xbb90ea6e	-0.0044224774
19	0x3c3c6a2b	0.011499922
20	0xbce14f13	-0.027503526
21	0xbdb851f1	-0.09000004
22	0x3e7ae696	0.24502024
23	0xbde0c5ca	-0.10975225
24	0xbd281e5d	-0.04104458
25	0xbda345ee	-0.079723224
26	0xbd6ffa17	-0.058588114
27	0x3d750372	0.05981774
28	0x3e209b73	0.15684299
29	0xbd559344	-0.052142397
30	0x3e35cc2e	0.1775367
31	0xbce138db	-0.027492931
32	0xbb6a9b95	-0.00357983
33	0x3d2fec94	0.042950228
34	0xbd704a50	-0.05866462
35	0x3e0e8578	0.13918102
36	0xbd98818f	-0.07446586
37	0xbc144303	-0.00904918
38	0xbe45e29b	-0.19324724
39	0xbba53c96	-0.005042623
40	0xbdfa2327	-0.12213736
41	0x3d893155	0.066988625
42	0x3e47419b	0.1945862
43	0xbd30a061	-0.0431217
44	0xbdca1a08	-0.09868246
45	0x3e07679d	0.13223119
46	0x3df87d74	0.12133303
47	0xbe27bb1f	-0.16379975
48	0xbd95272c	-0.07282862
49	0x3b835b93	0.004008719
50	0xbd18c8ab	-0.037300747
51	0xbe0090c6	-0.12555227
52	0x3d6cc8ad	0.057808567
53	0x3df46c5c	0.119347304
54	0xbba29db9	-0.0049626497
55	0xbdfd4704	-0.12367061
56	0x3d31dbce	0.043422513
57	0x3ddbe426	0.10736875
58	0x3be9f34f	0.0071396003
59	0x3e01146e	0.1260545
60	0x3d8c15e7	0.06840115
61	0x3d63216c	0.055451795
62	0x3cc20cfe	0.023687836
63	0xbe0e79ff	-0.13913725
64	0xbd083394	-0.033252314
65	0x3e0ff5c9	0.14058603
66	0xbd8470e9	-0.064668484
67	0xbe138e03	-0.14409642
68	0x3e6a8942	0.22903922
69	0x3e283718	0.16427267
70	0x3cc9fd71	0.024656983
71	0x3d3c6d30	0.046002567
72	0x3e10049f	0.14064263
73	0xbe3bf765	-0.18356092
74	0xbe1b42bf	-0.1516218
75	0xbd30ff81	-0.043212418
76	0x3d96adcc	0.07357368
77	0x3d258940	0.040414095
78	0x3b87c061	0.0041428064
79	0x3dfee58e	0.12446128
80	0xbe34d799	-0.17660369
81	0xbde5e171	-0.1122464
82	0xbdf9ccc2	-0.121972576
83	0x3e6218e9	0.22079815
84	0xbde26559	-0.11054487
85	0x3c9d26b3	0.019183492
86	0xbd09311a	-0.033494093
87	0xbdf9aab3	-0.121907614
88	0x3da616d4	0.08109823
89	0x3d9d093c	0.07667777
90	0xbd117ffd	-0.03552245
91	0x3dd631da	0.10458727
92	0xbc87bbce	-0.016569044
93	0xbe557d43	-0.20848565
94	0xbd693b03	-0.056941044
95	0x3dfecfb5	0.12441961
96	0x3cb6b228	0.022301748
97	0xbd9551b0	-0.07290971
98	0x3d21f3d9	0.039539192
99	0xbe2fbd4e	-0.17162058
100	0x3d526c50	0.051372826
101	0xbdfa0f3a	-0.122099355
102	0xbcee5e9d	-0.02909785
103	0xbe831255	-0.25599924
104	0x3d5d5209	0.054033313
105	0x3d77abc0	0.060466528
106	0x3e0ab554	0.13545734
107	0xbd12d9db	-0.035852294
108	0xbd7e05e3	-0.062017333
109	0x3e28d78b	0.16488473
110	0xbe6176ad	-0.22017927
111	0x3d4443ca	0.04791621
112	0xbe0ceec0	-0.13762951
113	0x3c3f50d2	0.011676984
114	0x3e01b872	0.12668017
115	0xbdce6ccb	-0.10079344
116	0xbd9936d1	-0.074811585
117	0xbcdbe248	-0.026841298
118	0xbd906189	-0.07049853
119	0x3dcb69d3	0.09932294
120	0xbe3fd564	-0.18733746
121	0x3d691480	0.056904316
122	0xbcd9c9d7	-0.026585503
123	0x3c7a7a0f	0.01528789
124	0xbdcacf2e	-0.09902798
125	0x3def06c3	0.116712116
126	0xbe16ae8a	-0.14715019
127	0x3d50fae8	0.051020533
128	0x3c32ad82	0.010905625
129	0xbdc7a1e8	-0.09747678
130	0x3d61efb3	0.055160236
131	0xbdcf4524	-0.101206094
132	0x3d13a933	0.036050033
133	0xbd950666	-0.07276611
134	0x3d27297e	0.040811054
135	0xbdf9dba6	-0.12200098
136	0x3c490007	0.012268073
137	0xbdb0ef47	-0.086393885
138	0xbd82ead1	-0.06392444
139	0x3e28bca1	0.16478206
140	0xbcde04e3	-0.02710194
141	0xbd0b5350	-0.034015
142	0xbe26acd1	-0.16276862
143	0x3dc011f4	0.09378424
144	0x3d49a1a9	0.049226437
145	0xbdbc69b9	-0.091998525
146	0x3d7ce021	0.061737183
147	0x3db92a86	0.09041314
148	0x3ccd1eb0	0.025039047
149	0xbd48a6b8	-0.04898712
150	0xbd9affda	-0.07568331
151	0x3dc345ee	0.095348224
152	0xbd240f4f	-0.040053662
153	0xbc8e4319	-0.017365979
154	0x3d2d575e	0.042319648
155	0x3daac048	0.08337456
156	0x3db71db9	0.08941216
157	0x3a247610	0.0006273696
158	0xbde61364	-0.11234167
159	0xbea04ef0	-0.31310225
160	0xbcbd62b0	-0.023118347
161	0x3e054425	0.13014276
162	0x3c4bbcf9	0.012435191
163	0x3d44b3c4	0.048023
164	0x3d818fb2	0.06326236
165	0xbd2c4976	-0.042062245
166	0xbe464e70	-0.19365859
167	0x3e5b1e33	0.21398239
168	0x3da58be3	0.08083322
169	0xbd258b4a	-0.04041604
170	0x3d515865	0.05110969
171	0xbd035bb3	-0.032069873
172	0xbd04b89b	-0.032402616
173	0xbe5bf2e4	-0.21479374
174	0x3d95cf7f	0.07314967
175	0x3d8e92a4	0.06961563
176	0xbdd5d89f	-0.10441708
177	0x3dc10161	0.09424091
178	0x3da3e0ef	0.08001887
179	0xbd51d9e3	-0.051233184
180	0x3d92fa57	0.07176655
181	0x3e6b6289	0.22986807
182	0xbc097d27	-0.008391655
183	0x3e3f9f6b	0.18713157
184	0xbe3a9796	-0.18221888
185	0x3db7b49b	0.08969995
186	0x3bca52eb	0.0061744354
187	0x3dd5f061	0.10446239
188	0x3cdde02c	0.027084433
189	0xbd89f3db	-0.06735965
190	0x3e017284	0.1264134
191	0xbe0d2638	-0.1378411
192	0x3dc0b6e6	0.09409885
193	0xbd3f8127	-0.04675403
194	0xbc7cff43	-0.0154417185
195	0x3de90d1c	0.113794535
196	0x3c89a1d1	0.016800793
197	0xbd7521f7	-0.059846845
198	0x3cf34a5a	0.02969854
199	0xbdb3109f	-0.087434046
200	0xbd4debfc	-0.05027388
201	0x3e57de8c	0.21080989
202	0x3e16455b	0.14674895
203	0x3c901466	0.017587852
204	0xbc9c42fb	-0.019074908
205	0x3d010925	0.03150286
206	0x3e37b8cd	0.1794159
207	0x3cd7b0c4	0.026329406
208	0xbdbd8d19	-0.09255428
209	0xbe1355ae	-0.14388153
210	0xbd78fcc1	-0.06078792
211	0xbce05636	-0.027384859
212	0x3dcbf466	0.09958725
213	0xbcb10c49	-0.021612303
214	0xbd733d82	-0.05938483
215	0xbd191a99	-0.03737888
216	0x3d254e9b	0.040358167
217	0xbd8bec18	-0.06832141
218	0x3c98dc93	0.018659865
219	0xbbc63237	-0.0060484665
220	0xbe89d3eb	-0.26919493
221	0x3db66c5c	0.08907387
222	0xbe37eb25	-0.17960794
223	0xbe266872	-0.1625078
224	0xbc421166	-0.011844968
225	0xbdd622c5	-0.104558505
226	0x3c563c0c	0.01307584
227	0x3e1604aa	0.14650217
228	0x3e213e15	0.15746339
229	0xbd3bb4e5	-0.04582681
230	0xbd297c14	-0.041378096
231	0xbc9c922b	-0.019112667
232	0x3d8da925	0.069170274
233	0x3df11072	0.11770715
234	0xbdb26840	-0.0871129
235	0xbdccdffb	-0.100036584
236	0xbe1ed330	-0.15510249
237	0x3d3499c1	0.044091944
238	0xbda83f17	-0.082151584
239	0x3d26829a	0.040651895
240	0x3cdf9ce2	0.027296487
241	0x3bfeab12	0.007771858
242	0x3cfc8560	0.030825317
243	0x3e26522f	0.16242288
244	0xbde7321a	-0.11288853
245	0xbcccca3e	-0.02499878
246	0x3d9e3412	0.077247754
247	0x3cd97839	0.026546584
248	0xbd83b88b	-0.06431683
249	0x3cf765eb	0.030199965
250	0xbdc15b06	-0.094411895
251	0x3dea2322	0.11432482
252	0xbdeaf73e	-0.11472939
253	0xbd0f1a39	-0.034937117
254	0xbd81129a	-0.06302376
255	0xbb8fb243	-0.004385264

0.bias f4 [128]
0	0x3da3765c	0.0798156
1	0x3dc67d30	0.09691846
2	0xbc0a2b87	-0.008433229
3	0x3dd18dd6	0.10232131
4	0xbdc3ca32	-0.0956005
5	0x3de94272	0.113896266
6	0xbdfff772	-0.12498368
7	0x3f0d1348	0.55107546
8	0x3d59a2d9	0.05313382
9	0xbeefae6e	-0.46812767
10	0x3e494632	0.19655684
11	0x3ea2c70f	0.31792495
12	0xbdbde3d9	-0.09271974
13	0xbe4240b7	-0.18969999
14	0xbd4eacb4	-0.05045767
15	0x3df0aa9b	0.117512904
16	0xbdc84daa	-0.09780438
17	0xbe678c47	-0.22612105
18	0xbd12af59	-0.035811756
19	0xbd0e6afa	-0.03476999
20	0x3dc54da1	0.09633947
21	0xbe65538b	-0.2239515
22	0xbe625828	-0.22103941
23	0xbe6e1f20	-0.23254061
24	0xbe060cbe	-0.13090798
25	0x3d10a599	0.035314176
26	0x3e608a91	0.21927859
27	0x3ed8672b	0.4226621
28	0xbe91fd54	-0.28513587
29	0x3e80b4c7	0.25137922
30	0x3e26d4a9	0.16292061
31	0xbea6d579	-0.32584742
32	0xbe77237e	-0.24134633
33	0xbebd1886	-0.36932772
34	0xbd0c1e14	-0.034208372
35	0xbe56e268	-0.20984805
36	0x3e481607	0.19539653
37	0xbe062b1e	-0.13102385
38	0x3da7aa4f	0.08186781
39	0xbdbc2ed4	-0.09188619
40	0xbdf881fb	-0.12134167
41	0xbe1f97ec	-0.15585297
42	0x3c6a10c2	0.014286222
43	0xbdf19299	-0.117955394
44	0xbe3d4fdd	-0.18487497
45	0xbdbdbdc1	-0.09264708
46	0x3edbd452	0.42935425
47	0xbd3aa2d5	-0.045565445
48	0xbeae8a80	-0.34090042
49	0x3e5c40db	0.21509115
50	0xbe6e0a45	-0.23246105
51	0xbe5c0a3a	-0.21488276
52	0xbe7a0370	-0.24415374
53	0x3e30358b	0.17207925
54	0xbe4aaaac	-0.19791669
55	0xbcec61b0	-0.028855175
56	0x3ea283d0	0.3174119
57	0x3e0a1fa6	0.13488635
58	0x3de31ce4	0.11089495
59	0xbdf9f06d	-0.12204061
60	0xbaa4d5d1	-0.0012575929
61	0xbccdac75	-0.025106648
62	0xbe52b4d9	-0.205768
63	0x3e21d4da	0.15803853
64	0xbe06896c	-0.1313836
65	0x3ddc7042	0.10763599
66	0xbe58a610	-0.21157098
67	0xbe491d0f	-0.19639991
68	0xbe1034c4	-0.14082628
69	0xbe5bfeac	-0.21483868
70	0x3eb77bef	0.3583674
71	0x3e2e535a	0.17023984
72	0x3d80b31d	0.06284163
73	0xbdbebd3c	-0.09313437
74	0x3cf76d5a	0.03020351
75	0x3d822b3b	0.06355902
76	0xbddc1809	-0.10746772
77	0xbe64f681	-0.22359659
78	0x3cc53965	0.02407522
79	0x3de755f3	0.112956904
80	0xbe74edec	-0.23918885
81	0x3e0bc245	0.13648327
82	0x3dabad79	0.08382697
83	0x3ca8e851	0.02061859
84	0xbe54059d	-0.20705266
85	0xbdbc7013	-0.09201064
86	0x3e88c737	0.2671449
87	0x3e37c38f	0.17945693
88	0xbe05397c	-0.1301021
89	0x3cb0a6af	0.021563856
90	0x3e16ec76	0.1473864
91	0xbdd999a0	-0.10625005
92	0xbe10cc1d	-0.14140363
93	0xbe2775d1	-0.16353537
94	0x3e87f7ba	0.26556188
95	0xbe579cfa	-0.21055976
96	0x39d9f27c	0.0004157013
97	0xbd8715ac	-0.065959305
98	0x3eb66ff2	0.35632282
99	0xbd86ee39	-0.06588406
100	0x3eb1f357	0.34755966
101	0xbe7b7185	-0.24555023
102	0xbe266fdb	-0.16253607
103	0x3c618f2d	0.013767046
104	0xbe9429dc	-0.28938186
105	0xbd87683a	-0.066116765
106	0x3e57e1f7	0.21082292
107	0xbe129797	-0.1431564
108	0xbe6914fd	-0.22761913
109	0xbe19d7a7	-0.15023671
110	0xbe2d18e9	-0.16904034
111	0xbe9238b8	-0.28558898
112	0xbe02796d	-0.12741633
113	0xbe16fdbb	-0.14745228
114	0x3de8e12a	0.11371072
115	0xbe649929	-0.22324051
116	0x3dcff9a5	0.10155038
117	0xbd7e0a94	-0.062021807
118	0xbd923e35	-0.07140771
119	0xbe46c400	-0.19410706
120	0x3dd3d1a5	0.10342721
121	0xbe1c10d6	-0.15240797
122	0x3e559063	0.2085586
123	0xbe8d4304	-0.2759019
124	0xbe4c7725	-0.19967325
125	0xbe6740f4	-0.22583371
126	0x3d1da5a2	0.038488038
127	0x3c9b726f	0.018975465

2.weight f4 [128, 128]
0	0x3d355e2e	0.04427927
1	0xbc047405	-0.008084302
2	0xbd000171	-0.031251375
3	0xbd680f1d	-0.05665504
4	0x3d6f61dd	0.05844294
5	0xbc692086	-0.014228946
6	0xbd2a5383	-0.04158355
7	0x3d0aa7cc	0.03385143
8	0x3c0de057	0.008659444
9	0xbd07b779	-0.033133958
10	0x3bd670be	0.0065442016
11	0x3d851c29	0.06499512
12	0xbb1b00c9	-0.002365159
13	0xbd16c8ff	-0.03681278
14	0x3d9db883	0.077012084
15	0xbd45dc4f	-0.048305806
16	0xbd792dbc	-0.06083463
17	0xbd2965c4	-0.041356817
18	0xbda8143e	-0.08206986
19	0x3d18a6f0	0.03726858
20	0x3dab222c	0.08356127
21	0xbd9ca0dc	-0.07647869
22	0x3d3e6dce	0.046491437
23	0x3c2026f4	0.009774912
24	0xbc2f1f80	-0.0106886625
25	0xbd7c9840	-0.061668634
26	0xbd1fcb6e	-0.039012365
27	0xbc2ef6cb	-0.010678957
28	0x3cc8b937	0.02450238
29	0x3d5b58ec	0.0535516
30	0xbd84110c	-0.06448564
31	0xbc97349b	-0.018457701
32	0xbc240a5e	-0.010012237
33	0x3bd2b66c	0.006430438
34	0xbd7e9fa0	-0.06216395
35	0x3d4538af	0.04814976
36	0x3cc572f4	0.024102665
37	0xbd521ad0	-0.0512951
38	0xbd4e4b3c	-0.050364718
39	0xbbe1f711	-0.0068959077
40	0x3ca7ecd4	0.02049867
41	0xbd7d84b7	-0.061894145
42	0x3ca7a20a	0.020463008
43	0xbd1e3959	-0.03862891
44	0xbbd396e7	-0.006457198
45	0x3c885455	0.016641775
46	0x3d3e2fb1	0.0464322
47	0x3b891db6	0.00418445
48	0xbd444efc	-0.047926888
49	0xbda19c5a	-0.0789115
50	0x3d3dd867	0.046348955
51	0x3d9f5812	0.0778047
52	0xbd59a365	-0.05313434
53	0xbd5f59a8	-0.054528862
54	0x3c01d414	0.0079240985
55	0xbc5c0363	-0.013428542
56	0x3d9c1420	0.07621026
57	0x3db740b7	0.0894789
58	0x3cfbfc6d	0.030760014
59	0x3dbd6b41	0.09248973
60	0x3da69e2e	0.08135639
61	0xbc077690	-0.008268014
62	0x3d82ddd4	0.063899666
63	0xbd9c3889	-0.07627971
64	0xbcea39b3	-0.028591966
65	0x3d9b5b64	0.07585791
66	0xbd61624d	-0.055025388
67	0xbb615981	-0.0034385624
68	0xbd8b52bd	-0.068028904
69	0x3dbff331	0.09372557
70	0x3d827746	0.06370406
71	0xbd4ecc44	-0.05048777
72	0x3dad58d8	0.08464211
73	0xbd5d2a4b	-0.05399541
74	0x3d8e7650	0.0695616
75	0xbacd421b	-0.001565996
76	0xbbbea1e1	-0.0058176373
77	0x3d83a531	0.06427992
78	0xbda4ec1e	-0.08052848
79	0xbd3a6168	-0.04550305
80	0xbc0413f7	-0.008061401
81	0xbd8ddaa8	-0.06926471
82	0x3ca968d5	0.02067987
83	0xbd8fb973	-0.070177935
84	0xbd787318	-0.060656637
85	0x3d06e733	0.032935333
86	0x3c3e36d9	0.011609756
87	0x3da68a6a	0.08131869
88	0xbd932f1e	-0.07186721
89	0x3d9c7241	0.0763898
90	0x3d73ffaa	0.059569992
91	0xbbf3fc44	-0.007445844
92	0x3d48945b	0.048969608
93	0xbd8ee2ad	-0.06976829
94	0xbd661509	-0.056172404
95	0xbd7388e3	-0.059456717
96	0xbd9769ae	-0.07393204
97	0xbd8e2a5c	-0.06941673
98	0x3d24d86f	0.04024547
99	0x3db00bfd	0.085960366
100	0x3c2364a7	0.009972728
101	0xbd0d7a14	-0.03454025
102	0xbd6cfe25	-0.05785956
103	0xbcc06ec3	-0.023490315
104	0x3d5165c5	0.051122446
105	0xbd2d3c4a	-0.042293824
106	0xbce92006	-0.028457653
107	0xbda1e1de	-0.07904409
108	0x3cb36587	0.021898998
109	0x3dadae95	0.084805645
110	0x3d39db62	0.045375235
111	0x3d9b7950	0.07591498
112	0x3d607349	0.054797444
113	0x39c6e507	0.00037936142
114	0xbd81cb61	-0.063376196
115	0x3dbb9a69	0.09160311
116	0xbc968e55	-0.018378416
117	0x3dd0838f	0.10181343
118	0xbd658e04	-0.05604364
119	0x3bd1bed9	0.0064009246
120	0x3cae80f2	0.02130172
121	0x3d5f22f3	0.05447669
122	0x3c0cf032	0.008602189
123	0xbda5d345	-0.08096937
124	0x3a1408b7	0.00056470506
125	0x3dbb5e6a	0.091488674
126	0x3c3472be	0.011013685
127	0x3d66ae64	0.056318656
128	0xbd0bb094	-0.034103945
129	0xbd763c40	-0.060116053
130	0x3d5c4a19	0.053781603
131	0x3d362000	0.04446411
132	0xbc996834	-0.018726446
133	0xbcce7b69	-0.02520533
134	0xbd10ddc6	-0.03536775
135	0x3cb36b9b	0.021901896
136	0x3d81133a	0.06302495
137	0xbdae09a6	-0.08497934
138	0x3b18e7a1	0.002333142
139	0x3c4b8a61	0.012423129
140	0xbbb7a464	-0.0056043137
141	0x3d456673	0.048193406
142	0x3cd30e55	0.02576367
143	0x3d905dda	0.07049151
144	0xbd2ef109	-0.042710338
145	0xbc5f1a25	-0.013617073
146	0xbc507867	-0.012724019
147	0xbd4c5409	-0.04988483
148	0xbd2166ba	-0.03940461
149	0xbcf79156	-0.030220669
150	0xbcd167ca	-0.025562186
151	0xbd303011	-0.04301459
152	0x3c564c63	0.013079735
153	0xbdaa52ba	-0.0831656
154	0x3d9f791a	0.0778677
155	0xbcf50ebc	-0.029914252
156	0x3d7a6c97	0.061138716
157	0x3bee23e3	0.0072674616
158	0xbd978f28	-0.07400352
159	0xbdb5fda2	-0.08886267
160	0xbc814122	-0.015778128
161	0x3d4ff899	0.05077419
162	0x3c4d47f6	0.012529364
163	0x3d65ff4f	0.056151684
164	0xbd64e358	-0.055880874
165	0xbdac1664	-0.08402708
166	0xbdb08548	-0.086191714
167	0x3cbd684a	0.023121018
168	0x3d3d2f77	0.046187844
169	0xbd1e9c7f	-0.038723465
170	0x3cba81c9	0.022766965
171	0xbd905644	-0.07047704
172	0xbc8588a8	-0.016300514
173	0x3d99151f	0.07474732
174	0xbce852aa	-0.02835973
175	0x3d99a42a	0.07502015
176	0xbd5d0358	-0.053958267
177	0xbd4bbb83	-0.049739372
178	0x3d9fd660	0.07804561
179	0x3d8faaa4	0.07014969
180	0x3c9da1d8	0.019242212
181	0xbcbdfeac	-0.023192726
182	0x3d11487b	0.035469513
183	0x3cddaa7a	0.027058829
184	0xbd239301	-0.039935116
185	0xbd8b632f	-0.06806027
186	0xbbd6dd03	-0.0065571084
187	0xbd2f1294	-0.042742327
188	0xbcf06c51	-0.029348524
189	0x3c5bae33	0.013408232
190	0x3d9a6e23	0.07540538
191	0x3d8f8a5b	0.07008811
192	0x3d8c981f	0.06864952
193	0x3d156964	0.03647746
194	0x3cf5b009	0.029991167
195	0xbc8d75ba	-0.01726805
196	0x3bfe584d	0.007761991
197	0xbbf07036	-0.0073375953
198	0xbd8e4fa9	-0.06948788
199	0x3db3dd83	0.087824844
200	0x3d7a32ce	0.061083607
201	0x3c154cd6	0.009112557
202	0x3d3f2763	0.04666842
203	0x3d244bbf	0.0401113
204	0x3d82ca9b	0.063863
205	0x3d457b13	0.048213076
206	0xbc5ce16b	-0.013481478
207	0xbca791db	-0.020455291
208	0xbd4eadd2	-0.050458737
209	0x3bf0e330	0.0073513016
210	0x3d893eeb	0.06701454
211	0xbda6ac61	-0.081383474
212	0x3cb429ff	0.021992682
213	0xbd4a2d5b	-0.04935966
214	0x3da16cf9	0.07882113
215	0xbda016f0	-0.07816875
216	0x3c2a9e50	0.010413721
217	0x3d58d64a	0.052938737
218	0xbced050f	-0.028933076
219	0x3c1e8079	0.009674185
220	0x3cf76ce0	0.030203283
221	0xbbacf23a	-0.005277899
222	0xbce0aa71	-0.027425023
223	0x3da8f88c	0.082505316
224	0xbdaa9a04	-0.083301574
225	0xbd6a6f09	-0.057234798
226	0xbd0ad0c0	-0.033890486
227	0x3bf47236	0.007459904
228	0xbc6756b0	-0.014119789
229	0x3c6f0dad	0.014590663
230	0xbc718d43	-0.014743152
231	0xbd3b5614	-0.045736387
232	0x3c2c9126	0.010532653
233	0x3d7e03a1	0.06201518
234	0x3d278827	0.04090133
235	0x3cad4e33	0.021155452
236	0xbd73f9c7	-0.059564378
237	0x3d4bbeed	0.049742628
238	0xbc517f65	-0.012786721
239	0x3d664f36	0.056227885
240	0xbd04e1e8	-0.032442003
241	0xbd8a190a	-0.06743057
242	0x3d77f90a	0.060540237
243	0xbc9a7427	-0.018854214
244	0xbd1ae307	-0.037814166
245	0x3d203905	0.039116878
246	0xba28e289	-0.0006442448
247	0xbd0875d3	-0.03331549
248	0xbc6ad79e	-0.014333634
249	0xb9229e77	-0.00015508557
250	0x3c7809c0	0.015139043
251	0x3d812d52	0.06307472
252	0xbd09308b	-0.03349356
253	0xbcecc3a4	-0.028901882
254	0xba6d2e82	-0.0009047763
255	0x39894234	0.0002618

2.bias f4 [128]
0	0x3dc10d2c	0.094263405
1	0xbd2c5a64	-0.04207839
2	0xbcc6edfd	-0.024283404
3	0xbcb29369	-0.021798806
4	0x3cf9e844	0.03050626
5	0xbdce6849	-0.100784846
6	0xbc4de350	-0.012566403
7	0xbce609ec	-0.028080903
8	0x3e1385e1	0.1440654
9	0xbe1b9ce0	-0.15196562
10	0x3c40a7a9	0.011758723
11	0xbdf123d5	-0.117744125
12	0xbd9af34b	-0.07565936
13	0x3d7d7129	0.061875496
14	0xbdba15c1	-0.090861805
15	0x3e40d6a3	0.18831877
16	0x3e056954	0.1302846
17	0x3e4c2dfb	0.19939415
18	0xbd78dfb6	-0.060760222
19	0xbc93e659	-0.018054174
20	0x3c2c2d3f	0.010508834
21	0xbe06bf12	-0.13158825
22	0xbd85322e	-0.06503712
23	0xbd6a159a	-0.057149507
24	0xbd6b8a9a	-0.057505228
25	0xbcaa6e0c	-0.020804428
26	0xbe3bb636	-0.18331227
27	0xbc958a0d	-0.018254304
28	0x3c24adc7	0.010051197
29	0x3c9e2b04	0.01930762
30	0x3df53a3a	0.119739965
31	0xbdd94ea3	-0.10610702
32	0x3e2a72e2	0.16645387
33	0x3de772f4	0.113012224
34	0xbdb62759	-0.08894224
35	0xbde7b8ad	-0.11314521
36	0x3db8709e	0.09005855
37	0x3c88848e	0.01666477
38	0xbeaf914d	-0.34290543
39	0xbdf256f2	-0.1183299
40	0xbcc054b5	-0.023477891
41	0xbcb896d0	-0.02253285
42	0xbd84b78c	-0.06480321
43	0xbde2fa89	-0.11082942
44	0x3de0323e	0.10947083
45	0x3e096bcc	0.13420027
46	0x3e025e2b	0.12731235
47	0xbc4f7e9e	-0.012664465
48	0xbe1fe073	-0.15612964
49	0xbcbe953d	-0.023264522
50	0x3dd394b2	0.10331096
51	0x3d0fc5f7	0.035100903
52	0xbcef0e8f	-0.029181747
53	0xbd10dd12	-0.03536708
54	0xbd76d209	-0.0602589
55	0x3c08521b	0.008320357
56	0x3dcfca42	0.101459995
57	0xbd83095f	-0.06398272
58	0xbcfe934a	-0.031076092
59	0x3d6486a4	0.055792466
60	0xbd4cd2f0	-0.050005853
61	0x3ca4e968	0.020130828
62	0x3db7447c	0.08948609
63	0x3d94463b	0.07239958
64	0xbd52a68c	-0.051428363
65	0x3d7fc2ff	0.062441822
66	0xbd26bb8f	-0.040706214
67	0xbb52f17b	-0.003218739
68	0x3bde03a8	0.006775338
69	0xbe83639b	-0.2566193
70	0xbe1acbba	-0.15116778
71	0x3dbcb344	0.0921388
72	0xbdde428b	-0.10852536
73	0x3db660e6	0.08905201
74	0x3d010575	0.031499345
75	0x3da3d70b	0.080000006
76	0xbd162459	-0.036655758
77	0xbe93b5e1	-0.288497
78	0x3bb04610	0.005379446
79	0xbdc09ac7	-0.094045214
80	0xbd0b1e26	-0.0339643
81	0x3cad46b0	0.02115187
82	0xbd752406	-0.059848808
83	0xbd2583fe	-0.04040908
84	0xbe5cbfa5	-0.21557482
85	0x3da562c1	0.080754764
86	0x3cc16c00	0.023611069
87	0xbd8aa112	-0.06769003
88	0x3dc4b4d2	0.09604801
89	0xbdb20737	-0.08692782
90	0xbd99c8e6	-0.075090215
91	0x3ca6c95c	0.020359688
92	0x3b552d54	0.0032528238
93	0x3d45e5f7	0.048315015
94	0xbdf65a90	-0.12028992
95	0x3d07abef	0.033122953
96	0x3d0ccb02	0.03437329
97	0x3d3329d3	0.04374106
98	0xbce49985	-0.027905235
99	0x3be6c2d1	0.007042267
100	0x3d289985	0.041162033
101	0x3d23d424	0.039997235
102	0xbcafc635	-0.021456817
103	0xbdb5cccb	-0.08876952
104	0xbc03990f	-0.0080320975
105	0x3e020d18	0.12700307
106	0xbd679a48	-0.05654362
107	0x3d313a18	0.043268293
108	0x3d154492	0.036442347
109	0xbe083abc	-0.13303655
110	0xbcfc8175	-0.030823449
111	0xbd0ea87b	-0.034828644
112	0xbd08ab9a	-0.033366777
113	0xbdbb5167	-0.09146386
114	0xbd85d196	-0.06534116
115	0x3d11697d	0.035500992
116	0xbd0057a0	-0.031333566
117	0x3d06e60b	0.03293423
118	0x3d64baa3	0.055842053
119	0x3bc99e30	0.0061528906
120	0x3c71f074	0.014766801
121	0x3d8d5f2a	0.06902917
122	0x3d8898fd	0.06669805
123	0xbd3f8638	-0.04675886
124	0x3c7366e1	0.014856071
125	0x3d047724	0.032340184
126	0xbd282a4a	-0.041055955
127	0xbb87db41	-0.00414601

4.weight f4 [128, 128]
0	0x3d44268c	0.047888324
1	0x3cc85734	0.024455644
2	0xbd188aa9	-0.03724161
3	0x3d4f11aa	0.050553955
4	0x3aa7af66	0.0012793362
5	0xbd4aedf0	-0.04954332
6	0x3bdc290a	0.0067187594
7	0xbc143d07	-0.009047753
8	0x3cd53597	0.02602653
9	0x3c5f4928	0.013628282
10	0x3d8adbd5	0.06780211
11	0x3bde03bd	0.006775348
12	0x3c014f82	0.007892491
13	0xbbe2f748	-0.006926451
14	0xbd7ccaf1	-0.061716978
15	0x3d31c41b	0.04339991
16	0x3d97bd0c	0.07409105
17	0xbd1c836a	-0.038211264
18	0xbd6cf67d	-0.057852257
19	0xbd0c0ce0	-0.034191966
20	0xbb5aa0c7	-0.003335999
21	0x3d93801e	0.07202171
22	0xbc84512f	-0.016151993
23	0x3da628fa	0.081132844
24	0x3d924e87	0.07143884
25	0xbd901ceb	-0.07036766
26	0xbdb2a75a	-0.08723326
27	0xbc148a18	-0.009066127
28	0xbc3b8aa0	-0.011446625
29	0x3c3c77dc	0.011503186
30	0xbc0e01b2	-0.008667396
31	0xbd1f8dfa	-0.03895376
32	0x3c7a1f73	0.015266287
33	0xbd33a6b8	-0.043860167
34	0x3d4381af	0.047731098
35	0x3d80e2e3	0.06293275
36	0xbd94916f	-0.07254302
37	0xbd8899fe	-0.06669997
38	0x3d897aca	0.06712873
39	0xbca1fef5	-0.019774893
40	0x3d12eb95	0.0358692
41	0xbdad8871	-0.0847329
42	0xbd58d3ab	-0.052936237
43	0xbd8de969	-0.06929285
44	0xbcfc784c	-0.03081908
45	0xbd88eab7	-0.06685393
46	0xbd0263ea	-0.031833567
47	0x3bcb263a	0.0061996253
48	0xbd0b9089	-0.034073386
49	0x3d32ecad	0.043682743
50	0xbd0b9b7b	-0.034083825
51	0xbd8b2855	-0.06794802
52	0xbcbcd2f3	-0.023049807
53	0x3d43965e	0.047750823
54	0xbc8e30cd	-0.017357254
55	0xbd3c3644	-0.04595019
56	0xbd066cc6	-0.03281858
57	0x3d8fd4fd	0.07023046
58	0xbd930ef7	-0.07180589
59	0xbd4827a0	-0.048865914
60	0xbd98d581	-0.07462598
61	0x3d9944d7	0.07483833
62	0xbd44aad8	-0.04801449
63	0x3da1a953	0.07893624
64	0xbca36400	-0.019945145
65	0xbd67f35a	-0.056628563
66	0xbd31b23a	-0.04338286
67	0xbd8d0f72	-0.068877116
68	0x3c5bc810	0.013414398
69	0xbd090bd8	-0.03345856
70	0x3da14766	0.07874946
71	0x3c02c1cc	0.007980775
72	0x3c827017	0.01592259
73	0xbd26e71b	-0.040747743
74	0xbcdfa098	-0.027298257
75	0xbd44ac01	-0.0480156
76	0x3cd3bf9f	0.025848208
77	0x3d2e598d	0.04256587
78	0xbd6717ea	-0.05641929
79	0x3d202e92	0.039106913
80	0xbdadafc3	-0.084807895
81	0x3d546114	0.051850393
82	0x3d3d4bce	0.04621487
83	0xbccb829d	-0.024842555
84	0x3c8e3280	0.017358065
85	0xbd797eff	-0.06091213
86	0xbc8a0ad0	-0.016850859
87	0x3cbf1e59	0.0233299
88	0x3d30b5d0	0.04314214
89	0xbd9203b0	-0.071296096
90	0xbd96bf78	-0.073607385
91	0x3d8da53d	0.06916282
92	0x3cfdc429	0.030977326
93	0x3d9c9f5b	0.07647582
94	0xbda0c23b	-0.078495465
95	0xbd287692	-0.041128702
96	0xbd194595	-0.037419874
97	0xbc819c38	-0.015821561
98	0x3c069b3d	0.008215723
99	0xbc95a018	-0.018264815
100	0x3d40c02d	0.047058273
101	0xbd5a5da2	-0.05331195
102	0x3d99e719	0.075147815
103	0xbd3191f2	-0.043352075
104	0x3d47098a	0.04859308
105	0x3d94a4a2	0.07257964
106	0xbda0197e	-0.07817362
107	0x3cc8c594	0.024508275
108	0x3ca70b40	0.020391107
109	0x3da52f3c	0.0806565
110	0x3d49ae99	0.049238775
111	0xbdb1e9a5	-0.08687142
112	0xbd0279c9	-0.031854425
113	0xbd8deacb	-0.06929549
114	0xbd3f4cb4	-0.04670401
115	0xbcd90deb	-0.026495894
116	0x3d098b0c	0.03357987
117	0xbdaeff5a	-0.08544798
118	0x3bb02567	0.0053755525
119	0xbda3f327	-0.08005362
120	0xbc8b4ee7	-0.017005397
121	0xbdab3ce3	-0.083612226
122	0xbd7727aa	-0.06034056
123	0xbd1e3e24	-0.03863348
124	0x3d10bb47	0.03533485
125	0xbd49b4cc	-0.049244687
126	0xbd5643f5	-0.052310903
127	0x3d1ec168	0.038758665
128	0xbd2d27a6	-0.04227414
129	0x3cfde139	0.030991184
130	0x3dbf94bb	0.0935454
131	0x3d9f8dd7	0.07790726
132	0xbc5bcc80	-0.013415456
133	0x3d35fc68	0.044430166
134	0xbcc9a5a1	-0.02461511
135	0x3d875a09	0.0660897
136	0x3b92272b	0.0044602356
137	0x3bf0cf2b	0.007348915
138	0xbdb0a167	-0.08624535
139	0x3da0dc22	0.07854487
140	0x3d74a699	0.059729192
141	0xbc26d40d	-0.010182393
142	0xbd36868b	-0.044561904
143	0xbce47910	-0.027889758
144	0xbda09f52	-0.07842888
145	0xbd58cf96	-0.052932344
146	0x3d26e9f9	0.040750477
147	0xbd60e5b8	-0.054906577
148	0x3d21dfac	0.03951995
149	0xbd2a86f6	-0.041632615
150	0xbd2c6987	-0.042092826
151	0xbda57961	-0.08079792
152	0x3c1b05b8	0.009461813
153	0xbd005af4	-0.03133674
154	0xbd22d00e	-0.039749198
155	0xbb1c049c	-0.0023806458
156	0xbd42bd22	-0.047543652
157	0x3c928496	0.017885488
158	0x3d7abed5	0.061217148
159	0xbd1e7f44	-0.03869559
160	0x3cf5c1f5	0.029999712
161	0xbce4b552	-0.027918492
162	0x3cd23985	0.025662193
163	0xbd9013c5	-0.07035021
164	0xbd57ddb6	-0.052701674
165	0xbd1e7fcd	-0.0386961
166	0x3a150ec2	0.0005686098
167	0xbc73c674	-0.014878858
168	0xbcd55a76	-0.026044112
169	0x3d5558f5	0.05208679
170	0xbd7955d1	-0.060872857
171	0x3db33641	0.087505825
172	0x3ca67914	0.020321406
173	0x3b9c0b80	0.004762113
174	0x3d91e757	0.07124203
175	0x3d80314d	0.062594034
176	0xbcb64e34	-0.022254087
177	0x3cf360c6	0.029709231
178	0xbd10625b	-0.03525005
179	0x3d465380	0.048419476
180	0x3d6e140d	0.05812459
181	0x3ca0f465	0.019647786
182	0x3a98c202	0.0011654499
183	0xbd064e32	-0.032789417
184	0xbcd088c1	-0.025455834
185	0x3d959ebc	0.07305667
186	0x3cbab44a	0.022791047
187	0x3cf30203	0.029664045
188	0xbbf5ce95	-0.007501433
189	0xbc2dcab2	-0.010607408
190	0x3d8715a9	0.06595928
191	0xbd891e32	-0.066952124
192	0x3c67b9a3	0.01414338
193	0xbc74ea00	-0.014948368
194	0xbce952c0	-0.028481841
195	0xbd9a1573	-0.07523622
196	0x3d6c39c3	0.057672273
197	0xbd967cc1	-0.07348014
198	0xbd007b72	-0.031367727
199	0x3c797679	0.015226
200	0x3d3c2410	0.04593283
201	0xbdb33a4c	-0.087513536
202	0x3d3e631e	0.046481244
203	0xbd01d07e	-0.031692974
204	0x3ce4b5ba	0.027918685
205	0xbd9e8899	-0.07740898
206	0xbd9dc585	-0.077036895
207	0x3da48f8b	0.08035191
208	0x3d002825	0.031288285
209	0x3c9f02f3	0.019410586
210	0x3d3c46d4	0.045965984
211	0x3da33320	0.07968736
212	0x3d6610b9	0.05616829
213	0x3ce5a428	0.028032377
214	0xbd8f86d1	-0.07008136
215	0x3dbd983c	0.09257552
216	0xbbb76252	-0.0055964375
217	0xbc8599fa	-0.016308773
218	0x3c983ad1	0.018582733
219	0x3d8a7342	0.06760265
220	0xbc5d0bc2	-0.013491573
221	0xbd32b6af	-0.043631252
222	0x3d4b8092	0.04968316
223	0x3d95d16b	0.07315334
224	0x3cd81673	0.026377892
225	0x3c5f4171	0.013626442
226	0x3b328d55	0.0027244885
227	0x3c94663f	0.018115161
228	0xbd9c1ef0	-0.07623088
229	0xbd35a5f1	-0.044347707
230	0x3d1d9fba	0.038482405
231	0x3cb61bf4	0.022230126
232	0x3d13dc12	0.036098547
233	0x3b994816	0.0046777828
234	0xbd479fa3	-0.048736226
235	0xbd163f2d	-0.036681343
236	0xbc6cb0cf	-0.014446451
237	0xbd6a6c1d	-0.05723201
238	0x3dabe316	0.083929226
239	0xbd3c1aef	-0.045924123
240	0x3c06c29e	0.008225111
241	0x3db49f04	0.08819392
242	0xbd956054	-0.07293764
243	0xbda3e8bb	-0.08003374
244	0x3d1c1731	0.038108055
245	0x3d6da46d	0.058018137
246	0xbd1f0dbb	-0.038831454
247	0x3d27dd03	0.040982258
248	0x3d7bf4b1	0.061512653
249	0xbcfb9b86	-0.030713808
250	0x3d93a448	0.072090685
251	0x3c12b6b8	0.008954696
252	0xbc6fcd2e	-0.014636321
253	0x3d03048f	0.03198677
254	0x3d462226	0.04837241
255	0x3dade8fd	0.084917046

4.bias f4 [128]
0	0xbd09e5f3	-0.033666562
1	0x3d215056	0.039383255
2	0x3dc92ae2	0.09822632
3	0xbdb2f0b2	-0.08737315
4	0xbd893751	-0.06700004
5	0xbd219d56	-0.039456688
6	0xbcd32150	-0.02577272
7	0xbd9582d2	-0.073003426
8	0x3dca0283	0.0986376
9	0x3dae4b52	0.0851046
10	0xbd5d1a2d	-0.05398004
11	0x3c94a8fa	0.01814698
12	0xbc64cd63	-0.013964984
13	0xbb98aeca	-0.0046595084
14	0x3d92d066	0.07168655
15	0x3cf7ca52	0.030247841
16	0xbe037e45	-0.12841137
17	0x3d00859e	0.031377427
18	0x3de610ac	0.11233649
19	0xbd822364	-0.063544065
20	0xbc93301c	-0.017967276
21	0x3c643da3	0.013930711
22	0x3d1fa215	0.038972933
23	0xbd943f1b	-0.07238599
24	0x3df290cc	0.11844024
25	0xbd97862a	-0.07398637
26	0xbd36d9a5	-0.044641156
27	0xbda6fa6e	-0.081532344
28	0xbda93502	-0.082620636
29	0xbd85ebf5	-0.06539146
30	0xbc82917f	-0.015938519
31	0x3dd2a4d1	0.102853425
32	0xbc851cce	-0.016249087
33	0xbcada031	-0.02119455
34	0xbd8579b7	-0.06517356
35	0xbd657cda	-0.05602727
36	0x3ca3c7a8	0.019992664
37	0x3d03fbb2	0.032222457
38	0xbd34e002	-0.044158943
39	0xbcf850f7	-0.030312045
40	0x3c503c28	0.012709655
41	0xbd0a90a6	-0.033829354
42	0x3de9361c	0.11387274
43	0x3e1d5788	0.15365422
44	0x3d5989a9	0.0531098
45	0x3dadbe6d	0.084835865
46	0xbc527f2b	-0.012847702
47	0xbd27783b	-0.040886145
48	0xbca24821	-0.019809784
49	0x3d76195b	0.060082775
50	0x3ca4297d	0.020039314
51	0xbd3dd239	-0.046343062
52	0x3c030488	0.007996686
53	0xba1771c2	-0.0005777144
54	0xbd13778a	-0.036002673
55	0xbd1c0888	-0.038094074
56	0xbc3e2666	-0.011605835
57	0xbda8dc79	-0.08245177
58	0xbd39b43c	-0.0453379
59	0x3e1da6c7	0.15395652
60	0x3ca66595	0.02031211
61	0xbc17476d	-0.009233338
62	0x3dee0bf9	0.11623377
63	0x3d3f0692	0.046637125
64	0xbdb9d17e	-0.090731606
65	0xbd987eaa	-0.07446034
66	0x3c07a309	0.008278617
67	0xbd458523	-0.048222672
68	0x3d9c2a86	0.07625298
69	0x3d2661c0	0.040620565
70	0x3de1b10e	0.110200986
71	0xbd8ad996	-0.067797825
72	0x3d31b84c	0.04338865
73	0x3e2e492b	0.17020099
74	0x3e460b7a	0.19340315
75	0x3e19b391	0.15009905
76	0xbcfcd85f	-0.030864893
77	0xbda5730c	-0.08078584
78	0x3d67210d	0.056428004
79	0xbd67b3bc	-0.056567892
80	0x3b834428	0.0040059276
81	0x3d996fcf	0.07492029
82	0xbd58689a	-0.05283413
83	0xbd2b89a8	-0.041879326
84	0x3de04d36	0.10952227
85	0x3d02703b	0.031845313
86	0x3de1acb7	0.11019271
87	0xbc27bcd4	-0.010237891
88	0xbd8d2ae5	-0.06892947
89	0xbc4509dc	-0.012026276
90	0x3e0ff631	0.14058758
91	0x3d673dab	0.056455296
92	0xbd9888f8	-0.07448
93	0xbc86451c	-0.016390376
94	0x3d6a9b3b	0.057276946
95	0x3da6bdd1	0.08141673
96	0x3dc95db2	0.09832324
97	0x3db5afa6	0.08871393
98	0xbd550ae7	-0.05201235
99	0x3bedbdeb	0.007255306
100	0x3cab7ca7	0.020933462
101	0xbcdd8b62	-0.027044002
102	0x3c060131	0.008178995
103	0xbccac521	-0.024752202
104	0x3df8eb42	0.12154247
105	0x3c78796b	0.015165667
106	0xbd16ac46	-0.036785387
107	0xbd03d9c7	-0.03219011
108	0x3df240fe	0.118288025
109	0x3c3653e8	0.011128403
110	0xbd63a6d6	-0.05557903
111	0xbd28c38e	-0.04120212
112	0xbd39bf0d	-0.045348216
113	0x3ca858ce	0.020550158
114	0x3e480904	0.19534689
115	0xbd2e49e9	-0.042550955
116	0xbd9d9b04	-0.076955825
117	0xbd57e012	-0.052703924
118	0xbcc83806	-0.024440777
119	0xbabd682c	-0.0014450601
120	0x3d5b4733	0.053534698
121	0x3da8ac00	0.082359314
122	0x3def7e21	0.11693979
123	0x3bc64d52	0.006051698
124	0x3cfb5850	0.03068176
125	0x3c0f4f2b	0.008746902
126	0x3dcee674	0.10102549
127	0x3d295ae7	0.041346457

6.weight f4 [128, 128]
0	0x3bf1570a	0.007365112
1	0x3d4f2f71	0.050582353
2	0xbc991f21	-0.018691601
3	0xbc2ea0b5	-0.010658433
4	0x3d1117a5	0.03542294
5	0xbd807099	-0.06271476
6	0x3c809194	0.015694417
7	0x3d6324e1	0.055455092
8	0x3d8e56ac	0.06950125
9	0x3d20f629	0.039297257
10	0xbd21848d	-0.03943305
11	0xbd4530be	-0.048142187
12	0x3d8c4b50	0.06850302
13	0xbdb01ef6	-0.08599655
14	0x3dc11ddc	0.09429523
15	0xbd0d69b7	-0.034524646
16	0x3d4fa620	0.05069554
17	0xbc2911dc	-0.010319199
18	0x3d9e6809	0.07734687
19	0xbd887a98	-0.06664008
20	0x3d9f602c	0.07782015
21	0x3d8ffcd2	0.070306435
22	0x3bbcfea9	0.0057676625
23	0x3dbac3fb	0.091194116
24	0xbd5531db	-0.0520495
25	0xbc48d9ab	-0.012258927
26	0x3ac8a6aa	0.0015308459
27	0xbc3dc775	-0.011583199
28	0xbd91f6ab	-0.07127126
29	0xbb559eb4	-0.0032595815
30	0x3c136b5d	0.008997765
31	0x3de7a60b	0.11310967
32	0xbc8c2a72	-0.017110083
33	0x3d630125	0.055421013
34	0xbc76eef7	-0.015071622
35	0xbcb4c1fa	-0.022065151
36	0x3d9f795a	0.07786818
37	0xbdc31303	-0.095251106
38	0x3d0b2c56	0.03397783
39	0x3d222f06	0.039595626
40	0x3d95c491	0.07312883
41	0xbd3263b0	-0.0435521
42	0xbcc23d16	-0.023710769
43	0xbd809f89	-0.06280429
44	0x3d2ad59f	0.04170763
45	0x3c8fc668	0.017550662
46	0x3d2f1fba	0.042754866
47	0x3d22fd1e	0.039792173
48	0xbc0fb8c4	-0.008772079
49	0xbd62274a	-0.05521325
50	0xbc497f50	-0.01229842
51	0x3d4a13cb	0.049335282
52	0x3d3da631	0.04630107
53	0x3d80774b	0.06272753
54	0x3d8a64f6	0.06757538
55	0xbdb0d730	-0.08634794
56	0x3ca8700d	0.020561242
57	0x3d37b919	0.044854257
58	0xbd3bdf5c	-0.04586731
59	0xbdb0b110	-0.08627522
60	0x3c896506	0.016771805
61	0xbd05fcf9	-0.032711957
62	0xbd32740e	-0.04356771
63	0x3d958914	0.07301536
64	0xbd209121	-0.039200906
65	0xbd460314	-0.04834278
66	0xbdd05cad	-0.101739265
67	0x3d9fe754	0.07807794
68	0x3d6375d9	0.05553231
69	0x3d05cc74	0.032665685
70	0x3cf84100	0.030304432
71	0xbd99f27d	-0.07516954
72	0xbd6fbdf2	-0.058530755
73	0x3d6c885e	0.057747237
74	0xbd3a277a	-0.045447804
75	0xbd8c2be4	-0.06844309
76	0xbcf3c5d6	-0.029757421
77	0xbd2bfa94	-0.041987017
78	0x3cd12f62	0.02553529
79	0xbcb5de26	-0.022200655
80	0xbd67b512	-0.056569166
81	0x3bb31f2a	0.0054663615
82	0xbd712cce	-0.05888062
83	0xbd8296ee	-0.06376444
84	0xbd0396ba	-0.032126166
85	0xbd0fb9b3	-0.035089206
86	0xbcfcb828	-0.030849531
87	0x3db1aeb9	0.08675904
88	0x3cea2038	0.028579816
89	0xbd35e888	-0.044411212
90	0x3ced20d8	0.028946325
91	0xbd9be2d8	-0.076116264
92	0xbd875d27	-0.06609564
93	0x3b387a13	0.0028148934
94	0x3dd9f3fc	0.106422395
95	0x3db2bf8c	0.08727941
96	0xbb9d8c8f	-0.0048080157
97	0xbc1166b0	-0.00887458
98	0xbd007a76	-0.031366788
99	0xbc813c40	-0.0157758
100	0xbd00eb68	-0.0314745
101	0xbdb8883d	-0.090103604
102	0xbd52aa81	-0.051432136
103	0xbc7c0473	-0.01538192
104	0x3cfa3db4	0.030547
105	0x3dc618b7	0.09672683
106	0x3ddc8fe5	0.10769633
107	0x3db933df	0.09043097
108	0x3d8dbd3c	0.06920859
109	0x3db2255c	0.08698532
110	0x3d8d028d	0.06885252
111	0x3d5cad7d	0.05387639
112	0x3d05cd47	0.03266647
113	0x3d65fb4d	0.056147862
114	0x3a8b28d5	0.0010617027
115	0xbcc3925f	-0.023873506
116	0x3d1548a3	0.036446225
117	0xbd8d66e6	-0.06904392
118	0x3d5d2434	0.053989604
119	0x3def7d56	0.11693828
120	0x3da6e718	0.081495464
121	0xbd8c7182	-0.068575874
122	0x3d94d771	0.07267655
123	0x3cbe87be	0.023258086
124	0x3d5f65af	0.054540332
125	0x3d009149	0.031388555
126	0x3d8db56f	0.06919371
127	0xbda93f35	-0.08264009
128	0x3db2b089	0.08725078
129	0xbd965a0d	-0.073413946
130	0xbd52d25b	-0.05147014
131	0x3c924b81	0.017858269
132	0xbbe0f2a7	-0.006864864
133	0xbd7aac6d	-0.061199594
134	0x3d84f6bb	0.064923726
135	0x3c8acc22	0.016943041
136	0xbcad5468	-0.021158412
137	0x3d156f87	0.036483314
138	0xbd966db9	-0.07345147
139	0xbd972da8	-0.07381755
140	0x3d85fdcf	0.06542551
141	0x3d62f8ab	0.05541293
142	0x3d7b6c3e	0.061382525
143	0x3d39ec64	0.045391455
144	0xbd599a1f	-0.053125497
145	0x3d95ad35	0.07308427
146	0x3d050191	0.032472197
147	0x3d8eeaf4	0.069784075
148	0xbd8915d1	-0.06693614
149	0xbdb9df34	-0.09075776
150	0xbd756d3b	-0.059918623
151	0xbd34dc29	-0.044155274
152	0x3bc879a1	0.006118015
153	0xbbf790f4	-0.0075551216
154	0x3dc7c125	0.09753636
155	0xbc889bcb	-0.01667585
156	0xbc79f476	-0.015256038
157	0x3d7d9002	0.061904915
158	0x3ddcb448	0.107765734
159	0x3bf6da09	0.007533316
160	0x3dac44dd	0.08411572
161	0xbd496e16	-0.04917725
162	0x3dad2979	0.08455176
163	0x3ce6fd55	0.02819697
164	0x3be5d92a	0.0070144134
165	0x3db01e9d	0.08599589
166	0x3d904061	0.07043529
167	0xbd6747d4	-0.056464985
168	0xbd0a6ba2	-0.033794053
169	0xbdaf584c	-0.08561763
170	0xbc64641b	-0.013939883
171	0x3a0205d0	0.00049599726
172	0x3d24c800	0.040229797
173	0x3c866662	0.016406242
174	0xbd657941	-0.05602384
175	0x3db5e7ee	0.08882128
176	0xb9bba5d1	-0.00035790962
177	0xbd3b2bd9	-0.045696113
178	0x3d2d5cba	0.04232476
179	0x3d51b061	0.0511936
180	0x3d069b9b	0.03286324
181	0xbd190fd2	-0.037368603
182	0xbc2b4ac9	-0.010454842
183	0x3d8bf54c	0.06833896
184	0x3d6b411f	0.05743515
185	0xbb29c1b6	-0.0025902814
186	0xbca53a63	-0.020169443
187	0x3d9cd9a4	0.07658699
188	0xbc5f6072	-0.013633834
189	0x3d1558cd	0.03646164
190	0x3d71a170	0.05899185
191	0xbd9d6001	-0.07684327
192	0xbd42b097	-0.04753169
193	0xbd826234	-0.06366387
194	0x3b816de4	0.0039498676
195	0xbce06968	-0.027394012
196	0xbd467507	-0.04845145
197	0x3dbf978f	0.093550794
198	0x3dd56953	0.104204796
199	0xbc8d908a	-0.017280836
200	0x3c9169f7	0.017750723
201	0xbb4bb90a	-0.0031085634
202	0x3b8cb543	0.004294069
203	0x3d6cb198	0.057786554
204	0x3d1b722d	0.037950683
205	0x3db62c4c	0.08895168
206	0xbd4746c2	-0.048651464
207	0xbda9a227	-0.08282881
208	0xbc816107	-0.015793337
209	0x3c998e23	0.018744534
210	0x3b3ac640	0.0028499514
211	0x3db8bc11	0.09020246
212	0x3d701aa8	0.05861917
213	0x3d1a5bc6	0.03768518
214	0x3b3770a3	0.002799072
215	0xbbfe3067	-0.007757235
216	0xbc2ed5ab	-0.01067106
217	0x3c08be2f	0.008346125
218	0xbc8c6d57	-0.017141981
219	0x3c159ca2	0.009131582
220	0x3d760695	0.06006487
221	0x3d42ddd3	0.04757483
222	0x3d41222f	0.04715174
223	0x3d2daf7e	0.04240369
224	0xbc49c62f	-0.012315317
225	0xbd1e185d	-0.038597453
226	0x3d525779	0.05135295
227	0x3ba7491c	0.005105151
228	0x3db761c4	0.08954194
229	0xbbe61f8a	-0.0070228027
230	0x3dcfa887	0.10139566
231	0xbd92ba26	-0.07164411
232	0x3df111c8	0.1177097
233	0xbcae5969	-0.021282868
234	0x3c2d11fc	0.01056337
235	0xbcb85d09	-0.0225053
236	0xbc8bb8df	-0.017055927
237	0x3d0e856e	0.034795217
238	0x3ddb297a	0.107012704
239	0xbc69629d	-0.014244703
240	0xbc1e565d	-0.009664145
241	0xbd29dfba	-0.041473128
242	0xbc6a222d	-0.014290375
243	0xbaf35c58	-0.0018566949
244	0x3dc90058	0.09814519
245	0xbda8dc59	-0.08245153
246	0xbd8b6e83	-0.06808188
247	0x3cb8f486	0.022577535
248	0xbcdbb5d2	-0.026820097
249	0x3d25e1a1	0.04049838
250	0x3d27c9ba	0.040963866
251	0xbd68ebac	-0.05686538
252	0x3ca29eec	0.01985117
253	0x3ce6a40e	0.0281544
254	0x3c777e81	0.0151058445
255	0xbda8c752	-0.08241142

6.bias f4 [128]
0	0x3c10ad94	0.008830447
1	0x3e131e99	0.14367141
2	0x3ce1f077	0.027580483
3	0x3da502fb	0.08057209
4	0xbd86d725	-0.06584004
5	0xbcbba0c3	-0.022903806
6	0x3e5efdf7	0.21776567
7	0x3d4a5d48	0.049405366
8	0x3e697677	0.22799097
9	0x3e4bf446	0.19917402
10	0x3c6bd01f	0.014392882
11	0xbde37c79	-0.11107726
12	0xbdaf8ff3	-0.08572378
13	0x3bc20d28	0.0059219785
14	0x3c603fec	0.013687115
15	0x3d505c66	0.050869368
16	0xbdbc41e5	-0.09192256
17	0xbc4f3a33	-0.012648153
18	0xbd9d8352	-0.07691063
19	0x3c7e8260	0.0155340135
20	0x3d6c4a98	0.057688326
21	0x3e22edb7	0.15910994
22	0xbd41901a	-0.047256567
23	0xbda0c76a	-0.07850535
24	0xbb33e694	-0.0027450668
25	0x3d0f9f3e	0.035063975
26	0x3cf6ca6f	0.030125825
27	0xbd29b15c	-0.04142891
28	0x3cfe349e	0.03103095
29	0xbd71031a	-0.05884085
30	0x3d8906e0	0.066907644
31	0xbd2201ef	-0.039552625
32	0x3e2a42de	0.1662707
33	0xbccbb196	-0.024864953
34	0x3c1113f6	0.008854857
35	0xbd87ddb6	-0.06634085
36	0xbde9d527	-0.11417609
37	0x3d512f67	0.051070597
38	0x3cbc0321	0.02295071
39	0x3e08ed77	0.13371836
40	0xbd82e9e1	-0.06392265
41	0x3e729e97	0.2369331
42	0x3e0b9595	0.1363128
43	0x3adf1316	0.0017019238
44	0xbdaf575f	-0.085615866
45	0x3d27b088	0.040939838
46	0x3d8219cf	0.06352579
47	0xbdd096d8	-0.10185021
48	0xbcf4ce8e	-0.02988365
49	0xbc99aa49	-0.018757956
50	0xbd8f5fac	-0.0700067
51	0xbdbc513d	-0.091951825
52	0x3d59a349	0.053134236
53	0xbc6fcb33	-0.014635849
54	0x3d9a5aed	0.07536874
55	0x3e06d652	0.13167694
56	0xbd63aebb	-0.055586558
57	0xbb5a70ef	-0.0033331474
58	0x3e54a126	0.20764598
59	0xbd56d6ad	-0.052450825
60	0x3d251f16	0.04031285
61	0xbd2a618c	-0.041596934
62	0x3bd4dca3	0.0064960285
63	0x3e89d16e	0.26917595
64	0x39db20d8	0.00041795406
65	0xbcc3f879	-0.023922192
66	0xbd2b2500	-0.041783333
67	0x3cffaa60	0.03120917
68	0xbdad9afa	-0.08476825
69	0xbd4916ee	-0.049094133
70	0xbd023002	-0.031784065
71	0x3d110fba	0.03541539
72	0x3d336c7f	0.04380464
73	0xbda44b05	-0.08022121
74	0x3c03a51e	0.0080349725
75	0x3e31ed54	0.1737569
76	0x3c42483b	0.011858041
77	0xbdb23608	-0.08701712
78	0xbd0d625b	-0.034517627
79	0xbd060c43	-0.032726537
80	0x3b7639c5	0.0037571054
81	0xbbac802e	-0.0052643036
82	0xbdbab560	-0.09116626
83	0xbd0ffb36	-0.035151683
84	0xbd5c1b1f	-0.053736802
85	0xbcf8622a	-0.030320246
86	0x3c5fa479	0.013650053
87	0x3c0756b2	0.008260416
88	0xbb14d498	-0.0022709724
89	0xba547c27	-0.00081056583
90	0xbd61654f	-0.055028256
91	0x3d9805e0	0.074229956
92	0xbdeb22fa	-0.114812806
93	0xbd9873a1	-0.074439295
94	0xbd45d460	-0.04829824
95	0xbdb10825	-0.086441316
96	0xbc202093	-0.009773391
97	0x3d08f12d	0.03343313
98	0x3ca096fe	0.019603249
99	0x3e094556	0.13405356
100	0xbcfe7f8c	-0.031066678
101	0x3e1335c0	0.14375973
102	0xbd9a1e01	-0.07525254
103	0x3e9bc950	0.30427027
104	0xbd90af15	-0.07064644
105	0xbdc0f333	-0.094213866
106	0xbd327147	-0.04356506
107	0xbd0aecb0	-0.03391713
108	0x3b8d993f	0.004321247
109	0xbd33f7dd	-0.043937553
110	0x3ddc8667	0.10767823
111	0xbd6aa931	-0.05729026
112	0xbbbc156f	-0.00573986
113	0x3d6fdf92	0.058562823
114	0xbd96d33a	-0.07364507
115	0x3d08a14c	0.03335695
116	0x3d0ba90d	0.034096766
117	0xbd7e7ede	-0.06213271
118	0x3d731622	0.05934728
119	0xbc7264f1	-0.014794574
120	0xbe0172b6	-0.12641415
121	0xbd486931	-0.048928443
122	0x3e221e21	0.15831806
123	0xbca3baad	-0.019986475
124	0x3d2c212f	0.042023834
125	0x3e895bfc	0.2682799
126	0x3e06f5a1	0.13179637
127	0x3c4f6246	0.012657708

8.weight f4 [49, 128]
0	0x3d93eec1	0.07223273
1	0xbda84096	-0.08215444
2	0xbcb6ee7c	-0.022330515
3	0x3d274353	0.04083569
4	0xbe0cb28b	-0.13739984
5	0x3daaeb29	0.083456345
6	0xbe460526	-0.19337901
7	0x3dc01768	0.093794644
8	0xbe23b0b9	-0.15985383
9	0xbe23d254	-0.15998203
10	0xbdde7456	-0.10862033
11	0x3c8a47b2	0.01687989
12	0xbb68361b	-0.003543264
13	0x3b354267	0.0027657987
14	0x3cffb1e0	0.031212747
15	0x3b8d0671	0.0043037464
16	0x3d0897e8	0.033347994
17	0x3d60e291	0.05490357
18	0x3c5ebd97	0.013595006
19	0x3d7960b6	0.060883246
20	0x3d82cd3b	0.06386801
21	0xbd6cd109	-0.05781654
22	0xbda2dbf7	-0.07952111
23	0x3db97cb9	0.09056992
24	0xbd2b6e93	-0.0418535
25	0x3d057e32	0.032591052
26	0x3d8fbaf5	0.07018081
27	0xbc97b7ee	-0.018520322
28	0xbd6ea935	-0.058266837
29	0x3c0d1266	0.008610344
30	0x3dae00ea	0.08496268
31	0x3d835697	0.06413
32	0xbdca2f14	-0.09872261
33	0x3dabf9de	0.08397268
34	0x3c90ce32	0.017676447
35	0x3d9a8efb	0.075468026
36	0xbda3de8c	-0.08001432
37	0xbc617927	-0.013761795
38	0x3d1c50d9	0.03816304
39	0xbe4cebcf	-0.20011829
40	0x3b95cbb4	0.0045714024
41	0xbe758fdb	-0.23980658
42	0xbd11e30d	-0.035616923
43	0xbcc80dc0	-0.024420619
44	0x3d34d9e6	0.044153117
45	0x3d81f5d4	0.06345716
46	0x3a8517c7	0.0010154181
47	0xbc321a00	-0.010870457
48	0x3b9b65e2	0.00474237
49	0x3cec5523	0.02884919
50	0xbcd2f0af	-0.025749533
51	0xbd04271b	-0.032263856
52	0xbd7cd9fb	-0.06173132
53	0x3d60a288	0.054842502
54	0xbd22772a	-0.039664425
55	0xbd9f2e12	-0.07772459
56	0x3d87c4f8	0.06629366
57	0x3d85cf26	0.06533651
58	0xbcf1cf73	-0.029517865
59	0xbdbf6071	-0.093445666
60	0xbc98d814	-0.018657722
61	0xbd9f873d	-0.077894665
62	0xbd2bca7a	-0.041941144
63	0xbe29cc8b	-0.16581933
64	0xbd96e707	-0.07368284
65	0x3da8ff83	0.0825186
66	0x3b878d10	0.004136689
67	0xb7fc9fa4	-3.011508e-05
68	0xbcfcf186	-0.030876886
69	0x3d61899e	0.055062883
70	0x3ded8233	0.11597099
71	0x3db10d73	0.08645143
72	0xbc7688e7	-0.0150472885
73	0x3ce9ca4d	0.028538847
74	0x3da8bc32	0.082390204
75	0xbdd7279c	-0.10505602
76	0xbd695b17	-0.056971636
77	0xbb180cd6	-0.002320101
78	0xbc9fdca0	-0.019514382
79	0x3d07af6e	0.033126287
80	0xbd0ab388	-0.03386262
81	0x3db78dd8	0.089626014
82	0xbd36ee2c	-0.044660732
83	0xbdacc24f	-0.08435499
84	0xbd113ccb	-0.035458367
85	0x3d927ced	0.07152734
86	0x3d36ba08	0.044611007
87	0xbd9eb58d	-0.07749472
88	0x3d3e6f52	0.046492882
89	0x3d5bcf0b	0.05366425
90	0x3c792d0b	0.015208493
91	0xbd7a4002	-0.0610962
92	0xbd6ecb36	-0.058299266
93	0xbafa7184	-0.0019107317
94	0xbe0ef50d	-0.13960667
95	0x3d058eec	0.032607004
96	0x3da752c1	0.08170081
97	0x3d1209f2	0.035654016
98	0x3d14a564	0.03629054
99	0xbdf00689	-0.117199965
100	0xbcf4a069	-0.029861646
101	0xbe2dd2c1	-0.16974927
102	0xbd0d6d9a	-0.034528352
103	0xbe6c321c	-0.2306599
104	0x3dd56b5e	0.10420869
105	0x3e28fd35	0.16502841
106	0xbd6be1ba	-0.057588317
107	0x3d438db2	0.047742553
108	0x3b83e0d2	0.0040246034
109	0xbd5559f1	-0.052087728
110	0x3cdbb5ac	0.026820026
111	0x3d785c62	0.060634978
112	0xbcf2b3f2	-0.02962682
113	0x3d13f1a9	0.036119137
114	0x3d1ddec5	0.038542528
115	0x3d9233c8	0.07138783
116	0xbd1196ed	-0.035544325
117	0x3d085018	0.03327951
118	0xbde566ae	-0.11201225
119	0x3da4db5f	0.08049654
120	0xbd968d1c	-0.07351133
121	0xbd4a97c3	-0.049461138
122	0xbe7f3832	-0.2492378
123	0x3c179a3b	0.00925308
124	0xbd0bad36	-0.034100734
125	0xbe026443	-0.1273356
126	0xbd31d412	-0.043415137
127	0x3d907453	0.07053437
128	0x3d27f3f7	0.041004147
129	0xbdcbf1ed	-0.09958253
130	0x3cb2f4a2	0.021845166
131	0xbc0b08b9	-0.008485966
132	0xbc817029	-0.015800552
133	0x3d11c670	0.035589635
134	0xbd3ac4af	-0.04559773
135	0x3da1c33c	0.07898566
136	0xbe32c0f8	-0.17456424
137	0xbcc4c873	-0.024021363
138	0xbe1f2d2d	-0.15544577
139	0xbcfd0ec3	-0.030890828
140	0x3d4a19c8	0.049340993
141	0x3ccdbe3e	0.025115129
142	0x3d93a80c	0.07209787
143	0x3c0c35b9	0.00855773
144	0x3db25d37	0.087091856
145	0x3cc0b1fe	0.023522373
146	0x3d2a9066	0.041641615
147	0xbcc52976	-0.024067622
148	0x3d14be97	0.036314573
149	0xbe144351	-0.14478804
150	0x3b1d18d2	0.0023971093
151	0x3df87eaa	0.12133534
152	0xbc31afb4	-0.010845114
153	0x3c3ac987	0.011400587
154	0x3d04a334	0.032382205
155	0xbd8704b8	-0.06592697
156	0x3c4dbcd4	0.012557227
157	0x3b5571dc	0.0032569086
158	0xbd397496	-0.0452772
159	0xbcbf00b4	-0.023315765
160	0xbdd3dd5b	-0.103449546
161	0xbbf5861d	-0.007492794
162	0x3dfd5774	0.12370196
163	0x3d43e353	0.047824215
164	0x3d1ddee7	0.038542654
165	0xbd36036a	-0.04443685
166	0x3cb5d9a4	0.022198506
167	0xbdec65e7	-0.11542874
168	0x3d3c9851	0.046043698
169	0xbe8998b0	-0.26874304
170	0xbe0af967	-0.13571702
171	0x3d897d8e	0.06713401
172	0x3d3b1dfe	0.0456829
173	0xbd3732b1	-0.044726077
174	0x3d9ee185	0.07757858
175	0x3d8964ea	0.06708701
176	0xbd0d6a3f	-0.034525152
177	0x3d000898	0.031258196
178	0xbc8233b6	-0.015893798
179	0x3c44d619	0.0120139355
180	0xbe1a4033	-0.15063553
181	0xbd7742ed	-0.06036656
182	0xbd230439	-0.03979895
183	0xbd33c224	-0.04388632
184	0xbd8626a3	-0.06550338
185	0x3c3c32b0	0.011486694
186	0xbe27f734	-0.16402894
187	0xbe21563f	-0.15755557
188	0x3d64c891	0.055855338
189	0x3b381dc7	0.002809392
190	0xbd597031	-0.05308551
191	0xbdd0d568	-0.10196954
192	0xbd13c5ea	-0.036077417
193	0xbd90a6be	-0.070630535
194	0x3d81afa1	0.06332327
195	0x3c2dd1d4	0.010609109
196	0xbd52566a	-0.051351942
197	0x3d363172	0.04448075
198	0x3c08f1aa	0.008358398
199	0x3dd51dfd	0.104061104
200	0xbd9ef997	-0.07762449
201	0xbc930302	-0.01794577
202	0x3c9964d5	0.018724838
203	0xbd460b88	-0.04835084
204	0x3d987804	0.07444766
205	0xbdb6e43f	-0.08930253
206	0xbd8ab60d	-0.06773005
207	0x3adca94d	0.0016835124
208	0x3d099b96	0.033595644
209	0xbd99dafb	-0.0751247
210	0x3b91a4a0	0.0044446737
211	0xbc9e4983	-0.019322162
212	0x3d9a31b7	0.075290136
213	0x3caf9eec	0.021438085
214	0x3d83e976	0.064410135
215	0xbe051c5e	-0.12999102
216	0x3da8cc95	0.08242146
217	0x3d969614	0.07352844
218	0xbcf434ae	-0.029810276
219	0xbde0b266	-0.10971527
220	0xbd9920f5	-0.07476989
221	0xbd625884	-0.055260196
222	0xbe2003d6	-0.15626463
223	0x3cc8b3dd	0.024499828
224	0xbd1cc62e	-0.038274936
225	0x3c85cd39	0.01633321
226	0xbcd25221	-0.025673928
227	0xbd897afd	-0.06712911
228	0x3c90052f	0.017580597
229	0xbe87ddff	-0.26536557
230	0x3d4691d5	0.04847892
231	0xbe32cf85	-0.17461975
232	0x3dd21fcf	0.10259973
233	0x3db607be	0.088881955
234	0x3d3b0e79	0.0456681
235	0xbdaed2e9	-0.08536322
236	0x3d9eec07	0.077598624
237	0x3d32aefe	0.043623917
238	0xbd982084	-0.07428077
239	0x3db80390	0.089850545
240	0xbc71c9fb	-0.014757629
241	0xbc8ebfb7	-0.017425401
242	0xbc674553	-0.014115649
243	0x3b76fa33	0.0037685751
244	0xbdffae49	-0.12484414
245	0xbc36e562	-0.011163088
246	0xbcd4bde6	-0.025969457
247	0xbd7ca572	-0.06168122
248	0xbd1cdeee	-0.03829854
249	0x3d69cb80	0.05707884
250	0xbe5ced06	-0.21574792
251	0x3b8f3209	0.0043699783
252	0x3c8a276b	0.0168645
253	0xbe399b26	-0.1812559
254	0xbd8187d6	-0.06324737
255	0x3c81b3f3	0.015832877

8.bias f4 [49]
0	0xbdb829f9	-0.08992381
1	0xbd8150cb	-0.06314238
2	0xbdc10454	-0.09424654
3	0xbde1192d	-0.1099113
4	0xbdede695	-0.11616246
5	0xbd83239d	-0.06403277
6	0xbd45df01	-0.048308376
7	0xbdd02df2	-0.101650134
8	0xbe1372ea	-0.14399305
9	0xbdf63c44	-0.120232135
10	0xbdbfa962	-0.09358479
11	0xbdc5a029	-0.09649689
12	0xbe182ca2	-0.14860776
13	0xbe3a7457	-0.18208443
14	0xbe1bf460	-0.1522994
15	0xbdc602d1	-0.09668506
16	0xbe2a7d7c	-0.16649431
17	0xbe4bae6f	-0.1989076
18	0xbe573982	-0.21018031
19	0xbe28e757	-0.16494499
20	0xbe23bbcb	-0.15989606
21	0xbe1425f2	-0.144676
22	0xbe396f2a	-0.18108812
23	0xbe43ac8b	-0.19108789
24	0xbe6a4243	-0.2287684
25	0xbe07bea9	-0.13256325
26	0xbdac892f	-0.08424603
27	0xbe40a6fb	-0.18813698
28	0xbe3dc48f	-0.18532012
29	0xbdf9eb55	-0.12203089
30	0xbe3add63	-0.18248515
31	0xbe972094	-0.29517043
32	0xbdf718f1	-0.12065304
33	0xbe4dba45	-0.20090587
34	0xbe04f543	-0.12984185
35	0xbdb76d8f	-0.089564435
36	0xbdd3b713	-0.10337653
37	0xbe300e8c	-0.17193049
38	0xbe03a704	-0.1285668
39	0xbe05deb9	-0.13073243
40	0xbdf9e2f6	-0.122014925
41	0xbdb3ff05	-0.087888755
42	0xbe40d36c	-0.18830651
43	0xbe11c477	-0.14235102
44	0xbddf5691	-0.10905183
45	0xbdb34d04	-0.08754924
46	0xbd83303a	-0.06405683
47	0xbe0a46bf	-0.1350355
48	0xbe22b344	-0.15888697
