models/snapsRandom/model_1685762733.9343019.pt (torch, 252563 bytes, 10 tensors)

0.weight f4 [128, 49]
000000 2d 86 a5 bd b6 2c e4 3d f2 f2 0f 3d 29 34 1d be
       -0.080822326 0.111413404 0.0351438 -0.15351929
000010 b2 e6 4a 3d 3e 3b 4a bd 7a 0e ae bd 72 61 94 3d
       0.049536414 -0.049372904 -0.08498855 0.07245149
000020 0a 10 16 bd 9a b2 fd bd 17 5b e2 3d ff ec 2c 3e
       -0.03663639 -0.12387581 0.1105253 0.16887282
000030 4d 35 19 bd 68 09 ca 3d a6 f0 b3 3b 69 6c e1 bd
       -0.037404347 0.09865075 0.005491334 -0.11007006
000040 2b d2 50 bc c0 04 a9 bd 56 1d 0f bc 5d 6e 8a 3c
       -0.01274542 -0.08252859 -0.008735022 0.016898328
000050 c5 11 e7 bc 36 a9 b4 bd 75 9e 7a 3e 62 34 e2 bd
       -0.028206715 -0.08821337 0.24474509 -0.110451475
000060 da 70 2e bd 9d a2 a5 bd 7b 69 78 bd 6b 48 70 3d
       -0.042588092 -0.08087657 -0.06064747 0.058662813
000070 18 82 20 3e 69 30 70 bd bc ac 36 3e 67 23 ed bc
       0.15674627 -0.058639918 0.1783933 -0.028947545
000080 ef 83 87 bb aa 4f 28 3d 13 8b 71 bd 6d af 0f 3e
       -0.0041356008 0.0410916 -0.058970522 0.14031763
000090 98 73 8a bd 61 28 05 bc 92 b5 44 be ad 17 ac bb
       -0.06760329 -0.008127303 -0.19209889 -0.005251846
0000a0 9b 80 fb bd 73 85 8e 3d 41 8a 48 3e 0f 34 31 bd
       -0.12280389 0.06959047 0.1958399 -0.043262538
0000b0 b8 d8 ca bd 6e 05 06 3e 08 c9 f8 3d 1f bb 27 be
       -0.09904617 0.13088009 0.12147719 -0.16379975
0000c0 26 27 95 bd cb 7b 7f 3b bf cb 18 bd f9 b3 fe bd
       -0.072828576 0.0038983698 -0.037303682 -0.12436671
0000d0 ae ca 6c 3d bc 46 fb 3d 65 a4 11 bb ff fa 00 be
       0.057810478 0.12269351 -0.002222323 -0.12595747
0000e0 33 e6 31 3d 63 fa d9 3d d0 6e 22 3c 80 88 03 3e
       0.043432426 0.106434606 0.009914115 0.1284504
0000f0 08 0b 8f 3d 18 c7 57 3d 8e df a9 3c ff 79 0e be
       0.06984526 0.052680105 0.020736482 -0.13913725
000100 22 5f fa bc cf e0 0f 3e e9 70 84 bd 45 64 16 be
       -0.030562941 0.14050601 -0.064668484 -0.14686687
000110 47 98 68 3e 7c fd 28 3e 3b 48 e0 3c 92 12 39 3d
       0.22714339 0.16502947 0.027378192 0.045183726
000120 3d d3 0d 3e b5 72 3d be 9b 79 1c be 35 77 39 bd
       0.13850112 -0.18500789 -0.15280764 -0.0452797
000130 72 3b 93 3d d9 3f 25 3d 9d 36 d2 bb 97 cc 00 3e
       0.07189073 0.040344093 -0.006415202 0.12578045
000140 8a c5 31 be 71 e1 e5 bd 05 b4 fd bd ce 1d 62 3e
       -0.17360511 -0.1122464 -0.123878516 0.22081682
000150 74 fb df bd 96 b3 fc 3c 65 3f 02 bd 65 04 f7 bd
       -0.10936633 0.030847352 -0.03179874 -0.12061385
000160 43 d3 a0 3d aa da 99 3d 92 84 07 bd 31 0e d9 3d
       0.07852795 0.0751241 -0.033085413 0.1059841
000170 83 3f 91 bc 25 a2 56 be 11 1d 6e bd 4d b8 fe 3d
       -0.01773048 -0.2096029 -0.05813319 0.12437496
000180 df 6e b3 3c af 53 95 bd e7 d1 21 3d 3e bd 2f be
       0.021903453 -0.07291352 0.03950682 -0.17162034
000190 1c 4a 54 3d be 0a fa bd 5e 89 da bc 72 f5 81 be
       0.05182849 -0.1220908 -0.02667683 -0.25382572
0001a0 e5 99 54 3d 35 2d 77 3d 31 c6 0a 3e 65 ab 0a bd
       0.051904578 0.060345847 0.13552167 -0.03385486
0001b0 70 d1 74 bd f4 60 2a 3e d6 a5 63 be 2d 04 3d 3d
       -0.059770048 0.16638547 -0.2223123 0.04614656
0001c0 bf ee 0c be f8 e4 5e 3c 10 ab 01 3e 5e 65 ce bd
       -0.1376295 0.013604395 0.12662911 -0.10077928
0001d0 b4 f4 9b bd fd 8f e9 bc 8c 4d 8f bd 60 11 cf 3d
       -0.07615033 -0.028511042 -0.06997213 0.10110736
0001e0 a8 78 40 be 45 51 62 3d 5c e2 ea bc d2 aa 6e 3c
       -0.18796027 0.055253286 -0.02867239 0.014567094
0001f0 62 7a cd bd 63 4b ed 3d 8a ae 16 be 87 19 4d 3d
       -0.10033108 0.115866445 -0.14715019 0.050073173
000200 67 58 13 3c fd d5 c3 bd 0a e6 60 3d ca e6 d1 bd
       0.008993245 -0.095622994 0.054906882 -0.10249098
000210 62 08 13 3d 7b 85 93 bd 0d c9 2b 3d 84 6e f6 bd
       0.035896666 -0.07203194 0.041939784 -0.12032798
000220 df a7 56 3c 92 c6 b3 bd 3c 4d 85 bd b3 40 2a 3e
       0.013101547 -0.08778109 -0.06508872 0.16626243
000230 f5 5d d5 bc ab 64 0c bd d1 ac 26 be da 7a be 3d
       -0.026045779 -0.034275692 -0.16276862 0.09300776
000240 93 53 4a 3d 9e 69 bc bd fe 95 7c 3d 87 e8 b8 3d
       0.04939611 -0.091998324 0.06166648 0.09028726
000250 18 34 cd 3c 5e 71 47 bd 00 63 9b bd cc 39 d1 3d
       0.025049254 -0.0486921 -0.07587242 0.10216102
000260 d5 b2 17 bd cd e8 a8 bc d9 28 2b 3d 12 bd a8 3d
       -0.037035782 -0.02061882 0.041787002 0.08239187
000270 94 12 c1 3d 75 2f bd 3b 45 4e e2 bd eb 7a a2 be
       0.094273716 0.0057734796 -0.11050085 -0.31734404
000280 19 5a fe bc d3 f0 04 3e e2 42 91 3c c0 55 44 3d
       -0.031048821 0.12982492 0.017732088 0.04793334
000290 8a 65 82 3d 1a 38 49 bd 2d aa 40 be 2e 22 5c 3e
       0.06367023 -0.04912577 -0.18814917 0.21497414
0002a0 25 59 b1 3d 19 74 2d bd 8d c2 47 3d 29 3a 1c bd
       0.08659581 -0.042347047 0.048769522 -0.038141403
0002b0 3a 3f 0d bd 37 54 60 be 0b 7d 91 3d c5 6d 8e 3d
       -0.034484126 -0.21907125 0.07103928 0.069545306
0002c0 81 b3 cf bd a1 6a ca 3d ac e9 9f 3d 90 1c 54 bd
       -0.101416595 0.09883619 0.07808241 -0.05178505
0002d0 bd 0f 8c 3d dc 07 6b 3e e7 d4 e5 bb c2 76 3e 3e
       0.06838939 0.22952217 -0.0070139053 0.1859999
0002e0 60 6b 36 be 12 d1 ba 3d 01 d7 81 b9 23 ec d0 3d
       -0.17814398 0.09121908 -0.00024764988 0.102012895
0002f0 17 5c f6 3c 25 e2 87 bd 6f 5e ff 3d d1 ad 0e be
       0.030073209 -0.066349305 0.12469184 -0.13933493
000300 5c 93 bd 3d 3b b2 43 bd bf 67 82 bc a3 71 e8 3d
       0.09256622 -0.047777396 -0.01591861 0.113497995
000310 78 4c 8b 3c 42 d7 74 bd bc 45 f1 3c f4 fc b1 bd
       0.017004237 -0.0597756 0.029452197 -0.08690825
000320 8c 6b 54 bd 87 e6 52 3e 89 81 18 3e 39 e4 96 3c
       -0.051860377 0.20595752 0.14893164 0.018419372
000330 42 51 8d bc 22 9b f6 3c 24 aa 33 3e 7f a4 c5 3c
       -0.01725066 0.03010327 0.17545372 0.02412629
000340 1c 78 b6 bd 1d 9b 12 be 8a a5 76 bd f0 74 f5 bc
       -0.08909628 -0.14316984 -0.060216464 -0.029962987
000350 fe 9f cc 3d 94 ad b2 bc 83 0e 59 bd 88 2b 35 bd
       0.099914536 -0.021811284 -0.052992355 -0.044230968
000360 b5 ef 20 3d 25 57 8c bd ec d8 af 3c 38 8b 25 bb
       0.039291102 -0.06852559 0.021465741 -0.0025259983
000370 5c 22 88 be ba 1a bc 3d 4d ef 34 be 50 fb 24 be
       -0.26588714 0.09184785 -0.17669411 -0.16111493
000380 c0 23 3f bc e9 1e d2 bd 64 14 b3 3b 03 97 12 3e
       -0.011666238 -0.10259802 0.0054650772 0.14315419
000390 67 1d 22 3e d9 53 2c bd a8 c1 27 bd 80 2b a8 bc
       0.15831529 -0.04207215 -0.04095617 -0.020528555
0003a0 72 17 8a 3d 27 88 e7 3d e9 56 b6 bd fa 0b cd bd
       0.06742753 0.11305266 -0.089032955 -0.1001205
0003b0 78 6c 1c be ce 58 25 3d b5 3f af bd 36 9d 32 3d
       -0.15275753 0.040367894 -0.08557073 0.04360696
0003c0 a3 84 f7 3c d6 91 1c 3c d2 ef 05 3d 6c 23 27 3e
       0.030214613 0.009556254 0.032699414 0.16322106
0003d0 d4 25 e7 bd 7f 1a ce bc 70 35 9e 3d 7d fd d6 3c
       -0.11286512 -0.025159119 0.07725036 0.02624392
0003e0 a6 c1 84 bd 7a 86 02 3d 42 63 b4 bd aa 22 f7 3d
       -0.06482248 0.031866528 -0.088079944 0.120671585
0003f0 a0 c1 ec bd c3 29 18 bd fa 8d 7f bd c5 c2 21 ba
       -0.115603685 -0.037149202 -0.06239126 -0.00061706855

0.bias f4 [128]
000000 36 7f b7 3d 75 8a e2 3d 9c 57 c3 bb 13 90 e3 3d
       0.089598104 0.11061565 -0.0059613716 0.11111464
000010 b1 ab ca bd 93 31 04 3e bc be 07 be e2 b2 0b 3f
       -0.09896029 0.12909536 -0.13256353 0.5456983
000020 f1 bd 3b 3d aa 95 f4 be ef f6 43 3e 23 cf 9f 3e
       0.04583544 -0.47770435 0.19137166 0.3121272
000030 0f 5c c1 bd 98 c2 41 be 69 01 55 bd 2f 93 00 3e
       -0.09441387 -0.18921888 -0.052003298 0.12556146
000040 bc cf c5 bd 6f cb 60 be 84 b3 bc bc 6e 59 23 bd
       -0.09658763 -0.21952604 -0.023034818 -0.03988021
000050 61 60 d0 3d c4 fd 65 be ca ff 60 be b1 ba 65 be
       0.10174633 -0.22460085 -0.21972576 -0.22434498
000060 ff 18 0a be 2d 63 40 3d 75 6f 58 3e b1 98 d7 3e
       -0.13486098 0.04696958 0.21136267 0.42108682
000070 2f 4f 92 be 03 24 78 3e 0c 60 23 3e a1 21 aa be
       -0.28576037 0.24232487 0.15954608 -0.33228782
000080 4d 29 7b be 86 18 bd be de 9b 13 bd d7 af 57 be
       -0.24527474 -0.36932772 -0.03603732 -0.21063171
000090 5a 89 54 3e 40 57 0c be ef 5b a8 3d fb 21 b9 bd
       0.2075552 -0.13705158 0.0822066 -0.090396844
0000a0 2e 19 f1 bd 6a 2f 1f be c6 15 2c 3c 52 e2 01 be
       -0.11772381 -0.15545431 0.010503238 -0.1268399
0000b0 0c 61 38 be 1e bf ab bd e0 4a db 3e 57 12 3a bd
       -0.1800577 -0.08386062 0.42830563 -0.045427646
0000c0 80 8a ae be 6b 59 5e 3e 20 25 6e be 76 dc 5a be
       -0.34090042 0.21713798 -0.2325635 -0.21373162
0000d0 8f 59 81 be 89 46 41 3e 94 5d 48 be 17 64 e9 bc
       -0.2526364 0.18874563 -0.19566947 -0.02849011
0000e0 2e cb a8 3e 99 e8 0a 3e 59 30 e9 3d 4a 88 fb bd
       0.32967514 0.13565291 0.11386175 -0.122818545
0000f0 81 bf ae b9 94 a9 c5 bc a4 cd 56 be 96 03 28 3e
       -0.00033330548 -0.024128713 -0.20976883 0.16407618
000100 fc fc 08 be 1e e2 e2 3d 4c cc 56 be 92 17 4a be
       -0.13377756 0.11078285 -0.2097637 -0.19735554
000110 f6 2c 0b be ad f9 57 be 1b 79 b4 3e 56 f9 37 3e
       -0.1359137 -0.21091338 0.35248646 0.17966208
000120 05 c2 92 3d 9a 40 bb bd d3 36 17 3d 62 a6 82 3d
       0.071659125 -0.09143181 0.03691752 0.06379391
000130 67 2b d8 bd 81 f6 64 be 31 29 cc 3c 81 f2 10 3e
       -0.10555153 -0.22359659 0.024921985 0.14155008
000140 0f ec 75 be ca bf 13 3e 7b 71 c2 3d a0 aa 9b 3c
       -0.2401583 0.1442863 0.09494301 0.019002259
000150 8b 1a 52 be a1 ba b6 bd f9 ff 87 3e 01 97 2f 3e
       -0.20517938 -0.089223154 0.2656248 0.17147447
000160 c8 cb 02 be a6 80 01 3d b1 99 13 3e 48 cf d9 bd
       -0.12773049 0.03161683 0.14414097 -0.10635239
000170 a1 6d 00 be 72 5e 18 be b7 18 85 3e 82 5a 57 be
       -0.1254182 -0.14879778 0.25995418 -0.2103062
000180 57 88 47 ba 91 d4 8d bd a8 31 b4 3e b1 ff 88 bd
       -0.0007611564 -0.069253094 0.35194135 -0.06689394
000190 31 ec b1 3e 16 6a 7b be a1 53 26 be f9 c8 d3 3c
       0.34750512 -0.24552187 -0.1624284 0.025852667
0001a0 df 5b 92 be 39 6b 87 bd 4a 54 5a 3e a5 a0 17 be
       -0.28585717 -0.06612248 0.21321216 -0.14807375
0001b0 0b 2e 6a be 5f ea 1c be 98 44 27 be 53 84 92 be
       -0.22869126 -0.1532378 -0.1633476 -0.2861658
0001c0 ef 63 01 be 38 b1 16 be 0f 26 de 3d e2 ee 64 be
       -0.12635778 -0.14716041 0.10847103 -0.22356752
0001d0 8d 07 e8 3d 87 c3 7a bd fb 05 82 bd cd c1 46 be
       0.11329565 -0.061221626 -0.06348797 -0.19409867
0001e0 8a 64 d9 3d 6a 53 19 be 0b 73 51 3e 8b b7 93 be
       0.106148794 -0.14973226 0.20454042 -0.2885097
0001f0 25 77 4c be fa 82 66 be ee cd 25 3d 40 1e b1 3c
       -0.19967325 -0.22510901 0.040479593 0.02162087

2.weight f4 [128, 128]
000000 52 64 35 3d 34 84 04 bc f7 e9 ff bc bd 03 6a bd
       0.044285126 -0.00808816 -0.031239493 -0.05713247
000010 ec 20 6e 3d 1d b0 6a bc 46 56 2a bd 61 65 09 3d
       0.058136865 -0.014324215 -0.041586183 0.033543948
000020 fc ec 0c 3c ef da 07 bd 60 80 d4 3b 7f ad 84 3d
       0.008601423 -0.033167776 0.00648503 0.06478404
000030 2e a5 1a bb ac cd 16 bd 4d cc 9c 3d 77 fd 45 bd
       -0.002359699 -0.036817238 0.07656155 -0.048337426
000040 ab f5 79 bd a3 f5 29 bd 71 51 a8 bd f0 0e 17 3d
       -0.061025303 -0.041494023 -0.08218659 0.03687948
000050 58 22 ab 3d dc a0 9c bd 1d 5b 3e 3d f5 11 1f 3c
       0.0835616 -0.07647869 0.04647361 0.009708871
000060 97 1d 2f bc eb e9 7c bd f9 6e 20 bd 0b a4 30 bc
       -0.010688207 -0.06174652 -0.03916833 -0.010781298
000070 72 b7 c8 3c 6b 32 5b 3d b3 c7 84 bd 90 3c 97 bc
       0.024501536 0.05351488 -0.06483402 -0.018461496
000080 ae 63 24 bc 6c b6 d2 3b 20 ee 7e bd 66 25 45 3d
       -0.010033531 0.006430438 -0.062238812 0.04813137
000090 15 a8 c4 3c 21 41 52 bd 57 6d 4e bd 1e 2d e4 bb
       0.024005929 -0.051331643 -0.050397243 -0.006963386
0000a0 9c e8 a7 3c dc 8e 7d bd d2 97 a7 3c 46 5c 1e bd
       0.020496659 -0.06190382 0.020458136 -0.038662218
0000b0 0e b7 d7 bb c3 4d 88 3c 56 2d 3d 3d 51 b5 82 3b
       -0.006583101 0.016638642 0.046185814 0.0039888998
0000c0 fc 4e 44 bd 11 31 a2 bd 67 d8 3d 3d 91 57 9f 3d
       -0.047926888 -0.07919515 0.046348955 0.07780374
0000d0 42 bd 59 bd af 82 60 bd 8c 49 01 3c 4c e4 5b bc
       -0.053159006 -0.05481213 0.00789107 -0.013421129
0000e0 17 48 9b 3d c0 fc b6 3d f3 25 fb 3c 2c 6a bd 3d
       0.075821094 0.08934927 0.030657744 0.09248766
0000f0 2e 9e a6 3d 74 f3 07 bc 76 d8 82 3d 3e a9 9c bd
       0.08135639 -0.00829779 0.06388943 -0.07649468
000100 39 3f ea bc 9c 4e 9b 3d cb 5b 61 bd 9e 9c 60 bb
       -0.0285946 0.07583353 -0.05501918 -0.0034273039
000110 bf 58 8b bd ff e5 bf 3d df 5a 81 3d 7f 9c 4f bd
       -0.06804036 0.0937004 0.063161604 -0.050686356
000120 1c 51 ad 3d 1b 33 5d bd 34 73 8e 3d 7a 6d cd ba
       0.08462736 -0.054003816 0.06955567 -0.0015672885
000130 c9 b5 be bb 31 a5 83 3d 1e ec a4 bd b9 5b 3a bd
       -0.0058200103 0.06427992 -0.08052848 -0.04549763
000140 cf 15 04 bc c4 d7 8d bd e7 ac a7 3c 94 cb 8f bd
       -0.00806184 -0.0692592 0.020468188 -0.07021251
000150 98 77 78 bd 09 ab 06 3d b7 89 3c 3c f7 0d a5 3d
       -0.06066093 0.032877956 0.011507443 0.08059304
000160 73 32 93 bd 6f 72 9c 3d ab 48 72 3d 40 64 f5 bb
       -0.07187357 0.07639014 0.059151333 -0.0074887574
000170 41 ba 47 3d d2 e4 8e bd 52 f4 66 bd 2b 88 73 bd
       0.04876161 -0.06977238 -0.056385346 -0.05945603
000180 ed 72 97 bd 83 21 8e bd b0 3a 23 3d d9 09 b0 3d
       -0.07394967 -0.069399856 0.03985089 0.08595628
000190 25 47 20 3c 14 7a 0d bd b3 fe 6c bd 8e cd c0 bc
       0.009782587 -0.03454025 -0.057860088 -0.023535516
0001a0 d7 5b 51 3d 4a 3c 2d bd 5e d8 ea bc 5e e5 a1 bd
       0.051112976 -0.042293824 -0.028667625 -0.079050764
0001b0 c1 58 b3 3c 41 9f ad 3d d7 b3 39 3d 19 78 9b 3d
       0.021892907 0.08477641 0.045337524 0.07591266
0001c0 e4 70 60 3d 86 79 95 39 2e fd 82 bd 53 91 bb 3d
       0.05479516 0.00028510037 -0.063959464 0.09158578
0001d0 bf b5 96 bc 92 83 d0 3d 82 8f 65 bd 78 c0 d1 3b
       -0.01839721 0.10181345 -0.056045063 0.006401118
0001e0 3d 58 ad 3c d2 26 5f 3d 9f 5e 07 3c 09 d5 a5 bd
       0.02116024 0.05448038 0.0082623055 -0.08097274
0001f0 b7 08 14 3a fc 5e bb 3d 32 e2 33 3c a2 17 66 3d
       0.00056470506 0.09148976 0.010979222 0.05617488
000200 cf 9a 0b bd 40 3c 76 bd 42 35 5c 3d ba ff 35 3d
       -0.034083184 -0.060116053 0.053761728 0.044433333
000210 6b c7 99 bc 58 7b ce bc c6 dd 10 bd 66 73 b3 3c
       -0.018771848 -0.0252053 -0.03536775 0.021905612
000220 6e 23 81 3d a6 09 ae bd 8e 20 1a 3b cd bc 4a 3c
       0.06305586 -0.08497934 0.002351794 0.012374115
000230 6c a4 b7 bb 73 66 45 3d 61 c3 d2 3c 09 5e 90 3d
       -0.0056043174 0.048193406 0.02572793 0.07049186
000240 05 ee 2e bd ae 54 5f bc 38 d6 50 bc d2 76 4c bd
       -0.042707462 -0.013631029 -0.012746386 -0.049918003
000250 ba 66 21 bd 15 99 f7 bc 72 6b d1 bc a3 3b 30 bd
       -0.03940461 -0.030224362 -0.02556393 -0.043025624
000260 50 7c 56 3c ba 52 aa bd 90 7c 9f 3d be 2d f5 bc
       0.013091162 -0.0831656 0.0778743 -0.029929038
000270 97 6c 7a 3d 64 4a ee 3b 4f 83 97 bd 9d fd b5 bd
       0.061138716 0.0072720516 -0.07398092 -0.088862635
000280 18 1a 81 bc 99 f8 4f 3d fa 5d 4d 3c b9 07 66 3d
       -0.015759513 0.05077419 0.012534613 0.05615971
000290 2c f5 64 bd 64 16 ac bd 48 85 b0 bd 1d 60 bd 3c
       -0.055897877 -0.08402708 -0.086191714 0.02311712
0002a0 77 2f 3d 3d 7d 9c 1e bd c9 81 ba 3c 44 56 90 bd
       0.046187844 -0.038723458 0.022766965 -0.07047704
0002b0 d1 e8 85 bc 1f 15 99 3d 0c 0e e8 bc 02 a2 99 3d
       -0.016346367 0.07474732 -0.02832701 0.07501604
0002c0 58 03 5d bd af 9c 4b bd 60 d6 9f 3d b6 aa 8f 3d
       -0.053958267 -0.049709972 0.07804561 0.070149824
0002d0 d8 a1 9d 3c c3 f6 bd bc e6 29 11 3d 7a aa dd 3c
       0.019242212 -0.023188954 0.035440348 0.027058829
0002e0 e0 b9 23 bd 54 62 8b bd aa c6 d6 bb 94 12 2f bd
       -0.039972186 -0.06805864 -0.0065544443 -0.042742327
0002f0 51 6c f0 bc 33 ae 5b 3c 23 6e 9a 3d 3d 8b 8f 3d
       -0.029348524 0.013408232 0.07540538 0.070089795
000300 1f 98 8c 3d f2 6d 15 3d 09 b0 f5 3c ba 75 8d bc
       0.06864952 0.036481805 0.029991167 -0.01726805
000310 4d 58 fe 3b 74 1b f1 bb a3 5e 8e bd 49 e0 b3 3d
       0.007761991 -0.007358009 -0.06951644 0.087830134
000320 2a 3c 7a 3d d6 4c 15 3c 57 27 3f 3d bf 4b 24 3d
       0.061092533 0.009112557 0.046668377 0.0401113
000330 02 be 82 3d 13 7b 45 3d 5a e1 5c bc af bb a7 bc
       0.06383897 0.048213076 -0.013481462 -0.020475237
000340 d2 ad 4e bd 46 dd f0 3b d1 4a 89 3d e4 af a6 bd
       -0.050458737 0.0073505966 0.06703723 -0.08139017
000350 9e 25 b4 3c 5b 2d 4a bd 27 6d a1 3d 42 16 a0 bd
       0.021990594 -0.04935966 0.07882147 -0.07816745
000360 50 9e 2a 3c 4a d6 58 3d 26 2b ed bc 2d 81 1e 3c
       0.010413721 0.052938737 -0.028951239 0.009674353
000370 ba 37 f7 3c 3a f2 ac bb a6 9a e0 bc 8c f8 a8 3d
       0.03017794 -0.005277899 -0.027417492 0.082505316
000380 85 97 aa bd 09 6f 6a bd 2c ac 0a bd 36 72 f4 3b
       -0.08329681 -0.057234798 -0.033855602 0.007459904
000390 c1 02 67 bc ad 0d 6f 3c 43 8d 71 bc 14 56 3b bd
       -0.014099778 0.014590663 -0.014743152 -0.045736387
0003a0 26 91 2c 3c a1 03 7e 3d 70 41 27 3d f1 39 ad 3c
       0.010532653 0.06201518 0.04083389 0.021145793
0003b0 ee f3 73 bd 7d d6 4b 3d 65 7f 51 bc 36 4f 66 3d
       -0.0595588 0.0497651 -0.012786721 0.056227885
0003c0 e8 e1 04 bd 0a 19 8a bd d9 f2 77 3d 0a 74 9a bc
       -0.032442003 -0.06743057 0.060534332 -0.01885416
0003d0 f5 e2 1a bd fe 35 20 3d f2 b7 28 ba d3 75 08 bd
       -0.0378141 0.03911399 -0.00064361014 -0.03331549
0003e0 a2 50 6b bc 80 a0 22 b9 9f b7 76 3c 52 2d 81 3d
       -0.014362486 -0.00015509315 0.015058427 0.06307472
0003f0 8b 30 09 bd a4 c3 ec bc b2 2a 6d ba 69 8a 85 39
       -0.03349356 -0.028901882 -0.00090471946 0.0002547086

2.bias f4 [128]
000000 3e 8a bf 3d 9b 75 2c bd 18 fe cc bc 17 b0 c0 bc
       0.093525395 -0.042104345 -0.025023505 -0.023521466
000010 df c2 14 3d cd 6a ce bd 04 12 55 bc 1a 27 da bc
       0.036318656 -0.100789644 -0.013004784 -0.026629973
000020 2d 92 18 3e 1d cd 18 be a4 12 39 3c 03 a2 ef bd
       0.14899512 -0.14921995 0.011295948 -0.11700823
000030 4b f3 9a bd ea 75 87 3d c1 15 ba bd 15 2a 41 3e
       -0.07565936 0.06614287 -0.090861805 0.1886371
000040 ca 35 04 3e 48 03 53 3e 34 32 73 bd 59 e6 93 bc
       0.12911144 0.2060672 -0.05937405 -0.018054174
000050 5f 94 2e 3c 9c ab 06 be 2e 32 85 bd 09 a4 6b bd
       0.010655492 -0.13151401 -0.06503712 -0.057529483
000060 33 2f 6d bd cb aa b5 bc a6 0a 3a be db ad 90 bc
       -0.05790634 -0.022176167 -0.18168125 -0.017661026
000070 4e ee 51 3c dc 7c b8 3c 8f 89 fa 3d 7e e6 d9 bd
       0.012813164 0.022520475 0.122332685 -0.10639666
000080 2d 7d 2b 3e 18 f2 eb 3d 95 1e a6 bd 70 bf e6 bd
       0.1674697 0.11520785 -0.08111302 -0.112669826
000090 76 70 bb 3d c3 46 79 3c 4d 91 af be 55 fb f2 bd
       0.091523096 0.015214625 -0.34290543 -0.11864344
0000a0 9b 72 bf bc 5c 41 b7 bc 8c b7 84 bd ff 0e e3 bd
       -0.023370078 -0.022370033 -0.06480321 -0.11086845
0000b0 e1 7a e2 3d 33 db 07 3e 6f e2 02 3e a0 ee 66 bc
       0.110585935 0.13267212 0.1278169 -0.014094979
0000c0 05 e0 1f be c8 d9 61 bc 6e f5 df 3d 08 3c 12 3d
       -0.156128 -0.013784833 0.10935484 0.03570178
0000d0 7c 0f ef bc 12 dd 10 bd 84 69 7b bd 32 72 1e 3c
       -0.029182188 -0.03536708 -0.061379924 0.009670781
0000e0 9f 9f d9 3d 4d 3b 82 bd e0 6a f7 bc d0 55 6d 3d
       0.106261484 -0.06358967 -0.03020233 0.057943165
0000f0 ac 14 29 bd 68 e9 a4 3c fc 77 b4 3d f3 fe 96 3d
       -0.04127948 0.020130828 0.08811948 0.073728465
000100 15 76 53 bd 2f 37 84 3d ff d5 26 bd 99 99 cf bb
       -0.051626284 0.06455838 -0.040731426 -0.006335449
000110 93 10 bc 39 fa 64 83 be 91 5e 1b be 71 ca bb 3d
       0.00035870503 -0.25662977 -0.15172793 0.09169472
000120 3d 10 e0 bd 25 d1 bc 3d 91 dc ff 3c 9a f8 a5 3d
       -0.10940597 0.09219579 0.031233104 0.081040576
000130 13 c4 19 bd dd 1a 95 be 61 63 97 3b 50 a5 b9 bd
       -0.037540507 -0.29122058 0.004620001 -0.09064734
000140 75 ad 07 bd df 1e 96 3c 22 d2 78 bd 8d 64 25 bd
       -0.033124406 0.018325267 -0.060747273 -0.040379096
000150 a5 bf 5c be ae 66 9b 3d 6a f5 a4 3c c9 4d 8f bd
       -0.21557482 0.07587944 0.020136554 -0.06997258
000160 0a ba db 3d d6 f3 b3 bd d9 c8 99 bd 66 00 a6 3c
       0.107288435 -0.087867424 -0.07509012 0.020263862
000170 6b 4e 98 3b 21 e0 48 3d 90 5a f6 bd 3b 27 e0 3c
       0.00464802 0.04904187 -0.12028992 0.027362457
000180 21 a6 10 3d ed 9f 22 3d 9a af e3 bc d1 c2 e6 3b
       0.035314683 0.0397033 -0.027793694 0.007042267
000190 f3 5e 16 3d b8 4b 0f 3d 32 22 a5 bc e0 cc b5 bd
       0.036711644 0.03498432 -0.020157907 -0.088769674
0001a0 db 63 10 bc 43 70 00 3e d5 73 64 bd 23 71 35 3d
       -0.00881287 0.12542824 -0.05577453 0.04429735
0001b0 a7 95 01 3d b2 6a 07 be 24 39 08 bd 3e 89 22 bd
       0.03163686 -0.13224295 -0.03325762 -0.039681666
0001c0 35 ee 07 bd 92 6b b9 bd bb b9 85 bd 4d ab 16 3d
       -0.033186156 -0.090537205 -0.06529566 0.03678446
0001d0 0f d0 04 bd 23 60 f3 3c 3d 03 5d 3d d4 ce da 3b
       -0.032424983 0.029708927 0.053958166 0.006677488
0001e0 9f 45 72 3c 9e a0 81 3d 46 70 87 3d 39 cd 46 bd
       0.014787107 0.063294634 0.06613211 -0.04853556
0001f0 4b bf 39 3c 38 03 fc 3c a2 05 28 bd 33 98 00 3b
       0.011337112 0.030763254 -0.041020997 0.0019621968

4.weight f4 [128, 128]
000000 8c 26 44 3d 34 57 c8 3c a9 8a 18 bd aa 11 4f 3d
       0.047888324 0.024455644 -0.03724161 0.050553955
000010 66 af a7 3a f0 ed 4a bd 0a 29 dc 3b 07 3d 14 bc
       0.0012793362 -0.04954332 0.0067187594 -0.009047753
000020 97 35 d5 3c 28 49 5f 3c d5 db 8a 3d bd 03 de 3b
       0.02602653 0.013628282 0.06780211 0.006775348
000030 82 4f 01 3c 48 f7 e2 bb f1 ca 7c bd 1b c4 31 3d
       0.007892491 -0.006926451 -0.061716978 0.04339991
000040 0c bd 97 3d 6a 83 1c bd 7d f6 6c bd e0 0c 0c bd
       0.07409105 -0.038211264 -0.057852257 -0.034191966
000050 c7 a0 5a bb 1e 80 93 3d 2f 51 84 bc fa 28 a6 3d
       -0.003335999 0.07202171 -0.016151993 0.081132844
000060 87 4e 92 3d eb 1c 90 bd 5a a7 b2 bd 18 8a 14 bc
       0.07143884 -0.07036766 -0.08723326 -0.009066127
000070 a0 8a 3b bc dc 77 3c 3c b2 01 0e bc fa 8d 1f bd
       -0.011446625 0.011503186 -0.008667396 -0.03895376
000080 73 1f 7a 3c b8 a6 33 bd af 81 43 3d e3 e2 80 3d
       0.015266287 -0.043860167 0.047731098 0.06293275
000090 6f 91 94 bd fe 99 88 bd ca 7a 89 3d f5 fe a1 bc
       -0.07254302 -0.06669997 0.06712873 -0.019774893
0000a0 95 eb 12 3d 71 88 ad bd ab d3 58 bd 69 e9 8d bd
       0.0358692 -0.0847329 -0.052936237 -0.06929285
0000b0 4c 78 fc bc b7 ea 88 bd ea 63 02 bd 3a 26 cb 3b
       -0.03081908 -0.06685393 -0.031833567 0.0061996253
0000c0 89 90 0b bd ad ec 32 3d 7b 9b 0b bd 55 28 8b bd
       -0.034073386 0.043682743 -0.034083825 -0.06794802
0000d0 f3 d2 bc bc 5e 96 43 3d cd 30 8e bc 44 36 3c bd
       -0.023049807 0.047750823 -0.017357254 -0.04595019
0000e0 c6 6c 06 bd fd d4 8f 3d f7 0e 93 bd a0 27 48 bd
       -0.03281858 0.07023046 -0.07180589 -0.048865914
0000f0 81 d5 98 bd d7 44 99 3d d8 aa 44 bd 53 a9 a1 3d
       -0.07462598 0.07483833 -0.04801449 0.07893624
000100 00 64 a3 bc 5a f3 67 bd 3a b2 31 bd 72 0f 8d bd
       -0.019945145 -0.056628563 -0.04338286 -0.068877116
000110 10 c8 5b 3c d8 0b 09 bd 66 47 a1 3d cc c1 02 3c
       0.013414398 -0.03345856 0.07874946 0.007980775
000120 17 70 82 3c 1b e7 26 bd 98 a0 df bc 01 ac 44 bd
       0.01592259 -0.040747743 -0.027298257 -0.0480156
000130 9f bf d3 3c 8d 59 2e 3d ea 17 67 bd 92 2e 20 3d
       0.025848208 0.04256587 -0.05641929 0.039106913
000140 c3 af ad bd 14 61 54 3d ce 4b 3d 3d 9d 82 cb bc
       -0.084807895 0.051850393 0.04621487 -0.024842555
000150 80 32 8e 3c ff 7e 79 bd d0 0a 8a bc 59 1e bf 3c
       0.017358065 -0.06091213 -0.016850859 0.0233299
000160 d0 b5 30 3d b0 03 92 bd 78 bf 96 bd 3d a5 8d 3d
       0.04314214 -0.071296096 -0.073607385 0.06916282
000170 29 c4 fd 3c 5b 9f 9c 3d 3b c2 a0 bd 92 76 28 bd
       0.030977326 0.07647582 -0.078495465 -0.041128702
000180 95 45 19 bd 38 9c 81 bc 3d 9b 06 3c 18 a0 95 bc
       -0.037419874 -0.015821561 0.008215723 -0.018264815
000190 2d c0 40 3d a2 5d 5a bd 19 e7 99 3d f2 91 31 bd
       0.047058273 -0.05331195 0.075147815 -0.043352075
0001a0 8a 09 47 3d a2 a4 94 3d 7e 19 a0 bd 94 c5 c8 3c
       0.04859308 0.07257964 -0.07817362 0.024508275
0001b0 40 0b a7 3c 3c 2f a5 3d 99 ae 49 3d a5 e9 b1 bd
       0.020391107 0.0806565 0.049238775 -0.08687142
0001c0 c9 79 02 bd cb ea 8d bd b4 4c 3f bd eb 0d d9 bc
       -0.031854425 -0.06929549 -0.04670401 -0.026495894
0001d0 0c 8b 09 3d 5a ff ae bd 67 25 b0 3b 27 f3 a3 bd
       0.03357987 -0.08544798 0.0053755525 -0.08005362
0001e0 e7 4e 8b bc e3 3c ab bd aa 27 77 bd 24 3e 1e bd
       -0.017005397 -0.083612226 -0.06034056 -0.03863348
0001f0 47 bb 10 3d cc b4 49 bd f5 43 56 bd 68 c1 1e 3d
       0.03533485 -0.049244687 -0.052310903 0.038758665
000200 c9 b3 2d bd 7f df fd 3c 37 6e bf 3d c1 a0 9f 3d
       -0.042407785 0.03099036 0.09347194 0.07794333
000210 d7 97 63 bc 68 fc 35 3d 7c b4 c9 bc a8 60 87 3d
       -0.013891182 0.044430166 -0.024622194 0.066102326
000220 8a c3 8a 3b f3 b7 f1 3b ac 8b b0 bd 5e de a0 3d
       0.004234736 0.007376665 -0.0862039 0.07854913
000230 99 a6 74 3d 04 ba 26 bc 8b 86 36 bd ff 02 e6 bc
       0.059729192 -0.0101761855 -0.044561904 -0.0280776
000240 ab ee a0 bd bc c5 58 bd 01 00 27 3d b8 e5 60 bd
       -0.07858022 -0.05292295 0.040771488 -0.054906577
000250 99 eb 21 3d ca 84 2a bd 87 69 2c bd d7 92 a5 bd
       0.039531324 -0.041630544 -0.042092826 -0.08084648
000260 24 53 1b 3c 45 a1 01 bd ae ab 26 bd fd 5b 1c bb
       0.0094802715 -0.03164794 -0.04069107 -0.002385854
000270 00 f3 42 bd c3 5d 92 3c 4c 75 7a 3d 44 7f 1e bd
       -0.047595024 0.017866975 0.06114702 -0.03869559
000280 ce 2c f5 3c 0b 92 e6 bc c9 50 d2 3c c5 13 90 bd
       0.029928591 -0.02814581 0.025673287 -0.07035021
000290 3e 55 59 bd 16 86 1e bd c2 0e 15 3a ab 73 78 bc
       -0.05305981 -0.038702093 0.0005686098 -0.015164296
0002a0 9f 5a d5 bc 5d 4e 55 3d d1 55 79 bd 41 36 b3 3d
       -0.026044188 0.052076686 -0.060872857 0.087505825
0002b0 71 b2 a4 3c 04 9c 8e 3b 20 79 91 3d eb 32 80 3d
       0.020104619 0.0043520946 0.07103181 0.06259712
0002c0 34 4e b6 bc e1 69 f3 3c 67 93 10 bd 3f 55 46 3d
       -0.022254087 0.029713573 -0.035296824 0.04842114
0002d0 0d 14 6e 3d 65 f4 a0 3c 9e a9 98 3a e5 81 06 bd
       0.05812459 0.019647786 0.001164723 -0.03283872
0002e0 17 ed d0 bc 7f b2 95 3d 92 a2 b7 3c 76 c0 f2 3c
       -0.025503678 0.07309436 0.022416387 0.029632788
0002f0 d4 be f5 bb b2 ca 2d bc 3d 0a 87 3d 55 0d 89 bd
       -0.007499555 -0.010607408 0.0659375 -0.06691996
000300 f0 69 66 3c 23 48 79 bc 26 85 ea bc 0e 22 9a bd
       0.014063343 -0.015214953 -0.028627943 -0.07526027
000310 83 e7 66 3d c1 7c 96 bd 2f 7b 00 bd c5 c0 77 3c
       0.05637313 -0.07348014 -0.031367477 0.015121643
000320 f2 27 3c 3d d8 4b b3 bd 5b 63 3e 3d 0f f1 01 bd
       0.045936532 -0.087547004 0.04648147 -0.031724032
000330 57 c2 e4 3c 8a 88 9e bd 19 c1 9d bd 98 96 a4 3d
       0.0279247 -0.077408865 -0.07702846 0.08036536
000340 81 2a 00 3d 48 4b 9b 3c 33 3c 3c 3d dd 9c a2 3d
       0.031290535 0.018956795 0.045955848 0.079400755
000350 b9 10 66 3d 8c e4 e2 3c 1a b4 90 bd 81 5a bd 3d
       0.05616829 0.02769687 -0.07065602 0.09245778
000360 cc b6 b5 bb b1 fb 88 bc d1 3a 98 3c 42 73 8a 3d
       -0.0055454727 -0.016721578 0.018582733 0.06760265
000370 18 b6 5d bc 7c fb 32 bd 92 80 4b 3d 65 20 95 3d
       -0.013532184 -0.043696865 0.04968316 0.072815694
000380 b8 11 d8 3c 0f 84 58 3c 97 74 32 3b 3f 66 94 3c
       0.026375636 0.013215079 0.0027230137 0.018115161
000390 58 24 9c bd 8a fc 36 bd fc a8 1d 3d f4 1b b6 3c
       -0.076241195 -0.044674434 0.038491234 0.022230126
0003a0 0d fb 13 3d f2 84 95 3b 76 e1 47 bd d2 56 16 bd
       0.036128093 0.0045629675 -0.048799 -0.036703892
0003b0 c7 dd 72 bc 88 de 6d bd d4 e9 ab 3d ce 32 40 bd
       -0.014823384 -0.05807355 0.083942086 -0.04692345
0003c0 aa ca 04 3c 59 89 b4 3d 8f 5a 95 bd 8e be a3 bd
       0.0081049595 0.088152595 -0.07292663 -0.0799533
0003d0 18 18 1c 3d 1c 70 6a 3d bc 96 20 bd 31 da 27 3d
       0.038108915 0.057235822 -0.03920625 0.040979568
0003e0 a3 f4 7b 3d 26 8e fe bc 82 7a 93 3d e3 2b 08 3c
       0.0615126 -0.031073641 0.07201101 0.008311245
0003f0 a5 55 78 bc ff a5 01 3d c3 21 46 3d 7a fa ad 3d
       -0.015157138 0.031652447 0.04837204 0.0849504

4.bias f4 [128]
000000 f3 e5 09 bd 5d c5 1d 3d 21 87 c9 3d b2 f0 b2 bd
       -0.033666562 0.0385183 0.09840227 -0.08737315
000010 5f 7f 8a bd 40 60 20 bd 50 21 d3 bc e9 b5 95 bd
       -0.06762575 -0.03915429 -0.02577272 -0.07310087
000020 98 ba ca 3d bd 3a ae 3d 48 9e 5e bd 3b be a0 3c
       0.09898871 0.08507297 -0.054350168 0.019621959
000030 fd b9 7d bc 08 f6 74 bb 2e 2a 94 3d c6 57 00 3d
       -0.015486238 -0.0037378091 0.07234608 0.031333707
000040 e2 27 03 be 47 aa 11 3d dd eb e7 3d 12 d1 7d bd
       -0.12808183 0.03556278 0.11324284 -0.061966963
000050 d5 ab 9b bc 3b 5f 60 3c 85 d4 1c 3d 16 35 96 bd
       -0.019002834 0.01369458 0.038288612 -0.07334344
000060 7f aa ef 3d 03 66 92 bd 66 14 38 bd 6e fa a6 bd
       0.117024414 -0.071483634 -0.04494133 -0.081532344
000070 c4 c7 a6 bd 5d 38 7a bd 39 69 8e bc d4 3d d1 3d
       -0.08143571 -0.06108891 -0.017384158 0.10216871
000080 e3 0b 87 bc 31 a0 ad bc 19 c7 84 bd 23 4f 64 bd
       -0.01648516 -0.02119455 -0.06483287 -0.055739533
000090 dd d2 a1 3c 05 ab 07 3d 0d 02 33 bd 78 76 f0 bc
       0.019753868 0.03312208 -0.043703128 -0.029353365
0000a0 75 6f 4f 3c a6 90 0a bd d9 55 e8 3d da fe 1d 3e
       0.012660851 -0.033829354 0.11344499 0.1542925
0000b0 a9 89 59 3d 1e ab ac 3d 90 8d 53 bc bd db 22 bd
       0.0531098 0.084310755 -0.012912169 -0.03976034
0000c0 a7 9c a0 bc b3 42 80 3d 65 d6 b3 3c 39 d2 3d bd
       -0.019605948 0.06262722 0.021952817 -0.046343062
0000d0 27 0a 00 3c 7b 14 17 ba f8 65 16 bd 74 07 1c bd
       0.0078149205 -0.00057632447 -0.03671834 -0.038093045
0000e0 7b 1f 31 bc 2e 5b a9 bd 74 73 2e bd 3f 7b 1b 3e
       -0.010810728 -0.08269344 -0.042590573 0.15183733
0000f0 11 c9 ae 3c 42 2d 21 bc ed 77 ed 3d a9 4f 3f 3d
       0.02133611 -0.00983745 0.1159514 0.04670683
000100 7e d1 b9 bd f2 93 98 bd 4e 13 2b 3c 6a 9f 3d bd
       -0.090731606 -0.07450093 0.010441614 -0.046294607
000110 8c ed 9d 3d 4b 90 2d 3d 50 f1 df 3d 3c 13 85 bd
       0.07711324 0.042373937 0.109346986 -0.06497809
000120 7a 6c 2e 3d de df 2e 3e d8 f2 49 3e 1f ea 18 3e
       0.04258392 0.17077586 0.19721544 0.1493306
000130 08 eb fc bc 40 2c a3 bd bd 2a 6b 3d 10 2a 63 bd
       -0.03087379 -0.079674244 0.057413805 -0.055460036
000140 0a a4 f5 3a d0 3c 97 3d 9a 68 58 bd e6 26 2d bd
       0.0018740904 0.07384646 -0.05283413 -0.042273425
000150 56 c8 e1 3d a2 57 ff 3c 32 00 e2 3d d4 bc 27 bc
       0.11024539 0.031169716 0.110351935 -0.010237891
000160 e5 2a 8d bd dc 09 45 bc 12 bf 0e 3e ef f5 65 3d
       -0.06892947 -0.012026276 0.13940075 0.056142744
000170 f8 88 98 bd d7 93 86 bc de 1f 68 3d 78 eb a4 3d
       -0.07448 -0.016427917 0.056671016 0.080527246
000180 79 aa cf 3d f2 aa b5 3d e7 0a 55 bd 7a ea c7 3b
       0.10139937 0.08870496 -0.05201235 0.00610095
000190 05 f7 b9 3c 67 60 d7 bc b2 3d 2d 3c a1 9d ca bc
       0.022700796 -0.026291085 0.010573791 -0.024733366
0001a0 da a9 fa 3d d9 88 67 3c dc bb 15 bd a4 64 00 bd
       0.12239428 0.014131748 -0.03655611 -0.03134598
0001b0 74 45 f1 3d 30 ae 35 3c 6f bc 4d bd 10 21 2e bd
       0.11780825 0.011088893 -0.050228532 -0.042512
0001c0 d5 40 37 bd 75 10 ab 3c a4 ec 47 3e 38 17 2f bd
       -0.044739563 0.02088187 0.19523865 -0.042746753
0001d0 75 85 9a bd 12 e0 57 bd 2d c0 ce bc b5 9a 42 bb
       -0.07544986 -0.052703924 -0.02523812 -0.0029694263
0001e0 f1 7e 59 3d e4 a1 a8 3d 31 f2 f7 3d e3 27 bb 3b
       0.053099576 0.08234003 0.12106741 0.005711542
0001f0 d7 27 04 3d 28 01 01 3c a1 9f d0 3d 74 b3 2d 3d
       0.032264557 0.007873811 0.10186697 0.042407468

6.weight f4 [128, 128]
000000 0a 57 f1 3b 50 38 4f 3d 2a 37 97 bc b5 a0 2e bc
       0.007365112 0.050590813 -0.018458921 -0.010658433
000010 6a 32 10 3d ec 70 80 bd 94 91 80 3c 1a 27 63 3d
       0.03520433 -0.06271538 0.015694417 0.055457212
000020 a7 7d 8e 3d 29 f6 20 3d 5a ec 23 bd c7 3a 47 bd
       0.0695756 0.039297257 -0.040020324 -0.04864004
000030 42 4f 8c 3d 1f 1f b0 bd c4 9a c0 3d 14 97 0e bd
       0.06851055 -0.08599686 0.09404519 -0.034812048
000040 a9 d0 4f 3d ec fb 26 bc 68 8e 9e 3d 31 4a 88 bd
       0.050736103 -0.010191899 0.077420056 -0.06654776
000050 57 83 9f 3d 9c 87 8e 3d 7e ea ae 3b 33 cc b8 3d
       0.07788723 0.06959459 0.0053380122 0.09023323
000060 a1 b1 56 bd 24 f0 4e bc 8a 3b b6 3a 75 c7 3d bc
       -0.052415494 -0.012630496 0.0013903242 -0.011583199
000070 04 cc 91 bd cc c7 38 bb 5e 5b 15 3c 78 72 e7 3d
       -0.07118991 -0.002819526 0.009116022 0.1130113
000080 35 98 8b bc 25 01 63 3d 03 af 7f bc c6 68 ba bc
       -0.017040351 0.055421013 -0.015605691 -0.022755038
000090 cc df 9e 3d 8e 26 c3 bd 2e 28 09 3d 03 6c 1e 3d
       0.077575296 -0.09528838 0.033485584 0.038677227
0000a0 94 c4 95 3d b0 63 32 bd 04 36 c2 bc b6 c4 7f bd
       0.07312885 -0.0435521 -0.023707397 -0.062443458
0000b0 9f d5 2a 3d a8 6d 90 3c de 1d 2f 3d 87 fb 22 3d
       0.04170763 0.017630413 0.042753093 0.039790656
0000c0 ee f6 20 bc 21 1c 62 bd e7 a0 47 bc cb 13 4a 3d
       -0.009824498 -0.055202607 -0.012184358 0.049335282
0000d0 9f 70 3b 3d 4b 77 80 3d 8c 83 89 3d 30 d7 b0 bd
       0.0457617 0.06272753 0.06714544 -0.08634794
0000e0 a4 87 a9 3c f6 65 37 3d 89 43 3b bd b5 6f b0 bd
       0.020694561 0.044774972 -0.045718703 -0.086150564
0000f0 70 1c 87 3c 50 85 06 bd a3 ef 31 bd a9 9a 94 3d
       0.016493052 -0.03284198 -0.043441426 0.072560616
000100 21 91 20 bd a5 d2 45 bd bb 4f d0 bd b4 17 9d 3d
       -0.039200906 -0.04829659 -0.101714574 0.07670537
000110 fe 24 62 3d 6b d5 05 3d ce 97 fa 3c 40 f3 99 bd
       0.05521106 0.032674234 0.030589964 -0.075170994
000120 ca dd 71 bd 5b 1b 6d 3d e1 b0 39 bd d2 ef 8b bd
       -0.059049405 0.057887416 -0.0453347 -0.068328515
000130 d6 c5 f3 bc 10 2d 32 bd b0 f8 d0 3c 98 d5 c1 bc
       -0.029757421 -0.043500006 0.025509208 -0.02366142
000140 82 04 6a bd 1a a1 95 3b ce 2c 71 bd e3 98 82 bd
       -0.057133205 0.004566324 -0.05888062 -0.06376817
000150 da 08 02 bd 09 c6 0f bd 99 08 ff bc b9 ae b1 3d
       -0.031746723 -0.03510097 -0.03113203 0.08675904
000160 38 20 ea 3c 88 e8 35 bd 66 b2 ee 3c 05 3f 9c bd
       0.028579816 -0.044411212 0.029137801 -0.076292075
000170 27 5d 87 bd cc 82 38 3b 07 67 d8 3d e2 b9 b2 3d
       -0.06609564 0.0028154133 0.10566526 0.087268606
000180 ea e8 97 bb 27 dd 1d bc 76 7a 00 bd b7 d3 82 bc
       -0.00463592 -0.009635246 -0.031366788 -0.015970094
000190 c4 91 00 bd 32 91 b8 bd 37 ab 52 bd 82 03 7c bc
       -0.031389013 -0.09012069 -0.051432814 -0.015381696
0001a0 b1 80 fd 3c 65 31 c6 3d 75 29 da 3d ca 80 b6 3d
       0.030945154 0.0967739 0.106524386 0.08911283
0001b0 8d c3 8d 3d 41 ee b1 3d 24 fd 8c 3d 51 6c 54 3d
       0.06922064 0.086880215 0.0688422 0.05186111
0001c0 3a e9 06 3d 71 bb 65 3d e7 e7 b1 3a 0c 07 c3 bc
       0.032937266 0.05608696 0.0013573141 -0.023807071
0001d0 e2 4e 13 3d e6 66 8d bd e0 07 5d 3d eb bc ec 3d
       0.0359639 -0.06904392 0.05396259 0.11559471
0001e0 38 85 a6 3d 9e 69 8c bd 95 dc 94 3d cc e2 be 3c
       0.08130878 -0.068560824 0.07268635 0.023301505
0001f0 63 84 5f 3d 69 2e 01 3d ce d3 8d 3d a7 03 aa bd
       0.054569613 0.0315384 0.06925164 -0.08301478
000200 89 b0 b2 3d 02 54 96 bd a5 bd 52 bd 81 4b 92 3c
       0.08725078 -0.07340242 -0.05145039 0.017858269
000210 88 86 dd bb a3 ae 7a bd bb f6 84 3d 20 e6 8a 3c
       -0.006760422 -0.061201703 0.064923726 0.016955435
000220 4e 92 ad bc 87 6f 15 3d cb c2 96 bd 25 61 97 bd
       -0.021187928 0.036483314 -0.073613726 -0.07391576
000230 5c b8 85 3d fd f3 62 3d 4b 25 7b 3d cf d8 39 3d
       0.065293044 0.055408467 0.061314862 0.04537278
000240 3e 60 59 bd 28 bd 95 3d 1d 08 05 3d 3d 40 8f 3d
       -0.0530703 0.07311469 0.03247844 0.06994674
000250 96 38 89 bd 41 f8 b9 bd e1 79 75 bd 1e f7 33 bd
       -0.06700246 -0.09080554 -0.059930686 -0.04393684
000260 af de ca 3b f2 f6 f3 bb d0 b7 c7 3d cb 9b 88 bc
       0.0061910967 -0.0074452097 0.09751856 -0.01667585
000270 0c ca 78 bc 58 97 7e 3d 95 ae dc 3d 87 20 f8 3b
       -0.0151848905 0.06215605 0.107754864 0.007572237
000280 91 4e ac 3d 16 6e 49 bd 9e ff ac 3d 50 0c e9 3c
       0.08413423 -0.04917725 0.084471926 0.028448254
000290 d8 e9 ea 3b 92 55 b0 3d 16 12 90 3d 91 77 66 bd
       0.0071689896 0.08610071 0.070346996 -0.05626637
0002a0 cf 6b 0a bd 4c 58 af bd bf 3b 64 bc 6d d6 ee 39
       -0.03379422 -0.08561763 -0.01393026 0.00045554657
0002b0 00 c8 24 3d 1f 3e 86 3c 1e 6e 65 bd 69 e4 b5 3d
       0.040229797 0.016387044 -0.05601322 0.088814564
0002c0 54 a0 dd b8 87 1d 3b bd ef fd 2d 3d 61 b0 51 3d
       -0.00010567965 -0.045682456 0.042478498 0.0511936
0002d0 22 01 07 3d d2 0f 19 bd 46 1f 29 bc 4c f5 8b 3d
       0.032960065 -0.037368603 -0.010322398 0.06833896
0002e0 a3 22 6b 3d 43 d9 27 bb 60 2d a4 bc 1c 2a 9d 3d
       0.05740608 -0.0025611676 -0.020041168 0.07674047
0002f0 b7 51 5d bc bc 55 15 3d 81 90 71 3d 38 82 9d bd
       -0.013508252 0.036458716 0.0589757 -0.07690853
000300 97 b0 42 bd b2 49 82 bd b9 5c 82 3b d1 64 dd bc
       -0.04753169 -0.063617125 0.0039783386 -0.027025612
000310 59 ae 46 bd 1e 9a bf 3d 23 97 d5 3d b7 d8 8c bc
       -0.048506115 0.093555674 0.10429218 -0.017193181
000320 82 4c 92 3c fc 54 52 bb 53 30 8a 3b 17 b4 6c 3d
       0.017858747 -0.0032094112 0.0042171865 0.057788935
000330 2d 72 1b 3d 5c ac b6 3d ad fe 46 bd a4 27 a9 bd
       0.037950683 0.08919594 -0.04858272 -0.08259514
000340 f3 54 80 bc 32 c7 9a 3c 40 c6 3a 3b 00 be b8 3d
       -0.015665507 0.018893812 0.0028499514 0.090206146
000350 56 51 70 3d 34 32 1a 3d e8 45 3a 3b 67 30 fe bb
       0.058671318 0.037645534 0.0028423015 -0.007757235
000360 ab d5 2e bc 2f be 08 3c 53 73 8c bc 04 33 16 3c
       -0.01067106 0.008346125 -0.017144835 0.0091674365
000370 95 06 76 3d d3 dd 42 3d 11 aa 41 3d 0f be 2d 3d
       0.06006487 0.04757483 0.04728133 0.042417582
000380 59 cd 49 bc 69 a1 1d bd 79 57 52 3d c7 20 a9 3b
       -0.012317025 -0.03848401 0.05135295 0.005161378
000390 b1 98 b7 3d 43 e2 e6 bb d3 a8 cf 3d 26 ba 92 bd
       0.089646704 -0.0070460155 0.101396225 -0.07164411
0003a0 b6 f8 f0 3d 98 65 ae bc fe 5f 32 3c a3 b9 b5 bc
       0.11766188 -0.021288678 0.010887144 -0.022183245
0003b0 cb bb 8b bc 59 3e 0e 3d 80 47 db 3d 26 88 5f bc
       -0.01705732 0.034727428 0.10706997 -0.0136433
0003c0 c8 0b 1e bc 4a 50 2a bd 25 fd 69 bc 17 79 f5 ba
       -0.009646364 -0.041580476 -0.014281546 -0.0018728104
0003d0 f0 d8 c8 3d 59 dc a8 bd 54 7b 8b bd e0 41 bb 3c
       0.098070025 -0.08245153 -0.06810632 0.02285856
0003e0 cc 82 db bc a4 95 25 3d c3 cb 27 3d 3d 16 69 bd
       -0.026795767 0.04042591 0.040965807 -0.056905974
0003f0 e1 a2 a2 3c ea 01 e7 3c f9 41 77 3c ec ee a8 bd
       0.019853057 0.028199155 0.015091413 -0.08248696

6.bias f4 [128]
000000 9c 4e 0f 3c 33 8e 12 3e c5 3f e3 3c 76 8c a6 3d
       0.008746769 0.14312057 0.027740369 0.081322595
000010 6f e6 88 bd 68 a1 b9 bc 2a 38 5c 3e 6f 51 48 3d
       -0.06684577 -0.022659972 0.215058 0.048905786
000020 14 01 67 3e 07 ae 49 3e ac 27 5a 3c fd 5b e1 bd
       0.22559005 0.19695292 0.013315123 -0.110038735
000030 f3 8f af bd 59 15 97 3b 32 18 52 3c 81 cd 4d 3d
       -0.08572378 0.004610699 0.012823151 0.050244812
000040 e5 41 bc bd 58 35 59 bc 52 83 9d bd 9b ce 7c 3c
       -0.09192256 -0.013257347 -0.07691063 0.015430118
000050 81 07 6e 3d a4 c0 22 3e b9 c3 3f bd 51 c4 9c bd
       0.058112625 0.15893799 -0.046817515 -0.07654632
000060 9e 6b 1f bb c3 98 10 3d 6f ca f6 3c f1 4e 27 bd
       -0.002432562 0.035301935 0.030125825 -0.04084677
000070 9e 34 fe 3c bc a0 72 bd e0 06 89 3d ef 01 22 bd
       0.03103095 -0.05923532 0.066907644 -0.039552625
000080 73 cd 29 3e 7f 7d d6 bc f8 84 22 3c d2 36 84 bd
       0.16582279 -0.026182888 0.0099193975 -0.06455769
000090 67 e3 e9 bd 21 55 55 3d e3 d5 b2 3c 67 37 08 3e
       -0.11420327 0.05208314 0.021830505 0.13302384
0000a0 a5 6f 7a bd 8a 38 70 3e 41 b6 08 3e 16 13 df 3a
       -0.06114163 0.23459068 0.13350774 0.0017019238
0000b0 5f 57 af bd e2 12 2a 3d 70 f2 82 3d 71 9d d0 bd
       -0.085615866 0.041521914 0.063938975 -0.101862796
0000c0 8e ce f4 bc 4d 05 83 bc ac 5f 8f bd 70 b6 be bd
       -0.02988365 -0.015993739 -0.0700067 -0.09312141
0000d0 43 00 58 3d b0 1b 68 bc 51 1a 96 3d ee 5d 06 3e
       0.052734625 -0.014166757 0.07329238 0.13121769
0000e0 bb ae 63 bd a7 63 1d bb 11 54 55 3e d8 cc 4f bd
       -0.055586558 -0.0024015696 0.2083285 -0.050732464
0000f0 9d ee 24 3d c9 31 31 bd cc 94 c5 3b 08 ac 89 3e
       0.04026662 -0.04326037 0.006029701 0.26889062
000100 f2 58 c4 39 61 d9 be bc 00 25 2b bd 63 db fe 3c
       0.00037450303 -0.023297014 -0.041783333 0.031110471
000110 fa 9a ad bd ee 16 49 bd ba 89 02 bd 59 ee 0f 3d
       -0.08476825 -0.049094133 -0.031869628 0.035139415
000120 33 c0 2e 3d ef 3a a6 bd 97 f1 0a 3c 42 3f 32 3e
       0.042663764 -0.081167094 0.008480451 0.17406943
000130 83 25 43 3c cb 6d b2 bd 5b 62 0d bd a5 6a 02 bd
       0.011910799 -0.087123476 -0.034517627 -0.031839985
000140 5a 2c 70 3b 41 b7 be bb a6 ad b8 bd 99 e2 16 bd
       0.003664753 -0.0058201854 -0.09017496 -0.036837194
000150 53 17 5c bd 2a 62 f8 bc 79 a4 5f 3c a7 73 04 3c
       -0.05373318 -0.030320246 0.013650053 0.008084214
000160 6f b7 22 bb 1d f8 83 ba be 86 5b bd f7 70 99 3d
       -0.0024828573 -0.001006845 -0.053595297 0.074922495
000170 b7 f6 ea bd a1 73 98 bd 93 99 43 bd 37 0f b1 bd
       -0.11472838 -0.074439295 -0.04775388 -0.0864548
000180 65 ba 1c bc 4f ce 09 3d e9 87 a0 3c f2 e3 05 3e
       -0.009565924 0.033644017 0.019596057 0.13075235
000190 91 5a fd bc ab 2d 11 3e 3e 05 9a bd 7e df 9b 3e
       -0.030926974 0.14177577 -0.07520531 0.30443949
0001a0 cc 31 8d bd 62 cc bc bd af 60 32 bd b0 ec 0a bd
       -0.068942636 -0.092186704 -0.043549236 -0.03391713
0001b0 d5 39 b0 3b dd f7 33 bd b6 79 dd 3d 2e 0c 5f bd
       0.005377988 -0.043937553 0.1081423 -0.054454975
0001c0 0c ec e7 bb da df 70 3d ca fc 93 bd 4c a1 08 3d
       -0.0070776995 0.05880723 -0.0722595 0.03335695
0001d0 b1 72 0d 3d c0 3b 80 bd b2 16 6e 3d 25 a6 69 bc
       0.034533206 -0.062613964 0.058127113 -0.014260803
0001e0 3e ad 01 be b7 f8 45 bd 0f db 20 3e eb d1 a2 bc
       -0.12663743 -0.048332896 0.15708564 -0.019875487
0001f0 2f 21 2c 3d 13 d0 87 3e 0c db 06 3e 49 18 52 3c
       0.042023834 0.26525936 0.13169497 0.012823173

8.weight f4 [49, 128]
000000 c4 c2 94 3d b7 07 a8 bd f2 ec b3 bc ab cb 27 3d
       0.07263711 -0.082045965 -0.02196357 0.040965717
000010 8b b2 0c be 3b 7e ab 3d 05 dd 45 be f7 5e c1 3d
       -0.13739984 0.08373686 -0.19322594 0.09441941
000020 9c b0 23 be 5d b2 23 be 56 74 de bd 12 79 8c 3c
       -0.1598534 -0.15986009 -0.10862033 0.017147575
000030 1b 36 68 bb cd 33 66 3b 6f 38 01 3d a3 02 8d 3b
       -0.003543264 0.003512609 0.03154796 0.004303293
000040 e8 97 08 3d 91 e2 60 3d 97 bd 5e 3c 62 b3 79 3d
       0.033347994 0.05490357 0.013595006 0.06096209
000050 3b cd 82 3d 0e d1 6c bd f7 db a2 bd de c9 ba 3d
       0.06386801 -0.057816558 -0.07952111 0.09120534
000060 93 6e 2b bd 32 7e 05 3d f5 ba 8f 3d f9 0c 97 bc
       -0.0418535 0.032591052 0.07018081 -0.018438803
000070 35 a9 6e bd 66 12 0d 3c ea 00 ae 3d 97 56 83 3d
       -0.058266837 0.008610344 0.08496268 0.06413
000080 14 2f ca bd 5c 97 ac 3d 5f 45 98 3c 5f 8c 9b 3d
       -0.09872261 0.08427307 0.018587766 0.07595133
000090 8c de a3 bd 39 79 61 bc 5e da 1c 3d cf eb 4c be
       -0.08001432 -0.013761812 0.03829419 -0.20011829
0000a0 e9 e6 a2 3b db 8f 75 be ed 9a 11 bd c0 0d c8 bc
       0.0049713743 -0.23980658 -0.03554814 -0.024420619
0000b0 e6 d9 34 3d b9 4f 82 3d df aa 9a 3a 00 1a 32 bc
       0.044153117 0.06362862 0.0011800191 -0.010870457
0000c0 e2 65 9b 3b ea 0b f0 3c af f0 d2 bc 1b 07 02 bd
       0.00474237 0.029302556 -0.025749533 -0.031745058
0000d0 fb d9 7c bd d3 c4 60 3d 2c 77 22 bd 12 2e 9f bd
       -0.06173132 0.054875206 -0.039664432 -0.07772459
0000e0 f8 c4 87 3d b2 d0 85 3d 0f d2 f1 bc 71 60 bf bd
       0.06629366 0.06533946 -0.029519109 -0.093445666
0000f0 8b 4e 96 bc 03 44 9f bd 64 af 2b bd 8b cc 29 be
       -0.018348 -0.07776644 -0.041915312 -0.16581933
000100 da bb 96 bd 99 54 a9 3d 10 8d 87 3b 78 65 e1 36
       -0.073600486 0.08268089 0.004136689 6.717335e-06
000110 86 f1 fc bc 9e 89 61 3d 1a 94 ee 3d 0f 45 b1 3d
       -0.030876886 0.055062883 0.11649342 0.0865575
000120 09 66 72 bc b1 e6 e9 3c f4 53 a9 3d 9c 27 d7 bd
       -0.014794835 0.028552385 0.08267966 -0.10505602
000130 fb 5a 68 bd 2c 12 18 bb a0 dc 9f bc 1a ea 08 3d
       -0.05672739 -0.002320419 -0.019514382 0.03342638
000140 ee 27 0a bd cc d7 b7 3d e2 f2 36 bd 4f c2 ac bd
       -0.033729486 0.08976707 -0.044665225 -0.08435499
000150 cb 3c 11 bd ed 7c 92 3d 08 ba 36 3d 8d b5 9e bd
       -0.035458367 0.07152734 0.044611007 -0.07749472
000160 fd 20 3f 3d 8f 2b 5d 3d e0 b0 7c 3c 02 40 7a bd
       0.04666232 0.05399662 0.01542303 -0.0610962
000170 36 cb 6e bd 84 71 fa ba 0d f5 0e be ec 8e 05 3d
       -0.058299266 -0.0019107317 -0.13960667 0.032607004
000180 c4 80 a7 3d ca 20 13 3d 64 a5 14 3d 80 f1 ef bd
       0.08178857 0.035919942 0.03629054 -0.11715984
000190 69 a0 f4 bc c1 d2 2d be 2b fc 0b bd 1c 32 6c be
       -0.029861646 -0.16974927 -0.034176033 -0.2306599
0001a0 8e 09 d6 3d a2 ca 29 3e ba e1 6b bd b2 8d 43 3d
       0.10451041 0.16581205 -0.057588317 0.047742553
0001b0 5d 9a 86 3b f1 59 55 bd a9 b5 db 3c 8e 18 7b 3d
       0.004107757 -0.052087728 0.02682002 0.061302714
0001c0 f3 b4 f0 bc a9 f1 13 3d e1 94 1f 3d c8 33 92 3d
       -0.029383158 0.036119137 0.03896034 0.07138783
0001d0 ef 96 11 bd c5 a6 09 3d ae 66 e5 bd 7f 0f a5 3d
       -0.035544332 0.03360631 -0.11201225 0.08059596
0001e0 1c 8d 96 bd fa 16 49 bd 32 38 7f be b5 9d 19 3c
       -0.07351133 -0.049094178 -0.2492378 0.009375979
0001f0 36 ad 0b bd 02 57 02 be e8 95 31 bd 29 75 90 3d
       -0.034100734 -0.12728503 -0.043355852 0.070535965
000200 da c9 28 3d 81 da cb bd 3e 89 b4 3c 94 12 0a bc
       0.041208126 -0.09953786 0.022038098 -0.008427281
000210 a4 71 81 bc e3 58 12 3d fc 95 3a bd db 72 a2 3d
       -0.015801258 0.0357293 -0.045553192 0.07932063
000220 99 c0 32 be d7 74 c4 bc 2d 2d 1f be 32 e0 fb bc
       -0.17456283 -0.023981495 -0.15544577 -0.030746553
000230 c8 19 4a 3d fd ff d0 3c 30 06 94 3d 09 32 0c 3c
       0.049340993 0.02551269 0.07227743 0.008556851
000240 37 5d b2 3d 4c b1 c0 3c 66 90 2a 3d 69 d4 c4 bc
       0.087091856 0.023522042 0.041641615 -0.024027066
000250 97 be 14 3d 51 43 14 be c1 1b 1d 3b 5e 29 f9 3d
       0.036314573 -0.14478804 0.0023972841 0.12166093
000260 ef b4 31 bc a9 c5 3a 3c 34 a3 04 3d 04 e8 86 bd
       -0.010846361 0.011399665 0.032382205 -0.06587222
000270 d4 bc 4d 3c dc 71 55 3b 96 74 39 bd b4 00 bf bc
       0.012557227 0.0032569086 -0.0452772 -0.023315765
000280 6b dd d3 bd 88 10 f0 bb 3d 4b fe 3d 6c f7 44 3d
       -0.103449665 -0.0073261894 0.12416694 0.048087522
000290 e7 de 1d 3d 6b 03 36 bd ff 75 b6 3c 57 67 ec bd
       0.038542654 -0.044436853 0.022273062 -0.11543148
0002a0 bd 73 3d 3d b5 98 89 be 51 f3 0a be 8e 7d 89 3d
       0.046252955 -0.2687432 -0.1356938 0.06713401
0002b0 fe 1d 3b 3d 4f da 36 bd ee 12 9f 3d ea 64 89 3d
       0.0456829 -0.04464179 0.077672824 0.06708701
0002c0 3f 6a 0d bd 01 0a 01 3d b6 33 82 bc 69 5e 49 3c
       -0.034525152 0.03150368 -0.015893798 0.012290576
0002d0 33 40 1a be e3 3b 77 bd 44 05 23 bd a2 c2 33 bd
       -0.15063553 -0.060359847 -0.039799944 -0.04388679
0002e0 a3 26 86 bd 9e 47 3c 3c 4e f7 27 be 3f 56 21 be
       -0.06550338 0.011491684 -0.16402933 -0.15755557
0002f0 29 73 65 3d 7e 13 3c 3b d0 70 59 bd b4 d6 d0 bd
       0.05601803 0.0028698142 -0.053086102 -0.10197201
000300 b3 99 13 bd 7c 77 90 bd a1 af 81 3d 6d 02 2e 3c
       -0.03603525 -0.0705404 0.06332327 0.010620696
000310 6a 56 52 bd 72 31 36 3d 0a 5c 0d 3c 7c 3e d5 3d
       -0.051351942 0.04448075 0.008627901 0.104123086
000320 b3 bc 9e bd 00 ea 92 bc fc b8 9a 3c b7 0c 46 bd
       -0.07750835 -0.017933846 0.018887036 -0.04835197
000330 e1 bf 98 3d 3f e4 b6 bd 0d b6 8a bd 21 27 f2 3a
       0.07458473 -0.08930253 -0.06773005 0.0018474796
000340 c3 e9 09 3d 1d af 99 bd 28 0f 92 3b 56 4a 9e bc
       0.0336702 -0.07504103 0.004457373 -0.019322556
000350 b7 31 9a 3d ec 9e af 3c 76 e9 83 3d 5e 1c 05 be
       0.075290136 0.021438085 0.064410135 -0.12999102
000360 7d 01 a9 3d 2d f3 96 3d ab 49 f3 bc 66 b2 e0 bd
       0.08252237 0.07370601 -0.029698214 -0.10971527
000370 f5 20 99 bd 84 58 62 bd d6 03 20 be dd b3 c8 3c
       -0.07476989 -0.055260196 -0.15626463 0.024499828
000380 50 96 1c bd a2 f1 86 3c 21 52 d2 bc b2 71 89 bd
       -0.038229287 0.016472641 -0.025673928 -0.06711139
000390 72 04 90 3c 06 de 87 be 7a 58 47 3d cf cf 32 be
       0.017580245 -0.26536578 0.048668362 -0.17462085
0003a0 09 6c d2 3d c4 e0 b6 3d 79 0e 3b 3d e9 d2 ae bd
       0.10274512 0.089295894 0.0456681 -0.08536322
0003b0 8a ff 9e 3d fe ae 32 3d 84 20 98 bd 08 c1 b8 3d
       0.07763584 0.043623917 -0.07428077 0.09021193
0003c0 97 bc 6f bc 06 c0 8e bc 02 0b 64 bc 33 fa 76 3b
       -0.014632366 -0.017425548 -0.01391864 0.0037685751
0003d0 6a ae ff bd bd ea 33 bc 09 bf d4 bc 14 71 7c bd
       -0.12484439 -0.010981259 -0.025969999 -0.061631277
0003e0 f6 de 1c bd c4 9c 6a 3d 8a ed 5c be 3f ce 91 3b
       -0.03829857 0.05727841 -0.21574989 0.0044496353
0003f0 6b 27 8a 3c a5 95 39 be 5d 7c 81 bd d3 a2 81 3c
       0.0168645 -0.18123491 -0.063225485 0.015824711
