models/snapsRandom/model_1685758702.7647383.pt (torch, 252563 bytes, 10 tensors)

0.weight f4 [128, 49]
-0.080822326 0.111439265 0.036164526 -0.15351929 0.047497347 -0.04938346 -0.08487265 0.07272208
-0.036637895 -0.12518369 0.10956845 0.1678525 -0.03706617 0.10054592 0.0054953997 -0.11096391
-0.012744598 -0.082534224 -0.005184326 0.013784902 -0.027756728 -0.08999943 0.24499103 -0.10918993
-0.041568946 -0.07972794 -0.058594275 0.059810966 0.1568351 -0.056046255 0.17818157 -0.028522367
-0.003716405 0.042948764 -0.05866852 0.13917986 -0.07044323 -0.0090599675 -0.19324724 -0.005106089
-0.12213736 0.066988625 0.19444977 -0.043256093 -0.098684356 0.13217624 0.120636225 -0.16379975
-0.07282862 0.003919247 -0.037300747 -0.12555793 0.05780701 0.11939374 -0.004947569 -0.1236612
0.043422513 0.10713317 0.0071563367 0.12600768 0.06840115 0.05537444 0.023508636 -0.13913725
-0.033238124 0.14058615 -0.064668484 -0.14412051 0.22884458 0.16404419 0.024690742 0.045823492
0.14079183 -0.18320481 -0.1516218 -0.04324108 0.07334746 0.04041074 0.00020386881 0.1267893
-0.17643148 -0.1122464 -0.12197559 0.22109337 -0.11054487 0.023280136 -0.033494256 -0.121907614
0.08056978 0.07646977 -0.03552245 0.10457363 -0.016954333 -0.20884827 -0.05694218 0.12393269
0.021905499 -0.07291164 0.039512932 -0.17162058 0.051294547 -0.122099355 -0.029122746 -0.25603452
0.053915758 0.060466908 0.13538821 -0.035893507 -0.062022332 0.1649018 -0.22011651 0.0479483
-0.13762951 0.011606121 0.12668017 -0.100794144 -0.07476877 -0.026945587 -0.07049896 0.09927244
-0.18729497 0.057022035 -0.026624665 0.015289655 -0.09898668 0.11665891 -0.14715019 0.051321387
0.0109945275 -0.097550206 0.055098675 -0.101181485 0.03606976 -0.07276619 0.04059268 -0.12200073
0.012253294 -0.08635688 -0.06392444 0.16478206 -0.026967775 -0.034090605 -0.16276862 0.093773775
0.04915592 -0.091998726 0.06172322 0.09032338 0.025039116 -0.0492797 -0.07567202 0.09582401
-0.040459953 -0.017819805 0.04231109 0.08307697 0.08970965 0.00076631294 -0.11229337 -0.31315336
-0.023816982 0.12987038 0.012363668 0.048039503 0.06326566 -0.042972986 -0.19229604 0.21372794
0.081214145 -0.04043649 0.05229993 -0.0327086 -0.032522917 -0.21564247 0.072847314 0.069613606
-0.10400824 0.097259484 0.07897954 -0.05134162 0.0717127 0.22996439 -0.008390989 0.18738078
-0.1822213 0.089678265 0.005100208 0.10425394 0.027076295 -0.067412905 0.12549566 -0.13836731
0.09406258 -0.04807016 -0.015952671 0.11373509 0.016988648 -0.059851117 0.030259788 -0.08741181
-0.048857987 0.21121246 0.14749253 0.017567188 -0.018607631 0.03247444 0.18004675 0.026265489
-0.09278673 -0.14522864 -0.06033593 -0.02753861 0.09960569 -0.02160563 -0.058721606 -0.041760277
0.040779695 -0.06688725 0.018654129 -0.0076660695 -0.26895365 0.08909385 -0.17966883 -0.16249323
-0.011821078 -0.10483624 0.006941007 0.14845428 0.15772949 -0.045970853 -0.04159638 -0.0191078
0.06958648 0.11770896 -0.08708916 -0.10124026 -0.15507297 0.044075817 -0.082770936 0.042133283
0.02824139 0.007888368 0.032984734 0.16317068 -0.11289692 -0.025159437 0.07726071 0.025940498
-0.06431095 0.030288279 -0.09388779 0.114576496 -0.11470968 -0.03549974 -0.063056305 -0.0040663113
00000000: 2d86 a5bd 453a e43d 4121 143d 2934 1dbe
00000010: 948c 423d 5046 4abd b6d1 adbd 50ef 943d
00000020: 9e11 16bd 2730 00be 6c65 e03d 87e1 2b3e
00000030: b2d2 17bd 05eb cd3d c112 b43b 0c41 e3bd
00000040: b8ce 50bc b407 a9bd 47e1 a9bb 12da 613c
00000050: 1462 e3bc 9f51 b8bd eede 7a3e f89e dfbd
00000060: 3344 2abd 6748 a3bd 8d00 70bd 58fc 743d
00000070: 6199 203e c290 65bd 3b75 363e bda7 e9bc
00000080: ee8e 73bb 0beb 2f3d 674e 70bd 2a85 0e3e
00000090: 8a44 90bd 4270 14bc 9be2 45be fb50 a7bb
000000a0: 2723 fabd 5531 893d d71d 473e 4d2d 31bd
000000b0: 061b cabd 3559 073e 2010 f73d 1fbb 27be
000000c0: 2c27 95bd 076d 803b abc8 18bd 4292 00be
000000d0: 0bc7 6c3d b584 f43d 381f a2bb 1542 fdbd
000000e0: cedb 313d a368 db3d b47f ea3b 2808 013e
000000f0: e715 8c3d 4fd0 623d 2f95 c03c ff79 0ebe
00000100: b324 08bd d1f5 0f3e e970 84bd 5494 13be
00000110: 3c56 6a3e 33fb 273e 3d44 ca3c 6ab1 3b3d
00000120: bc2b 103e 0b9a 3bbe bf42 1bbe 8f1d 31bd
00000130: 3137 963d bb85 253d 9ec5 5539 0ed5 013e
00000140: 74aa 34be 71e1 e5bd 57ce f9bd 4d66 623e
00000150: 5965 e2bd fcb5 be3c 4631 09bd b3aa f9bd
00000160: c501 a53d 2f9c 9c3d fd7f 11bd b32a d63d
00000170: d0e3 8abc 52dc 55be 343c 69bd 6cd0 fd3d
00000180: 2973 b33c b352 95bd 50d8 213d 4ebd 2fbe
00000190: 3b1a 523d 3a0f fabd d392 eebc f516 83be
000001a0: c5d6 5c3d 26ac 773d 35a3 0a3e 1205 13bd
000001b0: 210b 7ebd 04dc 283e 3966 61be 7065 443d
000001c0: c0ee 0cbe 9a27 3e3c 72b8 013e 296d cebd
000001d0: 5e20 99bd febc dcbc c261 90bd 594f cb3d
000001e0: 41ca 3fbe f08f 693d f81b dabc 7681 7a3c
000001f0: 87b9 cabd deea ee3d 8aae 16be 6036 523d
00000200: 6422 343c 67c8 c7bd 26af 613d 3d38 cfbd
00000210: e2bd 133d 7106 95bd 8344 263d 85db f9bd
00000220: 0ac2 483c e0db b0bd d1ea 82bd a1bc 283e
00000230: 86eb dcbc 97a2 0bbd d1ac 26be 770c c03d
00000240: b857 493d d469 bcbd 7dd1 7c3d 77fb b83d
00000250: d51e cd3c 83d9 49bd eff9 9abd 613f c43d
00000260: 56b9 25bd d7fa 91bc 654e 2d3d 4224 aa3d
00000270: b1b9 b73d 64e2 483a 11fa e5bd a355 a0be
00000280: d51b c3bc befc 043e fb90 4a3c 12c5 443d
00000290: 6d91 813d 7104 30bd 41e9 44be 7fdb 5a3e
000002a0: 9a53 a63d bca0 25bd 7438 563d 74f9 05bd
000002b0: c036 05bd 61d1 5cbe f930 953d 9491 8e3d
000002c0: 4602 d5bd fb2f c73d 06c0 a13d 974b 52bd
000002d0: 1cde 923d c97b 6b3e 5c7a 09bc bfe0 3f3e
000002e0: 3898 3abe 3da9 b73d a51f a73b 1783 d53d
000002f0: 1bcf dd3c c70f 8abd ef81 003e 29b0 0dbe
00000300: e2a3 c03d 37e5 44bd 2daf 82bc f1ed e83d
00000310: c72b 8b3c 7226 75bd 60e3 f73c f704 b3bd
00000320: 501f 48bd 1448 583e 4808 173e 10e9 8f3c
00000330: 086f 98bc eb03 053d 2d5e 383e b92a d73c
00000340: f806 bebd d1b6 14be cf22 77bd a798 e1bc
00000350: 11fe cb3d 4afe b0bc 1186 70bd d30c 2bbd
00000360: 9c08 273d 2ffc 88bd 8bd0 983c a733 fbbb
00000370: 4bb4 89be d676 b63d 1bfb 37be a064 26be
00000380: 32ad 41bc 62b4 d6bd 6371 e33b 6604 183e
00000390: d783 213e ef4b 3cbd f760 2abd f687 9cbc
000003a0: 5b83 8e3d 6511 f13d cd5b b2bd 0e57 cfbd
000003b0: 73cb 1ebe d888 343d cf83 a9bd f393 2c3d
000003c0: 7d5a e73c 373e 013c 001b 073d 3716 273e
000003d0: 8036 e7bd 2a1b cebc dd3a 9e3d 2b81 d43c
000003e0: 76b5 83bd 201f f83c 3e48 c0bd 15a7 ea3d
000003f0: e9ec eabd 2d68 11bd aa23 81bd b13e 85bb

0.bias f4 [128]
0.08536047 0.10221028 -0.008050128 0.1075379 -0.09607396 0.11993014 -0.12732817 0.5492006
0.05090312 -0.47358906 0.19413666 0.31463844 -0.09322589 -0.18974513 -0.051871482 0.12496425
-0.095409825 -0.21981595 -0.024130456 -0.036547933 0.09991833 -0.2239515 -0.22056927 -0.22757077
-0.13229051 0.0434172 0.2162806 0.4232889 -0.28515413 0.24619842 0.16101405 -0.32820097
-0.24242805 -0.36932772 -0.034298025 -0.21180622 0.20007722 -0.13294475 0.08319814 -0.09144761
-0.12167954 -0.15614039 0.01239206 -0.121534474 -0.1832573 -0.0888054 0.42930728 -0.045007877
-0.34090042 0.22045317 -0.23246105 -0.21493582 -0.24828425 0.1803439 -0.1992888 -0.028651305
0.32364643 0.13541876 0.116491474 -0.12210858 -0.000619115 -0.024525087 -0.2064885 0.16504838
-0.13239828 0.10926442 -0.21175215 -0.19651872 -0.13726321 -0.2147828 0.3563813 0.17531236
0.0671502 -0.094521314 0.033340912 0.06368114 -0.106363736 -0.22359659 0.02459067 0.12199096
-0.2397549 0.1409485 0.090478465 0.01894378 -0.20709048 -0.089657634 0.26825985 0.17647775
-0.12859201 0.028036702 0.14660572 -0.10570871 -0.13453801 -0.1548161 0.26238972 -0.21055976
0.00031636897 -0.06718591 0.3535594 -0.06586148 0.34673426 -0.24552302 -0.16251327 0.023653436
-0.2883275 -0.06612153 0.21287417 -0.14479159 -0.22748797 -0.15168476 -0.16598825 -0.2856373
-0.1267113 -0.15098688 0.11296938 -0.22151004 0.10891486 -0.06176374 -0.07101956 -0.19411586
0.105355576 -0.15174241 0.20705785 -0.2807593 -0.19967325 -0.22582376 0.03914581 0.020303342
00000000: 78d1 ae3d a053 d13d afe4 03bc d53c dc3d
00000010: 6dc2 c4bd ef9d f53d 5162 02be 6998 0c3f
00000020: ca7f 503d 447a f2be c3cb 463e 4a18 a13e
00000030: 37ed bebd 8c4c 42be 3177 54bd 42ed ff3d
00000040: 3a66 c3bd 6f17 61be 3cad c5bc 49b3 15bd
00000050: fba1 cc3d 8b53 65be e9dc 61be 5008 69be
00000060: 2a77 07be 3cd6 313d a978 5d3e 53b9 d83e
00000070: b9ff 91be 701b 7c3e dee0 243e f509 a8be
00000080: 0f3f 78be 8618 bdbe 167c 0cbd bbe3 58be
00000090: 0be1 4c3e ab22 08be c963 aa3d e248 bbbd
000000a0: 1f33 f9bd 44e3 1fbe 1108 4b3c 11e7 f8bd
000000b0: cda7 3bbe 9bdf b5bd 2ace db3e 2e5a 38bd
000000c0: 808a aebe 7abe 613e 450a 6ebe 2318 5cbe
000000d0: 3a3e 7ebe 12ac 383e 5d12 4cbe 24b6 eabc
000000e0: fcb4 a53e 37ab 0a3e 1593 ee3d 1014 fabd
000000f0: 1b4c 22ba d6e8 c8bc b971 53be 7102 293e
00000100: 6a93 07be 06c6 df3d 8ed5 58be 343c 49be
00000110: ba8e 0cbe 06f0 5bbe 9c77 b63e 1585 333e
00000120: 0b86 893d 6494 c1bd 7b90 083d 426b 823d
00000130: 3bd5 d9bd 81f6 64be 5f72 c93c 65d6 f93d
00000140: 4f82 75be ce54 103e c64c b93d fc2f 9b3c
00000150: 870f 54be 6c9e b7bd 5b59 893e 95b6 343e
00000160: a0ad 03be 3aad e53c cf1f 163e cf7d d8bd
00000170: 55c4 09be 1d88 1ebe f257 863e fa9c 57be
00000180: 53de a539 c498 89bd bd05 b53e 62e2 86bd
00000190: 2787 b13e 636a 7bbe e169 26be dac4 c13c
000001a0: a99f 93be ba6a 87bd b0fb 593e 3f44 14be
000001b0: 9bf2 68be 4053 1bbe d3f8 29be 0d3f 92be
000001c0: 9bc0 01be 4e9c 1abe 7e5c e73d 87d3 62be
000001d0: c10e df3d fafb 7cbd b472 91bd 4fc6 46be
000001e0: aac4 d73d 5d62 1bbe f906 543e afbf 8fbe
000001f0: 2577 4cbe 583e 67be 5b57 203d 3253 a63c

2.weight f4 [128, 128]
0.04427388 -0.008084559 -0.03125388 -0.05678712 0.05833953 -0.014282078 -0.041585132 0.03376326
0.008660712 -0.0331613 0.0065339715 0.064915136 -0.002366049 -0.036813114 0.07684647 -0.048315704
-0.06088709 -0.041409988 -0.08210267 0.037125986 0.0835627 -0.07647869 0.046490565 0.009750014
-0.010688686 -0.061692335 -0.03908558 -0.010700655 0.02450238 0.05354089 -0.06461256 -0.018459072
-0.010014773 0.006430438 -0.062185816 0.04814135 0.024059592 -0.051311444 -0.050381888 -0.006911458
0.020496806 -0.061896827 0.02045994 -0.038645897 -0.00650006 0.016640274 0.04634574 0.0041076085
-0.047926888 -0.07902709 0.046348955 0.0778047 -0.053147856 -0.05462451 0.007918024 -0.013429282
0.0760627 0.08941762 0.030691957 0.09248798 0.08135639 -0.008285429 0.063899 -0.07636776
-0.02859311 0.07584263 -0.05502716 -0.0034372888 -0.06802912 0.09372565 0.06352312 -0.050542727
0.084641606 -0.05399891 0.069556616 -0.0015669581 -0.0058176373 0.06427992 -0.08052848 -0.045500938
-0.00806168 -0.069269866 0.020621693 -0.070192076 -0.060657058 0.032920107 0.011602522 0.08106525
-0.07187009 0.07638994 0.05941677 -0.0074696303 0.048904534 -0.069767535 -0.056228742 -0.059456717
-0.07393743 -0.069412775 0.040102914 0.0859603 0.009889629 -0.03454025 -0.05785956 -0.023503512
0.051121123 -0.042293824 -0.0285111 -0.07904844 0.021899251 0.08479669 0.04536285 0.07591498
0.054796576 0.00033826777 -0.06357742 0.09159949 -0.018382441 0.101813175 -0.056045335 0.0064011184
0.021243544 0.054477114 0.008494627 -0.08097164 0.00056470506 0.091488674 0.010997654 0.05626103
-0.034103945 -0.060116053 0.053781606 0.044460744 -0.01872902 -0.02520533 -0.03536775 0.02190219
0.06302495 -0.08497934 0.002332467 0.012421641 -0.0056043137 0.048193406 0.025763776 0.070491634
-0.04271021 -0.013618823 -0.012724019 -0.04988512 -0.03940461 -0.030220669 -0.025562149 -0.04301459
0.013079304 -0.0831656 0.0778677 -0.029914819 0.061138716 0.0072674616 -0.07400352 -0.08886267
-0.015778128 0.05077419 0.012529545 0.056151684 -0.05588084 -0.08402708 -0.086191714 0.02311944
0.046187844 -0.038723465 0.022766965 -0.07047704 -0.016300514 0.07474732 -0.028361809 0.075020276
-0.053958267 -0.049739372 0.07804561 0.07014969 0.019242212 -0.023192726 0.035469513 0.027058829
-0.039935116 -0.06806027 -0.006558878 -0.042742327 -0.029348524 0.013408232 0.07540538 0.070088185
0.06864952 0.03647746 0.029991167 -0.01726805 0.007761991 -0.0073375953 -0.0694887 0.08782521
0.061083607 0.009112557 0.046668414 0.0401113 0.063863 0.048213076 -0.013481421 -0.020455291
-0.050458737 0.007351416 0.06701454 -0.081383474 0.021992682 -0.04935966 0.07882113 -0.0781685
0.010413721 0.052938737 -0.028933076 0.009674353 0.030202413 -0.005277899 -0.027424855 0.082505316
-0.083301574 -0.057234798 -0.033890154 0.007459904 -0.01411967 0.014590663 -0.014743152 -0.045736387
0.010532653 0.06201518 0.040900387 0.021155452 -0.059564378 0.049743026 -0.012786721 0.056227885
-0.032442003 -0.06743057 0.06053415 -0.018854152 -0.037814166 0.039116886 -0.0006442448 -0.03331549
-0.0143349795 -0.00015508557 0.015135534 0.06307472 -0.03349356 -0.028901882 -0.0009047704 0.00026051703
00000000: 8758 353d 1975 04bc 1204 00bd 9c99 68bd
00000010: 6ef5 6e3d 60ff 69bc 2c55 2abd 584b 0a3d
00000020: a9e5 0d3c 25d4 07bd ed1a d63b 3af2 843d
00000030: b70f 1bbb 59c9 16bd af61 9d3d b0e6 45bd
00000040: be64 79bd 859d 29bd 7225 a8bd 6b11 183d
00000050: ec22 ab3d dca0 9cbd e46c 3e3d 86be 1f3c
00000060: 991f 2fbc 1ab1 7cbd 3318 20bd cd51 2fbc
00000070: 37b9 c83c b14d 5b3d 9753 84bd 7b37 97bc
00000080: 0115 24bc 6cb6 d23b 8eb6 7ebd dd2f 453d
00000090: 9f18 c53c f32b 52bd 3d5d 4ebd 8379 e2bb
000000a0: ebe8 a73c 8787 7dbd 9b9b a73c 294b 1ebd
000000b0: 75fe d4bb 2f51 883c 08d5 3d3d 1e99 863b
000000c0: fc4e 44bd f4d8 a1bd 67d8 3d3d 1258 9f3d
000000d0: 91b1 59bd f3bd 5fbd 9aba 013c 7e06 5cbc
000000e0: c3c6 9b3d 9620 b73d b36d fb3c 576a bd3d
000000f0: 2e9e a63d 9cbf 07bc 7bdd 823d b366 9cbd
00000100: 193c eabc 6153 9b3d 2964 61bd 2344 61bb
00000110: da52 8bbd 3cf3 bf3d 6918 823d e405 4fbd
00000120: 9458 ad3d f62d 5dbd b373 8e3d 6462 cdba
00000130: e1a1 bebb 31a5 833d 1eec a4bd 315f 3abd
00000140: 2315 04bc 5cdd 8dbd d3ee a83c ddc0 8fbd
00000150: 8973 78bd 3cd7 063d 8118 3e3c 8a05 a63d
00000160: a030 93bd 5472 9c3d 005f 733d cdc3 f4bb
00000170: 1f50 483d 48e2 8ebd 1c50 66bd e388 73bd
00000180: 826c 97bd 4928 8ebd f442 243d f40b b03d
00000190: 1c08 223c 147a 0dbd 25fe 6cbd 708a c0bc
000001a0: 6264 513d 4a3c 2dbd 1c90 e9bc 26e4 a1bd
000001b0: 0f66 b33c e3a9 ad3d 65ce 393d 5079 9b3d
000001c0: 6072 603d 8859 b139 e134 82bd 8398 bb3d
000001d0: c696 96bc 6d83 d03d cb8f 65bd 79c0 d13b
000001e0: f106 ae3c 6523 5f3d 0c2d 0b3c 76d4 a5bd
000001f0: b708 143a 6a5e bb3d 812f 343c f771 663d
00000200: 94b0 0bbd 403c 76bd 1a4a 5c3d 781c 363d
00000210: 9a6d 99bc 697b cebc c6dd 10bd 396c b33c
00000220: 3a13 813d a609 aebd 4ddc 183b 2384 4b3c
00000230: 64a4 b7bb 7366 453d 8e0e d33c eb5d 903d
00000240: e7f0 2ebd 7c21 5fbc 6778 50bc 5754 4cbd
00000250: ba66 21bd 5691 f7bc b667 d1bc 1130 30bd
00000260: 944a 563c ba52 aabd 1a79 9f3d ec0f f5bc
00000270: 976c 7a3d e323 ee3b 288f 97bd a2fd b5bd
00000280: 2241 81bc 99f8 4f3d b948 4d3c 4fff 653d
00000290: 4fe3 64bd 6416 acbd 4885 b0bd fb64 bd3c
000002a0: 772f 3d3d 7f9c 1ebd c981 ba3c 4456 90bd
000002b0: a888 85bc 1f15 993d 0657 e8bc 3ba4 993d
000002c0: 5803 5dbd 83bb 4bbd 60d6 9f3d a4aa 8f3d
000002d0: d8a1 9d3c acfe bdbc 7b48 113d 7aaa dd3c
000002e0: 0193 23bd 2f63 8bbd dbeb d6bb 9412 2fbd
000002f0: 516c f0bc 33ae 5b3c 236e 9a3d 658a 8f3d
00000300: 1f98 8c3d 6469 153d 09b0 f53c ba75 8dbc
00000310: 4d58 fe3b 3670 f0bb 1750 8ebd b4dd b33d
00000320: ce32 7a3d d64c 153c 6127 3f3d bf4b 243d
00000330: 9bca 823d 137b 453d 2ee1 5cbc db91 a7bc
00000340: d2ad 4ebd 26e4 f03b eb3e 893d 61ac a6bd
00000350: ff29 b43c 5b2d 4abd f96c a13d ce16 a0bd
00000360: 509e 2a3c 4ad6 583d 0f05 edbc 2d81 1e3c
00000370: 0d6b f73c 3af2 acbb 17aa e0bc 8cf8 a83d
00000380: 049a aabd 096f 6abd 67d0 0abd 3672 f43b
00000390: 3056 67bc ad0d 6f3c 438d 71bc 1456 3bbd
000003a0: 2691 2c3c a103 7e3d 2a87 273d 334e ad3c
000003b0: c7f9 73bd 58bf 4b3d 657f 51bc 364f 663d
000003c0: e8e1 04bd 0a19 8abd a8f2 773d 0674 9abc
000003d0: 07e3 1abd 0739 203d 89e2 28ba d375 08bd
000003e0: 43dd 6abc 779e 22b9 08fb 773c 522d 813d
000003f0: 8b30 09bd a4c3 ecbc 1d2e 6dba 0196 8839

2.bias f4 [128]
0.09404152 -0.04208023 -0.024735142 -0.023150928 0.035499148 -0.100784846 -0.013254242 -0.02864761
0.14732902 -0.15337038 0.011532996 -0.1160987 -0.07565936 0.06489952 -0.090861805 0.18830056
0.13019149 0.20309708 -0.060023993 -0.018054174 0.010680714 -0.13158995 -0.06503712 -0.05715133
-0.057519503 -0.021433614 -0.18068069 -0.017937945 0.0114689 0.021761587 0.12151147 -0.10617479
0.16629964 0.11487791 -0.08617169 -0.11339431 0.09148862 0.015688814 -0.34290543 -0.1176215
-0.023408752 -0.023433339 -0.06480321 -0.11082942 0.1099516 0.13274011 0.128255 -0.0133322
-0.15612964 -0.017549045 0.10804916 0.0352314 -0.029182188 -0.03536708 -0.060743883 0.009734608
0.104900844 -0.06360323 -0.029878601 0.057429634 -0.046158068 0.020130828 0.08917363 0.07241615
-0.0512419 0.06384866 -0.040519428 -0.0037778418 0.003973085 -0.25662073 -0.15116778 0.09203554
-0.1079795 0.09172574 0.031626813 0.07998288 -0.03697694 -0.2893629 0.005647714 -0.094041936
-0.033196215 0.019011997 -0.06084605 -0.039667208 -0.21557482 0.077998586 0.02180931 -0.06861874
0.10298479 -0.08686723 -0.075090215 0.020333018 0.0039384663 0.049442485 -0.12028992 0.028958743
0.035107806 0.040867366 -0.027894365 0.007042267 0.039024252 0.03829941 -0.020923335 -0.08876952
-0.0070124236 0.12657875 -0.055773206 0.044597004 0.03409723 -0.13127287 -0.032497745 -0.036505036
-0.033373624 -0.09073296 -0.06540584 0.036851473 -0.03174571 0.03086808 0.056003567 0.0064766225
0.014919371 0.06593188 0.067155845 -0.0481107 0.012187828 0.031556945 -0.04104539 7.610391e-05
00000000: d798 c03d 525c 2cbd 5aa1 cabc 04a7 bdbc
00000010: 8e67 113d 4968 cebd 5228 59bc 65ae eabc
00000020: 6bdd 163e 200d 1dbe e4f4 3c3c 28c5 edbd
00000030: 4bf3 9abd 0aea 843d c115 babd ddd1 403e
00000040: eb50 053e aef8 4f3e b8db 75bd 59e6 93bc
00000050: 29fe 2e3c 84bf 06be 2e32 85bd 8317 6abd
00000060: 9299 6bbd 8c95 afbc 5c04 39be 99f2 92bc
00000070: 0ee8 3b3c 5b45 b23c 01db f83d 2b72 d9bd
00000080: 744a 2a3e 1c45 eb3d c87a b0bd 473b e8bd
00000090: 635e bb3d d485 803c 4d91 afbe 8ae3 f0bd
000000a0: b6c3 bfbc 46f7 bfbc 8cb7 84bd 89fa e2bd
000000b0: 4e2e e13d 06ed 073e 4755 033e 4d6f 5abc
000000c0: 73e0 1fbe 04c3 8fbc e148 dd3d cd4e 103d
000000d0: 7c0f efbc 12dd 10bd 94ce 78bd e87d 1f3c
000000e0: 41d6 d63d 6942 82bd f8c3 f4bc 563b 6b3d
000000f0: 3e10 3dbd 68e9 a43c aaa0 b63d eb4e 943d
00000100: 07e3 51bd 16c3 823d b3f7 25bd ab95 77bb
00000110: a730 823b cb63 83be bacb 1abe 217d bc3d
00000120: 5b24 ddbd b4da bb3d 1e8b 013d 10ce a33d
00000130: 2275 17bd 6027 94be 7510 b93b 0f99 c0bd
00000140: c1f8 07bd 0cbf 9b3c b539 79bd 157a 22bd
00000150: a5bf 5cbe b9bd 9f3d 70a9 b23c fb87 8cbd
00000160: b1e9 d23d 72e7 b1bd e6c8 99bd 6e91 a63c
00000170: 400e 813b 3484 4a3d 905a f6bd e33a ed3c
00000180: 34cd 0f3d 8a64 273d b982 e4bc d1c2 e63b
00000190: e5d7 1f3d d8df 1c3d 6a67 abbc cbcc b5bd
000001a0: 79c8 e5bb dc9d 013e 7272 64bd 59ab 363d
000001b0: 89a9 0b3d 656c 06be 5b1c 05bd 4e86 15bd
000001c0: c8b2 08bd 34d2 b9bd 7ff3 85bd 92f1 163d
000001d0: ca07 02bd 0edf fc3c ff63 653d d939 d43b
000001e0: 6170 743c 4b07 873d 0189 893d ba0f 45bd
000001f0: 75af 473c db41 013d 361f 28bd fa99 9f38

4.weight f4 [128, 128]
0.047888324 0.024455644 -0.03724161 0.050553955 0.0012793362 -0.04954332 0.0067187594 -0.009047753
0.02602653 0.013628282 0.06780211 0.006775348 0.007892491 -0.006926451 -0.061716978 0.04339991
0.07409105 -0.038211264 -0.057852257 -0.034191966 -0.003335999 0.07202171 -0.016151993 0.081132844
0.07143884 -0.07036766 -0.08723326 -0.009066127 -0.011446625 0.011503186 -0.008667396 -0.03895376
0.015266287 -0.043860167 0.047731098 0.06293275 -0.07254302 -0.06669997 0.06712873 -0.019774893
0.0358692 -0.0847329 -0.052936237 -0.06929285 -0.03081908 -0.06685393 -0.031833567 0.0061996253
-0.034073386 0.043682743 -0.034083825 -0.06794802 -0.023049807 0.047750823 -0.017357254 -0.04595019
-0.03281858 0.07023046 -0.07180589 -0.048865914 -0.07462598 0.07483833 -0.04801449 0.07893624
-0.019945145 -0.056628563 -0.04338286 -0.068877116 0.013414398 -0.03345856 0.07874946 0.007980775
0.01592259 -0.040747743 -0.027298257 -0.0480156 0.025848208 0.04256587 -0.05641929 0.039106913
-0.084807895 0.051850393 0.04621487 -0.024842555 0.017358065 -0.06091213 -0.016850859 0.0233299
0.04314214 -0.071296096 -0.073607385 0.06916282 0.030977326 0.07647582 -0.078495465 -0.041128702
-0.037419874 -0.015821561 0.008215723 -0.018264815 0.047058273 -0.05331195 0.075147815 -0.043352075
0.04859308 0.07257964 -0.07817362 0.024508275 0.020391107 0.0806565 0.049238775 -0.08687142
-0.031854425 -0.06929549 -0.04670401 -0.026495894 0.03357987 -0.08544798 0.0053755525 -0.08005362
-0.017005397 -0.083612226 -0.06034056 -0.03863348 0.03533485 -0.049244687 -0.052310903 0.038758665
-0.042337675 0.030991144 0.09348246 0.07790773 -0.013586943 0.044430166 -0.024620663 0.066089705
0.0044095293 0.0073462967 -0.086245984 0.0785116 0.059729192 -0.010181864 -0.044561904 -0.027949633
-0.07850925 -0.052970666 0.040743902 -0.054906577 0.039517894 -0.041632615 -0.042092826 -0.080844596
0.009458342 -0.03144057 -0.0400275 -0.0023827483 -0.047588933 0.017854018 0.061170917 -0.03869559
0.029968392 -0.0279979 0.025661234 -0.07035021 -0.052822653 -0.038707025 0.0005686098 -0.014947745
-0.026044188 0.052070405 -0.060872857 0.087505825 0.02026124 0.004658195 0.07114565 0.062594034
-0.022254087 0.029681927 -0.03530141 0.04841955 0.05812459 0.019647786 0.0011655497 -0.032825906
-0.025495434 0.07305064 0.022683984 0.029640008 -0.007502127 -0.010607408 0.06593822 -0.06695182
0.014122266 -0.0150190415 -0.028532958 -0.075259745 0.057301138 -0.07348014 -0.031367727 0.015195718
0.045928366 -0.0875329 0.046480354 -0.03172144 0.027916493 -0.07740898 -0.07703748 0.08035191
0.0312804 0.019292891 0.045951303 0.07957331 0.05616829 0.027940245 -0.07025341 0.09250443
-0.00559761 -0.016431397 0.018582733 0.06760265 -0.013509939 -0.04368629 0.04968316 0.07302867
0.026373617 0.013503531 0.0027243227 0.018115161 -0.07624424 -0.044464372 0.038481787 0.022230126
0.03608333 0.0046306336 -0.048772126 -0.036718573 -0.01456828 -0.057469647 0.08392814 -0.046216294
0.008185693 0.08816601 -0.07293745 -0.0800386 0.038086843 0.057789374 -0.038952418 0.040981207
0.061512593 -0.030819613 0.07203948 0.008767243 -0.01478529 0.031879134 0.04837204 0.08491043
00000000: 8c26 443d 3457 c83c a98a 18bd aa11 4f3d
00000010: 66af a73a f0ed 4abd 0a29 dc3b 073d 14bc
00000020: 9735 d53c 2849 5f3c d5db 8a3d bd03 de3b
00000030: 824f 013c 48f7 e2bb f1ca 7cbd 1bc4 313d
00000040: 0cbd 973d 6a83 1cbd 7df6 6cbd e00c 0cbd
00000050: c7a0 5abb 1e80 933d 2f51 84bc fa28 a63d
00000060: 874e 923d eb1c 90bd 5aa7 b2bd 188a 14bc
00000070: a08a 3bbc dc77 3c3c b201 0ebc fa8d 1fbd
00000080: 731f 7a3c b8a6 33bd af81 433d e3e2 803d
00000090: 6f91 94bd fe99 88bd ca7a 893d f5fe a1bc
000000a0: 95eb 123d 7188 adbd abd3 58bd 69e9 8dbd
000000b0: 4c78 fcbc b7ea 88bd ea63 02bd 3a26 cb3b
000000c0: 8990 0bbd adec 323d 7b9b 0bbd 5528 8bbd
000000d0: f3d2 bcbc 5e96 433d cd30 8ebc 4436 3cbd
000000e0: c66c 06bd fdd4 8f3d f70e 93bd a027 48bd
000000f0: 81d5 98bd d744 993d d8aa 44bd 53a9 a13d
00000100: 0064 a3bc 5af3 67bd 3ab2 31bd 720f 8dbd
00000110: 10c8 5b3c d80b 09bd 6647 a13d ccc1 023c
00000120: 1770 823c 1be7 26bd 98a0 dfbc 01ac 44bd
00000130: 9fbf d33c 8d59 2e3d ea17 67bd 922e 203d
00000140: c3af adbd 1461 543d ce4b 3d3d 9d82 cbbc
00000150: 8032 8e3c ff7e 79bd d00a 8abc 591e bf3c
00000160: d0b5 303d b003 92bd 78bf 96bd 3da5 8d3d
00000170: 29c4 fd3c 5b9f 9c3d 3bc2 a0bd 9276 28bd
00000180: 9545 19bd 389c 81bc 3d9b 063c 18a0 95bc
00000190: 2dc0 403d a25d 5abd 19e7 993d f291 31bd
000001a0: 8a09 473d a2a4 943d 7e19 a0bd 94c5 c83c
000001b0: 400b a73c 3c2f a53d 99ae 493d a5e9 b1bd
000001c0: c979 02bd cbea 8dbd b44c 3fbd eb0d d9bc
000001d0: 0c8b 093d 5aff aebd 6725 b03b 27f3 a3bd
000001e0: e74e 8bbc e33c abbd aa27 77bd 243e 1ebd
000001f0: 47bb 103d ccb4 49bd f543 56bd 68c1 1e3d
00000200: 456a 2dbd 24e1 fd3c bb73 bf3d 178e 9f3d
00000210: c59b 5ebc 68fc 353d 46b1 c9bc 0a5a 873d
00000220: d07d 903b 34b9 f03b bca1 b0bd b1ca a03d
00000230: 99a6 743d d5d1 26bc 8b86 36bd a1f6 e4bc
00000240: 75c9 a0bd c5f7 58bd 14e3 263d b8e5 60bd
00000250: 84dd 213d f686 2abd 8769 2cbd da91 a5bd
00000260: 29f7 1a3c d4c7 00bd e0f3 23bd e227 1cbb
00000270: 9dec 42bd 9742 923c 5b8e 7a3d 447f 1ebd
00000280: 4680 f53c da5b e5bc 8237 d23c c513 90bd
00000290: 915c 58bd 428b 1ebd c20e 153a 63e7 74bc
000002a0: 9f5a d5bc c747 553d d155 79bd 4136 b33d
000002b0: e6fa a53c c6a3 983b d0b4 913d 4d31 803d
000002c0: 344e b6bc 8327 f33c 3698 10bd 9453 463d
000002d0: 0d14 6e3d 65f4 a03c 5cc5 983a 7574 06bd
000002e0: cddb d0bc 939b 953d c3d3 b93c 9acf f23c
000002f0: 67d4 f5bb b2ca 2dbc 9e0a 873d 091e 89bd
00000300: 1461 673c 6d12 76bc f3bd e9bc c821 9abd
00000310: 99b4 6a3d c17c 96bd 727b 00bd 76f7 783c
00000320: 621f 3c3d 7344 b3bd 2f62 3e3d 57ee 01bd
00000330: 21b1 e43c 9988 9ebd d4c5 9dbd 8b8f a43d
00000340: e01f 003d 200c 9e3c 6f37 3c3d 55f7 a23d
00000350: b910 663d f1e2 e43c 05e1 8fbd f672 bd3d
00000360: 286c b7bb 239b 86bc d13a 983c 4273 8a3d
00000370: cb58 5dbc 65f0 32bd 9280 4b3d 0e90 953d
00000380: 7c0d d83c ea3d 5d3c 8d8a 323b 3f66 943c
00000390: f125 9cbd 4620 36bd 149f 1d3d f41b b63c
000003a0: 1dcc 133d 92bc 973b 48c5 47bd 3766 16bd
000003b0: ccaf 6ebc 4b65 6bbd 84e2 ab3d 4c4d 3dbd
000003c0: 491d 063c 6290 b43d 3b60 95bd 47eb a3bd
000003d0: f300 1c3d 8db4 6c3d 928c 1fbd e9db 273d
000003e0: a1f4 7b3d 6a79 fcbc 6f89 933d 7ba4 0f3c
000003f0: 003e 72bc b293 023d c321 463d 85e5 ad3d

4.bias f4 [128]
-0.033666562 0.039145958 0.098849 -0.08737315 -0.06668325 -0.0393325 -0.02577272 -0.07303088
0.099362634 0.08508391 -0.053792432 0.019069167 -0.014663688 -0.004430974 0.07243402 0.03093715
-0.12821266 0.033901885 0.113292225 -0.06258304 -0.018789768 0.015423126 0.03858198 -0.07223581
0.11723013 -0.072638035 -0.045100216 -0.081532344 -0.08170591 -0.06382311 -0.016959986 0.10261369
-0.015872179 -0.02119455 -0.06516214 -0.055645097 0.019704398 0.032633666 -0.043900993 -0.028929284
0.012686597 -0.033829354 0.113797955 0.15429437 0.0531098 0.0846556 -0.012850995 -0.039886903
-0.0185626 0.06164713 0.020946542 -0.046343062 0.008643212 -0.00057613454 -0.03605066 -0.038094103
-0.010510666 -0.08254405 -0.043769594 0.1531314 0.021697115 -0.0094419075 0.11570196 0.047072157
-0.090731606 -0.07409418 0.009506749 -0.046191044 0.0764401 0.041508082 0.10959059 -0.06622173
0.04312327 0.17163463 0.19631562 0.15103857 -0.030870022 -0.078844264 0.05723206 -0.05497892
0.0026700862 0.07467264 -0.05283413 -0.041962925 0.11006122 0.031848907 0.11110477 -0.010237891
-0.06892947 -0.012026276 0.14115025 0.055959135 -0.07448 -0.016398424 0.05776433 0.08090575
0.100115545 0.0890182 -0.05201235 0.0062288446 0.021728793 -0.027267462 0.009487062 -0.024744576
0.12258082 0.015084509 -0.0361025 -0.031268205 0.11832277 0.011212518 -0.052981302 -0.04038559
-0.044962984 0.020829469 0.19618165 -0.042886782 -0.07603916 -0.052703924 -0.025091715 -0.0016474966
0.05357973 0.08245243 0.11965373 0.0057878345 0.032057352 0.0074591585 0.102219544 0.042314366
00000000: f3e5 09bd 8357 203d 5871 ca3d b2f0 b2bd
00000010: 3a91 88bd 1e1b 21bd 5021 d3bc 3791 95bd
00000020: a37e cb3d 7940 ae3d 7455 5cbd f136 9c3c
00000030: f73f 70bc b431 91bb 4a58 943d e86f fd3c
00000040: 2e4a 03be b4dc 0a3d c105 e83d 892b 80bd
00000050: 00ed 99bc 47b1 7c3c 2308 1e3d 5ef0 93bd
00000060: 5a16 f03d 40c3 94bd 01bb 38bd 6efa a6bd
00000070: 6e55 a7bd b1b5 82bd abef 8abc 2027 d23d
00000080: 5f06 82bc 31a0 adbc ba73 85bd 1dec 63bd
00000090: 1e6b a13c e1aa 053d 87d1 33bd 1bfd ecbc
000000a0: 72db 4f3c a690 0abd e70e e93d 58ff 1d3e
000000b0: a989 593d ea5f ad3d fb8c 52bc 7360 23bd
000000c0: 9810 98bc b381 7c3d 1598 ab3c 39d2 3dbd
000000d0: 429c 0d3c bc07 17ba dba9 13bd 9008 1cbd
000000e0: ee34 2cbc db0c a9bd bf47 33bd 7ace 1c3e
000000f0: 26be b13c 3bb2 1abc 26f5 ec3d bcce 403d
00000100: 7ed1 b9bd b0be 97bd 32c2 1b3c d232 3dbd
00000110: a18c 9c3d 6104 2a3d 0871 e03d 429f 87bd
00000120: 07a2 303d fdc0 2f3e f606 493e dba9 1a3e
00000130: 21e3 fcbc 1a79 a1bd 2a6c 6a3d 9331 61bd
00000140: 9dfc 2e3b f8ed 983d 9a68 58bd 51e1 2bbd
00000150: c767 e13d 0074 023d e68a e33d d4bc 27bc
00000160: e52a 8dbd dc09 45bc b189 103e 6835 653d
00000170: f888 98bd fd55 86bc 4a9a 6c3d eab1 a53d
00000180: 6109 cd3d 2d4f b63d e70a 55bd 561b cc3b
00000190: 9500 b23c 0360 dfbc 9f6f 1b3c 23b5 cabc
000001a0: a70b fb3d 0425 773c 37e0 13bd 1713 00bd
000001b0: 3553 f23d b6b4 373c ec02 59bd 5c6b 25bd
000001c0: 1b2b 38bd 90a2 aa3c d8e3 483e 0daa 2fbd
000001d0: 6bba 9bbd 12e0 57bd 248d cdbc d0f0 d7ba
000001e0: 6b76 5b3d d2dc a83d 040d f53d e0a7 bd3b
000001f0: 924e 033d f56b f43b 7b58 d13d d451 2d3d

6.weight f4 [128, 128]
0.007365112 0.050592605 -0.018555036 -0.010658433 0.035462927 -0.06271537 0.015694417 0.055455223
0.069556825 0.039297257 -0.039488006 -0.048255436 0.06862686 -0.08599663 0.094433226 -0.03454182
0.05072184 -0.010238052 0.077379294 -0.06657517 0.07787506 0.070201956 0.005741388 0.09107566
-0.052017577 -0.012323967 0.0015462306 -0.011583199 -0.07119061 -0.0030317695 0.009072184 0.11321033
-0.01700696 0.055421013 -0.015180908 -0.022190338 0.07786554 -0.09524806 0.033887062 0.039403297
0.07312885 -0.0435521 -0.023708602 -0.06263501 0.04170763 0.017603869 0.042754903 0.03981132
-0.008957125 -0.055206876 -0.012202181 0.049335282 0.04628193 0.06272753 0.067554586 -0.08634794
0.020723935 0.044830758 -0.045787808 -0.08618891 0.016777147 -0.032699373 -0.043466005 0.0729945
-0.039200906 -0.048307367 -0.10172709 0.07781177 0.05550376 0.03266774 0.030486926 -0.075165465
-0.05863442 0.05782488 -0.04538596 -0.068388045 -0.029757421 -0.042276982 0.025568608 -0.022480411
-0.056644898 0.005390505 -0.05888062 -0.06376376 -0.031910393 -0.035078604 -0.030729955 0.08675904
0.028579816 -0.044411212 0.029067054 -0.076089546 -0.06609564 0.002815216 0.10630324 0.08727952
-0.0047092326 -0.009011292 -0.031366788 -0.015809096 -0.031423062 -0.09009657 -0.05143094 -0.0153818745
0.030851748 0.09677279 0.107452326 0.09017948 0.069228664 0.08704699 0.06885558 0.05351113
0.03281547 0.05620386 0.0012023097 -0.023833558 0.036320087 -0.06904392 0.054056738 0.11673619
0.08149575 -0.06850299 0.072682925 0.02334595 0.054552283 0.031484496 0.06922016 -0.08263756
0.08725078 -0.07341412 -0.051479127 0.017858269 -0.007006097 -0.06120104 0.064923726 0.0169448
-0.02120685 0.036483314 -0.07368676 -0.07397254 0.06530293 0.05541255 0.061143905 0.04526579
-0.053145338 0.073086105 0.03246883 0.06977315 -0.06698846 -0.09102246 -0.06009422 -0.04442223
0.005985147 -0.0076270807 0.09747781 -0.01667585 -0.015323043 0.061859388 0.10771022 0.0073839147
0.084012 -0.04917725 0.08442354 0.028080149 0.0069732764 0.085995644 0.07030402 -0.056646828
-0.03379422 -0.08561763 -0.013938765 0.00037763605 0.040229797 0.016383993 -0.05602384 0.08881112
-0.00059494056 -0.04569522 0.042316858 0.0511936 0.03263824 -0.037368603 -0.010580796 0.06833896
0.057260636 -0.002604658 -0.02018533 0.07657923 -0.013744609 0.0364145 0.058938134 -0.076986834
-0.04753169 -0.06367623 0.0039384174 -0.027624719 -0.048556525 0.09355089 0.104178086 -0.017278453
0.017644865 -0.0031721657 0.0042344024 0.05777897 0.037950683 0.08861229 -0.048710637 -0.08313972
-0.015963014 0.018483099 0.0028499514 0.09020246 0.058560073 0.037666433 0.0025374582 -0.007757235
-0.01067106 0.008346125 -0.017154641 0.009056945 0.06006487 0.04757483 0.04696191 0.042403262
-0.012319747 -0.03877824 0.05135295 0.005058767 0.089543894 -0.0070396992 0.10139566 -0.07164411
0.11758015 -0.021332545 0.010375701 -0.022737764 -0.017076463 0.034649227 0.1070134 -0.014655441
-0.009745068 -0.041578688 -0.014308387 -0.001888817 0.09803734 -0.08245153 -0.06814552 0.022261284
-0.026910156 0.040422384 0.040963586 -0.056911938 0.019849954 0.02810539 0.015091063 -0.082547024
00000000: 0a57 f13b 313a 4f3d bb00 98bc b5a0 2ebc
00000010: 9341 113d ea70 80bd 9491 803c 0425 633d
00000020: cf73 8e3d 29f6 203d 2dbe 21bd 7ea7 45bd
00000030: 3d8c 8c3d 001f b0bd 3566 c13d b97b 0dbd
00000040: b4c1 4f3d 81bd 27bc 0979 9e3d 9058 88bd
00000050: f67c 9f3d 0bc6 8f3d 4122 bc3b e085 ba3d
00000060: 6210 55bd 77ea 49bc e4aa ca3a 75c7 3dbc
00000070: 62cc 91bd a7b0 46bb 7fa3 143c d1da e73d
00000080: 2e52 8bbc 2501 633d 58b9 78bc 83c8 b5bc
00000090: f877 9f3d 6a11 c3bd 29cd 0a3d 5a65 213d
000000a0: 94c4 953d b063 32bd 8b38 c2bc c946 80bd
000000b0: 9fd5 2a3d fd35 903c c41f 2f3d 3211 233d
000000c0: e8c0 12bc 9b20 62bd a8eb 47bc cb13 4a3d
000000d0: 1f92 3d3d 4b77 803d 0f5a 8a3d 30d7 b0bd
000000e0: 3ec5 a93c 75a0 373d ff8b 3bbd d083 b0bd
000000f0: 3a70 893c c7ef 05bd 6909 32bd 247e 953d
00000100: 2191 20bd f2dd 45bd 4b56 d0bd c75b 9f3d
00000110: e957 633d 9cce 053d b8bf f93c 5af0 99bd
00000120: a52a 70bd c8d9 6c3d a1e6 39bd 080f 8cbd
00000130: d6c5 f3bc a12a 2dbd 4275 d13c d728 b8bc
00000140: 7b04 68bd d5a2 b03b ce2c 71bd 9396 82bd
00000150: 79b4 02bd 95ae 0fbd 63bd fbbc b9ae b13d
00000160: 3820 ea3c 88e8 35bd 081e ee3c d6d4 9bbd
00000170: 275d 87bd 7d7f 383b 83b5 d93d 9bbf b23d
00000180: e84f 9abb 19a4 13bc 767a 00bd 1482 81bc
00000190: 78b5 00bd 8d84 b8bd 40a9 52bd 4204 7cbc
000001a0: cebc fc3c d030 c63d f70f dc3d 05b0 b83d
000001b0: c2c7 8d3d b145 b23d 2804 8d3d 7d2e 5b3d
000001c0: 8469 063d 0536 663d d296 9d3a 983e c3bc
000001d0: 5fc4 143d e666 8dbd 996a 5d3d 6213 ef3d
000001e0: 3ee7 a63d 4c4b 8cbd c9da 943d 0140 bf3c
000001f0: 3772 5f3d e3f5 003d 4dc3 8d3d e23d a9bd
00000200: 89b0 b23d 245a 96bd c7db 52bd 814b 923c
00000210: 6793 e5bb f1ad 7abd bbf6 843d d2cf 8a3c
00000220: fdb9 adbc 876f 153d 16e9 96bd ea7e 97bd
00000230: 8bbd 853d 45f8 623d 0872 7a3d 9f68 393d
00000240: edae 59bd 2bae 953d 09fe 043d 3ae5 8e3d
00000250: 3f31 89bd fc69 babd 5b25 76bd 16f4 35bd
00000260: 0d1f c43b 97ec f9bb 72a2 c73d cb9b 88bc
00000270: 800d 7bbc 4560 7d3d 2d97 dc3d c4f4 f13b
00000280: 7c0e ac3d 166e 49bd 40e6 ac3d 5708 e63c
00000290: 1580 e43b 7c1e b03d 8efb 8f3d 8106 68bd
000002a0: cf6b 0abd 4c58 afbd 6b5f 64bc 74fd c539
000002b0: 00c8 243d b937 863c 4179 65bd 9be2 b53d
000002c0: c9f5 1bba e92a 3bbd 7154 2d3d 61b0 513d
000002d0: adaf 053d d20f 19bd 135b 2dbc 4cf5 8b3d
000002e0: 218a 6a3d e9b2 2abb b55b a5bc 92d5 9c3d
000002f0: 1231 61bc 5f27 153d 1d69 713d 46ab 9dbd
00000300: 97b0 42bd af68 82bd d70d 813b 3c4d e2bc
00000310: 35e3 46bd 9c97 bf3d 525b d53d 8b8b 8dbc
00000320: f78b 903c 1ce4 4fbb bec0 8a3b a4a9 6c3d
00000330: 2d72 1b3d 5c7a b53d ce84 47bd 2845 aabd
00000340: dec4 82bc de69 973c 40c6 3a3b 11bc b83d
00000350: b0dc 6f3d 1e48 1a3d 7c4b 263b 6730 febb
00000360: abd5 2ebc 2fbe 083c e487 8cbc 9563 143c
00000370: 9506 763d d3dd 423d 225b 403d 0baf 2d3d
00000380: c4d8 49bc efd5 1ebd 7957 523d 03c4 a53b
00000390: ca62 b73d 47ad e6bb 87a8 cf3d 26ba 92bd
000003a0: ddcd f03d 97c1 aebc d8fe 293c 8c44 babc
000003b0: f0e3 8bbc 59ec 0d3d d729 db3d 601d 70bc
000003c0: c7a9 1fbc 6a4e 2abd ba6d 6abc 2e92 f7ba
000003d0: cdc7 c83d 59dc a8bd e18f 8bbd 4c5d b63c
000003e0: b072 dcbc f191 253d 6fc9 273d 7e1c 69bd
000003f0: 5f9c a23c 463d e63c 8240 773c 6a0e a9bd

6.bias f4 [128]
0.009269716 0.1431533 0.027745591 0.08117869 -0.066107325 -0.0227858 0.216295 0.05017982
0.2267074 0.19815126 0.014049675 -0.11053501 -0.08572378 0.0061900294 0.013654704 0.050467156
-0.09192256 -0.012677239 -0.07691063 0.014998095 0.057920102 0.15913706 -0.047047764 -0.076751195
-0.0026710876 0.035305206 0.030125825 -0.04162659 0.03103095 -0.058994878 0.066907644 -0.039552625
0.16645339 -0.024522666 0.011015939 -0.064933166 -0.11417489 0.051217645 0.022958903 0.13421376
-0.061871376 0.23654306 0.1347644 0.0017019238 -0.085615866 0.04061778 0.0640169 -0.10185021
-0.02988365 -0.016761832 -0.0700067 -0.09133661 0.053165607 -0.0141804265 0.07492706 0.13166015
-0.055586558 -0.0031940348 0.20864202 -0.051483463 0.040501226 -0.042295273 0.0065919845 0.26935712
0.00036665163 -0.023148889 -0.041783333 0.030608553 -0.08476825 -0.049094133 -0.030491954 0.035889953
0.04364933 -0.08022885 0.008913298 0.17409544 0.012401893 -0.08708472 -0.034517627 -0.03241881
0.0035266336 -0.005604387 -0.090803884 -0.03573751 -0.05373787 -0.030320246 0.013650053 0.007967284
-0.002660084 -0.00031037704 -0.05401752 0.074428044 -0.11485829 -0.074439295 -0.04786292 -0.08644751
-0.009115878 0.0336043 0.019607695 0.132725 -0.030982818 0.1427034 -0.07473318 0.30492485
-0.068982296 -0.09320472 -0.043546565 -0.03391713 0.0051106173 -0.043937553 0.10785806 -0.054992978
-0.006814918 0.058832653 -0.07242257 0.03335695 0.034491356 -0.06255556 0.058956776 -0.01436484
-0.12653235 -0.048313703 0.1582582 -0.019984465 0.042023834 0.26666808 0.13145399 0.012626183
00000000: 02e0 173c c796 123e b94a e33c 0341 a63d
00000010: 4763 87bd 49a9 babc 707c 5d3e 5b89 4d3d
00000020: fc25 683e 2ae8 4a3e 9c30 663c 2e60 e2bd
00000030: f38f afbd bbd5 ca3b fbb7 5f3c a6b6 4e3d
00000040: e541 bcbd 32b4 4fbc 5283 9dbd 92ba 753c
00000050: a13d 6d3d d3f4 223e 28b5 40bd bb2f 9dbd
00000060: 6a0d 2fbb 319c 103d 6fca f63c a580 2abd
00000070: 9e34 fe3c 9da4 71bd e006 893d ef01 22bd
00000080: c272 2a3e c2e3 c8bc 327c 343c aefb 84bd
00000090: 86d4 e9bd 98c9 513d 4f14 bc3c 556f 093e
000000a0: d76c 7dbd 5838 723e aeff 093e 1613 df3a
000000b0: 5f57 afbd d45e 263d 4b1b 833d d896 d0bd
000000c0: 8ece f4bc 1c50 89bc ac5f 8fbd b00e bbbd
000000d0: 2ec4 593d 0555 68bc 5c73 993d ebd1 063e
000000e0: bbae 63bd 0353 51bb 41a6 553e 53e0 52bd
000000f0: 9de4 253d cf3d 2dbd 9301 d83b 2de9 893e
00000100: 263b c039 bda2 bdbc 0025 2bbd cabe fa3c
00000110: fa9a adbd ee16 49bd 43ca f9bc 5801 133d
00000120: a4c9 323d 064f a4bd 1509 123c 1346 323e
00000130: 4f31 4b3c 7959 b2bd 5b62 0dbd 96c9 04bd
00000140: 181f 673b 01a5 b7bb 63f7 b9bd 7f61 12bd
00000150: 3e1c 5cbd 2a62 f8bc 79a4 5f3c 3689 023c
00000160: ce54 2ebb 1aba a2b9 7a41 5dbd bb6d 983d
00000170: d33a ebbd a173 98bd e90b 44bd 640b b1bd
00000180: c35a 15bc aaa4 093d 51a0 a03c 10e9 073e
00000190: aecf fdbc d720 123e b60d 99bd 1c1f 9c3e
000001a0: 9746 8dbd 1ee2 bebd e25d 32bd b0ec 0abd
000001b0: f776 a73b ddf7 33bd b0e4 dc3d 5140 61bd
000001c0: ad4f dfbb 82fa 703d 4952 94bd 4ca1 083d
000001d0: cf46 0d3d 211d 80bd a97c 713d 825a 6bbc
000001e0: b291 01be 97e4 45bd 700e 223e 76b6 a3bc
000001f0: 2f21 2c3d b888 883e e09b 063e 0dde 4e3c

8.weight f4 [49, 128]
0.07237455 -0.08212459 -0.022201601 0.040875543 -0.13739984 0.08355583 -0.19334094 0.094018675
-0.15985383 -0.15995272 -0.10862033 0.016979096 -0.003543264 0.0030353027 0.031333055 0.004303746
0.033347994 0.05490357 0.013595006 0.060908806 0.06386801 -0.05781654 -0.07952111 0.09079627
-0.0418535 0.032591052 0.07018081 -0.018487595 -0.058266837 0.008610344 0.08496268 0.06413
-0.09872261 0.08408539 0.017998606 0.075642526 -0.08001432 -0.013761795 0.038215593 -0.20011829
0.0047160448 -0.23980658 -0.035600193 -0.024420619 0.044153117 0.06351515 0.0010757982 -0.010870457
0.00474237 0.029010748 -0.025749533 -0.03207502 -0.06173132 0.054850187 -0.039664425 -0.07772459
0.06629366 0.065336995 -0.029517865 -0.093445666 -0.018549088 -0.07784851 -0.04193502 -0.16581933
-0.073656276 0.0825769 0.004136689 -2.2063437e-05 -0.030876886 0.055062883 0.11615559 0.08649247
-0.014965788 0.028547993 0.08249556 -0.10505602 -0.056882843 -0.0023201057 -0.019514382 0.03323296
-0.03381454 0.08968078 -0.04465586 -0.08435499 -0.035458367 0.07152734 0.044611007 -0.07749472
0.04655711 0.053781655 0.015288066 -0.0610962 -0.058299266 -0.0019107317 -0.13960667 0.032607004
0.0817307 0.035746507 0.03629054 -0.117189296 -0.029861646 -0.16974927 -0.034401014 -0.2306599
0.10431086 0.16530976 -0.057588317 0.047742553 0.004050645 -0.052087728 0.026820026 0.06087503
-0.029542325 0.036119137 0.038684864 0.07138783 -0.035544325 0.033397987 -0.11201225 0.0805295
-0.07351133 -0.04932488 -0.2492378 0.009301264 -0.034100734 -0.12732461 -0.043400716 0.07053202
0.04110541 -0.09957923 0.021943532 -0.00846702 -0.015801247 0.035670802 -0.04560005 0.079155274
-0.17456676 -0.02402336 -0.15544577 -0.030802745 0.049340993 0.025323138 0.072186194 0.008556982
0.087091856 0.02352188 0.041641615 -0.024045574 0.036314573 -0.14478804 0.0023971093 0.12151925
-0.010846096 0.011399829 0.032382205 -0.06589148 0.012557227 0.0032569086 -0.0452772 -0.023315765
-0.103449665 -0.0074042627 0.12394887 0.047968667 0.038542654 -0.044436853 0.022251567 -0.115431435
0.046166785 -0.2687432 -0.13571702 0.06713401 0.0456829 -0.04468269 0.07762417 0.06708701
-0.034525152 0.031389177 -0.015893798 0.012166499 -0.15063553 -0.060366582 -0.039799944 -0.04388679
-0.06550338 0.011490299 -0.16402933 -0.15755557 0.055939127 0.00284744 -0.053085018 -0.10197199
-0.03606381 -0.070586674 0.06332327 0.010608703 -0.051351942 0.04448075 0.008500316 0.10409766
-0.07758326 -0.017924443 0.01880707 -0.048351966 0.07451381 -0.08930253 -0.06773005 0.0017698793
0.03362808 -0.075076655 0.0044645886 -0.019322556 0.075290136 0.021438085 0.064410135 -0.12999102
0.082472436 0.073613904 -0.029742407 -0.10971527 -0.07476989 -0.055260196 -0.15626463 0.024499828
-0.038253237 0.016393654 -0.025673928 -0.06713042 0.017580245 -0.26536578 0.04858153 -0.17462085
0.10267576 0.08911514 0.0456681 -0.08536322 0.0776107 0.043623917 -0.07428077 0.09004388
-0.014691771 -0.017425548 -0.014004698 0.0037685751 -0.12484439 -0.011064303 -0.025969997 -0.061654516
-0.03829857 0.057187457 -0.21574989 0.00441874 0.0168645 -0.18125682 -0.06324718 0.015840871
00000000: 1c39 943d f030 a8bd 22e0 b5bc 1d6d 273d
00000010: 8bb2 0cbe 521f ab3d 2bfb 45be dd8c c03d
00000020: b9b0 23be a5ca 23be 5674 debd bf17 8b3c
00000030: 1b36 68bb eeeb 463b 1757 003d 7006 8d3b
00000040: e897 083d 91e2 603d 97bd 5e3c 837b 793d
00000050: 3bcd 823d 09d1 6cbd f7db a2bd 65f3 b93d
00000060: 936e 2bbd 327e 053d f5ba 8f3d 4c73 97bc
00000070: 35a9 6ebd 6612 0d3c ea00 ae3d 9756 833d
00000080: 142f cabd f634 ac3d d071 933c 78ea 9a3d
00000090: 8cde a3bd 2779 61bc f487 1c3d cfeb 4cbe
000000a0: 0d89 9a3b db8f 75be 82d1 11bd c00d c8bc
000000b0: e6d9 343d 3b14 823d cc01 8d3a 001a 32bc
000000c0: e265 9b3b f3a7 ed3c aff0 d2bc 1961 03bd
000000d0: fbd9 7cbd 97aa 603d 2a77 22bd 122e 9fbd
000000e0: f8c4 873d 67cf 853d 73cf f1bc 7160 bfbd
000000f0: 42f4 97bc 0a6f 9fbd 0ec4 2bbd 8bcc 29be
00000100: 1ad9 96bd 141e a93d 108d 873b df14 b9b7
00000110: 86f1 fcbc 9e89 613d fbe2 ed3d f722 b13d
00000120: 1133 75bc 7bdd e93c 6ff3 a83d 9c27 d7bd
00000130: fcfd 68bd ea0c 18bb a0dc 9fbc 491f 083d
00000140: 1d81 0abd 8faa b73d 10e9 36bd 4fc2 acbd
00000150: cb3c 11bd ed7c 923d 08ba 363d 8db5 9ebd
00000160: abb2 3e3d 274a 5c3d cc7a 7a3c 0240 7abd
00000170: 36cb 6ebd 8471 faba 0df5 0ebe ec8e 053d
00000180: 6d62 a73d ee6a 123d 64a5 143d f100 f0bd
00000190: 69a0 f4bc c1d2 2dbe 14e8 0cbd 1c32 6cbe
000001a0: efa0 d53d f646 293e bae1 6bbd b28d 433d
000001b0: 46bb 843b f159 55bd acb5 db3c 1858 793d
000001c0: bf02 f2bc a9f1 133d 0574 1e3d c833 923d
000001d0: ed96 11bd 54cc 083d ae66 e5bd a7ec a43d
000001e0: 1c8d 96bd e308 4abd 3238 7fbe 5464 183c
000001f0: 36ad 0bbd 6261 02be f3c4 31bd 1773 903d
00000200: 255e 283d 32f0 cbbd ecc2 b33c 41b9 0abc
00000210: 9e71 81bc 8c1b 123d 1ec7 3abd 291c a23d
00000220: a1c1 32be a3cc c4bc 2d2d 1fbe 0a56 fcbc
00000230: c819 4a3d 7872 cf3c 5bd6 933d 9532 0c3c
00000240: 375d b23d f5b0 c03c 6690 2a3d 39fb c4bc
00000250: 97be 143d 5143 14be d218 1d3b 16df f83d
00000260: d3b3 31bc 59c6 3a3c 34a3 043d 1df2 86bd
00000270: d4bc 4d3c dc71 553b 9674 39bd b400 bfbc
00000280: 6bdd d3bd 759f f2bb e8d8 fd3d cb7a 443d
00000290: e7de 1d3d 6b03 36bd eb48 b63c 5167 ecbd
000002a0: 6219 3d3d b598 89be 67f9 0abe 8e7d 893d
000002b0: fe1d 3b3d 3205 37bd 6cf9 9e3d ea64 893d
000002c0: 3f6a 0dbd f091 003d b633 82bc ff55 473c
000002d0: 3340 1abe f342 77bd 4405 23bd a2c2 33bd
000002e0: a326 86bd cf41 3c3c 4ef7 27be 3f56 21be
000002f0: 6d20 653d 1e9c 3a3b ad6f 59bd b1d6 d0bd
00000300: a5b7 13bd bf8f 90bd a1af 813d 20d0 2d3c
00000310: 6a56 52bd 7231 363d e944 0b3c 2731 d53d
00000320: f9e3 9ebd 48d6 92bc 4911 9a3c b60c 46bd
00000330: b29a 983d 3fe4 b6bd 0db6 8abd 4bfb e73a
00000340: 99bd 093d cac1 99bd af4b 923b 564a 9ebc
00000350: b731 9a3d ec9e af3c 76e9 833d 5e1c 05be
00000360: 4fe7 a83d e3c2 963d 59a6 f3bc 66b2 e0bd
00000370: f520 99bd 8458 62bd d603 20be ddb3 c83c
00000380: 6daf 1cbd fc4b 863c 2152 d2bc ac7b 89bd
00000390: 7204 903c 06de 87be 6dfd 463d cfcf 32be
000003a0: ab47 d23d 0082 b63d 790e 3b3d e9d2 aebd
000003b0: 5cf2 9e3d feae 323d 8420 98bd ed68 b83d
000003c0: c1b5 70bc 06c0 8ebc f673 65bc 33fa 763b
000003d0: 6aae ffbd 0d47 35bc 08bf d4bc 7289 7cbd
000003e0: f6de 1cbd 653d 6a3d 8aed 5cbe 14cb 903b
000003f0: 6b27 8a3c 639b 39be bd87 81bd b7c4 813c

8.bias f4 [49]
-0.089673914 -0.06303713 -0.09358134 -0.10967203 -0.116923176 -0.06428518 -0.041378208 -0.101066396
-0.14348328 -0.12104932 -0.0946979 -0.09690848 -0.14845309 -0.18202321 -0.1520437 -0.09806465
-0.16592285 -0.19846503 -0.21013379 -0.16499098 -0.15974979 -0.14527108 -0.18097985 -0.19099613
-0.22853938 -0.13239324 -0.083899826 -0.18744054 -0.18503398 -0.12203089 -0.18342242 -0.2951811
-0.12034921 -0.20043834 -0.12948434 -0.08935637 -0.10337653 -0.17297971 -0.12805374 -0.13019362
-0.12206158 -0.087884165 -0.18830793 -0.14142232 -0.10801825 -0.087460205 -0.06363118 -0.13480256
-0.15849537
00000000: f5a6 b7bd 9c19 81bd 93a7 bfbd bb9b e0bd
00000010: 6b75 efbd f3a7 83bd 327c 29bd e6fb cebd
00000020: 48ed 12be b5e8 f7bd f9f0 c1bd f477 c6bd
00000030: 1604 18be 4b64 3abe 58b1 1bbe 1fd6 c8bd
00000040: aee7 29be 6b3a 4bbe 502d 57be 65f3 28be
00000050: 7395 23be f1c1 14be c852 39be 7d94 43be
00000060: 3a06 6abe 1892 07be acd3 abbd 6af0 3fbe
00000070: 8c79 3dbe 55eb f9bd 16d3 3bbe fa21 97be
00000080: a679 f6bd b53f 4dbe 8b97 04be 7900 b7bd
00000090: 13b7 d3bd 9821 31be 8520 03be 7a51 05be
000000a0: 6cfb f9bd 9dfc b3bd cbd3 40be 03d1 10be
000000b0: ac38 ddbd 561e b3bd 1051 82bd af09 0abe
000000c0: 9c4c 22be
