models/snapsRandom/model_1685789524.92429.pt (torch, 252539 bytes, 10 tensors)

0.weight f4 [128, 49]
000000 52 98 a5 bd 51 23 e4 3d 2d 85 10 3d 1d 2d 1d be
       -0.080856934 0.111395486 0.035283256 -0.1534924
000010 a1 d1 4c 3d f1 b3 48 bd 5f 2b b2 bd 2d af 93 3d
       0.050004605 -0.04899973 -0.08699679 0.072111465
000020 05 00 16 bd 70 40 fc bd 87 3b e8 3d 0b 93 2d 3e
       -0.036621112 -0.12316978 0.11339479 0.16950624
000030 2f 52 20 bd be 9c c8 3d d1 55 b8 3b 50 d5 df bd
       -0.039140876 0.09795521 0.0056254645 -0.10929358
000040 a9 b6 51 bc 75 25 a9 bd 4d bb 46 bc 22 cb c7 3c
       -0.012799897 -0.082590975 -0.012129617 0.024388853
000050 19 04 ea bc 78 fc b1 bd ad 31 7a 3e 68 62 e2 bd
       -0.028566407 -0.08690733 0.24433012 -0.11053926
000060 0b 26 27 bd 12 eb a5 bd 8d ea 7b bd c4 31 70 3d
       -0.040807765 -0.08101477 -0.061502982 0.05864121
000070 3a 08 1f 3e 1b bb 8d bd 60 c7 34 3e 5d 51 eb bc
       0.15530482 -0.06920453 0.1765418 -0.02872532
000080 1b 09 8e bb 3d 35 28 3d f8 f3 78 bd 53 6d 0f 3e
       -0.0043345816 0.041066397 -0.06077954 0.14006548
000090 a3 ad 63 bd 5e 17 00 bc 2c a1 44 be 3c 04 f1 bb
       -0.055585515 -0.007818071 -0.19202107 -0.007355241
0000a0 9b 63 fb bd 0e 93 8e 3d f3 5e 47 3e cd 88 33 bd
       -0.122748576 0.06961642 0.19469814 -0.043831635
0000b0 59 cb cb bd cf 39 05 3e f8 fc f7 3d 11 b4 27 be
       -0.09950895 0.13010333 0.12108797 -0.16377284
0000c0 26 27 95 bd af 5f 74 3b cc be 18 bd ff be fe bd
       -0.072828576 0.0037288477 -0.037291333 -0.12438773
0000d0 29 5a 6c 3d 51 1e 00 3e af 4a 8e 3a d4 aa 05 be
       0.05770317 0.12511565 0.0010855998 -0.13053447
0000e0 98 b1 34 3d 9c c4 da 3d ad 1a 59 3c 37 a4 08 3e
       0.04411468 0.106820315 0.013250989 0.13343893
0000f0 85 b6 93 3d 97 84 46 3d 22 3c 92 3c 2c 79 0e be
       0.07212547 0.04846629 0.01785094 -0.13913411
000100 8e 36 d8 bc b1 e1 0f 3e 92 38 84 bd 34 84 1a be
       -0.026393201 0.14050938 -0.064561024 -0.15089494
000110 3c f3 67 3e f6 b1 28 3e bc 10 f2 3c ba ca 3b 3d
       0.2265138 0.16474137 0.029548995 0.045847632
000120 6f 66 08 3e 76 fb 3c be fb 9e 1c be 95 1d 41 bd
       0.13320325 -0.184553 -0.15295021 -0.047147352
000130 18 36 94 3d 9c 26 1e 3d 93 d0 8b bc 58 d3 00 3e
       0.0723688 0.03861104 -0.01706723 0.12580621
000140 66 6b 2e be 55 31 e6 bd 9d 0f 00 be 96 d0 60 3e
       -0.17033157 -0.11239878 -0.12505956 0.21954569
000150 8e fb df bd b2 89 39 3d 61 65 ee bc 8a bc f2 bd
       -0.10936652 0.045297332 -0.029101076 -0.11852367
000160 05 d1 9a 3d 92 59 99 3d b1 64 09 bd 3d 9a d7 3d
       0.075593986 0.07487787 -0.033543292 0.105274655
000170 3c 76 8f bc 4e e5 56 be d2 5d 70 bd dc 6b fe 3d
       -0.017512433 -0.2098591 -0.058683224 0.12422916
000180 55 2f b0 3c 82 7f 95 bd 2e 9f 21 3d ed ba 2f be
       0.021506945 -0.07299711 0.039458446 -0.1716115
000190 b8 35 54 3d 67 fc f9 bd b2 40 d1 bc f1 ad 81 be
       0.051809043 -0.12206345 -0.025543544 -0.2532802
0001a0 8e 0a 47 3d 83 fa 76 3d 62 35 0b 3e a1 03 05 bd
       0.04859405 0.0602975 0.13594583 -0.032474164
0001b0 99 cb 6f bd f0 c7 2b 3e 6f c7 64 be bc 18 38 3d
       -0.058543775 0.16775489 -0.22341703 0.044945464
0001c0 b7 f3 0c be f2 e1 72 3c 82 a0 01 3e da 34 ce bd
       -0.13764845 0.014824377 0.12658885 -0.100686744
0001d0 d2 7b 9f bd 7f ae e9 bc 2e c8 8f bd eb 36 d0 3d
       -0.07787289 -0.028525589 -0.07020603 0.10166725
0001e0 c3 2c 3f be 96 42 5b 3d b7 92 02 bd 8a 9e 68 3c
       -0.18669419 0.0535303 -0.0318782 0.014197955
0001f0 6f 28 cc bd cc 56 ed 3d 6f ac 16 be 16 a0 5a 3d
       -0.099686496 0.11588821 -0.14714216 0.053375326
000200 da e7 b3 3b 6e ae c2 bd 88 0d 61 3d b1 48 d0 bd
       0.0054902853 -0.09505926 0.054944545 -0.10170115
000210 f5 d0 0f 3d 33 8e 93 bd 2c d7 1f 3d 02 9b f3 bd
       0.035111386 -0.07204857 0.039023563 -0.118948
000220 ce 41 66 3c d1 e7 b5 bd 9b 2c 83 bd 2b 2c 2a 3e
       0.014053775 -0.08882106 -0.06404992 0.16618411
000230 cc 05 ca bc 63 0d 0a bd 00 ab 26 be 0f 41 be 3d
       -0.024660967 -0.033704173 -0.16276169 0.09289753
000240 f1 aa 49 3d 27 82 bc bd 31 84 7e 3d 69 ae b6 3d
       0.049235288 -0.09204512 0.062137786 0.08919985
000250 c9 ba cd 3c 0d 7f 49 bd 1e 9b 9c bd 78 6f e8 3d
       0.02511348 -0.04919343 -0.07646774 0.11349386
000260 bd 44 f8 bc 64 36 04 bd ce fb 2c 3d a9 30 ad 3d
       -0.030306214 -0.032278433 0.042232327 0.08456547
000270 12 96 d7 3d 3a 1c 93 3c bb 51 dd bd a3 5e a6 be
       0.105266705 0.017957795 -0.108066045 -0.32494077
000280 b2 8a 4f bd 00 fe 04 3e ac 21 da 3c 33 48 45 3d
       -0.05066938 0.12987518 0.026627384 0.048164558
000290 3b f7 78 3d ef 83 83 bd 12 eb 3c be db 5a 5b 3e
       0.060782652 -0.06421649 -0.18449047 0.21421377
0002a0 c3 f6 cc 3d fe 66 29 bd c8 c2 3b 3d 5a 43 31 bd
       0.100080036 -0.041357987 0.045840055 -0.043277122
0002b0 dd 5b 0f bd 48 09 63 be 58 5f 8f 3d 00 39 8b 3d
       -0.034999717 -0.2217151 0.07000607 0.06797981
0002c0 4e 29 c2 bd d2 7b d6 3d 64 e2 94 3d b9 fa 51 bd
       -0.094805345 0.104728356 0.07269743 -0.0512645
0002d0 87 b4 85 3d 78 99 69 3e 3f b4 e9 bb 55 1d 3e 3e
       0.065285735 0.2281245 -0.0071320827 0.18565877
0002e0 3c f1 2e be a8 21 c2 3d c5 af 9a bc 22 49 d0 3d
       -0.17084211 0.09479076 -0.018882642 0.10170199
0002f0 cc f0 f3 3c 14 34 8c bd a0 5e ff 3d 75 bf 0f be
       0.029777907 -0.068458706 0.1246922 -0.14037879
000300 29 20 bb 3d e3 5d 43 bd e6 f4 89 bc 36 19 e8 3d
       0.091369934 -0.04769696 -0.01684041 0.113329336
000310 9a 35 99 3c af 79 74 bd 9a 77 00 3d 00 18 af bd
       0.018702317 -0.05968636 0.03136406 -0.085494995
000320 3b 68 24 bd 86 08 51 3e 3f 44 1e 3e 3d 02 97 3c
       -0.040138464 0.20413408 0.15455721 0.018433684
000330 db 86 a0 bc 0a 2a 20 3d 99 e5 31 3e e4 0b b6 3c
       -0.019595554 0.03910259 0.17372741 0.022222467
000340 42 f8 b2 bd e2 fa 1f be 14 75 74 bd 30 d0 d5 bc
       -0.08738758 -0.15623048 -0.059681967 -0.026100248
000350 ea 14 ce 3d cb cd 86 bc 0e 59 46 bd 9b 8f 51 bd
       0.10062583 -0.016455552 -0.048424773 -0.051162343
000360 f7 8e 25 3d 82 e9 61 bd 23 8e a9 3c 69 ac 48 3b
       0.040419545 -0.05515433 0.020697659 0.0030620343
000370 a1 7d 89 be 50 c5 bf 3d 37 b8 33 be ac e2 24 be
       -0.2685366 0.09363806 -0.17550741 -0.16102093
000380 bf 9d 08 bc 7d c7 dc bd 61 30 4f bb 6c fe 08 3e
       -0.008338391 -0.10780237 -0.003161453 0.13378304
000390 55 36 21 3e bd 1c 2d bd 1a 53 1e bd 92 01 a4 bc
       0.15743382 -0.042263735 -0.03865347 -0.02002028
0003a0 fa 9b 8f 3d a5 09 d6 3d e4 83 c0 bd 77 eb e0 bd
       0.07012172 0.10451058 -0.09400156 -0.10982411
0003b0 62 ee 1c be dd 08 23 3d f6 1b be bd 5a f6 37 3d
       -0.15325311 0.039803375 -0.09282677 0.044912674
0003c0 cd b4 05 3d 2f 4f 3a 3c 35 fc 04 3d e7 fd 29 3e
       0.03264313 0.011371418 0.032467086 0.16600762
0003d0 b9 f5 e5 bd cc 07 d9 bc 0b ed 9e 3d 7d 3e c5 3c
       -0.112285085 -0.026492976 0.07760056 0.024077648
0003e0 e2 91 88 bd 9b 75 ff 3c 44 dd 96 bd 3c 88 10 3e
       -0.0666845 0.031184008 -0.07366422 0.1411447
0003f0 9b 26 ed bd cb f2 11 bd 5f ea 7e bd b2 04 cc 3b
       -0.11579629 -0.035631936 -0.062235232 0.0062261457

0.bias f4 [128]
000000 b5 84 d7 3d f8 55 00 3e 1b 5c c2 bb 2e 26 fc 3d
       0.10523359 0.12532794 -0.00593139 0.1231197
000010 a6 49 c4 bd 25 2c 24 3e db 18 0e be c5 38 08 3f
       -0.0958436 0.16032465 -0.13876669 0.53211623
000020 e7 ed 09 3d 0a bb ff be c4 95 45 3e ec 09 a4 3e
       0.033674147 -0.49947387 0.19295412 0.3203882
000030 f5 6e cc bd b1 11 3a be 67 15 5f bd 21 d6 0a 3e
       -0.09982101 -0.18170811 -0.05446377 0.13558246
000040 96 1b d7 bd 94 09 61 be ac 24 05 3c b6 ef 40 bd
       -0.105033085 -0.2197631 0.008126419 -0.047103606
000050 be b3 c2 3d 52 fe 65 be f0 d8 5d be 68 7d 61 be
       0.09506939 -0.22460297 -0.21664786 -0.22020495
000060 cd ab 0f be d9 bb 82 3d cb d4 44 3e c5 59 d4 3e
       -0.1403038 0.06383485 0.19221799 0.4147474
000070 a9 6b 92 be 09 92 6c 3e 81 57 25 3e d4 aa ac be
       -0.28597763 0.23102583 0.16146661 -0.33724082
000080 70 92 7b be f3 b1 bc be e3 f7 25 bd c9 24 55 be
       -0.2456758 -0.36854514 -0.040519606 -0.20814814
000090 a8 37 69 3e 29 aa 1c be 1b 3f 98 3d 99 5a aa bd
       0.22775137 -0.15299286 0.074339114 -0.083180614
0000a0 4b 8e e6 bd 1e 0f 20 be e7 13 60 3c 74 7b 17 be
       -0.11257609 -0.15630767 0.01367662 -0.14793187
0000b0 05 90 2b be 69 33 a2 bd d0 97 d9 3e e1 d7 3c bd
       -0.16754158 -0.07919962 0.42498636 -0.046104316
0000c0 86 8a ae be 64 4d 67 3e aa f6 6f be bb 3d 5a be
       -0.3409006 0.22588116 -0.23433939 -0.21312611
0000d0 f4 db 85 be 33 bd 58 3e 63 dc 45 be 23 4c 03 bd
       -0.26144373 0.21165924 -0.19322352 -0.03205503
0000e0 c1 e3 b2 3e 12 2a 0c 3e c5 30 d1 3d c3 48 01 be
       0.34939387 0.13687924 0.1021438 -0.12625413
0000f0 12 63 57 ba c9 f2 cc bc 7c e9 5a be f6 55 38 3e
       -0.0008216362 -0.025018113 -0.2137813 0.18001541
000100 20 fe 0b be 85 2f e7 3d ab fb 54 be 55 b2 43 be
       -0.1367116 0.112883605 -0.20799129 -0.19110997
000110 1e 10 0a be 57 be 52 be 34 44 b1 3e c7 7e 44 3e
       -0.1348271 -0.20580421 0.34622347 0.19188987
000120 ea 1b a8 3d 04 e4 c5 bd 88 94 28 3d ab 94 83 3d
       0.08208449 -0.09662631 0.041157275 0.064248405
000130 b6 73 de bd 84 f6 64 be 17 20 c2 3c fb 2c 21 3e
       -0.10861914 -0.22359663 0.023696942 0.15739815
000140 74 92 7a be c0 80 11 3e 22 49 ec 3d a6 6c a4 3c
       -0.2446993 0.1420927 0.115373865 0.020071339
000150 33 53 4e be 5d db af bd 6b a9 83 3e 1e 63 1f 3e
       -0.20148925 -0.08586762 0.25715193 0.15565154
000160 f9 a0 f1 bd f9 ac 1d 3d d9 e2 0e 3e 66 eb dc bd
       -0.11798281 0.038495038 0.13953723 -0.10787086
000170 3f 86 f9 bd 8a 92 05 be 2e 4c 77 3e cb 95 57 be
       -0.121838085 -0.13044181 0.24150154 -0.21053235
000180 f6 de 93 3b e0 52 99 bd e3 15 b2 3e a7 e0 8c bd
       0.004512663 -0.0748651 0.34782323 -0.068787865
000190 af 48 b6 3e 9e 5b 7b be 11 1e 26 be 03 71 46 3d
       0.35602328 -0.24546668 -0.16222407 0.04844762
0001a0 54 ad 8d be 32 28 87 bd a9 da 5b 3e 13 ff 1d be
       -0.276713 -0.065994635 0.21470131 -0.15429334
0001b0 23 38 69 be 94 42 1d be c6 f3 2f be 67 d6 91 be
       -0.2277532 -0.15357429 -0.17182836 -0.28483889
0001c0 63 c6 07 be c5 26 20 be 27 5a c6 3d b2 d6 62 be
       -0.13259272 -0.1563979 0.09685164 -0.22152212
0001d0 cb 27 06 3e 0e dd 6e bd 11 80 82 bd 0e 75 47 be
       0.13101117 -0.058316283 -0.06372083 -0.19478247
0001e0 77 25 e2 3d ec 3e 14 be 8a 67 4a 3e bc 86 9a be
       0.11042302 -0.14477128 0.1976606 -0.3018092
0001f0 25 77 4c be eb d4 65 be 13 6c 22 3d c7 f8 a7 3c
       -0.19967325 -0.22444503 0.03965385 0.020504368

2.weight f4 [128, 128]
000000 62 30 35 3d 5d d0 06 bc 59 5e ff bc bb e8 6e bd
       0.044235595 -0.008228389 -0.031172918 -0.058327418
000010 c3 0c 6a 3d bc 95 67 bc 14 34 2a bd 6b 82 07 3d
       0.057141077 -0.014134821 -0.04155357 0.03308336
000020 7b 53 08 3c 8e 07 08 bd 85 96 d0 3b f8 cc 83 3d
       0.008320685 -0.03321033 0.0063655996 0.06435579
000030 65 f1 1b bb b3 e0 16 bd c9 99 9b 3d 3d 04 46 bd
       -0.0023795005 -0.036835384 0.075976916 -0.048343886
000040 b5 e2 7b bd ea 70 2b bd d9 a7 a8 bd 59 90 14 3d
       -0.0614955 -0.04185573 -0.082351394 0.036270473
000050 aa 1d ab 3d dc a0 9c bd 1a 55 3e 3d bb f8 20 3c
       0.08355267 -0.07647869 0.046467878 0.009824927
000060 fc 6f 2e bc f2 a1 7d bd 7a d7 20 bd 82 6f 36 bc
       -0.010646816 -0.06192202 -0.039267994 -0.011134984
000070 72 b7 c8 3c 89 bc 5a 3d ec e9 85 bd 54 48 97 bc
       0.024501536 0.053402457 -0.06538758 -0.018467106
000080 01 7d 24 bc c8 b3 d2 3b 33 09 7f bd 74 a9 44 3d
       -0.010039569 0.006430123 -0.062264632 0.048013166
000090 5f cf c3 3c 8e 5f 52 bd 2e 9c 4e bd 1a 5f e7 bb
       0.023902593 -0.05136066 -0.050441913 -0.0070608975
0000a0 d9 75 a8 3c 3e ab 7d bd c9 9c a7 3c e0 6c 1e bd
       0.020564007 -0.061930887 0.020460503 -0.03867805
0000b0 51 51 de bb 32 d7 87 3c 63 87 3b 3d a5 67 75 3b
       -0.006784596 0.016582105 0.04578341 0.003744581
0000c0 fc 4e 44 bd 1f 07 a3 bd 67 d8 3d 3d 4c 5c 9f 3d
       -0.047926888 -0.079603426 0.046348955 0.07781276
0000d0 cd d6 59 bd fe 5d 63 bd 5e 8d 01 3c ff ec 5b bc
       -0.053183366 -0.05550956 0.00790724 -0.0134232035
0000e0 f7 19 9a 3d 4a 9e b6 3d 99 92 fa 3c 88 6b bd 3d
       0.07524484 0.0891691 0.030587481 0.092490256
0000f0 2e 9e a6 3d f7 2b 0a bc 03 f0 82 3d bd 36 9d bd
       0.08135639 -0.008433334 0.06393435 -0.07676456
000100 5e 40 ea bc 15 38 9b 3d b6 65 61 bd 64 36 60 bb
       -0.028595146 0.07579056 -0.05502864 -0.0034212107
000110 08 6b 8b bd b5 15 c0 3d ad 02 7e 3d 61 51 50 bd
       -0.06807524 0.0937914 0.06201427 -0.05085886
000120 55 4f ad 3d 95 39 5d bd 55 6a 8e 3d 13 00 ce ba
       0.08462397 -0.054009993 0.06953875 -0.0015716575
000130 ba 1f bf bb 31 a5 83 3d 47 eb a4 bd 06 ac 39 bd
       -0.0058326395 0.06427992 -0.08052688 -0.04533007
000140 78 13 04 bc b1 0b 8e bd 23 fa a2 3c c3 c9 8f bd
       -0.008061282 -0.06935824 0.019894665 -0.07020905
000150 11 62 78 bd d9 3f 06 3d 98 25 36 3c e6 70 a2 3d
       -0.0606404 0.032775734 0.0111173615 0.0793169
000160 39 41 93 bd 8d 6e 9c 3d 3b 49 6f 3d 94 75 f6 bb
       -0.071901746 0.076382734 0.058419447 -0.0075213406
000170 3a d0 46 3d 4f 0e 8f bd 8e 02 69 bd 0e 88 73 bd
       0.048538424 -0.06985151 -0.056887202 -0.059455924
000180 04 7a 97 bd 61 22 8e bd f9 5c 20 3d d6 f0 af 3d
       -0.073963195 -0.06940151 0.039151166 0.08590858
000190 65 6b 20 3c 7d 7a 0d bd eb fb 6c bd 38 cb c1 bc
       0.00979123 -0.034540642 -0.057857435 -0.023656473
0001a0 c8 42 51 3d 14 3d 2d bd bf e3 ee bc bd ed a1 bd
       0.05108908 -0.042294577 -0.029161332 -0.07906673
0001b0 8d 47 b3 3c fd 9f ad 3d c9 89 39 3d 3f 84 9b 3d
       0.021884704 0.08477781 0.045297418 0.07593583
0001c0 46 6a 60 3d 90 21 38 39 9d 73 86 bd a4 76 bb 3d
       0.05478885 0.0001756011 -0.0656502 0.09153488
0001d0 42 fc 96 bc 67 97 d0 3d fd ce 65 bd 2d b1 d1 3b
       -0.018430833 0.10185128 -0.056105603 0.006399295
0001e0 71 74 ab 3c 68 17 5f 3d 78 db ff 3b 43 dd a5 bd
       0.020929547 0.05446568 0.007808145 -0.08098843
0001f0 b7 08 14 3a 8f 60 bb 3d 0d da 33 3c ae 50 64 3d
       0.00056470506 0.091492765 0.01097728 0.055741005
000200 38 98 0b bd 2b 42 76 bd 4b 51 5c 3d 26 81 36 3d
       -0.034080714 -0.060121696 0.053788465 0.04455676
000210 23 89 99 bc f8 82 ce bc c0 02 11 bd 4b 60 b4 3c
       -0.01874215 -0.025208935 -0.035403013 0.022018572
000220 da 2e 81 3d 4f 02 ae bd 2d 76 20 3b 28 0c 4c 3c
       0.06307764 -0.08496534 0.00244845 0.01245407
000230 6c a4 b7 bb 9d 64 45 3d 0d 28 d4 3c 2a 8a 90 3d
       -0.0056043174 0.048191655 0.025898004 0.07057603
000240 a9 ef 2e bd fb 68 5e bc 60 15 51 bc 99 de 4b bd
       -0.042709026 -0.013574834 -0.012761444 -0.049772833
000250 50 62 21 bd 15 99 f7 bc 1f bd d1 bc 8b 3d 30 bd
       -0.0394004 -0.030224362 -0.025602875 -0.043027442
000260 aa 19 57 3c 75 52 aa bd 25 96 9f 3d 9e 27 f5 bc
       0.013128677 -0.08316509 0.0779231 -0.029926118
000270 97 6c 7a 3d 85 b6 ed 3b 0e 19 97 bd 9d fd b5 bd
       0.061138716 0.007254424 -0.07377826 -0.088862635
000280 22 03 81 bc c8 ef 4f 3d cd ee 4d 3c 04 f9 65 3d
       -0.015748564 0.050765783 0.012569142 0.056145683
000290 47 c9 64 bd 6c 18 ac bd 1a 87 b0 bd 4c 05 be 3c
       -0.055856016 -0.084030956 -0.086195186 0.023195885
0002a0 40 19 3d 3d 1a 9c 1e bd c2 83 ba 3c 31 45 90 bd
       0.04616666 -0.03872309 0.022767905 -0.07044447
0002b0 f9 fb 85 bc 68 f5 98 3d 3d af e6 bc ba e7 99 3d
       -0.016355501 0.074686825 -0.028159732 0.075149015
0002c0 58 03 5d bd 25 26 4b bd 60 d6 9f 3d 78 ac 8f 3d
       -0.053958267 -0.049596924 0.07804561 0.07015318
0002d0 17 a5 9d 3c 3e 95 bd bc 97 fd 10 3d b3 aa dd 3c
       0.01924376 -0.023142453 0.035398092 0.027058935
0002e0 7d 80 23 bd 31 47 8b bd b1 e0 d0 bb 0a 15 2f bd
       -0.039917458 -0.06800688 -0.0063744416 -0.042744674
0002f0 51 6c f0 bc 79 b0 5b 3c 35 6b 9a 3d d7 f9 8f 3d
       -0.029348524 0.013408774 0.07539979 0.07030075
000300 1f 98 8c 3d b3 c3 15 3d 7d b2 f5 3c 21 74 8d bc
       0.06864952 0.036563586 0.029992336 -0.017267289
000310 7c 59 fe 3b 93 f4 ef bb e0 13 8e bd f6 11 b4 3d
       0.007762132 -0.0073228567 -0.069373846 0.08792488
000320 aa 65 7a 3d f4 55 15 3c 49 53 3f 3d 9d 50 24 3d
       0.06113211 0.009114731 0.046710286 0.04011594
000330 5f cc 82 3d 1d 7b 45 3d 9b 4b 5c bc bf d1 a7 bc
       0.06386637 0.048213113 -0.01344576 -0.020485757
000340 c1 ad 4e bd 9c 40 f3 3b c4 ac 89 3d 6f 96 a6 bd
       -0.050458673 0.0074234735 0.067224056 -0.08134162
000350 14 26 b4 3c ba 2d 4a bd 47 6a a1 3d d5 bf 9f bd
       0.021990813 -0.049360014 0.07881599 -0.07800261
000360 4f 90 2a 3c 24 d1 58 3d f8 2d ed bc 0a 68 1e 3c
       0.010410382 0.052933827 -0.028952584 0.0096683595
000370 b3 e4 f7 3c 80 ed ac bb 63 2e e0 bc d2 f8 a8 3d
       0.03026042 -0.0052773356 -0.027365869 0.08250584
000380 d8 78 aa bd 26 76 6a bd 3d c1 09 bd 36 72 f4 3b
       -0.0832383 -0.05724158 -0.033631552 0.007459904
000390 a6 7b 67 bc f8 10 6f 3c 93 92 71 bc 87 09 3b bd
       -0.014128601 0.014591448 -0.014744419 -0.045663383
0003a0 38 b3 2c 3c 3a 06 7e 3d 05 ba 27 3d f1 39 ad 3c
       0.010540776 0.062017657 0.040948886 0.021145793
0003b0 45 f3 73 bd 25 ce 4b 3d 65 7f 51 bc d8 34 66 3d
       -0.05955817 0.04975714 -0.012786721 0.05620274
0003c0 5b d9 04 bd bf 2b 8a bd d2 5d 79 3d af 67 9a bc
       -0.03243385 -0.06746625 0.06088049 -0.018848268
0003d0 7d e6 1a bd b4 0b 20 3d 91 6d 29 ba d3 75 08 bd
       -0.037817467 0.03907366 -0.0006463165 -0.03331549
0003e0 da 58 6a bc c5 1d 21 b9 9f 42 79 3c 52 2d 81 3d
       -0.01430341 -0.00015365247 0.015213638 0.06307472
0003f0 8b 30 09 bd 29 c7 ec bc 4a f8 6c ba 05 ca cf 39
       -0.03349356 -0.02890356 -0.00090396835 0.00039632633

2.bias f4 [128]
000000 40 76 bc 3d c4 58 2b bd 38 f9 d6 bc 95 5e d8 bc
       0.09202242 -0.0418327 -0.026241884 -0.026412288
000010 26 e4 30 3d 81 8c ce bd 1a 18 51 bc 1d 6f 00 bd
       0.04318633 -0.10085393 -0.012762094 -0.031355966
000020 8c 45 1f 3e ee 18 1d be 7c 28 2b 3c 50 19 f0 bd
       0.15553874 -0.15341541 0.010446664 -0.11723578
000030 24 ef 9a bd cc 1b 91 3d c1 15 ba bd 73 2d 3e 3e
       -0.07565144 0.0708538 -0.090861805 0.18572025
000040 e2 9b 07 3e 99 9f 5f 3e 63 f9 68 bd 65 e6 93 bc
       0.13243058 0.21838225 -0.05687846 -0.018054197
000050 9f 9b 2b 3c f1 bb 06 be fe 33 85 bd e3 2b 72 bd
       0.010474115 -0.13157631 -0.06504057 -0.059123885
000060 11 19 77 bd 48 37 c9 bc bb 4d 39 be 0b 56 8e bc
       -0.06032664 -0.024562493 -0.18096058 -0.017375013
000070 cc ca 8a 3c 74 df d3 3c 5d bb ff 3d c7 f0 db bd
       0.016942404 0.025863387 0.124869086 -0.10739284
000080 4a e6 2e 3e 05 f3 ee 3d b7 31 a1 bd c2 23 e9 bd
       0.17080036 0.11667446 -0.078708105 -0.113837734
000090 c3 71 bd 3d 25 ed 6d 3c 83 6f af be f8 85 f4 bd
       0.09250214 0.014521872 -0.34264764 -0.11939615
0000a0 bc 29 be bc 93 17 ab bc 2e b7 84 bd 75 16 e3 bd
       -0.02321326 -0.020885265 -0.06480251 -0.11088268
0000b0 ac 3d e6 3d 70 f7 09 3e aa 32 03 3e a7 7b 7f bc
       0.11242232 0.13473296 0.12812296 -0.015593446
0000c0 a0 9c 1f be c6 5d 25 3b 30 b0 ef 3d 82 2d 17 3d
       -0.15587091 0.0025232895 0.11703527 0.036908634
0000d0 7c 0f ef bc 12 dd 10 bd 46 04 85 bd c4 b5 2b 3c
       -0.029182188 -0.03536708 -0.06494956 0.010480348
0000e0 d9 79 e5 3d 7e ef 82 bd 58 c9 fc bc ab b2 78 3d
       0.11204881 -0.06393336 -0.030857727 0.060717266
0000f0 58 00 fb bc 68 e9 a4 3c 17 c6 b1 3d ee c9 9d 3d
       -0.030639812 0.020130828 0.08680361 0.07704531
000100 2c c7 56 bd 6e 0d 88 3d d3 42 29 bd 87 14 26 bc
       -0.05243604 0.066431865 -0.041323494 -0.01013673
000110 b0 96 28 bc 50 72 83 be 3d 02 19 be 06 4e ba 3d
       -0.010289833 -0.2567315 -0.1494226 0.09096913
000120 4a 47 f0 bd 3b 6c c6 3d 66 09 fe 3c eb 0a aa 3d
       -0.11732347 0.09688612 0.03101034 0.08302864
000130 e8 f9 17 bd 9b fd 94 be c6 ba a6 3b 52 48 b1 bd
       -0.037103564 -0.29099736 0.005088183 -0.08656372
000140 f7 f3 02 bd a4 d3 3b 3c 8b ee 82 bd e2 80 2a bd
       -0.031970944 0.011464033 -0.06393155 -0.04162682
000150 a5 bf 5c be 43 55 89 3d 78 4a 80 3c c7 92 9e bd
       -0.21557482 0.067057155 0.01566051 -0.07742839
000160 7c 70 00 3e 68 50 ba bd fa bd 99 bd 48 eb a3 3c
       0.1254291 -0.090973675 -0.07506938 0.020009652
000170 30 36 c8 3b 8f dd 48 3d 90 5a f6 bd 93 f9 94 3c
       0.0061099753 0.04903942 -0.12028992 0.018185413
000180 69 a6 14 3d 04 e1 fb 3c ec 25 e3 bc d1 c2 e6 3b
       0.036291514 0.030746944 -0.027728043 0.007042267
000190 e7 07 d9 3c 64 d4 05 3d 1f 79 a2 bc 67 cb b5 bd
       0.026493026 0.032673255 -0.019833146 -0.088766865
0001a0 8d b7 5d bc d2 47 f6 3d 84 b9 60 bd f7 5f 38 3d
       -0.013532531 0.120254174 -0.05486442 0.045013394
0001b0 87 89 f7 3c 1a d9 07 be ea 8d 20 bd c5 15 49 bd
       0.030216945 -0.13266411 -0.03919784 -0.049093027
0001c0 48 1f 09 bd 63 6d b5 bd 60 e1 84 bd 95 c9 11 3d
       -0.033477098 -0.088587545 -0.06488299 0.035592634
0001d0 98 13 0d bd 90 90 ce 3c 3d 77 4b 3d 89 b3 05 3c
       -0.034442514 0.025215417 0.04967426 0.00816048
0001e0 29 1a 84 3c bd 39 65 3d 3b cb 83 3d 66 1c 56 bd
       0.016125755 0.055963267 0.064352475 -0.052273177
0001f0 1b ac ab 3b 5c 3f df 3c 97 b7 1f bd 0c bc 4e 3c
       0.0052390224 0.027251892 -0.038993444 0.012618076

4.weight f4 [128, 128]
000000 8c 26 44 3d 34 57 c8 3c a9 8a 18 bd aa 11 4f 3d
       0.047888324 0.024455644 -0.03724161 0.050553955
000010 66 af a7 3a f0 ed 4a bd 0a 29 dc 3b 07 3d 14 bc
       0.0012793362 -0.04954332 0.0067187594 -0.009047753
000020 97 35 d5 3c 28 49 5f 3c d5 db 8a 3d bd 03 de 3b
       0.02602653 0.013628282 0.06780211 0.006775348
000030 82 4f 01 3c 48 f7 e2 bb f1 ca 7c bd 1b c4 31 3d
       0.007892491 -0.006926451 -0.061716978 0.04339991
000040 0c bd 97 3d 6a 83 1c bd 7d f6 6c bd e0 0c 0c bd
       0.07409105 -0.038211264 -0.057852257 -0.034191966
000050 c7 a0 5a bb 1e 80 93 3d 2f 51 84 bc fa 28 a6 3d
       -0.003335999 0.07202171 -0.016151993 0.081132844
000060 87 4e 92 3d eb 1c 90 bd 5a a7 b2 bd 18 8a 14 bc
       0.07143884 -0.07036766 -0.08723326 -0.009066127
000070 a0 8a 3b bc dc 77 3c 3c b2 01 0e bc fa 8d 1f bd
       -0.011446625 0.011503186 -0.008667396 -0.03895376
000080 73 1f 7a 3c b8 a6 33 bd af 81 43 3d e3 e2 80 3d
       0.015266287 -0.043860167 0.047731098 0.06293275
000090 6f 91 94 bd fe 99 88 bd ca 7a 89 3d f5 fe a1 bc
       -0.07254302 -0.06669997 0.06712873 -0.019774893
0000a0 95 eb 12 3d 71 88 ad bd ab d3 58 bd 69 e9 8d bd
       0.0358692 -0.0847329 -0.052936237 -0.06929285
0000b0 4c 78 fc bc b7 ea 88 bd ea 63 02 bd 3a 26 cb 3b
       -0.03081908 -0.06685393 -0.031833567 0.0061996253
0000c0 89 90 0b bd ad ec 32 3d 7b 9b 0b bd 55 28 8b bd
       -0.034073386 0.043682743 -0.034083825 -0.06794802
0000d0 f3 d2 bc bc 5e 96 43 3d cd 30 8e bc 44 36 3c bd
       -0.023049807 0.047750823 -0.017357254 -0.04595019
0000e0 c6 6c 06 bd fd d4 8f 3d f7 0e 93 bd a0 27 48 bd
       -0.03281858 0.07023046 -0.07180589 -0.048865914
0000f0 81 d5 98 bd d7 44 99 3d d8 aa 44 bd 53 a9 a1 3d
       -0.07462598 0.07483833 -0.04801449 0.07893624
000100 00 64 a3 bc 5a f3 67 bd 3a b2 31 bd 72 0f 8d bd
       -0.019945145 -0.056628563 -0.04338286 -0.068877116
000110 10 c8 5b 3c d8 0b 09 bd 66 47 a1 3d cc c1 02 3c
       0.013414398 -0.03345856 0.07874946 0.007980775
000120 17 70 82 3c 1b e7 26 bd 98 a0 df bc 01 ac 44 bd
       0.01592259 -0.040747743 -0.027298257 -0.0480156
000130 9f bf d3 3c 8d 59 2e 3d ea 17 67 bd 92 2e 20 3d
       0.025848208 0.04256587 -0.05641929 0.039106913
000140 c3 af ad bd 14 61 54 3d ce 4b 3d 3d 9d 82 cb bc
       -0.084807895 0.051850393 0.04621487 -0.024842555
000150 80 32 8e 3c ff 7e 79 bd d0 0a 8a bc 59 1e bf 3c
       0.017358065 -0.06091213 -0.016850859 0.0233299
000160 d0 b5 30 3d b0 03 92 bd 78 bf 96 bd 3d a5 8d 3d
       0.04314214 -0.071296096 -0.073607385 0.06916282
000170 29 c4 fd 3c 5b 9f 9c 3d 3b c2 a0 bd 92 76 28 bd
       0.030977326 0.07647582 -0.078495465 -0.041128702
000180 95 45 19 bd 38 9c 81 bc 3d 9b 06 3c 18 a0 95 bc
       -0.037419874 -0.015821561 0.008215723 -0.018264815
000190 2d c0 40 3d a2 5d 5a bd 19 e7 99 3d f2 91 31 bd
       0.047058273 -0.05331195 0.075147815 -0.043352075
0001a0 8a 09 47 3d a2 a4 94 3d 7e 19 a0 bd 94 c5 c8 3c
       0.04859308 0.07257964 -0.07817362 0.024508275
0001b0 40 0b a7 3c 3c 2f a5 3d 99 ae 49 3d a5 e9 b1 bd
       0.020391107 0.0806565 0.049238775 -0.08687142
0001c0 c9 79 02 bd cb ea 8d bd b4 4c 3f bd eb 0d d9 bc
       -0.031854425 -0.06929549 -0.04670401 -0.026495894
0001d0 0c 8b 09 3d 5a ff ae bd 67 25 b0 3b 27 f3 a3 bd
       0.03357987 -0.08544798 0.0053755525 -0.08005362
0001e0 e7 4e 8b bc e3 3c ab bd aa 27 77 bd 24 3e 1e bd
       -0.017005397 -0.083612226 -0.06034056 -0.03863348
0001f0 47 bb 10 3d cc b4 49 bd f5 43 56 bd 68 c1 1e 3d
       0.03533485 -0.049244687 -0.052310903 0.038758665
000200 b9 67 2e bd f6 df fd 3c dd ba bf 3d a4 b0 9f 3d
       -0.042579386 0.030990582 0.09361813 0.077973634
000210 0a 82 73 bc 68 fc 35 3d 4c 15 ca bc 47 64 87 3d
       -0.014862547 0.044430166 -0.024668358 0.06610923
000220 92 ad 6a 3b 2d 0e f4 3b 1c 73 b0 bd 3d 37 a1 3d
       0.0035809022 0.007447979 -0.08615705 0.07871864
000230 99 a6 74 3d 82 ed 28 bc 8b 86 36 bd 19 b2 e9 bc
       0.059729192 -0.0103105325 -0.044561904 -0.028527306
000240 a2 1e a1 bd 6f d4 58 bd 18 66 27 3d b8 e5 60 bd
       -0.07867171 -0.052936967 0.04086885 -0.054906577
000250 b8 db 21 3d 46 86 2a bd 87 69 2c bd 2e 89 a5 bd
       0.03951618 -0.04163196 -0.042092826 -0.080828056
000260 6f fe 1b 3c 13 da 02 bd 43 94 2d bd 1f 30 1d bb
       0.009521111 -0.031946253 -0.04237772 -0.0023984981
000270 8b 6e 43 bd a1 2b 93 3c e4 9b 79 3d 44 7f 1e bd
       -0.047712844 0.01796514 0.060939685 -0.03869559
000280 92 04 f3 3c ec 23 ea bc af 55 d2 3c dd 15 90 bd
       0.029665265 -0.028581582 0.025675623 -0.0703542
000290 e9 a9 5b bd a7 91 1e bd 3f 0f 15 3a ca fb 7f bc
       -0.053628836 -0.038713124 0.0005686171 -0.015623996
0002a0 35 5b d5 bc 39 11 55 3d d1 55 79 bd 41 36 b3 3d
       -0.026044467 0.052018378 -0.060872857 0.087505825
0002b0 36 1f a1 3c 58 fc 52 3b eb 63 91 3d 6e 32 80 3d
       0.019668203 0.0032193866 0.07099136 0.06259619
0002c0 34 4e b6 bc 1f 59 f4 3c 30 23 11 bd a5 5e 46 3d
       -0.022254087 0.029827652 -0.035433948 0.048430104
0002d0 0d 14 6e 3d 65 f4 a0 3c 5d 4b 98 3a e9 5e 06 bd
       0.05812459 0.019647786 0.001161914 -0.032805357
0002e0 7e b5 d1 bc a5 00 96 3d de b9 b2 3c d7 bd f1 3c
       -0.025599238 0.07324342 0.021817144 0.029509468
0002f0 07 76 f8 bb b2 ca 2d bc 52 f4 86 3d 48 03 89 bd
       -0.0075824293 -0.010607408 0.06589569 -0.06690079
000300 f1 9c 66 3c de 04 81 bc a2 49 eb bc 3e bd 99 bd
       0.014075504 -0.015749391 -0.028721634 -0.07506798
000310 3f cd 5a 3d c1 7c 96 bd 63 77 00 bd e7 04 75 3c
       0.053418394 -0.07348014 -0.031363856 0.014954782
000320 e6 17 3c 3d b8 7e b3 bd 07 59 3e 3d 36 5e 02 bd
       0.04592123 -0.08764404 0.04647162 -0.031828128
000330 ca 42 e5 3c 23 88 9e bd 44 c5 9d bd 26 9e a4 3d
       0.02798595 -0.0774081 -0.07703641 0.08037977
000340 57 0a 00 3d 9b 42 93 3c d8 a4 3c 3d 46 8e a2 3d
       0.03125986 0.017976096 0.046055645 0.07937293
000350 b9 10 66 3d bd 5e dd 3c bb 42 92 bd 77 b4 bd 3d
       0.05616829 0.027022714 -0.07141634 0.092629366
000360 15 a3 b2 bb 6d 51 8f bc d1 3a 98 3c 48 72 8a 3d
       -0.00545157 -0.017494882 0.018582733 0.06760079
000370 05 1b 5c bc 72 16 33 bd 92 80 4b 3d 92 60 94 3d
       -0.013434176 -0.043722577 0.04968316 0.07244982
000380 e9 11 d8 3c b5 56 4a 3c 96 6b 32 3b 3f 66 94 3c
       0.026375728 0.012349774 0.002722477 0.018115161
000390 16 3e 9c bd fa 67 37 bd 8c a8 1d 3d f4 1b b6 3c
       -0.076290295 -0.044776894 0.038490817 0.022230126
0003a0 d3 40 15 3d 3d 3d 91 3b c0 bf 47 bd 13 78 16 bd
       0.036438774 0.004432349 -0.04876685 -0.036735605
0003b0 03 e0 7f bc 48 a5 74 bd ed db ab 3d 43 e7 47 bd
       -0.015617373 -0.059727937 0.08391557 -0.048804533
0003c0 a3 73 03 3c 8c 6d b4 3d 9c 55 95 bd ce f2 a2 bd
       0.008023175 0.08809957 -0.07291719 -0.079564676
0003d0 17 27 1c 3d ad 24 64 3d 1f 02 22 bd ef da 27 3d
       0.038123216 0.05569904 -0.039552804 0.040980276
0003e0 d9 ee 7b 3d a4 5c 00 bd 25 d3 93 3d 73 fa d7 3b
       0.06150708 -0.03133835 0.07218007 0.006591135
0003f0 17 1e 85 bc 80 b1 00 3d 9e 1e 46 3d 6d f9 ad 3d
       -0.0162497 0.031419277 0.048369043 0.0849484

4.bias f4 [128]
000000 f3 e5 09 bd b1 2a 15 3d 0b 94 c1 3d b2 f0 b2 bd
       -0.033666562 0.036417667 0.09452065 -0.08737315
000010 48 a6 8e bd 2f 1c 1c bd 50 21 d3 bc 0d a4 95 bd
       -0.069653094 -0.038112815 -0.02577272 -0.07306681
000020 66 4d c8 3d aa 18 ae 3d 56 67 61 bd 16 ce af 3c
       0.097803876 0.08500798 -0.05503019 0.021460574
000030 c2 6c 9c bc 93 b6 bb ba b0 cb 95 3d 5a c9 03 3d
       -0.019094829 -0.0014321379 0.07314241 0.032174446
000040 66 e9 00 be 22 1d 2a 3d 91 50 e5 3d b8 78 76 bd
       -0.12589034 0.04153169 0.111970074 -0.06017372
000050 ca 3d a1 bc 32 02 40 3c a5 75 15 3d 94 ef 98 bd
       -0.019682784 0.011719273 0.036489148 -0.07467571
000060 66 97 e9 3d d2 15 86 bd 66 3e 37 bd 6e fa a6 bd
       0.1140583 -0.06547131 -0.044737242 -0.081532344
000070 69 82 a4 bd cc 15 5d bd 43 a1 ac bc 53 c1 cc 3d
       -0.08032686 -0.053975865 -0.02107299 0.09997811
000080 3b 00 98 bc 31 a0 ad bc 00 87 7f bd 5f 6d 62 bd
       -0.018554797 -0.02119455 -0.062384605 -0.055280086
000090 7b 42 aa 3c 65 62 04 3d 83 ef 2a bd 2f de ee bc
       0.020783653 0.0323204 -0.041732322 -0.02915868
0000a0 ca 32 4d 3c a6 90 0a bd cb 82 e8 3d c7 4d 18 3e
       0.012524316 -0.033829354 0.11353072 0.1487342
0000b0 a9 89 59 3d 74 db aa 3d 20 9e 5c bc 4f c2 19 bd
       0.0531098 0.083426386 -0.013465434 -0.037538823
0000c0 30 7d a3 bc f9 80 7f 3d 92 ef c4 3c 39 d2 3d bd
       -0.019957155 0.062378857 0.024040017 -0.046343062
0000d0 bd 21 c1 3b 5e 46 16 ba 27 82 1e bd 73 04 1c bd
       0.0058939145 -0.00057325314 -0.03869834 -0.03809018
0000e0 f3 22 32 bc 88 83 aa bd 38 e1 21 bd 96 6e 11 3e
       -0.01087259 -0.08325869 -0.039521426 0.14202341
0000f0 8e 7f b4 3c 35 e7 43 bc c7 e6 e9 3d fe ee 3f 3d
       0.022033479 -0.0119569795 0.114209704 0.04685878
000100 7e d1 b9 bd a3 b2 97 bd b4 09 62 3c ef 81 38 bd
       -0.090731606 -0.07407119 0.013796259 -0.04504579
000110 36 03 a3 3d 12 67 32 3d ab 9b d2 3d 16 a0 84 bd
       0.07959597 0.043555327 0.102835976 -0.064758465
000120 4f 4f 2b 3d ef 9c 28 3e 95 a9 4a 3e 1c 67 11 3e
       0.04182368 0.16466115 0.19791253 0.1419949
000130 96 d8 fc bc 98 16 a0 bd a2 4e 70 3d e2 8f 5e bd
       -0.030864995 -0.078168094 0.05866874 -0.054336436
000140 55 1c c4 ba b6 a3 93 3d 9a 68 58 bd a4 9f 2e bd
       -0.0014962057 0.0720896 -0.05283413 -0.042632714
000150 31 73 dc 3d 19 33 e6 3c 14 fb dc 3d d4 bc 27 bc
       0.107641585 0.028100537 0.10790077 -0.010237891
000160 51 2c 8d bd dc 09 45 bc 15 58 04 3e 3c d4 62 3d
       -0.06893218 -0.012026276 0.12924226 0.055378184
000170 f8 88 98 bd 37 b3 87 bc c3 e2 60 3d 1e 44 a2 3d
       -0.07448 -0.016564948 0.054903757 0.079231486
000180 17 3c d4 3d 17 28 b7 3d e7 0a 55 bd e6 24 b5 3b
       0.10363024 0.089431934 -0.05201235 0.0055280803
000190 eb 61 c9 3c f4 7c bd bc 55 1c 6a 3c 2e 5e ca bc
       0.024582824 -0.023130871 0.014288981 -0.024703111
0001a0 f9 23 f8 3d 50 c9 4c 3c b0 91 12 bd 1a 11 f4 bc
       0.12116236 0.0124991685 -0.03578347 -0.02979331
0001b0 3d 6f eb 3d f9 80 27 3c fc 23 39 bd a8 45 42 bd
       0.114958264 0.010223621 -0.045200333 -0.04742971
0001c0 99 29 39 bd 80 e6 a7 3c d2 78 3f 3e 90 29 31 bd
       -0.045205686 0.020495653 0.18698433 -0.043252528
0001d0 40 48 94 bd 0f e0 57 bd c0 29 d4 bc 68 4c de bb
       -0.07240343 -0.052703913 -0.025898814 -0.0067840107
0001e0 2c 2e 56 3d 75 a4 a7 3d c6 66 fd 3d 8a 4e ba 3b
       0.052290127 0.081856646 0.12373118 0.005685632
0001f0 c7 fd 10 3d 4e 46 ee 3b 73 8f cf 3d 4e a1 35 3d
       0.03539827 0.0072715646 0.10134783 0.044343285

6.weight f4 [128, 128]
000000 0a 57 f1 3b 71 1c 4f 3d 53 21 97 bc b5 a0 2e bc
       0.007365112 0.050564233 -0.018448507 -0.010658433
000010 ed 1e 0f 3d ec 70 80 bd 94 91 80 3c 6e 05 63 3d
       0.034941602 -0.06271538 0.015694417 0.0554251
000020 cc 9c 8e 3d 29 f6 20 3d c8 2c 29 bd 55 70 4a bd
       0.069635004 0.039297257 -0.041302472 -0.049423534
000030 55 e6 8b 3d 31 2a b0 bd 0e ba be 3d 17 83 10 bd
       0.06831042 -0.08601797 0.09312831 -0.035281267
000040 c2 6f 51 3d 27 39 28 bc 81 54 9e 3d b1 4e 88 bd
       0.05113197 -0.010267532 0.077309616 -0.06655634
000050 6f b0 9f 3d 3f 81 8c 3d 08 36 95 3b 3d 9e b4 3d
       0.07797324 0.06860589 0.00455356 0.08819244
000060 85 96 5b bd 21 86 5a bc 54 1b 85 3a 75 c7 3d bc
       -0.053610343 -0.013337643 0.0010155239 -0.011583199
000070 5a 8c 91 bd c0 83 c5 ba ba ab 1e 3c 45 43 e7 3d
       -0.07106848 -0.0015069172 0.0096844975 0.112921275
000080 63 db 88 bc 25 01 63 3d 70 cf 88 bc 82 c7 c5 bc
       -0.016706174 0.055421013 -0.016700476 -0.024142984
000090 58 94 9d 3d 8e 4f c3 bd 4c 5b 05 3d 6d 1a 18 3d
       0.0769431 -0.09536658 0.03255777 0.037134577
0000a0 8c c4 95 3d b0 63 32 bd 7a 8c c2 bc 8b ad 7e bd
       0.07312879 -0.0435521 -0.023748625 -0.062177222
0000b0 9f d5 2a 3d 40 3e 90 3c 75 1d 2f 3d 9f 93 22 3d
       0.04170763 0.017607808 0.0427527 0.039691564
0000c0 47 7d 40 bc e3 66 62 bd 6c 06 47 bc cb 13 4a 3d
       -0.011748618 -0.0552739 -0.012147527 0.049335282
0000d0 c1 a4 37 3d 4b 77 80 3d 44 3d 88 3d 30 d7 b0 bd
       0.044834856 0.06272753 0.066523105 -0.08634794
0000e0 14 25 ad 3c d2 62 37 3d e4 af 3b bd 99 8c b0 bd
       0.021135844 0.044771977 -0.04582204 -0.08620567
0000f0 3e ce 84 3c 3e 52 07 bd 0b 94 31 bd b8 bf 92 3d
       0.016211625 -0.033037417 -0.043354075 0.07165474
000100 21 91 20 bd 78 da 44 bd 76 99 d0 bd 55 d8 97 3d
       -0.039200906 -0.04805991 -0.1018552 0.07414309
000110 7b 94 5e 3d 74 c8 05 3d fa bd fc 3c d3 25 9a bd
       0.05434082 0.03266187 0.030852307 -0.07526746
000120 6f f3 75 bd bb d0 6c 3d 18 61 3a bd a3 2b 8c bd
       -0.06004661 0.05781625 -0.045502752 -0.068442605
000130 d6 c5 f3 bc 1b 09 3d bd 59 c6 d2 3c ef f4 d7 bc
       -0.029757421 -0.04615126 0.025729345 -0.02636191
000140 0d b8 6d bd ff c1 22 3b ce 2c 71 bd f2 97 82 bd
       -0.058036853 0.002483487 -0.05888062 -0.063766375
000150 8f 2d 01 bd 95 4f 10 bd 51 c7 02 bd b9 ae b1 3d
       -0.03153759 -0.035232145 -0.031928364 0.08675904
000160 3b 20 ea 3c 88 e8 35 bd 07 65 ee 3c 73 b2 9c bd
       0.028579822 -0.044411212 0.029100908 -0.07651224
000170 27 5d 87 bd c0 73 38 3b 20 72 d5 3d 65 bb b2 3d
       -0.06609564 0.0028145164 0.10422158 0.08727149
000180 b6 88 94 bb b7 ca 36 bc 76 7a 00 bd ab a6 83 bc
       -0.004532899 -0.011156729 -0.031366788 -0.016070684
000190 35 ff 00 bd 6a c6 b8 bd 9d ba 52 bd 0d 04 7c bc
       -0.031493384 -0.090222195 -0.0514475 -0.015381825
0001a0 46 e8 00 3d d3 45 c6 3d eb d5 d5 3d 8f fc b0 3d
       0.031471513 0.09681287 0.10441192 0.08641922
0001b0 8d b2 8d 3d 3d af b1 3d cf c0 8c 3d 4c c2 45 3d
       0.069188215 0.08676002 0.06872713 0.048281
0001c0 c7 72 08 3d 54 be 64 3d 76 1b e9 3a b5 28 c0 bc
       0.033312585 0.055845574 0.0017784673 -0.02345691
0001d0 1c 1f 10 3d e6 66 8d bd 41 1e 5c 3d 67 42 e7 3d
       0.03518592 -0.06904392 0.05373979 0.11291962
0001e0 1d af a6 3d c0 95 8c bd 76 af 94 3d cc 16 be 3c
       0.08138869 -0.068645 0.07260029 0.02320423
0001f0 83 3c 5f 3d 13 92 02 3d 21 a5 8d 3d 4b 0a ac bd
       0.054501068 0.03187759 0.069162615 -0.08400401
000200 89 b0 b2 3d 25 4d 96 bd 2b 0f 52 bd 81 4b 92 3c
       0.08725078 -0.07338933 -0.051283997 0.017858269
000210 21 dc ca bb c7 ae 7a bd bb f6 84 3d 88 77 8b 3c
       -0.006190792 -0.061201837 0.064923726 0.01702477
000220 82 fd ad bc 87 6f 15 3d 91 2f 96 bd da f2 96 bd
       -0.021239046 0.036483314 -0.07333291 -0.07370539
000230 66 73 85 3d 1e ed 62 3d 9e 0c 7c 3d 45 e7 3a 3d
       0.06516151 0.055401914 0.06153547 0.045630712
000240 11 7e 58 bd 38 3d 96 3d f4 a2 05 3d 49 26 90 3d
       -0.0528546 0.07335895 0.032626107 0.07038552
000250 e7 5b 89 bd 75 a7 b8 bd d9 73 74 bd fa d3 2d bd
       -0.06706982 -0.09016315 -0.059680793 -0.042438485
000260 1d e7 d6 3b 16 d3 db bb ab be c7 3d cb 9b 88 bc
       0.0065583126 -0.006708513 0.09753164 -0.01667585
000270 c3 5c 70 bc 66 fc 80 3d 43 a8 dc 3d f0 58 ff 3b
       -0.014670554 0.06298141 0.10774281 0.0077925846
000280 1e 11 ad 3d 16 6e 49 bd cc 40 ad 3d 91 e0 f2 3c
       0.084505305 -0.04917725 0.08459625 0.029648097
000290 07 1c fb 3b 4e d1 b0 3d 14 3f 90 3d fd e0 61 bd
       0.007663253 0.08633672 0.07043281 -0.055146206
0002a0 6d 6b 0a bd 4c 58 af bd 46 a4 62 bc 80 a6 ab 39
       -0.033793855 -0.08561763 -0.013833111 0.00032739714
0002b0 00 c8 24 3d 46 0c 86 3c 09 48 65 bd 61 ed b5 3d
       0.040229797 0.016363274 -0.0559769 0.08883167
0002c0 5d bf be 3a 69 b4 3a bd 92 a5 2f 3d 61 b0 51 3d
       0.001455288 -0.04558221 0.04288251 0.0511936
0002d0 80 af 0a 3d d2 0f 19 bd dc 0c 1f bc 4c f5 8b 3d
       0.033858776 -0.037368603 -0.009707656 0.06833896
0002e0 ed 50 6c 3d e1 b4 1a bb 92 9a 9f bc 48 e7 9d 3d
       0.057694364 -0.0023606347 -0.019482885 0.07710129
0002f0 a6 89 54 bc 97 81 15 3d d5 14 71 3d 22 3c 9d bd
       -0.012972271 0.03650054 0.058857758 -0.07677485
000300 97 b0 42 bd d0 ec 81 bd 7a 0d 8a 3b ef f5 cb bc
       -0.04753169 -0.063439965 0.0042130323 -0.024897544
000310 ea 2f 45 bd a6 a9 bf 3d 59 02 d6 3d 62 a0 8a bc
       -0.048141398 0.0935853 0.104496665 -0.01692218
000320 f8 8a 97 3c 1e 2f 5b bb 68 75 8a 3b 1f 43 6d 3d
       0.018498883 -0.0033444832 0.0042254217 0.05792534
000330 2d 72 1b 3d 1d 8e ba 3d 00 65 45 bd db d4 a5 bd
       0.037950683 0.09109137 -0.048192024 -0.080972396
000340 f9 bb 73 bc 84 b7 a3 3c 40 c6 3a 3b f7 bd b8 3d
       -0.014876359 0.019984968 0.0028499514 0.09020608
000350 ed 29 71 3d a7 03 1a 3d f3 1e 60 3b 67 30 fe bb
       0.058877874 0.03760114 0.0034198135 -0.007757235
000360 b2 d5 2e bc 2f be 08 3c e0 9e 8b bc ec 3a 19 3c
       -0.010671066 0.008346125 -0.017043531 0.009352427
000370 95 06 76 3d 8f de 42 3d c0 e6 45 3d d8 b7 2d 3d
       0.06006487 0.04757553 0.048315763 0.042411655
000380 a0 75 48 bc 32 99 19 bd 79 57 52 3d 15 a9 b0 3b
       -0.012235075 -0.037499614 0.05135295 0.00539125
000390 62 70 b8 3d f4 86 e8 bb 0f ad cf 3d 26 ba 92 bd
       0.0900581 -0.007096166 0.1014043 -0.07164411
0003a0 70 ee f0 3d 2c 77 ae bc 13 71 4b 3c 1c a4 a5 bc
       0.11764228 -0.02129706 0.012417096 -0.020219855
0003b0 11 e9 8b bc 80 1c 0f 3d b0 cb db 3d 10 0f 2c bc
       -0.017078908 0.03493929 0.1073221 -0.010501638
0003c0 b5 a5 1c bc e2 83 2a bd 36 5c 67 bc 0f dc eb ba
       -0.009560992 -0.04162968 -0.014121106 -0.001799466
0003d0 8e 0e c9 3d 59 dc a8 bd a0 68 8b bd 04 b4 ca 3c
       0.09817229 -0.08245153 -0.06807065 0.024744041
0003e0 e8 33 d9 bc ae 1a 25 3d f1 1f 28 3d 3a b5 69 bd
       -0.026514009 0.040308647 0.041046087 -0.057057597
0003f0 de 71 a3 3c ce b6 e8 3c 37 05 79 3c c9 89 a8 bd
       0.019951757 0.02840748 0.015198997 -0.082294054

6.bias f4 [128]
000000 e4 14 e6 3b af b6 11 3e 2f 70 db 3c fc 69 a7 3d
       0.0070215333 0.14229845 0.026786892 0.08174512
000010 3c 7c 8c bd 6e 9f b0 bc e4 ba 54 3e ac 22 3e 3d
       -0.06859633 -0.021560397 0.20774418 0.046419784
000020 8b 0e 64 3e ba 33 43 3e 6a 11 46 3c 1f f2 de bd
       0.22271173 0.19062701 0.012089113 -0.10886025
000030 f3 8f af bd 82 7f 91 b7 c9 40 3b 3c 11 81 46 3d
       -0.08572378 -1.7344722e-05 0.01142902 0.04846293
000040 e5 41 bc bd 25 6b 73 bc 52 83 9d bd 7c f8 84 3c
       -0.09192256 -0.014857088 -0.07691063 0.016231768
000050 f0 af 72 3d 61 d1 21 3e 11 ed 3b bd f6 29 9a bd
       0.05924982 0.15802528 -0.04588038 -0.07527535
000060 10 06 e8 ba 2e d2 0e 3d 6f ca f6 3c e8 5a 1e bd
       -0.0017702002 0.03486841 0.030125825 -0.038660914
000070 9e 34 fe 3c c1 f7 75 bd e0 06 89 3d ef 01 22 bd
       0.03103095 -0.06005073 0.066907644 -0.039552625
000080 d0 92 27 3e f4 22 fc bc 62 1d 1f 3c 5a f6 7e bd
       0.16364598 -0.030778386 0.009711595 -0.062246658
000090 95 6f e8 bd 8f 3d 5f 3d 88 35 a8 3c bf 43 04 3e
       -0.113494076 0.054502066 0.020533338 0.12916468
0000a0 82 cc 73 bd 5d c4 69 3e d4 06 01 3e 16 13 df 3a
       -0.059521206 0.22828813 0.12600261 0.0017019238
0000b0 5f 57 af bd f2 66 33 3d f5 b8 7f 3d 63 89 d0 bd
       -0.085615866 0.04379935 0.06243225 -0.101824544
0000c0 8e ce f4 bc 79 0b 4a bc ac 5f 8f bd 37 60 c2 bd
       -0.02988365 -0.012331837 -0.0700067 -0.09491008
0000d0 84 28 56 3d c1 0d 76 bc e3 90 8c 3d a7 81 04 3e
       0.052284732 -0.015017928 0.068635724 0.12940083
0000e0 bb ae 63 bd ee f5 f1 b9 09 ea 52 3e 3f 00 4e bd
       -0.055586558 -0.00046150334 0.2059709 -0.050293203
0000f0 94 c2 21 3d ce d7 40 bd 41 cd 84 3b a5 83 88 3e
       0.039492205 -0.047080807 0.0040527885 0.26662937
000100 a7 39 42 3a b5 8b ce bc 00 25 2b bd be 1f fa 3c
       0.00074091036 -0.025213102 -0.041783333 0.030532714
000110 fa 9a ad bd ee 16 49 bd c4 a7 08 bd b4 36 05 3d
       -0.08476825 -0.049094133 -0.03336312 0.032522872
000120 c2 26 21 3d 3b 83 ac bd 06 82 dd 3b db 73 31 3e
       0.039343603 -0.08423468 0.006759885 0.17329352
000130 b2 12 33 3c 3a 9d b1 bd 5b 62 0d bd 07 02 01 bd
       0.01092975 -0.08672567 -0.034517627 -0.031496074
000140 9b 8a 53 3b 75 e2 c1 bb d4 25 b0 bd dc f0 21 bd
       0.003227866 -0.0059168884 -0.08600965 -0.039536342
000150 c7 eb 5b bd 2a 62 f8 bc 79 a4 5f 3c 30 ba 01 3c
       -0.05369165 -0.030320246 0.013650053 0.007917926
000160 b8 2d 90 bb f9 40 e0 ba 20 1f 55 bd c1 5b 9a 3d
       -0.0043999813 -0.0017109207 -0.052031636 0.07537032
000170 ce 2f e9 bd a1 73 98 bd 1b 45 40 bd 8d 31 b1 bd
       -0.11386071 -0.074439295 -0.046940904 -0.08652029
000180 41 59 21 bc 17 b0 03 3d 7e 27 a0 3c 71 4d 00 3e
       -0.00984794 0.032150354 0.019550081 0.12529542
000190 78 9d fe bc 35 4e 0a 3e 3c 73 9b bd c3 5c 9a 3e
       -0.031080946 0.13506396 -0.075903386 0.30148897
0001a0 1f 5c 8c bd 5d 74 b2 bd 26 c4 31 bd b0 ec 0a bd
       -0.06853508 -0.08713601 -0.043399952 -0.03391713
0001b0 a0 1f ad 3b dd f7 33 bd 19 85 de 3d 87 61 47 bd
       0.005283311 -0.043937553 0.1086523 -0.048676994
0001c0 49 c4 1d bc f0 41 6e 3d cd 89 8c bd 4c a1 08 3d
       -0.009629318 0.05816835 -0.06862221 0.03335695
0001d0 8f a4 0a 3d 9c 8b 80 bd 48 99 66 3d 19 f9 59 bc
       0.03384834 -0.062766284 0.056298524 -0.013304018
0001e0 c4 83 01 be f1 b3 3f bd 8b 37 1d 3e b1 ef a9 bc
       -0.12647921 -0.046802465 0.15353219 -0.020744177
0001f0 2f 21 2c 3d 77 9f 83 3e 62 4e 06 3e 6d 6c 83 3c
       0.042023834 0.257076 0.13115838 0.016042912

8.weight f4 [49, 128]
000000 ba 03 95 3d c9 62 a7 bd 53 22 b3 bc b9 9d 28 3d
       0.072761014 -0.08173139 -0.021866953 0.04116604
000010 8b b2 0c be f0 54 ab 3d 45 89 45 be f7 ae c1 3d
       -0.13739984 0.0836581 -0.19290645 0.094572
000020 e6 8c 23 be 9b 6a 23 be 56 74 de bd b4 f6 8a 3c
       -0.15971717 -0.15958636 -0.10862033 0.01696334
000030 1b 36 68 bb 76 a5 6d 3b a8 b0 01 3d 85 3c 8d 3b
       -0.003543264 0.0036261952 0.031662613 0.004310193
000040 e8 97 08 3d c2 f1 60 3d 97 bd 5e 3c 80 af 79 3d
       0.033347994 0.05491806 0.013595006 0.060958385
000050 3b cd 82 3d 22 d1 6c bd 86 da a2 bd e5 7a ba 3d
       0.06386801 -0.057816632 -0.07951836 0.091054715
000060 98 6e 2b bd 32 7e 05 3d f5 ba 8f 3d 61 d0 97 bc
       -0.041853517 0.032591052 0.07018081 -0.01853198
000070 35 a9 6e bd 66 12 0d 3c ea 00 ae 3d 97 56 83 3d
       -0.058266837 0.008610344 0.08496268 0.06413
000080 14 2f ca bd d0 9e ac 3d 95 e9 98 3c 96 67 9b 3d
       -0.09872261 0.084287286 0.018666068 0.07588117
000090 8c de a3 bd a1 79 61 bc 8f 03 1c 3d cf eb 4c be
       -0.08001432 -0.013761909 0.03808933 -0.20011829
0000a0 87 26 9d 3b db 8f 75 be 60 00 11 bd c0 0d c8 bc
       0.0047958526 -0.23980658 -0.03540075 -0.024420619
0000b0 e6 d9 34 3d ae 61 82 3d 8b 18 a4 3a 00 1a 32 bc
       0.044153117 0.06366287 0.0012519521 -0.010870457
0000c0 e2 65 9b 3b 41 4b f0 3c af f0 d2 bc 22 40 02 bd
       0.00474237 0.029332759 -0.025749533 -0.031799443
0000d0 fc d9 7c bd 14 02 61 3d 36 77 22 bd 12 2e 9f bd
       -0.061731324 0.054933622 -0.03966447 -0.07772459
0000e0 f8 c4 87 3d a9 c0 85 3d b5 de f1 bc 71 60 bf bd
       0.06629366 0.06530888 -0.02952514 -0.093445666
0000f0 66 aa 95 bc 6c 63 9f bd 35 ae 2b bd 8b cc 29 be
       -0.018269729 -0.07782635 -0.041914184 -0.16581933
000100 45 8d 96 bd 77 7e a9 3d 10 8d 87 3b 75 15 a2 38
       -0.07351164 0.082760744 0.004136689 7.728759e-05
000110 86 f1 fc bc 9e 89 61 3d ea a4 ee 3d 57 26 b1 3d
       -0.030876886 0.055062883 0.116525486 0.08649891
000120 7e 7f 6d bc e7 37 e8 3c ef 80 a9 3d 9c 27 d7 bd
       -0.014495729 0.028346969 0.08276545 -0.10505602
000130 33 db 67 bd a0 4b 18 bb a0 dc 9f bc 0d e9 08 3d
       -0.05660553 -0.0023238435 -0.019514382 0.03342538
000140 68 b9 09 bd 59 b6 b7 3d a3 aa 37 bd 4f c2 ac bd
       -0.033624083 0.08970327 -0.044840466 -0.08435499
000150 cb 3c 11 bd ed 7c 92 3d 08 ba 36 3d 39 b5 9e bd
       -0.035458367 0.07152734 0.044611007 -0.07749409
000160 97 31 3f 3d 0c 8f 5d 3d fd 59 7b 3c 02 40 7a bd
       0.046678152 0.0540915 0.015341279 -0.0610962
000170 36 cb 6e bd 84 71 fa ba 0d f5 0e be ec 8e 05 3d
       -0.058299266 -0.0019107317 -0.13960667 0.032607004
000180 d4 92 a7 3d 23 dc 13 3d 64 a5 14 3d 3f b9 ef bd
       0.08182302 0.03609861 0.03629054 -0.11705255
000190 6c a0 f4 bc e0 c4 2d be 12 28 0c bd 1c 32 6c be
       -0.029861651 -0.16969633 -0.0342179 -0.2306599
0001a0 72 0a d6 3d 5e a4 29 3e ba e1 6b bd b2 8d 43 3d
       0.10451211 0.16566607 -0.057588317 0.047742553
0001b0 c1 d8 88 3b f1 59 55 bd 9a b5 db 3c cd 1e 7b 3d
       0.0041762297 -0.052087728 0.026819993 0.06130867
0001c0 b5 6f f0 bc a9 f1 13 3d c4 4b 1f 3d c8 33 92 3d
       -0.029350141 0.036119137 0.038890615 0.07138783
0001d0 fb 96 11 bd 9c 8f 09 3d ae 66 e5 bd eb 0f a5 3d
       -0.035544377 0.033584222 -0.11201225 0.08059677
0001e0 1c 8d 96 bd 8e 47 49 bd 33 38 7f be 69 c0 17 3c
       -0.07351133 -0.049140505 -0.24923782 0.009262183
0001f0 36 ad 0b bd 81 33 02 be 80 f7 30 bd 13 26 90 3d
       -0.034100734 -0.1271496 -0.043204784 0.07038512
000200 a5 bc 2a 3d 91 12 cb bd 88 55 b8 3c 27 95 05 bc
       0.04168381 -0.09915651 0.022501722 -0.0081532365
000210 85 3b 81 bc 8e 5d 13 3d 2c 1a 38 bd 44 14 a4 3d
       -0.015775451 0.035977893 -0.044946834 0.08011678
000220 67 18 32 be 8b 20 c0 bc 60 29 1f be e5 05 fa bc
       -0.17392121 -0.023453018 -0.15543127 -0.030520389
000230 c8 19 4a 3d 64 9a d8 3c 98 f0 94 3d 07 c7 0d 3c
       0.049340993 0.026440807 0.07272452 0.008653409
000240 37 5d b2 3d 98 84 c1 3c 66 90 2a 3d df 0a c4 bc
       0.087091856 0.023622796 0.041641615 -0.023930965
000250 ea e8 14 3d 59 41 14 be 3a 51 1d 3b 58 5d fa 3d
       0.036354937 -0.14478053 0.0024004714 0.12224835
000260 a4 10 31 bc e8 be 3b 3c 34 a3 04 3d ee ce 86 bd
       -0.01080719 0.01145909 0.032382205 -0.065824375
000270 d4 bc 4d 3c 2c a7 55 3b 96 74 39 bd b4 00 bf bc
       0.012557227 0.0032600863 -0.0452772 -0.023315765
000280 95 c8 d3 bd b6 ee e4 bb f4 25 00 3e 40 09 47 3d
       -0.10340992 -0.0069864644 0.12514478 0.048592806
000290 e7 de 1d 3d 5a e1 35 bd 74 bd b6 3c de 07 ec bd
       0.038542654 -0.044404365 0.022307135 -0.11524938
0002a0 2b b0 3e 3d 5d 72 89 be 6e a2 0a be 8e 7d 89 3d
       0.046554726 -0.26845065 -0.13538525 0.06713401
0002b0 fe 1d 3b 3d 9e d6 35 bd 28 8b 9f 3d ea 64 89 3d
       0.0456829 -0.044394128 0.07790214 0.06708701
0002c0 3f 6a 0d bd 4a 6e 03 3d b6 33 82 bc b2 e6 52 3c
       -0.034525152 0.0320876 -0.015893798 0.012872385
0002d0 33 40 1a be 1d cc 76 bd 98 8c 22 bd 97 8e 33 bd
       -0.15063553 -0.06025325 -0.039684862 -0.043837156
0002e0 a3 26 86 bd e2 b6 3c 3c 8f e5 27 be 17 55 21 be
       -0.06550338 0.011518212 -0.16396163 -0.15755115
0002f0 18 20 67 3d 59 21 42 3b 4e 4d 59 bd c8 af d0 bd
       0.05642709 0.0029621928 -0.05305224 -0.101897776
000300 64 f1 12 bd 97 03 90 bd a1 af 81 3d 52 93 30 3c
       -0.03587474 -0.07031935 0.06332327 0.010777311
000310 6a 56 52 bd 72 31 36 3d 85 1e 17 3c 2e 5e d5 3d
       -0.051351942 0.04448075 0.009223585 0.10418354
000320 88 b6 9d bd 08 ae 93 bc 4a fd 9d 3c c1 e0 45 bd
       -0.07700831 -0.01802732 0.019285817 -0.048310045
000330 f9 86 99 3d 98 dc b6 bd 0d b6 8a bd f1 c5 0f 3b
       0.07496447 -0.08928794 -0.06773005 0.002193805
000340 a1 f9 0a 3d 0a 80 99 bd 85 ea 90 3b be fc 9d bc
       0.03392947 -0.07495125 0.004422488 -0.019285556
000350 b7 31 9a 3d ec 9e af 3c 76 e9 83 3d 29 f8 04 be
       0.075290136 0.021438085 0.064410135 -0.1298529
000360 cc 80 a9 3d f5 da 97 3d a7 40 f2 bc 43 9f e0 bd
       0.08276519 0.074148096 -0.029571844 -0.10967877
000370 05 0e 99 bd 84 58 62 bd 06 03 20 be dd b3 c8 3c
       -0.07473377 -0.055260196 -0.15626153 0.024499828
000380 56 19 1c bd 1a 8e 8a 3c 21 52 d2 bc 92 9a 88 bd
       -0.0381101 0.016913462 -0.025673928 -0.06670107
000390 df 65 90 3c 73 9e 87 be ea c2 48 3d 5d c6 32 be
       0.0176267 -0.26488075 0.04901401 -0.17458482
0003a0 0c 19 d3 3d d0 6e b8 3d 79 0e 3b 3d e9 d2 ae bd
       0.10307512 0.09005511 0.0456681 -0.08536322
0003b0 6a 2e 9f 3d fe ae 32 3d 4e 1c 98 bd 0f 5c ba 3d
       0.07772525 0.043623917 -0.07427274 0.0909959
0003c0 3c a7 6b bc 06 c0 8e bc af f0 5d bc 33 fa 76 3b
       -0.0143831335 -0.017425548 -0.013546153 0.0037685751
0003d0 f5 94 ff bd ae db 2c bc e7 93 d4 bc 70 db 7b bd
       -0.12479583 -0.010550423 -0.025949432 -0.06148857
0003e0 f6 de 1c bd 46 38 6c 3d 26 a2 5c be bc bb 94 3b
       -0.03829857 0.057670854 -0.2154623 0.0045389812
0003f0 6b 27 8a 3c c0 0f 39 be a3 30 81 bd 3c 2d 81 3c
       0.0168645 -0.18072414 -0.06308105 0.01576864
