models/snapsRandom/model_1685678027.503527.pt (torch, 252679 bytes, 10 tensors)

0.weight f4 [128, 49]
000000 11 0b bb bb f3 f0 0b 3e 23 9d b1 3d 99 e2 33 be
       -0.0057081063 0.13666134 0.086725496 -0.17566909
000010 fa b2 f2 3d 76 af 30 3d a1 18 13 3c 9e 37 fe 3d
       0.11850543 0.043136083 0.00897804 0.12412952
000020 86 ac 75 3a f8 be f8 bd f1 41 96 3d 82 42 10 3e
       0.00093717163 -0.121457994 0.07336796 0.1408787
000030 a5 3a 08 be b9 4d 01 bd c3 2e 82 3d a0 31 23 bd
       -0.13303621 -0.031568263 0.06356575 -0.039842248
000040 6e ec 2d 3d da 13 92 bd e4 a5 87 bd 38 ef 92 3d
       0.042461805 -0.07132693 -0.06623438 0.071745336
000050 b1 91 dc bb 42 ac 8e bd 52 89 39 3e 65 77 b6 bd
       -0.006731235 -0.06966449 0.1811879 -0.089094914
000060 c8 68 be 3c a9 2a eb bd 74 60 bd bd 8a e3 b3 3d
       0.023243323 -0.11482746 -0.092469126 0.08783634
000070 07 da cd 3d d7 a6 21 be 6a 5e b7 3d 29 58 d4 3c
       0.10051351 -0.157863 0.08953555 0.025920944
000080 f1 e9 19 3d 80 29 a2 bc 19 3f 8a 3c c6 07 35 3e
       0.03757662 -0.01979518 0.01687579 0.17678747
000090 36 06 96 bd d4 73 8d 3c 24 fb 54 be ed d3 80 bd
       -0.073254034 0.017267145 -0.20798928 -0.06290422
0000a0 de 6a 86 bd 9e 5c 7e 3d aa eb 9b 3d 29 cc 30 bd
       -0.06563352 0.062100045 0.07613309 -0.043163452
0000b0 0c 2a ac bd e4 7a 0c 3e 55 7e e5 3d 9d 67 b3 bd
       -0.08406457 0.13718754 0.112057365 -0.08759997
0000c0 9d 59 2c bd 82 ff b6 3d 2a fb 82 bc cd f8 e5 bd
       -0.04207765 0.08935453 -0.015988905 -0.112290956
0000d0 7e 16 78 bb c4 b6 10 3e 7d ea 47 3d 0d e7 9a bd
       -0.0037855203 0.1413222 0.04880761 -0.07563601
0000e0 50 58 53 3c 5a 0e b3 3d f4 84 86 bd bb a8 ce 3d
       0.012899473 0.08742972 -0.065683275 0.100907765
0000f0 76 24 0c 3e 86 69 d4 3d 66 c3 ff bd 20 44 09 be
       0.13685784 0.103716895 -0.12488441 -0.13404894
000100 6c 1f b1 bd 32 86 9c 3d 9b e9 9e bc 68 2b 47 3d
       -0.08648571 0.07642783 -0.019398501 0.04862538
000110 46 3f 9c 3d c7 72 35 3e d0 88 20 bd 5b 19 db 3d
       0.07629256 0.17719565 -0.039192975 0.106981955
000120 21 2d 02 3e 58 da ec bd e7 2e 91 3c fb bd 59 bc
       0.12712528 -0.11565083 0.01772256 -0.013289924
000130 3a 99 a9 bd 38 3b f9 3c de e1 15 3d 64 12 de 3d
       -0.08281179 0.030423746 0.036592357 0.108433515
000140 0d 05 68 bd 1b fc 13 be da 84 d9 bd d5 45 00 3e
       -0.05664544 -0.1445164 -0.106210425 0.12526639
000150 fb e8 c0 bd 6c ed b7 bd b2 a4 1f bd 09 4c 24 be
       -0.094194375 -0.089808315 -0.038975425 -0.1604463
000160 b8 0b d3 3d e0 36 2f 3d 20 8f 97 bd 46 b2 01 3d
       0.103049695 0.042776942 -0.07400346 0.031664155
000170 c0 24 46 3c ee de 9a bc a7 87 27 bd b6 57 f4 3d
       0.012093723 -0.01890513 -0.040900853 0.11930792
000180 c5 76 30 bb 48 bf a9 bc 1d a1 cb 3d 0a 13 25 be
       -0.002692626 -0.020721093 0.09942839 -0.16120544
000190 16 55 30 3d 25 ea fa bd 5d 37 10 bc a5 06 08 be
       0.043049894 -0.12251691 -0.008802262 -0.13283785
0001a0 ed 81 b2 3d 7b 7d 57 3d dd bf 09 3e b7 22 56 3b
       0.087161876 0.052609902 0.13452096 0.00326745
0001b0 1f f7 00 be c1 85 34 3e 55 55 2a be 50 9d 76 3d
       -0.12594269 0.17629148 -0.16634114 0.06020862
0001c0 11 c9 b2 bd 9f 76 8a 3d 7c bb 26 3e 27 49 c9 bd
       -0.087297566 0.067609064 0.16282457 -0.09828406
0001d0 0a 71 a5 bd e7 af b4 3c 89 7b b4 bd 9d 80 93 3d
       -0.08078201 0.022056533 -0.08812625 0.072022654
0001e0 2e 3a 2b bd 3b ee 53 bc e6 f5 b4 bd e9 e2 56 3c
       -0.04180353 -0.012935217 -0.08835964 0.013115623
0001f0 a2 c9 d5 bd 10 e9 1b bc 09 55 ec bd d2 05 8f 3d
       -0.10438849 -0.009516016 -0.11539657 0.06983532
000200 29 5e 07 bc 65 40 80 bd 12 ab 91 3d fa 64 14 be
       -0.008262196 -0.06262282 0.07112707 -0.14491645
000210 57 78 18 3d 9a ad c0 bd 65 0c d0 3c c5 f7 29 bc
       0.03722414 -0.09408112 0.025396535 -0.010374014
000220 c7 21 94 3c 0a 77 e0 bd 61 ba e4 bd 49 4f 00 3e
       0.018082513 -0.10960205 -0.111683615 0.12530245
000230 2b 3e 96 bd 2f a6 35 3c 50 b8 d6 bd 62 06 d3 3d
       -0.07336076 0.011086985 -0.104843736 0.10303952
000240 25 88 c6 3c ea ca 1e be df 46 77 3d 80 3e 39 3d
       0.02423484 -0.15507093 0.060370322 0.04522562
000250 b7 dc cb 3d 19 ce 13 bd d1 ce 78 bd 46 5d 20 3e
       0.099542074 -0.036085222 -0.06074411 0.15660581
000260 5e b9 5c 3d 02 8c d1 bc c2 df b0 3d 73 e7 d0 3d
       0.053887717 -0.025579456 0.086364284 0.102003954
000270 c2 34 1b 3e 70 a3 f8 3d 34 c5 c2 bd 12 d2 b8 bd
       0.15156844 0.12140548 -0.0951027 -0.09024443
000280 07 eb a0 3d fc bc a6 3d 6e ad ba 3d 5d c0 a5 3c
       0.07857328 0.08141515 0.0911511 0.020233328
000290 ff 03 e7 3d b1 d4 99 3c 64 0e 3f be c8 e7 7c 3d
       0.11280059 0.018778177 -0.18657833 0.06174448
0002a0 cc f9 cd 3d 69 c5 70 3d ec cd 10 3c e9 63 f8 3d
       0.100574106 0.058782015 0.008838158 0.12128431
0002b0 57 64 e4 bc be b2 66 be ea 84 45 3d f3 51 64 bd
       -0.027879877 -0.22529122 0.04822246 -0.055742215
0002c0 75 db 60 bd 90 d1 02 3e 2b 26 4f bb 72 a1 b6 bd
       -0.05489679 0.12775254 -0.0031608443 -0.08917512
0002d0 74 de b2 3d 47 4e 21 3e d6 d1 0f bc 78 85 b1 3d
       0.08733836 0.15752517 -0.008778056 0.08668035
0002e0 49 c5 d4 bd 6f 9b e6 3c b7 38 79 3d 4b 69 18 3d
       -0.10389192 0.028150288 0.060845103 0.03720979
0002f0 29 43 9d 3d fa 01 64 be c7 ee 08 3e 20 f5 18 be
       0.076788254 -0.22266379 0.13372336 -0.14937258
000300 5a 37 76 bc f7 9c 7d bc 8e 29 66 3d bd 78 c2 3d
       -0.015027845 -0.015479318 0.056191973 0.09495685
000310 31 4d 1e 3d 7e fe de bd fc 4d bc 3c f5 91 fa bd
       0.038647834 -0.10888384 0.022986405 -0.1223487
000320 6f dd b5 bd 9c 5b df 3d bb f9 92 3d d5 56 7d 3c
       -0.08880126 0.10906145 0.071765386 0.015462597
000330 db 6c 79 bd 33 8c bc 3c 7e 9a 22 3e f1 b3 d7 bc
       -0.06089483 0.023016071 0.15879247 -0.02633092
000340 58 3f 81 bd be 28 0a be 38 ad 89 bd 0a 58 ac bd
       -0.0631091 -0.13492104 -0.06722492 -0.084152296
000350 4c da 22 3e 2b 55 29 bd 59 12 ca 3d d6 b6 a5 bc
       0.15903586 -0.041340988 0.09866781 -0.020228785
000360 07 87 25 bd 14 43 a4 bd cf f2 b0 3d 63 a4 c6 bb
       -0.040411975 -0.08020607 0.08640062 -0.006062077
000370 f4 3e 20 be 4c 32 71 3d 8b b6 db bd 1f e9 28 be
       -0.15649015 0.058885857 -0.10728177 -0.16495179
000380 06 af 05 3a 7e 66 63 3d 5c f4 10 3e 82 e9 ab 3d
       0.0005099628 0.055517666 0.14155716 0.083941475
000390 33 0e 64 3d 74 85 c2 bc d3 9c 91 3b b8 e5 90 bd
       0.055677604 -0.023745276 0.0044437437 -0.070750654
0003a0 52 23 cf 3c 52 9e 94 3d 17 d5 94 bc ce 36 fa bd
       0.025285397 0.0725676 -0.018168015 -0.122174844
0003b0 01 82 19 be 32 f1 0a b9 2a 99 0a bd ec d2 83 bd
       -0.14990999 -0.00013250558 -0.033837475 -0.064367145
0003c0 60 4c ab 3d 99 96 63 bd e5 f1 51 3d b2 0a aa 3d
       0.08364177 -0.055563543 0.05125608 0.08302821
0003d0 36 ef c9 bd 7b 29 18 bc bc 4c dd 3d 83 58 a7 3d
       -0.09860079 -0.009287233 0.108056515 0.08171179
0003e0 90 f2 91 bc 83 83 70 3d 70 d9 2c bd e1 b4 e7 3d
       -0.017815858 0.05871917 -0.042199552 0.11313797
0003f0 32 54 0c be 39 bc d3 ba 4b 40 c7 bd 03 2b f9 3c
       -0.13703993 -0.0016154117 -0.0972906 0.030416017

0.bias f4 [128]
000000 26 9a dc bd 6a a5 1a 3e 7f 28 c4 bd 4e d7 c6 bd
       -0.10771589 0.15102163 -0.095780365 -0.09709035
000010 93 a4 74 bd ac 29 d8 3d 19 20 8e bd a0 4c a3 3e
       -0.059727263 0.10554823 -0.06939716 0.31894398
000020 90 b3 f5 3d 90 3a 52 be 8a 05 2b 3e 02 7c 40 3e
       0.119971395 -0.20530152 0.16701332 0.18797305
000030 ac f3 d0 bc 83 4d 0a be 37 8b bb 3e 5f fb 8c 3d
       -0.025506817 -0.13506131 0.3662965 0.06883883
000040 4e 42 c8 bd cb f8 9b be b7 d0 49 be 7e 40 84 3e
       -0.097782716 -0.3046325 -0.19708525 0.25830454
000050 68 a8 46 bd 0f 68 07 be f2 dd 2a be cd 40 2e be
       -0.04850045 -0.13223289 -0.16686228 -0.17016907
000060 18 f4 2b bd cd ef 33 3c 69 93 c3 3d e4 2c b2 3e
       -0.041980833 0.010982466 0.09549601 0.34799874
000070 cd 5b f3 bd 80 c5 84 3e f6 06 f7 3d b5 91 2f be
       -0.11882744 0.2593193 0.120618746 -0.17145427
000080 a5 3e be bd c3 e0 ac be 57 b3 4b bc 38 b6 e2 bd
       -0.09289292 -0.3376523 -0.012432895 -0.11069912
000090 dc 12 10 3d 50 a1 ed bd f9 fa fc 3a 8f ed f0 bd
       0.035174236 -0.116030335 0.001930087 -0.11764061
0000a0 bc 22 fe bd 62 70 19 be 5c d1 99 bd 34 c9 ed bd
       -0.12408969 -0.14984277 -0.07510635 -0.11610642
0000b0 23 61 e9 bd 65 77 20 be 71 36 bc 3d 87 95 0e bd
       -0.113954805 -0.15670545 0.091900714 -0.03481057
0000c0 d3 6b 00 be 37 ab eb 3d f5 30 ae bd 57 96 06 be
       -0.12541132 0.11507266 -0.085054316 -0.13143288
0000d0 d0 fd ff bd d8 ac 30 bd 8d b1 87 bd b1 1e 5c bc
       -0.12499583 -0.043133587 -0.06625662 -0.013435052
0000e0 29 f0 c4 3c 6c ea b0 3d ff 12 e0 3c b9 dc cf bd
       0.024040299 0.086384624 0.027352808 -0.101495214
0000f0 20 89 74 bd e1 5b d5 bd a4 e6 02 be 6b 4e 01 be
       -0.059701085 -0.10417915 -0.12783295 -0.1262757
000100 c8 e8 fa bb 6d 36 95 3c 8d 12 61 bd da 4f 1a be
       -0.007657144 0.018214429 -0.054949332 -0.15069523
000110 be 79 17 be fe c7 44 be 73 3a 51 3e 42 f0 3d be
       -0.14792535 -0.19216916 0.20432453 -0.18548682
000120 f6 05 2a 3b 53 39 1c be 92 a7 27 bd 48 a0 2a be
       0.0025943494 -0.15256242 -0.040931292 -0.16662705
000130 78 cc a9 bd bb 69 d0 bc bf 57 80 bd a9 7c 77 bd
       -0.082909524 -0.025441041 -0.06266736 -0.06042162
000140 d5 64 b7 bd 73 9e f6 bc ce 59 52 bd f2 9c 8a 3d
       -0.08954779 -0.030104851 -0.051355176 0.06768216
000150 f4 3c c1 bd 16 91 2d bd 32 fb 0a 3e 61 80 27 3c
       -0.09435454 -0.042374693 0.13572386 0.010223479
000160 fe 67 0f be 2a cd da bd 99 10 2f 3d 84 e7 ce bd
       -0.14004514 -0.10683663 0.042740438 -0.10102752
000170 fd de 4d bd 08 3d 65 be 18 50 3a bc fa 88 3c be
       -0.050261486 -0.22386563 -0.011371635 -0.18411627
000180 54 cd bc bd 4d 33 de bd e3 4e b5 3e 72 91 b1 bd
       -0.09218851 -0.108496286 0.35411748 -0.086703196
000190 9c d9 bc 3d b1 7b fe bd 6c 97 11 be 55 76 96 bd
       0.09221193 -0.12425936 -0.14217919 -0.07346789
0001a0 3d d6 92 be ad 6f 52 bd 1d a8 f9 3d 2b 46 db bd
       -0.28679076 -0.051376034 0.12190268 -0.10706743
0001b0 40 03 ef bc b7 01 89 be 5c 21 f6 bd 7c 22 84 be
       -0.029176354 -0.2675912 -0.120180815 -0.2580756
0001c0 ef ce ca bd f0 e1 3b be f8 67 93 3e c7 cc 55 be
       -0.09902751 -0.18347907 0.2879026 -0.20878898
0001d0 4c 56 b6 bc 64 f0 89 3c 64 ad 44 bd e5 a6 be bd
       -0.022257946 0.01683826 -0.04801692 -0.09309176
0001e0 96 f2 f1 3c 72 85 92 3c 97 e8 d7 bd 03 b1 45 be
       0.02953462 0.017885897 -0.1054241 -0.19305806
0001f0 b4 c7 df 3c 0b 2f 0c be 61 1e ba bc 07 25 fc 3c
       0.027316906 -0.1368982 -0.022719564 0.030779375

2.weight f4 [128, 128]
000000 48 64 28 3d 44 56 85 bc 33 fc ed bc 7d 91 7c bd
       0.04111126 -0.016276486 -0.029050922 -0.061662186
000010 39 01 8a 3d 22 49 84 bc d7 5e 44 bd ac 5c a6 3b
       0.067385145 -0.016148154 -0.04794201 0.0050769653
000020 f0 ec 3b bb dc ba fa bc e2 24 ee 3b 94 c3 5c 3d
       -0.0028675161 -0.03060668 0.0072675804 0.053897455
000030 44 4f 3f bb 3e 1f 3e bd 37 96 82 3d a8 c3 81 bd
       -0.0029191533 -0.046416514 0.063763075 -0.063361466
000040 60 1e 7c bd 0c 0b 28 bd 11 3c b0 bd af 80 ca 3c
       -0.061552405 -0.04102616 -0.08605207 0.024719564
000050 f7 d9 99 3d b6 19 9d bd ca cf 32 3d b0 51 66 3b
       0.075122766 -0.076709196 0.043655194 0.0035143904
000060 98 56 34 bc 23 54 86 bd 50 8e 2f bd e8 82 24 bd
       -0.011006974 -0.065590166 -0.04286033 -0.040163904
000070 3b cf d6 3c 69 43 f3 3c 4c ab a0 bd 94 52 96 bc
       0.026221862 0.02969523 -0.07845172 -0.018349923
000080 ce cb 59 bc 3a d6 b0 bb 20 5d 7b bd fd 4b 26 3d
       -0.01329322 -0.0053966315 -0.061368108 0.04059981
000090 92 fd db 3b 1b c7 4c bd 84 d5 61 bd a3 a6 56 bc
       0.0067135775 -0.04999457 -0.055135265 -0.013101253
0000a0 63 ac 9b 3c 46 62 85 bd 68 8b 94 3b 5a 33 0e bd
       0.019003099 -0.06512885 0.00453322 -0.03471694
0000b0 53 1a b5 bb 1d 7d 45 3c 1b 92 9d 3c 70 54 e0 3b
       -0.0055268197 0.012053755 0.019234708 0.0068460032
0000c0 b1 ea 4d bd bc 97 a2 bd 2a f9 17 3d 0f 8c 9a 3d
       -0.050272647 -0.07939097 0.037102856 0.07546245
0000d0 4d 17 51 bd 6e c9 57 bd 78 8c 1c 3c 04 09 7a bc
       -0.051047612 -0.052682333 0.009554975 -0.015260939
0000e0 09 83 b5 3d ac 79 9e 3d 8b 1d 77 3c fe 35 b5 3d
       0.088628836 0.07738051 0.015082727 0.08848189
0000f0 01 80 a8 3d ff ff 86 bb 25 e3 82 3d 80 22 b7 bd
       0.0822754 -0.0041198726 0.06390981 -0.08942127
000100 bf e3 e0 bc 04 7a 73 3d 71 c6 68 bd f4 e0 f1 bb
       -0.027452348 0.059442535 -0.056829873 -0.007381553
000110 ec b3 94 bd 42 33 af 3d 54 57 4c 3d f6 12 52 bd
       -0.0726088 0.085546985 0.04988797 -0.051287614
000120 24 c2 a1 3d 6f 4b 4c bd 21 9c 88 3d ef fa 16 bb
       0.078983575 -0.049876627 0.06670404 -0.0023037752
000130 bc 0a 81 bc ce 98 82 3d 28 50 a6 bd 67 b0 38 bd
       -0.015752189 0.063768014 -0.08120757 -0.045090105
000140 61 2e 6f 3b 7a bd a9 bd 51 fb 8a 3c 14 59 9e bd
       0.003649615 -0.08288093 0.01696554 -0.07731834
000150 b3 04 7f bd af b2 01 3d 14 da 93 bc 8d f8 9e 3d
       -0.06226034 0.031664547 -0.018048324 0.07762251
000160 61 ee 9c bd ea 5a 91 3d b2 f8 51 3d 33 dd 3c bc
       -0.07662655 0.070974186 0.051262565 -0.011527347
000170 98 8f 40 3d 6c 83 9e bd d5 cc a7 bd 59 ed 6c bd
       0.04701194 -0.077399105 -0.081933655 -0.05784354
000180 fb bd 94 bd 71 35 9b bd 69 dc c8 3c 40 8e af 3d
       -0.072627984 -0.075785525 0.024519162 0.08572054
000190 2f 8d 86 bb 96 f5 08 bd d2 bb 67 bd c9 99 c1 bc
       -0.004106186 -0.033437334 -0.056575604 -0.0236329
0001a0 d7 67 59 3d c7 9b 3e bd 00 dd 33 bd f1 f2 a4 bd
       0.053077545 -0.04653528 -0.043911934 -0.0805415
0001b0 17 11 af 3c c3 e2 91 3d dc 61 33 3d 31 0f 9e 3d
       0.021370454 0.071233295 0.043794498 0.07717741
0001c0 17 12 67 3d 1c 1b 20 bb 0b 28 88 bd f5 1b a6 3d
       0.056413736 -0.002443022 -0.066482626 0.08110801
0001d0 22 3c 61 bd 61 a4 b8 3d 51 30 57 bd 2e d8 c3 3b
       -0.054988988 0.09015728 -0.052536312 0.0059766984
0001e0 07 4f 39 3c 50 ba 66 3d 15 18 e6 3a 14 d2 9e bd
       0.0113103455 0.056330025 0.0017554784 -0.07754913
0001f0 6b c2 0a 3b 22 51 a5 3d da 79 2e 3c 25 4c 37 3d
       0.002117301 0.080721155 0.010649169 0.04475035
000200 27 98 e0 bc eb 44 64 bd 39 b7 65 3d bb 75 4c 3d
       -0.027416302 -0.055729788 0.056082938 0.049916964
000210 a2 75 9e bc 93 d6 d8 bc 6a 5a 0a bd 83 65 89 3c
       -0.019343201 -0.026469504 -0.03377763 0.016772037
000220 33 31 8d 3d 59 e0 a9 bd 7a ee 2a 3a 5f c9 a3 3b
       0.0689415 -0.08294744 0.0006520521 0.0049983705
000230 ce 97 b6 bb fa 95 60 3d fd ea c1 3c 4c db 92 3d
       -0.0055722957 0.05483053 0.023671621 0.07170734
000240 a3 8b 3b bd 82 7c 9a bc a1 b3 47 bc df e8 45 bd
       -0.045787465 -0.018858198 -0.012188823 -0.048317786
000250 a2 97 10 bd dd 7d f6 bc cc 25 da bc c5 b6 47 bd
       -0.03530086 -0.030089313 -0.026629351 -0.048758287
000260 ac f5 56 3c 02 b6 ac bd 85 d2 98 3d 4b 63 17 bd
       0.013120096 -0.08433153 0.074620284 -0.036959928
000270 0a 10 83 3d 53 3d 0a bb c4 3a 98 bd b9 32 b2 bd
       0.063995436 -0.002109368 -0.07433084 -0.08701081
000280 81 97 72 bc 36 c9 3f 3d 71 95 10 3c 85 c9 75 3d
       -0.014806629 0.04682275 0.008824692 0.060006637
000290 12 b6 56 bd 0c a7 a6 bd 9e db ab bd 6c 0b ae 3c
       -0.05241973 -0.081373304 -0.08391498 0.02124568
0002a0 79 c7 33 3d 15 09 18 bd d7 75 a7 3c cb b2 94 bd
       0.043891404 -0.037118036 0.020441933 -0.072606646
0002b0 63 f1 6d bc 2f cb 90 3d 69 3b e0 bc 24 67 95 3d
       -0.014522883 0.07070004 -0.027372079 0.07295063
0002c0 26 87 5d bd 14 79 47 bd 20 41 9f 3d 1a 4d 91 3d
       -0.054083966 -0.048699453 0.077760935 0.07094784
0002d0 d3 1f a2 3c 48 5c 92 bc aa 2d 21 3d 64 4d d1 3c
       0.019790566 -0.017866269 0.03935019 0.025549598
0002e0 6f 73 35 bd 60 1c 8b bd 88 0b 0d bc 71 6d 23 bd
       -0.04429954 -0.067925215 -0.008608706 -0.039899293
0002f0 26 ae 0a bd d7 ba 5d 3c e9 a2 98 3d 23 29 8a 3d
       -0.033857487 0.013533316 0.07452948 0.067461275
000300 9a a6 8a 3d 21 1b 02 3d b9 5c eb 3c a1 a0 df bc
       0.06770058 0.031764153 0.028730737 -0.027298274
000310 7c 5a dd 3b 2c 1b fe bb 56 df 91 bd 27 bd ac 3d
       0.0067551713 -0.007754704 -0.07122676 0.084345154
000320 98 4e 79 3d 17 21 26 3c 90 2b 38 3d 26 44 18 3d
       0.06086597 0.010139725 0.04496342 0.037174366
000330 76 ad 86 3d 40 cc 46 3d fb 85 9f bc 67 6e a5 bc
       0.06576054 0.04853463 -0.019473067 -0.020194246
000340 e9 58 5a bd ec 22 d7 3b f7 44 94 3d c3 75 a1 bd
       -0.053307448 0.0065654423 0.072397165 -0.078837894
000350 81 c9 b8 3c 5f d3 4a bd 79 e4 89 3d f7 dd a6 bd
       0.022557022 -0.049517985 0.06733031 -0.08147805
000360 84 96 51 3c 19 ea 46 3d ad eb e6 bc e5 83 07 3c
       0.012792233 0.048563097 -0.02818855 0.008271192
000370 99 52 00 3d f0 ef af ba 08 48 10 bd 62 01 ab 3d
       0.03132877 -0.0013422947 -0.035224944 0.08349873
000380 2e 2c aa bd 8f f1 69 bd 34 d4 ef bc 0f f1 a1 3b
       -0.08309208 -0.057115134 -0.029275991 0.0049420665
000390 c5 11 b9 bc 04 fb 49 3c 80 d0 7f bc 66 7f 43 bd
       -0.022591481 0.012327913 -0.015613675 -0.04772892
0003a0 52 6a fb 3b c8 5b 66 3d 88 f7 1c 3d 67 71 b3 3c
       0.0076725865 0.056239873 0.038322 0.02190466
0003b0 71 7e 7c bd 8a 13 5b 3d 29 ce 76 bc 75 b8 7a 3d
       -0.06164402 0.05348543 -0.015063801 0.06121107
0003c0 99 c2 0b bd 2b de 8a bd 21 8e 78 3d 44 3c 5d bc
       -0.03412113 -0.067806564 0.06068242 -0.013503138
0003d0 1a 9b df bc 24 9f 21 3d 88 79 fc 39 9c 1c 02 bd
       -0.027295638 0.03945841 0.00048155733 -0.031765565
0003e0 1f 13 37 bc 30 cf 81 bb f3 01 12 3c 60 08 85 3d
       -0.011173992 -0.0039614663 0.008911598 0.06495738
0003f0 24 7d 1e bd e9 70 e9 bc 49 4a 33 bb e8 f8 91 3b
       -0.038693562 -0.028496223 -0.002735751 0.0044547208

2.bias f4 [128]
000000 82 e7 58 3d 2c e1 49 bd 19 ac 4a bd 2c 32 0a bc
       0.052955158 -0.049287006 -0.04948053 -0.0084348135
000010 85 f1 d4 bc 6f f9 cb bd d4 64 1d bd aa ce e1 3a
       -0.025994072 -0.09959685 -0.038426235 0.0017227728
000020 42 08 d8 3b 65 68 ab bd 98 1e 9c 3c 5f 01 1b bd
       0.0065927813 -0.08369521 0.019057557 -0.037843104
000030 bc f8 73 bd 26 12 b0 bc 07 b0 65 bd f1 cd db 3d
       -0.059563383 -0.021493029 -0.056076076 0.107326396
000040 30 a6 8a 3d 6e 95 91 bc 7d fc 84 bd e9 1c f0 bb
       0.06769979 -0.017771449 -0.06493471 -0.007327665
000050 dd 75 08 3d aa 23 ac bd 22 fe c2 bc e5 f5 b9 3c
       0.03331553 -0.0840524 -0.02380282 0.02270026
000060 ec 70 4f bd 2c 5d 0a bd 9d 1d 0e be f5 76 8c 3c
       -0.0506448 -0.033780262 -0.13878484 0.017146567
000070 02 b8 10 bd ad 0d 93 bc b4 31 8e 3c 60 23 ec bc
       -0.035331734 -0.017950857 0.017357685 -0.028825462
000080 a6 5b b9 3d b3 06 53 3d 43 f7 e4 bd 9f f8 ca bd
       0.09050684 0.05152006 -0.11179974 -0.09910702
000090 bb da e0 3b d5 84 2d bd 11 0e 04 be ca 62 c7 bd
       0.006862012 -0.042363007 -0.12895991 -0.097356394
0000a0 5f c4 93 bc 15 71 90 bd 0b 88 9e bb 94 7b c8 bd
       -0.018037973 -0.07052819 -0.004837995 -0.09789196
0000b0 8e a2 7c 3c cc 3d 02 3e 23 44 e6 3d 03 1c 21 bb
       0.015419615 0.12718886 0.11243465 -0.0024583347
0000c0 15 27 cc bd 23 04 0f bd 0f b1 2f 3d ab d3 9f 3d
       -0.09968392 -0.034916054 0.042893466 0.07804044
0000d0 ef 80 5b 3d 2a 3a 27 bd 83 09 c9 bb 81 51 c5 3c
       0.053589758 -0.040826954 -0.006135167 0.024086716
0000e0 85 78 07 bb 52 e2 10 bd a9 30 40 bc da 02 49 bd
       -0.00206712 -0.035372086 -0.0117303515 -0.049074985
0000f0 5b 72 a3 bd bb ee 69 3c 1d 15 43 3d 5d 38 51 3d
       -0.07980796 0.014278109 0.047627557 0.051079143
000100 a5 c2 6a bd db 80 81 3d 6a f0 1a bd 4d 14 39 3d
       -0.057314534 0.06323405 -0.037826933 0.045185376
000110 57 70 f9 3b 02 d6 30 be 59 64 44 bd e0 ce 76 3d
       0.007612269 -0.17269138 -0.04794726 0.060255885
000120 fc a0 e5 bd 04 b3 af 3d b0 e1 cc bb 24 6d 26 3d
       -0.11212346 0.085790664 -0.00625249 0.04063143
000130 27 17 90 bc 82 3f 43 be 45 5c 76 3d db 58 04 bd
       -0.017589165 -0.19067195 0.06014659 -0.0323113
000140 94 65 5d bd aa 4d 9b 3d 3d e0 1b bc 45 7b 92 bb
       -0.05405195 0.075831726 -0.009513912 -0.0044702613
000150 96 b1 37 be b6 c1 d4 3d 87 02 be 3d ac ab 29 bb
       -0.17938837 0.1038851 0.09277826 -0.0025889678
000160 4f a3 65 3d dd 58 0d be 38 05 8f bd bb 27 1b 3d
       0.056063946 -0.1380343 -0.06983417 0.037879687
000170 31 e2 9c bc 88 04 61 3c 24 f5 9e bd 5c f5 15 3e
       -0.019150825 0.0137339905 -0.077616006 0.14644378
000180 33 64 1a 3d c3 39 ef 3d 82 0c 34 bd 42 8a bf 3d
       0.037693214 0.11680939 -0.04395724 0.093525425
000190 cc 4d 7f 3d b7 58 94 3d 2b 7b 62 bd 22 03 03 bd
       0.062330052 0.072434835 -0.055293243 -0.03198541
0001a0 45 38 f1 3c a7 a8 01 3e b1 d9 a5 bd 2b 04 d0 bc
       0.029445777 0.12661992 -0.08098162 -0.025392612
0001b0 07 f4 33 3d 33 28 83 bd 2b c7 af bd 23 6c e3 ba
       0.043933894 -0.06404152 -0.0858291 -0.0017350953
0001c0 35 c7 3f bd 81 30 a7 bd d9 dc 80 bd f7 2f 85 3d
       -0.046820838 -0.08163548 -0.06292123 0.06503289
0001d0 fd f4 ae bd 99 3b 02 3e 19 57 53 3d bc 50 be bc
       -0.085428216 0.12718047 0.051596735 -0.023231857
0001e0 d3 ba da 3b 7f a6 07 3e b1 c3 f5 3d de c5 11 bd
       0.006675103 0.13247107 0.12000216 -0.03558909
0001f0 cc 2d 8b 3d 93 c9 5e 3d ac e0 8f bc 99 6f b3 bd
       0.067958444 0.054391455 -0.017563187 -0.0876152

4.weight f4 [128, 128]
000000 5e 2d 44 3d 20 68 c8 3c 25 85 18 bd ec 18 4f 3d
       0.047894828 0.024463713 -0.03723635 0.050560877
000010 82 d3 ae 3a f0 ed 4a bd ca 49 dc 3b 04 eb 13 bc
       0.0013338181 -0.04954332 0.0067226635 -0.0090282
000020 15 38 d5 3c a6 77 5f 3c a4 e0 8a 3d c6 9c de 3b
       0.026027719 0.013639366 0.06781128 0.006793591
000030 8c 8a 01 3c c4 0c e2 bb f1 ca 7c bd 75 cb 31 3d
       0.007906567 -0.0068984944 -0.061716978 0.043406922
000040 8a bd 97 3d e3 7b 1c bd 73 f6 6c bd 00 09 0c bd
       0.074091986 -0.038204085 -0.05785222 -0.03418827
000050 95 05 5a bb 0f 86 93 3d cd 48 84 bc d1 3d a6 3d
       -0.0033267487 0.07203304 -0.016147995 0.08117259
000060 57 50 92 3d b1 1c 90 bd 4c a6 b2 bd cd 66 14 bc
       0.0714423 -0.070367225 -0.08723125 -0.009057713
000070 8c 7b 3b bc 8f a6 3c 3c 93 c4 0d bc c5 8b 1f bd
       -0.01144303 0.01151432 -0.008652824 -0.038951654
000080 37 6e 7a 3c ea 99 33 bd 4f 8e 43 3d e6 e3 80 3d
       0.015285066 -0.043847956 0.047743138 0.06293468
000090 5f 91 94 bd 6d 99 88 bd c6 83 89 3d f5 fe a1 bc
       -0.0725429 -0.06669889 0.06714587 -0.019774893
0000a0 ac eb 12 3d 71 88 ad bd a6 d3 58 bd 69 e9 8d bd
       0.035869285 -0.0847329 -0.05293622 -0.06929285
0000b0 56 77 fc bc 45 e8 88 bd 67 5e 02 bd 94 2a cb 3b
       -0.030818623 -0.06684927 -0.03182831 0.006200144
0000c0 89 90 0b bd fb 07 33 3d 68 74 0b bd 2b 28 8b bd
       -0.034073386 0.043708783 -0.03404656 -0.06794771
0000d0 d1 c0 bc bc 5e 96 43 3d 7e 06 8e bc 42 2b 3c bd
       -0.02304116 0.047750823 -0.01733708 -0.04593969
0000e0 6b 5c 06 bd 53 e9 8f 3d 39 05 93 bd d7 26 48 bd
       -0.03280298 0.07026925 -0.071787305 -0.048865166
0000f0 94 d2 98 bd d7 44 99 3d 99 a8 44 bd 6c a9 a1 3d
       -0.074620396 0.07483833 -0.04801235 0.07893643
000100 00 64 a3 bc a7 e6 67 bd 3a b2 31 bd 34 09 8d bd
       -0.019945145 -0.05661645 -0.04338286 -0.06886521
000110 12 8a 5c 3c 3b ef 08 bd 8a 51 a1 3d 3c d1 02 3c
       0.013460653 -0.033431273 0.078768805 0.007984456
000120 a7 86 82 3c 90 ca 26 bd ca 94 df bc 16 aa 44 bd
       0.015933348 -0.040720522 -0.027292628 -0.04801377
000130 52 d5 d3 3c e3 67 2e 3d 83 07 67 bd 10 37 20 3d
       0.025858555 0.042579543 -0.056403648 0.03911501
000140 c3 af ad bd 72 77 54 3d a9 6a 3d 3d fb 56 cb bc
       -0.084807895 0.051871724 0.046244297 -0.024821749
000150 ba 3b 8e 3c f9 73 79 bd 20 c0 89 bc cc 53 bf 3c
       0.017362464 -0.060901616 -0.016815245 0.023355387
000160 72 ef 30 3d a8 03 92 bd 78 bf 96 bd 3d a5 8d 3d
       0.043197103 -0.071296036 -0.073607385 0.06916282
000170 29 c4 fd 3c 98 a8 9c 3d 91 c1 a0 bd 6d 63 28 bd
       0.030977326 0.07649344 -0.0784942 -0.041110445
000180 fd 43 19 bd 62 78 81 bc 3d 9b 06 3c 5b 66 95 bc
       -0.037418354 -0.015804473 0.008215723 -0.018237283
000190 ca cd 40 3d 74 5d 5a bd 6d e7 99 3d f2 91 31 bd
       0.047071256 -0.05331178 0.07514844 -0.043352075
0001a0 bc 2a 47 3d a2 a4 94 3d 09 18 a0 bd b6 c7 c8 3c
       0.04862474 0.07257964 -0.07817084 0.024509292
0001b0 cf 2e a7 3c 08 33 a5 3d 88 b1 49 3d 31 df b1 bd
       0.020408062 0.08066374 0.049241573 -0.086851485
0001c0 d3 79 02 bd 3f e4 8d bd b4 4c 3f bd 30 fe d8 bc
       -0.031854462 -0.069283 -0.04670401 -0.026488394
0001d0 f1 8c 09 3d 38 eb ae bd 00 2d b0 3b 0e f3 a3 bd
       0.033581678 -0.08540958 0.005376458 -0.080053434
0001e0 6f 4a 8b bc c4 35 ab bd 05 1e 77 bd 1b 32 1e bd
       -0.017003266 -0.08359864 -0.060331363 -0.038622003
0001f0 d5 d5 10 3d 74 b0 49 bd b1 3d 56 bd d1 c8 1e 3d
       0.035360176 -0.049240544 -0.052304927 0.038765732
000200 74 cf 38 bd 63 7e 05 3d 3a af b2 3d ae b7 9a 3d
       -0.045119718 0.032591235 0.08724828 0.07554565
000210 5c 52 b9 bc bc 0d 36 3d 36 46 c8 bc 9f b8 75 3d
       -0.02262228 0.044446692 -0.024447542 0.05999052
000220 89 8b 4b bb c1 04 de 3b 99 60 b0 bd 51 9a 93 3d
       -0.0031058511 0.006775469 -0.086121745 0.07207168
000230 fd 95 74 3d c7 ff 46 bc fc a9 36 bd 0f 7a 0c bd
       0.059713352 -0.012145943 -0.044595703 -0.03429609
000240 0d 84 9f bd 92 ea 69 bd 83 2c 2b 3d b2 f2 68 bd
       -0.077888586 -0.05710847 0.041790497 -0.056872077
000250 9a 5b 0d 3d 32 d7 40 bd 5b 21 30 bd af 56 ab bd
       0.034511186 -0.047080226 -0.04300056 -0.08366143
000260 8b e0 d9 3b 94 aa 00 bd fa f1 22 bd b5 25 8d b8
       0.006649082 -0.031412676 -0.039781548 -6.7304274e-05
000270 c6 0d 4a bd 97 ac 70 3c 69 60 74 3d 94 19 1b bd
       -0.04932954 0.014689586 0.059662256 -0.03786619
000280 81 38 b5 3c 23 34 fa bc 16 a0 87 3c d4 b6 94 bd
       0.02212167 -0.030542439 0.016555827 -0.07261434
000290 68 87 59 bd 4b 89 1f bd 1c 11 bf bb c8 33 89 bc
       -0.05310765 -0.038949292 -0.005830897 -0.016748324
0002a0 43 b2 d6 bc c0 7d 49 3d b9 d5 82 bd 1c 6d b3 3d
       -0.026208049 0.04919219 -0.063884206 0.08761045
0002b0 4c dc 91 3c 86 e1 7b bb f8 d2 87 3d 2c e5 80 3d
       0.017805241 -0.0038433983 0.06632036 0.06293711
0002c0 51 1a 9c bc 91 f8 ab 3c 52 db 18 bd ab 30 48 3d
       -0.019055517 0.02099255 -0.037318535 0.04887454
0002d0 c4 c0 66 3d 53 e8 9e 3c 0e 0c e3 3b 88 3c 08 bd
       0.05633618 0.01939789 0.0069289273 -0.033260852
0002e0 7c c0 08 bd d1 4b 82 3d c1 a3 be 3c 63 1b 10 3d
       -0.033386692 0.06362117 0.023271443 0.035182368
0002f0 9d 4c 11 bc db 94 2c bc 88 ff 75 3d 4d 40 8d bd
       -0.008868364 -0.010533537 0.060058147 -0.0689703
000300 01 d1 66 3c 88 cf af bc 1c 95 ed bc f6 89 a5 bd
       0.014087916 -0.021461263 -0.029001765 -0.080829546
000310 08 6f 61 3d a5 2c 90 bd 0b 1e e1 bc b6 d0 37 3c
       0.05503753 -0.07039765 -0.027480146 0.011219194
000320 18 46 3c 3d 49 20 bc bd 76 62 27 3d 32 5f 21 bd
       0.045965284 -0.091858454 0.040865384 -0.039397426
000330 53 c2 f3 3c 83 c9 a7 bd 9e fd 9e bd 9c 32 a3 3d
       0.029755747 -0.08192732 -0.077632174 0.07968637
000340 93 fd eb 3c 69 8a 20 3c 0a 38 2c 3d 6b a3 91 3d
       0.028807437 0.009798625 0.04204563 0.07111248
000350 e4 e9 60 3d 3d b8 88 3c 84 95 98 bd d8 16 a9 3d
       0.054910555 0.016689414 -0.07450393 0.0825631
000360 01 e3 90 bc 00 d5 4c bc 27 e3 97 3c f6 19 8a 3d
       -0.017686369 -0.012501955 0.018540932 0.06743233
000370 52 12 7a bc 00 3c 24 bd 7f 32 4f 3d 8c a8 6c 3d
       -0.015263157 -0.040096283 0.050585266 0.057777926
000380 f4 6b cd 3c 13 da ba 3b 7b af 19 3b 11 98 82 3c
       0.02507589 0.005702266 0.0023450542 0.015941652
000390 cf 0f 9a bd f1 5a 42 bd b3 d9 11 3d ff 51 bd 3c
       -0.075225465 -0.04745001 0.035608005 0.023110388
0003a0 6d a0 07 3d 45 2a 5b 3b 8f 41 59 bd f6 fe 29 bd
       0.03311198 0.0033441943 -0.053041037 -0.041502915
0003b0 e6 e8 9d bc 50 03 79 bd 16 b3 a1 3d 6c 15 60 bd
       -0.019276094 -0.060794175 0.07895486 -0.05470793
0003c0 3c ce 3d 3c 6f de b4 3d 56 b6 95 bd 2d 78 ab bd
       0.011584815 0.08831488 -0.073101684 -0.08372531
0003d0 58 09 15 3d 6d 99 3f 3d 3f 00 28 bd c7 e0 1e 3d
       0.036385864 0.046777178 -0.04101586 0.038788583
0003e0 c2 88 80 3d 69 45 28 bd 5c 5e 8b 3d 61 31 ba 3b
       0.062760845 -0.04108182 0.06805107 0.005682156
0003f0 a9 21 98 bc 0a 91 04 3d 64 17 39 3d ab 43 a0 3d
       -0.018570738 0.032364883 0.045188323 0.07825407

4.bias f4 [128]
000000 54 a6 09 bd b1 20 92 3c 39 aa 93 bb ee ba b2 bd
       -0.03360589 0.017837854 -0.004506376 -0.0872706
000010 d7 65 75 bd 20 2a 21 bd f3 05 cd bc 9c 62 27 bc
       -0.059911575 -0.039346814 -0.02502725 -0.010216381
000020 88 ac cc 3d 21 66 b2 3d 98 7d 9c bd 7a ef 0f 3d
       0.09993845 0.08710886 -0.076411426 0.035140492
000030 f5 45 78 bd 3c 45 d3 bc 49 47 a1 3d 21 81 52 3d
       -0.06061359 -0.02578985 0.07874925 0.05139268
000040 67 58 04 be bc ae ae 3d 67 2c be 3c 78 0f 85 bc
       -0.12924348 0.08529422 0.023214532 -0.016242728
000050 d3 e9 0a bd 17 69 d6 3c d1 ee 09 3a e1 51 b4 bd
       -0.0339144 0.026173158 0.00052617217 -0.0880468
000060 d8 fa 8e 3d f9 82 cd bd 9f b7 7e bd 51 f6 a6 bd
       0.069814384 -0.10034747 -0.062186833 -0.0815245
000070 d3 73 af bc de 3e 58 3b 2f d6 9c bd 84 f4 c2 3d
       -0.021417534 0.0032996456 -0.0765804 0.09519294
000080 da 93 ae 3c c3 00 21 bc fd bb 89 bd 5d c0 61 bd
       0.021310735 -0.009826842 -0.06725309 -0.055115093
000090 8e f5 0a bc 41 a7 fc 3c b6 82 a6 bc dc 10 35 bc
       -0.008481396 0.030841472 -0.020326 -0.011051383
0000a0 1e 08 11 3c a6 90 0a bd ba 89 11 3e bd 9e c6 3d
       0.008852033 -0.033829354 0.14212695 0.09698246
0000b0 76 58 5a 3d 62 11 9a 3d c2 0d 83 3c 36 68 23 bd
       0.05330702 0.07522847 0.015997771 -0.039894305
0000c0 67 17 72 bd 4d 31 20 3d 2f c4 bb 3d 89 8e 3f bd
       -0.05910435 0.039109517 0.091682784 -0.04676679
0000d0 9f b2 0a 3c fe 18 c2 37 d6 f0 c7 bc 20 dd 19 bd
       0.008465438 2.313824e-05 -0.024406832 -0.037564397
0000e0 4c 25 55 39 b4 0d a5 bd e8 0c b4 3b 1b b9 f8 3d
       0.00020327157 -0.08059254 0.0054947026 0.12144681
0000f0 78 5c c2 3c 9e f0 40 bd a4 7b 0e 3e c3 22 34 3d
       0.023725733 -0.04710447 0.13914353 0.043978464
000100 2d c4 b9 bd 5d 62 65 bd 4f be 1d 3c 96 a5 40 bc
       -0.09070621 -0.05600201 0.009627893 -0.011758229
000110 e0 a7 a6 3d bc 67 f1 3c 38 1a 54 3d 38 3a 21 3c
       0.08137488 0.02946841 0.051782817 0.009840541
000120 9e fa 35 3d db 6e d6 3c cf 29 95 3c ff 04 80 3c
       0.04442846 0.026175907 0.018208412 0.015627382
000130 c9 1d be bc 07 0c fe bd 55 b9 57 3d e0 e6 cb bc
       -0.023207562 -0.12404638 0.05266698 -0.024890363
000140 05 99 24 3d 68 85 7b 3d 9a 68 58 bd 32 79 17 bd
       0.040184993 0.061406523 -0.05283413 -0.036980815
000150 8f 68 bb 3d 95 a6 19 3d cd 7a 29 3d 1b 10 12 bc
       0.09150802 0.03751238 0.041376878 -0.008914973
000160 a1 b0 a6 bd 74 34 53 bc 06 9c 25 3d 4f 19 41 3d
       -0.08139158 -0.012890924 0.040432 0.047143277
000170 b2 48 a3 bd de a4 88 3c 5a 04 04 3d b9 61 9b 3d
       -0.0797285 0.016680177 0.032230712 0.075869985
000180 7f cb 8f 3d 26 f4 84 3d 1a 0d 55 bd 7d 8d 1f bc
       0.07021236 0.0649188 -0.052014448 -0.009738323
000190 25 3d 50 3c 19 46 fb bc 7a 64 19 bd 8e f9 b9 bc
       0.0127098905 -0.030673074 -0.037449338 -0.022702005
0001a0 95 f2 86 3d c7 c6 e7 3c ac 0f b5 bc 26 30 bc 3b
       0.065892376 0.028293027 -0.0221022 0.0057430444
0001b0 91 19 e0 3d 4a 1a 13 bb 75 39 8d bd c8 8f 8e 3a
       0.109423764 -0.002244609 -0.06895725 0.001087659
0001c0 1f e4 64 bd e8 0e bf 3c 87 30 bc 3d 06 27 81 bd
       -0.055881616 0.023322538 0.09188943 -0.06306271
0001d0 e8 b7 b4 bd f0 52 58 bd 0f 88 15 bd 48 93 7e bc
       -0.0882414 -0.05281347 -0.03650671 -0.015538044
0001e0 a3 ff c2 3d 55 f9 90 3d 3d 8b d8 3d d4 91 9a 3c
       0.09521415 0.07078806 0.105734326 0.018868364
0001f0 6b d5 aa 3b c1 21 7f 3c 4a f8 63 bb 58 8b 8d 3c
       0.0052134297 0.015572012 -0.0034785443 0.017278358

6.weight f4 [128, 128]
000000 42 58 f1 3b 31 bb 40 3d ca f9 b2 bc 38 9e 2e bc
       0.0073652575 0.04705352 -0.021847624 -0.0106578395
000010 e1 85 c6 3c 62 70 80 bd c1 41 80 3c b2 dd 79 3d
       0.02423376 -0.06271435 0.015656354 0.06100244
000020 b5 b1 7c 3d 72 5d 21 3d f0 8a 57 bd a9 7c 33 bd
       0.061692912 0.039395757 -0.052622736 -0.043820057
000030 cf e7 88 3d 41 4d ac bd 0a e3 9e 3d 44 b1 e0 bc
       0.06684839 -0.084131725 0.07758148 -0.027428277
000040 79 db 24 3d ff b1 05 bc 72 6e a2 3d e7 35 7f bd
       0.040248368 -0.008160113 0.07931222 -0.062307265
000050 f3 fa 9b 3d ff c2 9a 3d e4 a3 80 bb ce 1e a9 3d
       0.07616224 0.07556724 -0.0039257873 0.08257829
000060 1a 46 4d bd 14 06 a2 bc f6 f5 aa bb 62 c8 3d bc
       -0.050115682 -0.019778289 -0.005217309 -0.0115834195
000070 8f 8d 8c bd bb 80 f1 bb e8 8e 99 3b 82 91 b0 3d
       -0.06862938 -0.007370082 0.004686225 0.086215034
000080 d9 2d a6 bc 5a 2b 63 3d 0f 8f aa bc 65 49 1f bd
       -0.020285534 0.055461265 -0.020820169 -0.038888354
000090 8d 1c a5 3d cf 38 b5 bd cc 19 d7 3c 2f 53 a5 3c
       0.08062086 -0.08848726 0.026257418 0.020181267
0000a0 c5 84 8a 3d b0 63 32 bd 0b 4c 19 bc b2 21 8a bd
       0.06763605 -0.0435521 -0.009356509 -0.06744708
0000b0 22 ca 2a 3d 20 6a bd 3c 68 56 11 3d fe 13 1a 3d
       0.041696675 0.023121893 0.035482794 0.037616722
0000c0 ad 93 f4 bc f0 fe 77 bd ed 51 96 bc cb 13 4a 3d
       -0.029855574 -0.06054586 -0.018349612 0.049335282
0000d0 28 b1 3b 3d 81 77 80 3d 56 1b 7a 3d a0 15 b1 bd
       0.045823246 0.062727936 0.061061226 -0.08646703
0000e0 37 1d bb 3c a3 15 38 3d 7c c2 18 bd 44 20 9e bd
       0.02284108 0.04494251 -0.03729485 -0.07720998
0000f0 a3 9a a4 3c 75 d7 26 bd 89 c0 70 bd b5 20 a0 3d
       0.020093268 -0.04073282 -0.058777366 0.07818738
000100 d4 a3 20 bd 70 c7 44 bd 64 5f a6 bd 23 e1 8f 3d
       -0.03921874 -0.04804176 -0.08123663 0.07025363
000110 e1 d4 84 3d c5 8e 12 3d f9 7c a7 3c d1 97 96 bd
       0.06485916 0.035780687 0.020445334 -0.073531754
000120 46 94 84 bd 91 10 54 3d a3 2c 34 bd 3b fe 94 bd
       -0.064735934 0.05177361 -0.04398788 -0.07275053
000130 75 be eb bc 4b 4d 6a bd ff d8 1c 3d 66 91 21 bd
       -0.02877734 -0.05720262 0.03829288 -0.039445303
000140 d7 7a 90 bd 63 b4 8b bc ce 2c 71 bd 59 b5 80 bd
       -0.0705468 -0.017053789 -0.05888062 -0.06284589
000150 cc 87 05 bd 39 3a 16 bd ed 1a 4f bd 08 fc b1 3d
       -0.03260021 -0.03667662 -0.050562788 0.08690649
000160 11 fb f9 3c 3c 78 35 bd f1 a3 d7 3c 2e 85 a3 bd
       0.030515226 -0.044304118 0.02632329 -0.079843864
000170 9f 67 88 bd 94 98 9e 3a 7e 63 cd 3d 25 5d a8 3d
       -0.06660389 0.0012099915 0.10028742 0.08220891
000180 e2 58 86 bb fd ee bc bc 76 7a 00 bd 8c dd 80 bc
       -0.004099951 -0.023063177 -0.031366788 -0.015730642
000190 1a d2 f8 bc 91 58 a9 bd 98 89 48 bd 90 3d 7c bc
       -0.030373622 -0.08268846 -0.048959345 -0.015395537
0001a0 9f 7e 26 3c ec cb b3 3d 68 49 cb 3d c3 4a af 3d
       0.010162025 0.087791294 0.099261105 0.085591815
0001b0 ac 2a 8c 3d c5 24 a8 3d d1 7d 8c 3d 42 99 32 3d
       0.068440765 0.08210138 0.06859935 0.04360319
0001c0 ab 46 19 3d 8b 46 65 3d d0 5b 7a 3b 86 aa a8 bc
       0.03742091 0.05597548 0.0038201697 -0.020589124
0001d0 37 1d ff 3c 3c 01 8d bd d9 da 50 3d 05 e1 ca 3d
       0.03114186 -0.06885001 0.05098996 0.099062
0001e0 a8 3b 9c 3d ab 6c 8f bd 27 20 8f 3d e8 5a 9b 3c
       0.07628566 -0.07003149 0.069885544 0.018964246
0001f0 a4 0f 5f 3d 5f ac 16 3d 82 b1 92 3d 12 c6 9b bd
       0.054458275 0.03678548 0.07162763 -0.07606138
000200 89 b0 b2 3d 69 6f a5 bd 75 e5 58 bd e4 4e 92 3c
       0.08725078 -0.080778904 -0.052953202 0.017859884
000210 09 6e 8f bc 97 ac 7a bd 61 fb 84 3d 2c 9e bf 3c
       -0.017508524 -0.06119975 0.06493259 0.023390852
000220 f2 96 e1 bc 98 1f 15 3d c3 4e 8f bd e4 35 8a bd
       -0.027537797 0.036407083 -0.069974445 -0.0674856
000230 08 37 4c 3d 73 58 58 3d 8c 66 34 3d a9 17 d7 3c
       0.04985717 0.052818727 0.04404311 0.0262564
000240 0b d6 65 bd c6 ea 5b 3d 3e 19 df 3c b0 cf 7a 3d
       -0.05611233 0.053690694 0.027233716 0.061233222
000250 17 6c 88 bd f2 37 ae bd a1 af 3b bd d8 3d 52 bd
       -0.066612415 -0.085067645 -0.04582179 -0.05132851
000260 20 7e d4 bb 91 39 9a bc 47 ae 8a 3d 63 9c 88 bc
       -0.006484762 -0.018826278 0.06771522 -0.016676133
000270 fe 76 0a bd d9 73 13 3d 54 38 b4 3d f0 ee 25 ba
       -0.033804886 0.035999153 0.08799806 -0.0006329855
000280 2a 05 b3 3d 68 f7 49 bd 41 b7 98 3d c4 c4 03 3d
       0.08741219 -0.04930821 0.07456828 0.032170072
000290 23 d5 22 3c 7d f1 8f 3d 5b 35 86 3d f4 73 29 bd
       0.009938511 0.07028482 0.065531455 -0.041370347
0002a0 11 74 f1 bc 4c 58 af bd 7f 15 bd bc d8 a5 8a bc
       -0.02947429 -0.08561763 -0.02308154 -0.016924784
0002b0 b1 d6 24 3d 09 2a b5 3b a0 f8 24 bd fe c0 b4 3d
       0.04024381 0.0055286926 -0.04027617 0.08825873
0002c0 cc 71 34 3c f2 bc 8e bd 71 31 8a 3b 61 b0 51 3d
       0.011013459 -0.06969632 0.0042173197 0.0511936
0002d0 98 13 dd 3c 94 0c 19 bd b0 c1 ab bc 99 07 8c 3d
       0.026986882 -0.03736551 -0.02096638 0.06837387
0002e0 b6 c0 29 3d 5a 35 48 bb 05 f3 29 bd 40 61 7b 3d
       0.04144355 -0.0030549378 -0.041491527 0.06137204
0002f0 65 a0 20 bd 89 83 20 3d 25 81 83 3d 4f 55 90 bd
       -0.039215464 0.03918794 0.06421117 -0.07047521
000300 dd 82 42 bd 6f d2 79 bd b6 ea 3b bc e8 e0 19 bd
       -0.047488082 -0.0609917 -0.011469534 -0.037568003
000310 0d 68 69 bd a8 40 ab 3d aa 1b ba 3d f0 2f 91 bc
       -0.056983996 0.083619416 0.09087308 -0.017723054
000320 47 71 b5 3c b9 57 93 bb d4 8e 34 bb a8 e1 62 3d
       0.022148741 -0.0044965413 -0.0027550953 0.055390984
000330 4d 06 16 3d 01 34 91 3d 90 0e 12 bd 06 a9 9d bd
       0.036627103 0.07089997 -0.03565842 -0.07698254
000340 86 86 89 bc 0e 2d 0f 3c 40 c6 3a 3b 90 3b 7e 3d
       -0.016787779 0.008738769 0.0028499514 0.062068522
000350 42 17 0c 3d 8f 6e 19 3d c5 2a fe 3b 78 ca 04 bc
       0.034201868 0.037458953 0.0077565634 -0.008104913
000360 c5 85 45 bc 0f a5 09 3c 94 cb 9f bc bd 17 53 3c
       -0.012055819 0.008401169 -0.019506253 0.012884078
000370 1a c5 70 3d 9b 1a 3d 3d 8c a4 55 3d 06 0a 1e 3d
       0.05878172 0.04616795 0.052158877 0.038583778
000380 ee ef bf bc a9 f1 f5 bc 79 57 52 3d d0 3a 07 3c
       -0.023429837 -0.03002246 0.05135295 0.008253768
000390 58 b4 ac 3d b2 f3 59 bc eb d7 c5 3d 6c b6 92 bd
       0.08432835 -0.01330273 0.09660324 -0.071637005
0003a0 dd 9a c1 3d 0a 89 f2 bc c9 84 29 3c fa 18 b9 bc
       0.09453366 -0.029606361 0.0103466 -0.022594918
0003b0 d8 a8 39 bb 4b fc f0 3c 0d 2b c8 3d a2 3e 79 bc
       -0.0028329398 0.029417178 0.09773836 -0.015212687
0003c0 88 12 39 bc 2d ee 60 bd 4e ee 94 bc 49 e6 1c 37
       -0.011295922 -0.054914642 -0.018180039 9.351942e-06
0003d0 ad f5 b7 3d 34 96 a8 bd 17 eb 85 bd 47 2a 1f 3a
       0.08982406 -0.08231774 -0.065389805 0.00060716685
0003e0 1e 5f 00 bd eb 30 15 3d 07 7b 10 3d 75 93 81 bd
       -0.03134071 0.036423605 0.035273578 -0.06326953
0003f0 57 f6 90 3c dc aa 6c 3c b0 56 d4 3b 7d e0 96 bd
       0.017695589 0.014445033 0.0064800605 -0.073670365

6.bias f4 [128]
000000 ae b5 6c bc d3 e8 e2 3d 62 28 82 3c 21 40 57 3d
       -0.014447613 0.11079564 0.015888397 0.052551392
000010 c4 9b 8c bc 98 54 1a bb 7e d8 f5 3d 72 63 8f 3d
       -0.017164119 -0.0023548957 0.12004183 0.070013896
000020 1f 36 1e 3e a8 a9 1a 3e 1a 55 cb 3d 3f 03 b9 bd
       0.15450333 0.15103781 0.09928341 -0.09033822
000030 67 03 a9 bd 69 7c 16 3c 49 a9 fb 3c e6 d2 53 3d
       -0.08252602 0.009184935 0.03072037 0.0517148
000040 c5 a5 b2 bd f7 40 38 39 6b 90 9d bd 7a 52 5c 3d
       -0.08723024 0.00017571809 -0.07693561 0.053789593
000050 d3 b7 02 3d 04 c5 d9 3d f6 18 2f bd ba 02 84 bd
       0.03191359 0.10633281 -0.042748414 -0.064458326
000060 dc 10 39 3b 61 83 81 3d 6f ca f6 3c 14 4a 87 bd
       0.0028238809 0.06323887 0.030125825 -0.06605926
000070 9e 34 fe 3c 79 7e 7f bd 30 96 8f 3d ef 01 22 bd
       0.03103095 -0.062376473 0.07011068 -0.039552625
000080 36 75 19 3e 58 d5 f7 bc 84 ee ce 3c 6c 7b 9d bd
       0.14986119 -0.030253097 0.025260217 -0.076895565
000090 02 da 98 bd 6f dc d6 3c 6f 07 93 bc 66 6d ed 3d
       -0.07463457 0.026228158 -0.01794788 0.11593132
0000a0 f8 7e 45 bd 52 f2 5e 3e 68 df 9e 3d 2f 0f bc 3b
       -0.04821679 0.21772125 0.07757455 0.0057391147
0000b0 05 7a af bd 59 64 32 3d 88 7c 69 3d 09 19 29 bd
       -0.08568195 0.04355273 0.057003528 -0.04128364
0000c0 b8 51 de bc 96 0a b6 ba 43 b2 89 bd ba 91 a8 bd
       -0.027138576 -0.0013888653 -0.06723454 -0.0823092
0000d0 d1 60 bf 3d 2e 72 79 bd 21 91 f6 3d 83 e5 a3 3d
       0.09344638 -0.060899906 0.120394 0.0800276
0000e0 73 16 63 bd 37 45 04 bb 4b 34 05 3e 67 6f 1b 3d
       -0.05544133 -0.0020182857 0.1300823 0.03794804
0000f0 21 76 b8 3c 6b df 52 bd 20 81 16 bb 63 c2 57 3e
       0.022517266 -0.0514826 -0.0022965148 0.21070246
000100 34 c1 85 3b 6d a5 e4 bc 00 25 2b bd b6 78 90 3d
       0.0040818695 -0.027910912 -0.041783333 0.07054274
000110 fa 9a ad bd ee 16 49 bd ea 46 3e bd cc b9 3c 3d
       -0.08476825 -0.049094133 -0.046454348 0.046075627
000120 bd 19 0c bc 65 95 93 bd fe 07 10 bd 73 67 f3 3d
       -0.008551058 -0.07206229 -0.035163872 0.11884966
000130 bf 2c 8d bc 9e 9b ed bd 88 19 0d bd 2d e3 2f bd
       -0.01723325 -0.11601947 -0.034448177 -0.04294126
000140 87 a0 13 bd 66 63 bc bc 1f d1 34 bd 7a 11 d7 bc
       -0.036041763 -0.022996616 -0.044144746 -0.02625345
000150 79 e7 b9 bc 2a 62 f8 bc bf 48 34 3c 9f e2 2d 3d
       -0.022693383 -0.030320246 0.011003672 0.04245245
000160 63 51 4e 3b c4 ec f0 3c 20 91 24 bc 25 c0 b7 3d
       0.0031481616 0.029409774 -0.010044366 0.089721955
000170 5b 5f 15 bd a1 73 98 bd 83 31 9a 3c a6 66 89 bd
       -0.03646789 -0.074439295 0.018822437 -0.06709032
000180 02 40 e0 bc 4e ec 55 bb 1c 00 85 3c fa f3 cf 3d
       -0.027374271 -0.003264207 0.016235404 0.10153957
000190 6d 4c 19 bd 62 ed 49 3e fb de b1 bb 45 53 55 3e
       -0.0374264 0.1971946 -0.0054281927 0.20832546
0001a0 36 ec 70 bd 2c 49 cd bd 71 99 24 bd b0 ec 0a bd
       -0.05881902 -0.10023722 -0.040185396 -0.03391713
0001b0 47 8a aa 3c dd f7 33 bd 87 08 79 3d 57 9a 7a bd
       0.020817889 -0.043937553 0.060799148 -0.061182346
0001c0 e3 fc 8c bd d7 d8 12 3d 8e 97 b2 bd 4c a1 08 3d
       -0.06884172 0.035851326 -0.08720313 0.03335695
0001d0 49 c7 18 3d 29 c6 8e bd 81 fb 2c 3d 58 a0 4d bd
       0.037299428 -0.0697139 0.04223204 -0.050201744
0001e0 95 7e 73 bd ea 46 fd bc ce 7f 63 3e 9c 17 d3 b9
       -0.05944689 -0.030917604 0.22216722 -0.00040262647
0001f0 e6 19 14 3d bd 7a 10 3e e2 14 cb 3d b3 fb 53 3c
       0.03615751 0.14109321 0.099160925 0.012938428

8.weight f4 [49, 128]
000000 72 19 8e 3d 1d 84 95 bd 1f 08 c8 bc cb 13 2e 3d
       0.06938447 -0.07300589 -0.024417935 0.042499345
000010 7c ab f6 bd ee cf 99 3d cd 2d 22 be cc 83 b4 3d
       -0.12044427 0.075103626 -0.15837784 0.08814201
000020 26 b5 d9 bd b2 71 17 be b7 8d 9f bd 55 ca f8 3b
       -0.106302544 -0.14789465 -0.07790702 0.007592479
000030 d6 f1 58 bb 71 a8 3c bb e3 7d e7 3c ab 53 10 3c
       -0.003310313 -0.0028786922 0.02825827 0.0088090105
000040 a3 cd 08 3d 13 ff 82 3d 60 be 5e 3c d4 9a 74 3d
       0.033399235 0.06396308 0.013595194 0.059717968
000050 63 54 91 3d dd 61 49 bd 47 04 a6 bd 09 7f a8 3d
       0.070961736 -0.049165595 -0.081062846 0.08227355
000060 d6 25 c3 bc 24 2a 33 3d f5 ba 8f 3d fd 06 92 bc
       -0.023821753 0.04374136 0.07018081 -0.017825598
000070 35 a9 6e bd 0a 27 13 3c 0f 1a ae 3d 97 56 83 3d
       -0.058266837 0.008981476 0.08501064 0.06413
000080 26 07 b5 bd 27 98 a4 3d 59 6d c8 3b 81 be 8c 3d
       -0.08839254 0.08036833 0.006116551 0.06872273
000090 ae dd a0 bd 2c 58 23 bc 7d 85 17 3d 23 57 25 be
       -0.07854782 -0.009969752 0.03699254 -0.16146521
0000a0 b9 e3 ea ba be 7f 40 be e6 1d ae bc dd 09 c7 bc
       -0.001792065 -0.1879873 -0.021254491 -0.024296695
0000b0 e6 d9 34 3d 6f 85 80 3d ea 5d af 3a a8 99 40 bc
       0.044153117 0.062754504 0.0013379429 -0.0117553845
0000c0 a2 a7 a1 3b 3f fd ea 3c 92 e9 d2 bc a3 02 10 bd
       0.0049333135 0.02868521 -0.02574614 -0.035158765
0000d0 e5 54 09 bd ef 7f 6b 3d 65 9b 70 bc ed b2 99 bd
       -0.033528227 0.057495054 -0.014685486 -0.075048305
0000e0 f8 c4 87 3d 31 e3 85 3d 1a 7c 9b bc 39 1e 87 bd
       0.06629366 0.06537474 -0.018980075 -0.065975614
0000f0 19 ac 89 bc 1e 79 a1 bd e7 16 1e bd ca 17 15 be
       -0.016805695 -0.078844294 -0.03859606 -0.14559856
000100 58 56 93 bd 3e 09 ad 3d 10 8d 87 3b ad bb e6 3a
       -0.07194203 0.084490284 0.004136689 0.0017603539
000110 86 f1 fc bc 9e 89 61 3d 97 dd de 3d ff ca a7 3d
       -0.030876886 0.055062883 0.10882109 0.08193015
000120 28 40 d7 bb d8 cb dd 3c e6 e0 ab 3d 4c c2 cd bd
       -0.0065689273 0.02707474 0.08392505 -0.10046825
000130 92 f4 62 bd 0a db 2a 3b a0 dc 9f bc 5d 94 04 3d
       -0.05540902 0.00260705 -0.019514382 0.032368053
000140 56 71 0b bd f4 d8 b7 3d 6c d3 2d bd 18 42 a4 bd
       -0.034043632 0.089769274 -0.042437956 -0.08020419
000150 a4 19 0b bd ed 7c 92 3d c0 ae 36 3d aa a9 5a bd
       -0.03396 0.07152734 0.04460025 -0.05338446
000160 c9 7e 3a 3d 24 3d 4d 3d 38 54 41 3c c1 29 47 bd
       0.045531068 0.050107136 0.0117998645 -0.048623804
000170 b8 c6 30 bd 84 71 fa ba 70 c5 eb bd 99 42 12 3d
       -0.043158263 -0.0019107317 -0.115122676 0.035708044
000180 2f d0 a7 3d 4a d8 14 3d 83 b4 14 3d d0 c4 ce bd
       0.08194005 0.03633908 0.036304962 -0.10096133
000190 46 f1 c6 bc 75 59 e9 bd 6c 26 35 bd 0e 5b 5d be
       -0.02428497 -0.11394016 -0.044226095 -0.21616766
0001a0 fc 63 c4 3d 75 9a 1c 3e ed 44 49 bd b2 8d 43 3d
       0.09589383 0.15293296 -0.049138 0.047742553
0001b0 1e cb 94 3a f1 59 55 bd 84 0b e6 3c c3 98 4e 3d
       0.0011352038 -0.052087728 0.028081663 0.050438654
0001c0 a4 22 da bc 2f 18 1c 3d 90 2e f2 3c c8 33 92 3d
       -0.026627846 0.038109 0.029563218 0.07138783
0001d0 98 f4 98 bc 24 dc e8 3c a4 55 db bd 08 5f a7 3d
       -0.018671319 0.028425284 -0.10709694 0.08172423
0001e0 e2 5e 5f bd 97 6b 6b bd 9b 07 36 be 5c 4d 98 3b
       -0.054533847 -0.057475653 -0.17776339 0.004647894
0001f0 39 49 0b bd 17 28 f4 bd 5c 08 2e bd 8e 72 90 3d
       -0.034005377 -0.11921709 -0.04248844 0.070530996
000200 75 5a 1e 3d 91 78 b7 bd d6 1d d3 3c 23 06 e1 39
       0.038660485 -0.08958543 0.025771063 0.00042919916
000210 39 15 52 3c 00 fa cf 3c 08 e0 53 3a f4 90 8f 3d
       0.012822443 0.025387764 0.00080823945 0.070100695
000220 b5 db c2 bd db 2e 2e bb 32 3a f2 bd 6a 6d 37 bd
       -0.09514562 -0.002657822 -0.11827506 -0.04478208
000230 c1 ec 49 3d 70 1e 6f 3c 67 75 95 3d 9a 75 81 3c
       0.04929805 0.014594659 0.07297783 0.015803147
000240 b3 56 b2 3d 33 c5 1f 3d ca 92 2a 3d bb 4a b4 bc
       0.08707943 0.039006423 0.041643895 -0.02200829
000250 21 59 25 3d 99 1e 0c be d1 81 88 b9 ee 20 d7 3d
       0.040368203 -0.13683547 -0.00026036662 0.10504328
000260 ff 5b a2 3c b9 cd 10 3d 34 a3 04 3d 1a ae 83 bd
       0.019819258 0.035352442 0.032382205 -0.064296916
000270 d4 bc 4d 3c ec bb 5f 3b 1d 4d 39 bd b4 00 bf bc
       0.012557227 0.003413911 -0.045239557 -0.023315765
000280 26 ab bb bd 28 e7 32 bc de ee de 3d 38 b2 05 3d
       -0.09163503 -0.01091937 0.10885404 0.032640666
000290 9c d2 19 3d 47 cd 23 bd 3d 2b 42 3c e7 29 8a bd
       0.03755437 -0.03999069 0.011851129 -0.067462735
0002a0 0f ca dd 3c 44 ba 4e be 13 2d e7 bd 36 ff 89 3d
       0.027073888 -0.20188242 -0.11287894 0.06738131
0002b0 fe 1d 3b 3d f8 a9 44 bd b1 7e a5 3d 1d d3 86 3d
       0.0456829 -0.048013657 0.08080805 0.065832354
0002c0 f6 7a 0b bd c5 71 ca 3c 9a 30 82 bc e1 ea ee 3a
       -0.03405281 0.024712453 -0.015892316 0.0018227958
0002d0 6f e9 eb bd 57 ed 73 bd 39 3e 5a bc 73 12 2d bd
       -0.11519133 -0.059552517 -0.013320499 -0.042253923
0002e0 a3 26 86 bd d8 90 3b 3c c3 b8 1b be b6 d3 fe bd
       -0.06550338 0.011448108 -0.152072 -0.124427244
0002f0 89 57 65 3d 6b 1c 03 3b 5f 10 3b bd df 48 a1 bd
       0.055991683 0.0020005952 -0.04566991 -0.07875227
000300 3d c6 0d bd 0e 22 8d bd a1 af 81 3d fa 1e 1c 3c
       -0.034612883 -0.06891261 0.06332327 0.00952887
000310 6a 56 52 bd 72 31 36 3d c0 58 41 ba 7d 03 c0 3d
       -0.051351942 0.04448075 -0.00073755905 0.09375665
000320 74 97 84 bd f1 62 c8 bc 3a 3f cd 3c b3 a1 36 bd
       -0.064742 -0.024461241 0.025054563 -0.044587802
000330 2b f9 a7 3d c6 10 b5 bd 9f b5 8a bd b7 c6 31 b9
       0.08201822 -0.0884109 -0.06772923 -0.00016954062
000340 a9 71 18 3d 4d 75 91 bd 4e 68 83 b8 a1 c2 5a bc
       0.03721777 -0.071024515 -6.265995e-05 -0.013352067
000350 e7 0a 9a 3d ec 9e af 3c fd d2 83 3d 8c 26 cf bd
       0.07521611 0.021438085 0.06436727 -0.10114774
000360 bc 66 b0 3d 06 a2 86 3d 5d 8a 2a bd 27 98 c2 bd
       0.08613345 0.06573872 -0.04163586 -0.09501677
000370 3d ae 69 bd 84 58 62 bd dc 64 ee bd 2d f5 00 3d
       -0.057050932 -0.055260196 -0.11640331 0.031483818
000380 83 fa 1a bd 2f 95 d4 3c 9f 2b d2 bc bd 31 2a bd
       -0.037836563 0.025950043 -0.025655566 -0.04155134
000390 c3 be ba 3c cb 29 46 be 2a 75 0f 3d c6 e6 22 be
       0.02279604 -0.1935188 0.035023846 -0.15908346
0003a0 8d 34 be 3d f5 ec 86 3d 80 95 5d 3d e9 d2 ae bd
       0.09287367 0.06588165 0.054097652 -0.08536322
0003b0 c4 31 a6 3d fe ae 32 3d 63 02 95 bd e8 43 9d 3d
       0.08114961 0.043623917 -0.07275846 0.07678968
0003c0 8a 57 6d bc c3 76 74 bc fa 98 d9 bc 33 fa 76 3b
       -0.014486203 -0.014920893 -0.026562203 0.0037685751
0003d0 03 35 d4 bd 5c 7e ac bc 2b 70 b9 bc c3 10 76 bd
       -0.10361674 -0.021056347 -0.022636494 -0.06007458
0003e0 26 e7 1b bc e6 85 5a 3d c1 0f 08 be b7 0a 9d 3b
       -0.009515559 0.05335035 -0.1328726 0.004792537
0003f0 51 02 8b 3c 27 31 16 be c6 5a 6a bd d1 ab 46 3c
       0.016968878 -0.14667188 -0.057215475 0.012125925
