models/snapsRandom/model_1685712585.279511.pt (torch, 252679 bytes, 10 tensors)

0.weight f4 [128, 49]
0	0xbd3c66f4	-0.04599662
1	0x3e0d6401	0.1380768
2	0x3de7f506	0.113260314
3	0xbe1e1e6e	-0.15441296
4	0x3dd16be4	0.10225657
5	0xbc4b8c8a	-0.012423644
6	0xbd82304e	-0.0635687
7	0x3df8a260	0.121403456
8	0xbbe2bbe4	-0.006919371
9	0xbdba0a2f	-0.090839736
10	0x3dd4e5d2	0.10395397
11	0x3e68e932	0.22745207
12	0xbd8a21f9	-0.06744761
13	0x3db377c8	0.08763081
14	0x3c340b3b	0.010989006
15	0xbd211240	-0.039324045
16	0x3d79dc02	0.06100083
17	0xbd0e0a1a	-0.034677602
18	0xbd71f308	-0.059069663
19	0x3c5e2e13	0.01356079
20	0xbd5ea1fb	-0.054353695
21	0xbd306037	-0.043060508
22	0x3e7eb316	0.24873003
23	0xbd866221	-0.06561685
24	0xbd271b2f	-0.04079741
25	0xbdf0be87	-0.1175509
26	0xbdc731d2	-0.09726299
27	0x3ca28f80	0.019843817
28	0x3db47323	0.08811023
29	0xbdf04a3b	-0.11732908
30	0x3dad6345	0.084662
31	0xbb9dfc79	-0.004821357
32	0x3cd2ec46	0.02574743
33	0x3b03d4b9	0.0020115806
34	0xbde5d36f	-0.112219684
35	0x3e49459e	0.19655463
36	0xbd319ba1	-0.04336131
37	0x3d03c1ed	0.032167364
38	0xbe873d8a	-0.26414138
39	0xbd5f9f97	-0.054595556
40	0xbdb2b688	-0.08726221
41	0x3daca953	0.084307335
42	0x3d627f2b	0.055297058
43	0xbd5ae8a6	-0.053444527
44	0xbdbf068d	-0.09327421
45	0x3e29288c	0.16519374
46	0x3df3197e	0.118700966
47	0xbe07b83a	-0.1325387
48	0xbd4335d7	-0.047658768
49	0xbb954b30	-0.004556082
50	0xbd682680	-0.05667734
51	0xbde38e03	-0.11111071
52	0x3d1184e7	0.035527136
53	0x3e069c08	0.13145459
54	0xbc182ffa	-0.009288782
55	0xbd7086a1	-0.058722142
56	0x3d386faf	0.045028385
57	0x3d704c02	0.058666237
58	0xbce07467	-0.027399255
59	0x3e24498a	0.16043678
60	0x3e2be952	0.16788223
61	0x3ddf0024	0.10888699
62	0xbcf4633d	-0.029832477
63	0xbe4466c2	-0.19179824
64	0xbd6a896c	-0.057259962
65	0x3ddceb5f	0.10787081
66	0x3cc9c946	0.024632107
67	0xbd9a435e	-0.075323805
68	0x3e7a94d3	0.24470834
69	0x3e329aa2	0.174418
70	0x3c47f781	0.012205006
71	0x3db5d509	0.08878524
72	0x3e10b293	0.1413062
73	0xbe68211b	-0.22668879
74	0xbdabbf35	-0.08386079
75	0xbb1c587f	-0.0023856459
76	0x3c027662	0.007962795
77	0x3cb5b991	0.022183212
78	0x3db10f71	0.08645523
79	0x3e4e72b6	0.20160946
80	0xbcc66996	-0.02422027
81	0xbdf896a3	-0.12138107
82	0xbe3739bd	-0.17893119
83	0x3d702af3	0.05863471
84	0xbde15128	-0.110018075
85	0x3cd59207	0.026070608
86	0x3d5dbbcb	0.05413417
87	0xbdd02fc3	-0.1016536
88	0x3d8f63fd	0.07001493
89	0x3d84a2b2	0.06476344
90	0xbdc20257	-0.094731025
91	0xbacbba0c	-0.0015543117
92	0x3cdb4630	0.026766866
93	0xbe365373	-0.17805271
94	0xbd2e2385	-0.042514343
95	0x3d9d6749	0.07685716
96	0x3c454973	0.012041437
97	0xbdbf2804	-0.09333804
98	0x3cd06175	0.025437096
99	0xbe43271c	-0.19057888
100	0x3d8a2b3b	0.06746527
101	0xbe1766ed	-0.14785357
102	0xbca7f119	-0.020500707
103	0xbe26edee	-0.163017
104	0x3dca9bf1	0.09893025
105	0x3d85eda3	0.06539466
106	0x3e0366e2	0.12832215
107	0xbc102cfb	-0.008799787
108	0xbd6a15e1	-0.05714977
109	0x3e5a968b	0.2134649
110	0xbe59ede9	-0.21282162
111	0x3dfb1672	0.122601405
112	0xbe0ff38f	-0.14057754
113	0x3d04df6c	0.032439634
114	0x3deb65aa	0.11494
115	0xbde095ba	-0.10966058
116	0xbd98f51d	-0.07468627
117	0xbca14e4f	-0.01969066
118	0xbd932675	-0.071850695
119	0x3db4910f	0.0881673
120	0xbdd7a07d	-0.105286576
121	0xbc286fc1	-0.01028055
122	0xbdd833a6	-0.10556726
123	0xbcdfdedd	-0.02732795
124	0xbdbe4d7f	-0.09292125
125	0x3d35fce8	0.044430643
126	0xbe0c949c	-0.13728565
127	0x3da87d3d	0.08227012
128	0x3d3fcea0	0.046827912
129	0xbce84c40	-0.028356671
130	0x3d7f3c43	0.06231333
131	0xbe01d098	-0.12677228
132	0x3c14a432	0.00907235
133	0xbd87c3b7	-0.066291265
134	0x3b311792	0.0027022106
135	0xbdb29fc5	-0.0872188
136	0xbcd68289	-0.02618529
137	0xbde275ef	-0.1105765
138	0xbda3db98	-0.080008686
139	0x3e212341	0.15736105
140	0xbcece55f	-0.028917966
141	0xbc9dcb61	-0.019262018
142	0xbe0dac70	-0.13835311
143	0x3de12f76	0.109953806
144	0x3cffc73b	0.03122293
145	0xbdc48d77	-0.09597295
146	0x3d960dcc	0.0732685
147	0x3d5673ed	0.05235665
148	0x3d93d801	0.07218934
149	0xbd4e5637	-0.05037519
150	0xbd644c97	-0.055737104
151	0x3e0a066f	0.13479017
152	0x3de5eee1	0.11227203
153	0x3d35d9a5	0.044397015
154	0x3ddb3d9c	0.107051104
155	0x3d8d5e30	0.069027305
156	0x3dee0860	0.11622691
157	0xbbee9a3d	-0.00728157
158	0xbde8968d	-0.1135684
159	0xbdc09076	-0.09402554
160	0xbd8326f2	-0.064039126
161	0x3dde8ba9	0.10866482
162	0x3da9fa7c	0.08299729
163	0x3c8ea7d7	0.017414017
164	0x3e0154ae	0.12629959
165	0x3dcc7def	0.099849574
166	0xbeb967b8	-0.36211944
167	0x3dc0d6e7	0.09415989
168	0x3db67661	0.08909298
169	0xbd16c9f6	-0.0368137
170	0x3d0ead63	0.034833323
171	0x3dbcdc22	0.092216745
172	0xbd4a03e2	-0.04932011
173	0xbe63f561	-0.22261573
174	0x3d07db7e	0.03316831
175	0xbda70cd6	-0.08156745
176	0xbe1279e2	-0.14304307
177	0x3c64ea97	0.013971946
178	0x3dcec933	0.100969695
179	0xbce07102	-0.027397636
180	0x3d254d13	0.040356707
181	0x3eaddfe3	0.33959875
182	0x3db5d372	0.088782206
183	0x3e2f8d78	0.1714381
184	0xbcf1b24c	-0.029503964
185	0x3d13a1db	0.03604303
186	0xbc5067af	-0.012720033
187	0x3deaebf5	0.114707865
188	0xbc5e0cdb	-0.01355287
189	0xbe117a3a	-0.14206782
190	0x3dce6434	0.10077706
191	0xbe113f60	-0.14184332
192	0x3da170fa	0.07882877
193	0xbbdc5891	-0.006724425
194	0x3d05ab2e	0.032633953
195	0x3dd65fa3	0.1046746
196	0x3a28b9dc	0.00064363866
197	0xbdb0d4a9	-0.08634312
198	0x3c5a77e5	0.013334249
199	0xbe05e758	-0.13076532
200	0xbd84c3dc	-0.0648267
201	0x3e639b5d	0.22227235
202	0x3e002f7a	0.12518111
203	0x3cc80ea9	0.024421053
204	0xbd5c22b6	-0.05374404
205	0xbba94cac	-0.0051666107
206	0x3e0e009f	0.13867424
207	0xbd0948e6	-0.033516787
208	0xbe02ce1e	-0.1277394
209	0xbdd08b27	-0.10182791
210	0xbdd210c0	-0.10257101
211	0xbd74be12	-0.059751578
212	0x3ddc6cab	0.10762914
213	0xbd6e0d93	-0.058118414
214	0x3d085b2c	0.033290073
215	0xbc2cebc3	-0.010554257
216	0x3c7a3a20	0.015272647
217	0xbd811c68	-0.06304246
218	0x3cca4f45	0.024696002
219	0x3be3c13e	0.0069505265
220	0xbe341d39	-0.17589273
221	0x3d188639	0.03723738
222	0xbe273712	-0.16329601
223	0xbe5deb19	-0.21671714
224	0x3c87ba01	0.016568186
225	0x3cf9e2d5	0.03050367
226	0x3da2cec1	0.079495914
227	0x3dce2c30	0.10067022
228	0x3d9315a2	0.071818605
229	0xbc80250c	-0.015642665
230	0xbd99373e	-0.0748124
231	0xbd245a9e	-0.04012548
232	0x3cdccf60	0.026954353
233	0x3de15d0d	0.11004076
234	0xbbb1dd6d	-0.0054280073
235	0xbda22791	-0.07917703
236	0xbe294dab	-0.16533534
237	0x3c02d293	0.007984775
238	0xbd27c749	-0.040961538
239	0xbd0f0921	-0.034920815
240	0x3d68a7ed	0.05680077
241	0x3c933a5d	0.017972166
242	0x3d049286	0.0323663
243	0x3e3d3592	0.18477467
244	0xbdb13354	-0.08652368
245	0xbd2d1094	-0.04225214
246	0x3dcfdef3	0.10149946
247	0x3da9fd58	0.083002746
248	0xbc0540bc	-0.00813311
249	0x3daa05d7	0.08301895
250	0xbdbce968	-0.09224206
251	0x3dee36a3	0.11631515
252	0xbdf35ef1	-0.11883343
253	0x3c435766	0.011922693
254	0xbdbd7fba	-0.092528775
255	0x3d48740a	0.04893879

0.bias f4 [128]
0	0x3c538e13	0.012912291
1	0x3e489bce	0.19590685
2	0x3cb25986	0.021771204
3	0xbd03c8c9	-0.032173906
4	0xbdf9dc7b	-0.122002564
5	0x3e09ad1a	0.1344494
6	0xbdc5b026	-0.09652738
7	0x3ea152e1	0.31508544
8	0x3e1569a5	0.14591081
9	0xbe2e9c5e	-0.17051837
10	0x3e524c7d	0.2053699
11	0x3e576a43	0.2103663
12	0x3d4e143d	0.05031227
13	0xbe09fce7	-0.13475381
14	0x3d9adbfb	0.07561489
15	0x3da440b0	0.08020151
16	0xbe0c331a	-0.13691369
17	0xbe89d1e0	-0.26917934
18	0xbd93c155	-0.072146095
19	0x3de28188	0.110598624
20	0x3e2262fe	0.15858075
21	0xbe678b96	-0.22611842
22	0xbe4dc68a	-0.20095268
23	0xbe506af9	-0.20353307
24	0xbdada5f7	-0.08478921
25	0xbcafefc1	-0.021476628
26	0x3dd2d05c	0.10293648
27	0x3eb4be38	0.35301375
28	0xbe1761b9	-0.14783372
29	0x3e89e9d7	0.26936218
30	0x3e0796ad	0.13241072
31	0xbe833e96	-0.25633687
32	0xbdd17e65	-0.10229186
33	0xbec51470	-0.38492155
34	0xbdae31fd	-0.08505628
35	0xbda36084	-0.07977393
36	0x3e12daf9	0.14341344
37	0xbe2cabd7	-0.16862427
38	0x3d54c5cb	0.051946443
39	0xbde5d66a	-0.11222537
40	0xbd830dcd	-0.06399117
41	0xbe1467f5	-0.14492781
42	0x3d036901	0.03208256
43	0xbe25197d	-0.16123004
44	0xbe368c4f	-0.17826961
45	0xbe02796e	-0.12741634
46	0x3e2243f7	0.15846239
47	0xbcf1b1b9	-0.02950369
48	0xbe8d81a5	-0.27637973
49	0x3e3df553	0.18550615
50	0xbd23ddcf	-0.040006455
51	0xbe0437a9	-0.12911858
52	0xbe28dcf4	-0.16490537
53	0x3df8da01	0.12150956
54	0xbc3bb1c3	-0.011455956
55	0xbd25df35	-0.04049607
56	0x3e92da4c	0.28682172
57	0x3d406655	0.04697259
58	0x3d3cf234	0.04612942
59	0xbe22fd86	-0.15917024
60	0x3d36ad88	0.044599086
61	0xbddb8e50	-0.10720503
62	0xbe4d4f46	-0.20049772
63	0xbda72abc	-0.08162448
64	0xbe11e28f	-0.14246581
65	0x3d214395	0.039371092
66	0xbe0add43	-0.13560967
67	0xbe58a99c	-0.21158451
68	0xbdc442bf	-0.09583043
69	0xbe4ef17f	-0.20209311
70	0x3e5f68be	0.218173
71	0x3ad1165f	0.0015952102
72	0x3d9c786f	0.076401584
73	0xbe288af9	-0.16459264
74	0xbd3602a1	-0.0444361
75	0xbe05e282	-0.13074687
76	0xbd81643a	-0.06317945
77	0xbe227a2e	-0.1586692
78	0xbd0692ef	-0.03285497
79	0x3cd50889	0.026005046
80	0xbcde458d	-0.027132774
81	0x3cb55430	0.02213487
82	0xbd957463	-0.0729759
83	0x3c036605	0.008019929
84	0xbe3723c9	-0.17884745
85	0xbdcdf46c	-0.100563854
86	0x3e5b527e	0.21418187
87	0x3e53e436	0.20692524
88	0xbe21901b	-0.15777628
89	0xbd781f9d	-0.060577024
90	0x3d8e688c	0.069535345
91	0xbdcc4ba5	-0.099753655
92	0xbe18eb27	-0.14933454
93	0xbe8a2ac1	-0.26985744
94	0x3e5a4ea0	0.21319056
95	0xbe7cdc16	-0.24693331
96	0xbd4b3f9b	-0.049621206
97	0xbdd2471a	-0.10267468
98	0x3ec5d7bd	0.38641158
99	0xbc72a7a1	-0.014810474
100	0x3e486d53	0.19572954
101	0xbe517813	-0.20455961
102	0xbe1e1537	-0.1543778
103	0xbde57fad	-0.11205993
104	0xbe9a44cd	-0.30130616
105	0xbe209053	-0.15680055
106	0x3e4a98b2	0.19784811
107	0xbdc58b7e	-0.09645747
108	0xbe1f27c1	-0.15542509
109	0xbe8831c7	-0.26600477
110	0xbd9c9e4c	-0.0764738
111	0xbe9b873b	-0.3037661
112	0xbdcdcbba	-0.100486234
113	0xbe879378	-0.26479697
114	0x3d994753	0.07484307
115	0xbe161378	-0.14655864
116	0xbbc4db80	-0.0060076118
117	0xbc30665d	-0.010766593
118	0xbe30d17c	-0.17267412
119	0xbe24ad6e	-0.16081783
120	0x3db23382	0.087012306
121	0xbe71975b	-0.23592894
122	0x3dbafd23	0.09130313
123	0xbe37a588	-0.17934239
124	0xbc4254da	-0.0118610505
125	0xbc2e7192	-0.010647194
126	0x3bbd641a	0.0057797553
127	0x3d93ab67	0.07210427

2.weight f4 [128, 128]
0	0x3d246930	0.040139377
1	0xbc7f6180	-0.015587211
2	0xbd002ff5	-0.031295735
3	0xbd775124	-0.060380116
4	0x3d8790c2	0.06619407
5	0xbc81a9b4	-0.015827991
6	0xbd3f509a	-0.046707727
7	0x3b80a58e	0.0039259857
8	0xbad6e681	-0.00163956
9	0xbcfb35ec	-0.03066536
10	0x3bdb1f53	0.0066870837
11	0x3d547755	0.051871616
12	0xbb16151f	-0.0022900773
13	0xbd3aab0d	-0.045573283
14	0x3d86bd59	0.06579084
15	0xbd72c81f	-0.05927288
16	0xbd7ebd17	-0.06219205
17	0xbd1aa40a	-0.037754096
18	0xbdb463db	-0.088081084
19	0x3cbd57cb	0.023113152
20	0x3d9b5a5c	0.07585594
21	0xbd9ed7c9	-0.077560015
22	0x3d36759e	0.044545762
23	0x3bb85e88	0.0056265034
24	0xbc3b690d	-0.01143862
25	0xbd7c0a9e	-0.061533563
26	0xbd296513	-0.041356158
27	0xbd343033	-0.04399128
28	0x3cd08a07	0.025456442
29	0x3cd0d0cc	0.025490187
30	0xbda2998a	-0.079394415
31	0xbc953d87	-0.018217815
32	0xbc4bf695	-0.012448926
33	0xbbb7d2f3	-0.005609864
34	0xbd7c858d	-0.0616508
35	0x3d27661f	0.040868875
36	0x3bb0d354	0.005396286
37	0xbd4baeaf	-0.049727138
38	0xbd6880a9	-0.056763325
39	0xbc460890	-0.012087002
40	0x3c98ffae	0.018676605
41	0xbd868a06	-0.06569295
42	0x3b6a868d	0.0035785765
43	0xbd149a56	-0.03628
44	0xbc074133	-0.008255291
45	0x3c3ee92b	0.011652271
46	0x3ca71a0f	0.020398168
47	0x3bd58d29	0.0065170717
48	0xbd51b93b	-0.05120204
49	0xbda3a24f	-0.07989942
50	0x3d0ec385	0.03485443
51	0x3d997f06	0.07494931
52	0xbd53d324	-0.05171503
53	0xbd4ff4ed	-0.05077069
54	0x3c17d7b1	0.009267733
55	0xbc8555e3	-0.016276306
56	0x3dac7538	0.08420795
57	0x3d96946e	0.073525295
58	0x3c4a4aa7	0.0123469
59	0x3db43fd2	0.08801235
60	0x3da40a32	0.08009757
61	0xbc00b880	-0.007856488
62	0x3d81f2c9	0.06345136
63	0xbdb774d7	-0.08957832
64	0xbcd9392c	-0.02651652
65	0x3d6e8560	0.058232665
66	0xbd6b43da	-0.057437755
67	0xbbd44ff5	-0.006479258
68	0xbd95fb16	-0.073232815
69	0x3db13f17	0.086546116
70	0x3d50aa8c	0.050943896
71	0xbd4fb953	-0.05071385
72	0x3da50569	0.080576725
73	0xbd4cef7b	-0.050033074
74	0x3d8484e5	0.0647066
75	0xbbedab9f	-0.007253125
76	0xbc809a46	-0.015698563
77	0x3d829e63	0.06377866
78	0xbdaa2d1b	-0.083093844
79	0xbd3576c0	-0.044302702
80	0x3b6cf297	0.0036155337
81	0xbdab8434	-0.08374825
82	0x3c86beb3	0.016448354
83	0xbd992b7d	-0.07478998
84	0xbd80bdf8	-0.06286234
85	0x3d0390be	0.03212046
86	0xbca153ac	-0.019693218
87	0x3da17eef	0.07885539
88	0xbd9d4c8d	-0.076806165
89	0x3d95a4a6	0.07306795
90	0x3d51fde6	0.051267527
91	0xbc34c537	-0.011033348
92	0x3d418040	0.04724145
93	0xbd9d7a53	-0.07689347
94	0xbda778de	-0.081773505
95	0xbd6dc0cc	-0.058045194
96	0xbd968c21	-0.07350946
97	0xbd9c0e26	-0.07619886
98	0x3cef510b	0.029213449
99	0x3dac1ba3	0.08403709
100	0xbb4f5306	-0.003163518
101	0xbd18b238	-0.037279338
102	0xbd6a8065	-0.057251353
103	0xbcb82731	-0.022479625
104	0x3d5bc3da	0.053653575
105	0xbd3d9ee8	-0.046294123
106	0xbd43988e	-0.04775291
107	0xbda2f2ab	-0.079564415
108	0x3cbc12ba	0.022958148
109	0x3d8f294f	0.06990301
110	0x3d336118	0.043793768
111	0x3d9f4271	0.077763446
112	0x3d68b41c	0.05681239
113	0xbb148795	-0.002266382
114	0xbd8a3aaf	-0.06749474
115	0x3da67ef3	0.081296824
116	0xbd63ab0a	-0.055583037
117	0x3db3d079	0.087799974
118	0xbd594871	-0.0530476
119	0x3b757268	0.0037452225
120	0x3c6da8da	0.014505589
121	0x3d6164cf	0.05502778
122	0x3a73b722	0.0009297003
123	0xbd9dca55	-0.077046074
124	0xb90b0949	-0.00013259532
125	0x3da5a38e	0.08087836
126	0x3c2c8664	0.010530088
127	0x3d3bd4ba	0.04585717
128	0xbcf15b5d	-0.02946251
129	0xbd65802c	-0.056030437
130	0x3d5fa737	0.054602828
131	0x3d45e078	0.048309773
132	0xbc9e4534	-0.019320108
133	0xbcc0dac2	-0.023541812
134	0xbd132a21	-0.03592885
135	0x3c95181b	0.018199971
136	0x3d8f264e	0.06989728
137	0xbdaa566a	-0.083172634
138	0x3b63fa8f	0.0034786796
139	0x3c357b83	0.011076811
140	0xbba6e5c6	-0.005093309
141	0x3d5f8501	0.0545702
142	0x3d04575a	0.032309867
143	0x3d8e8cda	0.06960459
144	0xbd34b6dd	-0.044119705
145	0xbc43251c	-0.011910703
146	0xbc48d8ed	-0.01225875
147	0xbd44795f	-0.04796731
148	0xbd108f07	-0.03529265
149	0xbceba9c4	-0.028767474
150	0xbcc3b8c9	-0.023891823
151	0xbd28dc2d	-0.0412256
152	0x3c5994d2	0.01328011
153	0xbda8e436	-0.08246653
154	0x3d9eee9e	0.07760356
155	0xbd0830eb	-0.033249777
156	0x3d822b4f	0.06355917
157	0x3b9593fa	0.0045647593
158	0xbd969dc7	-0.073543124
159	0xbdb3ac7d	-0.08773134
160	0xbc6f7258	-0.014614664
161	0x3d4f1227	0.05055442
162	0x3c3abcc1	0.0113975415
163	0x3d6f0fb6	0.058364592
164	0xbd5e6be2	-0.054302104
165	0xbda77677	-0.08176892
166	0xbdac7409	-0.084205694
167	0x3cc44cf7	0.023962481
168	0x3d34f706	0.044180892
169	0xbd17a8a5	-0.037026066
170	0x3cb1c729	0.021701412
171	0xbd9494d1	-0.07254947
172	0xbc5ba076	-0.013404956
173	0x3d935e8f	0.0719577
174	0xbcdedc46	-0.027204644
175	0x3d95a0ba	0.07306047
176	0xbd60a85f	-0.05484807
177	0xbd545ce1	-0.05184639
178	0x3d9de07b	0.07708832
179	0x3d916c53	0.07100739
180	0x3c9ccc52	0.019140396
181	0xbca1f300	-0.019769192
182	0x3d1341ef	0.03595155
183	0x3ce3a9e2	0.027790967
184	0xbd215065	-0.03938331
185	0xbd89d5f6	-0.06730263
186	0xbc0eba97	-0.008711479
187	0xbd255acc	-0.040369794
188	0xbd04c0d2	-0.03241045
189	0x3c8dac34	0.017294027
190	0x3d98b9b9	0.07457299
191	0x3d8e8a6c	0.069599956
192	0x3d86c69a	0.06580849
193	0x3d10aff9	0.03532407
194	0x3cea4ba3	0.02860052
195	0xbc9a49d5	-0.018834034
196	0x3c0f53d6	0.008748015
197	0xbbd18bf8	-0.0063948594
198	0xbd90eabc	-0.07076022
199	0x3db28e09	0.08718497
200	0x3d704909	0.0586634
201	0x3c28acbf	0.010295092
202	0x3d37f462	0.044910796
203	0x3d2a7db6	0.041623794
204	0x3d891b80	0.06694698
205	0x3d50dfbc	0.05099462
206	0xbc825a1a	-0.015912104
207	0xbcb0ec19	-0.021596955
208	0xbd580467	-0.052738573
209	0x3bde9ad2	0.0067933584
210	0x3d928c2a	0.071556404
211	0xbda9dfb6	-0.082946226
212	0x3cae8209	0.02130224
213	0xbd44bea0	-0.048033357
214	0x3d93dc24	0.07219723
215	0xbd9f2648	-0.077709734
216	0x3c46bee4	0.012130473
217	0x3d550678	0.052008122
218	0xbcd683bd	-0.026185865
219	0x3c2199d5	0.009863337
220	0x3cf6d564	0.03013105
221	0xbaabebfb	-0.0013116592
222	0xbceef037	-0.029167278
223	0x3dab6e1f	0.08370613
224	0xbda8a5a0	-0.082347155
225	0xbd66c1a8	-0.05633703
226	0xbd018977	-0.031625237
227	0x3bb934b8	0.0056520365
228	0xbc831bd1	-0.016004475
229	0x3c74798f	0.01492156
230	0xbc7272d4	-0.014797885
231	0xbd43372e	-0.047660045
232	0x3c3325c9	0.010934302
233	0x3d817eb7	0.06322997
234	0x3d295934	0.041344836
235	0x3cb80e9f	0.02246791
236	0xbd6d1d50	-0.057889283
237	0x3d597c02	0.05309678
238	0xbc60d8b2	-0.013723539
239	0x3d6ce407	0.05783465
240	0xbd0e0faa	-0.034682907
241	0xbd8c0841	-0.06837512
242	0x3d830cb7	0.063989095
243	0xbc8012bc	-0.015633933
244	0xbcf0e5d8	-0.029406473
245	0x3d2ad481	0.041706566
246	0x3a8c28fe	0.0010693369
247	0xbd0212f7	-0.031756368
248	0xbc39e03e	-0.011344967
249	0xbaa77372	-0.0012775494
250	0x3c3b91b1	0.01144831
251	0x3d8269e5	0.06367854
252	0xbd14ccdc	-0.03632818
253	0xbce2963c	-0.027659528
254	0xbb220e13	-0.0024727627
255	0x3b8c793e	0.004286914

2.bias f4 [128]
0	0x3d54bdd6	0.051938854
1	0xbd424434	-0.047428325
2	0xbd54df42	-0.051970728
3	0xbd01eec0	-0.03172183
4	0x3d6f8ff3	0.05848689
5	0xbdcfc3cf	-0.101447694
6	0xbd5ace6a	-0.053419508
7	0x3d91a7d1	0.071120866
8	0xbc37045b	-0.011170472
9	0xbdb0efa6	-0.08639459
10	0x3cb18e05	0.021674166
11	0xbdcdf26e	-0.100560054
12	0xbd92c9a1	-0.07167364
13	0x3c20bd18	0.009810708
14	0xbcfdd0f7	-0.030983431
15	0x3e0703f8	0.13185108
16	0x3daabaf9	0.083364435
17	0x3dd855eb	0.105632626
18	0xbd81cf82	-0.06338407
19	0xbca2c30b	-0.019868394
20	0x3d413247	0.04716709
21	0xbdde9ef6	-0.10870163
22	0xbcbdcbdf	-0.023168502
23	0xbbae07ec	-0.005311003
24	0xbd80ea70	-0.062947154
25	0xbcace336	-0.021104436
26	0xbe2c02b6	-0.16797909
27	0x3c15b0dd	0.009136406
28	0xbd03ed29	-0.032208595
29	0x3cc52c3b	0.024068942
30	0x3d88db0a	0.066824034
31	0xbd83fc7a	-0.064446405
32	0x3dd98007	0.106201224
33	0x3daef41f	0.08542656
34	0xbd6e42f7	-0.05816933
35	0xbd5ffb4b	-0.05468301
36	0x3c2c04e0	0.010499209
37	0xbc607f84	-0.013702277
38	0xbe6f9533	-0.23396759
39	0xbe0f5e9b	-0.14000933
40	0xbca6a174	-0.020340659
41	0xbd7a5452	-0.06111557
42	0xbd2bcb3a	-0.04194186
43	0xbdd40046	-0.10351615
44	0x3d16b324	0.036791936
45	0x3df76b77	0.12081044
46	0x3e07bd3d	0.13255782
47	0xbc88b0ee	-0.01668593
48	0xbde48371	-0.11157883
49	0x3d8048c2	0.062638775
50	0x3dbeb801	0.0931244
51	0x3d44da0e	0.048059516
52	0x3aa02a3a	0.0012219616
53	0xbd272fae	-0.040816955
54	0xbc0b31a2	-0.00849572
55	0x3c7cf66e	0.015439613
56	0x3d78b187	0.06071618
57	0xbcce5a6b	-0.025189599
58	0x3cb0cd7b	0.021582356
59	0xbc8ed7c0	-0.017436862
60	0xbce17db1	-0.027525755
61	0x3cc1f3f6	0.0236759
62	0x3d493c80	0.049129963
63	0x3d7829da	0.060586788
64	0xbd6a4431	-0.05719394
65	0x3dbaa453	0.091133736
66	0xbd27f24e	-0.041002564
67	0x3d39b179	0.045335267
68	0x3c48e32f	0.012261196
69	0xbe507cf6	-0.20360169
70	0xbd17b529	-0.037038002
71	0x3db28746	0.087172076
72	0xbd1f9e5c	-0.038969383
73	0x3ddbd986	0.10734849
74	0x3b511818	0.003190523
75	0x3d8148c0	0.06312704
76	0xbcaa09da	-0.02075665
77	0xbe52e6c9	-0.2059585
78	0x3d5bd30e	0.053668074
79	0xbd948a58	-0.072529495
80	0xbd631fbf	-0.055450197
81	0x3d59655e	0.053075187
82	0xbcd042e0	-0.025422513
83	0xbbe59f0f	-0.0070074867
84	0xbe14ff5c	-0.14550537
85	0x3dc7d75e	0.09757875
86	0x3d946bea	0.072471455
87	0xbcb10acc	-0.021611594
88	0x3e14ff64	0.14550549
89	0xbde9d86f	-0.114182346
90	0xbd990672	-0.074719325
91	0x3cc6c442	0.024263505
92	0xbb8d84f1	-0.0043188264
93	0x3c57e482	0.013177039
94	0xbd7b95a7	-0.061422016
95	0x3dba1d31	0.09087599
96	0x3d3d94f1	0.04628462
97	0x3d83a739	0.064283796
98	0xbd307104	-0.04307653
99	0x3dcc7e7f	0.09985065
100	0x3d3f610f	0.04672342
101	0x3d947ce6	0.07250385
102	0xbd5b90da	-0.053604938
103	0xbd64edfa	-0.055891015
104	0x3d69ae01	0.05705071
105	0x3dec7128	0.1154502
106	0xbdb99745	-0.090620555
107	0xbb667e0d	-0.0035170347
108	0x3d0d4c02	0.034496315
109	0xbdb326d8	-0.08747643
110	0xbdb14a0f	-0.08656704
111	0x3c6d9e78	0.014503114
112	0xbd254e44	-0.040357843
113	0xbdb5b456	-0.08872287
114	0xbd8b12d6	-0.06790702
115	0x3d5f2cd8	0.054486126
116	0xbd9accbd	-0.07558582
117	0x3da5c675	0.08094493
118	0x3d39e7b8	0.045387
119	0xbc7fbcc2	-0.015608968
120	0x3c4f81a2	0.012665184
121	0x3dd934b1	0.10605753
122	0x3dd5521d	0.104160525
123	0xbd2e7ebc	-0.042601332
124	0x3d52fcd4	0.051510647
125	0x3d817e30	0.063228965
126	0xbcc833ad	-0.024438703
127	0xbcc588f0	-0.024113148

4.weight f4 [128, 128]
0	0x3d44268c	0.047888324
1	0x3cc85734	0.024455644
2	0xbd188aa9	-0.03724161
3	0x3d4f11aa	0.050553955
4	0x3aa7ba1f	0.0012796557
5	0xbd4aedf0	-0.04954332
6	0x3bdc290a	0.0067187594
7	0xbc143d07	-0.009047753
8	0x3cd53597	0.02602653
9	0x3c5f4928	0.013628282
10	0x3d8adbd5	0.06780211
11	0x3bde03bd	0.006775348
12	0x3c014f82	0.007892491
13	0xbbe2f748	-0.006926451
14	0xbd7ccaf1	-0.061716978
15	0x3d31c41b	0.04339991
16	0x3d97bd0c	0.07409105
17	0xbd1c836a	-0.038211264
18	0xbd6cf67d	-0.057852257
19	0xbd0c0ce0	-0.034191966
20	0xbb5aa0c7	-0.003335999
21	0x3d93801e	0.07202171
22	0xbc84512f	-0.016151993
23	0x3da628fa	0.081132844
24	0x3d924e87	0.07143884
25	0xbd901ceb	-0.07036766
26	0xbdb2a75a	-0.08723326
27	0xbc148a18	-0.009066127
28	0xbc3b8aa0	-0.011446625
29	0x3c3c77dc	0.011503186
30	0xbc0e01b2	-0.008667396
31	0xbd1f8dfa	-0.03895376
32	0x3c7a1f73	0.015266287
33	0xbd33a6b8	-0.043860167
34	0x3d4381af	0.047731098
35	0x3d80e2e3	0.06293275
36	0xbd94916f	-0.07254302
37	0xbd8899fe	-0.06669997
38	0x3d897aca	0.06712873
39	0xbca1fef5	-0.019774893
40	0x3d12eb95	0.0358692
41	0xbdad8871	-0.0847329
42	0xbd58d3ab	-0.052936237
43	0xbd8de969	-0.06929285
44	0xbcfc784c	-0.03081908
45	0xbd88eab7	-0.06685393
46	0xbd0263ea	-0.031833567
47	0x3bcb263a	0.0061996253
48	0xbd0b9089	-0.034073386
49	0x3d32ecad	0.043682743
50	0xbd0b9b7b	-0.034083825
51	0xbd8b2855	-0.06794802
52	0xbcbcd2f3	-0.023049807
53	0x3d43965e	0.047750823
54	0xbc8e30cd	-0.017357254
55	0xbd3c3644	-0.04595019
56	0xbd066cc6	-0.03281858
57	0x3d8fd4fd	0.07023046
58	0xbd930ef7	-0.07180589
59	0xbd4827a0	-0.048865914
60	0xbd98d581	-0.07462598
61	0x3d9944d7	0.07483833
62	0xbd44aad8	-0.04801449
63	0x3da1a953	0.07893624
64	0xbca36400	-0.019945145
65	0xbd67f35a	-0.056628563
66	0xbd31b23a	-0.04338286
67	0xbd8d0f72	-0.068877116
68	0x3c5bc810	0.013414398
69	0xbd090bd8	-0.03345856
70	0x3da14766	0.07874946
71	0x3c02c1cc	0.007980775
72	0x3c827017	0.01592259
73	0xbd26e71b	-0.040747743
74	0xbcdfa098	-0.027298257
75	0xbd44ac01	-0.0480156
76	0x3cd3bf9f	0.025848208
77	0x3d2e598d	0.04256587
78	0xbd6717ea	-0.05641929
79	0x3d202e92	0.039106913
80	0xbdadafc3	-0.084807895
81	0x3d546114	0.051850393
82	0x3d3d4bce	0.04621487
83	0xbccb829d	-0.024842555
84	0x3c8e3280	0.017358065
85	0xbd797eff	-0.06091213
86	0xbc8a0ad0	-0.016850859
87	0x3cbf1e59	0.0233299
88	0x3d30b5d0	0.04314214
89	0xbd9203b0	-0.071296096
90	0xbd96bf78	-0.073607385
91	0x3d8da53d	0.06916282
92	0x3cfdc429	0.030977326
93	0x3d9c9f5b	0.07647582
94	0xbda0c23b	-0.078495465
95	0xbd287692	-0.041128702
96	0xbd194595	-0.037419874
97	0xbc819c38	-0.015821561
98	0x3c069b3d	0.008215723
99	0xbc95a018	-0.018264815
100	0x3d40c02d	0.047058273
101	0xbd5a5da2	-0.05331195
102	0x3d99e719	0.075147815
103	0xbd3191f2	-0.043352075
104	0x3d47098a	0.04859308
105	0x3d94a4a2	0.07257964
106	0xbda0197e	-0.07817362
107	0x3cc8c594	0.024508275
108	0x3ca70b40	0.020391107
109	0x3da52f3c	0.0806565
110	0x3d49ae99	0.049238775
111	0xbdb1e9a5	-0.08687142
112	0xbd0279c9	-0.031854425
113	0xbd8deacb	-0.06929549
114	0xbd3f4cb4	-0.04670401
115	0xbcd90deb	-0.026495894
116	0x3d098b0c	0.03357987
117	0xbdaeff5a	-0.08544798
118	0x3bb02567	0.0053755525
119	0xbda3f327	-0.08005362
120	0xbc8b4ee7	-0.017005397
121	0xbdab3ce3	-0.083612226
122	0xbd7727aa	-0.06034056
123	0xbd1e3e24	-0.03863348
124	0x3d10bb47	0.03533485
125	0xbd49b4cc	-0.049244687
126	0xbd5643f5	-0.052310903
127	0x3d1ec168	0.038758665
128	0xbd3576a1	-0.044302586
129	0x3d04daa9	0.032435093
130	0x3db3a038	0.08770794
131	0x3d9a32bc	0.07529208
132	0xbcc3c7fb	-0.023899069
133	0x3d35dde6	0.044401072
134	0xbcc687cc	-0.024234675
135	0x3d7c3d43	0.06158186
136	0xbb49e234	-0.0030804994
137	0x3b819ec2	0.003955693
138	0xbdafcfa0	-0.08584523
139	0x3d9426b3	0.07233944
140	0x3d746a49	0.059671674
141	0xbc53c5b4	-0.012925554
142	0xbd3d46fc	-0.046210274
143	0xbd00ccb5	-0.031445224
144	0xbd9c43e4	-0.076301366
145	0xbd69896a	-0.057015814
146	0x3d2afcc5	0.041744966
147	0xbd6b1f8f	-0.057403143
148	0x3d0a94f0	0.033833444
149	0xbd3fb4d2	-0.046803303
150	0xbd2c644b	-0.042087834
151	0xbdabca83	-0.083882354
152	0x3bd1479c	0.0063867103
153	0xbd00cf81	-0.03144789
154	0xbd265d47	-0.0406163
155	0xba3c7329	-0.0007188791
156	0xbd43ee3b	-0.047834616
157	0x3c603be9	0.013686159
158	0x3d734a54	0.059397057
159	0xbd1c4195	-0.03814848
160	0x3cc35d34	0.023848154
161	0xbcffb113	-0.031212365
162	0x3c8d2ddf	0.017233787
163	0xbd93ed46	-0.07222991
164	0xbd5ac8f8	-0.053414315
165	0xbd1fe20c	-0.039033934
166	0xbbc5d36e	-0.0060371673
167	0xbc8b7a36	-0.017026048
168	0xbcd5d0e4	-0.026100583
169	0x3d4c5081	0.049881462
170	0xbd827a83	-0.063710235
171	0x3db36582	0.087595955
172	0x3c937be5	0.018003413
173	0xbaba90a6	-0.0014233782
174	0x3d8a7ade	0.06761716
175	0x3d812fb0	0.06307924
176	0xbca52838	-0.02016078
177	0x3cad56b1	0.021159502
178	0xbd1a239c	-0.037631616
179	0x3d493e73	0.04913182
180	0x3d67fa86	0.056635402
181	0x3c9eddad	0.019392813
182	0x3bb856d2	0.005625584
183	0xbd063cf7	-0.032772984
184	0xbd0a71f6	-0.033800088
185	0x3d837d9e	0.06420444
186	0x3cb5b8f2	0.022182915
187	0x3d0f2aa9	0.034952793
188	0xbc178598	-0.00924816
189	0xbc2d1416	-0.010563871
190	0x3d7a0e8a	0.06104902
191	0xbd8d4b7a	-0.06899162
192	0x3c66d0a3	0.014087829
193	0xbca295e9	-0.019846873
194	0xbceabc5e	-0.028654274
195	0xbda552c2	-0.080724254
196	0x3d6d8791	0.057990614
197	0xbd92c632	-0.07166709
198	0xbce18758	-0.027530357
199	0x3c3b16cf	0.011419012
200	0x3d38b669	0.045095835
201	0xbdbcb981	-0.092150696
202	0x3d2e8482	0.042606838
203	0xbd196995	-0.037454206
204	0x3cf326e6	0.029681634
205	0xbda7d327	-0.08194571
206	0xbd9f20dc	-0.07769939
207	0x3da3cc00	0.07997894
208	0x3ce9316c	0.028465949
209	0x3c4b05c6	0.012391513
210	0x3d2ddd62	0.042447455
211	0x3d95bb03	0.0731106
212	0x3d618553	0.05505879
213	0x3cac7b76	0.021054965
214	0xbd94125a	-0.07230063
215	0x3dad38fe	0.08458136
216	0xbc9309cc	-0.017949007
217	0xbc55849c	-0.013032105
218	0x3c97df5d	0.018539125
219	0x3d89eb3a	0.06734319
220	0xbc79dfa4	-0.015251074
221	0xbd25a34f	-0.040438946
222	0x3d4a2642	0.04935289
223	0x3d75a186	0.059968494
224	0x3cceae98	0.025229737
225	0x3bf8f24f	0.007597245
226	0x3b170ead	0.002304952
227	0x3c8d5be5	0.017255733
228	0xbd975b21	-0.07390428
229	0xbd36e8c6	-0.044655584
230	0x3d11638a	0.03549532
231	0x3cbbad56	0.022909801
232	0x3d0b0474	0.033939794
233	0x3b887df8	0.0041654073
234	0xbd5746fa	-0.052557923
235	0xbd286be9	-0.041118536
236	0xbc9f28e6	-0.019428682
237	0xbd7ae971	-0.061257783
238	0x3da1fc5b	0.07909461
239	0xbd56ba1c	-0.05242358
240	0x3c397827	0.01132015
241	0x3db4c1a1	0.08825994
242	0xbd95b831	-0.07310522
243	0xbdab0f83	-0.08352568
244	0x3d15ef45	0.03660514
245	0x3d494aa3	0.049143445
246	0xbd222c80	-0.03959322
247	0x3d1f5711	0.038901392
248	0x3d815bbd	0.06316326
249	0xbd234956	-0.03986486
250	0x3d8df6c9	0.06931836
251	0x3bccd72a	0.0062512355
252	0xbc8ac0e4	-0.01693768
253	0x3d043c12	0.03228385
254	0x3d38b186	0.045091175
255	0x3da229b7	0.07918113

4.bias f4 [128]
0	0xbd09e5f3	-0.033666562
1	0x3cde372c	0.027125917
2	0x3d8a0d80	0.06740856
3	0xbdb2baee	-0.0872706
4	0xbd7b5418	-0.061359495
5	0xbd214570	-0.03937286
6	0xbccd4760	-0.025058448
7	0xbce23345	-0.027612338
8	0x3d9911f8	0.074741304
9	0x3dae3b43	0.08507397
10	0xbd9331fb	-0.071872674
11	0x3d35fd3a	0.04443095
12	0xbd481c72	-0.048855253
13	0xbcacf601	-0.021113398
14	0x3dd7b340	0.10532236
15	0x3d80f0d1	0.06295932
16	0xbdee6000	-0.11639404
17	0x3d99bc5c	0.0750663
18	0x3d94ff38	0.072752416
19	0xbd0872ff	-0.033312794
20	0xbd0e729a	-0.03477726
21	0x3d153a8b	0.036432784
22	0x3cc0c4d1	0.02353135
23	0xbd849e51	-0.06475509
24	0x3dd83e0a	0.10558708
25	0xbd851348	-0.06497818
26	0xbce92e91	-0.028464587
27	0xbda6fb94	-0.081534535
28	0xbd27f85e	-0.041008346
29	0x3c2c81e6	0.010529017
30	0xbd93d64a	-0.07218607
31	0x3d6c1071	0.057632867
32	0xbc1882ff	-0.009308576
33	0xbc227953	-0.009916621
34	0xbd5c31b0	-0.053758323
35	0xbcf2b905	-0.02962924
36	0xbbb015d8	-0.0053736977
37	0x3cf82ec8	0.030295745
38	0xbc990c5b	-0.01868265
39	0xbc54351c	-0.012952115
40	0x3c2be7cb	0.0104922755
41	0xbd0a90a6	-0.033829354
42	0x3de9029c	0.11377451
43	0x3dd38c0c	0.10329446
44	0x3d5984a3	0.053105008
45	0x3d94eb7d	0.07271478
46	0x3cef39f4	0.029202439
47	0xbd54a411	-0.05191428
48	0xbc859017	-0.016304059
49	0x3d5748d0	0.052559674
50	0x3d9850cd	0.074372865
51	0xbd3f8e89	-0.04676679
52	0x3cd044d0	0.025423437
53	0xba041b31	-0.0005039452
54	0xbd3eac91	-0.04655129
55	0xbd19cbe3	-0.037547957
56	0x3c220354	0.009888489
57	0xbda44f79	-0.08022971
58	0x3c1c43f2	0.009537684
59	0x3db341d9	0.08752794
60	0x3cdd1589	0.026987808
61	0xbd6884b2	-0.056767173
62	0x3ddf514a	0.109041765
63	0x3d1c18fb	0.03810976
64	0xbdb9c518	-0.09070796
65	0xbd8b22db	-0.067937575
66	0x3cd482e9	0.02594133
67	0xbbbe55f4	-0.0058085863
68	0x3dfa1fbb	0.12213083
69	0x3d43cac4	0.047800794
70	0x3d774293	0.060366224
71	0xbce7dda0	-0.028303921
72	0x3d568ee5	0.05238237
73	0x3dbd7e8d	0.09252653
74	0x3dffb41d	0.12485526
75	0x3d9ecfa1	0.07754446
76	0xbcdbcc10	-0.026830703
77	0xbdb54900	-0.08851814
78	0x3d8426dd	0.06452725
79	0xbd288a70	-0.04114765
80	0x3cc7be12	0.024382625
81	0x3d86b027	0.06576567
82	0xbd58689a	-0.05283413
83	0xbd151923	-0.036400925
84	0x3dd4b108	0.103853285
85	0x3d115f16	0.03549107
86	0x3d8e57ad	0.069503166
87	0xbc124731	-0.008928106
88	0xbd9c84e6	-0.07642536
89	0xbc513515	-0.012769003
90	0x3daefc34	0.08544198
91	0x3cac3569	0.021021562
92	0xbda681eb	-0.08130249
93	0xbcc32cea	-0.023825128
94	0x3d56e82e	0.052467518
95	0x3d71a0de	0.058991306
96	0x3dbe9d9c	0.09307405
97	0x3d962c32	0.07332648
98	0xbd550ae7	-0.05201235
99	0x3b576102	0.0032864218
100	0xbb5a6e00	-0.0033329725
101	0xbcef4849	-0.029209273
102	0xbb54cb63	-0.003246986
103	0xbcb9f98e	-0.022702005
104	0x3da955c8	0.082683146
105	0xbb3e9d15	-0.0029085327
106	0xbcc54563	-0.024080938
107	0x3bcdb1af	0.006277285
108	0x3dd4743a	0.10373731
109	0x3bc170d8	0.0059033446
110	0xbd072e01	-0.033002857
111	0x3cd5a932	0.026081655
112	0xbd6627e4	-0.056190386
113	0x3c7491d4	0.014927346
114	0x3e1d0289	0.15332998
115	0xbd876eeb	-0.06612953
116	0xbd9b36a0	-0.07578778
117	0xbd58e5c5	-0.0529535
118	0xbd4a7542	-0.049428232
119	0x3b940d6e	0.0045182025
120	0x3d90046c	0.070320934
121	0x3dbe5d3a	0.09295125
122	0x3db72430	0.08942449
123	0x3c782a8f	0.0151468655
124	0x3c11718f	0.008877172
125	0xbce0d3e9	-0.027444797
126	0x3d682499	0.056675527
127	0x3d04bfca	0.032409467

6.weight f4 [128, 128]
0	0x3bf1570a	0.007365112
1	0x3d3fa0dc	0.046784267
2	0xbcc1a746	-0.023639333
3	0xbc2e9e38	-0.0106578395
4	0x3cd6f0b7	0.026237829
5	0xbd807062	-0.06271435
6	0x3c8041c5	0.015656361
7	0x3d8229a7	0.06355601
8	0x3d86ebf8	0.06587976
9	0x3d20f4a2	0.0392958
10	0xbd4fc0bd	-0.05072092
11	0xbd34fb1a	-0.04418478
12	0x3d8942dc	0.067022055
13	0xbdac6460	-0.084175825
14	0x3da3735b	0.07980987
15	0xbcdca2ec	-0.026933156
16	0x3d38b31a	0.04509268
17	0xbb9ac8a7	-0.0047236267
18	0x3d9dca15	0.0770456
19	0xbd8219be	-0.06352566
20	0x3d9bfaeb	0.07616218
21	0x3d999a91	0.07500184
22	0xbb521613	-0.0032056614
23	0x3da5e1ed	0.080997325
24	0xbd55a1cc	-0.052156255
25	0xbc99e638	-0.018786535
26	0xbb9da8f2	-0.0048113996
27	0xbc3dc8a9	-0.011583486
28	0xbd87e130	-0.06634748
29	0xbbc6c449	-0.0060658795
30	0x3bbbb661	0.0057285284
31	0x3db4363e	0.087994084
32	0xbca8c135	-0.02059994
33	0x3d632b9e	0.05546152
34	0xbcb2a36f	-0.021806447
35	0xbd1fbbd0	-0.03899747
36	0x3d9faa1c	0.07796118
37	0xbdb56c53	-0.08858552
38	0x3cdee178	0.027207121
39	0x3caabee7	0.020842982
40	0x3d8a9e48	0.06768471
41	0xbd3263b0	-0.0435521
42	0xbc31b61e	-0.010846643
43	0xbd8c91d8	-0.06863755
44	0x3d2ada79	0.041712258
45	0x3cae601d	0.021286065
46	0x3d14434b	0.036196988
47	0x3d1a1485	0.037617225
48	0xbcd9d991	-0.026593002
49	0xbd72b4d5	-0.059254486
50	0xbc91790c	-0.017757915
51	0x3d4a13cb	0.049335282
52	0x3d3c27f2	0.045936532
53	0x3d80775a	0.062727645
54	0x3d756af7	0.059916463
55	0xbdb115a0	-0.08646703
56	0x3cb850ae	0.022499409
57	0x3d372776	0.044715367
58	0xbd0ec2bd	-0.034853686
59	0xbda4e3ff	-0.08051299
60	0x3cbc572f	0.022990791
61	0xbd25b919	-0.040459726
62	0xbd746525	-0.05966677
63	0x3da34c94	0.079735905
64	0xbd20a3d7	-0.03921875
65	0xbd45233c	-0.048129305
66	0xbda82d5c	-0.082117766
67	0x3d932115	0.07184044
68	0x3d808f31	0.062773116
69	0x3d1674d6	0.036732517
70	0x3cb0a2f7	0.021562083
71	0xbd92359f	-0.07139134
72	0xbd8875dc	-0.06663105
73	0x3d54487f	0.05182695
74	0xbd3967ae	-0.045264892
75	0xbd96f936	-0.07371752
76	0xbced09f7	-0.028935416
77	0xbd641a44	-0.05568911
78	0x3d117f42	0.035521753
79	0xbd246a65	-0.04014053
80	0xbd924677	-0.07142346
81	0xbc809258	-0.015694782
82	0xbd712cce	-0.05888062
83	0xbd7df8f7	-0.06200501
84	0xbd0c0f06	-0.034194015
85	0xbd162b42	-0.036662348
86	0xbd4b96fb	-0.049704533
87	0x3db1fc08	0.08690649
88	0x3cf98ea5	0.030463526
89	0xbd357e47	-0.04430988
90	0x3cc9d124	0.024635859
91	0xbda5669d	-0.080762126
92	0xbd887afa	-0.06664081
93	0x3b28bd11	0.0025747458
94	0x3dc91947	0.098192744
95	0x3da84ac1	0.08217383
96	0xbbbe205d	-0.005802198
97	0xbcbc46f0	-0.022983044
98	0xbd007a76	-0.031366788
99	0xbc89d17b	-0.01682352
100	0xbcdd2bc1	-0.026998403
101	0xbdaa9a5e	-0.083302245
102	0xbd4e9a9e	-0.050440423
103	0xbc7c3d90	-0.015395537
104	0x3c6364ae	0.013878984
105	0x3db69842	0.089157596
106	0x3dce441c	0.100715846
107	0x3dae076d	0.0849751
108	0x3d8f68ec	0.07002434
109	0x3dacc52a	0.084360436
110	0x3d8f95c8	0.070109904
111	0x3d26c94f	0.040719327
112	0x3d0ff06e	0.0351414
113	0x3d65dbcd	0.05611782
114	0x39c2332f	0.00037040698
115	0xbca7a8c4	-0.020466216
116	0x3d01c05f	0.0316776
117	0xbd8d032a	-0.06885369
118	0x3d514392	0.05108983
119	0x3dcbfa04	0.09959796
120	0x3d9d5a74	0.07683268
121	0xbd9294f8	-0.0715732
122	0x3d8d44c3	0.06897881
123	0x3ca08745	0.019595752
124	0x3d5b3efc	0.053526863
125	0x3d0f37b2	0.034965225
126	0x3d934fff	0.071929924
127	0xbd9dfa96	-0.07713811
128	0x3db2b089	0.08725078
129	0xbda26953	-0.07930245
130	0xbd474d10	-0.048657477
131	0x3c924ee4	0.017859884
132	0xbc8c13a7	-0.017099215
133	0xbd7aac97	-0.06119975
134	0x3d84fb61	0.06493259
135	0x3c9b6a38	0.018971547
136	0xbccf3d33	-0.025297737
137	0x3d156f17	0.036482897
138	0xbd9209cd	-0.071307756
139	0xbd8ee3cd	-0.06977043
140	0x3d4f82e1	0.050661925
141	0x3d591b65	0.05300464
142	0x3d3f8bc7	0.04676416
143	0x3ccd8036	0.02508555
144	0xbd70b4f9	-0.05876634
145	0x3d65ed38	0.056134433
146	0x3cfc0149	0.030762332
147	0x3d758755	0.059943516
148	0xbd886c17	-0.066612415
149	0xbdbc7641	-0.09202243
150	0xbd3503a9	-0.044192944
151	0xbd5ca939	-0.05387232
152	0x38b2dead	8.529178e-05
153	0xbcafefa4	-0.021476574
154	0x3d908d35	0.07058183
155	0xbc889bcb	-0.01667585
156	0xbd14894d	-0.036263753
157	0x3d0e635d	0.03476273
158	0x3db65d8a	0.0890456
159	0x3ac7aee9	0.0015234622
160	0x3db5de58	0.08880299
161	0xbd49f419	-0.049305055
162	0x3d9e9336	0.07742922
163	0x3d003a7a	0.031305768
164	0x3c15f840	0.009153426
165	0x3d8c2d6d	0.06844602
166	0x3d85d67b	0.065350495
167	0xbd2a4152	-0.0415662
168	0xbcf24e80	-0.029578447
169	0xbdaf584c	-0.08561763
170	0xbcb728ba	-0.022358287
171	0xbc4d5222	-0.012531789
172	0x3d24d2dd	0.040240157
173	0x3ba0773f	0.0048970277
174	0xbd3c4257	-0.045961704
175	0x3db521c1	0.08844329
176	0x3bc68a34	0.0060589556
177	0xbd88aa21	-0.066730745
178	0x3bf3366f	0.0074222605
179	0x3d51b061	0.0511936
180	0x3cbcce00	0.023047447
181	0xbd190e61	-0.03736723
182	0xbcb1dfab	-0.021713099
183	0x3d8c0799	0.06837387
184	0x3d1d97dd	0.038474906
185	0xbb4d4bad	-0.0031325624
186	0xbd27baf8	-0.04094979
187	0x3d7bbfb5	0.061462123
188	0xbd2ba6d9	-0.041907165
189	0x3d1ff746	0.039054178
190	0x3d8a9eeb	0.067685924
191	0xbd93be33	-0.07214012
192	0xbd4282da	-0.04748807
193	0xbd7c44be	-0.061588995
194	0xbc1ac396	-0.009446045
195	0xbd1ae047	-0.037811544
196	0xbd6b43e2	-0.057437785
197	0x3db0fbd0	0.086417794
198	0x3dbc16d7	0.09184044
199	0xbca4fc44	-0.02013982
200	0x3cb634dc	0.022242002
201	0x3a66dbcb	0.00088065554
202	0x3b80a381	0.003925741
203	0x3d7a870d	0.06116395
204	0x3d16d834	0.03682728
205	0x3d83d68d	0.06437407
206	0xbd207404	-0.03917314
207	0xbdaa733e	-0.08322762
208	0xbc68dae2	-0.014212342
209	0x3c4f985c	0.012670603
210	0x3b3ac640	0.0028499514
211	0x3d7e1304	0.062029853
212	0x3d159759	0.03652129
213	0x3d19a5aa	0.037511505
214	0x3c3711de	0.011173693
215	0xbc04ca3e	-0.008104859
216	0xbc4b08a2	-0.012392195
217	0x3c097230	0.008389041
218	0xbc779909	-0.01511217
219	0x3c52e25e	0.012871353
220	0x3d710086	0.05883839
221	0x3d3f8f77	0.046767678
222	0x3d54a347	0.051913526
223	0x3d23343e	0.039844744
224	0xbc9dab34	-0.019246675
225	0xbcee7201	-0.029107096
226	0x3d525779	0.05135295
227	0x3bdf8646	0.0068214266
228	0x3dab4e0c	0.08364496
229	0xbc3f21f5	-0.011665811
230	0x3dca9e8b	0.09893521
231	0xbd92b66c	-0.071637005
232	0x3dc9a8d3	0.09846654
233	0xbcf4cd83	-0.029883152
234	0x3bb24915	0.005440841
235	0xbcdd3e2c	-0.027007185
236	0xbafbccfc	-0.001921087
237	0x3ce9f827	0.028560711
238	0x3dcd3ba0	0.10021138
239	0xbc99c706	-0.01877166
240	0xbc192856	-0.009347996
241	0xbd5e2aaa	-0.054239906
242	0xbc75e111	-0.015007273
243	0xb735f843	-1.0846244e-05
244	0x3dafd7a8	0.08586055
245	0xbda897ee	-0.08232103
246	0xbd85cd70	-0.06533325
247	0x3b3950e2	0.002827697
248	0xbcff18a5	-0.031139681
249	0x3d2411a4	0.040055886
250	0x3d260073	0.040527772
251	0xbd80d296	-0.06290166
252	0x3caca576	0.021074992
253	0x3c7c92d3	0.015415865
254	0x3c2fc0a8	0.010727085
255	0xbd9c41da	-0.07629748

6.bias f4 [128]
0	0xbc689c77	-0.01419746
1	0x3e070f35	0.13189395
2	0x3d9647b5	0.07337896
3	0x3d14deb1	0.036345188
4	0xbd2286fd	-0.039679516
5	0xbc4deb4c	-0.012568306
6	0x3e0d16ba	0.13778201
7	0x3d87a873	0.06623926
8	0x3e14fe68	0.14550173
9	0x3e2c9f64	0.16857678
10	0x3d0767b9	0.033057902
11	0xbdee7c43	-0.11644795
12	0xbdac91fa	-0.0842628
13	0x3d0a6dff	0.033796307
14	0x3c8a0ec8	0.016852751
15	0x3d698c4f	0.057018574
16	0xbdb656e8	-0.08903295
17	0xbc9ada81	-0.018903019
18	0xbd9d906b	-0.07693561
19	0x3cf847d6	0.030307692
20	0x3d822fd2	0.06356777
21	0x3e0f9c7c	0.14024538
22	0xbd2ce416	-0.042209707
23	0xbd65e993	-0.056130957
24	0x3cd5028e	0.026002195
25	0x3d794a15	0.060861666
26	0x3cf6ca6f	0.030125825
27	0xbd999464	-0.074990064
28	0x3cfe349e	0.03103095
29	0xbd7e6871	-0.06211132
30	0x3d8f709e	0.07003902
31	0xbd2201ef	-0.039552625
32	0x3e1fc474	0.15602285
33	0xbcb33a95	-0.02187852
34	0x3cb28b33	0.021794891
35	0xbd95302a	-0.07284577
36	0xbd64a12c	-0.055817768
37	0x3d6d6b4a	0.057963647
38	0xbbd89839	-0.006609943
39	0x3e12a620	0.14321184
40	0xbd11a4f7	-0.035557713
41	0x3e5d73d7	0.2162622
42	0x3da6defd	0.081480004
43	0x3bb45b4f	0.005504049
44	0xbdaf7a05	-0.08568195
45	0x3db0dcdc	0.086358756
46	0x3db8f281	0.09030629
47	0xbd7f405d	-0.06231724
48	0xbce54a9d	-0.02798968
49	0x3d9bc81c	0.07606527
50	0xbd8afe3e	-0.06786774
51	0xbd4df683	-0.05028392
52	0x3da137e3	0.07871988
53	0xbd22565e	-0.039633147
54	0x3da00419	0.078132816
55	0x3deea6bd	0.116528966
56	0xbd638c60	-0.055553794
57	0xbb0302f8	-0.0019990783
58	0x3e46773d	0.19381423
59	0xbd6c206c	-0.057648107
60	0x3d1f86ba	0.038946845
61	0xbd14b495	-0.03630503
62	0xbbe094c8	-0.0068536736
63	0x3e85e36e	0.26150078
64	0xbb9bc79e	-0.004754021
65	0xbcd9965f	-0.02656096
66	0xbd2b2500	-0.041783333
67	0x3d58058e	0.052739672
68	0xbdad9afa	-0.08476825
69	0xbd4916ee	-0.049094133
70	0xbb55a4fd	-0.0032599561
71	0x3d587bd5	0.05285247
72	0xbb95cd9c	-0.0045716297
73	0xbdc4748f	-0.09592544
74	0xbcdbad29	-0.026815968
75	0x3e1e76e1	0.15475036
76	0x3c2c01e1	0.010498495
77	0xbdc611fd	-0.096714
78	0xbd0d1988	-0.034448177
79	0xbd4a6ff8	-0.049423188
80	0xbd11986c	-0.03554575
81	0xbc8bec73	-0.017080521
82	0xbd4b900d	-0.049697924
83	0xbcfe70aa	-0.031059582
84	0xbd09931a	-0.033587553
85	0xbcf8622a	-0.030320246
86	0x3c343363	0.01099858
87	0x3cc56479	0.02409576
88	0xbc5e7a4c	-0.013578963
89	0x3d9931ac	0.07480177
90	0xbc25d3ef	-0.01012133
91	0x3d9385ff	0.07203292
92	0xbd9bc43e	-0.076057896
93	0xbd9873a1	-0.074439295
94	0xbb87169a	-0.0041225674
95	0xbda94058	-0.08264226
96	0xbce02fdb	-0.02736657
97	0xbd33791d	-0.043816675
98	0x3c838bfc	0.01605796
99	0x3d7b98a8	0.06142488
100	0xbd4b7bb1	-0.04967851
101	0x3dfa8423	0.12232234
102	0xbd78a040	-0.0606997
103	0x3e8c86f8	0.27446723
104	0xbdaf512c	-0.08560404
105	0xbd8a813e	-0.06762932
106	0xbd3253bd	-0.04353689
107	0xbd0aecb0	-0.03391713
108	0x3d007590	0.031362116
109	0xbd33f7dd	-0.043937553
110	0x3ddbcddc	0.10732624
111	0x3cc409fd	0.023930544
112	0xbcb95c60	-0.022627056
113	0x3d6fd922	0.058556683
114	0xbd81699a	-0.0631897
115	0x3d08a14c	0.03335695
116	0x3d2c858b	0.042119544
117	0xbd41d9af	-0.04732674
118	0x3d47d463	0.048786532
119	0xbcb4a7ac	-0.022052608
120	0xbda5a707	-0.080884986
121	0xbd9052c0	-0.07047033
122	0x3e211673	0.1573122
123	0xbd3b2930	-0.045693576
124	0x3d140769	0.03613988
125	0x3e4a3de2	0.19750169
126	0x3df2ee05	0.11861805
127	0x3cf71b06	0.030164253

8.weight f4 [49, 128]
0	0x3d9b047f	0.07569217
1	0xbda9244d	-0.08258877
2	0xbcb70c6d	-0.022344792
3	0x3d2d44a9	0.042301808
4	0xbe0b0555	-0.13576253
5	0x3da4113d	0.080111004
6	0xbe42b08a	-0.19012657
7	0x3dc25de3	0.09490564
8	0xbe1e22f0	-0.15443015
9	0xbe1df3e9	-0.15425076
10	0xbdc8936e	-0.09793745
11	0x3c472fc4	0.012157384
12	0xbb635043	-0.003468529
13	0x3b61162f	0.0034345498
14	0x3d020df8	0.031751603
15	0x3bc6e118	0.0060693137
16	0x3d0893d1	0.033344094
17	0x3d700d9d	0.058606733
18	0x3c5ebe60	0.013595194
19	0x3d819ce7	0.06328755
20	0x3d83b9b3	0.06431904
21	0xbd6b15fa	-0.057394005
22	0xbda60447	-0.081062846
23	0x3db979c5	0.09056429
24	0xbd275112	-0.0408488
25	0x3d07d854	0.03316529
26	0x3d8fbaf5	0.07018081
27	0xbc8d6e6e	-0.017264571
28	0xbd6ea935	-0.058266837
29	0x3c132711	0.008981482
30	0x3dae1a0f	0.08501064
31	0x3d835697	0.06413
32	0xbdc8560c	-0.09782037
33	0x3daa212f	0.083071105
34	0x3c88232a	0.01661833
35	0x3d973c7a	0.07384582
36	0xbda96181	-0.082705505
37	0xbc37b578	-0.011212699
38	0x3d12ed30	0.03587073
39	0xbe3f10e0	-0.18658781
40	0x3b3696f9	0.0027860983
41	0xbe60fbaf	-0.2197101
42	0xbd09e262	-0.03366316
43	0xbcc709dd	-0.024296695
44	0x3d34d9e6	0.044153117
45	0x3d88e567	0.0668438
46	0x3b342fdc	0.0027494347
47	0xbc300653	-0.010743695
48	0x3ba1e0df	0.004940137
49	0x3cfb05b8	0.030642375
50	0xbcd2e992	-0.02574614
51	0xbd0382d1	-0.032107178
52	0xbd59cc87	-0.053173568
53	0x3d67d064	0.05659522
54	0xbd061144	-0.03273131
55	0xbd9f11e8	-0.07767087
56	0x3d87c4f8	0.06629366
57	0x3d85e331	0.06537474
58	0xbce9eb34	-0.028554536
59	0xbdb3c938	-0.08778614
60	0xbc808047	-0.015686167
61	0xbda03dba	-0.078242734
62	0xbd2956fa	-0.041342713
63	0xbe286245	-0.16443737
64	0xbd976836	-0.073929235
65	0x3dac301b	0.08407613
66	0x3b878d10	0.004136689
67	0xbae97248	-0.0017810548
68	0xbcfcf186	-0.030876886
69	0x3d61899e	0.055062883
70	0x3de9e05d	0.11419747
71	0x3daf3548	0.085550845
72	0xbc7cc5a7	-0.015427983
73	0x3ced98b8	0.029003486
74	0x3dadad8e	0.084803686
75	0xbdd6bd9d	-0.104853846
76	0xbd5ad217	-0.053423014
77	0x3b217300	0.0024635196
78	0xbc9fdca0	-0.019514382
79	0x3d129457	0.035786
80	0xbd0b6f4d	-0.03404169
81	0x3dbf7c09	0.0934983
82	0xbd2e62a1	-0.04257453
83	0xbda72d1d	-0.081629016
84	0xbd0e8145	-0.03479125
85	0x3d927ced	0.07152734
86	0x3d36aec0	0.04460025
87	0xbd91d8c5	-0.07121424
88	0x3d4844ee	0.04889386
89	0x3d57cdf6	0.052686654
90	0x3c800991	0.015629562
91	0xbd805677	-0.06266492
92	0xbd6cdd44	-0.057828203
93	0xbafa7184	-0.0019107317
94	0xbe0a2da7	-0.13493977
95	0x3d09ab93	0.03361089
96	0x3da7d02f	0.08194005
97	0x3d147099	0.036240194
98	0x3d14b496	0.036305033
99	0xbdf0c48d	-0.11756239
100	0xbcf3ebc2	-0.029775504
101	0xbe22766a	-0.15865484
102	0xbd1a325b	-0.03764568
103	0xbe6b02a1	-0.22950222
104	0x3dcf8502	0.10132791
105	0x3e27d566	0.16389999
106	0xbd60edf8	-0.054914445
107	0x3d438db2	0.047742553
108	0x3b52661d	0.0032104321
109	0xbd5559f1	-0.052087728
110	0x3cdcd5eb	0.026957473
111	0x3d6c5c80	0.057705402
112	0xbcdee81a	-0.027210284
113	0x3d146595	0.03622969
114	0x3d0445bc	0.032293066
115	0x3d9233c8	0.07138783
116	0xbcf1b141	-0.029503467
117	0x3cfa81a1	0.03057939
118	0xbde058a3	-0.10954406
119	0x3da6ca2c	0.0814403
120	0xbd904847	-0.07045036
121	0xbd57a9eb	-0.05265228
122	0xbe744896	-0.23855814
123	0x3c080c28	0.0083036795
124	0xbd0b4939	-0.034005377
125	0xbe02ad68	-0.12761462
126	0xbd34ac65	-0.04410972
127	0x3d94273c	0.07234046
128	0x3d26100d	0.04054265
129	0xbdbdbdd6	-0.09264724
130	0x3cc766ec	0.02434107
131	0xb9faa5fe	-0.0004780739
132	0xbb6b7a9f	-0.0035931242
133	0x3cd6f894	0.026241578
134	0xbca83570	-0.020533293
135	0x3da072de	0.07834409
136	0xbe0c8110	-0.13721108
137	0xbc13cf14	-0.009021539
138	0xbe0e29a8	-0.13883078
139	0xbd2915e9	-0.04128066
140	0x3d4a2421	0.04935086
141	0x3cc16710	0.023608714
142	0x3d98cf50	0.07461417
143	0x3c62d296	0.013844153
144	0x3db25caa	0.087090805
145	0x3ced7124	0.028984614
146	0x3d2a92ca	0.041643895
147	0xbccc5075	-0.024940709
148	0x3d1bb852	0.03801758
149	0xbe13c622	-0.1443105
150	0xb9887f8e	-0.00026034977
151	0x3de419d4	0.11137739
152	0x3aba8706	0.0014230914
153	0x3ca80c68	0.020513728
154	0x3d04a334	0.032382205
155	0xbd8648b9	-0.065568395
156	0x3c4dbcd4	0.012557227
157	0x3b5fb5eb	0.0034135531
158	0xbd394d1d	-0.045239557
159	0xbcbf00b4	-0.023315765
160	0xbdd090e5	-0.101838864
161	0xbc297154	-0.010341961
162	0x3defa225	0.117008485
163	0x3d10c2c3	0.03534199
164	0x3d0f5fe0	0.035003543
165	0xbd25a7d7	-0.040443268
166	0x3c7d812c	0.0154726915
167	0xbdc11788	-0.09428316
168	0x3cfdc60e	0.030978229
169	0xbe72bba8	-0.23704398
170	0xbdfc8af3	-0.1233119
171	0x3d89ff2c	0.06738123
172	0x3d3b1dfe	0.0456829
173	0xbd339fb8	-0.04385349
174	0x3daa5998	0.0831787
175	0x3d863164	0.06552389
176	0xbd0b6248	-0.034029275
177	0x3cd83fcf	0.026397614
178	0xbc82309a	-0.015892316
179	0x3b9a074a	0.004700576
180	0xbe0968ad	-0.13418837
181	0xbd78b942	-0.06072355
182	0xbcdafd60	-0.026732147
183	0xbd32f932	-0.043694682
184	0xbd8626a3	-0.06550338
185	0x3c3b90d8	0.011448108
186	0xbe25e8f9	-0.16202153
187	0xbe191684	-0.14949995
188	0x3d608ef7	0.054823842
189	0xb967858a	-0.00022079624
190	0xbd4df0c9	-0.05027846
191	0xbdcba486	-0.0994349
192	0xbd190b06	-0.03736403
193	0xbd8dab61	-0.069174536
194	0x3d81afa1	0.06332327
195	0x3c4f8f39	0.012668424
196	0xbd52566a	-0.051351942
197	0x3d363172	0.04448075
198	0x3a4b172e	0.00077472895
199	0x3dc8a267	0.09796601
200	0xbd8dd7b1	-0.069259055
201	0xbcb51368	-0.02210398
202	0x3cd59000	0.026069641
203	0xbd4581ba	-0.04821942
204	0x3da216a8	0.079144776
205	0xbdb58fea	-0.0886534
206	0xbd8ab59f	-0.06772923
207	0xba01c769	-0.0004950674
208	0x3d1870d5	0.03721698
209	0xbd8fe5f7	-0.07026284
210	0x3a243057	0.0006263307
211	0xbc6728a3	-0.01410881
212	0x3d9a69e3	0.075397275
213	0x3caf9eec	0.021438085
214	0x3d83d2fd	0.06436727
215	0xbdf21e2a	-0.118221596
216	0x3db40af9	0.08791155
217	0x3d91eaef	0.07124888
218	0xbd175da2	-0.03695453
219	0xbdd6b9d1	-0.104846604
220	0xbd8c3ee3	-0.06847932
221	0xbd625884	-0.055260196
222	0xbe0cee68	-0.1376282
223	0x3cd035ea	0.025416333
224	0xbd1afa83	-0.037836563
225	0x3cd5ced5	0.026099602
226	0xbcd22b9f	-0.025655566
227	0xbd659f3a	-0.056060053
228	0x3c90e7d9	0.017688679
229	0xbe6b2b03	-0.22965626
230	0x3d1dbcf3	0.038510274
231	0xbe31896e	-0.17337582
232	0x3dc3ebb9	0.09566445
233	0x3d935efe	0.07195853
234	0x3d44373e	0.047904246
235	0xbdaed2e9	-0.08536322
236	0x3da6d8b7	0.08146804
237	0x3d32aefe	0.043623917
238	0xbd97761a	-0.07395573
239	0x3da9e3ba	0.082953885
240	0xbc7df34e	-0.015499903
241	0xbc8f0898	-0.017460153
242	0xbce25a65	-0.027630994
243	0x3b76fa33	0.0037685751
244	0xbdf03060	-0.11727977
245	0xbc9cb890	-0.019130975
246	0xbcc43e75	-0.023955563
247	0xbd7a6592	-0.06113202
248	0xbcc972d7	-0.024590893
249	0x3d58de81	0.05294657
250	0xbe33c8d5	-0.1755708
251	0x3b8ead36	0.0043541444
252	0x3c8b0251	0.016968878
253	0xbe209858	-0.15683115
254	0xbd781479	-0.0605664
255	0x3c2c4953	0.010515529

8.bias f4 [49]
0	0xbda9be35	-0.08288232
1	0xbc375334	-0.011189271
2	0xbe027d23	-0.12743048
3	0xbe2b99fd	-0.1675796
4	0xbe2d4729	-0.16921677
5	0xbd8d2c90	-0.06893265
6	0xbd2e0206	-0.0424824
7	0xbd9ca13b	-0.0764794
8	0xbdd59932	-0.1042961
9	0xbe2bcadb	-0.16776602
10	0xbe044b10	-0.12919259
11	0xbdc831ed	-0.097751476
12	0xbdedaa21	-0.11604715
13	0xbec13c03	-0.37741098
14	0xbddff813	-0.10935988
15	0xbdfd4d58	-0.12368268
16	0xbe443d48	-0.19164002
17	0xbe80d51e	-0.25162596
18	0xbe661a28	-0.22470915
19	0xbe9407df	-0.28912255
20	0xbdd395d1	-0.103313096
21	0xbe119fbc	-0.1422109
22	0xbe5f4acb	-0.21805875
23	0xbda79fee	-0.08184801
24	0xbe58cfb8	-0.21172988
25	0xbe3aec72	-0.18254259
26	0xbdfcbd1e	-0.12340759
27	0xbda06e9e	-0.078335986
28	0xbe3ade79	-0.18248929
29	0xbe32ca04	-0.17459875
30	0xbdad0526	-0.084482476
31	0xbdd93311	-0.10605443
32	0xbdee58d9	-0.1163804
33	0xbe0ddc7b	-0.13853638
34	0xbd561ca1	-0.052273396
35	0xbcd94c1d	-0.026525551
36	0xbdc71fc2	-0.09722854
37	0xbdece6ca	-0.11567457
38	0xbcf344af	-0.029695837
39	0xbd986665	-0.07441405
40	0xbd7ca2c2	-0.061678655
41	0xbc33c9d0	-0.010973409
42	0xbe1575ad	-0.14595671
43	0xbdce6e87	-0.10079675
44	0xbc830b88	-0.01599671
45	0xbd6daa46	-0.058023714
46	0xbd93f556	-0.072245285
47	0xbdd9c206	-0.1063271
48	0xbdc77c54	-0.097405106
