models/snapsRandom/model_1685685598.9485514.pt (torch, 252691 bytes, 10 tensors)

0.weight f4 [128, 49]
-0.042426575 0.14505868 0.0935061 -0.17162265 0.09262153 0.041123617 -0.02085746 0.12409274
-0.0083107175 -0.10418365 0.11064513 0.21131414 -0.08517892 0.0036173018 0.04757024 -0.039406136
0.021624228 -0.06410378 -0.05003132 0.05432554 -0.00089746335 -0.050910395 0.19897829 -0.101807445
-0.030808203 -0.099457346 -0.092321955 0.095108524 0.08952379 -0.14821707 0.076291114 0.009304314
0.015073911 -0.05205003 -0.042689748 0.18745676 -0.07998213 -0.0056115626 -0.21434452 -0.074994646
-0.06008655 0.06839212 0.06914131 -0.038838077 -0.05324459 0.13862358 0.10971977 -0.08178725
-0.03943311 0.0010148066 -0.028200677 -0.1081335 0.010493684 0.12375059 -0.0031353685 -0.03668615
0.030917054 0.078060456 -0.02565177 0.16402623 0.16449234 0.20537841 -0.13736957 -0.20459658
-0.080898345 0.033922534 0.040834345 -0.034066856 0.12816776 0.15777786 -0.014842332 0.1350232
0.13504651 -0.2227139 0.038502596 -0.022299964 -0.03135682 0.064303674 0.13752832 0.118028775
-0.13209829 -0.11718884 -0.14238475 0.06182252 -0.11699802 -0.042843156 -0.008078193 -0.12764747
0.1269381 0.04771794 -0.07636066 0.02129272 0.0310153 -0.11284079 -0.0703664 0.10549506
-0.018090384 -0.05199899 0.06342512 -0.15991741 0.045655064 -0.14011757 0.00031346097 -0.13380674
0.11015868 0.050751816 0.1243339 0.0123987375 -0.09495007 0.18607947 -0.23475704 0.123956606
-0.12871575 0.048218198 0.12141609 -0.09288568 -0.07187258 0.020961717 -0.104891166 0.0811265
-0.078311756 -0.018306745 -0.09975714 0.006112933 -0.10017895 0.006024081 -0.11154179 0.056390163
0.019997265 -0.063893855 0.0756561 -0.18441114 0.0152331125 -0.08362891 0.03184868 -0.06632807
0.009294706 -0.1128094 -0.0915649 0.13384461 -0.056686353 0.017021896 -0.10987643 0.1024081
0.022920595 -0.11024313 0.06327464 0.061969213 0.07443531 -0.0272651 -0.08994847 0.14701733
0.06337388 -0.006170009 0.08814296 0.096431 0.16904399 0.06863817 -0.1569602 -0.16865037
0.0880255 0.10337475 0.12046879 0.011672645 0.1326118 -0.026973397 -0.23019527 0.041992564
0.10670422 0.021726483 -0.001347264 0.05461933 0.0049419184 -0.21309586 0.05256202 -0.013801758
-0.07426765 0.15220669 -0.029735433 -0.03723003 0.08064078 0.19005626 -0.002306495 0.12334439
-0.10378932 0.041915424 0.07021009 0.023975281 0.074617915 -0.19630219 0.15370336 -0.21789786
-0.02879464 -0.00090398785 0.08798344 0.09877962 0.030045338 -0.10811199 0.025628319 -0.12337586
-0.08998652 0.117820926 0.05864297 0.018279936 -0.06291077 0.022683362 0.15417528 -0.07782093
-0.0749969 -0.13030256 -0.069886394 -0.069706656 0.14452162 -0.034185626 0.078156605 0.010346359
-0.011585885 -0.09803791 0.07130149 -0.0054034116 -0.16115707 0.082912244 -0.1066662 -0.17058891
0.019737968 0.042945802 0.12237318 0.06689026 0.06518675 -0.02692958 -0.023810383 -0.06736511
0.038965195 0.079036735 0.004399965 -0.12793706 -0.1355144 0.011748591 -0.030319782 -0.065327644
0.0717232 -0.02722057 0.041852634 0.11822875 -0.08944869 -0.042043388 0.11350168 0.095214136
-0.0146920625 0.058501396 -0.018259069 0.14682712 -0.13567622 0.005708085 -0.10019274 0.026221836
00000000: 7dc7 2dbd 438a 143e 2080 bf3d d9bd 2fbe
00000010: 5bb0 bd3d 3d71 283d 44dd aabc 5624 fe3d
00000020: ad29 08bc 3d5e d5bd ea99 e23d bc62 583e
00000030: 4972 aebd 4110 6d3b 03d9 423d 5468 21bd
00000040: 4b25 b13c d848 83bd a4ed 4cbd 7584 5e3d
00000050: bf43 6bba 6b87 50bd f7c0 4b3e 6c80 d0bd
00000060: 7c61 fcbc 4bb0 cbbd 4b13 bdbd 42c8 c23d
00000070: 4058 b73d 37c6 17be 843e 9c3d 1f71 183c
00000080: 91f8 763c 6a32 55bd 72db 2ebd aaf4 3f3e
00000090: accd a3bd 33e1 b7bb 217d 5bbe cb96 99bd
000000a0: 501d 76bd 2b11 8c3d f699 8d3d ad14 1fbd
000000b0: 0017 5abd 57f3 0d3e c2b4 e03d 1380 a7bd
000000c0: 9d84 21bd 4203 853a 1b05 e7bc 1975 ddbd
000000d0: b3ed 2b3c f370 fd3d c17a 4dbb 3744 16bd
000000e0: c345 fd3c 29de 9f3d a923 d2bc 7ef6 273e
000000f0: ae70 283e b84e 523e 9caa 0cbe c481 51be
00000100: 08ae a5bd 5bf2 0a3d ea41 273d b089 0bbd
00000110: 693e 033e 8590 213e 412d 73bc 8643 0a3e
00000120: a249 0a3e 1d0f 64be e6b4 1d3d 6aae b6bc
00000130: 0270 00bd a5b1 833d 39d4 0c3e 12b9 f13d
00000140: c644 07be b400 f0bd 4fcd 11be 9c39 7d3d
00000150: a89c efbd 4e7c 2fbd 665a 04bc 05b6 02be
00000160: 10fc 013e e373 433d fa62 9cbd 126e ae3c
00000170: cc13 fe3c 1219 e7bd 421c 90bd cb0d d83d
00000180: 4932 94bc e5fc 54bd 08e5 813d 64c1 23be
00000190: ce00 3b3d fb7a 0fbe 0558 a439 a204 09be
000001a0: e09a e13d 23e1 4f3d c6a2 fe3d 1324 4b3c
000001b0: 2f75 c2bd 9e8b 3e3e 2664 70be f6dc fd3d
000001c0: 10ce 03be 7280 453d 00a9 f83d d93a bebd
000001d0: ee31 93bd e8b7 ab3c 2ed1 d6bd a725 a63d
000001e0: ea61 a0bd 07f8 95bc 794d ccbd 004f c83b
000001f0: 9f2a cdbd a765 c53b 0670 e4bd 5ff9 663d
00000200: 4ed1 a33c c8da 82bd 96f1 9a3d 46d6 3cbe
00000210: 4e94 793c a245 abbd c373 023d 03d7 87bd
00000220: d348 183c 9d08 e7bd 6186 bbbd 900e 093e
00000230: f32f 68bd 8171 8b3c e506 e1bd 57bb d13d
00000240: f9c3 bb3c 26c7 e1bd 2296 813d 6ed3 7d3d
00000250: 8a71 983d 0f5b dfbc e736 b8bd b68b 163e
00000260: 2aca 813d c92d cabb 4c84 b43d 9e7d c53d
00000270: de19 2d3e 2b92 8c3d 2dba 20be afb2 2cbe
00000280: b746 b43d 24b6 d33d 57b8 f63d 9f3e 3f3c
00000290: 63cb 073e 50f7 dcbc 4fb8 6bbe 6500 2c3d
000002a0: be87 da3d bdfb b13c ae96 b0ba 85b8 5f3d
000002b0: d1ef a13b cd35 5abe 464b 573d c520 62bc
000002c0: a319 98bd 12dc 1b3e b997 f3bc 847e 18bd
000002d0: fe26 a53d 1c9e 423e 9128 17bb fc9b fc3d
000002e0: 7f8f d4bd 82af 2b3d 4fca 8f3d cf67 c43c
000002f0: 47d1 983d 7103 49be 6a64 1d3e 9e20 5fbe
00000300: bde2 ebbc 99f9 6cba a930 b43d f84c ca3d
00000310: a421 f63c d269 ddbd 7bf2 d13c 7cac fcbd
00000320: da4a b8bd 194c f13d 9c33 703d cebf 953c
00000330: 5dd7 80bd 75d2 b93c 20e0 1d3e 9460 9fbd
00000340: fa97 99bd 096e 05be 9920 8fbd 5dc2 8ebd
00000350: 7afd 133e 3a06 0cbd 9210 a03d c683 293c
00000360: b9d2 3dbc 1ac8 c8bd 8406 923d 1a0f b1bb
00000370: 5c06 25be e5cd a93d cf73 dabd dcae 2ebe
00000380: 85b1 a13c f0e7 2f3d ca9e fa3d c3fd 883d
00000390: a180 853d 6c9b dcbc fe0d c3bc b8f6 89bd
000003a0: f899 1f3d 03de a13d 952d 903b ef01 03be
000003b0: 49c4 0abe 2a7d 403c 3161 f8bc 80ca 85bd
000003c0: 9de3 923d acfd debc ab6d 2b3d ea21 f23d
000003d0: e030 b7bd b035 2cbd 9273 e83d a1ff c23d
000003e0: fab6 70bc 299f 6f3d 0b94 95bc d959 163e
000003f0: b5ee 0abe e30a bb3b da31 cdbd 2dcf d63c

0.bias f4 [128]
-0.08443995 0.18365626 -0.01598203 -0.05187025 -0.07580708 0.093757056 -0.12560475 0.35908908
0.17618538 -0.2918744 0.20876442 0.23463227 0.04873779 -0.15526819 0.35777783 0.10668386
-0.109450914 -0.27830642 -0.113825336 0.25856918 -0.026370838 -0.15921052 -0.17790967 -0.12419983
-0.074964106 0.04742921 0.08552998 0.3668298 -0.19033144 0.28887624 0.15187746 -0.2464747
-0.09021922 -0.29841918 -0.05401279 -0.14817291 0.07497477 -0.12485171 0.014740203 -0.11600988
-0.14837027 -0.18942907 0.00983601 -0.17974342 -0.11558851 -0.10874656 0.08365839 -0.03265082
-0.1840874 0.14975983 -0.03685363 -0.11984179 -0.205704 -0.020526998 -0.04906659 -0.03889266
0.13960351 0.049560513 0.029798191 -0.13274264 -0.060991693 -0.07487432 -0.15431558 -0.11895747
0.04380343 0.03099365 -0.061832696 -0.15709548 -0.16848122 -0.119383566 0.19897854 -0.13697855
0.07963066 -0.17684513 -0.045442116 -0.15049006 -0.08423777 -0.07109691 -0.044212017 0.02556432
-0.16537754 -0.05535203 -0.061027415 0.045626614 -0.11214926 -0.12061949 0.117750965 -0.019662812
-0.13649493 -0.04364102 0.03895179 -0.09959878 -0.12977187 -0.2807291 0.026907047 -0.2165731
-0.071764395 -0.111315586 0.41246486 -0.044822995 0.083766066 -0.1296518 -0.15739757 -0.10399115
-0.28325906 -0.04515123 0.18341397 -0.10699196 -0.051381364 -0.21455866 -0.12201489 -0.23659611
-0.080046475 -0.27719826 0.22012466 -0.20986986 0.00041453048 0.06739863 -0.14241351 -0.13238005
0.052224632 -0.062155604 -0.102696106 -0.24302503 0.026644832 -0.20762527 -0.021994649 0.04748731
00000000: daee acbd 6310 3c3e bfec 82bc e675 54bd
00000010: be40 9bbd b303 c03d 889e 00be 86da b73e
00000020: f169 343e 9070 95be 57c6 553e 7143 703e
00000030: 47a1 473d a0fe 1ebe a82e b73e 117d da3d
00000040: cd27 e0bd 2e7e 8ebe 421d e9bd 2e63 843e
00000050: a807 d8bc 1508 23be f42d 36be 7b5c febd
00000060: c886 99bd 2245 423d 582a af3d 1ed1 bb3e
00000070: 3fe6 42be 96e7 933e c485 1b3e dd63 7cbe
00000080: dbc4 b8bd 66ca 98be 843c 5dbd a4ba 17be
00000090: 5f8c 993d 41b2 ffbd e480 713c 9796 edbd
000000a0: 60ee 17be b2f9 41be 3727 213c a90e 38be
000000b0: abb9 ecbd 84b6 debd 1755 ab3d debc 05bd
000000c0: 6881 3cbe a45a 193e d5f3 16bd 9d6f f5bd
000000d0: 12a4 52be 3c28 a8bc 0cfa 48bd e94d 1fbd
000000e0: 39f4 0e3e f7ff 4a3d 561b f43c b0ed 07be
000000f0: 6dd2 79bd b557 99bd e704 1ebe f99f f3bd
00000100: 3a6b 333d 65e6 fd3c 4844 7dbd a3dd 20be
00000110: 5786 2cbe 5f7f f4bd 08c1 4b3e 1b44 0cbe
00000120: 6615 a33d e416 35be 8321 3abd 111a 1abe
00000130: da84 acbd 429b 91bd a917 35bd 446c d13c
00000140: bb58 29be cfb8 62bd e2f7 79bd f9e2 3a3d
00000150: 83ae e5bd 5a07 f7bd 6b27 f13d e813 a1bc
00000160: 54c5 0bbe edc0 32bd ea8b 1f3d 72fa cbbd
00000170: ebe2 04be b9bb 8fbe 2b6c dc3c 57c5 5dbe
00000180: 36f9 92bd 6df9 e3bd 982e d33e 5198 37bd
00000190: 8b8d ab3d 71c3 04be d42c 21be 50f9 d4bd
000001a0: 5507 91be 7ff0 38bd dfd0 3b3e 9a1e dbbd
000001b0: 4475 52bd 44b5 5bbe f1e2 f9bd 4046 72be
000001c0: 68ef a3bd eeec 8dbe 5c68 613e 20e8 56be
000001d0: 5755 d939 4b08 8a3d d9d4 11be a38e 07be
000001e0: 7fe9 553d e096 7ebd 5652 d2bd 8edb 78be
000001f0: 4346 da3c b89b 54be 1f2e b4bc 0e82 423d

2.weight f4 [128, 128]
0.040571176 -0.013869124 -0.030480966 -0.061408307 0.067375764 -0.0148074515 -0.047802445 0.0046676924
-0.0028230054 -0.031047156 0.00655574 0.05267371 -0.002429234 -0.04583826 0.065020725 -0.061572723
-0.061994936 -0.039656427 -0.088087544 0.023196211 0.075480364 -0.07688915 0.044441633 0.004421858
-0.011499749 -0.06322244 -0.04345363 -0.040717956 0.024879772 0.02846299 -0.08017162 -0.01826927
-0.012838994 -0.0056618056 -0.06143811 0.040918633 0.005327641 -0.049586747 -0.057005882 -0.012898176
0.018838177 -0.06490499 0.0035433515 -0.035926763 -0.008209084 0.011174947 0.019781675 0.0066688675
-0.050869673 -0.080447264 0.036775928 0.07488042 -0.05154069 -0.052123196 0.00876262 -0.015888995
0.08686653 0.07515553 0.012943568 0.08783189 0.08189098 -0.008101758 0.06356564 -0.08915799
-0.026471652 0.05986096 -0.056464292 -0.007897126 -0.07193532 0.08491346 0.04851535 -0.051014077
0.07839531 -0.049939897 0.06496461 -0.0049942746 -0.015767211 0.062595665 -0.08220724 -0.044653457
0.003750034 -0.08368357 0.016229503 -0.07639264 -0.06194913 0.03188951 -0.021569395 0.07785805
-0.077044725 0.07048499 0.051327504 -0.011169913 0.04732804 -0.07702609 -0.08188054 -0.0576818
-0.07306306 -0.07574783 0.026937304 0.085744694 -0.005024123 -0.03700097 -0.056914818 -0.02289275
0.051640328 -0.04824226 -0.045619182 -0.0798684 0.021480056 0.07089479 0.04281572 0.07810419
0.056651503 -0.0022165962 -0.06552256 0.08144905 -0.05683618 0.086863644 -0.05316739 0.004991545
0.012967696 0.05405661 0.001110349 -0.07749634 0.0008312684 0.08044104 0.0108909635 0.04504764
-0.028228264 -0.05690454 0.05365918 0.048449166 -0.019832427 -0.024941998 -0.03640191 0.016036907
0.06798296 -0.08252074 0.00033093555 0.008361036 -0.0057069273 0.054588318 0.029353207 0.0708011
-0.045043543 -0.014154948 -0.014818026 -0.048798043 -0.037263215 -0.030321 -0.026483927 -0.043411307
0.01349829 -0.08389265 0.077064216 -0.033007916 0.06406909 0.0013938972 -0.07420263 -0.087367296
-0.015490321 0.04770417 0.009976684 0.05991127 -0.053491484 -0.0822046 -0.083190896 0.022408133
0.044255603 -0.037360117 0.01804481 -0.073317684 -0.014543872 0.07007005 -0.027297258 0.07260681
-0.054395624 -0.049792636 0.075827494 0.07230464 0.019015118 -0.019993281 0.036735237 0.02663462
-0.040933408 -0.06915092 -0.00892157 -0.041151714 -0.033478215 0.013999385 0.074328154 0.068754435
0.06742065 0.033185292 0.028631855 -0.022428028 0.00783069 -0.009086131 -0.07128837 0.0840873
0.060932834 0.009805544 0.04463322 0.039757937 0.06723498 0.049538262 -0.019777227 -0.02073686
-0.053365998 0.0063481033 0.071959525 -0.081958406 0.021699065 -0.0486097 0.069073774 -0.081081726
0.0121669 0.050201897 -0.027740354 0.008243146 0.03071562 -0.0020780414 -0.032401837 0.08425401
-0.08265681 -0.0574332 -0.028685367 0.005884642 -0.01829909 0.013039319 -0.015094948 -0.048159722
0.008818338 0.05851966 0.03955709 0.021835925 -0.060248036 0.050565865 -0.013537588 0.057621222
-0.034328364 -0.06834778 0.063719675 -0.013589313 -0.029718377 0.03930194 0.0005080746 -0.031521052
-0.009692836 -0.00323913 0.009450256 0.06416315 -0.038940392 -0.028955651 -0.0033126217 0.0017812902
00000000: f62d 263d 533b 63bc 38b3 f9bc 4787 7bbd
00000010: 4efc 893d f49a 72bc 7fcc 43bd 71f3 983b
00000020: 2c02 39bb 9b56 febc 88d1 d63b 63c0 573d
00000030: c933 1fbb e6c0 3bbd 9629 853d ae33 7cbd
00000040: 67ee 7dbd c76e 22bd 3e67 b4bd fb05 be3c
00000050: 7395 9a3d 0f78 9dbd 6e08 363d 3ce5 903b
00000060: 7169 3cbc c47a 81bd 6ffc 31bd dfc7 26bd
00000070: aad0 cb3c 372b e93c 0531 a4bd 70a9 95bc
00000080: a55a 52bc ab86 b9bb 87a6 7bbd 4c9a 273d
00000090: 7e93 ae3b 791b 4bbd 007f 69bd df52 53bc
000000a0: 8552 9a3c e8ec 84bd 9337 683b f127 13bd
000000b0: 657f 06bc 2017 373c 2e0d a23c 8486 da3b
000000c0: b85c 50bd 89c1 a4bd 5ba2 163d e85a 993d
000000d0: 551c 53bd 227f 55bd 1891 0f3c a329 82bc
000000e0: 14e7 b13d 24eb 993d 4211 543c 35e1 b33d
000000f0: 75b6 a73d 3cbd 04bc b42e 823d 7798 b6bd
00000100: 14db d8bc c430 753d 1a47 67bd f262 01bc
00000110: d352 93bd 1ce7 ad3d 08b8 463d 23f4 50bd
00000120: b88d a03d c78d 4cbd 2a0c 853d 03a7 a3bb
00000130: 3d2a 81bc 2832 803d 455c a8bd 8be6 36bd
00000140: 21c3 753b 4b62 abbd bcf3 843c bf73 9cbd
00000150: 5fbe 7dbd 939e 023d 4db2 b0bc 0b74 9f3d
00000160: a0c9 9dbd 6f5a 903d ca3c 523d 0302 37bc
00000170: 0cdb 413d dbbf 9dbd fcb0 a7bd c043 6cbd
00000180: 16a2 95bd ae21 9bbd 9fab dc3c ea9a af3d
00000190: 66a1 a4bb 548e 17bd 831f 69bd 9489 bbbc
000001a0: cf84 533d ad99 45bd 2edb 3abd 0b92 a3bd
000001b0: f1f6 af3c 4a31 913d 895f 2f3d 17f5 9f3d
000001c0: 680b 683d 5044 11bb b130 86bd c2ce a63d
000001d0: 0ecd 68bd 91e5 b13d 0dc6 59bd 1d90 a33b
000001e0: 7676 543c 776a 5d3d 2189 913a 67b6 9ebd
000001f0: 7ae9 593a 46be a43d 0370 323c e083 383d
00000200: f63e e7bc bc14 69bd bac9 5b3d a272 463d
00000210: 9d77 a2bc 2953 ccbc 2b1a 15bd d55f 833c
00000220: a63a 8b3d a200 a9bd 6b81 ad39 bafc 083c
00000230: 2d01 bbbb 0098 5f3d 2376 f03c 2b00 913d
00000240: 947f 38bd 28ea 67bc 4ec7 72bc 75e0 47bd
00000250: 50a1 18bd bf63 f8bc d2f4 d8bc 0ed0 31bd
00000260: ef27 5d3c e9cf abbd d8d3 9d3d 4f33 07bd
00000270: a836 833d 6eb3 b63a 8cf7 97bd a0ed b2bd
00000280: 1ecb 7dbc 7365 433d 3f75 233c 8565 753d
00000290: e319 5bbd e35a a8bd fd5f aabd 4391 b73c
000002a0: 5d45 353d ec06 19bd b6d2 933c 9527 96bd
000002b0: 6c49 6ebc e380 8f3d 809e dfbc e1b2 943d
000002c0: f2cd 5ebd 5df3 4bbd 724b 9b3d 7514 943d
000002d0: 98c5 9b3c f3c8 a3bc b077 163d d930 da3c
000002e0: caa9 27bd ff9e 8dbd c72b 12bc b38e 28bd
000002f0: 7420 09bd ad5d 653c 5c39 983d 20cf 8c3d
00000300: d613 8a3d 4ded 073d 5a8d ea3c fcba b7bc
00000310: 4b4c 003c ffdd 14bc a3ff 91bd f635 ac3d
00000320: b594 793d 6fa7 203c 53d1 363d 38d9 223d
00000330: 7eb2 893d a2e8 4a3d da03 a2bc 59e0 a9bc
00000340: 4e96 5abd c003 d03b 845f 933d cfd9 a7bd
00000350: 3dc2 b13c f71a 47bd 8d76 8d3d 2d0e a6bd
00000360: ad57 473c 81a0 4d3d bd3f e3bc 430e 073c
00000370: 539f fb3c c02f 08bb cab7 04bd 5e8d ac3d
00000380: f947 a9bd 133f 6bbd 93fd eabc f4d3 c03b
00000390: f9e7 95bc dea2 553c cd50 77bc 2143 45bd
000003a0: ca7a 103c 50b2 6f3d 9d06 223d 41e1 b23c
000003b0: a5c6 76bd 271e 4f3d c2cc 5dbc 3b04 6c3d
000003c0: e69b 0cbd ecf9 8bbd 767f 823d b6a5 5ebc
000003d0: f473 f3bc 12fb 203d 4f30 053a 381c 01bd
000003e0: b3ce 1ebc 9547 54bb 3fd5 1a3c f867 833d
000003f0: f67f 1fbd 6734 edbc 9218 59bb 2e7a e93a

2.bias f4 [128]
0.05296611 -0.046679553 -0.047135197 -0.02903808 0.016343607 -0.10178277 -0.045890152 0.025975047
0.012704536 -0.06288918 0.03617438 -0.07990319 -0.059028134 -0.0158856 -0.0143377185 0.120748945
0.09063042 0.020880131 -0.06566243 -0.0129862605 0.03617413 -0.09799744 -0.0048212055 0.006953145
-0.061381992 -0.011873108 -0.15389468 0.019102916 -0.0365334 0.0053796344 0.02400651 -0.048500597
0.08406193 0.06613575 -0.115078725 -0.0642516 0.004746115 -0.037410043 -0.19053861 -0.10938084
-0.01834428 -0.062470376 -0.016192095 -0.09772578 0.02892039 0.11923217 0.13231052 -0.0066260784
-0.0629681 -0.0019716388 0.05275936 0.042956952 0.019138545 -0.040222816 -0.03660987 0.024078365
0.017095467 -0.025264869 0.036335308 -0.036621954 -0.064258985 0.013820342 0.058896728 0.053057864
-0.057251506 0.07578094 -0.031074526 0.03391048 0.06982975 -0.19508971 -0.012999791 0.07739738
-0.08435853 0.0822786 0.003624398 0.042676773 -0.0146716675 -0.17344682 0.07164379 -0.033183347
-0.05452467 0.07294888 -0.02062654 0.014234192 -0.19834833 0.12000241 0.11123263 0.008734392
0.08632736 -0.13883966 -0.070255235 0.03368703 -0.01656706 0.010295919 -0.0035901756 0.11413337
0.036360472 0.096805386 -0.043975245 0.108529754 0.07526334 0.03869837 -0.06227402 -0.03366648
0.062162843 0.1255278 -0.08943648 -0.009010465 0.025257576 -0.099596635 -0.083228216 0.027762119
-0.043998517 -0.0847283 -0.06424861 0.07532908 -0.077281594 0.11298865 0.034960404 -0.024399856
0.01462179 0.13439709 0.1277552 -0.013393356 0.074726865 0.05071904 -0.015412104 -0.062397417
00000000: fef2 583d 0f33 3fbd d610 41bd 44e1 edbc
00000010: 07e3 853c 7c73 d0bd 50f7 3bbd 9fc9 d43c
00000020: b026 503c 0bcc 80bd 962b 143d 49a4 a3bd
00000030: 7cc7 71bd 8522 82bc c0e8 6abc 394b f73d
00000040: 719c b93d cf0c ab3c 067a 86bd 53c4 54bc
00000050: 532b 143d e2b2 c8bd 34fb 9dbb 35d7 e33b
00000060: af6b 7bbd 6d87 42bc 9196 1dbe b87d 9c3c
00000070: 0ca4 15bd a547 b03b 4da9 c43c 90a8 46bd
00000080: a928 ac3d 2e72 873d 65ae ebbd 5896 83bd
00000090: 4c85 9b3b 463b 19bd 8e1c 43be 1003 e0bd
000000a0: be46 96bc f0e0 7fbd 49a5 84bc 7424 c8bd
000000b0: 74ea ec3c ff2f f43d 697c 073e 931f d9bb
000000c0: 6bf5 80bd 9c36 01bb 331a 583d a1f3 2f3d
000000d0: 70c8 9c3c aec0 24bd 3bf4 15bd fe3f c53c
000000e0: cb0b 8c3c 45f8 cebc 55d4 143d e700 16bd
000000f0: 379a 83bd b76e 623c b23d 713d 3453 593d
00000100: 8e80 6abd 0a33 9b3d 0190 febc b7e5 0a3d
00000110: e602 8f3d 99c5 47be 13fd 54bc 8482 9e3d
00000120: 2ac4 acbd af81 a83d 4f87 6d3b d7cd 2e3d
00000130: 6f61 70bc 0b9c 31be fbb9 923d 43eb 07bd
00000140: 4355 5fbd 3966 953d fdf8 a8bc 8736 693c
00000150: d31b 4bbe d3c3 f53d efcd e33d b21a 0f3c
00000160: 66cc b03d fc2b 0ebe fae1 8fbd 69fb 093d
00000170: a5b7 87bc 37b0 283c 2749 6bbb c2be e93d
00000180: b8ee 143d e741 c63d 631f 34bd d944 de3d
00000190: aa23 9a3d 2f82 1e3d 0b13 7fbd dde5 09bd
000001a0: 779e 7e3d 5c8a 003e 792a b7bd a1a0 13bc
000001b0: fae8 ce3c 52f9 cbbd 8e73 aabd 626d e33c
000001c0: ca37 34bd 0886 adbd c694 83bd 2246 9a3d
000001d0: d045 9ebd 9866 e73d a432 0f3d 35e2 c7bc
000001e0: 3b90 6f3c 649f 093e 42d2 023e cf6f 5bbc
000001f0: 660a 993d c5be 4f3d 0d83 7cbc 6f94 7fbd

4.weight f4 [128, 128]
0.047891676 0.02445571 -0.037241176 0.050553955 0.0013109824 -0.04954332 0.006722358 -0.009038722
0.026027719 0.013636401 0.06780605 0.0067808875 0.007893106 -0.006917039 -0.061716978 0.043406542
0.074091986 -0.038204245 -0.05785222 -0.03418831 -0.0033282966 0.07202171 -0.016148038 0.081148416
0.07143884 -0.070367225 -0.08723314 -0.009058069 -0.011443572 0.011509117 -0.008658851 -0.038952705
0.015274396 -0.043860003 0.04774309 0.06293468 -0.0725429 -0.06669889 0.06713509 -0.019774893
0.035869285 -0.0847329 -0.05293622 -0.06929285 -0.030818623 -0.06684927 -0.03182859 0.0061996253
-0.034073386 0.043701537 -0.034067918 -0.06794771 -0.023046525 0.047750823 -0.017348895 -0.04594995
-0.03281187 0.0702504 -0.0717972 -0.048865166 -0.07462523 0.07483833 -0.04801449 0.07893643
-0.019945145 -0.056621764 -0.04338286 -0.06887414 0.013430672 -0.033455748 0.078761965 0.007982149
0.015930627 -0.04073201 -0.027298307 -0.04801376 0.025849713 0.04256587 -0.05641727 0.03910741
-0.084807895 0.05186114 0.046222635 -0.024832008 0.017360967 -0.060909282 -0.016832365 0.023343956
0.043169655 -0.071296036 -0.073607385 0.06916282 0.030977326 0.07647988 -0.078494005 -0.04111923
-0.03741884 -0.01582083 0.008215723 -0.018250892 0.047063615 -0.05331178 0.07514844 -0.043352075
0.04860719 0.07257964 -0.07817362 0.024509938 0.020397408 0.08065749 0.049241573 -0.08686056
-0.031854462 -0.06929535 -0.04670401 -0.026489008 0.033581365 -0.08543366 0.005376061 -0.080053434
-0.017003676 -0.083606794 -0.060332995 -0.038623348 0.035343647 -0.0492438 -0.052306473 0.038765732
-0.04532326 0.032430097 0.087118216 0.0755835 -0.02489837 0.044405866 -0.024297137 0.060019486
-0.003063225 0.0054968446 -0.08666419 0.07220458 0.059213545 -0.012696541 -0.044542264 -0.034223087
-0.07776436 -0.057204932 0.041798487 -0.057639506 0.033153255 -0.046873916 -0.04257326 -0.084590375
0.006596074 -0.031786874 -0.040318195 -0.0002774447 -0.04923331 0.014304795 0.05913666 -0.037624862
0.022103658 -0.030501893 0.016876824 -0.07255873 -0.05356665 -0.038900785 -0.006369848 -0.016695824
-0.02619553 0.049201593 -0.06391047 0.08761065 0.018163439 -0.0040043686 0.06551747 0.06305443
-0.0192968 0.020415066 -0.038271647 0.048948217 0.05613949 0.019402862 0.0065258914 -0.033109695
-0.034146782 0.06161462 0.022096941 0.035161242 -0.008987948 -0.010572216 0.060402226 -0.06925884
0.014087621 -0.022229565 -0.028993145 -0.08096741 0.054854315 -0.07109329 -0.02855343 0.011505478
0.04547562 -0.09273348 0.04107093 -0.03911973 0.029583951 -0.0828172 -0.07733805 0.0795659
0.028426286 0.009673192 0.04204106 0.06981518 0.05465504 0.017553842 -0.07506458 0.08155094
-0.018817723 -0.012636694 0.018539067 0.06747417 -0.015253338 -0.040321104 0.05015925 0.057621688
0.025141027 0.006040999 0.002312348 0.015384619 -0.075695574 -0.04685635 0.035595696 0.023144487
0.032531887 0.0037303388 -0.052925203 -0.041775785 -0.020337882 -0.06106864 0.07890591 -0.05493118
0.011465399 0.088340566 -0.073101796 -0.084302746 0.03628613 0.04597848 -0.0405518 0.03881529
0.062312946 -0.04170566 0.067642376 0.0047843517 -0.019319983 0.03216347 0.044840507 0.07838545
00000000: 102a 443d 5757 c83c 348a 18bd aa11 4f3d
00000010: 45d5 ab3a f0ed 4abd 3a47 dc3b 2617 14bc
00000020: 1538 d53c 366b 5f3c e6dd 8a3d 3532 de3b
00000030: 1652 013c 54a8 e2bb f1ca 7cbd 0fcb 313d
00000040: 8abd 973d 0e7c 1cbd 73f6 6cbd 0b09 0cbd
00000050: 8d1f 5abb 1e80 933d e448 84bc 2431 a63d
00000060: 874e 923d b11c 90bd 4aa7 b2bd 4c68 14bc
00000070: d27d 3bbc bc90 3c3c dadd 0dbc df8c 1fbd
00000080: 7641 7a3c 8ca6 33bd 428e 433d e6e3 803d
00000090: 5f91 94bd 6d99 88bd 1f7e 893d f5fe a1bc
000000a0: aceb 123d 7188 adbd a6d3 58bd 69e9 8dbd
000000b0: 5677 fcbc 45e8 88bd b25e 02bd 3a26 cb3b
000000c0: 8990 0bbd 6200 333d cd8a 0bbd 2b28 8bbd
000000d0: 11cc bcbc 5e96 433d 451f 8ebc 0436 3cbd
000000e0: bd65 06bd 71df 8f3d 690a 93bd d726 48bd
000000f0: 1dd5 98bd d744 993d d8aa 44bd 6ca9 a13d
00000100: 0064 a3bc 39ec 67bd 3ab2 31bd e30d 8dbd
00000110: 520c 5c3c e508 09bd f44d a13d 8fc7 023c
00000120: f280 823c 9cd6 26bd b3a0 dfbc 14aa 44bd
00000130: c7c2 d33c 8d59 2e3d cc15 67bd 172f 203d
00000140: c3af adbd 596c 543d f253 3d3d 7f6c cbbc
00000150: 9638 8e3c 037c 79bd 07e4 89bc d33b bf3c
00000160: aad2 303d a803 92bd 78bf 96bd 3da5 8d3d
00000170: 29c4 fd3c 7ca1 9c3d 77c1 a0bd a36c 28bd
00000180: 7f44 19bd af9a 81bc 3d9b 063c e582 95bc
00000190: c7c5 403d 745d 5abd 6de7 993d f291 31bd
000001a0: 5518 473d a2a4 943d 7e19 a0bd 11c9 c83c
000001b0: 7718 a73c c12f a53d 88b1 493d f3e3 b1bd
000001c0: d379 02bd b8ea 8dbd b44c 3fbd 7aff d8bc
000001d0: 9d8c 093d d8f7 aebd ab29 b03b 0ef3 a3bd
000001e0: 4b4b 8bbc 0a3a abbd bb1f 77bd 8433 1ebd
000001f0: 80c4 103d deb3 49bd 503f 56bd d1c8 1e3d
00000200: e2a4 39bd 6cd5 043d 096b b23d 86cb 9a3d
00000210: abf7 cbbc ede2 353d ca0a c7bc fed6 753d
00000220: 63c0 48bb e01e b43b ff7c b1bd ffdf 933d
00000230: e789 723d 2705 50bc f371 36bd 822d 0cbd
00000240: ec42 9fbd b84f 6abd e434 2b3d 6717 6cbd
00000250: b5cb 073d ddfe 3fbd 4c61 2ebd b83d adbd
00000260: e123 d83b f432 02bd b124 25bd ff75 91b9
00000270: dea8 49bd a95e 6a3c 4839 723d 871c 1abd
00000280: bb12 b53c 1bdf f9bc 4441 8a3c ac99 94bd
00000290: b468 5bbd 6e56 1fbd 28ba d0bb aec5 88bc
000002a0: 0298 d6bc 9c87 493d 7ee3 82bd 366d b33d
000002b0: 7ecb 943c 1437 83bb 062e 863d ae22 813d
000002c0: 5314 9ebc 7f3d a73c bbc2 1cbd ed7d 483d
000002d0: 86f2 653d c0f2 9e3c 25d7 d53b 089e 07bd
000002e0: 7fdd 0bbd 9d5f 7c3d a504 b53c 3c05 103d
000002f0: 3042 13bc 1637 2dbc 5368 773d 94d7 8dbd
00000300: c4cf 663c c71a b6bc 0883 edbc 3ed2 a5bd
00000310: ebae 603d 5c99 91bd e2e8 e9bc 7981 3c3c
00000320: a544 3a3d 0deb bdbd fe39 283d 033c 20bd
00000330: 0b5a f23c 109c a9bd 6963 9ebd 72f3 a23d
00000340: 3ede e83c 4f7c 1e3c 3f33 2c3d 43fb 8e3d
00000350: f7dd 5f3d 13cd 8f3c 75bb 99bd 2e04 a73d
00000360: a027 9abc 230a 4fbc 3edf 973c e62f 8a3d
00000370: 23e9 79bc be27 25bd c973 4d3d b804 6c3d
00000380: 8ef4 cd3c 93f3 c53b c38a 173b c50f 7c3c
00000390: 4806 9bbd 72ec 3fbd cbcc 113d 8299 bd3c
000003a0: 2840 053d b378 743b 19c8 58bd 161d 2bbd
000003b0: a19b a6bc 1c23 7abd 6c99 a13d 84ff 60bd
000003c0: 5ed9 3b3c e6eb b43d 65b6 95bd eba6 acbd
000003d0: c4a0 143d ee53 3c3d a519 26bd c8fc 1e3d
000003e0: dc3b 7f3d 8ed3 2abd 1688 8a3d 0dc6 9c3b
000003f0: f144 9ebc d8bd 033d aeaa 373d 8d88 a03d

4.bias f4 [128]
-0.033637084 0.019462025 0.04178978 -0.0872706 -0.055123214 -0.039344713 -0.02502725 -0.024068788
0.08966057 0.084883265 -0.06567254 0.045295436 -0.06093765 -0.03085746 0.08690812 0.062319215
-0.1349388 0.06224857 0.0672554 -0.042700093 -0.03394374 0.04557064 0.008749133 -0.057697874
0.07180581 -0.06871233 -0.054729708 -0.081516676 -0.030300807 -0.02452365 -0.07016733 0.07768329
0.008902678 -0.009909726 -0.062456682 -0.04348105 0.0042098183 0.029955534 -0.00989522 0.005315645
0.010166595 -0.033829354 0.11576935 0.06666894 0.053083833 0.07162804 0.022053834 -0.052430335
-0.018556539 0.044209108 0.061935585 -0.04676679 0.024808154 5.7053523e-05 -0.028567655 -0.03753953
0.0033528635 -0.08072689 -0.012141186 0.09379633 0.040336486 -0.04836297 0.12765214 0.04896371
-0.09070621 -0.066937044 0.0019802991 0.015344183 0.10265819 0.02420495 0.044866636 -0.014382165
0.053561077 0.08704879 0.09934482 0.071101464 -0.024983933 -0.076068096 0.048680466 0.0021873175
0.04270811 0.07677962 -0.05283413 -0.025973996 0.07631564 0.03600488 0.060632896 -0.008914973
-0.07977576 -0.01234884 0.06640942 0.04087028 -0.08131851 -0.009082995 0.05414326 0.057339948
0.066593744 0.086064145 -0.052011535 -0.015156115 0.0053128856 -0.026862057 -0.013414559 -0.022702005
0.071632326 0.0058171344 -0.008820673 0.019811682 0.10862559 -0.003975046 -0.033903845 0.03898296
-0.05863959 0.024378428 0.13615681 -0.064196944 -0.077767886 -0.05285718 -0.04310929 0.018688684
0.08709921 0.07901336 0.07311453 0.013774435 0.032564923 -0.010811041 0.042485423 0.029495656
00000000: 0ac7 09bd d36e 9f3c c32b 2b3d eeba b2bd
00000010: e1c8 61bd ec27 21bd f305 cdbc e82b c5bc
00000020: f69f b73d 47d7 ad3d 537f 86bd b587 393d
00000030: c299 79bd c9c8 fcbc e2fc b13d 6f42 7f3d
00000040: 662d 0abe 5bf8 7e3d 33bd 893d 4be6 2ebd
00000050: 9708 0bbd 48a8 3a3d 8658 0f3c 9b54 6cbd
00000060: ed0e 933d 0db9 8cbd 422c 60bd 37f2 a6bd
00000070: 6639 f8bc d2e5 c8bc e4b3 8fbd 6b18 9f3d
00000080: 8adc 113c 675c 22bc 94d2 7fbd 2f19 32bd
00000090: 84f2 893b 4f65 f53c 901f 22bc dd2e ae3b
000000a0: ca91 263c a690 0abd 7b18 ed3d ba89 883d
000000b0: 6f6e 593d b9b1 923d 3eaa b43c 31c1 56bd
000000c0: e203 98bc 9c14 353d 2bb0 7d3d 898e 3fbd
000000d0: 783a cb3c c14c 6f38 b706 eabc 0dc3 19bd
000000e0: b7bb 5b3b 2454 a5bd d3eb 46bc 4a18 c03d
000000f0: df37 253d 4018 46bd 3eb7 023e 2c8e 483d
00000100: 2dc4 b9bd 4a16 89bd e8c7 013b 2b66 7b3c
00000110: 753e d23d 7649 c63c 14c6 373d 2ca3 6bbc
00000120: dc62 5b3d a346 b23d 4c75 cb3d a59d 913d
00000130: 1bab ccbc 97c9 9bbd 2b65 473d 1959 0f3b
00000140: b3ee 2e3d a23e 9d3d 9a68 58bd 6bc7 d4bc
00000150: 604b 9c3d da79 133d 335a 783d 1b10 12bc
00000160: 7961 a3bd ca52 4abc a901 883d 9867 273d
00000170: 528a a6bd d8d0 14bc 53c5 5d3d 4bdd 6a3d
00000180: 4d62 883d 6642 b03d 0c0a 55bd 5b51 78bc
00000190: b717 ae3b d10d dcbc bdc8 5bbc 8ef9 b9bc
000001a0: f8b3 923d a99d be3b 9684 10bc 1c4c a23c
000001b0: 1877 de3d 1a41 82bb c2de 0abd 99ac 1f3d
000001c0: 1130 70bd 45b5 c73c b16c 0b3e b079 83bd
000001d0: c544 9fbd c580 58bd 5e93 30bd 0319 993c
000001e0: 1261 b23d c2d1 a13d 12bd 953d 2bae 613c
000001f0: cc62 053d cb20 31bc 3205 2e3d e0a0 f13c

6.weight f4 [128, 128]
0.0073652607 0.046526544 -0.021739434 -0.0106578395 0.027183004 -0.06271435 0.015656354 0.062325872
0.06327933 0.039295793 -0.05134177 -0.043829516 0.06685202 -0.084120736 0.07812848 -0.02644348
0.042857636 -0.006218644 0.07885722 -0.05935773 0.07616224 0.078680046 -0.00475124 0.084054664
-0.051032104 -0.01781833 -0.0052331905 -0.01158361 -0.06525102 -0.0011973667 0.0050287405 0.08866608
-0.019488469 0.055461265 -0.019523058 -0.038089324 0.08034265 -0.088597275 0.027906539 0.022094605
0.06761862 -0.0435521 -0.00840528 -0.06524263 0.041711975 0.021840444 0.037955888 0.037582446
-0.026388984 -0.060284037 -0.014794078 0.049335282 0.04682401 0.062727645 0.061083425 -0.08646703
0.027994495 0.045061342 -0.031802945 -0.07724417 0.02366781 -0.039988227 -0.06103496 0.07865102
-0.03921874 -0.047898117 -0.08072283 0.07233109 0.06347941 0.036529828 0.02055138 -0.071849026
-0.065053664 0.051991515 -0.04343565 -0.07289018 -0.028648827 -0.05250517 0.039008554 -0.036033038
-0.069871515 -0.015830759 -0.05888062 -0.06256457 -0.03141654 -0.03668694 -0.04984626 0.08690649
0.0305737 -0.04431573 0.026007997 -0.08009007 -0.06666703 0.001748498 0.10069483 0.082364164
-0.004902997 -0.023331191 -0.031366788 -0.016662532 -0.02926602 -0.0836404 -0.049314484 -0.015395537
0.011585413 0.09050989 0.10291302 0.08580568 0.068527974 0.08414166 0.0686617 0.047528986
0.038403787 0.05540391 0.0031080395 -0.020496745 0.034514386 -0.06885346 0.051115576 0.099723876
0.075930625 -0.071599826 0.0701307 0.019103087 0.053844735 0.036327723 0.07209284 -0.07525933
0.08725078 -0.08005893 -0.051159684 0.017859884 -0.01768193 -0.06119975 0.06493259 0.022494752
-0.026765952 0.036474515 -0.071182 -0.069409996 0.049858503 0.052798107 0.04372121 0.025514534
-0.056406338 0.056014277 0.029243117 0.06122463 -0.066612415 -0.08780716 -0.046278674 -0.053755306
-0.0059891767 -0.020367872 0.06781005 -0.01667587 -0.034212254 0.03648413 0.08812811 9.236673e-05
0.08771809 -0.04930821 0.07376279 0.031016136 0.009375907 0.0703626 0.06466621 -0.042924695
-0.02947594 -0.08561763 -0.022306291 -0.01494347 0.040240318 0.0060952706 -0.04185111 0.08837421
0.008145125 -0.06807075 0.005933677 0.0511936 0.025934804 -0.03736723 -0.02176233 0.06837387
0.039865676 -0.0031125008 -0.040854257 0.063079156 -0.03981736 0.03870497 0.06504495 -0.07129535
-0.047488082 -0.06129695 -0.010190761 -0.04068445 -0.058318187 0.0847236 0.09159636 -0.017668013
0.021667546 -0.0022355185 0.0001760582 0.05765764 0.03667638 0.066730656 -0.036572855 -0.081105724
-0.017446699 0.00830487 0.0028499514 0.06175738 0.03521796 0.037477966 0.008638898 -0.008104913
-0.012122922 0.008400135 -0.01740668 0.013128969 0.058814555 0.046168387 0.050210215 0.038672112
-0.02095611 -0.030986395 0.05135295 0.007943431 0.08599744 -0.013077953 0.09750094 -0.071637005
0.09569063 -0.029658858 0.0070795664 -0.025615636 -0.0021985867 0.028782714 0.099060945 -0.019862683
-0.010291542 -0.054908544 -0.016380083 -4.1348518e-05 0.08828545 -0.082320616 -0.06533338 -0.0014052287
-0.031844642 0.037170265 0.03835771 -0.06304969 0.019661548 0.01487322 0.008545287 -0.07456669
00000000: 4958 f13b 9e92 3e3d e616 b2bc 389e 2ebc
00000010: e4ae de3c 6270 80bd c141 803c 6a49 7f3d
00000020: 9898 813d a0f4 203d bf4b 52bd 9486 33bd
00000030: b6e9 883d 7e47 acbd d301 a03d ff9f d8bc
00000040: 7d8b 2f3d c4c5 cbbb e57f a13d 1721 73bd
00000050: f3fa 9b3d 0123 a13d 4ab0 9bbb da24 ac3d
00000060: 0a07 51bd bff7 91bc 2f7b abbb 2fc9 3dbc
00000070: 54a2 85bd f6f0 9cba 22c8 a43b 9096 b53d
00000080: 48a6 9fbc 5a2b 633d d2ee 9fbc 8d03 1cbd
00000090: b08a a43d 7d72 b5bd 419c e43c bfff b43c
000000a0: a27b 8a3d b063 32bd 4db6 09bc ee9d 85bd
000000b0: 2dda 2a3d bbea b23c a277 1b3d 0df0 193d
000000c0: b62d d8bc 65ec 76bd dc62 72bc cb13 4a3d
000000d0: 88ca 3f3d 5a77 803d 9d32 7a3d a015 b1bd
000000e0: b654 e53c 3e92 383d ce43 02bd 3132 9ebd
000000f0: ffe2 c13c b2ca 23bd cbff 79bd c913 a13d
00000100: d4a3 20bd d130 44bd 0352 a5bd 5322 943d
00000110: 7e01 823d 4da0 153d 5e5b a83c 9525 93bd
00000120: db3a 85bd 0ef5 543d 95e9 31bd 7247 95bd
00000130: f2b0 eabc a90f 57bd 6fc7 1f3d 6197 13bd
00000140: cc18 8fbd 82af 81bc ce2c 71bd da21 80bd
00000150: a1ae 00bd 0b45 16bd 982b 4cbd 08fc b13d
00000160: b275 fa3c 6984 35bd b90e d53c 4306 a4bd
00000170: b988 88bd db2d e53a 1739 ce3d 8bae a83d
00000180: 52a9 a0bb 0e21 bfbc 767a 00bd dd7f 88bc
00000190: 4bbf efbc a84b abbd fcfd 49bd 903d 7cbc
000001a0: bed0 3d3c 405d b93d 10c4 d23d e3ba af3d
000001b0: 6558 8c3d 7652 ac3d 819e 8c3d c1ad 423d
000001c0: 4a4d 1d3d 36ef 623d 40b0 4b3b cae8 a7bc
000001d0: f55e 0d3d 0b03 8dbd 915e 513d 083c cc3d
000001e0: 8481 9b3d eea2 92bd afa0 8f3d 147e 9c3c
000001f0: 4c8c 5c3d 61cc 143d 69a5 933d 9021 9abd
00000200: 89b0 b23d f0f5 a3bd d18c 51bd e44e 923c
00000210: b2d9 90bc 97ac 7abd 61fb 843d ea46 b83c
00000220: 4544 dbbc 4d66 153d dec7 91bd d426 8ebd
00000230: 6e38 4c3d d442 583d 0315 333d db03 d13c
00000240: 550a 67bd 3a6f 653d 438f ef3c adc6 7a3d
00000250: 176c 88bd 3ed4 b3bd b58e 3dbd 862e 5cbd
00000260: db40 c4bb 86da a6bc ffdf 8a3d d69b 88bc
00000270: 2622 0cbd 6270 153d 837c b43d 03b5 c138
00000280: 8ba5 b33d 68f7 49bd f210 973d 8d15 fe3c
00000290: 679d 193c 441a 903d b86f 843d ced1 2fbd
000002a0: 8777 f1bc 4c58 afbd afbb b6bc 75d5 74bc
000002b0: 08d3 243d d6ba c73b 126c 2bbd 8afd b43d
000002c0: 2173 053c ad68 8bbd 4a6f c23b 61b0 513d
000002d0: 3a75 d43c 610e 19bd ea46 b2bc 9907 8c3d
000002e0: 314a 233d 19fb 4bbb cb56 27bd a52f 813d
000002f0: 8717 23bd 1a89 1e3d 4936 853d 4c03 92bd
00000300: dd82 42bd 8312 7bbd 26f7 26bc bda4 26bd
00000310: 0ddf 6ebd 9183 ad3d df96 bb3d 82bc 90bc
00000320: 2380 b13c c781 12bb 439c 3839 6b2a 6c3d
00000330: f939 163d 15aa 883d 6bcd 15bd c21a a6bd
00000340: 61ec 8ebc 2611 083c 40c6 3a3b 4ef5 7c3d
00000350: b540 103d 7f82 193d 2a8a 0d3c 78ca 04bc
00000360: 389f 46bc b8a0 093c 7498 8ebc e31a 573c
00000370: 88e7 703d 101b 3d3d 3aa9 4d3d a666 1e3d
00000380: 26ac abbc 2ed7 fdbc 7957 523d 2a25 023c
00000390: 6d1f b03d e944 56bc 93ae c73d 6cb6 92bd
000003a0: 73f9 c33d 22f7 f2bc b5fb e73b e2d7 d1bc
000003b0: 2a16 10bb bac9 eb3c 77e0 ca3d 11b7 a2bc
000003c0: db9d 28bc c8e7 60bd 862f 86bc a26d 2db8
000003d0: 01cf b43d b697 a8bd 82cd 85bd a72f b8ba
000003e0: 876f 02bd d93f 183d f91c 1d3d 3220 81bd
000003f0: 4111 a13c ceae 733c 8801 0c3c 6cb6 98bd

6.bias f4 [128]
-0.018786723 0.114915535 0.04397879 0.03947804 -0.040100977 -0.0068523353 0.12840948 0.0672153
0.122175515 0.13216661 0.064690664 -0.10465048 -0.08327539 0.023340803 0.016086701 0.045248218
-0.087959155 -0.002256812 -0.07693561 0.032082275 0.049618002 0.121573485 -0.042748414 -0.037006952
-0.00040495017 0.036027934 0.030125825 -0.06562473 0.03103095 -0.062365916 0.07003902 -0.039552625
0.15463267 -0.03885015 0.028691905 -0.066900544 -0.08425447 0.039035723 -0.013465801 0.12556922
-0.026369845 0.18453841 0.07678349 0.0057391147 -0.08568195 0.0486013 0.078472875 -0.052525617
-0.028208153 0.017218074 -0.067376174 -0.079024255 0.07694682 -0.056061734 0.110345915 0.09469321
-0.055553794 -0.0020182857 0.15746568 0.0092477 0.0441719 -0.043534502 0.005714392 0.22841977
-0.0010960991 -0.027924653 -0.041783333 0.06336095 -0.08476825 -0.049094133 -0.01660507 0.049580865
0.0019241862 -0.07784645 -0.026793685 0.14169575 -0.011319857 -0.1200994 -0.034448177 -0.034628276
-0.036041677 -0.0024803707 -0.050570477 -0.035707906 -0.03333768 -0.030320246 0.01099858 0.029178565
-0.016271759 0.053258866 0.012291363 0.08275849 -0.047210567 -0.074439295 0.0015813896 -0.07196526
-0.027374271 -0.030119708 0.01605796 0.078559555 -0.03192992 0.15700828 -0.017430235 0.24613371
-0.063782424 -0.07045327 -0.04512621 -0.03391713 0.015196019 -0.043937553 0.07555205 0.0007248298
-0.06125001 0.041853976 -0.05007482 0.03335695 0.044824842 -0.07578007 0.037155773 -0.04961388
-0.0655407 -0.034018967 0.18242219 -0.008259525 0.03613988 0.15291546 0.11353885 -0.0019622145
00000000: 9de6 99bc d658 eb3d 1b23 343d bab3 213d
00000010: ec40 24bd 8e89 e0bb c67d 033e 2da8 893d
00000020: 2837 fa3d af56 073e 8a7c 843d fe52 d6bd
00000030: 4a8c aabd 3635 bf3c 42c8 833c 3256 393d
00000040: ee23 b4bd 06e7 13bb 6b90 9dbd b468 033d
00000050: 3f3c 4b3d 85fb f83d f618 2fbd 9a94 17bd
00000060: 7e4f d4b9 0792 133d 6fca f63c 4266 86bd
00000070: 9e34 fe3c 6773 7fbd 9e70 8f3d ef01 22bd
00000080: 0758 1e3e 5621 1fbd 490b eb3c 2703 89bd
00000090: 9c8d acbd ece3 1f3d aa9f 5cbc 3895 003e
000000a0: 9305 d8bc a3f7 3c3e aa40 9d3d 2f0f bc3b
000000b0: 057a afbd 2812 473d 63b6 a03d 1a25 57bd
000000c0: c914 e7bc eb0c 8d3c 85fc 89bd 78d7 a1bd
000000d0: 4b96 9d3d fda0 65bd 0afd e13d 84ee c13d
000000e0: 608c 63bd 3745 04bb af3e 213e aa83 173c
000000f0: 98ed 343d 3c51 32bd cb3f bb3b dfe6 693e
00000100: fcaa 8fba 3ec2 e4bc 0025 2bbd 63c3 813d
00000110: fa9a adbd ee16 49bd 5b07 88bc 4e15 4b3d
00000120: fa34 fc3a f66d 9fbd 6e7e dbbc b118 113e
00000130: ec76 39bc adf6 f5bd 8819 0dbd 61d6 0dbd
00000140: 70a0 13bd b78d 22bb fd22 4fbd 7442 12bd
00000150: 178d 08bd 2a62 f8bc 6333 343c e307 ef3c
00000160: 5a4c 85bc f825 5a3d b761 493c 497d a93d
00000170: de5f 41bd a173 98bd a146 cf3a 8662 93bd
00000180: 0240 e0bc 9bbd f6bc fc8b 833c d5e3 a03d
00000190: f3c8 02bd c7c6 203e dac9 8ebc 7a0a 7c3e
000001a0: 5ca0 82bd ce49 90bd 43d6 38bd b0ec 0abd
000001b0: b9f8 783c ddf7 33bd 08bb 9a3d 8102 3e3a
000001c0: 4ae1 7abd 136f 2b3d 411b 4dbd 4ca1 083d
000001d0: 419a 373d 9532 9bbd a730 183d ed37 4bbd
000001e0: 343a 86bd 7957 0bbd e2cc 3a3e f552 07bc
000001f0: 6907 143d df95 1c3e 0e87 e83d 7f98 00bb

8.weight f4 [49, 128]
0.077694155 -0.074600786 -0.01683759 0.042298824 -0.12484022 0.08252388 -0.16604187 0.10141673
-0.11668513 -0.15101463 -0.084571704 0.014388761 -0.0033437742 0.012641559 0.036452845 0.0075140386
0.03334823 0.063252054 0.013595194 0.06639403 0.06932085 -0.052033633 -0.081062846 0.09989945
-0.027066194 0.04225729 0.07018081 -0.01782711 -0.058266837 0.008981482 0.08501064 0.06413
-0.091073565 0.08278962 0.027620029 0.07797029 -0.080165565 -0.010753673 0.037909348 -0.16811326
0.008308733 -0.19673763 -0.025743807 -0.024296695 0.044153117 0.07008323 0.0033981523 -0.012462362
0.0049700453 0.03941362 -0.02574614 -0.024346588 -0.040561836 0.05749996 -0.01990686 -0.07678135
0.06629366 0.06537474 -0.022462845 -0.07183742 -0.0088009415 -0.07698067 -0.039391704 -0.1514607
-0.06994417 0.084490284 0.004136689 0.0021443595 -0.030876886 0.055062883 0.12047242 0.08530232
-0.0054246928 0.029069647 0.08668084 -0.10235555 -0.052249186 0.002607175 -0.019514382 0.039784353
-0.034043632 0.09363073 -0.0425649 -0.08125305 -0.03477968 0.07152734 0.04460025 -0.05883616
0.049657892 0.059756838 0.017313577 -0.05111374 -0.047155436 -0.0019107317 -0.12044159 0.03422442
0.08194005 0.036920026 0.036305033 -0.10397596 -0.025007654 -0.12614556 -0.032180503 -0.22144789
0.10278251 0.1727408 -0.050653394 0.047742553 0.0035671298 -0.052087728 0.027367622 0.06615338
-0.026649402 0.037749883 0.039935254 0.07138783 -0.020055506 0.034679327 -0.1087777 0.0817093
-0.060398657 -0.048622422 -0.19317815 0.00883586 -0.034005377 -0.1226315 -0.04211453 0.07114164
0.042716216 -0.08912379 0.03030197 0.0002101326 0.011505761 0.029980863 0.00016172012 0.07889137
-0.09703204 -0.004886659 -0.119208544 -0.038283575 0.049323097 0.025142035 0.07701727 0.014990812
0.08709477 0.038173694 0.041643895 -0.01874706 0.04087102 -0.13779058 -0.00026036662 0.115860105
0.018136555 0.03456028 0.032382205 -0.06429789 0.012557227 0.003413753 -0.045239557 -0.023315765
-0.093425766 -0.009954533 0.12433094 0.03967887 0.038440917 -0.039875545 0.014340202 -0.06973759
0.034417603 -0.20525776 -0.11265911 0.06738131 0.0456829 -0.044516515 0.08265149 0.06542385
-0.034029257 0.032005686 -0.015892316 0.0099201985 -0.11645165 -0.05973499 -0.014146961 -0.043184903
-0.06550338 0.011448108 -0.15464073 -0.12698144 0.060155123 0.0028897494 -0.046064593 -0.0830336
-0.03388089 -0.06891261 0.06332327 0.010523637 -0.051351942 0.04448075 0.006819977 0.09608964
-0.06269707 -0.021709068 0.025976062 -0.04585998 0.08253057 -0.08848735 -0.06772923 0.0020919056
0.03721777 -0.068785064 0.00024387057 -0.013169757 0.07542378 0.021438085 0.06436727 -0.102152355
0.0880845 0.071615525 -0.03774073 -0.094757676 -0.058127966 -0.055260196 -0.11791839 0.03087449
-0.037836563 0.02728369 -0.025655566 -0.043222953 0.022999069 -0.19515608 0.042371117 -0.16364062
0.09706782 0.0798634 0.0530113 -0.08536322 0.082103096 0.043623917 -0.07367071 0.08796192
-0.014543909 -0.015217101 -0.01928624 0.0037685751 -0.10479988 -0.015149721 -0.02320977 -0.060175166
-0.010522464 0.059906173 -0.13441436 0.006952167 0.016968878 -0.14875963 -0.057105433 0.01264741
00000000: 1d1e 9f3d 4cc8 98bd fcee 89bc 8841 2d3d
00000010: 3bac ffbd 4802 a93d e106 2abe 93b3 cf3d
00000020: 9df8 eebd 94a3 1abe ee33 adbd d6be 6b3c
00000030: 3923 5bbb 8b1e 4f3c 944f 153d 5338 f63b
00000040: 2798 083d 4b8a 813d 60be 5e3c 98f9 873d
00000050: 17f8 8d3d 3821 55bd 4704 a6bd 1598 cc3d
00000060: ecb9 ddbc fb15 2d3d f5ba 8f3d 290a 92bc
00000070: 35a9 6ebd 1127 133c 0f1a ae3d 9756 833d
00000080: c784 babd 9b8d a93d 6643 e23c e3ae 9f3d
00000090: d82d a4bd 2c30 30bc d546 1b3d e225 2cbe
000000a0: 5a21 083c 9775 49be ade4 d2bc dd09 c7bc
000000b0: e6d9 343d cc87 8f3d 89b3 5e3b ef2e 4cbc
000000c0: c3db a23b 2d70 213d 92e9 d2bc 7f72 c7bc
000000d0: 2b24 26bd 1485 6b3d b613 a3bc 8a3f 9dbd
000000e0: f8c4 873d 31e3 853d 0004 b8bc 7f1f 93bd
000000f0: d331 10bc 0ba8 9dbd 3259 21bd 8418 1bbe
00000100: e43e 8fbd 3e09 ad3d 108d 873b 6288 0c3b
00000110: 86f1 fcbc 9e89 613d 3eba f63d fcb2 ae3d
00000120: 9fc1 b1bb 7823 ee3c b985 b13d c99f d1bd
00000130: 3e03 56bd 23dd 2a3b a0dc 9fbc ebf4 223d
00000140: 5671 0bbd 78c1 bf3d 8858 2ebd 0068 a6bd
00000150: 2375 0ebd ed7c 923d c0ae 363d 2ffe 70bd
00000160: 1366 4b3d 96c3 743d 34d5 8d3c a45c 51bd
00000170: 0f26 41bd 8471 faba 15aa f6bd e82e 0c3d
00000180: 2fd0 a73d 7439 173d 96b4 143d 59f1 d4bd
00000190: dadc ccbc 4d2c 01be b4cf 03bd 3cc3 62be
000001a0: a37f d23d f7e2 303e ef79 4fbd b28d 433d
000001b0: 82c6 693b f159 55bd 1032 e03c 6c7b 873d
000001c0: d94f dabc 9f9f 1a3d 2693 233d c833 923d
000001d0: 724b a4bc e90b 0e3d d8c6 debd 3557 a73d
000001e0: 9564 77bd 4e28 47bd 7ed0 45be 48c4 103c
000001f0: 3949 0bbd 3926 fbbd 4980 2cbd b5b2 913d
00000200: 33f7 2e3d 8986 b6bd d63b f83c 0a57 5c39
00000210: a982 3c3c 6d9a f53c 6a93 2939 cc91 a13d
00000220: bcb8 c6bd 4420 a0bb 9c23 f4bd 3dcf 1cbd
00000230: 0407 4a3d abf6 cd3c 3bbb 9d3d 069c 753c
00000240: be5e b23d 055c 1c3d ca92 2a3d 6f93 99bc
00000250: 5f68 273d f918 0dbe d181 88b9 1048 ed3d
00000260: 1d93 943c 158f 0d3d 34a3 043d 9dae 83bd
00000270: d4bc 4d3c 45b9 5f3b 1d4d 39bd b400 bfbc
00000280: 0256 bfbd 5618 23bc 38a1 fe3d 5086 223d
00000290: 3974 1d3d 8a54 23bd 2bf3 6a3c 95d2 8ebd
000002a0: 79f9 0c3d 172f 52be d2b9 e6bd 36ff 893d
000002b0: fe1d 3b3d f356 36bd 2f45 a93d f1fc 853d
000002c0: 4362 0bbd 6518 033d 9a30 82bc 5488 223c
000002d0: 347e eebd adac 74bd a8c8 67bc a7e2 30bd
000002e0: a326 86bd d890 3b3c 245a 1ebe 6c07 02be
000002f0: 3865 763d f361 3d3b 3aae 3cbd 850d aabd
00000300: b0c6 0abd 0e22 8dbd a1af 813d 556b 2c3c
00000310: 6a56 52bd 7231 363d 1d7a df3b a5ca c43d
00000320: 5267 80bd 37d7 b1bc c0cb d43c add7 3bbd
00000330: ca05 a93d db38 b5bd 9fb5 8abd 5a18 093b
00000340: a971 183d 2fdf 8cbd 82b7 7f39 f7c5 57bc
00000350: c877 9a3d ec9e af3c fdd2 833d 4135 d1bd
00000360: a565 b43d 29ab 923d 0696 1abd 5010 c2bd
00000370: 9717 6ebd 8458 62bd 327f f1bd 80ec fc3c
00000380: 83fa 1abd 0c82 df3c 9f2b d2bc 8d0a 31bd
00000390: 8b68 bc3c ffd6 47be 568d 2d3d 6891 27be
000003a0: 7ecb c63d 6c8f a33d 6022 593d e9d2 aebd
000003b0: ab25 a83d feae 323d abe0 96bd 6125 b43d
000003c0: 9349 6ebc 2651 79bc 2dfe 9dbc 33fa 763b
000003d0: 52a1 d6bd 8936 78bc 6a22 bebc 3c7a 76bd
000003e0: 6a66 2cbc 2d60 753d eba3 09be 01cf e33b
000003f0: 5102 8b3c 7254 18be 63e7 69bd 1537 4f3c

8.bias f4 [49]
-0.053289812 0.0031156074 -0.11351764 -0.1755027 -0.17083222 -0.05433524 -0.05020995 -0.084159546
-0.12976554 -0.16915046 -0.11909021 -0.13374768 -0.0053742435 -0.2830308 -0.090519674 -0.10728849
-0.09390878 -0.18587552 -0.15504919 -0.104443476 -0.12880462 -0.1376375 -0.18492158 -0.12996423
-0.17183495 -0.21281672 -0.14583115 -0.08570684 -0.17446385 -0.21134081 -0.24162821 -0.21488178
-0.113877185 -0.11230267 -0.059020106 -0.0185039 -0.12051372 -0.14407898 -0.07076535 -0.05815544
-0.052709132 0.025493644 -0.19107725 -0.10966624 -0.039614804 -0.07711724 -0.03881271 -0.061413776
-0.070370086
00000000: 6b46 5abd 382f 4c3b f07b e8bd fbb6 33be
00000010: a4ee 2ebe a18e 5ebd f3a8 4dbd d75b acbd
00000020: 42e1 04be c735 2dbe 91e5 f3bd 27f5 08be
00000030: 6c1a b0bb 6ae9 90be 6162 b9bd 11ba dbbd
00000040: 3f53 c0bd 2756 3ebe 37c5 1ebe 76e6 d5bd
00000050: 5ce5 03be d8f0 0cbe 155c 3dbe 5815 05be
00000060: 80f5 2fbe a0ec 59be c354 15be 1187 afbd
00000070: a7a6 32be ba69 58be 636d 77be f809 5cbe
00000080: 7138 e9bd f1fe e5bd 11bf 71bd 7e95 97bc
00000090: e6cf f6bd 7189 13be 6ced 90bd 6634 6ebd
000000a0: 88e5 57bd 0cd8 d03c c1a9 43be b298 e0bd
000000b0: 2243 22bd a5ef 9dbd 14fa 1ebd 038d 7bbd
000000c0: 311e 90bd
