models/snapsRandom/model_1685824114.36469.pt (torch, 252667 bytes, 10 tensors)

0.weight f4 [128, 49]
00000000: f74b 86bd c8aa c53d 2519 ba3d f566 50be
00000010: 03e4 083d e843 7cbd 2270 d63c 10f4 053e
00000020: 2f7f b7bc 3334 1abe 67a4 b03d c9ca 143e
00000030: efae 52bd c7d3 bd3d 32d9 0c3c de9c c3bd
00000040: 616e d83c d49e 8ebc 8386 54bb b137 3c3d
00000050: 5222 a6bd 2391 10bd 967e 153e a9cc 583b
00000060: fe35 203d 934f acbd b33d 60be 53d4 45bc
00000070: 9ee1 f93d 913f 25be c695 233d 3e93 29bd
00000080: 754f 283c 3e66 bbbb 1a21 53bd ae40 843e
00000090: ce1b 823c 8404 b9bd 56fb 57be 32c8 2dbd
000000a0: 62b2 093d a65b 0f3e a070 6e3c 03f7 1bbd
000000b0: eb0e dfbd b035 fa3d e7b6 e23d 6ebc d3bc
000000c0: 9db3 37bd fb8d ccbb 05b3 d4bd 0032 f3bd
000000d0: ad67 01bd 046b 483d 2f09 1f3d 63a5 113e
000000e0: 7ced 36bc e82d d0bd 8f36 b0bb 48ba 2c3e
000000f0: bf14 f43d 530e 8e3d 0939 d63d eddc 4bbe
00000100: 4299 5ebd 1d6c 8a3c 5344 ccbc a22c bfbd
00000110: fb45 813e 4f78 bd3d dabd d9bd 27d1 e2bc
00000120: 7db9 3a3e 20a2 b6bd 741a cdbd 4f81 123b
00000130: 2406 8bbc db56 e8bd 6951 e13d cf7b 233e
00000140: d978 11be 556c 15be f48e a7bd ba8d fc3d
00000150: 0148 e7bd 0204 6a3d ff98 4b3d 1b29 0dbe
00000160: 0e31 cd3d 0e75 2e3e 2e73 843c 17e7 023d
00000170: 1466 59bc 4161 29be 7736 533d a082 e13d
00000180: eb28 fa3c 204e dfbd 6767 9a3c 87bf 25be
00000190: d1db 193d 2185 73be 7c84 c73c 7f42 33be
000001a0: 68cd d0bb f84e c13d 5197 ab3d 623d fcbc
000001b0: 8568 66bd ed21 3f3e c97a 13be b957 273e
000001c0: f011 babd 8b73 a83c 0b74 1d3e 039f 21be
000001d0: 68e6 0abe 6e61 2b3d 191f 06bd b75e d73d
000001e0: 6182 8fbd 3781 fbbd c97e 78bd 2d38 3c3d
000001f0: 066c 0fbe 2e29 683d 84da 05be e4fb 7f3d
00000200: b9a0 c83c 418d 06bd 7349 a43d eba5 04be
00000210: 734b cf3c 6aab 2cbe 0c31 9ebc 4999 84bd
00000220: d8cb abbd dab0 98bd 57eb b6bd 95a4 2a3e
00000230: 90b2 54bd 8b13 e1bc e980 85bd b263 933d
00000240: dedb 01bd d585 6ebd 0ea9 973d d757 023d
00000250: ddd8 ac3d 15e4 1dbc 06ce 833d 0753 503e
00000260: 6042 5a3c 1ce5 fe3d 79d3 eb3d 7d04 c43d
00000270: 9237 143e b735 0f3d 2c68 69bd 17b2 943c
00000280: 3606 bfbd 5ed5 fd3d c43f 143e ffc7 a73d
00000290: 9647 ec3d 1590 8abd 248a 1ebe 95cc e13d
000002a0: 943a 503d b7db 143d 1b69 e43c 7bfc 163c
000002b0: 5465 01be 87b1 69be 6384 a03d fffa 4fbd
000002c0: 5f29 94bd 39cb b5bd a349 843d 11ab 68bd
000002d0: 0686 b3bc 7a5c a93e ac33 e93c 95ea 493e
000002e0: 34cb 643d f082 d0bd eda8 97bd 8c7c a33d
000002f0: f8e7 96bd 7824 0cbe 9b18 2a3c 1389 d7bd
00000300: 01e7 13bd d575 a0bd 9e26 1a3c 61c6 9a3d
00000310: 32f6 a23c a949 73bd ea85 183d 3a36 bebc
00000320: dfb5 29be 000b 243d 812a 8d3e 19a3 dc3c
00000330: 9b69 b03c 7dba 1abc 2b22 3e3d c4f9 01be
00000340: e11f 89bd 8b31 e5bd feef d1bd 0706 d4bd
00000350: 1581 4b3d 8f28 1a3d 7d38 4bbe b2ff 553d
00000360: dd2c 97bd e701 883c ed0e 17bd 9a4b 53bc
00000370: 3f2b cfbd 219c 7d3d a591 11be 32c0 0fbe
00000380: f805 7ebc a745 0fbd 8758 9f3e 7940 603b
00000390: e55f 413c a506 b93d 95a0 283b 54b8 d4bb
000003a0: 1d81 d53d 77e2 e43d aa8b 16be 337d cbbc
000003b0: 53a5 7dbe 0385 6cbd b937 94be 20d6 4e3d
000003c0: da82 31bb e1ad 01bc 9e20 f73c 839f b73d
000003d0: 0991 e4bc 15d1 bfbb 66dc e33d 606f 903c
000003e0: 3066 d33d ba3a 143e 14c0 68bd 2fdd 5e3d
000003f0: 0bb8 eabd 8cd5 583e 8714 c13d ac85 0ebd
-0.06557458 0.096517146 0.09086827 -0.20351775 0.033420574 -0.061588198 0.026176516 0.13081384
-0.022399513 -0.15058975 0.08625107 0.14530481 -0.05143636 0.09268909 0.008596705 -0.095514044
0.02641982 -0.01740972 -0.0032428808 0.04595155 -0.08112015 -0.035294663 0.1459907 0.0033080971
0.03911399 -0.08413615 -0.21898536 -0.012074548 0.12201236 -0.1613753 0.039937757 -0.041400187
0.01027285 -0.0057189753 -0.05154524 0.25830597 0.015882399 -0.090340644 -0.21091971 -0.04242725
0.033617385 0.13999805 0.014553219 -0.038077366 -0.10891517 0.12217271 0.11070042 -0.025846686
-0.044849027 -0.0062425113 -0.10385708 -0.11874771 -0.031593014 0.048930183 0.038827118 0.14223246
-0.011165019 -0.10165006 -0.0053775976 0.16867936 0.119180195 0.06936326 0.10460097 -0.19908495
-0.054345377 0.016897256 -0.024934923 -0.09334685 0.25248703 0.09251463 -0.106319144 -0.027687622
0.1823482 -0.08917642 -0.10014811 0.0022354906 -0.016970702 -0.11344691 0.11001856 0.15965198
-0.14206256 -0.14592107 -0.08181563 0.1233172 -0.112930305 0.05713273 0.049706455 -0.13785212
0.10019122 0.1703684 0.016168203 0.031958666 -0.013268966 -0.16541006 0.051565614 0.11011243
0.03053709 -0.10903573 0.018848134 -0.16186343 0.03756315 -0.23781253 0.024355166 -0.17505835
-0.0063721426 0.0943889 0.08378471 -0.030790988 -0.05625202 0.18665285 -0.14402308 0.16342057
-0.090854526 0.020562908 0.15376298 -0.15783314 -0.13564456 0.041840963 -0.0327445 0.10516112
-0.0700729 -0.12280505 -0.060667787 0.04595201 -0.14006051 0.056679897 -0.13071638 0.06249608
0.024490701 -0.032849554 0.08021822 -0.12953918 0.025304532 -0.16862264 -0.019310497 -0.06474549
-0.083884895 -0.07455607 -0.08931606 0.16664346 -0.051928103 -0.02747514 -0.06518728 0.0719675
-0.031703822 -0.0582331 0.074052915 0.03182205 0.08439801 -0.0096368985 0.0643578 0.20344172
0.013321489 0.12446043 0.115149446 0.095711686 0.14474323 0.034963336 -0.05698411 0.018151326
-0.093273565 0.12394212 0.1447745 0.08192443 0.115370914 -0.06765763 -0.15482384 0.11025349
0.050837114 0.03634235 0.02788215 0.0092154695 -0.1263631 -0.22821628 0.07837751 -0.050776478
-0.072344534 -0.08876652 0.064593576 -0.056803767 -0.021914493 0.33078367 0.028467022 0.19718392
0.055857852 -0.10181224 -0.07405267 0.0798274 -0.07368463 -0.13685787 0.010381843 -0.10524192
-0.036108974 -0.07834975 0.009408621 0.07557369 0.019892786 -0.05939642 0.037237085 -0.023219217
-0.16573285 0.040049553 0.2757149 0.02693324 0.021534732 -0.009443876 0.046419304 -0.12692934
-0.066955335 -0.1119109 -0.10250853 -0.10352712 0.04968365 0.037636336 -0.19845767 0.052245803
-0.07381604 0.01660247 -0.03687947 -0.012896443 -0.101156704 0.061916474 -0.14215715 -0.1403816
-0.015504353 -0.034978535 0.31122229 0.0034218116 0.011802648 0.090344705 0.002573048 -0.0064917
0.10425017 0.11176007 -0.14701715 -0.024839973 -0.24770097 -0.057744037 -0.28948763 0.050497174
-0.002708605 -0.007914991 0.03016692 0.08965971 -0.02790119 -0.005853782 0.11126022 0.017631233
0.10322225 0.14475527 -0.056823805 0.054410156 -0.11460885 0.21175212 0.094277434 -0.03479545

0.bias f4 [128]
00000000: c6cc f83d 43b3 413e e32a cabc 91dd 41be
00000010: 474d 9b3d 5a8e 433e 0b7e f6bd bcbc ea3e
00000020: e47b c63e c998 7abe 80b4 8a3e 93c6 853e
00000030: b4e1 a1bd 1415 d6bd 6ee5 763e dfaa 153d
00000040: bd8f b6bd a0f6 35be 0bdb fcbc 5451 663e
00000050: ab0f 0c3c 518e 43be 30f9 67be e43f 04be
00000060: 3f00 f8bd f21a 8bbd eef0 b43e d9f9 033f
00000070: 9b6b 21be a8ab 8c3e 4b7a d93d 55ce b4be
00000080: 341d d1bd ba07 a0be aed5 d9bd deb8 2d3d
00000090: ed36 933e d9e5 5abd 80bb 183d b5b0 83bd
000000a0: b97a 2fbe 98cd 64bd 845e 123d 1e85 fcbd
000000b0: bd06 e4bd 4d79 b0bd 64c1 693e fda1 d43d
000000c0: 75d0 95be 646a 813e 5eb2 1fbe f2f4 18bd
000000d0: f4b6 8ebe 4985 c4bd 1f73 613e b1d2 6cbc
000000e0: ce84 d13e 095b 3abe 6279 73bd 477f 90be
000000f0: 7adb 02bd 7d88 77be 6b5d 35be d6f5 34be
00000100: c425 43be 6f88 2b3e 789e 36be d225 c1bc
00000110: 4833 e2bd 59ca d5bd 3b7a da3e 84f2 1abe
00000120: 4a85 3b3e d046 71be 56d6 4a3d b77b 8abe
00000130: 7c5e 88bd 4d31 9ebc db08 1bbe 7744 8ebe
00000140: ef06 9fbe 3102 63be b26b 4ebe 97d6 db3c
00000150: 26fa 95be d8f4 dfbd 7dcf c63e 72d9 043e
00000160: a37a b3bd aac2 7abe 66f8 2a3c 1b66 ecbd
00000170: 8c92 3ebe 49f6 36be 5c34 923e e7b5 94be
00000180: 0b29 25bd 8c6d a9bd e276 d23d f399 89be
00000190: be07 7d3e 0470 52be 9937 61be 62ef babe
000001a0: e688 a4be 84fe b6be f31b 933e 92f3 1cbe
000001b0: 5bc5 fbbd a44b c7bd ff90 4dbe c972 b4bd
000001c0: 4353 05bd 9f13 c7be b8f9 ed3e c54e 68be
000001d0: 2daf a43c cc15 0dbd 7801 90be bbad 0dbe
000001e0: caf6 253e 48b1 cfbe e6ba 883e 24ed edbc
000001f0: a6d5 e53d 198f d73d aba5 af3b 6925 813d
0.121484324 0.18916039 -0.024678653 -0.18932177 0.07583099 0.19097272 -0.120357595 0.45847118
0.38766396 -0.24472345 0.27090836 0.26128063 -0.079043776 -0.10453239 0.24110958 0.03653991
-0.08914135 -0.17769861 -0.030866167 0.22491962 0.008548657 -0.19097258 -0.22653651 -0.12914997
-0.12109422 -0.06792249 0.35340065 0.5155311 -0.15763704 0.27474713 0.10619029 -0.3531367
-0.10210648 -0.31255895 -0.10636459 0.04241263 0.28752843 -0.053441856 0.03728819 -0.064301886
-0.17136659 -0.055860132 0.03573467 -0.123300776 -0.11134098 -0.08616886 0.22827679 0.10382459
-0.29260603 0.25276482 -0.15595385 -0.037342973 -0.27873957 -0.095957346 0.22016571 -0.01445453
0.40921634 -0.1819879 -0.05944193 -0.28222105 -0.03194759 -0.2417316 -0.17711417 -0.17671904
-0.19057375 0.16751264 -0.17833889 -0.023577604 -0.11044937 -0.104389854 0.4267138 -0.15131575
0.18312564 -0.23562169 0.049520813 -0.27047512 -0.066586465 -0.019310618 -0.15140097 -0.2778661
-0.31059977 -0.22168805 -0.2015827 0.026835723 -0.2929241 -0.10935372 0.38830176 0.12973574
-0.087636255 -0.24488321 0.010435199 -0.115429126 -0.1861059 -0.17867388 0.28555572 -0.2904503
-0.040322345 -0.082728475 0.10276581 -0.26875266 0.24709985 -0.20550543 -0.21993865 -0.3651076
-0.32135695 -0.35741055 0.2873226 -0.1532729 -0.12293502 -0.09731224 -0.20074843 -0.08810956
-0.032550108 -0.38882157 0.46479583 -0.22686298 0.020103062 -0.034444615 -0.2812612 -0.13835804
0.16207424 -0.40564942 0.26705092 -0.029043742 0.11222391 0.105253406 0.0053603253 0.063059635

2.weight f4 [128, 128]
00000000: 0417 2c3d 2c06 4abc 906f 07bd ca4a 80bd
00000010: bd7f 8e3d 2284 25ba eff3 34bd 3eb6 2f3c
00000020: b499 053c 7c96 01bd cce6 433c 5764 8f3d
00000030: 6bc3 51bb 81e7 3fbd a74c 8d3d 7e90 7cbd
00000040: 6bfa 82bd 9dc7 29bd fecb b4bd 66b1 053d
00000050: cfa7 a43d 9836 a9bd f38e 203d bea2 813b
00000060: ee23 2bbc bc3a 7dbd c53f f5bc 37ec a4bc
00000070: 4fcd ac3c 4a5c dc3c 00dd 9dbd 0cbe a0bc
00000080: 97fb 56bc 8047 b6bb 706d 86bd 2b7d 223d
00000090: 9114 7a3c 6302 6dbd 916e 5abd 039c 5cbc
000000a0: dcd9 423c 39af 81bd f7d8 7a3b 6e7c 36bd
000000b0: 3f42 08bc 2355 af3b 39d4 b33c 1088 ac3b
000000c0: 1364 61bd 4de4 82bd 3234 0c3d 555b a23d
000000d0: 0b9c 62bd f184 60bd 23c0 3a3c 8fce a2bc
000000e0: 9cd5 ba3d da36 923d 0986 093c 6612 b83d
000000f0: 47eb a13d 34e0 c3bb 7e27 713d 163a babd
00000100: 9d66 d3bc 5722 753d 7b57 6bbd 3c28 febb
00000110: 21ac 99bd 0dad b13d ed63 833d 2767 3bbd
00000120: 2295 a73d e90e 49bd 886e 723d 7f0c b1bb
00000130: e87c 8bbc a49c 843d f99f b1bd 01a7 3fbd
00000140: b575 e7bb 21b2 b2bd b574 893c 4378 9ebd
00000150: 0cdd 81bd ac25 fd3c ffce 3a3b d5e3 a23d
00000160: 4bd3 a5bd b75a 913d 65dd 713d c508 5dbc
00000170: a679 2f3d 6837 a2bd 3e49 a6bd 071e 72bd
00000180: 63ee 98bd 0a4e 9ebd 04c0 f23c e2fc ad3d
00000190: 0792 413b 63cc 0ebd 8475 75bd a6b0 e7bc
000001a0: 0ec4 543d 9a26 50bd 6d38 26bd a293 a5bd
000001b0: 4d07 bc3c 2673 8e3d 1fd1 333d a365 983d
000001c0: 0732 7a3d 033f 70bb adee 80bd 5698 933d
000001d0: 8062 4cbd 5763 b93d e7db 58bd c3e4 d03b
000001e0: 17a9 a83c 7e65 623d f2ca a23b f64f a9bd
000001f0: 32d3 ba3a 57fa b83d 126e 293c 05bb 453d
00000200: f635 febc 9091 62bd 3957 543d e873 363d
00000210: 25c1 9ebc 3ee4 d9bc 9d71 1bbd c9bf ff3b
00000220: 010c 813d a8d7 acbd 0dea 243b d33f 543c
00000230: 8fd7 d5bb ebfc 463d 8c92 d83c 4f71 843d
00000240: 711c 43bd 6027 86bc dfef 80bc cab9 3bbd
00000250: f0db 22bd e839 02bd a5e4 02bd 2161 38bd
00000260: 3065 c13b 61b4 a8bd 1b85 ab3d 3e8a 0abd
00000270: e3e1 6c3d 413b 8f3b 85af 99bd 8f10 b7bd
00000280: f689 72bc e384 4f3d e36a f33b 5ace 593d
00000290: 4b8c 6cbd e2d1 aebd 393d b0bd b4dc 943c
000002a0: fc32 303d 1b29 26bd 2c84 b03c 1a2b 90bd
000002b0: 2baa 61bc cd37 963d 7350 19bd 7e90 8f3d
000002c0: 0a13 65bd 7106 56bd 106c 953d b14c 913d
000002d0: 3a4c 913c a718 bdbc 7dc9 123d 6b5c e23c
000002e0: cec1 24bd 5261 93bd 248f 53bc d61d 3dbd
000002f0: 336c 12bd 8ee5 993c 6526 923d 4534 893d
00000300: 96fe 843d d10b 023d a60d dc3c e61d 97bc
00000310: ab3e 023c 8ae7 c0bb 6fd9 85bd b6c5 b03d
00000320: c2c3 773d 0903 063c 4cec 2b3d 9c79 313d
00000330: 3a50 853d 9c51 433d 0e58 87bc 3223 a7bc
00000340: fa70 60bd ec5d f53b 6ae6 893d 6413 a6bd
00000350: 57b7 a53c efcc 5ebd 19f8 953d 5f27 a3bd
00000360: acf7 323c 92a0 563d 9706 f3bc 2375 d53b
00000370: b481 d13c d5e9 8abb fef5 23bd 45dd a83d
00000380: 83f8 aebd c7d7 71bd d184 f5bc ba31 a73b
00000390: ee5a b2bc cc2f 703c 348a 91bc 9dc0 33bd
000003a0: 2b99 a23b f310 883d 2108 173d b6fe bc3c
000003b0: 2cd3 5fbd 34e4 333d b606 56bc 215d 5e3d
000003c0: 7bf4 08bd f472 8ebd 9e26 5f3d 1890 9bbc
000003d0: 0bbe 07bd f8c2 213d 9981 e0b9 0739 0bbd
000003e0: 7294 7bbc eb01 06bb 3ee0 653b 38b0 793d
000003f0: 9803 1fbd 897c 0bbd 4aee bbbb d222 daba
0.042014137 -0.012330573 -0.03306538 -0.06264265 0.06957958 -0.000631394 -0.044177946 0.010724602
0.008154321 -0.031637654 0.011956882 0.0700156 -0.0032007347 -0.04685164 0.06899386 -0.061661236
-0.0639542 -0.04145013 -0.08827971 0.032639883 0.080398194 -0.08262366 0.039198827 0.003956168
-0.010445578 -0.06182359 -0.029937634 -0.020132167 0.021093993 0.026899476 -0.07708168 -0.019621871
-0.013121507 -0.0055627227 -0.06563842 0.03967015 0.0152636925 -0.057863604 -0.0533281 -0.0134649305
0.011892762 -0.06332249 0.0038276294 -0.04455226 -0.008316576 0.0053507253 0.021951782 0.0052652434
-0.05502708 -0.06391201 0.034229465 0.079275765 -0.055324595 -0.054814283 0.011398348 -0.019873885
0.09122774 0.07139368 0.008393773 0.08987884 0.07906204 -0.005977655 0.058875553 -0.0909311
-0.025805766 0.059847202 -0.057456475 -0.007756261 -0.07503534 0.08675585 0.06415544 -0.04575267
0.08182742 -0.049086485 0.059187442 -0.005403101 -0.017027333 0.06475189 -0.086730905 -0.046790127
-0.0070635923 -0.08725382 0.016779283 -0.07737782 -0.063409895 0.030901752 0.0028504727 0.07953612
-0.080969416 0.070973806 0.05904903 -0.01349086 0.042840622 -0.07920724 -0.081194386 -0.059110668
-0.07467344 -0.077297285 0.029632576 0.08495499 0.0029536502 -0.034862887 -0.059926525 -0.028282475
0.051944785 -0.050818063 -0.040581156 -0.08084799 0.0229527 0.069555566 0.043900605 0.07441261
0.061082866 -0.0036658652 -0.06295524 0.0720679 -0.049898624 0.09052151 -0.05294409 0.006374927
0.02058844 0.05527257 0.0049680406 -0.082672045 0.0014253615 0.090321235 0.010341184 0.04827406
-0.03103159 -0.0553146 0.051840995 0.04454413 -0.019379208 -0.026598092 -0.037950147 0.007804845
0.06301118 -0.08439571 0.002516392 0.01295467 -0.0065259407 0.048581045 0.026437066 0.064669244
-0.047634546 -0.016376197 -0.01573938 -0.04583148 -0.03976053 -0.031793505 -0.031956334 -0.045014504
0.005901955 -0.082375295 0.08374997 -0.033823244 0.05783261 0.0043710773 -0.07504181 -0.08938705
-0.0148034 0.05066384 0.0074285134 0.053175308 -0.05775098 -0.08536126 -0.08605427 0.018171646
0.043017372 -0.040566545 0.0215474 -0.07039471 -0.013773481 0.07334862 -0.037430238 0.070099816
-0.05592636 -0.052252237 0.07296002 0.07094706 0.017736543 -0.023083044 0.035836685 0.027631959
-0.04022389 -0.07196297 -0.012912545 -0.046171032 -0.035747718 0.018786218 0.071362294 0.06699423
0.06493871 0.03174955 0.026861977 -0.018446874 0.0079495115 -0.0058869766 -0.06535613 0.0863146
0.060489424 0.008179435 0.041973397 0.043328866 0.065094426 0.04768525 -0.01652148 -0.020402525
-0.054795243 0.007488003 0.06733401 -0.08109167 0.020229025 -0.05439466 0.073227115 -0.07966494
0.010923307 0.052399226 -0.029666228 0.006514208 0.025574543 -0.0042393007 -0.04002952 0.08245329
-0.085434936 -0.059043672 -0.029970558 0.0051023634 -0.021771874 0.014659833 -0.017766096 -0.043884862
0.0049621067 0.06643858 0.036872987 0.023070674 -0.05464475 0.043918803 -0.013063123 0.054288033
-0.03343628 -0.06955519 0.054480188 -0.018989608 -0.033140223 0.039492577 -0.00042821167 -0.033989932
-0.015355216 -0.002044792 0.0035076286 0.06095907 -0.038821787 -0.034054313 -0.0057351934 -0.0016642457

2.bias f4 [128]
00000000: aa74 c23d 8fea 5cbd 2803 9ebd de25 f43c
00000010: 0ca6 c13d 7c6b cabd cb39 08bd 2c9e 6e3d
00000020: a9de 3ebd bc46 efbd e608 6c3c d09d 2bbd
00000030: 2f60 9cbd 662f 23bd 37e7 4dbe ab84 203e
00000040: bd16 d23c bd36 d13c e4b3 00bc 36f2 47bc
00000050: 8107 de3c 0904 7abd b24f 073e d2d5 00bd
00000060: 0a3a ecbd e087 60bd c123 21bd 54c1 ab3b
00000070: 7fc0 28bd 6899 fd3c 1122 803d a8c1 85bb
00000080: 620c 223e 5f80 ea3d 4bc9 57be 92ca 003d
00000090: 1783 9c3d 60b9 b6bc b417 b2be 7bb7 4bbd
000000a0: a1b7 dcbc 987f f8bc a0e5 47bd 73ad ebbd
000000b0: 2ce1 57bc 8eb3 9a3d c8f2 d53d e703 0abd
000000c0: 745f d4bd bf6a 3f3e 8fdb f73d 14d6 db3d
000000d0: bd17 96ba d97b 38bc 2eeb 05bd 387a b33b
000000e0: 468a ad3d 9b78 43bc 8ac1 01bc 1e95 8bbc
000000f0: 8567 e0bd 41d1 ea3c a237 c43d a8d0 7d3d
00000100: e553 5ebd bc6b 983d 147e b53b 5775 4dbd
00000110: 8205 70bb 29f8 3cbe 21e5 81bd 9361 ad3d
00000120: 0414 bebd e283 053e cc8e 19bc 54b9 7f3d
00000130: 6528 edbc 381a 72be 0e9b 04bd c93a ffb8
00000140: 6163 923b c2c6 b73c 3298 febc 7199 bbbc
00000150: 5129 78be f2e1 1c3c 83a2 aabd 3efb f4bd
00000160: 0d0e 9b3e 69c6 48be ed85 9bbd 460e dd3c
00000170: 6d0d 1bbc 2608 823d eabd 32be 7821 d33c
00000180: 478b 483d a2d3 173d 6eb0 3fbd 3d7e fc3d
00000190: 2a52 4c3c 871c 1abc f09f 30bd cb6d 9ebd
000001a0: 158d de3d 80fd 543e 81b8 e2bd 69d8 793d
000001b0: 4551 a4bd 44f7 5bbe 67f2 69bd 0442 1ebe
000001c0: 1782 aa3c d921 b3bd f6e8 98bd 7c31 b13c
000001d0: f9b1 57bd 9020 28bc 233d 773c 9222 6fbc
000001e0: 6096 243d b0c4 aa3d ea97 d23d f196 cdbd
000001f0: a2b8 4cbb a75d e53d 41c0 e7bb 8726 33bc
0.09494908 -0.05393463 -0.07715446 0.029803213 0.09455499 -0.09883782 -0.03325824 0.058256313
-0.046599064 -0.116834134 0.014406418 -0.04189855 -0.07635533 -0.039840125 -0.20107733 0.15675609
0.025645608 0.025538797 -0.007855389 -0.012203744 0.027103188 -0.061039004 0.13213995 -0.031453915
-0.115345076 -0.05481708 -0.03934074 0.0052415524 -0.041199204 0.030956939 0.06256498 -0.0040819235
0.15825036 0.11450266 -0.21072881 0.031443186 0.07642191 -0.02230519 -0.3478371 -0.049735527
-0.02694303 -0.030334279 -0.04880297 -0.11507692 -0.013176244 0.075537786 0.104466975 -0.033695128
-0.10369769 0.18693064 0.12102424 0.107341915 -0.0011451166 -0.011259996 -0.032694988 0.005477216
0.08473639 -0.01193061 -0.007919678 -0.017038878 -0.10957245 0.028664233 0.095809236 0.06196657
-0.054279227 0.07442424 0.0055387113 -0.050160732 -0.0036624377 -0.1845404 -0.06342531 0.084658764
-0.092811614 0.1303859 -0.009372424 0.062432602 -0.028949926 -0.23642814 -0.032374434 -0.00012170297
0.0044674133 0.022433642 -0.031078432 -0.022900315 -0.24234511 0.009575354 -0.08331778 -0.11961983
0.30284157 -0.19606937 -0.07593904 0.026984345 -0.00946365 0.063492104 -0.17455259 0.025772795
0.04896095 0.037067063 -0.046799116 0.123287655 0.012470761 -0.0094062155 -0.04312128 -0.07735785
0.10866753 0.20799828 -0.110703476 0.0609974 -0.080233134 -0.21481043 -0.05711594 -0.1545487
0.020813985 -0.0874669 -0.07466309 0.021630041 -0.052659962 -0.01026167 0.01509026 -0.014595645
0.04018247 0.083382964 0.102828816 -0.100385554 -0.003123798 0.111995034 -0.007072479 -0.010934479

4.weight f4 [128, 128]
00000000: 9a33 443d 4359 c83c a96f 18bd 3428 4f3d
00000010: 5611 ae3a 38ee 4abd 0e48 dc3b 8d4a 14bc
00000020: bc35 d53c 6a89 5f3c 98dc 8a3d 41fc de3b
00000030: 7b52 013c 7bd4 e2bb 54c9 7cbd 2dcc 313d
00000040: 53bb 973d 3881 1cbd 64ed 6cbd 140b 0cbd
00000050: c14e 5abb 7c94 933d 3f42 84bc 193d a63d
00000060: cd4e 923d 4114 90bd 069a b2bd 436a 14bc
00000070: 5244 3bbc 8c06 3d3c a809 0ebc d191 1fbd
00000080: 79a1 7a3c a697 33bd 6895 433d ddfe 803d
00000090: 188d 94bd 1796 88bd 0a7d 893d 55df a1bc
000000a0: 95eb 123d a286 adbd abd3 58bd 69e9 8dbd
000000b0: 1278 fcbc e0e7 88bd 315b 02bd f12b cb3b
000000c0: 4b97 0bbd bd2d 333d 1085 0bbd 0329 8bbd
000000d0: 9ed0 bcbc 3d96 433d 7f20 8ebc 7327 3cbd
000000e0: 3059 06bd 9cdb 8f3d aa01 93bd 1b27 48bd
000000f0: 75d3 98bd d744 993d 1ca6 44bd d8ab a13d
00000100: a265 a3bc 58e3 67bd 8ea6 31bd e90f 8dbd
00000110: e9df 5b3c 080a 09bd 8453 a13d 10c7 023c
00000120: b468 823c 45bc 26bd 53a1 dfbc 8eac 44bd
00000130: 3fca d33c f66b 2e3d 3118 67bd 7638 203d
00000140: 34b0 adbd 8f82 543d 265e 3d3d 5b41 cbbc
00000150: 7a36 8e3c 9f80 79bd 7ef2 89bc bf64 bf3c
00000160: a2f3 303d bb03 92bd 78bf 96bd 2ea7 8d3d
00000170: dae7 fd3c 2a98 9c3d d6c1 a0bd 675b 28bd
00000180: 4342 19bd 045d 81bc 459b 063c b6ab 95bc
00000190: 2cc8 403d e057 5abd 67eb 993d f291 31bd
000001a0: d21c 473d 05ba 943d 9d11 a0bd 25e2 c83c
000001b0: fb04 a73c bc38 a53d 8cb2 493d f3d5 b1bd
000001c0: d872 02bd 12e9 8dbd 8f4c 3fbd cfd6 d8bc
000001d0: 6990 093d 02fa aebd 7259 b03b c0ef a3bd
000001e0: b94d 8bbc 7e33 abbd 8a12 77bd a632 1ebd
000001f0: a9c7 103d 129d 49bd 0c35 56bd 28b0 1e3d
00000200: 6255 29bd fe4d 063d c1a6 c03d 769e 9b3d
00000210: 486c a1bb dbdf 353d 2abc bebc 4c4c 893d
00000220: 3e9d 1ebb 078f d63b 104d a4bd 20c1 9a3d
00000230: 2a61 7a3d a0f3 04bc 8d27 31bd a5e7 edbc
00000240: d405 a5bd 3b83 61bd 14ba 2b3d 6357 61bd
00000250: 8168 073d 70fe 28bd 49d4 1cbd 799f 9cbd
00000260: 9bfa a93b d1bd eebc 2b58 1bbd 0f17 f93a
00000270: 75c6 1ebd eedb 8a3c 683a 773d 33a4 04bd
00000280: 32c1 003d 2f75 b7bc 7d86 af3c 1747 88bd
00000290: 8c82 71bd f67a 2ebd bd60 87bb 0af8 97bc
000002a0: 8539 dabc 77cf 5e3d b7a4 83bd bea6 b43d
000002b0: 6fc3 8b3c 4ddd 7fbb 13a7 833d d693 843d
000002c0: b77b 8cbc cfa4 233d d745 eabc 3264 593d
000002d0: 7463 6c3d 7858 a43c 72b7 283c 53a9 00bd
000002e0: 2b10 cbbc 1d66 903d 6401 e23c 1bae 073d
000002f0: c6b8 d3bb 1acc 23bc 2954 743d fc4b 8bbd
00000300: 60e1 663c 4ee2 7cbc a130 dfbc 5d9f acbd
00000310: 19c4 883d e51b 96bd c534 b8bc d69c 303c
00000320: 7d72 593d f7c0 b4bd ff81 2c3d f6b1 0abd
00000330: 426e ff3c dc77 afbd 1431 99bd 175f aa3d
00000340: 1ebd f43c 6104 4d3c 0e0c 1c3d 8722 b13d
00000350: 7e22 673d 2350 953c b5ca 8fbd c1c6 c03d
00000360: 310d 9d38 06ad 64bc 27fe 973c 8a92 8a3d
00000370: 5002 73bc 0e33 23bd d4d2 543d d6af 763d
00000380: 5934 c93c 3ab9 a53b ae2a 133b fa67 803c
00000390: 3111 91bd 74ba 48bd c44e 203d 3793 be3c
000003a0: c4db 453d f25f 49bb 6097 4abd 1ae3 0fbd
000003b0: 3323 bfbc 71ac 6dbd d429 aa3d c086 64bd
000003c0: e261 4f3c 8a29 b83d f7ed 94bd 3923 94bd
000003d0: 8b6b 113d b615 513d abd5 2fbd 6c1b 303d
000003e0: f0ca 773d 5796 38bd d98f 963d c436 2d3c
000003f0: 7401 a6bc 0ddd e13c a8b9 403d ac67 ab3d
0.047900774 0.024456626 -0.037215862 0.05057545 0.0013280313 -0.04954359 0.006722457 -0.009050977
0.0260266 0.013643602 0.06780356 0.0068049734 0.0078932 -0.0069223023 -0.06171544 0.043407608
0.07408776 -0.03820917 -0.05784358 -0.034190252 -0.00333111 0.072060555 -0.01614487 0.08117122
0.07143936 -0.07035113 -0.08720784 -0.009058538 -0.011429863 0.011537205 -0.008669294 -0.03895742
0.015297287 -0.043845795 0.047749907 0.06298611 -0.07253474 -0.06669252 0.067133024 -0.019759813
0.0358692 -0.08472945 -0.052936237 -0.06929285 -0.030818973 -0.06684852 -0.03182525 0.0062003066
-0.03407983 0.04374479 -0.034062445 -0.06794932 -0.023048695 0.0477507 -0.01734948 -0.04593606
-0.0327999 0.07024309 -0.07178052 -0.04886542 -0.07462207 0.07483833 -0.048009977 0.07894105
-0.019945923 -0.056613296 -0.04337173 -0.068878 0.013420084 -0.033456832 0.078772575 0.0079820305
0.015919067 -0.04070689 -0.027298605 -0.048016123 0.025853274 0.04258343 -0.056419555 0.039116345
-0.08480874 0.051882323 0.046232365 -0.024811437 0.01735996 -0.06091368 -0.016839262 0.02336347
0.043201096 -0.07129618 -0.073607385 0.069166526 0.030994345 0.076462105 -0.07849471 -0.041102793
-0.037416708 -0.015791424 0.00821573 -0.018270355 0.0470659 -0.05330646 0.075156026 -0.043352075
0.04861147 0.07262043 -0.078158595 0.024521897 0.020388117 0.08067462 0.04924254 -0.08683386
-0.031847805 -0.0692922 -0.04670387 -0.026469616 0.033584986 -0.08543779 0.0053817565 -0.08004713
-0.017004834 -0.08359431 -0.060320415 -0.03862252 0.03534666 -0.04922206 -0.052296683 0.038742214
-0.041341193 0.032789223 0.09406806 0.075985834 -0.004926238 0.04440294 -0.023283083 0.067040056
-0.002420261 0.006547812 -0.08022511 0.07556367 0.06112782 -0.008114725 -0.04325061 -0.02904112
-0.08057752 -0.05505679 0.041925505 -0.05501498 0.033058647 -0.041258276 -0.03828839 -0.076476045
0.005187345 -0.029143246 -0.03792588 0.0019004064 -0.038763482 0.016950574 0.060358435 -0.032383155
0.031434245 -0.022394745 0.021426434 -0.06654184 -0.05896239 -0.042597733 -0.004131405 -0.018550891
-0.026638756 0.054397073 -0.06427901 0.08820866 0.017060963 -0.0039041818 0.06428351 0.0647351
-0.017148836 0.039952096 -0.028597755 0.05307407 0.057712033 0.020061716 0.010297643 -0.03141148
-0.024787983 0.070507266 0.027588554 0.033125024 -0.0064612357 -0.009997392 0.059650574 -0.06801602
0.0140918195 -0.015434815 -0.027244868 -0.08428834 0.06678028 -0.07329539 -0.0224861 0.01077958
0.0530877 -0.088258676 0.04211616 -0.033861123 0.031180505 -0.08567783 -0.07480064 0.08318918
0.029875334 0.012513251 0.038097434 0.08649164 0.05642938 0.018226689 -0.07021085 0.09412909
7.4888005e-05 -0.013957268 0.018553806 0.06766231 -0.014832094 -0.03984361 0.051958874 0.060226284
0.024561094 0.005057481 0.002245586 0.01567458 -0.07083357 -0.04900594 0.039137617 0.023263557
0.048305288 -0.0030727354 -0.04946077 -0.03512869 -0.023332214 -0.05802578 0.08308759 -0.05579257
0.012657614 0.08992298 -0.07271951 -0.07233281 0.03550295 0.051046096 -0.04292838 0.0429949
0.06049627 -0.04506525 0.073516555 0.010572139 -0.020264365 0.027571226 0.047052056 0.08369383

4.bias f4 [128]
00000000: a0ae 09bd cbc6 013d a261 da3d d1bb b2bd
00000010: 2501 8abd e6a7 1dbd f5aa cabc 82e8 6abc
00000020: 3307 e43d fa03 a33d 7b99 9cbd 46b1 35bc
00000030: 3942 97bc 81d8 ba3c 1537 bc3d fa02 633d
00000040: b45e 31bd 3099 c73d ab94 b03d 0774 16bd
00000050: 83c3 0ebd 0304 4d3d 7580 883d 512b 82bd
00000060: a4d8 ce3d 8b5c 58bd a689 02bd 6e4e a7bd
00000070: 60ef 79bb 7741 d73c b684 a0bd 04d2 d33d
00000080: 22d6 3dbd fbd5 b6bc 202f c0bd 5f78 d1bb
00000090: de96 d73c 2e8f 513d bf28 92bc 66ac 40bd
000000a0: 63e8 013d 55df e7bc b567 e43d c9e9 b63d
000000b0: d3b4 573d b566 fa3d c6f6 dd3d ca5e 5bbd
000000c0: 451e b33c 0a2d a83d 21da 443c 898e 3fbd
000000d0: f0e5 abbc e556 4bba adc1 a0bd 3b34 1bbd
000000e0: c74a 93bc 82be 88bd a215 ecbc 0940 b33d
000000f0: 50d5 3e3d dbc4 4dbd 349f 1e3e a7af 413d
00000100: 3f47 b9bd 4034 9fbd 272c dc3c 5219 7cbd
00000110: 110c ac3d 65cb 573d 8388 943d eed3 51bd
00000120: 422f a53c 5fb6 343e 9451 1c3e 75f0 0f3e
00000130: b2ab c4bc 9779 a8bd 358c b13d 0f2e 22bc
00000140: 7324 713c 888d 843d 8b74 58bd 7486 a7bc
00000150: 8a8a be3d e3a6 d13c ecfa e93c ec80 13bc
00000160: 3efc 84bd f177 8bbc 04f0 db3d b62b 213d
00000170: 4d8a a5bd 781d 80bc b901 c03c a57c a23d
00000180: 86c8 173e 5389 ad3d 5711 57bd bd8e bebc
00000190: 11a8 d9bb a989 cebb 8f99 7d3c df2e c4bc
000001a0: ce6c bd3d 16a6 9c3c a923 89bc 5ba8 c9bc
000001b0: 1c98 0e3e 14b8 52bc 2af1 e1bc 18bc edbd
000001c0: c8bb 86bd 7705 983d fabb 363e 7552 83bd
000001d0: 9ebe b3bd a02e 4bbd 665c 24bd 65e4 68bd
000001e0: 4f00 7a3d 566b 943d f516 143e 74a6 033c
000001f0: 7358 273c 516d 0b3c 3d30 9b3d b451 923d
-0.0336138 0.031683724 0.10663153 -0.087272294 -0.067384996 -0.0384902 -0.024739722 -0.014337661
0.11134186 0.07959743 -0.076464616 -0.011089629 -0.018464195 0.022808315 0.091901936 0.05542276
-0.043303207 0.09746015 0.08622106 -0.036731746 -0.034854423 0.050052654 0.06665126 -0.06355918
0.10099915 -0.05282263 -0.031869553 -0.08169256 -0.0038137063 0.026276333 -0.078378126 0.10342792
-0.04634679 -0.02231883 -0.093839884 -0.006392523 0.026317056 0.051161937 -0.017841695 -0.047039412
0.031715762 -0.028304735 0.11152593 0.0893131 0.05266268 0.12226621 0.10838084 -0.053557195
0.02186502 0.082117155 0.012014897 -0.04676679 -0.020983666 -0.0007756784 -0.07849441 -0.037891608
-0.017979993 -0.066769615 -0.02881891 0.08752448 0.04659015 -0.050236564 0.15490419 0.047286656
-0.09046792 -0.07773638 0.026876522 -0.061547585 0.08400739 0.052684207 0.072526 -0.051227503
0.020164136 0.17647694 0.15265495 0.14056571 -0.024007652 -0.082263164 0.086693205 -0.009898677
0.014718163 0.064723074 -0.05284552 -0.020449854 0.09303768 0.025592273 0.028562032 -0.009002905
-0.06493424 -0.017024966 0.10739139 0.039348327 -0.080830194 -0.015639052 0.023438321 0.0793393
0.14822587 0.08473458 -0.05250677 -0.023261422 -0.0066423495 -0.0063030315 0.015478506 -0.023948131
0.092492685 0.019122165 -0.016740637 -0.024616411 0.13925213 -0.01286127 -0.027580816 -0.11608142
-0.06578785 0.07422917 0.17845145 -0.06412212 -0.08776592 -0.049605012 -0.04012718 -0.05685844
0.06103545 0.07247035 0.14461882 0.008035291 0.010213959 0.00850995 0.0757756 0.0714449

6.weight f4 [128, 128]
00000000: 6345 f13b 26ad 363d 78b8 c9bc 0e9d 2ebc
00000010: 50d4 443d 3b46 80bd a127 803c c5aa a53d
00000020: 08da b23d 7d48 213d 1a64 46bd 04dd 13bd
00000030: 8ee9 6c3d ca21 c3bd ebf2 ab3d 9890 afbc
00000040: fdae 873d 962b 143d d2b7 9b3d 5cb6 2fbd
00000050: 95f7 9b3d a633 a63d abfe 3d3b a274 963d
00000060: 2c96 88bd b4e5 7abc d4f0 0abc 8f9c 3dbc
00000070: 6eb1 57bd 7520 143d 43b9 243c 8751 b73d
00000080: 89de 0abc 64ea 633d 73f8 bbbc 3bbb 47bd
00000090: 6921 933d aa10 98bd 7721 cc3c b401 8d3c
000000a0: 97a8 813d fa7e 2fbd 2cbc fabb 5a98 38bd
000000b0: a5c1 2a3d 46a5 ea3c b19d 3d3d 22f3 233d
000000c0: 166e e5bc 9535 65bd 3698 603c cb13 4a3d
000000d0: 0556 673d 7689 803d 2a54 7f3d 0d19 b1bd
000000e0: bf65 483d 21db 323d 9bbf 113c fb97 96bd
000000f0: 98aa 363d 3551 2bbd 69a6 6abd d348 a13d
00000100: d87d 20bd 2f6e 52bd 2a80 83bd f258 8e3d
00000110: 21db 703d 2aab 1b3d 83b5 c03c b26f 6bbd
00000120: 32ac 97bd 29ae 4c3d 75ef 4dbd 82be 9bbd
00000130: a0ea efbc deab 81bd a3e2 363d 9e64 3dbd
00000140: b49a 9ebd 24ff 9abc 362d 71bd bb4a 86bd
00000150: 811c c3bc d5f7 3ebd 0a7b 0abd c1fc b13d
00000160: 0d1e fb3c cf45 33bd fb3f cf3c 8225 afbd
00000170: 7489 88bd 0930 383b b29f bc3d d8c7 aa3d
00000180: 4d53 aabb 134e 04bd 957b 00bd 0b23 c3bc
00000190: 4d51 d7bc a95d b7bd ab8f 40bd ddf1 81bc
000001a0: e997 243d 5678 d43d 234f ba3d dd0b 943d
000001b0: cff0 943d 82b5 b93d 7dfc 8f3d 3def 203d
000001c0: 28ec 4c3d 4dd2 4f3d e366 863a c8a9 a0bc
000001d0: a3ff fc3c 73c6 8cbd b9bc 563d cfe0 b33d
000001e0: 45f5 a53d f503 96bd acb2 9a3d 044f 9c3c
000001f0: 0e4f 503d b53e 043d 62f1 8f3d 731e a6bd
00000200: f4b0 b23d a18f 98bd f2f8 29bd 6e55 923c
00000210: 63de ccba 9ea2 7abd 8ffd 843d 3217 d03c
00000220: 2eca 34bc 06dc 163d ee03 94bd e420 a5bd
00000230: f64e 573d 2507 543d d17c 4d3d c8cd e73c
00000240: 828f 4bbd fefd ad3d 94f4 153d 78f1 7d3d
00000250: 646b 88bd 31a8 d9bd 0307 04bd ea7d 85bd
00000260: 5b41 3c3b 94b0 c9bc 2354 943d 6884 88bc
00000270: 7ccb 0dbd ec5b 7c3d 3426 d73d 7ee5 433c
00000280: 23fa af3d 6de7 48bd 24fa 8e3d 6a56 ab3c
00000290: ec5e 1f3c a95b a83d 7706 673d a12a 35bd
000002a0: f79a f8bc f213 b2bd 01a7 b6bc edbd 313c
000002b0: a1e4 243d b756 153c 7685 2dbd e0b4 b63d
000002c0: bf6f 05bb 4eef 75bd 6ac4 043d 61b0 513d
000002d0: f167 a23c ace5 18bd 79fb dabc 0201 8c3d
000002e0: c0d3 433d a6bd 86bb 9e28 a6bc 4b2b 8a3d
000002f0: 2791 1abd fbe2 233d 9162 973d 40db 9dbd
00000300: a15c 42bd 6fd9 8cbd 6d40 2b3a f3c2 40bd
00000310: 9fd0 83bd ffe2 b73d ec83 c73d 613e 1ebc
00000320: 40e7 c93c 0478 073c 51f3 4e3c 97c1 8b3d
00000330: 2f9e 173d 256f 553d 3bf0 1cbd 63e9 bbbd
00000340: cd1a 20bc 9e84 9f3c 40c6 3a3b d551 7c3d
00000350: 82dc 253d 5b7d f93c b84f 9f3c bacb 04bc
00000360: 12c3 41bc e76f 053c 56d5 0bbc 061a 543c
00000370: edb0 723d 7476 403d cf9f 193d 6840 2f3d
00000380: 5dba 2abc 987c e4bc 0267 523d 4008 383c
00000390: d73a b73d 12c3 0bbc 248b cd3d b8a3 92bd
000003a0: 9afc eb3d 0942 6cbc 450d f0bb f31a 46bd
000003b0: a0bb e53b 6063 cd3c 6d3f d23d a718 09bd
000003c0: 3092 853b cdc2 41bd 96da f4bb 3b5f 41ba
000003d0: 64c7 ac3d 92cb a8bd 228e 84bd 69eb 073c
000003e0: 965e ecbc 50b6 313d fab2 6d3d d74d 77bd
000003f0: 9f89 c53c b49b 483c 6885 5b3c 48fc aabd
0.007363008 0.04459872 -0.024624094 -0.010657562 0.04805404 -0.062633954 0.015643897 0.08089212
0.087329924 0.03937577 -0.048435308 -0.03609945 0.057839923 -0.09527929 0.08395942 -0.021431252
0.06625173 0.03617438 0.0760342 -0.04289852 0.07615582 0.0811532 0.0028990905 0.07346465
-0.06669268 -0.015313555 -0.008480269 -0.011572971 -0.052659445 0.036163766 0.010053935 0.08951097
-0.008475908 0.055643454 -0.022945618 -0.04876254 0.07184107 -0.074250534 0.024918301 0.017212726
0.06330984 -0.042845704 -0.0076518264 -0.04506717 0.04168858 0.028643262 0.046292964 0.04002679
-0.028006595 -0.055959303 0.013708165 0.049335282 0.05647852 0.062762186 0.062336124 -0.08647356
0.048925158 0.04366601 0.00889578 -0.07353207 0.044596285 -0.041825492 -0.057287607 0.07875218
-0.039182514 -0.05137461 -0.0642093 0.06950559 0.058802728 0.03800503 0.023524052 -0.057479568
-0.074058905 0.04997078 -0.050277192 -0.07604696 -0.029286683 -0.06331609 0.04464973 -0.046238534
-0.07744351 -0.018920489 -0.058881007 -0.065572225 -0.023817303 -0.04662307 -0.033808745 0.08690787
0.030653978 -0.043767747 0.025299063 -0.08552076 -0.06666842 0.0028104803 0.09210147 0.083388984
-0.0051979185 -0.03230102 -0.031367857 -0.02382042 -0.026283884 -0.08953411 -0.047012012 -0.0158624
0.040183935 0.10374515 0.090971254 0.07228825 0.07272493 0.09067823 0.0703058 0.039290655
0.050029904 0.050737668 0.0010254051 -0.019612208 0.030883616 -0.06873789 0.052426074 0.08783113
0.08103422 -0.073249735 0.0755361 0.019080646 0.050856642 0.032286365 0.07028462 -0.081112765
0.087251574 -0.0744927 -0.04149718 0.017863002 -0.0015630241 -0.06119024 0.06493675 0.025401685
-0.0110345315 0.036830924 -0.07227312 -0.08062914 0.052565537 0.051764626 0.050167862 0.028296366
-0.049697407 0.08495711 0.0366102 0.06199786 -0.06661108 -0.10627783 -0.03223325 -0.06518157
0.0028725478 -0.024620332 0.0724261 -0.016664699 -0.034617886 0.0616111 0.105053335 0.011956571
0.08592632 -0.04904883 0.06981304 0.020915229 0.009727221 0.08220608 0.05640265 -0.044230107
-0.03034733 -0.086952105 -0.02229643 0.0108485045 0.0402571 0.009114913 -0.042363606 0.08921218
-0.0020360795 -0.06004267 0.032413878 0.0511936 0.019824954 -0.037328407 -0.02673124 0.0683613
0.047809362 -0.0041119633 -0.02028304 0.06746539 -0.037736084 0.040011387 0.07391847 -0.07707834
-0.04745162 -0.0687741 0.00065327325 -0.047060918 -0.06436276 0.08978843 0.09741959 -0.009658427
0.024646401 0.00826836 0.012631253 0.06824034 0.03701609 0.05210795 -0.03831504 -0.09175374
-0.009772015 0.019472416 0.0028499514 0.06160148 0.040493496 0.030455282 0.019447193 -0.008105213
-0.011826294 0.008144355 -0.00853475 0.012945658 0.05925076 0.046987966 0.03750592 0.042786032
-0.010420409 -0.027891442 0.051367767 0.011232436 0.0894677 -0.008530395 0.100363046 -0.07160133
0.11522789 -0.014420041 -0.0073258006 -0.048365545 0.007010892 0.0250718 0.10266004 -0.033470776
0.004076265 -0.047304917 -0.0074723465 -0.0007376556 0.08436468 -0.08241953 -0.06472422 0.008295872
-0.028853696 0.043386757 0.058032013 -0.06037697 0.024113474 0.012244154 0.013398506 -0.083489

6.bias f4 [128]
00000000: 3f16 38bc ad4a 243e 124d 243c 07a0 0b3e
00000010: 3b30 eebc 6958 8cbc 84fb b13d 43c2 ce3d
00000020: 37b3 003d 849c 273e 3126 133d 2007 e3bc
00000030: 7d2e b1bd e60d 80bc cfff 3d3d d588 3c3d
00000040: 409f bcbd 36c1 58bc 1fdf 9dbd 64e5 bfba
00000050: 5b8a 4a3d 00da 5f3e 92d4 ecbd f847 aebd
00000060: e263 2d3b 013f b63d 6bcf f63c 5190 1cbd
00000070: 64aa 3f3d 7037 a4bd 27db 8e3d ef01 22bd
00000080: 6b6c 3b3e 47c0 c33c 1eb9 5f3d d916 62bd
00000090: 527e b5bd d120 943d 57f2 8ebd 813d 803e
000000a0: c8e6 973c e31d 993e 8e37 b63d 0636 5f3b
000000b0: 057a afbd 7b3a 743d 5984 923d 2c7e d7bd
000000c0: 5ab3 703b 297b 94bc 0d39 99bd 2626 e1bd
000000d0: 8629 db3b 018c 81bd 2636 c93d 637f d73d
000000e0: b35a 63bd 8165 693c 99cb 7e3e bb01 2abd
000000f0: ef5f 723d 4e98 abbd 1e41 a83b 931b a33e
00000100: ab68 753c 2a51 6ebc 0025 2bbd 9b48 773c
00000110: 5843 8dbd ee16 49bd d7b7 bfbd 9e85 d33c
00000120: 8d55 eebb 72d1 96bd d6b2 d5bc 748e 373e
00000130: 6ffd 843c cb82 91bd 6b01 ecbc 0a6a 20bd
00000140: 337c 57bd 7fb7 dabc 6605 16bb a713 65bd
00000150: b780 63bd 2a62 f8bc 6333 343c 32c2 6c3d
00000160: 657a c6bc 8673 a43c 8c1e 1abd c88f e03d
00000170: 7529 49bd a173 98bd 627e 6d3c ea17 b3bd
00000180: 2228 debc 1d78 2dbd cd50 843c 566d 103e
00000190: b905 09bd f698 d93d ecf0 73bd 7757 b33e
000001a0: f92a 83bd 0fa0 d4bc 84d9 aabd 4c29 0bbd
000001b0: d19f 3c3c ddf7 33bd e545 f73d 7bf4 0cbd
000001c0: c27b 073d 0d1f 5b3d 6777 86bd 4ca1 083d
000001d0: 55e2 603d 708f f2bd 9c64 773d 4c96 35bd
000001e0: 0eef 9fbd 5cda 4ebd 1f00 213e fdbf 043d
000001f0: c566 063d 1a33 893d 1ee1 4a3e b4d8 9c3d
-0.011235773 0.16044112 0.010028141 0.13635264 -0.029075732 -0.017132001 0.08690551 0.10095646
0.031420913 0.163683 0.035925094 -0.027713358 -0.08651445 -0.015631627 0.046386536 0.04602893
-0.09210062 -0.013229659 -0.077085726 -0.0014640507 0.049448352 0.21860504 -0.11563982 -0.08509821
0.002645724 0.08898736 0.030128201 -0.03822357 0.046793357 -0.08018386 0.06975394 -0.039552625
0.18303077 0.023895396 0.0546199 -0.05519757 -0.08861984 0.07232822 -0.069798164 0.25046924
0.018542662 0.29905614 0.08897315 0.00340593 -0.08568195 0.059626084 0.071541496 -0.10522112
0.0036727996 -0.018125134 -0.07481585 -0.10993604 0.0066882996 -0.06325532 0.09824781 0.10522344
-0.05550642 0.014245392 0.24882354 -0.041505557 0.05917352 -0.08378659 0.0051347157 0.31856975
0.014978568 -0.014545718 -0.041783333 0.015092994 -0.068976104 -0.049094133 -0.093612365 0.02582055
-0.007273382 -0.07364167 -0.026086252 0.17925435 0.016234128 -0.07105025 -0.02880927 -0.039163627
-0.05260868 -0.026698826 -0.0022891401 -0.055926945 -0.055542674 -0.030320246 0.01099858 0.057802387
-0.024228284 0.020074617 -0.037626788 0.10964924 -0.049111802 -0.074439295 0.014495464 -0.087447956
-0.027118746 -0.042350877 0.01615181 0.14104208 -0.033452723 0.10624878 -0.059555933 0.35027668
-0.06404681 -0.025955228 -0.08342269 -0.03397493 0.011512713 -0.043937553 0.12073878 -0.034412842
0.03307701 0.05349641 -0.06565743 0.03335695 0.054903347 -0.11843765 0.060398683 -0.044332787
-0.07809268 -0.050501212 0.15722702 0.032409657 0.032812852 0.066992 0.19812438 0.0765852

8.weight f4 [49, 128]
00000000: 579f a03d 156f b6bd 06b6 9bbc a061 363d
00000010: 2006 10be 86e7 bc3d c122 48be 4def c43d
00000020: 0627 34be fc83 1ebe af56 cebd 783a 3f3c
00000030: b933 63bb 3dc5 87bb eaad 123d 4742 f53b
00000040: 2863 073d 2184 683d dcf1 5e3c 5e39 803d
00000050: b5e0 823d a226 6bbd 035c b7bd 8659 b83d
00000060: 08ad 58bd ba94 043d f5ba 8f3d 9958 4ebc
00000070: 0d5c 6ebd 301a 073c 8119 ae3d 9756 833d
00000080: 2c9b c4bd ffee a43d 4f84 853c 0bc7 a23d
00000090: f488 aabd f72b 57bc 7a2f 033d c435 40be
000000a0: b774 9f3b b4ad 62be 213d 10bd 222a c7bc
000000b0: e6d9 343d 4859 963d 5678 3aba 2fc3 40bc
000000c0: 6fba 9db9 d956 063d 51de cbbc 9134 25bd
000000d0: 889a 64bd 9c3c 543d 6eba 09bd e7fb 9cbd
000000e0: f8c4 873d c305 863d d4d0 eabc 814f b4bd
000000f0: 7f39 a2bc 6456 aabd 351b 2abd 3fc7 28be
00000100: 3078 92bd 49d9 9d3d 108d 873b ba38 07bc
00000110: cdef f7bc 9e89 613d 3220 da3d c5bb b03d
00000120: d388 e4bc 7859 043d 9ae1 a33d 8b44 d9bd
00000130: 3aa7 5dbd 51de 5dbb 15e1 a1bc b71f 0f3d
00000140: 6b22 10bd 08b4 ae3d 54ff 17bd f803 adbd
00000150: 744c 02bd ed7c 923d c0ae 363d 576b a9bd
00000160: da5f 233d 866f 583d ec57 c83c 7910 83bd
00000170: 21a7 7bbd 8471 faba 833b 0ebe cc5d 003d
00000180: 2fd0 a73d 29ed 023d 9db4 143d 4cc3 f4bd
00000190: 501c f5bc d768 32be 7e0b 10bd c122 6abe
000001a0: fca0 c63d bd13 373e b3b9 5ebd b28d 433d
000001b0: 48fa ab3b f159 55bd 1e09 923c 4909 833d
000001c0: 2bc0 b8bc 95fc 1c3d 33b5 513d c833 923d
000001d0: 888b f5bc 6039 023d bfcc e0bd cf71 933d
000001e0: d495 9dbd 968b 7cbd 64d7 82be 3443 413c
000001f0: 5ca5 0bbd 3736 0fbe e84d 1fbd d1b7 c33d
00000200: b484 383d fbe4 ccbd 5f27 103d 06f3 82b8
00000210: 2536 81bc 0bce 0e3d 88f8 39bd aa57 b13d
00000220: f266 2fbe a90d 86bc 54d7 14be 74b5 29bd
00000230: 061c 4a3d 2ef1 ee3c 14f7 a23d 4c4b 753c
00000240: 0334 b23d ec74 d83c 609c 2a3d d897 f0bc
00000250: e1ff 183d 7bc8 13be 5fc4 37ba 0179 f13d
00000260: 4327 ccbc 1859 813c 34a3 043d 237d 6ebd
00000270: 4bfe 453c 5a39 853b 1e4e 39bd b400 bfbc
00000280: c1f3 ccbd ac06 69bc 9b25 f53d d7c5 4e3d
00000290: e994 e73c 6282 35bd 5cf9 173c 72b1 c4bd
000002a0: 4223 1f3d c4b7 78be 1a38 01be c4f4 893d
000002b0: fe1d 3b3d 9b37 15bd 5048 9b3d 7de8 803d
000002c0: a994 16bd 4a69 083d b01d 7fbc 41e5 c63b
000002d0: 6d3f 18be e71f 8cbd caee e9bc 01b7 30bd
000002e0: a326 86bd 95c7 203c a89d 29be 1e64 1ebe
000002f0: 47b3 523d fbbf 03bb cdd6 61bd a20a d9bd
00000300: 57fd 08bd b36a 8ebd a1af 813d 44fe 9b3b
00000310: 6ee9 50bd 7231 363d 052b 663b aac3 c43d
00000320: b86b aabd d352 a8bc 9cad e33c 9a14 5ebd
00000330: a89c af3d d566 b7bd 90e8 8fbd 8a50 153b
00000340: ae98 163d 475d 9abd c05c 0b3c 2576 84bc
00000350: 9224 9f3d ec9e af3c fdd2 833d 2164 0abe
00000360: 5707 a83d ed37 8f3d a09c c0bc dcf6 d8bd
00000370: 7023 a2bd 8458 62bd 8488 1abe bc10 ae3c
00000380: 83fa 1abd bd54 c73c 5225 d2bc d7af 6dbd
00000390: e7b2 773c a9f4 80be 4d0f 353d c822 3bbe
000003a0: fc47 ba3d 9945 be3d de6f 343d e9d2 aebd
000003b0: e361 a23d feae 323d 6f4b 9abd fd52 c33d
000003c0: d355 4dbc e504 9dbc 4c25 0cbc 33fa 763b
000003d0: 0441 f9bd 9eb4 2ebc a8c0 e8bc 1d40 87bd
000003e0: 9f94 2bbd 8db8 3d3d fd96 50be c98c 063c
000003f0: 0bb0 893c 4b31 37be bf82 68bd 163a d13c
0.07842892 -0.08907906 -0.019007694 0.044526696 -0.14064837 0.09223847 -0.19544508 0.096159555
-0.17593011 -0.15480036 -0.10075127 0.011671655 -0.003466828 -0.0041433857 0.03581039 0.0074847075
0.033053547 0.056766633 0.013607468 0.06260942 0.06390516 -0.05740989 -0.08953097 0.0900145
-0.05289939 0.0323684 0.07018081 -0.0125943655 -0.058193255 0.00824599 0.08500958 0.06413
-0.09599909 0.080533974 0.016298441 0.07948121 -0.08326903 -0.013133041 0.0320277 -0.1877051
0.0048662084 -0.22136575 -0.035214547 -0.024312083 0.044153117 0.07341248 -0.00071132684 -0.011765285
-0.00030084277 0.032797668 -0.024886282 -0.040333334 -0.055811435 0.051815614 -0.03362506 -0.07665234
0.06629366 0.06544068 -0.02866403 -0.08804227 -0.019802807 -0.08317259 -0.041529853 -0.16482256
-0.0715183 0.077074595 0.004136689 -0.008253271 -0.030265713 0.055062883 0.10650672 0.08629564
-0.027897274 0.032311887 0.080020145 -0.10608777 -0.054114558 -0.0033854435 -0.019760648 0.034942355
-0.035189074 0.08530432 -0.037108734 -0.084480226 -0.031811193 0.07152734 0.04460025 -0.082724266
0.039886333 0.052840732 0.024455987 -0.06399626 -0.061438683 -0.0019107317 -0.1388989 0.03133945
0.08194005 0.031964455 0.03630506 -0.119513124 -0.029920727 -0.17422806 -0.03516721 -0.2286482
0.09698674 0.17878623 -0.054376315 0.047742553 0.0052483417 -0.052087728 0.017826613 0.063982554
-0.02255257 0.03832682 0.051198196 0.07138783 -0.02997376 0.031793 -0.10976552 0.07199442
-0.07694593 -0.061656557 -0.25554955 0.011795808 -0.034093246 -0.13985525 -0.038892657 0.095565446
0.04504843 -0.10004612 0.035193797 -6.24415e-05 -0.015772888 0.034864467 -0.045403033 0.08659299
-0.17129114 -0.016363936 -0.14535266 -0.041432813 0.04934313 0.029167738 0.07957283 0.014971565
0.08701327 0.02642294 0.041653037 -0.02936928 0.0373534 -0.14431946 -0.00070101576 0.11790658
-0.024921065 0.015789554 0.032382205 -0.05822481 0.012084554 0.0040656747 -0.045240514 -0.023315765
-0.1000743 -0.014222782 0.11970063 0.050481644 0.028269248 -0.044313796 0.0092757605 -0.096041575
0.038851984 -0.24288851 -0.12619057 0.067361385 0.0456829 -0.036429983 0.07582152 0.062943436
-0.036762867 0.033303536 -0.015571043 0.0060698097 -0.14867945 -0.068420224 -0.028556246 -0.043143276
-0.06550338 0.009813209 -0.16564047 -0.15467879 0.051440503 -0.0020103443 -0.05513649 -0.10597731
-0.03344473 -0.06953945 0.06332327 0.0047605354 -0.051003866 0.04448075 0.0035120856 0.096076325
-0.08321327 -0.020547306 0.027792744 -0.054218866 0.08574802 -0.089551605 -0.0702678 0.00227836
0.0367667 -0.075373225 0.008506 -0.016169617 0.07770647 0.021438085 0.06436727 -0.13514759
0.08204525 0.06993089 -0.023512185 -0.1059396 -0.079169154 -0.055260196 -0.15091139 0.021248214
-0.037836563 0.024332399 -0.025652561 -0.058029022 0.015118337 -0.2518666 0.044204045 -0.18274987
0.09095761 0.092906184 0.044051997 -0.08536322 0.07928827 0.043623917 -0.07533919 0.09537313
-0.012532669 -0.019167373 -0.008553814 0.0037685751 -0.12170604 -0.01066318 -0.028412178 -0.066040255
-0.041889783 0.04631858 -0.20370097 0.008212277 0.016807577 -0.17889898 -0.056765314 0.025540393

8.bias f4 [49]
00000000: b84f 7fbd 2f89 adbc 2e80 a7bd 40b9 30be
00000010: be44 0fbe 785f 53be 0d91 cfbc 1138 fcbd
00000020: 8d52 74be 23be 53be 275c 5bbe 8794 ffbd
00000030: 60f1 10be 98db 2cbe 720e 53be a7df 7dbe
00000040: c80a bebd a19a 0dbe a655 03be e760 8fbe
00000050: b485 6fbd 699c f5bd c696 19be 7ce1 a4bd
00000060: d384 03be 5259 09be 995c 54bd 9d3b a2bd
00000070: 5b5c 05be df28 9abd 9342 32bd b03b eabd
00000080: b4e3 1cbd 2599 d5bd a2aa 95bd 9869 d3bd
00000090: beb4 c2bd 9618 1dbe 1bd9 0cbe c07b fbbd
000000a0: 6524 2bbe 1f45 f0bd 5b5b 9cbe b6e6 99be
000000b0: 222a 07be cbe8 62bc 8b7d f0bb 120c d3bd
000000c0: 9c55 87bd
-0.062331885 -0.021183578 -0.08178745 -0.17258167 -0.13991067 -0.20641887 -0.02533772 -0.12315381
-0.23859616 -0.20678 -0.21421872 -0.12479501 -0.14154577 -0.16880643 -0.20610979 -0.24792348
-0.092794 -0.13828517 -0.12825641 -0.28003618 -0.05847712 -0.119927235 -0.14998922 -0.0805082
-0.12843637 -0.13412979 -0.05184612 -0.079215266 -0.13023512 -0.07527327 -0.04352052 -0.11437166
-0.038303092 -0.104296006 -0.07307936 -0.10322875 -0.0950713 -0.1534141 -0.13754694 -0.12279463
-0.16713102 -0.11731934 -0.3053845 -0.3005883 -0.13199666 -0.0138494475 -0.0073391846 -0.103050366
-0.066081256
