models/snapsRandom/model_1685817984.9973965.pt (torch, 252563 bytes, 10 tensors)

0.weight f4 [128, 49]
00000000: 2712 9ebd 0f3a e23d 2cb9 2e3d 860a 17be
00000010: d13c 6a3d c9f8 67bd 002d 56bd 92d0 9c3d
00000020: 11da 35bd ba00 f5bd 7bc0 f83d 5c19 203e
00000030: 7a18 a9bc b8e5 bb3d 1abc 1a3b 164b b2bd
00000040: 0321 84bb fd63 c8bd d483 41bd 3d83 573c
00000050: 66ed 4cbd 898a 84bd 7447 773e 18d9 c1bd
00000060: 7e1d f4bc 561e b2bd 5e95 9abd 01d9 733d
00000070: 6822 1d3e 8434 b4bd 129f 353e 7b42 013c
00000080: e7cb 31bc 9aee 1e3d 9341 6abd 13f4 0a3e
00000090: eb2e 39bd 4c8a 00bb 4b3d 47be bb10 9cbc
000000a0: d7ac 11be bc4b 893d c7b9 393e 12ed 45bd
000000b0: 0daf dfbd 1f1d d73d 2d22 f53d 8469 2cbe
000000c0: 246e 92bd 1f85 86b9 d19f 01bd a33e 05be
000000d0: e56b 5b3d 2ca7 153e b64b 0d3d 3e82 e1bd
000000e0: 54b2 013d 85bf cb3d 2d2c 473c cdc0 153e
000000f0: b047 983d 7655 3f3d 3cb0 0e3c 2173 09be
00000100: 969a e93c 97ea 303e b628 8bbd 721a 30be
00000110: e760 593e d551 113e 58db 5d3d 423a 843d
00000120: 7f8d f93d 4f8f 68be 8ef1 19be 2c44 52bd
00000130: 4830 833d 2dfb 9f3c 583f 0cbc 7f09 813d
00000140: 157d 14be 3f48 ecbd b210 06be c366 5e3e
00000150: 38b1 f8bd 812a 863b 6644 1cbd f67b 01be
00000160: 7f25 a73d 29c7 5b3d 7f7a 4cbd 58d2 db3d
00000170: 421d 9fbc 55c2 5fbe 57d1 98bd 13e4 fc3d
00000180: dcf1 db3c 406b 87bd db36 293d df47 28be
00000190: e63f 543d 605b 01be ce33 22bc d682 7abe
000001a0: 758d 8b3d dd04 863d d4b1 113e 2560 1bbd
000001b0: f21f 1fbd 6bf1 223e 8f5f 63be 3eee 853d
000001c0: 84e6 07be a8a5 003d a468 0c3e 1f87 debd
000001d0: 0486 b7bd b112 cbbc fa8a 9abd 5866 d43d
000001e0: cec0 3abe 3423 f33c d7c1 85bd 9fac f43b
000001f0: b280 dfbd a8ee ee3d 7436 15be f24f 2c3d
00000200: d7ef 723b 9dbd b1bd 0227 593d 3cdb d4bd
00000210: 18f9 103d ad31 9abd 0d8a 3f3d cf8e e5bd
00000220: 6362 013c 0cb2 f6bd eac5 85bd a39b 263e
00000230: 4c1d c8bc 86a0 0abd 1258 30be f09b ae3d
00000240: 4775 6c3d 86a5 b7bd aa4b 873d 86f8 bc3d
00000250: cda6 233c 246d 28bd 76bc d0bd b2b9 e93d
00000260: fe4c 70bc 869a 383d 003e 093d 9c4e 8f3d
00000270: 551f ac3d 914d 7e3d 582d cebd f025 a7be
00000280: 874c 71bd 9574 153e e43a 423d f2e7 903d
00000290: b53b 473d 75e3 edbd b3f2 54be a428 2d3e
000002a0: 0ef5 013e 5510 27bd a7f7 0d3d 0d9c c3bd
000002b0: 70ff d0bc c77d 5fbe 7ef0 863d 17a8 803d
000002c0: 120a d2bd 52ec e93d 73ac d63d f078 5cbd
000002d0: d003 813d c0fb 693e 874a 9bbb 5ff0 5c3e
000002e0: 14a1 10be 7b0a c53d b7a1 babc cb98 9d3d
000002f0: d893 9e3c d990 83bd 4c29 c73d fdd8 24be
00000300: 5463 b83d b202 8abd 46da 89bc d025 f23d
00000310: 51f3 5f3c 8e03 bbbd 2e0d 283d 2c66 8fbd
00000320: ba7a 9b3c c2c5 7b3e 2aa5 103e 3a63 de3b
00000330: 272b 49bd 9eff a33c 3efc 393e 1fe2 363d
00000340: 31d3 88bc fe39 7fbe 9b2a 80bd b190 d9bc
00000350: 680a 3c3e 59a8 fbb9 2a4e bbbb 1cf7 7dbd
00000360: df7b 873d 3416 02bd 2623 9d3c 770c bb3d
00000370: ed5f 68be 3ab8 e33d 73c6 63be fa6c 36be
00000380: 59d9 87bc 4d6c 89bd 9a5b 46bd 3366 bb3d
00000390: 6eb3 083e b430 6fbd 4bca a6bd 7294 38bc
000003a0: c04c a83b 4496 193e b034 dbbd a1fc 1fbe
000003b0: ce77 f9bd e771 e73c ff4c b5bd 059c 853d
000003c0: 677c 923d 75ac a3bc 2258 c53c 48c0 243e
000003d0: 973d 05be 3290 0a3c cdb8 b73d a362 663c
000003e0: 9877 90bd e1ef a23d 2e57 2bbd 73e3 273e
000003f0: 9588 c0bd 809d 06bd cbc6 30bd f6df 063d
-0.07718306 0.1104623 0.042657062 -0.14750108 0.057186905 -0.056633744 -0.05228901 0.07656969
-0.044397417 -0.11963029 0.12146088 0.15634674 -0.020641554 0.09174675 0.0023610652 -0.08705728
-0.0040322556 -0.09784696 -0.04724486 0.013153848 -0.05003109 -0.06471736 0.24148351 -0.094652355
-0.02979922 -0.08697192 -0.07548021 0.059533123 0.15345156 -0.08799079 0.17736462 0.007889385
-0.010851837 0.038801767 -0.057191443 0.1356967 -0.04521076 -0.0019613681 -0.19456975 -0.019050946
-0.1422609 0.06703898 0.18137275 -0.04832179 -0.1092206 0.10503601 0.11969409 -0.16837126
-0.07149914 -0.00025657655 -0.031646553 -0.13012175 0.053569693 0.14614552 0.03449603 -0.1101117
0.031664208 0.09948639 0.012156528 0.14624329 0.07435548 0.04671236 0.00870901 -0.13422824
0.028516095 0.17276989 -0.06794874 -0.17197588 0.21228372 0.14191373 0.05416426 0.06456424
0.12185191 -0.22710918 -0.15033552 -0.051334545 0.06405693 0.01952895 -0.008560024 0.06300639
-0.1450084 -0.11537217 -0.13092306 0.21718888 -0.12143177 0.0040944223 -0.038151167 -0.12644944
0.08161449 0.05365673 -0.04992151 0.10733479 -0.01942313 -0.21851476 -0.074618034 0.12348189
0.026848726 -0.06612253 0.04131208 -0.16433667 0.05181875 -0.12632513 -0.0099000465 -0.24463972
0.0681409 0.06543896 0.14227992 -0.037933487 -0.038848825 0.15912406 -0.22204421 0.06539582
-0.13271528 0.031407982 0.13711792 -0.10865616 -0.08961108 -0.024789186 -0.07546039 0.10371083
-0.18237612 0.029679872 -0.06531113 0.007466867 -0.109132186 0.11666614 -0.14571553 0.04206843
0.0037069225 -0.08678744 0.053015716 -0.10393378 0.035393804 -0.07529006 0.046762515 -0.11208879
0.007896992 -0.120456785 -0.0653189 0.16270308 -0.024428032 -0.033844493 -0.17221096 0.085258365
0.057729032 -0.08967118 0.06606229 0.092270896 0.009988499 -0.04111971 -0.10192196 0.11412372
-0.014666794 0.04506924 0.033506393 0.069974154 0.084044136 0.06208569 -0.100672424 -0.32646132
-0.058910873 0.14595254 0.047419444 0.0707549 0.048640925 -0.116156496 -0.20795707 0.16910034
0.12691137 -0.04078706 0.034660008 -0.09551249 -0.025512427 -0.21825324 0.06588839 0.062820606
-0.10255827 0.11422028 0.10482111 -0.053826272 0.06299555 0.22849941 -0.004739109 0.2157607
-0.14123946 0.096211396 -0.02278219 0.076951586 0.019357607 -0.06424112 0.09724674 -0.160984
0.0900332 -0.06738795 -0.016827714 0.118236184 0.013668851 -0.091315374 0.041028194 -0.070019096
0.018979419 0.24587157 0.14125505 0.006786731 -0.04911342 0.020019349 0.18162629 0.04464924
-0.016702266 -0.24924466 -0.06258126 -0.026558252 0.18363345 -0.0004799988 -0.005716105 -0.06200324
0.066154234 -0.031759456 0.0191818 0.09133237 -0.22692843 0.11119123 -0.22243671 -0.17815009
-0.016583132 -0.0671011 -0.0484272 0.09150352 0.13349697 -0.058396056 -0.08144053 -0.011265861
0.0051361024 0.14998728 -0.10703409 -0.15623714 -0.12181054 0.028252555 -0.088525765 0.06523899
0.07152634 -0.019979695 0.024089877 0.16088974 -0.13011776 0.00845723 0.08970795 0.014061603
-0.07054061 0.079559095 -0.041831188 0.16395359 -0.09401051 -0.032865047 -0.043158334 0.03292843

0.bias f4 [128]
00000000: 7f08 f73d 6436 183e b271 cabb 6edb 173e
00000010: bec2 28bd c7df 2b3e 0256 8dbd 8df3 063f
00000020: a7bf 9e3d 69aa 08bf 00eb c23d da7c b13e
00000030: 3c1e 8cbd 46f8 eabd 6a41 29bd 7e35 2f3e
00000040: e484 29be 9851 f9bd 0551 95bc e229 b0bc
00000050: 0521 ae3d e9d9 4abe 45c0 61be fa6c 7fbe
00000060: 355a 29be 923d 443d 65c0 183e 1c40 dc3e
00000070: 3da1 a6be 6ffa 2f3e 7d7d 1c3e c81c b5be
00000080: 6c16 92be 7597 bfbe f9f8 26bb 1c52 88be
00000090: 2638 623e fd3b 20bd 9a43 1d3e 897d 12be
000000a0: 4e57 2dbe f629 2abe 9e2c 433d 81db 4cbe
000000b0: 3cff 59be ddb3 babd ea83 e43e efe7 86bd
000000c0: 111b aebe 6893 743e 190f 80be 257d 6cbe
000000d0: 3632 8abe d3bd 9e3e 5230 92be cf1d 8fbd
000000e0: 1797 d03e 8bd2 9f3d e4ba 223e af16 a6bd
000000f0: 7bad 6cbc 72a1 debc 028a 6dbe bd88 b33d
00000100: d8e2 39be 1db4 813d 4d6c 5fbe 9f16 4ebe
00000110: 3368 0dbe bb73 99be ee2b b33e eaac 5b3e
00000120: fc79 d13d f1a5 f3bd c0e5 643d 6c4d b53c
00000130: fe07 04be 8da6 5bbe 4d7b 553d 7786 b13d
00000140: 5b68 babe 6efe 543e 96c4 cf3a 12f7 76bc
00000150: f461 9bbe 8773 0abe 1586 913e 5df0 353e
00000160: 7d00 b0bd 124c 703e d97b 81b8 6f95 fabd
00000170: 2b34 11be 752d 7dbe 6e7a 763e 2e20 77be
00000180: 8a77 98bc 92a7 c0bd 4f94 c53e 5e46 9fbd
00000190: c1b8 c93e 945e 86be 01c1 41be 07e9 dc3d
000001a0: d929 aabe 8959 12be 0a00 773e 0e5b 20be
000001b0: 1f78 65be e956 8fbd 91c4 99bd d7db a9be
000001c0: 7535 42be 4a3e 24be bf8e 023d c60e 50be
000001d0: 03ab fe3d c33d 99bc e3ad 2d3a 2bec 4cbe
000001e0: 4567 053e 27a4 9dbd 9862 4c3e 524b b4be
000001f0: e420 36be b77b 88be 579d 913d 60c8 223b
0.120621674 0.14864498 -0.0061781043 0.148298 -0.041201346 0.16784583 -0.0690117 0.5271538
0.077513985 -0.53385025 0.09517479 0.34665567 -0.06841704 -0.11473136 -0.04132215 0.1711025
-0.165546 -0.12173766 -0.01822711 -0.021504346 0.08502392 -0.19809689 -0.22046001 -0.24943915
-0.16538318 0.04791028 0.14917143 0.43017662 -0.3254489 0.17185377 0.15282245 -0.3537352
-0.28532732 -0.3742024 -0.002547799 -0.26625144 0.22091731 -0.03911971 0.15357819 -0.143057
-0.16927835 -0.1661757 0.047649972 -0.20005609 -0.2128877 -0.091163374 0.44631892 -0.065872066
-0.34005025 0.23884356 -0.2501152 -0.23094614 -0.26991433 0.310042 -0.2855249 -0.069881074
0.40740272 0.0780383 0.15891606 -0.08109795 -0.014445658 -0.027176592 -0.23197177 0.08766315
-0.1815294 0.06333182 -0.21818657 -0.20125817 -0.1380928 -0.29971108 0.34994453 0.2145268
0.10228345 -0.11896885 0.05588317 0.022131644 -0.12893674 -0.21450253 0.052119542 0.08668225
-0.36407742 0.20800182 0.0015851434 -0.015073555 -0.3034817 -0.13520633 0.2842261 0.17767473
-0.08593843 0.23466519 -6.174268e-05 -0.122355334 -0.14180057 -0.24724372 0.2407014 -0.2413337
-0.018611688 -0.094069615 0.38589713 -0.07777093 0.3939877 -0.26244032 -0.18921281 0.10786634
-0.33235052 -0.14291967 0.24121109 -0.15659735 -0.22409104 -0.06998999 -0.07508195 -0.33175537
-0.18965705 -0.16039386 0.031874415 -0.20318136 0.12434962 -0.018706208 0.00066253374 -0.20011966
0.13027675 -0.07697325 0.19959486 -0.35213715 -0.17785984 -0.26656887 0.07110088 0.002483867

2.weight f4 [128, 128]
00000000: d5fd 2c3d 4ae2 37bc 6ea5 fabc e986 68bd
00000010: fa6e 663d 5b38 49bc 707f 25bd 0518 0d3d
00000020: 45e5 213c 4885 07bd d20e 0d3c 29fa 7c3d
00000030: b90e 14bb 552a 13bd 763c a23d bbe7 4dbd
00000040: 233a 7abd 8b48 2dbd e197 aabd 85ef 243d
00000050: 86ee a93d 14ab 9cbd 736c 3e3d 0c66 243c
00000060: 4acf 2abc 4c69 7dbd e093 2abd ce48 8abc
00000070: 6c5a c93c b656 4f3d e517 83bd aff0 96bc
00000080: ea48 22bc 0648 d23b 8de1 7bbd 53a2 453d
00000090: f318 c93c 5a25 54bd a506 4dbd 93f0 acbb
000000a0: 387a a83c be3f 80bd 8dbd b63c 7452 1ebd
000000b0: 20d2 b9bb 0376 943c de24 4e3d 9cce de3b
000000c0: 13ab 42bd 6159 a0bd 8fd9 3d3d 88ff 9f3d
000000d0: 361d 59bd 605e 63bd 0610 0c3c 6383 5cbc
000000e0: 13fd 9e3d b801 ba3d 577e 0d3d 0fc2 c13d
000000f0: c6b3 a53d 2294 07bc d1e8 813d 9de5 96bd
00000100: c6a8 eebc a858 9d3d 3872 60bd b4eb 44bb
00000110: 5682 8bbd 240c c13d 451d 7a3d 33b9 47bd
00000120: 864a a83d 01af 5ebd 68f5 8c3d 9352 77bb
00000130: 0d5f bcbb fa41 833d b3da a3bd 4dca 40bd
00000140: cc69 0bbc 744d 8fbd adcf ab3c 523a 91bd
00000150: 50fc 75bd 0b83 0a3d e76c 123c f2f2 a93d
00000160: 4993 92bd e4f1 993d c301 723d 32e3 e7bb
00000170: 40eb 463d 3826 90bd b971 76bd 7b3a 74bd
00000180: 81dc 97bd 2190 8ebd 6546 163d 5b90 b03d
00000190: 6089 383c 2e38 0abd 005b 67bd 623f bcbc
000001a0: 1aad 523d 0f11 32bd b991 fabc 2d0e a1bd
000001b0: 9b2c b63c 9166 b23d 580b 423d 0a66 9b3d
000001c0: b8aa 603d 25bb eab8 3e43 85bd 1b19 bb3d
000001d0: ca8d 88bc 5e5e d53d 0f50 67bd e0c2 163c
000001e0: f2c9 be3c 6360 5f3d 94c5 453c e564 a6bd
000001f0: 6aa4 fd39 78e1 bb3d c8d9 573c cb1c 6a3d
00000200: 486f 09bd 68e6 7abd 2dce 573d f984 2a3d
00000210: 4dc5 a1bc cca5 cbbc 41ef 12bd 61af c33c
00000220: 1d46 843d 38ba adbd 8f86 4b3a 4f84 593c
00000230: f9bc b6bb 8cd2 463d 7878 e93c 6baf 953d
00000240: 65fe 2ebd 0814 4ebc c4e2 57bc 1979 4fbd
00000250: 14de 1cbd f576 f7bc 127d d1bc 7f03 2dbd
00000260: 099c 633c a62e aabd ff51 a13d fb7e ebbc
00000270: 97a1 7a3d 1248 163c bfbe 95bd da1e b6bd
00000280: 3ed2 78bc a8f7 4f3d 9456 613c 42e8 5e3d
00000290: edc6 69bd 3822 aabd 0098 b0bd 2d1e c33c
000002a0: 0124 413d 4c61 1fbd cb51 c23c a6e2 8fbd
000002b0: f4b8 85bc 3fb8 983d 928b edbc 5b9a 993d
000002c0: 3285 5fbd 4351 4cbd faee 9f3d 4f9c 8f3d
000002d0: 38a2 a03c c45c bcbc cf0c 0f3d a2f3 dd3c
000002e0: 720d 23bd f97e 86bd e774 9fbb 9d0b 32bd
000002f0: 1786 e3bc 5407 7b3c 83c7 9c3d 3ecf 903d
00000300: 5c9a 8d3d d964 1a3d 0050 f53c 8996 8cbc
00000310: d819 fe3b 7343 10bc ee63 8cbd 5a68 b03d
00000320: 7108 813d afd1 153c e620 453d 5d73 2e3d
00000330: b59c 833d 27ed 453d 676c 64bc 2f57 97bc
00000340: 4f0a 4cbd 7ea5 053c 0b63 8a3d e502 a5bd
00000350: aea6 ab3c a012 49bd a9e8 a63d a8e3 a3bd
00000360: b035 303c 35f4 5c3d 6d4e f1bc e04c 203c
00000370: 1b14 fa3c c87f abbb d96c c7bc 9999 a93d
00000380: 2467 a9bd e78f 6bbd bf30 fbbc 79d1 053c
00000390: 92ab 3bbc 106e 723c 6c69 7abc 3bb3 37bd
000003a0: e8be 403c 0ad4 843d 7b4e 223d f4bb ac3c
000003b0: 56be 74bd 7546 453d 1563 50bc 15a1 663d
000003c0: 98fe 03bd 5af6 89bd 8ce8 6b3d d3e7 9dbc
000003d0: 8f0b 13bd 8b8c 163d c9c7 ecb9 a558 08bd
000003e0: 3c0a 7dbc 5761 a13a c5a0 653c 117d 823d
000003f0: b901 09bd e27e ecbc 0829 a4ba ba40 87ba
0.04223426 -0.011223385 -0.030596461 -0.056769285 0.05625818 -0.012281503 -0.040404737 0.034446735
0.009881322 -0.03308609 0.0086094905 0.06176201 -0.0022591783 -0.035929043 0.07921688 -0.050269824
-0.0610906 -0.04230551 -0.0832975 0.040267486 0.08297448 -0.07649818 0.046490144 0.0100340955
-0.010425398 -0.061867997 -0.04164493 -0.01688042 0.02457925 0.050619803 -0.06401042 -0.018425314
-0.009905079 0.0064172773 -0.0614944 0.048250508 0.02454803 -0.051793434 -0.050055165 -0.005277702
0.020566091 -0.06262158 0.022307182 -0.038652852 -0.005670801 0.018122679 0.050328128 0.006799532
-0.04752643 -0.07829548 0.04635006 0.078124106 -0.053006373 -0.055509925 0.008548742 -0.013459059
0.07763114 0.09082359 0.034544315 0.09460842 0.0809093 -0.008275064 0.06343234 -0.07368014
-0.029133212 0.076829255 -0.054796427 -0.0030047717 -0.06811969 0.09426144 0.06106307 -0.048760604
0.08217339 -0.054366115 0.06882745 -0.0037738427 -0.0057486356 0.064090684 -0.08000698 -0.04706793
-0.008509111 -0.06997195 0.020973051 -0.07091202 -0.060055077 0.03381638 0.008937097 0.08298291
-0.07156999 0.0751684 0.05908371 -0.0070766443 0.048564196 -0.0703854 -0.060167048 -0.059626084
-0.07415105 -0.06961084 0.036688227 0.086212836 0.0112632215 -0.033744983 -0.05648327 -0.022979442
0.051434614 -0.0434733 -0.030587064 -0.07864032 0.022238066 0.08710969 0.0473741 0.07587822
0.05485031 -0.00011192848 -0.06506966 0.09135648 -0.016669173 0.1041839 -0.056472834 0.009201735
0.023289654 0.05453528 0.012071032 -0.08124713 0.00048378418 0.09173864 0.013174482 0.057156365
-0.03355339 -0.06125489 0.05268686 0.04163072 -0.0197474 -0.024859332 -0.0358727 0.023887338
0.064586855 -0.08482784 0.0007763886 0.013276174 -0.0055767265 0.048540637 0.028499827 0.07308849
-0.04272308 -0.012578018 -0.013176624 -0.050652597 -0.038297728 -0.03020809 -0.025572333 -0.042239662
0.013892182 -0.08309679 0.07876968 -0.028747072 0.06118926 0.009172456 -0.073117726 -0.08892603
-0.015186844 0.050773293 0.013753552 0.054420717 -0.057074476 -0.08307308 -0.08622742 0.0238181
0.047153477 -0.03891115 0.023720643 -0.07025652 -0.016323544 0.07457017 -0.028997216 0.07500144
-0.054570384 -0.049882185 0.07809253 0.070122354 0.019608602 -0.022993453 0.034924325 0.027093712
-0.039807744 -0.06567187 -0.004866231 -0.043468107 -0.0277739 0.015321571 0.07655241 0.07070778
0.06914207 0.037693832 0.029945374 -0.017161625 0.0077545457 -0.008805144 -0.068549976 0.086136535
0.06300438 0.009144231 0.048127078 0.042590488 0.06426374 0.04832187 -0.013941861 -0.01847419
-0.04981452 0.008157132 0.06757172 -0.08057193 0.020953503 -0.049090028 0.08149845 -0.08002406
0.010754988 0.05394383 -0.029456342 0.009783953 0.030527165 -0.0052337386 -0.024343895 0.082812496
-0.08271626 -0.057510283 -0.030662892 0.008167618 -0.01145448 0.014796749 -0.015283924 -0.044848662
0.011764266 0.06485756 0.039625626 0.021085717 -0.05975183 0.048162896 -0.0127189355 0.056305964
-0.03222522 -0.06736441 0.05759482 -0.019275581 -0.035899695 0.036755126 -0.0004516228 -0.033287663
-0.015444335 0.0012312335 0.014015381 0.06371511 -0.03344891 -0.028869096 -0.0012524435 -0.0010318973

2.bias f4 [128]
00000000: 6031 ba3d e896 1fbd fcbb a2bc efbc edbc
00000010: d850 8c3d aa7c d4bd d271 9bbc db91 81bd
00000020: 7e2c 2f3e c877 4cbe 7c89 753c 7489 23be
00000030: 968a 9fbd 287a 893d 1bf4 adbd 28a2 343e
00000040: 406a 243e 2f52 843e 5975 82bd 204d 98bc
00000050: 306e ef3c f135 15be bc0a 7fbd 5177 43bd
00000060: 75c5 72bd c6b8 a6bc 66f8 0fbe c628 b0bc
00000070: bd36 f23c 30ed 2b3d 57ab 083e e582 bfbd
00000080: 6764 1c3e ea24 073e 2669 abbd 384b 0ebe
00000090: ff08 be3d f90d b63b 145a b7be 3e34 c1bd
000000a0: ed78 bcbc 13e3 83bd 1c42 94bd 01dc e2bd
000000b0: a265 cf3d f8c9 073e 052a 173e 67d3 6cbc
000000c0: 1db5 22be 0eb3 cbbd 9d07 1d3e e5cc 2b3d
000000d0: ab78 d3bc c8b0 07bd 82e8 bbbd 02cd c53c
000000e0: 401f f43d 8c42 27bd bfdb b1bc 3dc0 ae3d
000000f0: 5863 f1bd b22d a53c 861b b83d a0d4 883d
00000100: 019f 26bd 92e1 9a3d 56fc 2dbd 0058 2d3b
00000110: f29b dd3b dbdf 7cbe 645b e6bd f91b cd3d
00000120: 283b 5cbd b685 ec3d 2ece a23b 61b7 cf3c
00000130: 04c7 2bbd aa12 a8be d715 323d adc7 16bd
00000140: 38b9 12bc 7e8c 3d3c 5ad5 73bd 0610 9abc
00000150: dc40 2bbe 4ebe 643d 412d ee3c 3ad9 88bd
00000160: 1722 323e 22e5 babd a9d9 93bd a4ac a93c
00000170: 2ed0 313c f9dd 723d 1380 c5bd 2248 bdbb
00000180: da74 bc3c 6ad8 1a3c b3a3 e1bc 1fe4 953b
00000190: 91cd 8e3c bc88 1f3d 07e0 08bd 042d afbd
000001a0: 3f92 313d 74d7 0c3e e56c 54bd 5d41 6b3d
000001b0: 7ce8 193d 0676 e2bd 2450 53bd 9c66 e7bc
000001c0: 7468 2abd 3c73 c5bd fc1f 7ebd 69a7 6d3d
000001d0: 1662 43bd 614e d33c 28b3 8c3d 2408 843c
000001e0: e986 d83c 67e9 2e3d f64f d03d f4de 53bd
000001f0: 7ea8 03bb a18e e73c ffb8 2fbc 8c74 8b3d
0.09091449 -0.038962275 -0.019865029 -0.029020755 0.06851357 -0.1037534 -0.018975172 -0.06326648
0.17106816 -0.19967568 0.014986392 -0.15970403 -0.07790105 0.067127526 -0.08493825 0.17639983
0.16056156 0.2584395 -0.063700385 -0.018591464 0.029227346 -0.14571358 -0.062266096 -0.04772121
-0.05927034 -0.020351779 -0.140596 -0.021503817 0.029567117 0.041974247 0.13346611 -0.09351138
0.15272675 0.13197675 -0.08369665 -0.13895881 0.092790596 0.005555865 -0.35810912 -0.094337925
-0.02300688 -0.06439795 -0.07239172 -0.11077119 0.10126807 0.13260639 0.14762123 -0.014454699
-0.15889402 -0.09946261 0.15334935 0.04194345 -0.025814375 -0.033127576 -0.09175207 0.024145607
0.11920023 -0.04083495 -0.021711228 0.0853276 -0.117865264 0.02016339 0.08989625 0.0668118
-0.04067898 0.075625554 -0.042476974 0.0026450157 0.006762975 -0.24694769 -0.112479 0.10015101
-0.053767353 0.11548941 0.004968426 0.025355997 -0.041937843 -0.3282674 0.04347786 -0.03681152
-0.008955292 0.0115691405 -0.05952964 -0.018806469 -0.1672396 0.05584555 0.029074313 -0.06682058
0.17395817 -0.09125735 -0.0721925 0.020712204 0.010852857 0.05929372 -0.09643569 -0.005776421
0.023004938 0.009451011 -0.027543878 0.0045743133 0.017432006 0.03894876 -0.033416774 -0.08553508
0.04335236 0.13754064 -0.051861662 0.057435382 0.03757523 -0.110576674 -0.0515901 -0.02824717
-0.04160352 -0.0964112 -0.06204222 0.058020983 -0.047700964 0.02579421 0.06870109 0.016117163
0.026431518 0.04270306 0.10171501 -0.051726297 -0.0020089443 0.028266253 -0.010725259 0.06809339

4.weight f4 [128, 128]
00000000: 8c26 443d 3457 c83c a98a 18bd aa11 4f3d
00000010: 88ac a73a f0ed 4abd f528 dc3b 053d 14bc
00000020: 9435 d53c 1349 5f3c d5db 8a3d 9503 de3b
00000030: 824f 013c a0f7 e2bb f1ca 7cbd 1bc4 313d
00000040: 0cbd 973d 6983 1cbd 7df6 6cbd e00c 0cbd
00000050: f1a0 5abb 1e80 933d 2f51 84bc fa28 a63d
00000060: 874e 923d eb1c 90bd 5aa7 b2bd 168a 14bc
00000070: b78a 3bbc de77 3c3c b401 0ebc fa8d 1fbd
00000080: 721f 7a3c b8a6 33bd b081 433d e3e2 803d
00000090: 6f91 94bd fe99 88bd ca7a 893d f5fe a1bc
000000a0: 95eb 123d 7188 adbd abd3 58bd 69e9 8dbd
000000b0: 4c78 fcbc b7ea 88bd ea63 02bd 3b26 cb3b
000000c0: 8990 0bbd afec 323d 799b 0bbd 5528 8bbd
000000d0: f3d2 bcbc 5e96 433d cd30 8ebc 4436 3cbd
000000e0: c46c 06bd fdd4 8f3d f70e 93bd a027 48bd
000000f0: 81d5 98bd d744 993d d8aa 44bd 53a9 a13d
00000100: 0064 a3bc 5af3 67bd 3ab2 31bd 720f 8dbd
00000110: dac7 5b3c d80b 09bd 6647 a13d ccc1 023c
00000120: 1770 823c 1ae7 26bd 98a0 dfbc 01ac 44bd
00000130: a1bf d33c 8d59 2e3d ea17 67bd 932e 203d
00000140: c3af adbd 1461 543d ce4b 3d3d 9d82 cbbc
00000150: 5432 8e3c ff7e 79bd ce0a 8abc 591e bf3c
00000160: d1b5 303d b003 92bd 78bf 96bd 3da5 8d3d
00000170: 29c4 fd3c 5b9f 9c3d 3bc2 a0bd 9276 28bd
00000180: 9545 19bd 389c 81bc 3d9b 063c 18a0 95bc
00000190: 2dc0 403d a25d 5abd 19e7 993d f291 31bd
000001a0: 8a09 473d a2a4 943d 7e19 a0bd 94c5 c83c
000001b0: 400b a73c 3c2f a53d 99ae 493d a5e9 b1bd
000001c0: c979 02bd cbea 8dbd b44c 3fbd ea0d d9bc
000001d0: 0c8b 093d 5aff aebd 5125 b03b 27f3 a3bd
000001e0: e74e 8bbc e33c abbd aa27 77bd 243e 1ebd
000001f0: 47bb 103d ccb4 49bd f543 56bd 66c1 1e3d
00000200: 8963 24bd 597b fd3c 56aa c93d 2361 a43d
00000210: 405f 27bc 0e0d 363d 28e1 d7bc 77a5 873d
00000220: e588 bf3b 6950 ea3b f329 aabd 089d a13d
00000230: e8e9 743d c961 17bc 74f0 36bd 0836 d4bc
00000240: ef8c 98bd f25b 66bd f958 303d 9517 61bd
00000250: 7a51 223d c903 2bbd a34b 2cbd 1948 9ebd
00000260: 9764 183c 61fd d7bc 417b 1fbd 8932 30bb
00000270: 6a0b 31bd 3bda 933c 1a42 803d f865 1dbd
00000280: ac31 193d 5ac5 babc fc64 d13c 8b3e 90bd
00000290: 172b 56bd 26f3 1ebd fab0 d939 a0a5 55bc
000002a0: ac28 d5bc 71fd 643d b72d 7abd 4136 b33d
000002b0: 81aa 9a3c 4397 8d3b be4a 9b3d c93a 803d
000002c0: 463b b4bc 1bdc 013d 234d 14bd ab7c 463d
000002d0: 81a8 6d3d 171b a23c 4a03 883a 2328 09bd
000002e0: 0602 dcbc 3c44 9e3d 1aff d23c f208 ee3c
000002f0: f7c4 fcbb b2ca 2dbc cbfe 8e3d 09b6 89bd
00000300: 03d3 813c 4610 77bc 9152 e1bc 522b 8ebd
00000310: 4b4d 813d 9c8b 96bd 2336 ffbc 5a83 783c
00000320: f524 363d b5a3 b0bd a97e 403d 63df ebbc
00000330: 9570 e33c a954 99bd e8e2 99bd c36c a53d
00000340: e822 0c3d 7f4a 973c a3c5 433d bf09 b33d
00000350: f5de 643d c90d 0c3d a67a 8abd 6975 cd3d
00000360: 1513 14bc 046d 7cbc 00eb 973c 50e5 893d
00000370: 3c11 4bbc 17e1 22bd 3c98 4b3d d84a 9b3d
00000380: d001 db3c 4478 653c 8d82 343b 8b64 943c
00000390: b54f 9dbd fd82 29bd 6529 173d b843 b63c
000003a0: 9118 193d 3329 f23b 212b 42bd cdac 02bd
000003b0: 1dfa 0cbc 829a 6cbd bf6a b13d 7183 2abd
000003c0: 1f9a 083c 8b36 b83d 2ea7 94bd 3d05 99bd
000003d0: 6c73 263d 9fc1 723d 213c 09bd a2b4 2a3d
000003e0: 4ecc 783d b451 f0bc 27ea 9c3d 8a42 213c
000003f0: 0bb2 62bc 55d0 0d3d c873 463d 1251 a43d
0.047888324 0.024455644 -0.03724161 0.050553955 0.0012792507 -0.04954332 0.0067187496 -0.009047751
0.026026525 0.013628262 0.06780211 0.0067753294 0.007892491 -0.006926492 -0.061716978 0.04339991
0.07409105 -0.03821126 -0.057852257 -0.034191966 -0.0033360089 0.07202171 -0.016151993 0.081132844
0.07143884 -0.07036766 -0.08723326 -0.009066125 -0.011446646 0.011503188 -0.008667398 -0.03895376
0.015266286 -0.043860167 0.0477311 0.06293275 -0.07254302 -0.06669997 0.06712873 -0.019774893
0.0358692 -0.0847329 -0.052936237 -0.06929285 -0.03081908 -0.06685393 -0.031833567 0.006199626
-0.034073386 0.04368275 -0.034083817 -0.06794802 -0.023049807 0.047750823 -0.017357254 -0.04595019
-0.03281857 0.07023046 -0.07180589 -0.048865914 -0.07462598 0.07483833 -0.04801449 0.07893624
-0.019945145 -0.056628563 -0.04338286 -0.068877116 0.013414348 -0.03345856 0.07874946 0.007980775
0.01592259 -0.04074774 -0.027298257 -0.0480156 0.025848212 0.04256587 -0.05641929 0.039106917
-0.084807895 0.051850393 0.04621487 -0.024842555 0.017357983 -0.06091213 -0.016850855 0.0233299
0.043142144 -0.071296096 -0.073607385 0.06916282 0.030977326 0.07647582 -0.078495465 -0.041128702
-0.037419874 -0.015821561 0.008215723 -0.018264815 0.047058273 -0.05331195 0.075147815 -0.043352075
0.04859308 0.07257964 -0.07817362 0.024508275 0.020391107 0.0806565 0.049238775 -0.08687142
-0.031854425 -0.06929549 -0.04670401 -0.026495893 0.03357987 -0.08544798 0.005375542 -0.08005362
-0.017005397 -0.083612226 -0.06034056 -0.03863348 0.03533485 -0.049244687 -0.052310903 0.038758658
-0.040133987 0.030942606 0.09846942 0.0802634 -0.01021558 0.044446044 -0.02635248 0.06623357
0.0058451765 0.007150699 -0.083087824 0.078912795 0.059793383 -0.009239622 -0.044662908 -0.02590467
-0.07448756 -0.05624003 0.0430536 -0.05495413 0.039628483 -0.041751657 -0.04206432 -0.07728595
0.009301326 -0.026365938 -0.038935903 -0.002688559 -0.043223776 0.018048396 0.06262608 -0.038427323
0.037400886 -0.022799183 0.025560848 -0.07043179 -0.052287187 -0.038806103 0.00041521323 -0.013039976
-0.02602037 0.055905763 -0.061078753 0.087505825 0.01888013 0.0043210103 0.07582615 0.062612124
-0.02200092 0.03170405 -0.036206376 0.048458736 0.058022026 0.019788308 0.0010376957 -0.033485543
-0.026856434 0.077278584 0.025756408 0.029057 -0.0077139097 -0.010607408 0.06982192 -0.067241736
0.015847689 -0.0150795635 -0.027505191 -0.069418564 0.063135706 -0.07350847 -0.031153744 0.015168035
0.04446884 -0.08624975 0.046995793 -0.028793043 0.027763644 -0.07486851 -0.07513982 0.08077385
0.034212977 0.01846814 0.047795903 0.08742093 0.05587669 0.034192834 -0.067616746 0.1003216
-0.009037753 -0.015406851 0.018544674 0.06733191 -0.012394246 -0.039765444 0.04970573 0.07582635
0.026734263 0.014005724 0.0027543635 0.018114349 -0.076812185 -0.041384686 0.03690471 0.022249088
0.037376944 0.0073901652 -0.047404412 -0.031903077 -0.0086045535 -0.057764538 0.08662938 -0.04162926
0.008337527 0.08994778 -0.072584495 -0.07471702 0.04063742 0.059266683 -0.03350461 0.04167617
0.060741715 -0.029335834 0.076618485 0.009842524 -0.013836394 0.03462251 0.04845026 0.080232754

4.bias f4 [128]
00000000: f4e5 09bd 97eb 4b3d 6dc5 da3d b2f0 b2bd
00000010: 66eb afbd eebf 1abd 227c d4bc eda6 8dbd
00000020: ae5e 133e a8e5 ab3d 291d 22bd f75b e93c
00000030: 74d1 d7bc 2db9 e2bb dcd9 ab3d c024 513d
00000040: c979 15be 4864 2d3d 6390 e63d 052d 5bbd
00000050: a6ce 0cbd 7065 073d 8825 2e3d 08e2 9dbd
00000060: db00 dc3d 52f0 1fbd f867 3cbd 6efa a6bd
00000070: 1688 a6bd 3a34 01bd d9f0 e7bc 2d50 fd3d
00000080: 6c19 84bc 31a0 adbc e654 86bd efe0 8bbd
00000090: 9fca 263d a31c 4d3c f2cf 18bd dbd6 c3bc
000000a0: a97b 4b3c 9590 0abd b55b 083e ef2a 073e
000000b0: a989 593d 726d af3d cf53 93bc 2ef7 9fbc
000000c0: cbbb 083c 175b 813d 1476 143d cdc8 3dbd
000000d0: 9be0 3ebb ced5 92ba 15db c6bc 6278 1dbd
000000e0: 4b6b 593b d5c3 a8bd 8e7a 43bd c957 bc3d
000000f0: c949 4f3d 158b 6bbc 8020 e83d a3de 7e3d
00000100: 207b b9bd d8dd a5bd b1be 3d3c af65 f0bc
00000110: a02b 8a3d b063 6d3d c42d c43d 8996 a7bd
00000120: 717f bd3c 0a17 3c3e 4162 6a3e 3caa 153e
00000130: 4881 f8bc 6e65 59bd 1689 a23d f3a2 2dbc
00000140: 1f90 c9bc fdb7 bb3d 9a68 58bd 8bd1 cbbc
00000150: ee2d c03d a202 5f3c e7f6 083e 9ffd 27bc
00000160: e1f2 8cbd dc09 45bc 6068 043e 95a7 713d
00000170: 59b7 94bd f40a 75bc 6f71 9c3d 37f7 a83d
00000180: ffa8 f63d 6ecd e23d e70a 55bd 3b22 90bc
00000190: eb11 0e3c c26b 1bbd d785 d13c f25b b8bc
000001a0: 07ce 093e f569 513b c4a5 5abc 9c97 94bc
000001b0: 44a8 103e a549 b53c f4dd 02bd 8768 3bbd
000001c0: 0543 9bbd 6b89 0b3d 0aa3 4d3e 3cb5 3bbd
000001d0: 20a0 76bd dae2 57bd 56d2 03bd f54e 073d
000001e0: c2b5 833d e997 cb3d 0971 033e d145 c1bb
000001f0: d54e 5a3d 6f72 aebb eed7 e23d bb67 563d
-0.033666566 0.049785223 0.10682187 -0.08737315 -0.085898206 -0.037780695 -0.025938097 -0.06916604
0.14391586 0.08393413 -0.03957859 0.028486235 -0.026344992 -0.0069190473 0.08391163 0.05106044
-0.14597239 0.042331964 0.11258008 -0.05350973 -0.034376763 0.033055723 0.04251626 -0.07709128
0.10742351 -0.039047547 -0.04599759 -0.081532344 -0.08131425 -0.031543948 -0.028313087 0.12368808
-0.016125403 -0.02119455 -0.06559162 -0.06830012 0.04072058 0.012519035 -0.037307687 -0.023906162
0.01241962 -0.03382929 0.13316233 0.13199972 0.0531098 0.08565797 -0.017984299 -0.019527044
0.008345555 0.06316202 0.03624542 -0.046334077 -0.0029125575 -0.0011202635 -0.024274388 -0.038444884
0.0033175524 -0.08240477 -0.0477243 0.09196431 0.050607476 -0.014376421 0.11334324 0.06222404
-0.09056687 -0.08098954 0.011581109 -0.029345362 0.06746602 0.057956398 0.095790416 -0.08183009
0.023132058 0.18368164 0.22889043 0.1461572 -0.030335084 -0.053075247 0.07936303 -0.010597932
-0.024604855 0.09165952 -0.05283413 -0.024880191 0.093837604 0.013611468 0.13375436 -0.010253339
-0.06882263 -0.012026276 0.12930441 0.05899771 -0.07261533 -0.014956225 0.07638823 0.082502775
0.12043952 0.11074339 -0.05201235 -0.017594447 0.008671264 -0.037944563 0.025576515 -0.02250478
0.134575 0.0031954024 -0.013345186 -0.0181387 0.14126688 0.022129843 -0.031949952 -0.045753982
-0.07581142 0.0340666 0.20081726 -0.045827135 -0.0602113 -0.052706577 -0.032183014 0.033034284
0.06431152 0.09941084 0.12836088 -0.0058982153 0.053297836 -0.0053237 0.110763416 0.05234502

6.weight f4 [128, 128]
00000000: 0a57 f13b b661 6f3d 4fdd 7cbc b5a0 2ebc
00000010: 9581 003d ec70 80bd 9e5c 803c b2d4 5c3d
00000020: 9ef4 a53d 22f6 203d 8c5f 0ebd 2fbe 66bd
00000030: d8ce a43d 9647 afbd 2129 e53d e328 1abd
00000040: 6df4 443d 5e64 20bc 945e 9f3d 68b2 8bbd
00000050: 4f4d ab3d 7f52 733d caf6 0d3c 8423 b53d
00000060: d1d8 1ebd 4d02 b6bc 53f0 533a 75c7 3dbc
00000070: 4517 90bd 1a4c d7bb 1cb4 1b3c fe1b 033e
00000080: 1da4 b4bc 2501 633d e4e8 b9bc 3bf4 20bd
00000090: 787e b53d a7fb c1bd 3b0d 043d 4b0c 053d
000000a0: 3bb4 953d b063 32bd 380c cdbc 56bf 6ebd
000000b0: 9fd5 2a3d 74d8 d43c e8f1 2c3d 86e7 413d
000000c0: 23bb 39bc 6349 61bd 20d1 62bc cb13 4a3d
000000d0: 60bd 353d 4b77 803d f1af 973d 66d3 b0bd
000000e0: 427a 7d3c 8392 363d 3277 41bd 41ac b0bd
000000f0: ec9d 983c 7db0 08bd a439 12bd 3991 a03d
00000100: 388e 20bd 24c3 5cbd 4ab6 d1bd c61e 8a3d
00000110: 0187 433d 2aa8 043d 505f 403d 0d06 9dbd
00000120: d7a3 7ebd ec6c 763d f28a 3abd c7e6 88bd
00000130: 3b4d f4bc b008 63bd a934 ab3c 28b7 a0bc
00000140: 2135 6cbd 1b82 c03c ce2c 71bd 0bf8 78bd
00000150: aecf e9bc 2446 10bd 40a8 7cbc acae b13d
00000160: c756 e93c 88e8 35bd 2024 003d 5660 91bd
00000170: 2caf 87bd 9cd5 303b 47ed db3d 6e1c b73d
00000180: f631 63bb 4cd5 8abb 767a 00bd 2f50 8fbc
00000190: 0f12 fdbc 2604 b5bd 34fd 51bd 0f18 7cbc
000001a0: a923 443d c983 ca3d 2410 d53d 359b aa3d
000001b0: 5488 ab3d 67ae a93d 23a4 8b3d 2c74 1c3d
000001c0: 24fd 0d3d d2cf 893d 96c0 233b dd92 c5bc
000001d0: ef88 f93c e666 8dbd 780c 7e3d 5d7d 003e
000001e0: fc2b ac3d 4c9b 63bd a944 963d 36ee 0a3d
000001f0: c4ae 5d3d d963 e83c bd89 8d3d 85e2 a3bd
00000200: 89b0 b23d 0954 90bd 32a7 52bd 814b 923c
00000210: db73 a6bb 0faf 7abd 04f6 843d 7765 803c
00000220: 6ebb a8bc 806f 153d f324 93bd 7b06 9abd
00000230: 2fb1 8a3d 095e 643d e7d9 823d 84f6 393d
00000240: 924c 5abd ddfe 913d 7645 043d 609c 8f3d
00000250: 424b 86bd 0a68 c4bd 2c0e 71bd 002d 22bd
00000260: 50d7 393c 5b05 e5bb 9a1b d03d cb9b 88bc
00000270: 06d5 83bc 01a4 833d dc25 df3d 4494 083c
00000280: 7be5 b13d 166e 49bd 4f01 b63d 83cf 063d
00000290: b032 073c e085 b13d 3131 933d 413c 66bd
000002a0: 9743 0abd 4c58 afbd d5d0 67bc 154e 45bb
000002b0: 00c8 243d 4c5d 843c 95df 63bd ec45 b63d
000002c0: f4ad d6ba 3af4 37bd 4841 393d 61b0 513d
000002d0: 32ac 013d e20f 19bd c511 ecbb 63f5 8b3d
000002e0: e14e 643d 299c 08bb 5410 abbc cbb8 9e3d
000002f0: 6a27 90bc ab30 203d d2a8 7e3d 3b47 9ebd
00000300: d6b4 42bd 08ee 78bd 953a 553b b08f c9bc
00000310: 7d77 42bd fd8b bf3d 296f d83d f3fa 80bc
00000320: 05fb a63c 363e 8dbb 7c8b 603b 1331 6c3d
00000330: 9d7e 1b3d 609c b63d f54b 52bd e283 a4bd
00000340: 67bc 56bc 5c16 c13c 40c6 3a3b a9ad b63d
00000350: 9180 683d 286d 1a3d 0640 c43b 5739 febb
00000360: 78e5 2abc 2fbe 083c 2e95 92bc 6fa5 063c
00000370: c407 763d e305 433d bae6 403d e772 2d3d
00000380: a805 5abc 75ff 0fbd 7957 523d 8457 a13b
00000390: ad38 b13d b098 debb e15c cf3d f4bc 92bd
000003a0: 67af f13d f874 b7bc a08b 463c eaf7 9abc
000003b0: f3a1 9fbc bdc7 153d 4c66 dc3d 1ba2 1fbc
000003c0: a69a 0fbc af6a 26bd d986 65bc 3776 11bb
000003d0: 7fac ca3d 59dc a8bd 67a6 8abd ab57 f53c
000003e0: 5258 eebc 616e 313d 6a80 213d 56cc 62bd
000003f0: 4ed0 a33c b9ec fa3c 8798 7a3c 069d a8bd
0.007365112 0.058442794 -0.015433623 -0.010658433 0.03137358 -0.06271538 0.015669163 0.05391378
0.08103298 0.03929723 -0.03475909 -0.056333717 0.08047265 -0.08558576 0.11189485 -0.03763665
0.048084665 -0.009789554 0.07781711 -0.06821138 0.08364355 0.059404846 0.008664796 0.08844665
-0.03878099 -0.022217894 0.00080848223 -0.011583199 -0.07035688 -0.0065703513 0.009503391 0.12803647
-0.022050912 0.055421013 -0.022694059 -0.039295416 0.088620126 -0.09471827 0.03223918 0.032482427
0.07309767 -0.0435521 -0.02503024 -0.05828794 0.04170763 0.02598212 0.042222887 0.04733994
-0.011336121 -0.055001628 -0.013843805 0.049335282 0.044370055 0.06272753 0.07406605 -0.08634071
0.015471043 0.04457332 -0.047232814 -0.08626605 0.01862999 -0.033371437 -0.0356995 0.07840199
-0.03919813 -0.053897038 -0.10239847 0.06744151 0.04773617 0.032386936 0.046965897 -0.0766717
-0.06216797 0.06016247 -0.045542665 -0.06684642 -0.029821983 -0.055428207 0.020899134 -0.019618586
-0.057667855 0.02349954 -0.05888062 -0.060783427 -0.028541412 -0.03522314 -0.015420973 0.08675894
0.028483761 -0.044411212 0.03128445 -0.07098453 -0.06625208 0.002698279 0.107386164 0.089409694
-0.003466723 -0.0042368528 -0.031366788 -0.01749429 -0.0308924 -0.08838682 -0.051266864 -0.015386595
0.04788557 0.09888417 0.10403469 0.08330385 0.08375612 0.08285218 0.06818416 0.038196728
0.03466524 0.06729092 0.0024986616 -0.024117881 0.030460803 -0.06904392 0.06202361 0.12547822
0.08406827 -0.055568025 0.07337315 0.033918582 0.054121748 0.028367924 0.06911037 -0.080021895
0.08725078 -0.070472784 -0.05142898 0.017858269 -0.005079729 -0.061202105 0.06492236 0.015673382
-0.020597186 0.036483288 -0.07184782 -0.07520767 0.06772076 0.05575374 0.06389218 0.04540111
-0.05329568 0.071286894 0.032292806 0.07012248 -0.06557323 -0.095901564 -0.058851406 -0.039593697
0.011342838 -0.006989164 0.101615146 -0.01667585 -0.016092788 0.06427766 0.10895893 0.0083361305
0.08686348 -0.04917725 0.08886968 0.032912742 0.008251831 0.08668113 0.07187117 -0.056209806
-0.033755865 -0.08561763 -0.0141489105 -0.0030106355 0.040229797 0.016157769 -0.055633146 0.08900055
-0.0016378746 -0.044910647 0.045228273 0.0511936 0.03165836 -0.037368663 -0.0072042667 0.06833913
0.055739287 -0.0020845032 -0.02088181 0.0775009 -0.01759692 0.039108913 0.06217272 -0.0772843
-0.04753574 -0.06077388 0.0032536138 -0.024604648 -0.047477234 0.093528725 0.10568077 -0.015744662
0.020383367 -0.0043103946 0.0034262827 0.05766399 0.037962545 0.08916545 -0.05134197 -0.08032967
-0.013106442 0.023570232 0.0028499514 0.08919842 0.056763235 0.037701756 0.0059890775 -0.0077583003
-0.010430686 0.008346125 -0.0178934 0.008218153 0.060066 0.047613036 0.047095038 0.042345908
-0.013307013 -0.035155732 0.05135295 0.0049237628 0.08653388 -0.006793104 0.10125137 -0.07164946
0.118010335 -0.022394642 0.01211825 -0.018917043 -0.019486403 0.03656744 0.10761699 -0.009743239
-0.008764898 -0.040629085 -0.014009201 -0.0022195706 0.09896182 -0.08245153 -0.0677002 0.02994903
-0.029094849 0.043318156 0.039429106 -0.05537065 0.019996788 0.030630456 0.015295154 -0.08233075

6.bias f4 [128]
00000000: 6f5d 903d 0e0e 183e 76c7 4bbc 05cb 123e
00000010: 0ea3 86bd 6909 35bd aa28 223e 0994 9c3d
00000020: 86d9 313e c983 143e f7aa 883b 2f5c fcbd
00000030: f38f afbd e959 17bd f00f 173d 5a7b 503d
00000040: e541 bcbd 4404 b2bb 5283 9dbd ab81 013d
00000050: ef0e 6d3d a690 2f3e afb3 44bd 52d2 00bd
00000060: 26ba 4b3b 1103 113d 6fca f63c f92d 56bd
00000070: 9e34 fe3c 7387 71bd fa0f 843d ef01 22bd
00000080: 0143 2f3e 9c39 89bc 48c7 833d d5a1 1ebd
00000090: 50a7 ebbd 4f4b 6f3d 9833 683c c329 123e
000000a0: 4cbb 5dbd 0ce2 723e b826 ac3d 1613 df3a
000000b0: 5f57 afbd bc7a 243d 7ad4 883d ff12 d2bd
000000c0: 2f37 f6bc be7a 36bd ac5f 8fbd 447d d7bd
000000d0: ed98 423d 7b98 10bd 7ae8 a23d 917d 0e3e
000000e0: bbae 63bd 0ca3 aebc ee04 6f3e 7508 24bd
000000f0: e8d0 613d 8830 83bd 7f34 fabb 70aa 963e
00000100: 16f2 7a3c 0a70 543c 0025 2bbd 9916 a4bc
00000110: fa9a adbd ee16 49bd 580b 4ebd 3878 3c3d
00000120: 2621 4b3d 06b7 a8bd ab29 823d 4029 443e
00000130: ca5e 703d 72d8 a2bd e4cd 0ebd 7886 a73b
00000140: 5f52 783d 77b3 18ba f022 3abd cf7a f4bc
00000150: eeb3 5cbd 2a62 f8bc 79a4 5f3c 0a8e 023a
00000160: d33f 623c 24a6 efbc 855e a1bc 3347 a63d
00000170: 8d2b e8bd a173 98bd e636 37bd c40d abbd
00000180: 5456 86bb 35c9 7c3d cfa7 a03c 81ba dc3d
00000190: 981e f3bc 4edf f53d 9808 adbd 3c3a a83e
000001a0: 9d96 5fbd af9b aebd 6203 2abd b0ec 0abd
000001b0: d0ac 383d ddf7 33bd 1d2b ec3d 40a0 27bc
000001c0: b7c9 9abc fa52 663d 6fbc ffbc 4ca1 083d
000001d0: 4927 123d bc4f 02be 1f87 663d 5474 08bc
000001e0: 9d5b fabd 201e 11bc bfae 1a3e ca3b 6a3d
000001f0: 2f21 2c3d 2523 633e c66e 133e fc75 873c
0.07049071 0.14849111 -0.012437692 0.14335258 -0.06574069 -0.044198427 0.15835825 0.07645423
0.17368135 0.14503397 0.004170771 -0.1232227 -0.08572378 -0.03695098 0.036880434 0.050898887
-0.09192256 -0.0054326374 -0.07691063 0.0316178 0.05787557 0.17145023 -0.048022922 -0.031450577
0.0031086295 0.035403315 0.030125825 -0.052289937 0.03103095 -0.058967065 0.0644836 -0.039552625
0.17115404 -0.016751103 0.06434494 -0.038728554 -0.11506522 0.05842143 0.014172457 0.14273743
-0.0541337 0.23719043 0.084058225 0.0017019238 -0.085615866 0.04015611 0.06681152 -0.102575295
-0.03005561 -0.04455065 -0.0700067 -0.105219394 0.047509123 -0.035301667 0.07954498 0.13915087
-0.055586558 -0.021317981 0.23341724 -0.040047128 0.05513087 -0.06405741 -0.0076356526 0.29426908
0.015316507 0.012966165 -0.041783333 -0.020030307 -0.08476825 -0.049094133 -0.050303787 0.046013087
0.04959216 -0.08238034 0.06355604 0.1915636 0.058684148 -0.0795144 -0.03486432 0.0051124655
0.06062543 -0.0005825082 -0.045443475 -0.029843716 -0.05388253 -0.030320246 0.013650053 0.0004980272
0.013809162 -0.029254027 -0.01969839 0.08119049 -0.11336432 -0.074439295 -0.04473009 -0.08352235
-0.0040996466 0.061715323 0.019611267 0.1077776 -0.029677674 0.120054826 -0.08448905 0.3285693
-0.054586995 -0.08525788 -0.041507132 -0.03391713 0.04508668 -0.043937553 0.11531661 -0.010231078
-0.018895013 0.056231476 -0.031217782 0.03335695 0.035681996 -0.12725729 0.056281205 -0.008328516
-0.12224505 -0.00885728 0.15105723 0.057185926 0.042023834 0.22181375 0.14397725 0.016535752

8.weight f4 [49, 128]
00000000: 8c39 873d 5ab5 b2bd b97a bebc 7216 173d
00000010: e5f1 0cbe a727 a53d 6909 4bbe 4f22 b23d
00000020: 09af 2ebe 8850 25be f016 dfbd f163 3b3c
00000030: 1b36 68bb f359 8fbb 2ede d53c 07a8 4a3b
00000040: e897 083d 1f5e 553d 97bd 5e3c fdea 693d
00000050: 6e7a 813d 49c6 6dbd 222e a3bd 075f a53d
00000060: 1b92 34bd 8686 033d f5ba 8f3d e9fc 9ebc
00000070: 35a9 6ebd 3f2e 0d3c 85fd ad3d 9756 833d
00000080: 6cf9 c9bd e75e a63d 2ca4 cb3b 8d11 8b3d
00000090: 1618 a4bd 9328 75bc 360e 0f3d 4633 4dbe
000000a0: a409 40ba 8b25 77be 16a2 1bbd c00d c8bc
000000b0: e6d9 343d 5650 7f3d bef2 30b9 d5ee 31bc
000000c0: e265 9b3b 702b d63c aff0 d2bc 3465 21bd
000000d0: eec3 7dbd 06c4 543d 7db3 2abd 3f75 9fbd
000000e0: f8c4 873d 65dd 863d 37db f1bc c56d bfbd
000000f0: 0d5b b1bc ae3b a3bd 66cb 2ebd 2fab 29be
00000100: 6381 9dbd 96de a23d 108d 873b fc87 3aba
00000110: 86f1 fcbc 9e89 613d 8270 de3d 733c af3d
00000120: 8a61 b0bc 9602 db3c 6de6 9e3d 460a d7bd
00000130: 3168 7bbd 7299 88bb 4fdb 9fbc c0da e93c
00000140: 10d2 20bd 7ce7 b43d a67d 3bbd 15f0 aebd
00000150: cb3c 11bd ed7c 923d 08ba 363d 1bbc a4bd
00000160: 396c 363d 4a30 513d d25c 623c 8675 79bd
00000170: 8497 77bd 8471 faba da47 0fbe a38a 043d
00000180: 7b47 a63d 3d08 fc3c 64a5 143d f749 00be
00000190: c4a8 f3bc 6c25 36be 213d 1cbd b63f 6cbe
000001a0: 2b97 c53d 42bc 1e3e 1046 6cbd b28d 433d
000001b0: abaf 093b f159 55bd b5ca dc3c 10a8 533d
000001c0: f890 01bd 7bed 133d a5cd f63c c833 923d
000001d0: c47c 12bd 6803 eb3c adac e5bd 4b55 a03d
000001e0: 68d2 99bd 8fc2 61bd fc0a 81be d81a ca3b
000001f0: 36ad 0bbd eb7c 09be e1ed 34bd b857 8f3d
00000200: f63b 293d 9ef3 c5bd 3bf8 a23c 1a44 edbb
00000210: a5e2 87bc 99e2 073d 590a 4bbd 76d0 a13d
00000220: 94ec 39be 833c ccbc 83ce 1fbe 3c7c 04bd
00000230: c819 4a3d 5b41 bd3c df56 913d e512 023c
00000240: 375d b23d c268 a93c 6690 2a3d f9a8 dabc
00000250: d791 103d f070 14be 9a75 1d3b 414e f33d
00000260: caea 56bc 57ff 2b3c 34a3 043d 0a50 8bbd
00000270: d4bc 4d3c 8276 553b 9674 39bd b400 bfbc
00000280: f4ca d3bd f043 1fbc cee8 f83d 037a 313d
00000290: 2833 1d3d afd1 39bd fffa ab3c d521 f1bd
000002a0: 4252 353d 4289 8bbe cb75 0bbe 8e7d 893d
000002b0: fe1d 3b3d 8b64 39bd 6513 9e3d 3b42 893d
000002c0: 3f6a 0dbd 89ad e53c b633 82bc baac 223c
000002d0: 8335 1bbe e374 7dbd af5a 2bbd b81e 34bd
000002e0: a326 86bd 6f95 383c 9e41 28be 17e2 21be
000002f0: 7573 663d fe2b 353b 5d92 5cbd a116 d3bd
00000300: 205f 19bd a62c 8fbd a1af 813d 4d3c 553c
00000310: 6a56 52bd 7231 363d ce26 c63b 88fd d23d
00000320: 4aa5 98bd f71f 9abc a723 7e3c 18c8 46bd
00000330: 843f 943d ff7f b9bd 0db6 8abd f979 39bb
00000340: 279a 0d3d 5e91 9cbd 7425 183b 2433 a7bc
00000350: b731 9a3d ec9e af3c 76e9 833d 4b6c 07be
00000360: 684e ae3d 1c4b 963d 7382 04bd 5691 e1bd
00000370: 567e 9bbd 8458 62bd 1ae5 20be 6ec3 c63c
00000380: ff5c 18bd 7753 8f3c 2152 d2bc e52c 8cbd
00000390: 5a73 8e3c 87d0 8bbe b65b 313d a7fd 32be
000003a0: 478d cf3d 9ae0 a83d 7ad5 393d e9d2 aebd
000003b0: c255 9c3d feae 323d d26b 98bd ac92 ae3d
000003c0: 950d 87bc 4fb6 8ebc 4b6c 9fbc 33fa 763b
000003d0: d2ba 00be 9ec7 8bbc 58c7 d7bc 17a3 78bd
000003e0: d354 22bd 2bf4 5f3d d5af 61be db85 273a
000003f0: 6b27 8a3c 3e80 3cbe 400c 7cbd 09d8 783c
0.06602773 -0.08725996 -0.023251878 0.03688664 -0.1376415 0.08064204 -0.19827808 0.0869795
-0.17058958 -0.16144001 -0.10893047 0.011437402 -0.003543264 -0.0043747365 0.02610692 0.0030922906
0.033347994 0.052091714 0.013595006 0.057108868 0.0632218 -0.058050428 -0.079677835 0.08074766
-0.04408465 0.032110713 0.07018081 -0.019407706 -0.058266837 0.008616983 0.08495621 0.06413
-0.098620266 0.0812357 0.006214639 0.06790457 -0.080124065 -0.014963287 0.034925662 -0.2003909
-0.00073256553 -0.24135415 -0.037996374 -0.024420619 0.044153117 0.062332474 -0.00016875096 -0.010860165
0.00474237 0.02614376 -0.025749533 -0.039403155 -0.06195443 0.051944755 -0.04167508 -0.07786035
0.06629366 0.065851964 -0.029523475 -0.09347109 -0.021649862 -0.07970367 -0.042674445 -0.16569208
-0.07690694 0.07952611 0.004136689 -0.00071156 -0.030876886 0.055062883 0.10861303 0.08556452
-0.021530885 0.026734632 0.07758794 -0.105000064 -0.06137866 -0.0041686827 -0.019513754 0.028546691
-0.03926283 0.08833215 -0.045774125 -0.08541886 -0.035458367 0.07152734 0.044611007 -0.08043691
0.044536803 0.051071443 0.013816075 -0.060903095 -0.06044723 -0.0019107317 -0.13992253 0.032358777
0.081191026 0.030765647 0.03629054 -0.12528215 -0.02974356 -0.17787713 -0.038144235 -0.23071179
0.096479736 0.15501502 -0.057684004 0.047742553 0.0021009247 -0.052087728 0.026952127 0.05167395
-0.031632394 0.03611515 0.030127356 0.07138783 -0.035763517 0.028688148 -0.11214576 0.07828768
-0.07510835 -0.055117186 -0.25203693 0.006167751 -0.034100734 -0.13426559 -0.04417217 0.06999153
0.04131695 -0.09665607 0.019893756 -0.0072407844 -0.016587565 0.033175085 -0.049570415 0.07901089
-0.18156654 -0.024931198 -0.15606122 -0.03234504 0.049340993 0.023102453 0.070966475 0.007939075
0.087091856 0.020679835 0.041641615 -0.0266919 0.035295334 -0.14496207 0.0024026395 0.1188016
-0.0131175015 0.0104978895 0.032382205 -0.068023756 0.012557227 0.0032571857 -0.0452772 -0.023315765
-0.103414446 -0.009720787 0.12153779 0.04332925 0.038378865 -0.045365985 0.020993708 -0.11774031
0.0442679 -0.27253157 -0.13619153 0.06713401 0.0456829 -0.0452619 0.07718543 0.067020856
-0.034525152 0.02803685 -0.015893798 0.0099288765 -0.15157132 -0.06187905 -0.04183453 -0.04397461
-0.06550338 0.0112660965 -0.16431281 -0.15808903 0.056262452 0.002764463 -0.05385052 -0.103070505
-0.037444234 -0.06990938 0.06332327 0.013014865 -0.051351942 0.04448075 0.0060471063 0.103022635
-0.074534014 -0.01881407 0.01551143 -0.048530668 0.07238677 -0.090576164 -0.06773005 -0.002830146
0.03457084 -0.07644914 0.0023215683 -0.020410128 0.075290136 0.021438085 0.064410135 -0.13224904
0.085110486 0.07338545 -0.03235097 -0.11014049 -0.07592456 -0.055260196 -0.15712395 0.02426311
-0.037198063 0.017495854 -0.025673928 -0.068445005 0.017388988 -0.2730753 0.043300353 -0.17479573
0.101343684 0.08245964 0.045369603 -0.08536322 0.076335445 0.043623917 -0.0744244 0.08524069
-0.016485969 -0.017420916 -0.019460818 0.0037685751 -0.12571266 -0.017062958 -0.026340172 -0.06070241
-0.039631676 0.054676216 -0.22039731 0.00063904905 0.0168645 -0.18408296 -0.06153512 0.015188226

8.bias f4 [49]
00000000: 85e4 c7bd e9a2 68bd 151d 96bd b95c a6bd
00000010: 9b8a 21be 5525 3cbe 7403 d83d 7ed5 f5bd
00000020: ab96 ebbd 8775 febd 4466 30be c0d5 33be
00000030: ab36 16be 4610 cdbd 8709 18be 7551 12be
00000040: 0702 11be 3ba1 4cbe 231f 3cbe 25e5 0dbe
00000050: fa28 c9bd 510a 4dbe b05b 0dbe 3f20 27be
00000060: 6c4a 1fbe fa97 c7bd 7c9e bcbd 7ceb 39be
00000070: e902 07be 70f4 a6bd 38fd e9be 2d1e 40be
00000080: 52a3 d2bd 945e 3fbe 852a 08be d17c bdbd
00000090: 1608 16be af19 e3be 6322 f4bd 920b f6bd
000000a0: 2e1f ecbd 4a29 a7bd 6843 58be e36c d2bd
000000b0: eacd 85bd c383 9cbd ab6d 66bd 6ff7 e4bd
000000c0: 8f38 14be
-0.097603835 -0.05679599 -0.07329766 -0.08123154 -0.1577553 -0.18373616 0.10547534 -0.12003611
-0.11503347 -0.1242476 -0.17226511 -0.17562008 -0.14669292 -0.100128695 -0.14847384 -0.14288886
-0.1416093 -0.1998338 -0.18371253 -0.13856943 -0.09822269 -0.20023467 -0.13804507 -0.16320895
-0.15555733 -0.09745784 -0.09209916 -0.18156236 -0.13184704 -0.081520915 -0.45701003 -0.18761511
-0.10285057 -0.18688422 -0.1329747 -0.092523225 -0.14651522 -0.44355533 -0.11920621 -0.120139256
-0.115293846 -0.08162172 -0.21119463 -0.10274675 -0.065334156 -0.07642319 -0.05625693 -0.11180007
-0.144747
