models/snaps/model_1686257146.4772608.pt (torch, 252691 bytes, 10 tensors)

0.weight f4 [128, 49]
000000 9e f9 26 3d eb 96 18 3d e7 00 2d 3d 02 60 4b 3d
       0.040765397 0.0372533 0.04223719 0.049652107
000010 a7 f2 2d bc 0b 6f fd bd 37 72 96 bd 60 bd 91 bd
       -0.010616935 -0.123746954 -0.073460035 -0.071161985
000020 b1 bb 97 bc ad 62 25 3e 74 ab 0d be 7c ab 96 bc
       -0.018522115 0.16150923 -0.13834935 -0.018392317
000030 b6 ec c6 3d 18 3b 11 3e 96 3f de 3d ef 64 a5 bb
       0.09713118 0.14182699 0.10851972 -0.0050474326
000040 08 f9 24 bd 05 2e 48 bd 5f fe 13 bd fb 08 6f 3d
       -0.040276557 -0.048872013 -0.03613126 0.058358174
000050 84 99 19 3e 97 0a d3 bc 4c ae a8 3d 19 83 ab 3d
       0.14999968 -0.025761886 0.082363695 0.08374614
000060 18 ed 16 3d 7e 14 fd 3d b0 f6 43 bd 3e 75 1e bb
       0.036847204 0.12357424 -0.04784268 -0.0024178769
000070 33 d6 19 3e 17 38 1f 3d 85 63 bc 3c 65 5a 9e 3c
       0.15023117 0.03887185 0.022996673 0.019330213
000080 4a ef ba bd 04 9b 17 3e 83 f7 09 3e 82 00 c9 bb
       -0.09127672 0.14805228 0.13473324 -0.0061340937
000090 09 07 17 be e2 9e 0b bd 9e 44 cc bd a0 57 65 3d
       -0.14748777 -0.03408707 -0.09974025 0.05599177
0000a0 61 ce e7 bd 1d 55 04 bd 70 7c c7 3d 5c 24 1d 3d
       -0.113186605 -0.032307733 0.097405314 0.038364753
0000b0 5a 26 28 be 92 41 f9 bd e0 34 31 3d 2d b5 05 be
       -0.1642088 -0.1217071 0.043263316 -0.13057394
0000c0 fc f0 ef 3d 14 fa 26 3e d7 40 de bb 28 30 15 bd
       0.11715886 0.16306335 -0.006782632 -0.03642288
0000d0 68 06 15 3e d0 0a 61 bd fd e9 06 3e 00 e3 28 3e
       0.14553225 -0.054941952 0.13175197 0.16492844
0000e0 63 d2 f1 bd ed a4 e2 3c ab f4 9c bc 7d bf eb 3c
       -0.11807706 0.027666533 -0.019159636 0.028777832
0000f0 1f 4c cb 3d 5e 95 03 bd 7f 49 02 3e 62 78 84 bc
       0.09926628 -0.03212487 0.12723349 -0.016170684
000100 6e 3d 48 be 71 84 84 bb 61 9f 62 bd 5e 08 85 3b
       -0.19554684 -0.0040441086 -0.055327777 0.0040598353
000110 12 44 03 bb 38 45 16 bd de f2 f7 3d d5 3c 86 bd
       -0.0020029587 -0.036687106 0.1210687 -0.065545715
000120 28 dc 62 3e fa b2 4a 3c 8a 6d 9f 3d 91 08 0f be
       0.22154295 0.012371773 0.07784565 -0.13968112
000130 13 c0 3c 3d 03 cf 31 bd e6 e6 d1 3d 86 1c 0c bd
       0.046081614 -0.043410312 0.102491185 -0.03420689
000140 5d 05 f8 bd d7 99 e4 3d 6b e4 ec 3c 15 2c fa 3d
       -0.12110398 0.11162155 0.028917512 0.12215439
000150 75 11 9c bc 14 5a 30 bd 50 ca 1c 3e 41 23 0e 3c
       -0.019051293 -0.043054655 0.15311551 0.008675397
000160 4b 68 54 bd 14 99 0d 3e 0a 39 8e bd fb 2c 7b 3c
       -0.051857274 0.13827926 -0.06944473 0.015330548
000170 6d b3 fb ba f8 16 76 bd 96 fa 3b bd a0 d7 20 bc
       -0.0019203253 -0.0600805 -0.045893274 -0.009817034
000180 7e b6 ad bd e4 9a e6 3d 4d 1d e1 bc b6 98 34 3d
       -0.08482073 0.11260012 -0.027479792 0.04409095
000190 d1 fa 0e bd d4 ba fe 3d ea b5 b6 bd f2 5a 8d bd
       -0.034907166 0.124379784 -0.08921416 -0.06902112
0001a0 9d af 11 ba 8d fc 96 bd 64 65 09 bd 12 ca 2c bd
       -0.00055574795 -0.07372389 -0.03354396 -0.042184897
0001b0 bb cc 2e 3e 1b 53 58 3d 35 c0 8d bd b9 29 6e bd
       0.17070286 0.05281363 -0.06921426 -0.05814526
0001c0 b6 3c 05 be 35 10 00 3e 1b 82 49 3d 2a a1 46 3d
       -0.1301144 0.12506182 0.049196344 0.04849354
0001d0 a2 ba 51 3d a5 78 3a bd 3b c8 fe bc 6c 20 33 3d
       0.051203378 -0.04552521 -0.031101337 0.04373209
0001e0 d4 c7 b2 3d 96 33 07 bd dc 0b b4 bd 61 5d ea bd
       0.087295204 -0.03300818 -0.087913245 -0.11443592
0001f0 af 6a d3 3d d4 17 93 bd 56 17 20 3d 60 c5 21 3e
       0.10323083 -0.07182279 0.039084755 0.15797949
000200 3b 4a 8b 3d 79 83 94 bd b0 b3 12 be e5 13 1f bd
       0.06801268 -0.07251639 -0.14326358 -0.038837332
000210 5a aa 81 bd b5 a1 08 3d a0 37 49 3e f6 29 9e bd
       -0.0633132 0.03335734 0.19650126 -0.07722847
000220 73 d6 42 3d 0c 1b 5f 3d a7 3e b8 bd 0a 94 78 bc
       0.047567796 0.054469153 -0.08996325 -0.015172014
000230 03 80 86 3d b1 81 01 3d 14 af 16 be f9 93 a6 bd
       0.06567385 0.031617824 -0.14715225 -0.08133692
000240 63 d9 9c bd f6 2c 00 bd f8 0e a0 3b 30 e7 80 3d
       -0.07658651 -0.031292878 0.004884597 0.062940955
000250 61 a1 da 3d 95 02 b5 3d 84 eb 23 3e 51 4a fe bd
       0.10675312 0.08838383 0.16007811 -0.124165185
000260 f2 a6 d7 bd 20 17 6b 3d d9 15 f3 3d 00 c2 c7 3c
       -0.10529889 0.0573951 0.118694015 0.024384499
000270 6c 73 96 3c f6 9f 56 3c 6c 95 c9 3d 74 82 0d be
       0.018365584 0.013099661 0.09842953 -0.13819295
000280 f2 09 54 3d 75 81 3d 3d d8 51 aa bd 0e f2 9f 3d
       0.051767297 0.046266038 -0.08316392 0.0780984
000290 3b 54 7d 3c 22 24 39 be b9 bb c5 3d 9a 71 f2 3d
       0.015461977 -0.1808019 0.09654946 0.11838074
0002a0 34 1b 19 bd 09 eb cc 3d 32 10 3b bd b2 16 39 3e
       -0.03737946 0.10005767 -0.045669742 0.18075064
0002b0 95 75 8a bc 01 5d ff bc d4 fb 06 bc d7 51 a7 bd
       -0.01690177 -0.031172277 -0.008238751 -0.081699066
0002c0 e4 22 8d 3d a1 a8 2b 3d 3d 7b 89 bc 80 fd 04 be
       0.068914205 0.041908864 -0.016782397 -0.12987328
0002d0 1a 04 c0 3d 19 8d a3 3d ea 59 a8 bb 64 a9 91 3d
       0.09375782 0.079858966 -0.0051376717 0.07112387
0002e0 66 83 1b be 81 e0 d0 bc e0 91 a6 bd 1c d6 1f bc
       -0.15186843 -0.025497677 -0.08133292 -0.0097556375
0002f0 dc 7b e7 3d 3c c3 1b 3d f2 62 d0 3d 64 30 8e 3d
       0.11302921 0.038027987 0.10175122 0.069428235
000300 dd 95 d7 3d d2 e5 8a 3d a4 33 e4 bd d3 e1 86 bd
       0.10526631 0.06782116 -0.11142662 -0.06586041
000310 69 fe c1 3d c7 21 26 3d 4e bb 99 39 9e 9d 50 bd
       0.09472353 0.040559556 0.00029321987 -0.050931565
000320 f5 be 05 3d 0b d5 89 3b 16 17 f7 bc d2 02 0d be
       0.032652814 0.004206305 -0.030162375 -0.13770607
000330 36 c7 90 bc a4 11 97 bc 92 5c 9e ba 14 b4 0b be
       -0.017673116 -0.018441029 -0.0012082031 -0.13642913
000340 56 a0 66 3d 18 ae fa 3d 8b 98 d0 3d f4 bf ee 3c
       0.056305252 0.12240237 0.10185345 0.029144265
000350 91 d7 b7 3d 85 d9 49 bc 00 42 0e 3e c3 f6 4f bd
       0.08976663 -0.012319927 0.13892365 -0.05077244
000360 25 c7 d6 bd 6b 5b 0e bd b5 fe 9b 3d e6 f9 0f 3e
       -0.104872026 -0.03475515 0.07616941 0.14060172
000370 b9 f0 21 be 44 2a de bd 09 4f 65 3d a6 a4 80 3d
       -0.15814485 -0.10847905 0.055983577 0.06281404
000380 48 84 9c bd ff a3 be bd 62 fc 76 bd dc 91 4a bd
       -0.07642418 -0.093086235 -0.060299285 -0.04945551
000390 a0 0b 1d 3e 43 fd da 3d 1e eb 1e bd ac bd 54 bc
       0.15336466 0.10692837 -0.038798444 -0.012984674
0003a0 58 af 19 be 09 82 df 3d da 03 58 bd f2 86 76 bd
       -0.15008295 0.10913474 -0.052738048 -0.060187288
0003b0 7d 8c 51 3d 04 8f e7 bd d4 28 ea 3d f9 58 a3 bd
       0.05115937 -0.11306575 0.114335686 -0.079759546
0003c0 3f 5c fc bd 2e 1d 58 3d c1 16 c8 bd 94 7f 23 3d
       -0.12322282 0.052762203 -0.09769965 0.03991659
0003d0 16 1c f4 3d 92 36 12 be 5a 0f 80 bd 03 c2 06 3d
       0.119194195 -0.1427863 -0.06252928 0.032899868
0003e0 b8 58 0a 3e b3 58 c5 bd 61 b7 16 3e 83 34 fe 3d
       0.13510406 -0.09636059 0.14718391 0.124123596
0003f0 58 08 68 bd 0b a0 09 be 8f eb 6d bd 30 2e 94 bc
       -0.056648582 -0.13439958 -0.058085974 -0.01808843

0.bias f4 [128]
000000 fa 0d 34 3e bb d0 82 3d 52 f2 6a bd c3 1a f5 3d
       0.17583457 0.063874684 -0.05736 0.11967995
000010 74 05 46 3e ba 05 b6 bd c5 c1 33 3d 3b 7e b7 3d
       0.19338018 -0.08887811 0.043885965 0.089596234
000020 97 7e 8d bd ef c4 57 bd da 8c 79 bd 37 18 12 3e
       -0.06908911 -0.052678045 -0.060925342 0.1426705
000030 67 f6 fa 3d 6a 2c 82 bd 97 2d 14 3c 75 4f 8b bd
       0.12254029 -0.063561276 0.009044073 -0.068022646
000040 cd 55 61 bd 1a ac 78 3d 84 bf 52 3e d5 a0 36 bd
       -0.055013467 0.060711004 0.2058087 -0.044586975
000050 19 e7 6a 3d 4b 48 3f 3e 63 7b 94 3d bb a4 e8 3d
       0.0573493 0.18679921 0.07250097 0.11359545
000060 31 40 35 3d 81 74 5c bd e2 05 0f 3e 6b 52 1d 3e
       0.04425067 -0.053822044 0.13967088 0.15363471
000070 d2 d2 7c bd 7a d9 41 bd a9 00 cd 3c e3 21 bb 3d
       -0.06172449 -0.047326542 0.025024729 0.09137323
000080 2b ab f0 3d 88 6b 86 bc b5 92 a4 3d 0d 0c ae 3d
       0.11751398 -0.016408697 0.08035795 0.08498392
000090 9f a1 cc bd c3 65 47 3d 1e fe 08 bd c8 2d 66 3e
       -0.09991764 0.048681032 -0.03344547 0.22478402
0000a0 c5 59 24 bb d7 66 df 3c 7f 9f 13 3e 78 dd 4b bd
       -0.002507792 0.027270718 0.14416312 -0.049771756
0000b0 e6 b2 f3 3d bf e1 67 ba 57 8f c5 3d 97 ad 93 3d
       0.118993565 -0.00088455895 0.096464805 0.07210844
0000c0 ed 49 8a 3c 5d 9b d7 3d d2 e0 b3 3d 29 13 ba bd
       0.016880954 0.1052768 0.087831154 -0.09085686
0000d0 54 f4 19 3e bf a7 fc 3c 61 f9 a0 3d 3c 59 98 bc
       0.1503461 0.030841706 0.07860065 -0.018597238
0000e0 33 a8 8a bd ac 7b 32 3c 49 87 56 3c 6c 94 9f bd
       -0.06770363 0.0108937435 0.013093778 -0.07791981
0000f0 2a 50 8e bd 52 86 f3 3d 71 d6 08 3d a7 e1 3f bd
       -0.06948884 0.11890854 0.033407632 -0.04684606
000100 d9 03 d8 bc a7 1b 01 3e 2d bb b9 3d d6 5f a2 3d
       -0.026369022 0.12608205 0.09068904 0.079284355
000110 ea b6 42 3e 68 3d 6a 3d fd db a2 3d b1 4f 80 3d
       0.19015089 0.057187468 0.07952116 0.062652
000120 ef 52 18 3d a5 09 d4 3c 62 af 35 3e ba 29 f6 bb
       0.037188467 0.025883505 0.17742684 -0.0075122984
000130 c7 97 18 3e 09 53 4f 3c 2b 74 c8 3b f9 fd 26 bd
       0.14901648 0.0126540745 0.006117364 -0.04076955
000140 76 2f 02 3e 94 91 be 3d a1 df 2d bb 4c 6d 3e 3e
       0.12713417 0.093051106 -0.0026530998 0.18596381
000150 ff 08 54 bd 0e a9 96 3d b5 23 85 bc 5e 56 b5 3b
       -0.05176639 0.073564634 -0.016252378 0.0055339774
000160 ed 61 7e bd ac f0 c8 3c 22 6c 15 3e 5b f5 d3 3b
       -0.062105108 0.024528824 0.1459203 0.0064684576
000170 81 24 99 bd 22 d3 97 3d a8 2b 81 3d c4 06 25 bd
       -0.07477666 0.07413317 0.06307155 -0.040289655
000180 91 43 89 3d 64 46 26 3e a1 c9 ac bd b2 18 1b bd
       0.067023404 0.1623779 -0.08436895 -0.03786535
000190 63 02 08 bd 96 39 64 3c fd 79 61 3d b7 cb ed bd
       -0.0332054 0.013929745 0.055047978 -0.11611121
0001a0 be 46 25 3e d8 28 64 3d 88 66 7e bd 74 12 1b 3e
       0.16140267 0.055703014 -0.0621095 0.15143758
0001b0 3c 2d 55 3e ef 63 07 3d 03 9d a1 3d 5d ae 34 bd
       0.20818037 0.03305429 0.07891276 -0.0441116
0001c0 cd 3f 56 3d 22 23 34 3e c1 50 22 3e 28 97 02 3d
       0.05230694 0.17591527 0.15851118 0.031882435
0001d0 2d 66 dc bd e8 92 15 3e 31 d2 ed 3d 3d 11 3c 3e
       -0.10761676 0.14606822 0.116123565 0.18365951
0001e0 d1 22 c7 3d 83 dc c5 bc f0 41 61 3e 4a ef 86 bd
       0.097234376 -0.024153 0.2199781 -0.065886095
0001f0 18 fc 1e bd bc 8b 80 3d af 65 ca 3d e1 36 04 3e
       -0.038814634 0.06276652 0.09882676 0.1291156

2.weight f4 [128, 128]
000000 81 b8 35 3c 34 8e 4a 3c f5 ab 7f bd 9e 0d 9b bd
       0.011091352 0.012363005 -0.06241985 -0.07570957
000010 0f 50 73 bd b9 68 a9 3d f8 40 31 3d 4b dc 2e bc
       -0.05940252 0.082719274 0.04327485 -0.010672639
000020 71 1d 83 3d 7f 6c f7 bc c9 a3 e6 3d d6 fd ae 3d
       0.064021 -0.030203102 0.11261708 0.08544509
000030 41 1b 8e 3d 30 9b e6 bb d7 5c c7 3c 5b 44 a0 3d
       0.06938792 -0.0070375428 0.024336262 0.07825538
000040 f4 21 78 3d 96 58 0e 3e 59 a4 cb bc 20 4a ff bc
       0.060579255 0.1390098 -0.02485864 -0.031163275
000050 fb 72 9f 3d ae e9 75 3d e9 15 7a bd fe 61 0d 3e
       0.07785603 0.060037307 -0.06105605 0.13806912
000060 d2 4a 02 3c 5a 39 a7 bc 9c 53 d0 3d b8 a0 22 3d
       0.007952409 -0.02041309 0.10172197 0.039704055
000070 92 3b d8 bc 13 ed 1a 3e 08 f6 89 bd 80 c5 68 3d
       -0.026395593 0.15129499 -0.0673638 0.056828976
000080 ce bb 27 3e 36 4b 76 3c 1e 2a 6b 3c cf a8 14 3e
       0.16380236 0.01503258 0.014353303 0.1451752
000090 b3 be 1a 3c 0c c8 eb bc c6 09 0b 3d e3 97 16 3d
       0.00944488 -0.028781913 0.033944868 0.036765944
0000a0 0a 11 d9 3d 62 f3 d2 bc 81 b9 0d 3d 2c fe 3d bd
       0.10598953 -0.02575082 0.03460074 -0.046384975
0000b0 78 a7 2a 3b 4d 5b 30 3d aa a7 88 3d 58 aa af bb
       0.002603976 0.04305582 0.066726044 -0.0053608827
0000c0 25 a6 86 3d cd 12 62 bc bd ef 1e 3a 61 4b 5a 3d
       0.06574658 -0.013798428 0.00060629455 0.053294543
0000d0 d1 2f 14 3d ed 68 0a bd 5e 26 7a bd 63 bd 92 bc
       0.036178414 -0.03379147 -0.061071746 -0.017912572
0000e0 03 79 fa bc 5b ca ad bd a6 40 e4 3a ac f5 c3 3d
       -0.030575281 -0.08485862 0.0017414286 0.095683426
0000f0 1d 20 e0 3d 31 fb fd 3d ff e5 78 bd 24 29 1a bd
       0.10943625 0.124014266 -0.060766216 -0.03763689
000100 e7 15 11 bd 4a c5 4f 3d b2 47 75 3c 22 b2 f5 3c
       -0.03542128 0.05072526 0.014970707 0.029992167
000110 b5 6c b5 3d 3c 76 ae bd 92 a8 2a 3c 48 07 b1 3d
       0.08858625 -0.08518645 0.010416167 0.08643967
000120 00 59 bf bc 6a 45 d2 bd 8a a2 c9 3d 16 35 2b 3d
       -0.023357868 -0.10267146 0.09845455 0.041798674
000130 a4 e4 5f 3d fa 86 1d bd 04 46 89 bd a9 6b d1 bb
       0.054661408 -0.0384588 -0.067028075 -0.006391008
000140 85 c2 b2 3d 3c a8 62 3b 16 96 83 3d 3c 19 b2 3d
       0.08728508 0.0034585139 0.06425111 0.08696219
000150 8e 68 78 bd 18 63 d1 3c 2f 07 73 3d ef 1c 8b 3c
       -0.060646586 0.025559947 0.059333023 0.01698157
000160 06 ff af bc af 38 97 3d 24 11 e6 bc 3a af 06 bd
       -0.02148391 0.073838584 -0.028084345 -0.032881953
000170 38 6b 88 bc 39 b4 54 bd 6e 7c 89 3d e4 37 45 3d
       -0.016652688 -0.051929686 0.06713186 0.048149005
000180 33 14 a6 bc bc 11 08 bc a8 f9 9a 3d 58 b9 68 3d
       -0.020273304 -0.008305009 0.075671494 0.056817383
000190 36 21 ac 3d ab 6b ae bc ff 3e 1e bc 0c 0b 98 3c
       0.08404772 -0.021291574 -0.009658574 0.018559955
0001a0 01 18 04 3d 5d 56 8b 3c ee 13 8e bd 02 27 c8 3d
       0.032249454 0.017008955 -0.06937395 0.09773065
0001b0 29 82 94 3d 4b b2 b5 3d 80 28 a0 3c 0d da c6 3c
       0.072513886 0.08871897 0.019550562 0.024273897
0001c0 ec 1c 18 bc ab 72 f0 3c d9 89 59 3c f1 a2 a9 3d
       -0.009284239 0.029351553 0.013277494 0.08283032
0001d0 15 12 34 3d bd 70 02 3e fc 93 09 3c 8b 77 03 3d
       0.043962557 0.12738319 0.008397099 0.032096427
0001e0 0b 39 60 3d a4 03 03 3e 64 71 82 3d ae e5 ea bb
       0.0547419 0.12794358 0.06369284 -0.0071684932
0001f0 0c 3b b5 3d 5e 2b ba bd b2 c6 f4 3b a5 db 01 bc
       0.08849153 -0.09090303 0.0074699754 -0.0079259025
000200 03 69 13 3d 01 4a 4b bd a6 25 47 3d 4c 29 48 bc
       0.03598882 -0.049631122 0.04861989 -0.012216877
000210 28 4a 02 bc 6d 79 0a 3e d5 68 f4 3c 11 05 b7 3d
       -0.007952251 0.13522883 0.029835144 0.08936513
000220 ae 59 b0 3d 85 7c e4 3d 82 75 89 3d c2 49 a1 3b
       0.08610855 0.11156563 0.06711866 0.0049221227
000230 fd c2 c6 3d 77 2c e0 3d 5a 7e 9f 3d bc ba 9b 3d
       0.0970516 0.10945981 0.077877715 0.07603976
000240 4c 44 da 3d 34 74 03 bd 15 c6 4c 3d f5 73 d1 3d
       0.10657558 -0.03209324 0.049993593 0.10227195
000250 92 ce e3 3d cc 7a be 3d 23 b8 c0 3d 4b d6 46 bd
       0.111233845 0.093007654 0.09410121 -0.04854421
000260 a2 3a e7 bc 81 10 02 bc 06 41 5d bd e8 87 b9 3d
       -0.0282262 -0.007938505 -0.05401709 0.09059125
000270 69 af 74 bb aa 8e 24 bd 1d b0 61 bc 55 51 63 ba
       -0.0037335998 -0.040175118 -0.013774899 -0.0008671482
000280 09 2c cf 3d 5c 90 fd 3c 93 d4 0f 3e 6a 55 8e 3d
       0.10115821 0.030952625 0.14045934 0.06949885
000290 a5 d1 76 3d f8 04 05 3e e0 47 13 bd e3 7f b2 3b
       0.060258526 0.12990177 -0.035957217 0.005447374
0002a0 cf f4 96 3d bc 8e be bc e4 f9 ba 3c c3 1c d2 bb
       0.07370912 -0.02326142 0.022824235 -0.00641212
0002b0 4a 8b 8d 3c fa 51 0a 3e f5 85 34 3c c5 61 4f 3d
       0.017278332 0.13507834 0.011018266 0.05063035
0002c0 5d e8 64 3d b5 ec 41 bd 56 8e 1b 3d 09 69 85 3d
       0.05588566 -0.047344882 0.03797754 0.065141745
0002d0 2d 96 0e 3c 58 00 98 bc d6 0b d0 3c 4f d0 10 bd
       0.008702797 -0.018554851 0.025396269 -0.03535491
0002e0 8c e9 7c bc 46 d0 67 3d 75 b8 ab 3d 5f 81 39 bd
       -0.015436541 0.05659511 0.08384792 -0.045289394
0002f0 87 d9 82 3c 2d 94 d5 3c a6 45 bf 3d 03 2b a5 bd
       0.015972866 0.026071632 0.09339456 -0.080648445
000300 73 76 a8 3d e2 6c 5f bd 51 74 d1 bd 24 2c 98 3d
       0.082257174 -0.054547198 -0.10227264 0.07430294
000310 00 5a eb bc 41 6f cd 3d a6 5c d1 bb 09 8a 2b 3c
       -0.028729439 0.100309856 -0.0063892184 0.010469922
000320 6d 29 40 3c 6e 23 2d bd ab 5a fa bc db 00 8a bb
       0.011728627 -0.042270117 -0.030560812 -0.0042115278
000330 7a a2 4c 3d ab a2 7a 3d 05 e1 cd 3c bf 30 0d 3e
       0.049959637 0.06119029 0.025131712 0.13788126
000340 f3 87 2a bd 77 0a a9 bd 3a 20 5c bc 93 f7 8a 3d
       -0.041633558 -0.08253949 -0.013435418 0.06785502
000350 6b 51 15 3d ad 41 35 3d 84 cd c7 3d 9d 1e 03 3e
       0.0364546 0.044252086 0.09755996 0.12804647
000360 84 81 76 bd 9a 01 fe 3c 9d 1a 50 3c 6c 9e 88 3d
       -0.06018211 0.031006623 0.012701658 0.066708416
000370 7c 57 91 3d aa 6f 75 3a b0 d0 53 bd 63 7b 18 3d
       0.070967644 0.00093626475 -0.05171269 0.037227046
000380 d1 3f be 3d f8 c5 8e bd bb b8 c2 3d 2c 55 fc 3d
       0.09289516 -0.06971353 0.09507891 0.12320933
000390 eb 92 ce bb 12 f0 f7 3d 66 13 9e bd 84 52 21 bd
       -0.006304135 0.12106337 -0.07718544 -0.039385334
0003a0 50 8e 7b bd ef f2 ce 3d 65 2a a1 3c b2 0c bd bd
       -0.061415017 0.1010493 0.019673536 -0.09230937
0003b0 07 b9 fe ba 69 ca da 3d db ec ea 3d 11 7a 82 3d
       -0.0019433805 0.10683138 0.11470958 0.063709386
0003c0 b5 2e e0 3a 19 b7 85 bd dc 85 a8 3d c5 8e 6a bb
       0.0017103764 -0.06529064 0.08228657 -0.0035790664
0003d0 d9 a9 a7 bc 21 fe 24 bd 56 c6 a7 bc 36 6e aa bc
       -0.020466732 -0.04028142 -0.020480316 -0.020804506
0003e0 b6 db 17 3e df 1c c9 3c 99 30 87 3d 8b 10 1e bc
       0.14829907 0.0245499 0.06601066 -0.009647499
0003f0 2f 53 2d bd 31 c0 40 3d 5e e9 ac 3d 4a 4c 2e 3d
       -0.04231566 0.047058288 0.08442949 0.042553224

2.bias f4 [128]
000000 5e f1 a1 3d 1b f3 7b bd 28 91 a3 3d 00 1a ca 3c
       0.07907365 -0.06151114 0.07986671 0.0246706
000010 8d f5 5a 3c 87 51 c0 bd ba 77 9c 3d d5 0a 90 3c
       0.013364208 -0.0939055 0.076400235 0.01758329
000020 7e 6b e5 3d 33 b2 bb 3d cb 72 e3 3d 67 a1 85 bd
       0.11202143 0.09164848 0.111058794 -0.06524926
000030 61 6d 3b bd 83 7e a3 3d 66 86 60 3d 8f cc 93 39
       -0.04575861 0.079831146 0.054815672 0.00028190433
000040 08 13 2e 3d 49 80 61 bc a0 88 fb 3b 79 71 59 3b
       0.04249862 -0.013763496 0.007676199 0.0033179207
000050 78 64 2f bd 07 b0 e9 3d 78 da 76 3d 3a f1 83 3d
       -0.042820424 0.11410528 0.06026694 0.06442495
000060 5e 52 23 3e d1 ed 0d 3c cd ea ad 3d 30 7c 69 3d
       0.1594939 0.008662657 0.0849205 0.0570032
000070 31 dd 00 bd 36 f3 28 bd 55 ec 3f 3c 9f 58 ea 3d
       -0.031460945 -0.04124757 0.011714061 0.114426844
000080 2a a1 b0 3d 7b f7 96 3d d5 ca ee 3d 5a 88 11 3e
       0.086244896 0.07371422 0.11659781 0.1421217
000090 9b 0a 30 bd 30 45 bf 3d bd fc 14 bd 7e b4 ef bb
       -0.042978864 0.09339368 -0.036373843 -0.0073152175
0000a0 0e 09 5b 3d 02 5d 27 bb a7 22 98 3d 6e 3d 95 3d
       0.053475432 -0.0025537615 0.074284844 0.072871074
0000b0 ff 58 14 3e 4a af a8 3c 4a cd f0 3d 7f a1 9e 3d
       0.14487074 0.020591397 0.11757906 0.07745647
0000c0 1f b1 32 3d da 6d 36 3d a4 d4 15 bd 43 d4 be 3d
       0.043625947 0.044538356 -0.036579743 0.093178295
0000d0 c4 cb fa bc 14 36 82 bd 24 5f 36 3e d1 7c 94 bd
       -0.030614741 -0.06357971 0.17809731 -0.07250369
0000e0 a0 dc b4 3d 42 7d 4e bd 81 40 c2 bc 8c 60 6d 3d
       0.088311434 -0.050412424 -0.023712398 0.057953402
0000f0 fb c7 44 bd b8 a2 f7 3c 5d bb 9b 3d 44 17 b9 b9
       -0.04804228 0.030228958 0.07604096 -0.00035303284
000100 1c 09 18 bd 94 68 0e 3d df d4 16 3d bb 4b 9e bd
       -0.037118062 0.034767702 0.036824103 -0.07729288
000110 e9 41 08 bd d8 78 0c 3c 51 e1 60 bd 9b b7 a4 3d
       -0.03326598 0.008573733 -0.05490238 0.080428325
000120 87 57 08 3a 84 55 1e bd c9 d2 82 bc 0b 25 54 bd
       0.0005201031 -0.038655773 -0.01596965 -0.05179314
000130 d7 34 40 bd bf 3d fc 3c 74 de 53 3d 0e 4c 97 3d
       -0.046925392 0.030791162 0.05172582 0.07387553
000140 3e 22 10 3d 66 33 b2 bd 10 67 4f 3d 60 79 ca 3c
       0.035188906 -0.0870121 0.050635397 0.02471608
000150 f7 71 a0 bc ba ad 86 bc 4b 1a 94 3d 19 e8 a1 3d
       -0.019585593 -0.016440261 0.072315775 0.07905597
000160 1d 77 95 3c 27 36 e7 3d a3 cb 07 bd fe 7e d1 3d
       0.018245274 0.112896256 -0.033153187 0.102293
000170 5c 2a ab 3d d1 ef 37 3d 14 02 d3 3d ae 08 c6 3c
       0.08357689 0.04490644 0.10303131 0.02417406
000180 cf 4e a8 3d b0 e2 b1 3c 48 4f 57 3d 0d c3 0c 3d
       0.082181565 0.021714538 0.052565843 0.034365702
000190 10 f2 db 3c be 72 03 3e 67 70 91 3d 4e c9 ce bc
       0.026848823 0.1283674 0.07101517 -0.025242474
0001a0 71 2a 85 3d 59 d9 16 3e a0 bf bb bc a5 c2 8a bc
       0.06502236 0.14731349 -0.022918522 -0.016938517
0001b0 6b 78 84 3d 8d 9f 77 3d cb 0f a7 3d ad 4c d3 3d
       0.064682804 0.060454894 0.08157309 0.10317359
0001c0 d6 19 b1 3d df 63 b5 ba ae 06 9e bb d8 1f 14 3e
       0.08647506 -0.0013838968 -0.0048225736 0.14465272
0001d0 d3 d4 90 bd 13 08 cb 3d cc 94 63 bd ac 6a 18 3d
       -0.07071843 0.099136494 -0.055561826 0.037211105
0001e0 1a 39 af 3c 1e 13 20 3c c4 79 62 bd 9a 68 05 3e
       0.021389533 0.009770183 -0.055291906 0.13028184
0001f0 e7 8d 3d bd 06 47 e9 bc 64 35 9a bd 1c a5 36 3d
       -0.046277907 -0.02847625 -0.07529715 0.044591054

4.weight f4 [128, 128]
000000 57 ba a8 3c 02 5c 92 bd 11 cf 9a 3d 48 83 06 be
       0.020596666 -0.07146455 0.07559026 -0.13136017
000010 e7 0d 87 3d 76 53 46 3d ff 50 fb 3d 60 f9 c3 bd
       0.065944485 0.04841944 0.12271308 -0.09569049
000020 85 9f 12 3d fc 02 71 3d e8 53 b8 3d fa 13 18 3d
       0.03579666 0.058840737 0.09000379 0.037128426
000030 69 59 9e 3d 8c d5 f7 bb 9e 21 ca 3c 04 16 72 3d
       0.077318974 -0.0075632986 0.024674233 0.059103027
000040 f4 12 b5 3d bd 9e ae bd d0 6f ec 3b de 87 66 3d
       0.08841506 -0.08526371 0.0072154775 0.056281917
000050 d0 d9 ea bd 31 64 48 3d 80 5c 00 3e d9 42 95 3d
       -0.11467326 0.048923675 0.12535286 0.07288141
000060 e2 46 ac 3d a7 e4 ad bc fe 6a ad 3c 76 d8 a7 3d
       0.08411957 -0.021227194 0.021169182 0.081955835
000070 d6 49 7f bd ae 65 80 3d 13 6a d7 3c 10 1c 56 3d
       -0.062326275 0.06269394 0.026295697 0.052272856
000080 c0 b4 e4 bb 23 05 a8 3d 99 4a 0f 3d d5 b7 9f bc
       -0.006979555 0.08204105 0.03498325 -0.019496838
000090 51 38 aa 3d 45 67 31 bd e8 c2 60 3d 30 d3 5b bc
       0.08311523 -0.043311376 0.054873377 -0.01341705
0000a0 a5 d9 6b ba 6e 1a 97 3d b7 7b bf 3d 95 a0 3b bd
       -0.000899697 0.07378088 0.093497686 -0.04580744
0000b0 42 2f 07 3d 36 02 4b 3d c7 a2 8e 3d 77 71 89 3d
       0.033004053 0.049562655 0.06964641 0.06711095
0000c0 0c fb 20 3d cb 05 b6 bd 61 95 f4 3c 36 8b 76 bb
       0.039301917 -0.08887824 0.029856386 -0.0037619597
0000d0 17 10 ad 3d 64 52 a2 bc e2 53 0a 3d 7c bd 57 3c
       0.084503345 -0.019814678 0.033771403 0.013167735
0000e0 db 1c 12 3e 1e 9f a9 3c f8 88 e6 3c 7b a5 75 3c
       0.1426882 0.020705756 0.028141484 0.014993067
0000f0 69 08 42 bd fc a6 95 3d e4 75 1a bd aa 2b d3 bc
       -0.0473713 0.0730724 -0.037710086 -0.025777657
000100 4f 92 7d 3d bb 3a 0d 3c 5e 19 8c bd 07 f8 24 3d
       0.06190711 0.0086199595 -0.06840776 0.0402756
000110 12 19 9c 3d 66 d6 f5 3d 1d 20 22 bd 98 a1 34 bd
       0.07621969 0.12003784 -0.039581407 -0.04409942
000120 4e 2b 6d 3d 05 d0 40 bc 5d 7f 86 3d 37 57 41 bd
       0.057902627 -0.011768346 0.06567261 -0.047202315
000130 05 1f 3e 3d 90 d0 12 bc e8 ad ea 3d 6f 2b 46 bd
       0.0464163 -0.008960858 0.11458951 -0.048381265
000140 ba 6e 6f 3d 67 88 50 bd 2c 98 52 3c 41 5c 82 bd
       0.058455206 -0.050911333 0.012853663 -0.06365252
000150 4b ee 13 3d 4e aa d8 bc 27 43 30 ba 05 64 f8 3c
       0.036115926 -0.026448395 -0.00067238737 0.03032113
000160 cf 33 0d 3d d2 55 f0 bc 58 c8 98 bd a6 d4 11 bc
       0.034473237 -0.029337797 -0.074600875 -0.008900797
000170 58 ca 51 3d d6 bf 39 3c d9 8b 05 bc 7e 1e f5 3d
       0.05121836 0.011337241 -0.008151018 0.119687065
000180 3e 9c 99 bd df bf f6 ba 9c fb 47 bc d2 8c 5d 3b
       -0.07500504 -0.0018825493 -0.012205984 0.003380586
000190 0f 97 7c 3d b9 00 11 bd 81 a2 8c bd 72 c6 c7 bb
       0.0616675 -0.03540108 -0.06866933 -0.0060966546
0001a0 96 3e c9 bd 97 7a c7 3c 38 ac 2a bd cb 6b a1 bc
       -0.098263904 0.024350448 -0.041668147 -0.01970472
0001b0 fd 5a ee bc 19 59 88 bd 3e 65 28 bd 2d a5 8c 3d
       -0.029096121 -0.06657619 -0.041112177 0.06867442
0001c0 bc 31 89 3c ef 0f 71 3d fe 65 93 3d 87 59 92 3d
       0.016747348 0.058853086 0.07197188 0.07145982
0001d0 7e e1 4f bd 23 07 66 bd bf 66 31 bd 3f bb 1c 3e
       -0.050752155 -0.05615915 -0.043310877 0.15305804
0001e0 a4 23 ac bd 9d 7c b6 bc d7 53 bf 3c ea 7c bf 3d
       -0.084052354 -0.022276217 0.023355408 0.09349997
0001f0 8e 76 b1 bd 63 5f cc bd 0f e7 cd bd 7e a3 90 3d
       -0.08665191 -0.09979131 -0.100538366 0.07062434
000200 a6 8f 18 bd db dc a2 3c 25 70 15 3c 1a c6 1d 3d
       -0.03724637 0.019880703 0.009120976 0.038519002
000210 dd 8b 7b bc 4d 35 9d 3b b4 98 8d bd 2b d7 de 3d
       -0.01535317 0.0047976137 -0.069138914 0.10880884
000220 8c 45 8c 3d 5d 8f 9a bd 70 83 0c 3d 82 04 e7 3c
       0.068492025 -0.075468756 0.034305036 0.028200392
000230 12 77 9c 3d 3d eb 55 3d 6b 45 ef 3d e3 b7 4b 3d
       0.07639898 0.052226294 0.11683162 0.049735915
000240 70 8b 42 3d 59 3d 0c 3e ca 6c 91 bc 98 c8 fa 3d
       0.04749626 0.13695277 -0.01775207 0.122452915
000250 20 98 ff 3c a8 3a 09 bd 89 6d fe 3c bb 2c 69 bd
       0.031200469 -0.033503205 0.03105809 -0.056927424
000260 0c 48 b1 bd 70 42 d5 3c 16 10 d0 bc bc bf 0b bd
       -0.0865632 0.026032656 -0.025398295 -0.0341184
000270 a7 cc 7b 3d 05 89 3d bd 2e 56 e7 3d 29 cc 01 3d
       0.06147447 -0.04627325 0.11295734 0.031688843
000280 a2 c6 9b bc df a1 a0 bc 76 5c 7c bd 89 f7 18 bc
       -0.019015614 -0.019608436 -0.061611615 -0.009336361
000290 2e ac 06 3e 1a 55 be bd 25 31 06 3d 75 ef c9 3d
       0.13151619 -0.092935756 0.03276171 0.09860126
0002a0 66 a1 84 3c 0b 8b 83 3d 41 2e 86 bd c5 3a 52 3d
       0.016190242 0.06423005 -0.06551791 0.05132558
0002b0 7b ff 63 bd 8f 39 23 bd b8 43 6b bd 0e cf b2 3d
       -0.055663567 -0.039849814 -0.05743763 0.08730899
0002c0 7d bb c5 3d 5d 61 c1 bc 6b 0c d8 3c f4 9b 0c bd
       0.09654901 -0.023605997 0.026373109 -0.034328416
0002d0 a8 03 c0 bb c5 2b b2 3c 2c ee 03 bd 9d 4a 24 3c
       -0.005859811 0.021749387 -0.03220956 0.010027555
0002e0 80 50 a1 bc 63 00 e7 3d 22 69 7d 3d 47 45 86 3d
       -0.019691706 0.11279371 0.06186784 0.06556182
0002f0 68 54 1e 3d 23 40 2e 3d eb f1 38 bc 0b 06 01 bd
       0.038654715 0.042541634 -0.0112881465 -0.031499904
000300 9a c2 8c bd 21 70 d9 3d f6 29 10 3d 89 a3 07 3e
       -0.06873055 0.1061709 0.035196267 0.13245977
000310 25 e0 a8 bd 46 6f a5 bd eb 10 6a 3c c2 ed 6e bc
       -0.08245877 -0.08077864 0.01428626 -0.014583053
000320 ce fb c4 3a e0 5f 66 3d 25 1a c2 3b d6 5f 62 bd
       0.0015028657 0.056243777 0.005923527 -0.055267178
000330 ed 28 0f bd f0 38 18 3d fc 08 b0 3d ad c5 a0 39
       -0.03495114 0.037163675 0.08595464 0.00030664858
000340 ed 3a 23 3c 3f e5 16 3d b4 99 28 3d da a6 01 3e
       0.0099627795 0.03683972 0.041162208 0.12661305
000350 0c f8 f2 3d ef 0a 0a bc 09 54 da 3d 42 cd 04 bd
       0.118637174 -0.008425458 0.1066056 -0.03242231
000360 44 1e d9 bc dd 59 8a 3d 06 83 73 3d e6 7b 01 bd
       -0.02650369 0.06755421 0.059451126 -0.0316123
000370 bb 89 d3 3c 63 a0 ef 3b 64 df ff 3c 7d ad f1 bd
       0.025822511 0.0073128208 0.03123445 -0.118006684
000380 64 8b 80 3d 1b 0c db 3c bb 55 dd 3d a8 34 82 3d
       0.06276587 0.02673917 0.108073674 0.063577
000390 9d 62 06 bd 85 2b 72 3d 55 db a1 3d 1c bd 09 3e
       -0.03280889 0.059123535 0.079031624 0.13451046
0003a0 00 a5 fb 3d e3 2f 59 bd b4 75 f9 3d e8 95 05 3e
       0.122873306 -0.053024184 0.12180653 0.13045466
0003b0 b3 b8 1b 3d a3 65 d8 3d 24 6e a3 bb f8 b9 0c bd
       0.03801794 0.10566261 -0.004987495 -0.03435704
0003c0 8f 29 9f bc da b0 dd 3c b7 b2 3e 3d 2d ac e4 3b
       -0.019428996 0.027061868 0.046557155 0.0069785328
0003d0 fe 38 14 3e e3 3e 36 bd dc df ed 3d 10 60 a6 3c
       0.14474866 -0.044493567 0.116149634 0.020309478
0003e0 09 99 9b 3c 1b 19 43 bd 99 44 aa 3d d8 2d ab 3d
       0.018993871 -0.047631364 0.08313865 0.083583534
0003f0 16 f9 91 3d 14 cd dd 3d ff 30 0e 3e 2e 41 6d 3d
       0.071275875 0.10830131 0.13885878 0.05792349

4.bias f4 [128]
000000 32 a3 0a ba f7 51 a6 bd 4a d0 f6 3d 6e 95 8e bd
       -0.00052886 -0.08121102 0.12051447 -0.06962095
000010 b3 71 99 bd 5e 41 5c bd f0 86 92 bd 18 66 9c bd
       -0.074923895 -0.053773277 -0.071546435 -0.0763666
000020 17 e5 04 bc 3f f9 17 bd f4 0c 93 3d 37 90 bf 3c
       -0.00811126 -0.037102934 0.07180205 0.023384197
000030 be 8e b1 3d a2 07 9d bd fa a0 8b 3d 8c 90 c3 3d
       0.08669804 -0.076674715 0.06817813 0.095490545
000040 28 aa 80 3c 12 3b e7 3d 84 14 aa bd 6f b9 ad 3d
       0.015706137 0.11290564 -0.08304694 0.08482634
000050 29 8d 86 3d 9a 85 30 bd 74 00 ca 3d dc 5b e9 3c
       0.06569893 -0.043096162 0.09863368 0.028486185
000060 63 85 e7 3d 29 24 db bc 05 3b 25 bd 71 16 41 3d
       0.113047384 -0.026750641 -0.04033949 0.047140542
000070 47 c3 27 bd ee 34 b5 bd 07 9d 5d 3d 1b 52 aa 3d
       -0.040957715 -0.08847986 0.05410483 0.083164416
000080 99 32 c4 3d 25 d2 3d bd 0e 98 91 3d 84 ce 55 3c
       0.09579963 -0.046342988 0.0710908 0.013049725
000090 cb b3 84 bd db 14 47 3d 5e b7 3a 3d 89 b5 42 bd
       -0.06479605 0.048603874 0.04558503 -0.047536407
0000a0 dd 12 08 bd 4c 1b ea 3d d8 1e cf 3b e6 14 48 3d
       -0.033221114 0.11430988 0.0063208155 0.048848055
0000b0 77 05 19 bd 8f 61 74 3d a9 05 dc bd c1 1d a4 3d
       -0.037358727 0.05966335 -0.10743267 0.080134876
0000c0 cc b4 05 3d 1b fa e1 3d 4f 3d b3 3d f1 ce 85 3a
       0.032643124 0.11034032 0.08751928 0.0010208768
0000d0 15 27 27 bc 1c 12 18 3d 12 04 c5 3d ed f6 cc 3d
       -0.010202189 0.037126645 0.09619917 0.10008035
0000e0 3d 1c cc bd b4 7f 80 bd 5e 33 97 bd 1a 14 00 bc
       -0.099663235 -0.062743574 -0.073828444 -0.007817293
0000f0 8b 07 56 bd 62 9b 53 bc ef 41 ef 3c e2 cf 55 3d
       -0.052253287 -0.012915464 0.029206244 0.052200206
000100 35 89 3f 3d 9d 8d ba 3b af 20 1e 3d 6f 12 d6 bc
       0.04676171 0.005693151 0.03860539 -0.026131837
000110 74 21 d2 bc 82 69 71 bd 56 ce 56 3d 1d 96 74 bd
       -0.025650717 -0.05893851 0.05244287 -0.05971347
000120 7c 52 05 3d c3 39 c1 3d 7d e7 53 3d 88 c0 a3 3d
       0.032549366 0.09434845 0.051734436 0.07995707
000130 eb 87 3c bd 4d 53 4b 3b 79 35 ba 3d 67 37 e8 bc
       -0.04602806 0.0031024993 0.0909223 -0.02834673
000140 ef 8b ad bd 14 c5 64 3c 32 54 21 3d b9 90 5c 3c
       -0.08473956 0.013963003 0.039386936 0.013462239
000150 e5 db 20 bd 1d 0d 95 3d 73 e3 e9 3d ba b0 05 3d
       -0.039272208 0.07277892 0.114203356 0.032639243
000160 c7 3d 41 b9 01 31 2e 3d b8 3f c6 bc ed 9b ab 3c
       -0.00018428928 0.042527203 -0.024200305 0.020948375
000170 0d 94 74 bd 4c 95 b0 3c 91 9b c2 bd 0a 76 81 3d
       -0.059711505 0.021555565 -0.09502328 0.06321342
000180 e1 30 52 3d c7 3d 29 bd 01 da 3a bd e5 87 15 3d
       0.051316146 -0.04131868 -0.04561806 0.036506552
000190 8b 92 a7 3d 96 e2 8a bd 3d c1 9c bd 99 16 f0 3d
       0.08182248 -0.06781499 -0.07654045 0.1172306
0001a0 ed 0d 5f bd ae 14 a0 bd 32 4c de 3d 8f ac d2 bb
       -0.05445664 -0.07816444 0.10854377 -0.006429262
0001b0 78 7e b9 3c c3 4f cb bb 2a d5 0d bd 51 18 3e bd
       0.022643313 -0.0062045767 -0.034627117 -0.04640991
0001c0 f6 68 b2 3d 69 cd 89 3d c0 98 97 3d 77 70 ca 3c
       0.08711426 0.06728632 0.074021816 0.02471183
0001d0 00 13 4f bd aa bf ab bd 22 87 4d bb 03 88 ce 3b
       -0.05055523 -0.083861664 -0.0031361063 0.006302835
0001e0 78 f0 2e 3d 82 bf 96 3d 1a 2f 20 bc 1d 52 d8 3c
       0.042709798 0.07360746 -0.009776855 0.026406342
0001f0 d4 89 c4 3c 4e 36 e0 bc 53 ec 00 bd d8 3c 56 3d
       0.023991503 -0.027369644 -0.031475376 0.05230412

6.weight f4 [128, 128]
000000 b4 4c 14 3d 37 e4 dd bd e5 07 f0 3d 33 ee 30 bc
       0.036205962 -0.10834544 0.11720256 -0.010798979
000010 8a 87 7b 3d 4a 26 c5 3b 13 6d 38 3d 18 0c 73 bd
       0.061408557 0.0060165273 0.045025896 -0.059337705
000020 0a 40 6a 3d c1 6f 71 bd 37 fb 43 3d e3 05 8c bb
       0.05718998 -0.058944467 0.047847 -0.0042731627
000030 9c 0e 8f 3a 50 0b 5b bd ae 95 82 3d 32 a7 bc 3d
       0.0010914388 -0.053477585 0.063762054 0.092115775
000040 1e 91 92 bd 96 62 73 3d 63 81 8d 3d 36 69 fd 3b
       -0.07156585 0.05942019 0.06909444 0.0077334894
000050 62 f7 85 3a a1 f0 20 bd af 7a e8 3b ee d9 39 bc
       0.001022082 -0.03929198 0.007094703 -0.011343462
000060 7c 79 cb 3d 70 49 b5 bc e9 12 9d 3d 0a 39 87 ba
       0.09935281 -0.022129744 0.076696225 -0.0010316682
000070 3f e4 b3 bd b5 62 05 bd 8c ba 01 3e e8 f4 37 bc
       -0.08783769 -0.032564837 0.12668818 -0.011227824
000080 d4 82 ac 3d e7 f7 3a bb f8 b8 b6 3d 3f 23 ad 3d
       0.08423391 -0.002852911 0.08921999 0.08453988
000090 aa ff b5 bc e5 69 8e 3d d4 9f 49 3c 74 6f ea 3c
       -0.022216637 0.069537915 0.012306172 0.028617598
0000a0 5e 1d 3e 3d a2 a0 e8 3d 1d 8c 94 bd 20 6e 93 3b
       0.046414725 0.11358763 -0.07253287 0.004499212
0000b0 33 56 9c 3c da 99 cf 3d c3 a8 d8 3c ee a2 42 bd
       0.019084072 0.10136767 0.02644766 -0.047518663
0000c0 99 7e 00 3d 96 15 35 bc 60 2d 87 bc ca cb 6d 3d
       0.031370733 -0.01105251 -0.016501129 0.058055677
0000d0 1c 33 84 3d 8c 82 a7 bc 5c 84 57 bd f5 a4 0d 3e
       0.06455061 -0.020447992 -0.052616462 0.13832457
0000e0 8b 6b 4e bd ec b9 3e bd f7 6a d9 3b 89 eb e5 3d
       -0.05039553 -0.046564028 0.0066350657 0.112265654
0000f0 8a 7c 1d bd e2 12 a3 3d 65 64 27 3c 92 40 21 bd
       -0.038448848 0.07962586 0.010216807 -0.03936822
000100 64 a1 b2 39 d5 54 10 3b 7f 2f d2 3d 5a 0a 20 bc
       0.0003407105 0.002202322 0.102629654 -0.009768093
000110 b4 53 bf bc da 07 64 3d c6 4d 0a bd b0 f8 2d bd
       -0.023355342 0.05567155 -0.033765577 -0.042473495
000120 6a 96 60 bc e5 73 b2 bb 62 33 92 3d 34 11 16 bc
       -0.0137077365 -0.0054459446 0.07138707 -0.009159375
000130 75 4f 37 bd 73 90 d7 3b 77 69 7c 3d a4 50 c3 bd
       -0.04475351 0.006578499 0.061624017 -0.09536865
000140 68 fb 1d bd e4 5f e9 bb dd 87 19 bd 6c 70 e6 3d
       -0.038569838 -0.0071220268 -0.037483085 0.112519115
000150 5f ad 7d bb 91 b6 52 bd f9 55 12 bd 6d a3 9d 3c
       -0.0038708074 -0.05144364 -0.03572652 0.019242967
000160 92 79 ba bd b1 c4 71 3c 01 1c d1 bc 11 82 a4 bc
       -0.09105219 0.014756368 -0.025526049 -0.020081552
000170 24 65 81 3d 56 70 a4 bc 7a 81 da bd 96 0a 99 3c
       0.06318119 -0.020073097 -0.10669227 0.018681806
000180 1e 04 7c 3d 73 29 e1 bd e3 5c b1 3d 9a cf 03 bd
       0.061527364 -0.10994234 0.08660295 -0.032180406
000190 51 f0 7d 3d 49 d7 1d bd ac 6d 14 bd 78 4e 99 3d
       0.06199676 -0.03853539 -0.036237404 0.0748567
0001a0 48 3b b6 bc 21 eb 97 3d 86 15 84 3d b5 7e 8a bb
       -0.022245064 0.07417894 0.06449418 -0.0042265304
0001b0 45 f1 e7 3d aa 7d 9b 3b 63 0f 8a 3d dd 94 61 bd
       0.113253154 0.004745205 0.06741216 -0.055073608
0001c0 99 38 dc 3d 92 75 ad 3d 9c a6 66 bd a8 24 50 3d
       0.10752983 0.084696904 -0.056311235 0.050816208
0001d0 9b d4 99 3d 71 58 bd bc 4c 3d 81 3d 93 3f 9d 3d
       0.075112544 -0.023113461 0.063105196 0.076781414
0001e0 ee b6 6a 3d bd 00 2e bc be f8 fb 3c c0 2a d8 3c
       0.05730336 -0.010620293 0.030758258 0.026387572
0001f0 22 bc c5 ba b5 28 34 3d 30 20 7e bd be bb 87 bd
       -0.0015085975 0.043984134 -0.062042415 -0.06627606
000200 91 12 bc 3d 33 86 11 bd 37 b2 3f bd 19 c4 84 bd
       0.09183229 -0.035528373 -0.04680082 -0.06482715
000210 65 2e 49 3d d9 e2 97 3d 0c 26 55 3c 76 57 9d 3d
       0.04911651 0.07416315 0.013009559 0.076826975
000220 11 62 73 3c 2c 70 cf 3d 82 54 97 3c 6f d3 58 3d
       0.014854924 0.10128817 0.018472914 0.052936014
000230 a7 36 58 bc b5 5d cc 3c ee 9f ae bb 03 ee 87 bd
       -0.013196624 0.024947027 -0.0053291237 -0.06637194
000240 94 2d f1 bc 29 79 1a bd b9 48 c8 3c b5 dc 08 bd
       -0.029440679 -0.037713204 0.02444874 -0.033413608
000250 92 7c 7d 3c bb e4 5e bc e7 20 0c bd 10 77 2a 3c
       0.015471594 -0.013604338 -0.034211066 0.010404363
000260 5a 20 6c 3c 8a 57 02 3d eb 07 83 bd fa 81 7b bd
       0.01441201 0.031821765 -0.063979946 -0.061403252
000270 14 21 05 3d d0 5d 03 3d ff 6b 1e 3b cc 72 75 3d
       0.03250225 0.03207189 0.0024173257 0.059923932
000280 be 2f 60 3d 48 d9 ea 3d ae a0 30 bd c7 68 9f bc
       0.05473303 0.11467224 -0.043121986 -0.019459141
000290 6e bc 1f bd 40 37 64 bc 1e c3 f5 3d 53 33 8a bd
       -0.03899806 -0.013929188 0.12000106 -0.067480706
0002a0 81 5f 93 bd 9d cf f3 3d 1d 43 08 3d 38 83 95 bd
       -0.0719595 0.119048335 0.03326713 -0.073004186
0002b0 b4 db 90 bd 1d 30 c7 3d 6a 7e 04 3d 2f 73 5b 3c
       -0.07073155 0.09725974 0.03234712 0.013394161
0002c0 ae 85 1b 3d 73 19 fd bc 7b 4c 93 3d 10 1a 58 bd
       0.037969284 -0.030895924 0.07192322 -0.05275923
0002d0 73 3f 8a 3b 41 94 90 bb f4 6a 0b 3c 8d ce 8b 3c
       0.0042189895 -0.0044122045 0.008509386 0.017066265
0002e0 3f 4d 44 3d aa ad 04 3d 6a 0c 30 bd 02 68 80 3d
       0.04792523 0.03239218 -0.04298059 0.06269838
0002f0 fa e8 e7 bc 76 e3 85 3d a8 5d ed bc 91 fb b6 3d
       -0.028309334 0.06537525 -0.028975323 0.08934701
000300 8b d3 b7 3d 50 82 3b bc 75 b5 a3 3d b2 01 3b bd
       0.089758955 -0.011444643 0.079935946 -0.045655914
000310 4a 56 77 3d d9 f1 f4 3c c3 a8 87 3d f3 81 c8 3c
       0.060385026 0.029900478 0.066239856 0.024476027
000320 92 b6 91 bd fb a2 1d bd 4b e4 90 3c 00 87 a0 3c
       -0.07114901 -0.03848551 0.017686984 0.019595623
000330 74 ee 5b bc ee 90 06 be 63 c2 9a bd c4 f3 81 bd
       -0.013423551 -0.13141224 -0.075566076 -0.06345323
000340 04 95 6f 3d e9 c0 f6 3d 8f 4a 93 ba 62 95 97 3d
       0.05849172 0.120485134 -0.001123743 0.074015394
000350 ce 63 89 3d 72 b5 94 bc 98 83 9e 3d f2 58 72 bc
       0.06708489 -0.018152926 0.07739943 -0.014791714
000360 a8 f2 d1 bd bd 35 ed bd d1 92 8e 39 13 cb 51 3d
       -0.10251361 -0.115825154 0.00027193737 0.051219057
000370 84 2e b5 3d 87 f8 a3 3d e3 b5 8d bd 3e 2a c3 bb
       0.08846763 0.08006387 -0.06919458 -0.0059559634
000380 9f fd d9 3b 1a f1 86 3d fd 49 7d 3c 0e d3 9f 3d
       0.0066525484 0.06588955 0.015459535 0.07803927
000390 0c f6 a5 3b 8c 39 2b 3b 77 8e 8c 3c ae 52 a6 3c
       0.0050647315 0.002612683 0.017157776 0.020303097
0003a0 b8 8e 5b 3a 0a 6a 5e bc ea 93 ff 3c 2a 60 e1 3d
       0.0008375454 -0.013575086 0.03119846 0.1100467
0003b0 5a e1 3e 3d 51 9c d8 bc 06 87 ca 3d bd 1e 95 3d
       0.04660163 -0.026441725 0.09889035 0.072812535
0003c0 d8 75 80 3a 8d ac 8a 3c bd 4f 0e 3d ca a7 b8 bc
       0.0009800745 0.016927982 0.034744013 -0.022540946
0003d0 5f fb a7 3a d3 65 8f bd 96 19 17 3d bb d5 c2 3c
       0.0012816003 -0.07001843 0.036889635 0.023783555
0003e0 d0 20 14 3c 65 14 b5 bc 87 f0 28 3d 81 81 7d bd
       0.009041026 -0.022104451 0.04124501 -0.061891083
0003f0 b2 18 7f 3d 69 3b 44 3d 66 c6 33 bd d0 67 e5 b9
       0.06227941 0.04790822 -0.04389038 -0.0004375563

6.bias f4 [128]
000000 1c bd 04 3c 37 c2 8e bd 44 ee 85 3c 4f 1a a6 bd
       0.008101728 -0.06970637 0.016348965 -0.08110487
000010 21 9c 24 3d e1 93 e8 3d 18 87 02 ba 37 c8 47 bd
       0.04018796 0.11356331 -0.0004979237 -0.048774924
000020 98 7f a1 3d 00 71 01 bc 22 48 c1 3d 05 b6 9c bc
       0.07885665 -0.007900476 0.09437586 -0.019129762
000030 cd 23 81 3d 36 cc 8b bd 74 f8 3f bd 80 e9 27 bd
       0.063056566 -0.068260595 -0.046867803 -0.040994167
000040 5f 4c 00 bd 2b 4a ad 3d 8f 66 98 3c f9 67 34 bc
       -0.031322833 0.08461412 0.018603591 -0.011011117
000050 e6 b0 0f bd 27 37 26 3d 89 f3 80 3c 3d ed 77 bc
       -0.035080813 0.04057994 0.015741127 -0.015132246
000060 dc 55 91 3d f2 6e e7 3d 02 2e c6 3d d5 04 d1 3d
       0.070964545 0.11300458 0.09676744 0.10206
000070 97 ae 46 3d 71 e3 d1 3c a5 60 20 3c 7a 6a 7c 3d
       0.048506346 0.025621148 0.009788667 0.06162498
000080 7d c8 bc bc c5 3a 6d bd 4b 9d 51 bd ae 85 68 3c
       -0.023044819 -0.057917375 -0.051175397 0.014192028
000090 cb 5d 64 bc be 74 48 3d 60 11 b5 bc 35 62 85 3d
       -0.013938378 0.04893946 -0.022103012 0.06512872
0000a0 18 ad 6f 3c 4a 22 77 bd 61 1a 12 3d a6 d4 86 3d
       0.014628671 -0.060335435 0.035669688 0.06583528
0000b0 84 2e 42 bc 66 23 a8 bd 2b 38 8b bd d2 3c ac 3d
       -0.0118519105 -0.08209877 -0.067978226 0.08410038
0000c0 1d 54 48 bd 28 2f 78 3d aa ee 4f bd 3d 8c 07 bd
       -0.04890834 0.060591847 -0.050764717 -0.033092726
0000d0 70 5f 9c bd 69 55 fc 3c a8 5b 74 3d c4 a2 ce 3c
       -0.07635391 0.030802445 0.059657723 0.025224097
0000e0 1d c7 63 3d 76 ad 1b bd 1d c1 57 bd b9 ec 2f 3d
       0.05560981 -0.038007222 -0.0526744 0.042950366
0000f0 89 ca 16 3a 79 4e 82 3c 5a 55 a5 bd fa 55 0d bd
       0.0005752226 0.01590656 -0.0807292 -0.03450582
000100 47 a8 95 3d 3b 03 f5 3c ec 92 22 bd 55 15 44 bd
       0.07307487 0.029908767 -0.039690897 -0.047871906
000110 1a 2f c1 bb f0 e5 a6 3b 32 ef a2 bd ed 74 df bc
       -0.0058955075 0.0050933287 -0.07955779 -0.027277434
000120 1f 7c 84 3c bf 19 96 bd 96 d7 82 bd d3 67 4d bc
       0.016172467 -0.073291294 -0.06388776 -0.012536961
000130 6f f5 79 bc 0a 16 7f 3c 34 56 99 3a cf 43 98 3d
       -0.01525627 0.015569219 0.0011698664 0.074348085
000140 d4 ac 59 3c 9d 04 89 bc 59 40 73 3d 56 68 50 3c
       0.013285834 -0.016725833 0.05938754 0.012720188
000150 6c 92 9e bc 08 3d df bc 3f 38 44 3d 60 93 23 3d
       -0.019356929 -0.027250782 0.047905203 0.03993547
000160 d0 35 72 3d 8a 20 6a 3d 81 16 84 bd 84 45 95 3d
       0.05913335 0.057159938 -0.06449605 0.0728865
000170 e3 7e f2 bc 9a 26 08 3d 10 bf 43 bc c6 9a ff 3c
       -0.02960152 0.03323994 -0.011947408 0.031201731
000180 04 b5 e8 3b ac e6 cc bc c2 47 12 bd b3 6f 13 3d
       0.007101657 -0.025012337 -0.035712965 0.035995197
000190 65 28 99 3d 7f 03 c0 3d d0 75 0f 3d 13 b5 88 bd
       0.07478408 0.09375667 0.035024464 -0.06675162
0001a0 7f 1b f2 3c 72 7e cc bc c3 97 0b 3d ac a0 92 3c
       0.029554127 -0.024962638 0.034080278 0.01789888
0001b0 85 c8 c9 3c 01 8a 94 3d ef 0a 69 bd 5d 9a ff 3d
       0.024631748 0.07252885 -0.056895193 0.12480614
0001c0 d7 53 fa 3c ab b9 9a bd f6 5f c6 3d 01 d0 99 3d
       0.030557556 -0.075549446 0.09686272 0.07510377
0001d0 b2 c8 24 3d 89 be 72 3d 27 72 a2 3d 8f e8 7a 3c
       0.04023046 0.05926374 0.07931929 0.015314235
0001e0 76 2e 84 bc 27 0f e7 bc 21 7f 82 3d 35 01 39 3c
       -0.016135436 -0.028205467 0.06371904 0.011291792
0001f0 cb c0 af bc 67 c8 a5 3c fb 1a cc bc 57 d5 98 bd
       -0.021454236 0.02023716 -0.024915209 -0.07462566

8.weight f4 [49, 128]
000000 91 7b 10 bd fc 95 82 bd 0d cf 4e bc c3 9d 4c 3d
       -0.035274092 -0.063762635 -0.012622607 0.04995514
000010 5a d4 cb 3d 4c 3d 98 3d ff 74 8e bd 56 50 0c bd
       0.09952612 0.074335665 -0.06955909 -0.0342563
000020 c2 a2 e4 3d 4c f5 bb bc 82 d7 91 3d 20 4c a1 bd
       0.11163856 -0.022944115 0.07121183 -0.07875848
000030 56 da 41 3d e4 e5 7c bd 20 f8 d8 3d ab 1c bb bd
       0.047327362 -0.06174268 0.10594201 -0.09136327
000040 20 7d 64 bb 4d 48 00 3d d9 98 74 3d e3 cb 6a 3d
       -0.003486462 0.03131895 0.05971608 0.057323348
000050 e5 36 0a 3d 53 c8 fa bc b4 68 a7 3c f4 1c 2c bd
       0.033743758 -0.0306131 0.020435669 -0.0420198
000060 45 32 f0 bc a1 a2 2f 3c d2 00 99 bd 44 37 9d bc
       -0.029320845 0.010719926 -0.074708596 -0.019191392
000070 5e 86 ce 3d 83 0f 22 3d 5f ff 98 bd 03 86 2e bc
       0.10084222 0.039565574 -0.07470583 -0.010652068
000080 d4 a0 d3 3d 09 3d 7c bd 12 82 75 3d 6b ca cc bc
       0.1033341 -0.061581645 0.059938498 -0.024998864
000090 1a dc a8 bd 95 c7 85 3d 0b 8a 82 3d 44 d2 bc 3c
       -0.08245106 0.06532208 0.06373986 0.023049481
0000a0 86 a5 a3 3d 10 8a 94 bb f0 f6 92 3c 7e bd 46 bd
       0.079905555 -0.00453306 0.017940015 -0.048520558
0000b0 35 e7 3d 3d 8f 09 05 bd ca 56 8a bd fc 0a 01 bb
       0.046363074 -0.03247982 -0.06754835 -0.0019690385
0000c0 c9 e4 59 3d 22 03 6e bd b4 80 e9 3c 2f 8f 23 bd
       0.053196702 -0.058108456 0.028503753 -0.039931472
0000d0 08 8c 65 bc 43 28 f2 3c 9b ec ad bd 09 69 01 3d
       -0.014010437 0.029560214 -0.084923945 0.03159431
0000e0 2c 9a 8b bc e7 b6 0a 3c 6e 3a 53 3d ca af 85 bd
       -0.017041288 0.008466459 0.051569395 -0.0652767
0000f0 33 df 43 3b c9 74 3f 3c 52 19 51 3d 68 7b 70 bc
       0.0029887676 0.011685559 0.051049538 -0.01467786
000100 f5 2e a1 bd 77 38 c3 bd 40 5d dc 3c bb ed 8d bd
       -0.078702845 -0.09532254 0.026899934 -0.06930109
000110 ca 7a 2d 3d 12 52 59 3d 0a 7f a1 bc 74 ef e2 3c
       0.04235343 0.053056784 -0.019713897 0.02770207
000120 d8 6e 8b 3d 2b c5 4d 3d bf 85 1a 3d e4 3e c1 3c
       0.06808251 0.050236862 0.037725206 0.023589559
000130 c0 a8 34 3d 82 48 86 bd ac ec cb 3d eb 2e ed bc
       0.044106245 -0.065567985 0.09957251 -0.028953036
000140 dc e9 33 bd c2 0a 2d bd d6 14 6b bd 0e 0c 0c 3b
       -0.043924198 -0.042246588 -0.057392918 0.002136949
000150 12 5e 61 3c 00 b2 f1 ba 97 8c c2 3c 6f 27 4d 3d
       0.013755338 -0.0018439889 0.02374868 0.050086435
000160 e8 c0 86 bd 35 82 79 3b d6 d3 4a bd 03 c5 f5 bc
       -0.06579763 0.0038071994 -0.04951843 -0.03000117
000170 1f f6 ea bc d4 95 6f 3d 8a 8e 31 3d 23 9f e0 bc
       -0.028681813 0.058492497 0.043348826 -0.027419632
000180 8d 3b 10 3d 47 2d 5b 3c 02 b7 3c 3d 96 38 31 3d
       0.035213042 0.013377494 0.046072967 0.043266855
000190 a9 54 85 3d 85 9f 49 bd f0 b1 6f bc 7e d4 69 3d
       0.06510288 -0.049224395 -0.014629826 0.057087414
0001a0 5b 18 cc 3d 8c 36 61 3c 7f 48 fb 3c cf 39 00 bd
       0.09965583 0.013745915 0.030674217 -0.03130513
0001b0 4a 06 45 3c 6d 00 0e 3d 2b 94 b7 bb 7e c1 79 3d
       0.012025425 0.034668375 -0.00560238 0.060975544
0001c0 44 1d 39 3c 9d f2 03 3d c4 95 f0 3c bc 71 af 3d
       0.011298481 0.032213796 0.029368289 0.08566615
0001d0 11 73 06 3d f7 1f af 3d 11 1d b8 bc 8e 0e aa 3d
       0.03282458 0.08551019 -0.022474797 0.08303557
0001e0 23 5b d3 3d e7 f9 5e bd 75 df 7e bd a7 cc 9b bd
       0.10320117 -0.054437544 -0.062224824 -0.07607394
0001f0 99 2d 52 bc f0 c1 d5 ba ee 49 7f bd 12 c7 0a bb
       -0.012828254 -0.0016308408 -0.062326364 -0.0021175784
000200 f8 90 67 3d 19 c3 0f 3d 45 61 94 3d 6a bb 85 bd
       0.056534737 0.03509817 0.07245115 -0.06529887
000210 8f 62 3d bd 96 27 53 bc 6d ca db bc f8 b0 a3 bc
       -0.04623657 -0.012887856 -0.026829923 -0.019981846
000220 68 ca 8d bc bd fa 02 bd 7a ad f4 3d 12 0b b8 3c
       -0.017308429 -0.031977404 0.119471505 0.022466216
000230 30 78 d8 3c bc 5b af 3b 00 19 d6 3d e4 89 67 bd
       0.026424497 0.0053515118 0.10453987 -0.056527987
000240 ad 07 31 bd 9d d4 95 3d 53 6f af bd dd 37 bb bc
       -0.04322021 0.073159434 -0.08566155 -0.022853786
000250 43 71 ab bd 5b 27 8b bd 04 b2 85 bd db 30 2c 3d
       -0.08371212 -0.06794616 -0.065280944 0.04203878
000260 69 6c be bd 65 f5 b0 bd d0 53 96 3d 54 bc 64 3b
       -0.09298021 -0.08640555 0.07340205 0.0034902291
000270 13 ef 9c 3d e9 3a 0a 3d ed ca e4 bc a1 37 84 3d
       0.07662787 0.033747587 -0.027928794 0.06455923
000280 02 28 78 bd 09 83 94 bd 7e 9e 92 3d b6 ea 82 3b
       -0.06058503 -0.072515555 0.07159136 0.003995265
000290 15 40 f0 3d ef ee aa 3c 02 82 67 3d 25 1c 9e bc
       0.11730973 0.020865886 0.05652047 -0.01930053
0002a0 ca 69 72 3d 4c 7e 81 bd d9 8d c7 3d ef a2 4e 3d
       0.05918292 -0.06322917 0.09743852 0.050448354
0002b0 d0 14 10 bd 98 7a 63 bd 34 b9 cd 3d 04 80 d6 3c
       -0.0351761 -0.055536836 0.1004509 0.02618409
0002c0 73 16 0c bd 02 b9 00 bc f0 18 2c bd 48 35 27 3c
       -0.034201097 -0.007856609 -0.04201597 0.010205574
0002d0 ac 1d a1 bd 68 04 92 bd f7 a6 e7 3c 5d 0a 33 3d
       -0.078669876 -0.07129747 0.028277857 0.043711055
0002e0 3e c5 8f bb 31 2b a3 3d 41 26 1b bd 24 6b 58 bd
       -0.004387527 0.079672225 -0.03787828 -0.052836552
0002f0 8b 58 f0 bc 4c 5d f5 3d ca 55 a6 bd 44 b2 9c bd
       -0.029339096 0.119806856 -0.08121832 -0.07651189
000300 be 3e e9 3b 0f 46 50 38 3e 6b a3 bd 64 1e ee 3c
       0.007118075 4.965631e-05 -0.07979439 0.029067226
000310 4c cb 81 bd 6b 96 fd 3d 49 8a 24 3d 8b b9 be bc
       -0.06337604 0.123822056 0.04017094 -0.023281833
000320 d3 d3 2e 3d 05 ac 92 3c 72 28 19 bc 26 68 69 bc
       0.04268248 0.01790429 -0.009348022 -0.014246022
000330 33 bf b4 bd 4f fd a8 3d e6 33 bd 3d 0c c6 80 bd
       -0.08825531 0.0825144 0.092384145 -0.062877744
000340 59 f8 79 3d 27 c1 b3 3c 6a 0a d6 3c 06 96 b1 bd
       0.06102786 0.021942688 0.026128013 -0.08671193
000350 ff 35 40 3d 80 27 aa bc f1 3f 00 bd 44 a9 95 bd
       0.046926495 -0.020770788 -0.03131098 -0.073076755
000360 ca 85 8e 3d d3 bd 1b 3c a3 54 d7 36 6d 68 c4 3c
       0.06959112 0.009505707 6.4173523e-06 0.023975575
000370 19 21 91 bc 8c 2d 6a 3d 28 31 4d 3c 2a ac 96 3d
       -0.017715978 0.057172343 0.012523927 0.073570564
000380 48 96 5c 3b d5 2f ef 3d f9 ed ce 3d f9 c8 b9 bb
       0.003365891 0.11679045 0.101039834 -0.0056697098
000390 09 81 4c bd ae 17 28 bd 3d 26 3d bd f8 99 af bb
       -0.049927745 -0.041038208 -0.046179045 -0.0053589307
0003a0 29 1b d4 3d 00 9c 96 bd 71 65 82 bd 30 42 6c bd
       0.10356743 -0.073539734 -0.06367005 -0.05768031
0003b0 3d db a0 3c c8 34 62 3c 1a 5a cc 3d 8a 49 ec 3d
       0.019635791 0.013806529 0.09978123 0.11537464
0003c0 bc af 14 3d db 53 8e bd 00 a5 4c 3d 19 ba 00 3e
       0.036300406 -0.06949588 0.049962044 0.1257099
0003d0 e1 d5 22 3d 6b fb 3b bd aa a4 65 bc 13 71 06 bb
       0.039754752 -0.045894068 -0.01401631 -0.0020514175
0003e0 1a 8a e4 bb 9d 1c 77 3d f9 26 59 3d 2a e2 0d 3d
       -0.006974471 0.060330022 0.053015683 0.034639515
0003f0 91 69 f7 3c e1 4c d7 3d a7 81 5d bd 74 e9 b4 bd
       0.030201705 0.1051271 -0.054078724 -0.0883359
