models/snaps/model_1685471436.3290105.pt (torch, 119391 bytes, 6 tensors)

0.weight f4 [128, 49]
0	0xbc058b73	-0.008150923
1	0x3d60ce3a	0.054884173
2	0x3af2d145	0.0018525502
3	0x3d9a4d23	0.07534244
4	0x3d0b69a1	0.034036282
5	0xbdbe4120	-0.09289765
6	0x3ba2ce45	0.004968437
7	0x3d681cb4	0.056668
8	0x3e008c6b	0.12553565
9	0xbd877423	-0.06613948
10	0x3dfdc780	0.12391567
11	0x3e05d891	0.13070895
12	0x3de20c24	0.11037472
13	0xbd2e5b60	-0.04256761
14	0x3dcdab4a	0.100424364
15	0x3da09398	0.07840651
16	0xbd9382f7	-0.07202714
17	0x3cd2bdb8	0.02572523
18	0xbe19dfb8	-0.15026748
19	0x3ca39a2e	0.01997098
20	0xbdfe0d79	-0.124049135
21	0xbe8e445d	-0.27786532
22	0x3d9e1d7b	0.07720467
23	0x3d6c4fe5	0.05769338
24	0x3dc63116	0.09677331
25	0x3cd4dca3	0.025984114
26	0x3e1ffc92	0.15623692
27	0x3e0bd19f	0.13654183
28	0xbd403d71	-0.046933595
29	0x3d810cef	0.06301295
30	0x3df723ca	0.12067373
31	0xbd50608c	-0.050873324
32	0x3d3ac71a	0.045600034
33	0xbe0a8f51	-0.13531233
34	0xbc30b4c9	-0.01078529
35	0x3cb6afb7	0.022300584
36	0x3e1e94f4	0.15486509
37	0xbdfda975	-0.12385837
38	0xbe151fbb	-0.14562885
39	0x3ceff42d	0.029291237
40	0xbd255508	-0.040364295
41	0xbcdc052d	-0.026857937
42	0x3c45b16d	0.012066227
43	0xbd21b1e7	-0.0394763
44	0x3c8a3960	0.016873062
45	0xbd931a83	-0.07182791
46	0x3d609a49	0.054834638
47	0xbdb1712e	-0.086641654
48	0x3e160272	0.1464937
49	0x3cc76d66	0.024344157
50	0x3dfae2bb	0.12250277
51	0x3d27c597	0.04095992
52	0xbca73063	-0.020408815
53	0x3e616037	0.2200936
54	0xbdc55bab	-0.09636625
55	0x3e32ced9	0.17461719
56	0xbd8c55e6	-0.06852321
57	0xbd819042	-0.06326343
58	0xbc68b8fb	-0.014204259
59	0xbd60189e	-0.054710977
60	0x3e3c84ba	0.18410006
61	0xbdfac47c	-0.12244508
62	0xbdb5a32b	-0.088690124
63	0xbd023967	-0.031793024
64	0x3df7cce7	0.12099629
65	0xbceedce0	-0.029158056
66	0xbd342564	-0.04398097
67	0x3e1a697d	0.15079303
68	0xbdfca3b2	-0.1233591
69	0xbdf26e2b	-0.11837419
70	0xbe794eae	-0.2434642
71	0x3da107b0	0.078627944
72	0x3d390208	0.045167953
73	0x3dd7aba1	0.105307825
74	0xbc9fe7ff	-0.019519804
75	0x3dac4920	0.08412385
76	0x3d2d9d09	0.04238609
77	0xbe418840	-0.18899632
78	0x3d7725f6	0.060338937
79	0x3d717485	0.058949012
80	0x3dc9fed2	0.09863056
81	0x3d0be0cf	0.03414994
82	0xbe68f147	-0.2274829
83	0xbe096e3c	-0.13420957
84	0xbdadb913	-0.08482566
85	0xbd34067c	-0.043951496
86	0x3b6177b0	0.0034403615
87	0xbcfc8ca5	-0.030828783
88	0xbdbcec50	-0.092247605
89	0xbe2b1903	-0.1670876
90	0xbe1730ea	-0.14764753
91	0x3dfdf499	0.12400169
92	0x3e35ecab	0.17766063
93	0xbd61ca78	-0.05512473
94	0x3d8e4d3e	0.069483265
95	0xbda40842	-0.080093876
96	0xbc30b437	-0.010785154
97	0xbe0c4c2b	-0.13700931
98	0xbde3b424	-0.111183435
99	0x3c8215e7	0.015879584
100	0x3b9f9f6d	0.0048713
101	0x3d7de4e4	0.061985865
102	0x3e10aba5	0.14127977
103	0x3d2f8ad7	0.042857017
104	0x3dbaa953	0.09114327
105	0xbbcf616b	-0.006328752
106	0x3e2b7a72	0.16745928
107	0x3cc653d1	0.024209889
108	0xbdbb4f1c	-0.09145948
109	0xbd22ea3d	-0.03977417
110	0xbd72e0ab	-0.05929629
111	0xbdd00edb	-0.101590835
112	0x3e235dd3	0.1595376
113	0x3e1268f7	0.14297853
114	0xbdb5bcf9	-0.08873934
115	0x3d1dfefd	0.038573254
116	0x3d46f236	0.048570834
117	0x3d16ab71	0.036784593
118	0x3d088297	0.033327665
119	0xbe0dc460	-0.13844442
120	0x3c029267	0.007969475
121	0xbd965080	-0.07339573
122	0x3de30e6d	0.11086736
123	0xbdc3894f	-0.09547674
124	0xbbfcf55a	-0.007719678
125	0x3c91e1b1	0.017807813
126	0xbda40565	-0.080088414
127	0x3dfec306	0.124395415
128	0xbdb97bbb	-0.09056803
129	0x3c2c5ef6	0.010520687
130	0x3cfd8b85	0.030950317
131	0xbc1681a6	-0.009186184
132	0x3dd97899	0.10618705
133	0x3da6f19d	0.08151553
134	0x3bddc08f	0.0067673395
135	0xbcb1e481	-0.021715404
136	0xbdd87748	-0.10569626
137	0x3d924155	0.07141367
138	0x3c2f24b6	0.010689905
139	0xbd0b3715	-0.033988077
140	0xbe13e007	-0.14440928
141	0x3cd05aaf	0.025433866
142	0xbde62dba	-0.112391904
143	0x3c6d426b	0.014481167
144	0x3e0debaa	0.1385943
145	0xbcfd5b9c	-0.030927472
146	0xbdd180fa	-0.102296785
147	0x3e16def4	0.14733487
148	0xbdb0dcad	-0.086358406
149	0x3ce7663b	0.02824699
150	0xbdf74bf4	-0.12075034
151	0x3e8ec871	0.278873
152	0x3d378bb6	0.044810973
153	0xbe09a90a	-0.1344339
154	0xbd28ce7d	-0.041212548
155	0xbd25d739	-0.040488455
156	0x3cfccdd6	0.030859869
157	0x3dac30e4	0.08407763
158	0x3d8baf59	0.06820554
159	0x3e1cdd30	0.15318751
160	0xbd34a52b	-0.04410283
161	0x3d5b0926	0.05347552
162	0xbe0d8a71	-0.13822342
163	0xbc3bdd30	-0.011466309
164	0xbd74aefc	-0.05973719
165	0x3e82887a	0.25494748
166	0xbdea4f20	-0.11440873
167	0xbdb52131	-0.088442214
168	0xbd04a2c9	-0.032381807
169	0xbe0df696	-0.13863596
170	0xbc73d461	-0.014882178
171	0x3e125c93	0.14293127
172	0xbca67d5e	-0.020323452
173	0x3e2e61c3	0.1702948
174	0xbe787e50	-0.24266934
175	0xbd943e39	-0.072384305
176	0xbe200e53	-0.15630464
177	0xbe7d7098	-0.24749982
178	0x3e56557d	0.20931049
179	0xbd77bfab	-0.060485523
180	0xbd1ee5e8	-0.038793474
181	0xbcf0e902	-0.029407982
182	0xbdd1e71a	-0.10249157
183	0x3d442c2f	0.0478937
184	0x3d4339a4	0.047662392
185	0x3e5e4dbf	0.21709345
186	0xbe84bba4	-0.25924408
187	0x3e42d65d	0.19027086
188	0xbefe9ab9	-0.4972742
189	0xbd91e18f	-0.071231
190	0xbdd7097a	-0.104998544
191	0x3e238e35	0.15972216
192	0x3cf471a5	0.029839346
193	0x3e7cd0a0	0.24688959
194	0x3d70f6dd	0.058829177
195	0xbc6be558	-0.0143979415
196	0xbc0e2354	-0.008675415
197	0x3d278136	0.04089471
198	0x3c718c03	0.014742854
199	0x3c0b231a	0.008492256
200	0xbdc7fd7a	-0.09765144
201	0x3d4bdf14	0.04977329
202	0x3d0f1462	0.034931548
203	0x3cc901d2	0.024537
204	0xbbc77e22	-0.0060880342
205	0x3e29376a	0.16525045
206	0x3d9e9408	0.077430785
207	0x3d52e1b0	0.051484764
208	0xbd177f37	-0.036986556
209	0xbc19dc3f	-0.00939089
210	0x3c939ff7	0.018020613
211	0xbe486eac	-0.19573468
212	0x3b6beaae	0.0035998034
213	0xbdce9eff	-0.1008892
214	0x3d1b3374	0.037890866
215	0x3cd24357	0.025666876
216	0xbc49874d	-0.012300325
217	0x3d1fbeff	0.039000507
218	0xbe17ff6b	-0.14843528
219	0x3cd8a194	0.026444234
220	0xbd8635a2	-0.065531984
221	0xbd6caa45	-0.05777957
222	0x3d4dd84a	0.050255097
223	0x3e0abd7c	0.13548845
224	0x3d522dff	0.051313397
225	0xbe404cad	-0.1877925
226	0xbdd36ef9	-0.10323901
227	0x3cb02a25	0.021504471
228	0x3ddb61c0	0.10712004
229	0xbe28263b	-0.16420834
230	0xbcf5a1ba	-0.029984344
231	0x3df5045b	0.11963721
232	0x3e2d222e	0.1690757
233	0x3d873baa	0.06603177
234	0x3d14f429	0.03636566
235	0xbdeb4bed	-0.11489091
236	0x3db6e34f	0.089300744
237	0xbdaaf10c	-0.08346757
238	0x3e45b9b5	0.19309123
239	0x3b0666aa	0.002050797
240	0x3dac3483	0.08408453
241	0xbbefe2fc	-0.00732076
242	0xbe4aa4db	-0.1978945
243	0x3d8c2ba3	0.068442605
244	0xbcea5a20	-0.028607428
245	0xbdf90233	-0.121586226
246	0x3dc175fb	0.09446331
247	0x3c7cdcd5	0.01543351
248	0xbe218f6a	-0.15777364
249	0x3d11a517	0.035557833
250	0xbde35f1c	-0.11102125
251	0xbd6e9518	-0.058247656
252	0x3daff540	0.085916996
253	0x3dc46fb1	0.09591616
254	0xbe164f5e	-0.14678714
255	0x3e022fcc	0.12713546

0.bias f4 [128]
0	0xbd8b3f53	-0.067991875
1	0x3d24ee1e	0.04026615
2	0xbd37137d	-0.04469632
3	0xbe4f3b10	-0.20237374
4	0xbd3d843b	-0.046268683
5	0xbe4b8d19	-0.19878043
6	0xbea4ace3	-0.32163152
7	0xbd73be95	-0.059507925
8	0xbe338e3b	-0.17534725
9	0xbe41e2c4	-0.1893416
10	0x3dba3718	0.090925395
11	0x3dc296ca	0.09501417
12	0xbe16c189	-0.14722265
13	0x3e9bd7d9	0.30438116
14	0xbe9ffd8c	-0.31248128
15	0x3db2c366	0.087286755
16	0xbe3d1813	-0.18466215
17	0xbd6fadeb	-0.05851547
18	0x3d67ca18	0.056589216
19	0xbe2eb2ce	-0.17060396
20	0x3f5a1699	0.8519073
21	0x3f104ffb	0.5637204
22	0x3e91ba59	0.28462484
23	0x3c8dfbae	0.017331924
24	0xbdbd5543	-0.09244778
25	0xbe361583	-0.17781644
26	0x3f020d03	0.50801104
27	0xbe9ec86a	-0.3101228
28	0x3e081e4b	0.13292806
29	0xbe440329	-0.1914183
30	0xbe109e44	-0.14122874
31	0xbe5892da	-0.2114977
32	0xbd714c18	-0.05891046
33	0x3fb74e6b	1.4320806
34	0x3c955dbc	0.018233173
35	0x3cc9d41a	0.02463727
36	0x3e65d8a2	0.2244592
37	0xbe30031f	-0.1718869
38	0x3f554875	0.83313686
39	0x3f2bd9da	0.6712929
40	0xbd4bc81a	-0.04975138
41	0xbd497dcf	-0.049192246
42	0x3edb64af	0.42850253
43	0xbcb6e3fd	-0.02232551
44	0xbe16e6fa	-0.14736548
45	0x3ef54474	0.47903788
46	0xbe33c57b	-0.17555802
47	0x3f117c09	0.5682989
48	0x3ec48ebb	0.38390145
49	0xbde4c3ce	-0.11170159
50	0xbd20856f	-0.039189752
51	0x3dae5d84	0.085139304
52	0xbe6f1969	-0.23349537
53	0x3ef041eb	0.4692529
54	0xbe42cc57	-0.19023262
55	0xbebfc734	-0.37456667
56	0x3f57c1d4	0.84280133
57	0xbe710348	-0.23536408
58	0xbe920181	-0.28516772
59	0xbdc7f3b8	-0.097632825
60	0xbedb20b5	-0.4279839
61	0x3f68a39f	0.90874666
62	0x3d4b251c	0.049595937
63	0xbea899a9	-0.32929733
64	0xbd891237	-0.06692927
65	0x3d6fe64d	0.05856924
66	0xbe83481d	-0.25640956
67	0x3e9d8391	0.3076444
68	0xbe9004b0	-0.28128576
69	0xbee03a76	-0.43794602
70	0xbdb65037	-0.089020185
71	0xbe7f0c25	-0.24906977
72	0xbe166e91	-0.14690615
73	0xbe071c9d	-0.13194509
74	0x3e696991	0.22794177
75	0xbe2e4d0d	-0.1702158
76	0x3ee01714	0.43767607
77	0x3ea27e11	0.31736806
78	0xbe1d32cc	-0.15351409
79	0x3ced0a50	0.028935581
80	0xbe90172c	-0.2814268
81	0x3eec9fb7	0.46215603
82	0xbe8aae97	-0.27086326
83	0xbe5ee78f	-0.2176802
84	0xbe7e9695	-0.2486213
85	0xbdd0ebbe	-0.10201214
86	0x3d9f6618	0.07783145
87	0xbe0e4c3e	-0.13896272
88	0xbecaeb96	-0.39632863
89	0x378053a3	1.5297735e-05
90	0xbcc83f1a	-0.024444152
91	0x3e9c257f	0.30497357
92	0xbeab692c	-0.33478677
93	0x3d083448	0.033252984
94	0xbd3b5964	-0.045739546
95	0xbe1286e4	-0.14309269
96	0xbe5f5beb	-0.21812408
97	0x3e98e889	0.2986491
98	0x3eb8c1f7	0.36085483
99	0xbea15328	-0.31508756
100	0xbe95c341	-0.2925053
101	0xbe3b8abe	-0.18314645
102	0xbec18ae6	-0.37801284
103	0x3e612000	0.21984863
104	0x3c506e25	0.012721573
105	0xbe4f2504	-0.20228964
106	0xbe261224	-0.16217858
107	0x3d4c25aa	0.049840607
108	0x3c0e6ba9	0.00869266
109	0x3ef013c4	0.4689008
110	0xbde57e1d	-0.11205695
111	0x3eec9b69	0.4621232
112	0xbe3038ba	-0.1720914
113	0x3f47af2f	0.78001684
114	0x3e500b07	0.20316707
115	0x3e7c62f5	0.24647124
116	0xbd2b4172	-0.04181046
117	0xbe844e90	-0.25841188
118	0xbe62e18e	-0.22156355
119	0xbb55f1b4	-0.0032645287
120	0x3f1b6271	0.60697085
121	0xbe47a8f4	-0.19498044
122	0xbddfa2f4	-0.10919753
123	0xbd3fd210	-0.04683119
124	0x3d8aa9ef	0.067706935
125	0xbc256b7c	-0.010096427
126	0xbe8f35e0	-0.2797079
127	0xbdc10050	-0.09423888

2.weight f4 [128, 128]
0	0x3d108ae8	0.03528872
1	0x3c5bfffa	0.013427729
2	0xbcc89bc8	-0.024488345
3	0x3d3cd206	0.04609873
4	0x3d4ce634	0.050024226
5	0x3da5b26e	0.080906734
6	0x3d93e0c9	0.07220609
7	0xbd3ed223	-0.04658712
8	0xbca6b2e7	-0.02034898
9	0x3cab3478	0.020899042
10	0x3aac52d3	0.0013147242
11	0xbc19a96c	-0.009378772
12	0x3cacb9fb	0.021084776
13	0xbd6610b7	-0.056168284
14	0x3d062132	0.0327465
15	0xbce7c6d3	-0.028293049
16	0x3d9d02e9	0.07666571
17	0x3d3ffd40	0.046872377
18	0x3d23cd04	0.03999044
19	0xbd6f7170	-0.05845779
20	0xbcfce6ad	-0.030871714
21	0x3d815b9d	0.06316302
22	0x3cd5d759	0.026103662
23	0xbd145f1c	-0.036223516
24	0x3ddbb903	0.107286476
25	0xbd61186b	-0.054954927
26	0xbd64c095	-0.055847723
27	0x3c8ac570	0.016939849
28	0x3d58a734	0.052893832
29	0x3d0dba90	0.034601748
30	0x3d5fd107	0.054642703
31	0x3dcbaa5d	0.099446036
32	0x3dc05dfb	0.09392925
33	0xbcc7ba13	-0.02438072
34	0x3dbd9eb0	0.09258783
35	0x3bbf0def	0.0058305184
36	0x3d4af4aa	0.049549736
37	0x3c9a83cb	0.018861672
38	0x3c36ff86	0.01116932
39	0xbd95152b	-0.07279428
40	0x3c5b5383	0.01338661
41	0x39063b04	0.00012801221
42	0x3be77998	0.0070640557
43	0x3d0ac420	0.033878446
44	0x3d9aa0d6	0.07550208
45	0xbdda3bd1	-0.1065594
46	0x3cf6dfca	0.030136008
47	0x3d014095	0.03155573
48	0x3c7376d8	0.0148598775
49	0x3c35ec0e	0.011103643
50	0xbbf2b2b4	-0.007406557
51	0xbd0f1304	-0.034930244
52	0x3c93f807	0.018062605
53	0xbb95ce01	-0.0045716767
54	0x3c68892b	0.01419286
55	0x3d1f06ce	0.03882485
56	0x3dca4a1d	0.09877417
57	0xbd2efa89	-0.042719398
58	0xbd156b4b	-0.036479276
59	0x3cc5d4ce	0.024149325
60	0x3e1332da	0.14374867
61	0x3d91ded2	0.07122578
62	0x3dc3332c	0.09531245
63	0x3df5413e	0.119753346
64	0xbd7ce5f9	-0.061742757
65	0xbd0bfcbc	-0.034176573
66	0x3db9a530	0.0906471
67	0xbcd99893	-0.02656201
68	0x3cd897d8	0.026439592
69	0x3d1c1ad2	0.038111515
70	0x3daaa3e9	0.08332045
71	0x3e153fbe	0.14575097
72	0x3d908ab3	0.07057705
73	0x3cac2ee2	0.02101845
74	0xbce32058	-0.027725384
75	0x3d884711	0.0665418
76	0xbd9bc20a	-0.076053694
77	0xbd28900b	-0.041152995
78	0xbbc248a4	-0.0059290696
79	0xbd10f8a9	-0.03539339
80	0xbd8838f4	-0.06651488
81	0x3ce3112c	0.02771815
82	0xbd4aaae6	-0.049479388
83	0xbc80882d	-0.015689934
84	0x3c267462	0.010159584
85	0x3d5cdbca	0.053920545
86	0x3c629ad1	0.013830856
87	0xbba46004	-0.0050163288
88	0x3d329723	0.043601166
89	0x3d706dc7	0.05869844
90	0x3d3c06ca	0.045904912
91	0xbd94db58	-0.07268399
92	0xbb04ddb5	-0.002027375
93	0x3cfd4c60	0.030920208
94	0x3cb6d4d3	0.02231828
95	0x3ca20a18	0.019780204
96	0x3b979ca9	0.0046268296
97	0xbda92881	-0.08259679
98	0xbc0c0480	-0.008545995
99	0xbcf9b8ac	-0.030483566
100	0x3def0d4a	0.116724566
101	0x3da9a06c	0.08282551
102	0x3d9a0e81	0.07522298
103	0x3d8cff0f	0.06884586
104	0xbd1f1709	-0.038840327
105	0xbcd607b0	-0.026126713
106	0x3cbbf425	0.022943566
107	0x3d808792	0.06275858
108	0x3d8ec954	0.06971994
109	0xbd53733c	-0.051623568
110	0xbd173456	-0.036915146
111	0x3db76164	0.08954123
112	0x3ced3461	0.02895564
113	0xbd2f5e13	-0.042814326
114	0xbd38d766	-0.045127295
115	0x3db9ce89	0.090725966
116	0xbd91694a	-0.071001604
117	0x3d7a726a	0.06114427
118	0x3ded5346	0.11588149
119	0x3d020ec8	0.031752378
120	0x3cfdaa81	0.030965092
121	0xbd846340	-0.06464243
122	0x3c8d06c4	0.01721514
123	0x3e027ca8	0.12742865
124	0xbcc24785	-0.023715744
125	0xbd3cd216	-0.04609879
126	0x3d916147	0.07098632
127	0xbcbf447b	-0.023348084
128	0x3d9a04de	0.075204596
129	0xbd0826e0	-0.0332402
130	0x3d908c40	0.070580006
131	0x3dc263a8	0.09491664
132	0x3cb18bf0	0.021673173
133	0xbd03fa51	-0.032221142
134	0x3d4fc13c	0.050721392
135	0xbc6daa68	-0.01450596
136	0x3d9e0034	0.077148825
137	0x3dc5d9da	0.096606925
138	0x3da2a651	0.079418786
139	0x3df8bf0d	0.12145815
140	0xbc3648c6	-0.011125749
141	0xbdc081ec	-0.09399781
142	0x3d0eaae2	0.034830935
143	0x3b33f108	0.0027456898
144	0x3dacb1b3	0.08432331
145	0x3caf2d3b	0.021383872
146	0xbca6cf1d	-0.020362431
147	0x3dd9f0cf	0.10641634
148	0xbd7de607	-0.06198695
149	0x3c088925	0.008333479
150	0xbc9912c8	-0.018685713
151	0x3d362793	0.044471335
152	0xbd84f4bc	-0.06491992
153	0x3dcd5f10	0.10027897
154	0x3d0f9a35	0.035059173
155	0xbb1cea47	-0.002394335
156	0xbcb7f504	-0.0224557
157	0x3d100a5a	0.035166122
158	0xbd37436c	-0.044742033
159	0xbcfc5719	-0.03080325
160	0x3dc11aab	0.09428915
161	0xbcd1c21c	-0.025605254
162	0x3dacee4a	0.084438875
163	0x3dabad7c	0.08382699
164	0xbdc0e4ad	-0.094186164
165	0xbc88e167	-0.016709043
166	0x3db83227	0.08993941
167	0xbd3ab7a3	-0.045585286
168	0xbd928b96	-0.0715553
169	0x3db1da9d	0.08684275
170	0x3d0889ee	0.033334665
171	0x3dde53fc	0.108558625
172	0x3d849394	0.06473461
173	0xbc89f480	-0.01684022
174	0x3d48476e	0.048896246
175	0xbdda349e	-0.10654567
176	0xbdca4eb5	-0.098782934
177	0x3cb426a0	0.021991074
178	0x3d41f615	0.047353823
179	0xbd79d69a	-0.060995676
180	0x3d5949da	0.053048946
181	0xbda7efeb	-0.082000576
182	0xbd17b032	-0.037033267
183	0xbc7a6c47	-0.015284604
184	0xbd2a6ebd	-0.041609515
185	0x3dba02fd	0.09082601
186	0x3d132712	0.035925932
187	0xbc7ba2d4	-0.0153586455
188	0x3d9cc8c6	0.07655482
189	0x3c820f1a	0.015876342
190	0x3ca3349b	0.019922545
191	0x3d1a1c03	0.03762437
192	0x3cfd9927	0.030956818
193	0xbbcf5a08	-0.0063278712
194	0x3d6fcf89	0.05854753
195	0xbc81a738	-0.015826806
196	0x3ba3f801	0.0050039296
197	0x3d32a01c	0.043609723
198	0x3de78db9	0.11306328
199	0x3d87c7bb	0.066298924
200	0x3d1c3f97	0.03814658
201	0x3d81d805	0.063400306
202	0x3d406c68	0.046978384
203	0x3cc1dcb1	0.023664804
204	0xbd0f43f0	-0.0349769
205	0xbc0aa762	-0.008462759
206	0x3dd1680b	0.10224923
207	0xba19d740	-0.00058685616
208	0xb9adeaa1	-0.00033171944
209	0xbd8a924a	-0.06766184
210	0x3d1eb8dc	0.038750514
211	0x3e06d884	0.13168532
212	0x3d8fb571	0.07017029
213	0x3e0021b3	0.12512855
214	0xbdc4a709	-0.09602172
215	0x3e02a653	0.1275876
216	0x3d6deeae	0.05808895
217	0xbd0bb5ba	-0.034108855
218	0xbd429a11	-0.04751021
219	0xbbadf3be	-0.0053085973
220	0x3c76a9d3	0.015055138
221	0xbd3b30a9	-0.045700703
222	0x3df77eb8	0.120847166
223	0xbb1f34c1	-0.0024292918
224	0x3d33f797	0.043937292
225	0x3c624209	0.013809689
226	0xbcb7caa3	-0.022435492
227	0xbcf188cd	-0.029484177
228	0x3d6c138f	0.05763584
229	0x3dbd79ac	0.09251723
230	0x3cc27bff	0.023740767
231	0x3b0256e2	0.0019888212
232	0xbd81b925	-0.06334142
233	0xbc576fd5	-0.013149221
234	0xbaef679b	-0.001826513
235	0xbd0d15d7	-0.034444656
236	0x3e01da47	0.12680922
237	0x3da6031f	0.08106064
238	0xbc805960	-0.015667617
239	0xbd17c472	-0.03705258
240	0x3d70cceb	0.058789175
241	0x3d01aebe	0.031660788
242	0xbd08b5ab	-0.033376377
243	0xbc878853	-0.016544497
244	0x3d8bad86	0.06820206
245	0x3dee10f6	0.11624329
246	0x3dfea3e6	0.12433605
247	0xbd983575	-0.07432071
248	0x3c9b2c56	0.01894204
249	0xbcfbf868	-0.030758098
250	0x3d4ce81a	0.050026037
251	0x3d5e9fd3	0.05435164
252	0x3dcdae26	0.10042982
253	0x3a7f3016	0.00097346434
254	0x3d9db737	0.07700961
255	0x3db7dd33	0.08977737

2.bias f4 [128]
0	0xbc8bc888	-0.017063394
1	0x3d37629e	0.044771783
2	0xbd936b68	-0.071982205
3	0x3e4dbffa	0.20092764
4	0x3dca78b6	0.09886305
5	0xbd847b2e	-0.06468807
6	0xbd976e3d	-0.07394073
7	0x3dbd5812	0.09245314
8	0xbd7bb6ec	-0.061453745
9	0x3df1170d	0.11771975
10	0x3dbf5c7c	0.09343812
11	0x3e859b9e	0.2609529
12	0x3c9a5f60	0.018844306
13	0xbc3fb143	-0.011699977
14	0x3bfcb1dc	0.007711632
15	0xbd048483	-0.032352936
16	0xbd4aaf0b	-0.04948334
17	0x3b114f19	0.002217239
18	0x3d484216	0.04889115
19	0xbd7dffd7	-0.062011566
20	0x3d9ccd0e	0.076562986
21	0xbd84f231	-0.06491507
22	0x3c58e433	0.013238001
23	0xbe1c88c3	-0.15286545
24	0x3dbc5adf	0.0919702
25	0xbc80f5fe	-0.015742298
26	0xbd17967f	-0.03700876
27	0xbcaf55b7	-0.021403177
28	0x3d86583d	0.06559799
29	0x3e2ce1ea	0.16883054
30	0xbe55b84a	-0.20871082
31	0x3e3bc94e	0.1833851
32	0xbd1aff9b	-0.03784142
33	0xbd32b005	-0.043624897
34	0xbd638933	-0.055550765
35	0x3e7b02a1	0.24512722
36	0x3e18d5ad	0.14925261
37	0x3e7435d0	0.23848653
38	0xbc9e3241	-0.019311072
39	0xbd3ecc7e	-0.046581738
40	0x3eccbab0	0.3998618
41	0xbda5c44b	-0.080940805
42	0x3cf757ae	0.030193176
43	0x3e3abd2a	0.18236223
44	0x3dc55656	0.09635608
45	0x3d282d24	0.041058674
46	0x3e1a96b3	0.1509655
47	0xbd18a028	-0.037262112
48	0x3ebd4dc3	0.3697339
49	0x3e256772	0.16152743
50	0x3daf02e7	0.085454755
51	0xbdb7f49e	-0.08982204
52	0x3e6c84ed	0.23097582
53	0xbbff727a	-0.007795629
54	0xbc7c28f6	-0.015390625
55	0xbd895e18	-0.067074
56	0x3e4b800d	0.19873066
57	0xbe126a47	-0.14298354
58	0xbc517b11	-0.012785689
59	0xbc8034e8	-0.015650228
60	0xbbaa5eeb	-0.0051993034
61	0x3e183ac3	0.14866166
62	0x3e4d2e70	0.20037246
63	0x3d675696	0.05647906
64	0x3cd602bd	0.026124353
65	0x3e81e9ba	0.25373632
66	0x3daff835	0.085922636
67	0x3e9a0402	0.30081183
68	0x3e42d0a1	0.19024898
69	0xbdeac496	-0.11463277
70	0x3bf12c24	0.0073599983
71	0x3e095a54	0.13413364
72	0xbba0e2a0	-0.0049098283
73	0x3d3d590c	0.0462275
74	0x3d5569ec	0.052102968
75	0x3e683708	0.22677243
76	0x3d733d52	0.05938465
77	0x3da65a9d	0.08122752
78	0x3def8f15	0.116972126
79	0x3dc7fe0d	0.09765253
80	0x3df254e7	0.118326
81	0xbc99d0e5	-0.018776366
82	0x3e60f4df	0.21968411
83	0x3cba0b5a	0.022710491
84	0x3d0fd47c	0.03511475
85	0x3e407e92	0.18798283
86	0x3e83a6f1	0.25713304
87	0xbd9c58bb	-0.076341115
88	0x3d3e6961	0.046487216
89	0x39b35a25	0.00034208703
90	0x3d20d47d	0.039265145
91	0x3df9a3f4	0.12189475
92	0x3e38cd7b	0.18047135
93	0xbcfe2951	-0.03102556
94	0x3e862ddd	0.26206866
95	0xbce12774	-0.027484633
96	0xbdb22abc	-0.08699557
97	0xbd22deef	-0.039763387
98	0xbc81af7f	-0.015830753
99	0x3d76c331	0.060244743
100	0xbaaf3bfb	-0.0013369316
101	0x3c8063eb	0.015672645
102	0x3cd245f5	0.025668124
103	0x3cb58234	0.022156812
104	0xbd2883c4	-0.041141286
105	0xbda29b4e	-0.07939778
106	0xbca50723	-0.020145005
107	0x3da85b72	0.08220567
108	0x3de40873	0.11134424
109	0x3d272b47	0.040812757
110	0x3d17c2c2	0.03705097
111	0x3f072cb2	0.52802575
112	0xbdc40cf3	-0.09572782
113	0xbdc5b74f	-0.09654104
114	0x3cd82c00	0.026388168
115	0x3e8755ec	0.2643274
116	0xbd49695a	-0.049172737
117	0x3d10eebd	0.03538393
118	0xbcc3d68e	-0.023906019
119	0x3e932590	0.28739595
120	0x3e4471f0	0.19184089
121	0x3e269a19	0.16269721
122	0x3d14c287	0.03631833
123	0x3e91073b	0.2832583
124	0x3dd47db5	0.10375539
125	0xbdcfbe78	-0.10143751
126	0x3cf37718	0.029719874
127	0x3d0f540e	0.03499227

4.weight f4 [49, 128]
0	0x3b2f6a44	0.002676622
1	0xbd353e71	-0.044249002
2	0x3d8755ff	0.06608199
3	0x3e1929e4	0.14957386
4	0x3dbdeb35	0.09273378
5	0xbc0a10e6	-0.00842688
6	0xbe2d5c99	-0.16929854
7	0x3df80e11	0.12112058
8	0x3da16dac	0.078822464
9	0x3d8d5fe9	0.06903059
10	0x3d8320ce	0.064027414
11	0x3e6ed899	0.23324813
12	0xbcf16418	-0.029466674
13	0x3cc8bdd8	0.024504587
14	0x3cd6f620	0.026240408
15	0xbda1fd98	-0.07909697
16	0x3d8f6081	0.070008285
17	0xbe46f770	-0.19430327
18	0xbd63ce2b	-0.05561654
19	0x3c97202b	0.018447956
20	0x3d74590f	0.059655245
21	0xbe95365d	-0.29143038
22	0xbe0c3366	-0.13691482
23	0xbed402ce	-0.4140839
24	0x3dda8e7d	0.10671709
25	0xbe028d31	-0.12749173
26	0x3cd32ef7	0.02577923
27	0x3d37afc1	0.044845346
28	0x3d6bdcd3	0.05758364
29	0xbc787e92	-0.015166895
30	0xbeb2a3f8	-0.34890723
31	0x3d458659	0.048223827
32	0xbe3478b8	-0.17624176
33	0xbd142920	-0.036172032
34	0xbd92be56	-0.0716521
35	0x3dda405d	0.106568076
36	0x3d1eb9e4	0.038751498
37	0x3e662c22	0.22477773
38	0x3c6bfbfe	0.014403341
39	0x3d9c4419	0.07630176
40	0x3eab10d6	0.33411282
41	0xbe32b005	-0.17449959
42	0xbd08addf	-0.03336894
43	0x3e23e37f	0.16004752
44	0xbe107200	-0.14105988
45	0xbd4b6b45	-0.049662847
46	0x3d3fc28d	0.046816397
47	0x3d59931b	0.053118806
48	0x3e7d819f	0.24756478
49	0xbd389980	-0.045068264
50	0xba8fd977	-0.0010974844
51	0xbe7a99a0	-0.24472666
52	0x3e22e961	0.1590934
53	0xbd66f38c	-0.05638461
54	0xbce9d852	-0.028545532
55	0x3d16cd4a	0.036816873
56	0x3e0d9c8f	0.13829254
57	0xbf0ef991	-0.5584956
58	0x3d7b3616	0.061330877
59	0x3ccd1b9c	0.02503758
60	0xbc8042a1	-0.015656771
61	0x3db0ea9b	0.086384974
62	0x3dfab700	0.12241936
63	0x3d9e90fe	0.07742499
64	0xbd82bc97	-0.06383627
65	0x3e06e773	0.13174228
66	0xbd6774e7	-0.05650797
67	0x3e63635f	0.22205876
68	0x3e237dce	0.1596596
69	0xbe30de38	-0.1727227
70	0xbd926bce	-0.07149468
71	0x3d890769	0.066908665
72	0xbccfe51d	-0.025377804
73	0x3c9c4005	0.019073496
74	0x3d886939	0.06660695
75	0x3d798964	0.06092204
76	0xbe08405a	-0.13305798
77	0x3ddb9274	0.10721293
78	0xbd85bbab	-0.065299354
79	0x3e434664	0.1906982
80	0x3d81546e	0.06314932
81	0x3c751691	0.0149589935
82	0x3dd1a82e	0.10237156
83	0xbb678628	-0.0035327766
84	0x3da10c58	0.078636825
85	0x3da24c63	0.07924726
86	0x3e5167e7	0.20449792
87	0xbdc2dc7b	-0.095147096
88	0x3d530f60	0.051528335
89	0xbd9c6f30	-0.07638395
90	0xbd6f4750	-0.05841762
91	0x3ad92a4c	0.0016568392
92	0x3e015308	0.1262933
93	0xbde3cb15	-0.11122719
94	0x3e015dbf	0.12633418
95	0xbe412165	-0.18860395
96	0xbab5b731	-0.0013863799
97	0x3d762a1a	0.060098745
98	0xbd046701	-0.032324795
99	0x3d77c5d4	0.060491398
100	0x3c7f9760	0.015600055
101	0xbda78657	-0.0817992
102	0xbc67dcc4	-0.014151756
103	0x3cc7eab3	0.024403905
104	0x3cdb5ce4	0.026777692
105	0x3d5a74dd	0.053334106
106	0xbd21d799	-0.03951225
107	0xbd70599f	-0.05867922
108	0xbd643d78	-0.055722684
109	0xbd955540	-0.07291651
110	0xbbe6a226	-0.0070383726
111	0x3e9df7cd	0.3085312
112	0xbe0b1a34	-0.13584214
113	0xbcb4774d	-0.022029543
114	0xbd89e4ab	-0.06733068
115	0x3e56011c	0.2089886
116	0xbde20349	-0.11035783
117	0xbdbd8efd	-0.092557885
118	0x3d84dea9	0.064877816
119	0x3de4c47d	0.1117029
120	0x3e21b8a3	0.1579309
121	0x3dc682c5	0.09692911
122	0x3db58c24	0.0886462
123	0x3de76ad9	0.112996764
124	0xbde6975b	-0.112593375
125	0xbe9e44ea	-0.30911952
126	0xbe26c859	-0.16287364
127	0xbe10d83d	-0.14144988
128	0x3d77e9c0	0.060525656
129	0xbd15acc0	-0.0365417
130	0x3d4ff87c	0.050774083
131	0x3e4ebe38	0.2018975
132	0x3d07377f	0.03301191
133	0xbd31de10	-0.043424666
134	0xbde27cc0	-0.110589504
135	0x3d4bedd7	0.04978737
136	0x3c9e08dd	0.019291336
137	0x3d79d8b8	0.060997695
138	0x3b63a905	0.0034738195
139	0x3e99a36a	0.30007488
140	0x3c151c86	0.009101039
141	0xbcbc5c85	-0.022993336
142	0x3d763de0	0.060117602
143	0xbe1fefd9	-0.15618838
144	0x3d466540	0.048436403
145	0xbe058a15	-0.13040955
146	0x3d4d08fa	0.05005739
147	0x3cbe7b30	0.0232521
148	0x3d31257d	0.043248642
149	0xbe27d870	-0.16391158
150	0xbe1afd98	-0.15135801
151	0xbef4d3ee	-0.4781794
152	0x3dd61e5f	0.104550116
153	0xbddec5b2	-0.10877551
154	0xbd08acf7	-0.033368077
155	0x3c261584	0.010136966
156	0x3c32e68c	0.0109192245
157	0x3e2c900d	0.16851826
158	0xbe8b8c65	-0.2725555
159	0xbda810fa	-0.08206363
160	0xbe2d4e1b	-0.16924326
161	0xbc6359cc	-0.01387639
162	0x3ca275cf	0.019831566
163	0x3e4a2b90	0.1974318
164	0x3c571ca8	0.013129391
165	0x3e09b49e	0.13447806
166	0xbd3cf3ed	-0.046131063
167	0xbcf2cf26	-0.029639792
168	0x3e6246ad	0.22097273
169	0xbe227208	-0.15863812
170	0xbd9dc056	-0.07702701
171	0x3dc03be4	0.09386423
172	0xbde2d299	-0.110753246
173	0x3b9fc674	0.0048759524
174	0x3de1d49d	0.11026881
175	0x396e33df	0.00022716772
176	0x3e32eeb7	0.17473875
177	0xbca3feb7	-0.020018918
178	0x3d40021a	0.046877004
179	0xbe8e3c20	-0.27780247
180	0x3d5365da	0.051610805
181	0xbdf91d22	-0.1216376
182	0xbd0524d5	-0.03250583
183	0xbd801794	-0.06254497
184	0x3c4c4788	0.012468226
185	0xbea09a8a	-0.31367904
186	0xbd50b403	-0.050952923
187	0x3db3dc3c	0.08782241
188	0x3aa34823	0.0012457412
189	0x3d245599	0.040120695
190	0x3e1b3a53	0.15158968
191	0x3de81d7e	0.1133375
192	0xbd7412fe	-0.059588425
193	0x3e985130	0.2974944
194	0x3bda9886	0.0066710142
195	0x3dccfa14	0.10008636
196	0x3e4806dc	0.19533867
197	0xbde30dcd	-0.11086617
198	0xbdc889df	-0.09791922
199	0x3dce18f1	0.10063351
200	0xbda56cd4	-0.08077398
201	0xbe0296c4	-0.12752825
202	0x3d303e3d	0.043028105
203	0x3db73521	0.089456804
204	0xbdd943fa	-0.106086686
205	0x3c19a099	0.009376668
206	0x3dbc5beb	0.091972195
207	0x3e3333a7	0.17500173
208	0x3d1389ef	0.036020216
209	0xbd838412	-0.06421675
210	0x3d70d81b	0.058799844
211	0xbd6e7346	-0.058215402
212	0x3d844ff0	0.06460559
213	0xbd08a411	-0.03335959
214	0x3d7e5a43	0.0620978
215	0xbcb860ac	-0.022507034
216	0x3d629df8	0.055326432
217	0xbe153141	-0.1456957
218	0x3d37ad78	0.044843167
219	0xbc036b85	-0.00802124
220	0x3e863b58	0.2621715
221	0xbd04bb55	-0.032405216
222	0x3e171f31	0.14757992
223	0xbd9963a0	-0.07489705
224	0x3c8b3e19	0.016997384
225	0x3d6f84ba	0.058476187
226	0xbd1630cc	-0.03666763
227	0x3c30011f	0.010742455
228	0xbdae0dee	-0.084987506
229	0xbda916b2	-0.08256282
230	0x3cff0000	0.03112793
231	0xbdbf8e86	-0.09353356
232	0xbc4321f8	-0.011909954
233	0x3be0cd5b	0.006860418
234	0xbd810b40	-0.06300974
235	0x3d95b22a	0.07309373
236	0x3d54cae2	0.051951297
237	0xbc48d0fa	-0.012256855
238	0xbe05b155	-0.13055928
239	0x3e7f0a00	0.24906158
240	0xbe079c6c	-0.13243264
241	0xbc113ed8	-0.008865081
242	0xbd35270d	-0.044226695
243	0x3e201634	0.1563347
244	0xbc4f5261	-0.012653918
245	0xbd0ed192	-0.03486783
246	0xbb80515d	-0.0039159493
247	0x3e6d9c3b	0.23204128
248	0x3c408ea8	0.011752762
249	0x3cc47c23	0.023984974
250	0x3ab55117	0.0013833371
251	0x3e9702de	0.29494375
252	0x3d606f1f	0.054793473
253	0xbeab093b	-0.3340548
254	0xbddffdf7	-0.10937112
255	0xbd9df38f	-0.07712471

4.bias f4 [49]
0	0x3c860209	0.016358392
1	0x3de44552	0.11146034
2	0x3d89e09f	0.06732296
3	0x3e20d683	0.1570683
4	0xbd27778b	-0.04088549
5	0x3e16c0c9	0.14721979
6	0xbd06ca68	-0.032907873
7	0x3d32715d	0.043565143
8	0x3d28ce7d	0.041212548
9	0x3cfc9569	0.030832963
10	0x3c75abad	0.014994544
11	0x3d854076	0.065064356
12	0x3d23d575	0.03999849
13	0x3d2d7164	0.042344466
14	0x3ddef0f4	0.10885802
15	0xbc5dc5a9	-0.013535895
16	0x3e78b392	0.2428725
17	0x3e081925	0.13290842
18	0x3c86bd6c	0.016447745
19	0x3b43d583	0.0029881902
20	0x3c035801	0.008016587
21	0x3df3b22d	0.11899219
22	0x3e24a5ff	0.16078947
23	0xbbb688c2	-0.005570502
24	0x3d973325	0.07382802
25	0x3da032f5	0.07822219
26	0x3ea34eef	0.3189616
27	0x3e4607d6	0.19338927
28	0x3d14d96a	0.036340155
29	0x3e223776	0.15841469
30	0x3e2be278	0.1678561
31	0xbc7ff148	-0.015621491
32	0xbd9b6138	-0.075869024
33	0x3ddd7714	0.10813728
34	0x3d8cb822	0.06871058
35	0x3d14e2c0	0.03634906
36	0x3e242137	0.16028295
37	0xbb64a33a	-0.003488733
38	0x3e082618	0.13295782
39	0x3d850697	0.064953975
40	0x3e046cfb	0.12932198
41	0x3dd3c58d	0.10340414
42	0x3e2b361d	0.16719861
43	0xbd18eb27	-0.037333634
44	0x3cd5b2e6	0.026086282
45	0xbcd7027f	-0.026246307
46	0x3d8dc567	0.06922417
47	0x3d4dbea9	0.050230656
48	0x3dc0bfa0	0.094115496
