models/snaps/model_1685483832.4657364.pt (torch, 119391 bytes, 6 tensors)

0.weight f4 [128, 49]
-0.008721742 0.058026385 -0.04362855 0.09572217 -0.0028617252 -0.0021445511 -0.0055670654 0.056973163
0.16180307 -0.07898784 0.17667659 0.1390205 -0.02447594 -0.08607502 0.120477654 0.05988112
-0.102529794 0.17653583 -0.13157493 -0.009957387 -0.08914149 -0.29636243 0.090957895 0.039824393
0.07549496 0.04994717 0.1633152 0.11755187 -0.020582069 0.063465156 0.16947873 -0.07934474
0.042479165 -0.083973534 -0.05683831 0.00037659617 0.1970684 -0.09645278 -0.17950676 -0.057321645
-0.03519851 0.031514823 -0.0037014983 -0.045198277 0.01276329 -0.108686104 0.032065105 -0.105828404
0.15906455 0.03468965 0.15831238 0.018842442 0.058034305 0.16445157 -0.115579456 0.20407902
0.02141908 -0.06306161 0.002212413 -0.03797963 0.034394994 -0.23377773 -0.15658095 -0.032170523
0.15637249 0.04401832 -0.0020142433 0.19792911 -0.13204093 -0.14876565 -0.25874773 0.1612458
0.08031296 0.01029474 -0.03373604 -0.00483974 0.03793957 -0.22714292 0.020250011 0.12981279
0.058652632 0.11466323 -0.18159495 -0.15458141 -0.19565292 -0.07989342 0.0005555731 0.03826684
0.013054499 -0.2712942 -0.08887478 0.10244878 0.26454586 -0.057044286 0.015812857 -0.08289487
-0.07256731 -0.13194248 -0.12162994 0.0093952445 0.0010867143 0.072866954 0.11557863 0.037815906
0.061543103 0.038187794 0.17754465 -0.005036479 -0.0434477 -0.017765053 0.00832649 -0.076110736
0.16532236 0.10063412 -0.0837015 0.07277681 0.036314104 0.033772077 0.03401928 -0.16444476
0.014132213 -0.09093767 0.1350433 -0.12426291 -0.026900932 0.05483363 -0.10025955 0.15684436
-0.12146983 0.013085209 -0.016313886 -0.021581262 0.103448376 0.105795056 -0.00789669 -0.0198334
-0.1276221 0.03360952 0.08618277 -0.035341423 -0.19959219 0.034131005 -0.14592128 0.02200624
0.14524911 -0.014940086 -0.100938186 0.16882285 -0.07748649 0.17707494 -0.07718776 0.12342868
0.0748855 -0.085452646 0.054310445 -0.102402814 -0.10173958 -0.059042424 0.056366988 -0.0024176347
-0.115643136 0.12794712 -0.10413047 -0.004245808 -0.12399621 0.26519495 -0.103880115 -0.23750442
-0.018181164 -0.08348207 -0.14111938 0.16787052 -0.05800804 0.16745235 -0.29251885 -0.13894287
-0.17063865 -0.129817 0.21716483 0.006820849 -0.04878358 0.06430551 -0.08134504 -0.00070197345
0.026399534 0.33966997 -0.14671439 0.26470557 -0.4905331 -0.029739214 -0.23026553 0.11117881
0.09291336 0.2234776 0.13568181 -0.11905404 -0.004254122 0.046077684 0.06804268 0.022460716
-0.15200897 0.10701277 0.049383964 0.03823261 -0.026485475 0.17202285 0.021029372 -0.08973076
-0.012348416 -0.05454474 -0.0064914413 -0.1981944 0.07348576 -0.13267152 0.04676556 -0.0012646008
-0.027813725 -0.006515168 -0.17564213 0.0038101762 -0.0066579035 -0.049254563 0.10375955 0.16056778
0.07368155 -0.18087444 -0.0866279 0.0611638 0.16068457 -0.15075202 -0.05844663 0.17188333
0.16080062 -0.0049320403 0.003810799 -0.1278668 0.07415678 0.007213208 0.16923143 0.018841766
0.025050895 0.0021930698 -0.25481945 0.13032654 -0.036092076 -0.13554491 0.0029750476 -0.06831824
-0.19537705 -0.06883877 -0.05185338 -0.05102738 0.0860834 0.17781383 -0.1271994 0.033099916
00000000: a3e5 0ebc 13ad 6d3d dab3 32bd fc09 c43d
00000010: c88b 3bbb 998b 0cbb ee6b b6bb b15c 693d
00000020: b4af 253e 60c4 a1bd b5ea 343e 645b 0e3e
00000030: c481 c8bc 1a48 b0bd fdbc f63d e845 753d
00000040: 24fb d1bd cfc5 343e 94bb 06be 4f24 23bc
00000050: d08f b6bd d1bc 97be 2248 ba3d e71e 233d
00000060: 1a9d 9a3d 6795 4c3d 1a3c 273e 09bf f03d
00000070: ba9b a8bc 05fa 813d d58b 2d3e 7f7f a2bd
00000080: a2fe 2d3d 51fa abbd 4acf 68bd e271 c539
00000090: 4ccc 493e 0989 c5bd 9fd0 37be 1aca 6abd
000000a0: 502c 10bd b015 013d d694 72bb d421 39bd
000000b0: 1e1d 513c d296 debd b356 033d 90bc d8bd
000000c0: d1e1 223e bc16 0e3d a41c 223e 775b 9a3c
000000d0: 61b5 6d3d fe65 283e ecb4 ecbd 17fa 503e
000000e0: 1177 af3c 7226 81bd 21fe 103b 8790 1bbd
000000f0: c4e1 0c3d 6e63 6fbe c256 20be 3dc5 03bd
00000100: 1c20 203e 8e4c 343d 6501 04bb eead 4a3e
00000110: bd35 07be 0656 18be 957a 84be 9e1d 253e
00000120: 1f7b a43d 45ab 283c cd2e 0abd af96 9ebb
00000130: 8666 1b3d 2798 68be 5ae3 a53c a5ed 043e
00000140: be3d 703d 8ed4 ea3d 07f4 39be 974a 1ebe
00000150: 3d59 48be 299f a3bd e1a3 113a b1bd 1c3d
00000160: 8ae2 553c 13e7 8abe fb03 b6bd aad0 d13d
00000170: 8e72 873e 45a7 69bd f789 813c c9c4 a9bd
00000180: 2b9e 94bd ee1b 07be 1e19 f9bd 83ee 193c
00000190: 1570 8e3a 453b 953d 7db4 ec3d dae4 1a3d
000001a0: 9f14 7c3d ce6a 1c3d 44ce 353e 0c09 a5bb
000001b0: 37f6 31bd 0488 91bc d56b 083c f2df 9bbd
000001c0: 444a 293e 4319 ce3d b16b abbd 020c 953d
000001d0: 19be 143d 9754 0a3d cd57 0b3d 3564 28be
000001e0: cc8a 673c 873d babd ca48 0a3e 8d7d febd
000001f0: 585f dcbc 3a99 603d e154 cdbd cf9b 203e
00000200: 2dc5 f8bd 5863 563c b3a4 85bc 30cb b0bc
00000210: bedc d33d 14ab d83d 1e61 01bc a879 a2bc
00000220: 5eaf 02be 23aa 093d 9880 b03d 2bc2 10bd
00000230: e561 4cbe f4cc 0b3d 636c 15be 6e46 b43c
00000240: 2fbc 143e 43c7 74bc aeb8 cebd e6df 2c3e
00000250: 3db1 9ebd 2253 353e 9e14 9ebd 2dc8 fc3d
00000260: 925d 993d cc01 afbd a174 5e3d 91b8 d1bd
00000270: d75c d0bd 78d6 71bd 12e1 663d 2e71 1ebb
00000280: 4fd6 ecbd 9204 033e 5b42 d5bd 6b20 8bbb
00000290: baf1 fdbd a2c7 873e 19bf d4bd 5c34 73be
000002a0: aaf0 94bc a6f8 aabd 9981 10be 40e6 2b3e
000002b0: d799 6dbd a178 2b3e 08c5 95be 0a47 0ebe
000002c0: e6bb 2ebe bfee 04be 7560 5e3e 6e81 df3b
000002d0: 4bd1 47bd 9bb2 833d 3a98 a6bd a404 38ba
000002e0: d643 d83c 39e9 ad3e 4c3c 16be 7d87 873e
000002f0: 2827 fbbe a79f f3bc baca 6bbe b7b1 e33d
00000300: 5c49 be3d 50d7 643e 2cf0 0a3e 9bd2 f3bd
00000310: 2966 8bbb f4bb 3c3d f659 8b3d 89ff b73c
00000320: 3da8 1bbe 8329 db3d d746 4a3d cc99 1c3d
00000330: 11f8 d8bc c226 303e ca45 ac3c c3c4 b7bd
00000340: 0351 4abc 4e6a 5fbd 28b6 d4bb 79f3 4abe
00000350: b47f 963d 0bdb 07be 3e8d 3f3d f6c0 a5ba
00000360: 9cd9 e3bc 317d d5bb 88db 33be 26b4 793b
00000370: 8b2a dabb 27bf 49bd e37f d43d e16b 243e
00000380: 5ae6 963d 2637 39be f869 b1bd e586 7a3d
00000390: 7f8a 243e bd5e 1abe bc65 6fbd 2f02 303e
000003a0: eba8 243e f49c a1bb 99be 793b 84ef 02be
000003b0: 83df 973d c65c ec3b 014b 2d3e 0c5a 9a3c
000003c0: 8937 cd3c 9bb9 0f3b b277 82be 5274 053e
000003d0: 49d5 13bd 49cc 0abe 04f9 423b 6fea 8bbd
000003e0: ec10 48be 57fb 8cbd 3664 54bd 1602 51bd
000003f0: 7e4c b03d d414 363e 8f40 02be c793 073d

0.bias f4 [128]
-0.07340268 0.027974568 -0.046219975 -0.26929575 -0.017877005 -0.17691764 -0.24728523 -0.1272082
-0.3328625 -0.2085287 0.12918562 0.03575982 -0.14395857 0.33393136 -0.40853214 0.09864424
-0.4561011 -0.022444658 0.07811931 -0.12342425 0.8468888 0.635918 0.31769043 -0.059719898
-0.13041069 -0.18517604 0.5636017 -0.20973058 0.108432926 -0.117587335 -0.15781517 -0.33073747
-0.071732074 1.5518045 -0.059241682 0.006359406 0.2213324 -0.11767386 0.84919024 0.78370357
-0.13694823 0.03382951 0.4633714 -0.13713916 -0.17666863 0.41575602 -0.38265225 0.64034045
0.3241936 -0.23617604 0.027103266 0.1177253 -0.2334747 0.46427006 -0.30053383 -0.2865757
0.89935774 -0.2780383 -0.3512773 -0.09928583 -0.420746 0.9285728 0.07502795 -0.41623372
-0.17789671 -0.0028990726 -0.2674595 0.3138253 -0.26061907 -0.5148786 -0.22386403 -0.4033273
-0.07376405 -0.13859478 0.25122428 -0.27500653 0.47625917 0.33496222 -0.033566687 -0.0014966428
-0.28918314 0.5278287 -0.35081834 -0.2024932 -0.31231272 -0.19340752 0.08711974 -0.13877708
-0.22458479 0.01916197 -0.028210517 0.26449278 -0.3856588 -0.008185255 -0.054839745 -0.23329733
-0.23350947 0.28268132 0.43876195 -0.47135347 -0.3536009 -0.25380033 -0.47195107 0.19568026
-0.05725756 -0.31950966 -0.18957372 -0.00017466357 -0.12608746 0.50520897 -0.1220056 0.48551968
-0.35220835 0.8040282 0.24501641 0.2618552 -0.04724535 -0.21451831 -0.21831554 0.07102487
0.6367855 -0.19348244 -0.049375843 -0.048408363 0.07325065 -0.10686282 -0.20726466 -0.082945585
00000000: 2554 96bd ec2a e53c 2851 3dbd 22e1 89be
00000010: cc72 92bc e629 35be 5738 7dbe de42 02be
00000020: f46c aabe 8c88 55be 3c49 043e e478 123d
00000030: e069 13be 0df9 aa3e 202b d1be fe05 ca3d
00000040: 1586 e9be dcdd b7bc 04fd 9f3d dac5 fcbd
00000050: b4cd 583f 86cb 223f 52a8 a23e da9c 74bd
00000060: 618a 05be ca9e 3dbe 3348 103f 9dc3 56be
00000070: 1512 de3d a1d1 f0bd 4d9a 21be 6c56 a9be
00000080: 44e8 92bd 88a1 c63f 68a7 72bd 9062 d03b
00000090: f6a4 623e fefe f0bd 8864 593f cca0 483f
000000a0: 283c 0cbe d090 0a3d 043f ed3e 356e 0cbe
000000b0: 9fe8 34be f9dd d43e ffea c3be 5aed 233f
000000c0: b4fc a53e 22d8 71be ab07 de3c f619 f13d
000000d0: fe13 6fbe ceb4 ed3e 92df 99be 0dba 92be
000000e0: 4f3c 663f 095b 8ebe 9eda b3be 5f56 cbbd
000000f0: 056c d7be f2b6 6d3f 41a8 993d 961c d5be
00000100: 8e2a 36be 5efe 3dbb 74f0 88be b6ad a03e
00000110: dd6f 85be 15cf 03bf 9d3c 65be ea80 cebe
00000120: 9b11 97bd caeb 0dbe 78a0 803e a8cd 8cbe
00000130: 3ed8 f33e 2b80 ab3e 397d 09bd 002b c4ba
00000140: d00f 94be c81f 073f 769e b3be 615a 4fbe
00000150: 74e7 9fbe 9f0c 46be d66b b23d 941b 0ebe
00000160: 8ef9 65be 90f9 9c3c be19 e7bc 996b 873e
00000170: 1275 c5be 731b 06bc a49f 60bd 7fe5 6ebe
00000180: 1b1d 6fbe 9bbb 903e 68a5 e03e 3e55 f1be
00000190: 2d0b b5be 1ef2 81be 92a3 f1be 6860 483e
000001a0: e786 6abd c596 a3be 9d1f 42be e525 37b9
000001b0: 121d 01be 6055 013f 12de f9bd 0996 f83e
000001c0: a754 b4be cbd4 4d3f 95e5 7a3e e311 863e
000001d0: 5784 41bd b0aa 5bbe 1c8e 5fbe 7d75 913d
000001e0: 6004 233f 4320 46be 533e 4abd d947 46bd
000001f0: 7004 963d e5da dabd 303d 54be 60df a9bd

2.weight f4 [128, 128]
0.043283116 0.033026006 -0.024729501 0.066537075 0.0548209 0.077248506 0.050582252 -0.04539326
-0.02578384 0.04598834 -0.0031802787 -0.00691558 0.03367862 -0.060678683 0.017459162 -0.030051144
0.09240465 0.05262688 0.04903319 -0.037075616 -0.043310568 0.087797806 0.032865267 -0.05712184
0.11516752 -0.048666432 -0.074781135 0.00025560852 0.043310024 0.010679388 0.060522355 0.10914977
0.10828666 -0.027098633 0.11568809 0.02446974 0.04949126 0.011011351 -0.0011074718 -0.06211522
0.043934204 -0.02223711 0.0030384832 0.029007236 0.08317811 -0.10376925 0.035497814 0.026854612
0.010889548 0.0028863715 -0.0128178485 -0.04102185 0.018850582 0.011855627 0.014353493 0.0426647
0.10867456 -0.036352266 -0.018660069 0.023007728 0.16303533 0.08228187 0.103081435 0.14987497
-0.048553832 -0.04413216 0.08482179 -0.026496712 0.04111344 0.022495583 0.082884096 0.15344541
0.07104395 0.03061472 -0.01618742 0.07101716 -0.05884775 -0.025840031 -0.015086905 -0.039037813
-0.0670051 0.020956576 -0.046732903 -0.0048666904 0.022662032 0.08111827 0.0089133 -0.0114329355
0.053840403 0.065100744 0.03274953 -0.10151514 0.022930274 0.024125949 0.034275673 0.028529918
0.0019251372 -0.0822272 -0.0057900334 -0.02622205 0.11468163 0.10331378 0.08184798 0.087712556
-0.04317383 -0.043919105 0.028989796 0.06977849 0.072956555 -0.06387823 -0.033896085 0.08603557
0.03598747 -0.034437485 -0.04678266 0.092108235 -0.069533266 0.070118785 0.13139842 0.016596256
0.013556691 -0.068195455 0.0035752517 0.1432004 -0.011804783 -0.045514088 0.064888045 -0.008737033
0.090072475 -0.011187859 0.08246525 0.09760928 0.025757762 -0.027040347 0.0560623 -0.018988905
0.08030828 0.108426325 0.103715666 0.12550506 -0.02113643 -0.09929561 0.025949888 0.0083006965
0.070546985 0.01989958 -0.019638442 0.13973555 -0.043003816 0.013316513 -0.010088719 0.05644753
-0.06161435 0.12463881 0.036245435 -0.034999605 -0.023990441 0.04283513 -0.03866613 -0.042444523
0.10303239 -0.039388236 0.0850358 0.09080262 -0.10826567 0.0008612142 0.08467448 -0.06369199
-0.07894286 0.098913945 0.02500911 0.102871805 0.088173755 -0.02501345 0.048257157 -0.09662266
-0.09962651 0.017424917 0.04981939 -0.059720214 0.034931242 -0.08215333 -0.038735133 -0.005548661
-0.013385136 0.095460415 0.038151275 -0.010934036 0.08116654 0.024870278 0.031258214 0.060813792
0.051708717 0.014517824 0.06638707 -0.022579666 0.01029318 0.058804985 0.11272993 0.059089683
0.033500675 0.06144727 0.038443316 0.029191844 -0.030648483 -0.011901673 0.11055962 0.018975712
0.00027655353 -0.06520914 0.05985165 0.15042993 0.10555501 0.13953209 -0.088739134 0.13126832
0.0773006 -0.021530187 -0.04964311 -0.0035860252 0.010246393 -0.04433859 0.13519974 0.015897194
0.020022571 0.008514339 -0.029925432 -0.026736645 0.067066126 0.12696981 0.029449752 -0.0019936587
-0.06243922 -0.0016757173 -0.007463351 -0.033142705 0.12995219 0.060739882 -0.0068138205 -0.04711811
0.058867097 0.044018842 -0.025024239 -0.011922981 0.08204702 0.14317699 0.13104422 -0.05532185
0.03159892 -0.022139208 0.06361094 0.068320826 0.09675678 0.0020406514 0.08706192 0.10919253
00000000: a349 313d 4746 073d 8695 cabc 9744 883d
00000010: e18b 603d 7734 9e3d 562f 4f3d 48ee 39bd
00000020: a238 d3bc 455e 3c3d 396c 50bb 179c e2bb
00000030: 98f2 093d 368a 78bd 8406 8f3c d12d f6bc
00000040: a63e bd3d 498f 573d 07d7 483d 9adc 17bd
00000050: 6c66 31bd 56cf b33d bb9d 063d 97f8 69bd
00000060: f3dc eb3d 7456 47bd da26 99bd 3203 8639
00000070: da65 313d 9af8 2e3c 4ae6 773d ea89 df3d
00000080: 65c5 dd3d f4fd ddbc e1ed ec3d c474 c83c
00000090: 59b7 4a3d f468 343c 9628 91ba 876c 7ebd
000000a0: 5af4 333d 9a2a b6bc 4a21 473b 95a0 ed3c
000000b0: 4959 aa3d f984 d4bd 2866 113d 34fe db3c
000000c0: 136a 323c 4729 3d3b f401 52bc 8706 28bd
000000d0: 896c 9a3c 1b3e 423c ea2a 6b3c 2ec1 2e3d
000000e0: c590 de3d 1de6 14bd 00dd 98bc b47a bc3c
000000f0: bcf2 263e 6683 a83d 5c1c d33d d378 193e
00000100: 62e0 46bd ecc3 34bd 0cb7 ad3d a20f d9bc
00000110: 9166 283d a848 b83c 23bf a93d cb20 1d3e
00000120: 7e7f 913d b9cb fa3c 7b9b 84bc 7271 913d
00000130: 570a 71bd 79ae d3bc 112f 77bc 1de6 1fbd
00000140: f839 89bd 20ad ab3c 006b 3fbd c278 9fbb
00000150: baa5 b93c 5621 a63d 1709 123c 3551 3bbc
00000160: c187 5c3d 8a53 853d 5f24 063d 2be7 cfbd
00000170: 45d8 bb3c c8a3 c53c a664 0c3d 93b7 e93c
00000180: e354 fc3a bc66 a8bd 52ba bdbb a0cf d6bc
00000190: 34de ea3d 2d96 d33d ea9f a73d a4a2 b33d
000001a0: 0bd7 30bd 85e4 33bd 027c ed3c 06e8 8e3d
000001b0: 3f6a 953d 97d2 82bd 9fd6 0abd 6b33 b03d
000001c0: 9967 133d 520e 0dbd 2d9f 3fbd 3ea3 bc3d
000001d0: 7567 8ebd 709a 8f3d 4f8d 063e dff4 873c
000001e0: e21c 5e3c 0faa 8bbd c54e 6a3b 20a3 123e
000001f0: d968 41bc fb6c 3abd 06e4 843d c625 0fbc
00000200: eb77 b83d 484d 37bc 8ae3 a83d 60e7 c73d
00000210: f101 d33c b883 ddbc 95a1 653d 9f8e 9bbc
00000220: ab78 a43d 9f0e de3d e168 d43d 6684 003e
00000230: 4e26 adbc 7f5b cbbd dc94 d43c a5ff 073c
00000240: f07a 903d 7204 a33c cce0 a0bc d616 0f3e
00000250: c524 30bd 812d 5a3c 284b 25bc 8635 673d
00000260: 545f 7cbd a242 ff3d 1876 143d bf5b 0fbd
00000270: 9a87 c4bc e473 2f3d 6060 1ebd 4fda 2dbd
00000280: a502 d33d 8f55 21bd 4027 ae3d b9f6 b93d
00000290: 64ba ddbd 1bc3 613a d069 ad3d f270 82bd
000002a0: cbac a1bd 6593 ca3d e8df cc3c 74ae d23d
000002b0: 7194 b43d 02e9 ccbc 4ca9 453d 1ae2 c5bd
000002c0: fc08 ccbd b3be 8e3c 6b0f 4c3d 2f9d 74bd
000002d0: 1014 0f3d 0140 a8bd bba8 1ebd 8bd1 b5bb
000002e0: 544d 5bbc c080 c33d 8344 1c3d ac24 33bc
000002f0: a53a a63d c1bc cb3c 9d08 003d e217 793d
00000300: 85cc 533d 2bdc 6d3c f2f5 873d fef8 b8bc
00000310: baa4 283c 7fdd 703d f3de e63d 0608 723d
00000320: 0138 093d 22b0 7b3d bd76 1d3d bc23 ef3c
00000330: 8712 fbbc 3cff 42bc 156d e23d f472 9b3c
00000340: 63fe 9039 5f8c 85bd 0127 753d 4e0a 1a3e
00000350: 3a2d d83d 80e1 0e3e ddbc b5bd 346b 063e
00000360: c74f 9e3d 1360 b0bc 9356 4bbd 8503 6bbb
00000370: 7de0 273c 629c 35bd cd71 0a3e d53a 823c
00000380: 6006 a43c ba7f 0b3c 2e26 f5bc cf06 dbbc
00000390: f759 893d 6004 023e 9b40 f13c 0ba8 02bb
000003a0: 44c0 7fbd bea3 dbba 208f f4bb a5c0 07bd
000003b0: 3012 053e 62ca 783d 7846 dfbb ebfe 40bd
000003c0: a01e 713d 1a4d 343d a2ff ccbc 9b58 43bc
000003d0: 4508 a83d fd9c 123e 7530 063e 2a99 62bd
000003e0: de6d 013d 495d b5bc 7446 823d caeb 8b3d
000003f0: 6b28 c63d 73bc 053b 854d b23d 55a0 df3d

2.bias f4 [128]
-0.022012249 0.035589755 -0.07934758 0.20562483 0.10552719 -0.06428042 -0.076711304 0.09985017
-0.057387564 0.12500443 0.09688186 0.27871153 0.03725032 -0.015572204 0.0015147481 -0.047624536
-0.025926141 -0.024683192 0.050668 -0.0686921 0.07272409 -0.106634624 -0.0019332389 -0.20175017
0.08398283 -0.022505311 -0.03557897 -0.006122785 0.07639183 0.16949685 -0.21483281 0.16849251
-0.063839905 -0.05273111 -0.05466986 0.2625011 0.13056438 0.26238167 -0.017744444 -0.034182116
0.43155438 -0.0964175 0.038000755 0.2115737 0.118818976 0.03127149 0.15328042 -0.032712977
0.39061868 0.15397055 0.110453404 -0.102693535 0.23980603 -0.004717685 -0.009168862 -0.052600473
0.20525505 -0.18497181 -0.018388238 -0.020345988 -0.0017900682 0.16074537 0.2072977 0.07197193
0.022907596 0.2724183 0.10145852 0.32558402 0.1952029 -0.12826775 -0.009952261 0.15891047
-0.0150418235 0.03861073 0.058568336 0.20912117 0.07480344 0.08832162 0.117803946 0.100011595
0.10963119 -0.026470633 0.23846462 0.023124602 0.07101867 0.18707411 0.24709028 -0.09695255
0.047708075 0.0062885797 0.039842505 0.11783607 0.18865573 -0.040921446 0.24499102 -0.018912839
-0.08663978 -0.041901864 -0.013275711 0.07483519 0.008127462 0.016739495 0.014280193 0.024104763
-0.03892214 -0.08567523 -0.0346317 0.07617861 0.116065465 0.03930754 0.0386198 0.52827567
-0.09436951 -0.097303085 0.022478508 0.28628913 -0.03729171 0.026899323 -0.024142062 0.286422
0.2105609 0.16574962 0.05288554 0.30646962 0.10884295 -0.11322681 0.0040080175 0.013688362
00000000: 0853 b4bc 90c6 113d fc80 a2bd 518f 523e
00000010: a41e d83d 74a5 83bd d11a 9dbd 3f7e cc3d
00000020: 390f 6bbd 2901 003e ff69 c63d 47b3 8e3e
00000030: cb93 183d 8f22 7fbc 838a c63a f211 43bd
00000040: 0f63 d4bc 6834 cabc 4089 4f3d 72ae 8cbd
00000050: 5ef0 943d 4163 dabd bc64 fdba 9997 4ebe
00000060: 31ff ab3d 0f5d b8bc 41bb 11bd a5a1 c8bb
00000070: 5273 9c3d 9590 2d3e 22fd 5bbe 4d89 2c3e
00000080: 7fbe 82bd 94fc 57bd 81ed 5fbd 8b66 863e
00000090: abb2 053e e456 863e cc5c 91bc 8c02 0cbd
000000a0: b2f4 dc3e 8a76 c5bd aea6 1b3d c7a6 583e
000000b0: 5d57 f33d 8916 003d 8bf5 1c3e 0bfe 05bd
000000c0: 2cff c73e 75aa 1d3e 6535 e23d fd50 d2bd
000000d0: b68f 753e cf96 9abb ff38 16bc 9873 57bd
000000e0: 612e 523e 4069 3dbe eea2 96bc a1ac a6bc
000000f0: b9a0 eaba 6f9a 243e d945 543e 0566 933d
00000100: b6a8 bb3c 697a 8b3e 7cc9 cf3d f3b2 a63e
00000110: 45e3 473e 9f58 03be cf0e 23bc 6db9 223e
00000120: fb71 76bc 4926 1e3d 5ae5 6f3d dc23 563e
00000130: 8c32 993d f7e1 b43d 3243 f13d e1d2 cc3d
00000140: 5186 e03d f1d8 d8bc 1230 743e ce6f bd3c
00000150: 3d72 913d 5b90 3f3e 3c05 7d3e 0f8f c6bd
00000160: 8b69 433d 6e10 ce3b e531 233d 0a54 f13d
00000170: f82e 413e 3f9d 27bd edde 7a3e 19ef 9abc
00000180: 3270 b1bd 4aa1 2bbd 5e82 59bc 3143 993d
00000190: 0c29 053c 4421 893c 78f7 693c 5a77 c53c
000001a0: d26c 1fbd 7f76 afbd f8d9 0dbd 8803 9c3d
000001b0: bbb3 ed3d f100 213d cc2f 1e3d 133d 073f
000001c0: cd44 c1bd d746 c7bd d924 b83c 7d94 923e
000001d0: 31bf 18bd f85b dc3c 93c5 c5bc e8a5 923e
000001e0: 479d 573e 45ba 293e 829e 583d 96e9 9c3e
000001f0: 0de9 de3d 75e3 e7bd b055 833b 2745 603c

4.weight f4 [49, 128]
0.0162887 -0.055296965 0.06362555 0.18616928 0.12826069 -0.008395231 -0.178013 0.12915058
0.07812842 0.0762178 0.06644477 0.25970677 -0.03180166 0.02095379 0.02945006 -0.09154022
0.08021152 -0.22406304 -0.052210763 0.018645858 0.054584205 -0.29418543 -0.13738924 -0.44324818
0.12661253 -0.13432421 0.02715747 0.052399028 0.067460224 -0.009049339 -0.3679817 0.047116246
-0.19693825 -0.06900646 -0.06263976 0.13189249 0.044294044 0.21938834 0.013889735 0.08766195
0.38932362 -0.17270374 -0.020692466 0.1781957 -0.12760146 -0.05226902 0.07238499 0.059976783
0.28206238 -0.02243911 -0.008392001 -0.23297895 0.16441827 -0.061480664 -0.04184142 0.051617295
0.16364591 -0.5755905 0.07465787 0.025171885 -0.015906248 0.09764819 0.14732856 0.082104005
-0.058314133 0.16009092 -0.03249957 0.25607717 0.20594938 -0.19091538 -0.059353426 0.08960516
-0.002096002 0.03064756 0.06433866 0.081433214 -0.15199262 0.11954849 -0.06317096 0.1956621
0.06419348 0.014727063 0.12572885 -0.003522878 0.09009156 0.09012147 0.23179175 -0.10433901
0.055756018 -0.07237768 -0.04292121 0.010257224 0.15191959 -0.11402755 0.1408273 -0.1825997
-0.0019314984 0.060868904 -0.017629191 0.097440794 0.024580209 -0.079965785 -0.007118563 0.01975846
0.055411328 0.054149475 -0.015378573 -0.036787946 -0.049449913 -0.074542485 -0.00066596514 0.3422185
-0.13803995 -0.021589514 -0.06512272 0.24984829 -0.13447984 -0.099577084 0.064042374 0.13942973
0.16270079 0.117655315 0.09558841 0.13275804 -0.08389576 -0.32404843 -0.17553735 -0.13773914
0.047373123 -0.036762174 0.052396823 0.22155519 0.037872273 -0.043449648 -0.13314895 0.043537185
0.018429397 0.065794304 0.041487753 0.36214972 0.0068983347 -0.019964283 0.008233638 -0.14488292
0.05971071 -0.09572594 0.07860544 0.022211982 0.04813037 -0.1937768 -0.20642684 -0.5313683
0.16678435 -0.08777345 -0.033872683 0.013305979 0.019909136 0.14866005 -0.31408516 -0.10858116
-0.1553979 -0.021801442 0.010843462 0.2641919 0.055618066 0.1267575 -0.0469223 -0.04873039
0.28500623 -0.15272921 -0.067922845 0.14096703 -0.16004886 0.022947498 0.1466871 -0.011361462
0.2667002 0.02443642 0.044018425 -0.283787 0.09824801 -0.15411687 -0.033043373 -0.056567453
-0.0057600373 -0.3683514 -0.06342817 0.08999893 0.0025039234 0.036253765 0.1494442 0.16268538
-0.058069244 0.31922856 0.05100294 0.119188346 0.20802154 -0.11305245 -0.058269374 0.11874701
-0.037103336 -0.10405601 0.04234961 0.13787417 -0.13460825 0.014229972 0.09425489 0.19962215
0.046717532 -0.06101816 0.08271773 -0.057981014 0.07069939 -0.00620148 0.09700152 0.004169221
0.07043213 -0.20301926 0.07794218 0.024304163 0.28056985 -0.03706811 0.12211291 -0.09846259
0.020202106 0.058436498 -0.08693634 0.015146879 -0.069497764 -0.08045369 0.020253362 -0.16035566
-0.010901191 -0.019032428 -0.0636399 0.06291352 0.030786833 0.017244909 -0.13232958 0.30335036
-0.17875095 -0.0083965 -0.043489505 0.18491271 -0.036952145 -0.039142005 -0.004130256 0.2863702
0.06972624 0.014670607 -0.0026494204 0.29549024 0.10443419 -0.3924375 -0.10045128 -0.031874772
00000000: e16f 853c 127f 62bd 1d4e 823d 29a3 3e3e
00000010: c556 033e 278c 09bc 0a49 36be 0d40 043e
00000020: cb01 a03d 1418 9c3d 3214 883d 49f8 843e
00000030: 7542 02bd 48a7 ab3c 4141 f13c 7079 bbbd
00000040: f045 a43d c870 65be f4da 55bd 33bf 983c
00000050: b093 5f3d 799f 96be c4af 0cbe 6df1 e2be
00000060: b7a6 013e 498c 09be 5879 de3c 5da0 563d
00000070: 9628 8a3d ae43 14bc 1968 bcbe f7fc 403d
00000080: 2eaa 49be 4253 8dbd 4649 80bd d30e 073e
00000090: ac6d 353d 56a7 603e c591 633c 1c88 b33d
000000a0: 6d55 c73e 40d9 30be 3f83 a9bc ef78 363e
000000b0: f5a9 02be 0a18 56bd 953e 943d 37aa 753d
000000c0: 7b6a 903e 39d2 b7bc 9a7e 09bc 0992 6ebe
000000d0: 435d 283e 26d3 7bbd e961 2bbd a86c 533d
000000e0: cb92 273e e659 13bf 3ae6 983d 4535 ce3c
000000f0: d24d 82bc c6fb c73d 4cdd 163e 2526 a83d
00000100: cdda 6ebd e0ee 233e 451e 05bd 8c1c 833e
00000110: 65e4 523e 527f 43be 941c 73bd e982 b73d
00000120: 145d 09bb 9710 fb3c fdc3 833d 75c6 a63d
00000130: f4a3 1bbe d7d5 f43d c75f 81bd a55b 483e
00000140: df77 833d c749 713c 10bf 003e 16e0 66bb
00000150: ec81 b83d 9b91 b83d d15a 6d3e b1af d5bd
00000160: 6c60 643d c03a 94bd 27ce 2fbd ea0d 283c
00000170: cf90 1b3e 4787 e9bd 0835 103e 6afb 3abe
00000180: 552a fdba ac51 793d 186b 90bc 0a8f c73d
00000190: 6f5c c93c 1ac5 a3bd d642 e9bb 7edc a13c
000001a0: fdf6 623d d7cb 5d3d 69f6 7bbc f5ae 16bd
000001b0: fe8b 4abd bba9 98bd 2a94 2eba 4337 af3e
000001c0: 585a 0dbe 7edc b0bc 105f 85bd 3bd8 7f3e
000001d0: 15b5 09be 12ef cbbd a628 833d abc6 0e3e
000001e0: 099b 263e 45f5 f03d dbc3 c33d b9f1 073e
000001f0: 8ad1 abbd ade9 a5be 10c0 33be 7d0b 0dbe
00000200: 520a 423d ef93 16bd 0d9e 563d 5ddf 623e
00000210: f51f 1b3d 42f8 31bd 3358 08be 0c54 323d
00000220: 3ff9 963c 2abf 863d 10ef 293d b06b b93e
00000230: 6d0b e23b 238c a3bc 61e6 063c 305c 14be
00000240: 3893 743d f60b c4bd e4fb a03d e7f5 b53c
00000250: 5a24 453d 6d6d 46be 8f61 53be c107 08bf
00000260: 84c9 2a3e 91c2 b3bd 15be 0abd 5201 5a3c
00000270: 7c18 a33c 573a 183e c5cf a0be cd5f debd
00000280: a120 1fbe f098 b2bc c7a8 313c 2944 873e
00000290: c5cf 633d b8cc 013e 9931 40bd 8499 47bd
000002a0: 56ec 913e 0c65 1cbe 221b 8bbd a959 103e
000002b0: d9e3 23be 64fc bb3c 2535 163e 6d25 3abc
000002c0: ee8c 883e e32e c83c aa4c 343d 884c 91be
000002d0: 4136 c93d d0d0 1dbe 7d58 07bd 46b3 67bd
000002e0: b2be bcbb 8e98 bcbe a1e6 81bd 5c51 b83d
000002f0: dd18 243b d47e 143d e607 193e ff96 263e
00000300: 04da 6dbd ed71 a33e 75e8 503d 0519 f43d
00000310: 9903 553e 0b88 e7bd deab 6ebd a231 f33d
00000320: abf9 17bd 511b d5bd c976 2d3d e32e 0d3e
00000330: bfd6 09be d424 693c b508 c13d c069 4c3e
00000340: e25a 3f3d 2eee 79bd ea67 a93d 807d 6dbd
00000350: d7ca 903d c935 cbbb bca8 c63d f69d 883b
00000360: b83e 903d 48e4 4fbe 26a0 9f3d 8619 c73c
00000370: daa6 8f3e bbd4 17bd 5516 fa3d c1a6 c9bd
00000380: e37e a53c 1c5b 6f3d ae0b b2bd 9d2a 783c
00000390: d854 8ebd e7c4 a4bd 61ea a53c 4634 24be
000003a0: e99a 32bc e5e9 9bbc a355 82bd ced8 803d
000003b0: ab34 fc3c 3245 8d3c 6881 07be bd50 9b3e
000003c0: 7d0a 37be 7991 09bc 0d22 32bd c259 3d3e
000003d0: 225b 17bd 5e53 20bd 1957 87bb 1d9f 923e
000003e0: a2cc 8e3d fc5c 703c e6a1 2dbb 7f4a 973e
000003f0: 98e1 d53d 91ed c8be 67b9 cdbd 1f8f 02bd

4.bias f4 [49]
0.042536218 0.10678491 0.04642669 0.16144727 -0.013128694 0.14123335 -0.05934936 0.039354697
0.018507479 0.016139913 0.038719196 0.08769967 0.06107842 0.0043275473 0.11491839 -0.003413557
0.27405 0.17345743 0.0014930348 -0.03813879 0.04799313 0.12696376 0.14544605 -0.012787022
0.06663384 0.039757233 0.33543578 0.17407079 0.026781471 0.12715258 0.1415268 -0.0065632383
-0.074682996 0.1358217 0.07274964 0.043756146 0.16816448 0.0032357592 0.082222655 0.057999972
0.13760796 0.074124545 0.18088779 -0.029957779 0.04734056 -0.018847428 0.078920916 0.05090247
0.10932685
00000000: 753a 2e3d 0cb2 da3d ea29 3e3d 6f52 253e
00000010: bc19 57bc 7a9f 103e 5118 73bd 6432 213d
00000020: ff9c 973c da37 843c 0598 1e3d e29b b33d
00000030: 5e2d 7a3d 19ce 8d3b 555a eb3d fcb5 5fbb
00000040: 4850 8c3e d39e 313e efb1 c33a 6b37 1cbd
00000050: 7294 443d ca02 023e cfef 143e a880 51bc
00000060: 5377 883d 7bd8 223d 3dbe ab3e 9d3f 323e
00000070: d164 db3c 4934 023e 67ec 103e 6f10 d7bb
00000080: 66f3 98bd d814 0b3e c3fd 943d a539 333d
00000090: 4f33 2c3e 080f 543b 5a64 a83d 6191 6d3d
000000a0: 1ae9 0c3e 9cce 973d a63a 393e 046a f5bc
000000b0: 2de8 413d ec65 9abc 4aa1 a13d 1c7f 503d
000000c0: c1e6 df3d
