models/snaps/model_1686253209.457893.pt (torch, 252679 bytes, 10 tensors)

0.weight f4 [128, 49]
00000000: 3272 f73c 0c5d b83c 7115 b83c eb49 163d
00000010: 178e b1bc 5a20 d8bd 74f8 b3bd ca31 86bd
00000020: cd65 b2bc 9388 143e af09 10be 8925 3bbc
00000030: 1675 ee3d 7859 de3d fd28 cd3d c5c7 89bc
00000040: 44d5 1bbd 1833 8ebd 79ae abbd 6361 183d
00000050: ad03 223e 07c4 44bd db9f bc3d 0765 c73d
00000060: fc88 e73c ca45 d13d a339 56bd 49af 7d3b
00000070: 4e90 f73d 54eb 2b3d 7240 3b3d 6b26 023d
00000080: 4850 8abd e3cd 303e e1bb 0c3e af0b 5bbc
00000090: 2f3d 18be 3f45 0abd 2a57 9cbd 45ea b93d
000000a0: ccef e6bd e08e 11bd e659 cf3d 4529 2c3d
000000b0: 423f 12be 6a59 d2bd 8df5 513d 321b 0ebe
000000c0: 01a7 f23d ea76 1d3e 273e 93bc 975d 4fbd
000000d0: 42d3 073e bd34 89bd 324e 143e 5bb6 183e
000000e0: 74bb f5bd 0c03 bb3c 2bf3 0dbd be52 c83c
000000f0: 9fcd dc3d 9b97 ffbc 74dc cb3d b36f d7bc
00000100: c142 47be ae9d e93b 5f4b b1bd 47dd 45bd
00000110: 8ce8 f2bc 7c15 fcbc 9fd4 e33d b265 79bd
00000120: 86fc 6a3e 03c0 013c 9d2f 923d 6eba 12be
00000130: 9a3b 5d3d 6b92 9ebd a1a6 d83d 36f1 08bc
00000140: 645f eabd b15b 0a3e 8ce3 473d 44a0 033e
00000150: cad1 9cbc 90f3 42bd c782 143e 20a9 cc3c
00000160: ac04 9fbc 8021 0b3e 2f4d 8ebd 7fc7 b03c
00000170: 5bd0 9bbb 34bc 5bbd edf5 c6bc 8b47 e1bb
00000180: 2f47 b4bd ea0c f33d a7db a3bc e8d7 4d3d
00000190: e7d3 d1bc d399 023e 0e73 a7bd e9b0 97bd
000001a0: e00b 593b f84c a1bd 70db 13bd bfba 23bd
000001b0: 4363 2f3e a537 7f3d cccc b2bd 50a4 14bd
000001c0: 50b4 08be 882b 0a3e 0e21 533d 827e 8e3d
000001d0: f44a e33d 4caf dcbc 53d3 0bbd 9e52 3f3d
000001e0: f0ea b03d 13bf bebc 332a c1bd b02b cfbd
000001f0: f22c d53d a767 8cbd 7e21 353d 23eb 1c3e
00000200: b6a3 7c3d c0fe 87bd 96f4 1fbe 5247 4cbd
00000210: 6830 80bd daae c23c a928 3c3e fafa 9cbd
00000220: 3981 bd3c 9eda 343d 04d6 c0bd f551 5bbc
00000230: d57e 873d f179 0d3c af0d 21be 6b0a d1bd
00000240: 2c0c adbd b328 e5bc e290 cc3b 2c75 933d
00000250: fdb8 ef3d e843 d33d 1718 343e c445 ecbd
00000260: 2dda e1bd 1770 813d f6ea e13d 5b0c a63c
00000270: 440f fd3c 5441 773c 5830 cc3d 7ac3 1ebe
00000280: 773e 843d ea4f 213d dc6e 8fbd 0fe5 a33d
00000290: 64cf 993c 51c6 10be e142 df3d 36ef e93d
000002a0: 0890 d7bc 7867 d33d 0800 60bd 6b8e 3e3e
000002b0: e554 c03b 7aed e1bc 0460 20bc 86e3 8dbd
000002c0: 505c 5f3d c1d6 093d 6d9b 0fbc 870b 10be
000002d0: 5d4f 983d fb22 a63d 4292 acba 0c1d 753d
000002e0: c15a 16be c952 23bd 00e2 d6bd 4058 5bbc
000002f0: f135 e73d f87f 0b3d fb26 c53d 07d8 683d
00000300: a428 c83d 4915 803d 1eb2 d9bd 59b6 89bd
00000310: a5a9 b63d 06bc 103d 4734 d9bb c7ee 62bd
00000320: 6b47 cc3c 8151 5c3c 6a5d 10bd 5a77 08be
00000330: 4352 8fbc a536 cfbc 1069 e3ba cf29 10be
00000340: 32ee 853d 4c14 db3d 3920 c93d 3935 d23c
00000350: a26b b83d 6afd aabc 0325 eb3d 3606 61bd
00000360: 78a9 ccbd ff1e 33bd 2c38 ab3d 2599 1c3e
00000370: ae71 20be d883 e5bd 4cca 693d 0b15 7d3d
00000380: be10 b2bd e444 b8bd a5e2 38bd 5cff 4ebd
00000390: 62bc 253e 03b8 ee3d a860 16bd e238 93bc
000003a0: 7acf 1dbe a817 de3d b65e 1ebd 2c74 3ebd
000003b0: 4bc7 4b3d 4090 e4bd 9451 f23d 2547 a2bd
000003c0: 7ca3 edbd 170a 753d 2b51 c6bd 5c99 163d
000003d0: 794f f53d 6c1f 09be 9caa 49bd 2a5b 293d
000003e0: 56de 1e3e 7064 c5bd c549 003e aed2 0a3e
000003f0: f337 64bd 59b5 0abe 7494 0fbd b073 7ebc
0.03020582 0.022505306 0.022471162 0.036691587 -0.021674199 -0.105530456 -0.08787623 -0.06552465
-0.021777058 0.14505224 -0.14066194 -0.011422523 0.11643426 0.108569086 0.100175835 -0.01681889
-0.038045183 -0.06943339 -0.083828874 0.03720225 0.15821715 -0.04803851 0.092101775 0.09736066
0.028263561 0.10218389 -0.05230106 0.0038709214 0.12088071 0.041972473 0.045715757 0.03177492
-0.06753594 0.1726604 0.13743545 -0.013369485 -0.1486709 -0.033757444 -0.07633813 0.090778865
-0.112762064 -0.035536647 0.10124569 0.042031545 -0.14281943 -0.10270961 0.051259566 -0.13877562
0.1184826 0.15377393 -0.017973972 -0.050626364 0.13264182 -0.06699512 0.14482954 0.14913313
-0.119986445 0.022828601 -0.03465573 0.024453517 0.107814066 -0.03120022 0.099541575 -0.02629838
-0.19459058 0.0071293926 -0.08656954 -0.04830673 -0.029651903 -0.030771963 0.11124539 -0.060888
0.22947893 0.007919314 0.07137988 -0.1432893 0.05401192 -0.07742771 0.10578657 -0.00835829
-0.114439756 0.1351154 0.04880099 0.12854105 -0.019143004 -0.04759556 0.14503013 0.024982989
-0.019411407 0.13586998 -0.06948315 0.021579502 -0.0047550625 -0.05364628 -0.024287188 -0.0068749837
-0.0880264 0.118676975 -0.0200022 0.050254732 -0.025613738 0.12753992 -0.08176242 -0.0740679
0.003311865 -0.07876009 -0.036097944 -0.039973017 0.17127709 0.062308926 -0.08730468 -0.036289513
-0.13350034 0.13493168 0.051545195 0.06957723 0.110982805 -0.026939057 -0.03413708 0.04670965
0.08638561 -0.02328447 -0.09431877 -0.101157546 0.10408963 -0.068557076 0.044221394 0.15324073
0.061679564 -0.066403866 -0.15620646 -0.049872704 -0.06259233 0.023765016 0.18374886 -0.076650575
0.023132907 0.044153802 -0.0941582 -0.013386239 0.06615988 0.00863503 -0.15727876 -0.10207065
-0.08449587 -0.027973508 0.0062428573 0.07200083 0.117052056 0.103156865 0.17587315 -0.11536744
-0.11027942 0.063202076 0.11031143 0.020269563 0.030891068 0.015091259 0.09970158 -0.15504256
0.06457227 0.039382853 -0.070035666 0.08002674 0.01877565 -0.14138152 0.10901428 0.11422579
-0.026313797 0.103224695 -0.05468753 0.18609016 0.005869495 -0.027579058 -0.009788517 -0.06928162
0.054531395 0.03365207 -0.008765084 -0.14066897 0.07437012 0.08112141 -0.0013166147 0.059842154
-0.14683057 -0.039873872 -0.10492325 -0.01338774 0.112895854 0.034057587 0.096265756 0.056846645
0.097733766 0.0625406 -0.10629676 -0.06724233 0.08919076 0.035335563 -0.0066285464 -0.055403497
0.024936398 0.013447166 -0.035245337 -0.13326779 -0.01749528 -0.025294611 -0.0017350037 -0.14078449
0.06539573 0.10697231 0.09820599 0.025660144 0.09004904 -0.02087279 0.11481669 -0.054937564
-0.09993261 -0.043730732 0.08360323 0.15292795 -0.15668365 -0.11206788 0.05707769 0.061787646
-0.086945996 -0.08997515 -0.04513802 -0.0505365 0.16185144 0.11656191 -0.036713272 -0.01797146
-0.15411177 0.10844356 -0.038664542 -0.04649751 0.049750607 -0.11160326 0.11831966 -0.07923726
-0.11603448 0.059824076 -0.0968345 0.03676735 0.11978049 -0.13390893 -0.04923497 0.041346706
0.15514502 -0.096382976 0.12528141 0.1355693 -0.05571742 -0.13545741 -0.035053685 -0.015530512

0.bias f4 [128]
00000000: 6e86 2d3e 7d58 823d 99ca 85bd 2d7e f43d
00000010: aa3b 473e f37e c4bd cb2c 153d 408d a53d
00000020: ce9d a5bd 66af 3dbd 0f66 42bd 036a 0d3e
00000030: 9969 f83d 5b5f 85bd fa6e 39bb 15f1 80bd
00000040: 2b4f 5abd 091d 8a3d e7f3 4d3e 2747 80bd
00000050: c6ef 6d3d ed92 3f3e e249 a23d 5ed5 ec3d
00000060: a3d3 ea3c d694 7fbd 4e83 133e e832 143e
00000070: 7574 81bd 68e8 5fbd 1ce1 ac3c 5074 b03d
00000080: 77b0 e03d bf3c 00bc c9d0 a03d 9647 a13d
00000090: 88c4 babd bb3a 213d 6ca8 32bd e2ec 683e
000000a0: 7e9b b73a e82f 993c cf5c 163e 3e2d 69bd
000000b0: e90d f13d 94d6 59b9 128b be3d c032 9f3d
000000c0: 065a 3e3c 9d00 b33d c2f4 a53d 7c81 c2bd
000000d0: 4dcd 1c3e eaaa 0f3d 5866 bc3d 646d ccbc
000000e0: 73af 8dbd f439 5a3c 094c b63c 3372 8bbd
000000f0: ceaa 7dbd 0dd8 ed3d 24ea 783c 21dc 35bd
00000100: 25e8 34bd 1735 ff3d 548b b43d 4347 913d
00000110: 1bbe 413e 8124 333d 60ab a73d e4de 833d
00000120: 2d55 203d d883 ba3c a648 343e e196 8d3b
00000130: 845d 283e f089 173c ca6e 9b3c b3e6 18bd
00000140: 6b8d fd3d 1509 ba3d d902 6fbb 439c 3c3e
00000150: 3d98 45bd 2108 8a3d f2dd 58bc 5815 f43b
00000160: a64f 42bd b6b8 b33c 95c3 103e ac1a 423c
00000170: 39da 99bd b5e9 7e3d 7ae9 803d cbeb 21bd
00000180: 890d 793d ca02 273e 8ca8 bbbd 4a28 2fbd
00000190: e25d 01bd fc84 953a 5ac7 813d 50f2 dcbd
000001a0: 9b1d 2b3e b411 5c3d e6c3 80bd 9ed4 093e
000001b0: c086 563e 5a41 e33c 8e84 983d a855 16bd
000001c0: 5992 503d beea 313e e455 223e 89d8 063d
000001d0: 1393 dabd 18a9 1f3e 8da1 f13d 8b36 2f3e
000001e0: a031 8b3d 9b6f 49bc 7430 5e3e 2dae 90bd
000001f0: ddd3 1dbd 6b5d 913d f1d9 d43d ec93 0b3e
0.16945812 0.06364534 -0.06532783 0.119381286 0.19456354 -0.09594526 0.03641967 0.08083582
-0.080867395 -0.04630985 -0.047460612 0.13809972 0.12129516 -0.06512328 -0.0028294907 -0.06295983
-0.053298157 0.06743819 0.20112573 -0.06263571 0.058089994 0.18708391 0.07924248 0.11564134
0.02866537 -0.0623978 0.14405558 0.14472544 -0.063210405 -0.054665 0.021103434 0.08615935
0.10971158 -0.007826983 0.078523226 0.07874982 -0.091195166 0.03936265 -0.04361765 0.22746614
0.0014008132 0.018699601 0.14683841 -0.056927912 0.11770231 -0.00020774669 0.09303869 0.07773352
0.011618143 0.08740351 0.081033245 -0.094973534 0.15312691 0.035075106 0.09199208 -0.024954505
-0.0691823 0.013319481 0.022253053 -0.06808891 -0.06193047 0.11613474 0.015192542 -0.044399384
-0.044166703 0.12461298 0.08815637 0.0709367 0.18920176 0.043735985 0.08186984 0.064389974
0.03914373 0.022767946 0.17605838 0.0043209647 0.16441923 0.009249195 0.018973727 -0.037329387
0.12380489 0.090837635 -0.0036470203 0.18418984 -0.04824089 0.06739832 -0.01323651 0.0074488334
-0.04743924 0.021938663 0.14137109 0.011847179 -0.07512326 0.0622346 0.06294532 -0.03953151
0.060803924 0.16309658 -0.09163007 -0.042763032 -0.031583674 0.001140743 0.063368514 -0.10788405
0.16710512 0.05372782 -0.06287365 0.13460013 0.2094984 0.027741123 0.07447158 -0.036702782
0.050920818 0.17374703 0.15853077 0.032921348 -0.106725834 0.15591848 0.117983915 0.1711065
0.067965746 -0.012294675 0.21698171 -0.070644714 -0.038532127 0.07097896 0.103931315 0.13630646

2.weight f4 [128, 128]
00000000: 2e65 c23b d947 933c 09fd a2bd 404b 9abd
00000010: ee1a 6fbd ec0f ba3d e5cf 3c3d eeff 41bb
00000020: 8e12 8d3d 879e 20bd d7ef 003e e76b 9e3d
00000030: eb8c 953d af09 0bba d099 063d 9342 a83d
00000040: dbf4 5d3d 7fb2 183e 5ce8 fbbc ad05 71bc
00000050: 6d0c 9f3d 3ae1 553d ef83 8dbd b654 113e
00000060: 57d0 a43c f415 ccbc 25a7 bb3d aece 233d
00000070: 1380 2ebd 79cd 023e 044c 87bd 57a7 5e3d
00000080: 41b0 163e 7e26 6b3c e173 a73b 04a7 063e
00000090: 88fb 0e3b 7bd9 ccbc 810d 5f3c 9192 2b3d
000000a0: d6d5 d53d d50a d8bc fc01 373d 917d 4ebd
000000b0: b2dd 223c 2228 2a3d f74a 853d e252 673a
000000c0: 6d8e 983d fd6f 0cbd 12aa 2e3b 8d57 803d
000000d0: 8612 f93c 50d2 0abd 0b71 81bd e138 dbbc
000000e0: c1c1 f1bc 8243 aebd 86f6 d2bb 4d02 cc3d
000000f0: 8603 ef3d 0693 013e a892 52bd 594b 01bd
00000100: 5a4c a4bc d1fa 6d3d eb92 743c 46a8 1f3d
00000110: 0847 b43d d120 abbd c350 443c 6e99 b53d
00000120: fc38 d8bc 96c2 d1bd 7012 c33d c908 1b3d
00000130: a00c fb3c 0362 3ebd dada 99bd dd1d 09bc
00000140: 18bd bc3d 6647 0abd f0ae 843d fd7e 9a3d
00000150: 7c5f 8abd eab6 023d ac6f 643d fff3 923c
00000160: 3fb7 58bc b2a8 9d3d e079 b9bc e67a ecbc
00000170: 27b6 02bc c1a9 37bd 5933 923d 5296 523d
00000180: e9fb 80bc cd8e aebb 6569 a33d 0ffb 693d
00000190: 2c85 af3d 1410 13bc 0d15 9dbb 0882 b33c
000001a0: a036 ff3c 4f59 903c 09e9 91bd 18eb 9c3d
000001b0: b0f2 9d3d ad57 ca3d 311b ed3c 348e 1d3c
000001c0: f96a 99bc 1673 bc3c 2752 abba 2d00 9f3d
000001d0: c7a2 283d 78ba 103e a10e 3e3c 01a4 ec3c
000001e0: 2fa5 923d 92a3 0b3e b914 7f3d 6626 97bc
000001f0: f1a5 ad3d 4532 b0bd 1a33 673c 12e3 5cbc
00000200: 199e 283d 07bc 55bd b68f 823d fa30 76bc
00000210: 3bf3 24bc 0c43 043e 95e0 d33c ab5a a53d
00000220: 6dde 9f3d 9b46 e93d 6cba 5c3d 654b 8b3c
00000230: 1058 c33d 7565 d33d f09a 8c3d 14b6 983d
00000240: 7227 dc3d 3c25 22bd d55e 6c3d fdd2 ab3d
00000250: 36a6 e03d d757 d33d f23d c43d 4d4a 54bd
00000260: ccc5 26bd 5275 b1bb 6485 27bd 3211 b33d
00000270: 0983 873c 56a4 3fbc 42fc a7bc b412 6e3a
00000280: cbc3 ed3d a82d 013d 3854 133e b621 af3d
00000290: c864 813d 1203 fa3d da5b 3fbc d958 8838
000002a0: c006 993d fd9e eebc afeb 123c 5523 8ebb
000002b0: c420 253c 0d1e 0b3e 8dba 843c 1245 303d
000002c0: 18ae 3e3d 892a 98bc b53c 1c3d 92d5 543d
000002d0: 2e3e 833c a259 bdbc e857 8c3c 1deb f6bc
000002e0: a8b7 95bc 5083 5a3d ff9b bc3d 6330 47bd
000002f0: 95a1 1a3c 7e19 a83c d77d aa3d 9bad b1bd
00000300: f242 863d b218 7ebd 3d5a d6bd ad09 873d
00000310: 318e cbbc c7ab c73d 5503 b3bb 9d0e d33b
00000320: 623a 753c 0c18 34bd 2789 dfbc 3aa2 093a
00000330: 28b8 943d 95f0 883d ab95 083d a126 0f3e
00000340: 7de7 32bd ee82 1cbd c5bc 76bc 3c8e 9d3d
00000350: aa3f 2b3d 9001 253d 4c39 d53d 6eb3 023e
00000360: 69f5 8dbd f451 ca3c 058c b03b f055 863d
00000370: c65e 7f3d b1bc 12bc 3a92 5ebd 9c76 073d
00000380: 8153 b03d 0502 94bd 5496 ba3d 39ad f63d
00000390: ef53 10bc 7da4 dc3d f0f4 a8bd c781 24bd
000003a0: 72dd 71bd b75a d23d 019a a43c 7d3e 88bd
000003b0: f914 04bc cb41 c53d 582d dc3d 01ed a13d
000003c0: a6db 163c 87ab 65bd 19a1 ce3d 1cfd 8cba
000003d0: cf5d 8fbc f1e7 5dbd ba8a c6bc 973f 8cbc
000003e0: 7161 ff3d 348c 7c3c a12d 8c3d 9cac d13a
000003f0: 5996 1abd bff6 163d d9cf 993d 880b 413d
0.0059324717 0.017978596 -0.07958419 -0.07533884 -0.05837529 0.09085068 0.0460967 -0.002960201
0.06888305 -0.039213683 0.12591492 0.077354245 0.073022686 -0.0005303872 0.03286153 0.08215823
0.05418859 0.14911841 -0.030750446 -0.014710826 0.07766042 0.052216746 -0.0690993 0.14192471
0.020118875 -0.024912812 0.0916274 0.039992027 -0.04260261 0.12773694 -0.06606296 0.054358806
0.14715673 0.014352439 0.0051102494 0.13149649 0.0021817405 -0.025006047 0.013614059 0.041887823
0.104411766 -0.026372353 0.044679627 -0.05041272 0.009940552 0.04154218 0.06508439 0.0008824301
0.074490406 -0.034286488 0.0026651663 0.06266699 0.03040434 -0.033891976 -0.06320389 -0.02676052
-0.029511334 -0.0850897 -0.0064380793 0.09961376 0.11670594 0.12653741 -0.051409394 -0.031565998
-0.020055939 0.058100525 0.014927606 0.038978837 0.08802611 -0.083558686 0.011982146 0.08867155
-0.02639436 -0.102421924 0.09525001 0.037850175 0.030645669 -0.04648019 -0.07512446 -0.008368936
0.09215754 -0.033759497 0.06478679 0.07543752 -0.067564934 0.03191272 0.05577056 0.017938612
-0.013227283 0.07698192 -0.022641122 -0.028867196 -0.007977999 -0.044839624 0.071387 0.051412888
-0.01574512 -0.005327082 0.07979087 0.057124194 0.085703224 -0.008976001 -0.004793769 0.02191259
0.031153977 0.01762071 -0.07124526 0.07662028 0.077123046 0.09880004 0.02894363 0.009616423
-0.018727766 0.023004096 -0.0013070748 0.077637054 0.04117086 0.14133632 0.0116001675 0.028886797
0.071604125 0.13636616 0.062275622 -0.018450927 0.084789164 -0.08603338 0.014111305 -0.013481872
0.0411664 -0.05218127 0.06375067 -0.015026325 -0.010067756 0.12916201 0.025863925 0.08073934
0.07806096 0.1139042 0.053888723 0.017003724 0.09538281 0.10322086 0.068654895 0.07456604
0.10749711 -0.03958629 0.057707626 0.08389852 0.10969202 0.103194885 0.09582128 -0.05182867
-0.040715978 -0.005415597 -0.040898696 0.08743514 0.016541975 -0.011696896 -0.020506028 0.00090817665
0.1160961 0.03153768 0.14387596 0.08551352 0.063180506 0.12207617 -0.011679614 6.5015345e-05
0.074719906 -0.029128546 0.008967324 -0.004337708 0.010078613 0.13585682 0.016202236 0.04303462
0.046552747 -0.01857497 0.038143832 0.05196149 0.01602086 -0.02311403 0.01713176 -0.030141408
-0.01827605 0.053347886 0.092094414 -0.04863013 0.009437938 0.020519968 0.08324783 -0.08675691
0.065557376 -0.06203527 -0.1046643 0.065936424 -0.024848076 0.09749561 -0.0054630437 0.006440951
0.014967533 -0.043968245 -0.027287079 0.0005250309 0.072616875 0.066865124 0.03334586 0.1397958
-0.043677796 -0.0382108 -0.015059655 0.07693145 0.04180876 0.040284693 0.10411319 0.1276376
-0.06931574 0.024697281 0.0053877854 0.0655936 0.062346242 -0.00895612 -0.05433867 0.0330721
0.08609677 -0.07226948 0.09110704 0.12044758 -0.008809074 0.10773561 -0.08249843 -0.040162828
-0.059049077 0.10271209 0.020092966 -0.06652544 -0.008061641 0.0963169 0.10750836 0.07906533
0.009207642 -0.056071784 0.10089321 -0.0010756585 -0.017500786 -0.054176275 -0.024236072 -0.017120166
0.12469757 0.015414286 0.068446405 0.0015996876 -0.03774104 0.03685641 0.07510347 0.047130138

2.bias f4 [128]
00000000: 8917 a83d d220 82bd 52d3 9b3d 422b dc3c
00000010: 140b 833c 8992 c1bd bff4 a03d 8db6 493c
00000020: 41e5 e93d e880 bf3d c8a7 e73d 0166 8dbd
00000030: f86b 44bd 67de 9d3d b2b3 513d f3ae fdba
00000040: 29f4 323d 9a9f 84bc 8d62 723c 6b03 e9ba
00000050: 51c2 39bd 1460 ef3d 1aa9 813d 5acd 803d
00000060: fc5d 253e 8da8 093b 8ffa ae3d de03 5f3d
00000070: 8e0b 11bd 9b1c 2ebd 69dc 2e3c 4f02 df3d
00000080: 1ef2 b23d 4510 9a3d 8ba8 ef3d 8f24 133e
00000090: 6727 38bd 05b2 c33d 7f1a 05bd 5aa7 1fbc
000000a0: 557a 523d 5f93 0fbb 2096 9b3d 45dd 9d3d
000000b0: 28aa 163e 5fd1 6e3c 6457 f53d ffaf a13d
000000c0: d5df 253d e32f 253d 22c0 18bd ee18 bf3d
000000d0: 07df 14bd c9f2 86bd 33bf 383e 2551 87bd
000000e0: fa41 b33d a555 5fbd d6af ccbc 0642 703d
000000f0: 3d20 57bd e107 e13c 6cf3 973d 56c6 a5ba
00000100: 0085 1bbd 435d 053d 2126 0d3d 9948 99bd
00000110: 113b 0ebd e4a9 293c c25e 69bd f150 9e3d
00000120: 17db 0fbc 378a 28bd 37d4 90bc e386 49bd
00000130: 883e 42bd 6d0b 0d3d 34be 593d ca76 923d
00000140: 9620 083d a7c4 b5bd f029 583d b912 b23c
00000150: 86d4 aebc f228 a0bc bf9d 903d 608f a23d
00000160: d47d 8a3c 79cf e63d b48a 10bd 1661 d63d
00000170: 30fb ad3d 2dc5 2e3d 8f47 cb3d 9f39 d03c
00000180: a7c9 a03d 62d9 cc3c bb5e 4b3d b049 fd3c
00000190: bcad ca3c 99f8 043e b41d 8a3d 303d ecbc
000001a0: c102 7e3d 5c15 193e 0803 c6bc 9b09 95bc
000001b0: fbad 7f3d 3c36 6c3d 57a3 ab3d 7d82 d53d
000001c0: 89bc b53d 86ce 55bb be32 f5bb 47e6 153e
000001d0: c98a 90bd 0227 c23d 55b4 6fbd 914f 103d
000001e0: 3365 a33c f468 0c3c 4c13 58bd 8214 063e
000001f0: 1060 46bd bee1 07bd 191c 9fbd 8ecc 263d
0.08207614 -0.06353916 0.076086655 0.026876096 0.015996493 -0.094517775 0.078591816 0.01231159
0.1142068 0.09350759 0.113112986 -0.06904221 -0.04795453 0.077084355 0.05119676 -0.0019354507
0.04368988 -0.016189385 0.014794004 -0.0017777508 -0.04535133 0.11688247 0.06331082 0.06289168
0.16149133 0.0021005005 0.08543884 0.054447047 -0.03541141 -0.04250775 0.010672667 0.10889112
0.087375864 0.075226344 0.11702069 0.14369415 -0.044959452 0.09555439 -0.03249597 -0.00974449
0.051386196 -0.0021907908 0.075969934 0.077082194 0.14713347 0.014576285 0.11979559 0.07894897
0.040496666 0.04032887 -0.037292607 0.09330927 -0.036345508 -0.06589276 0.18041687 -0.06607274
0.087528184 -0.054525036 -0.024986189 0.058656715 -0.05252098 0.027469577 0.07419476 -0.001264761
-0.037968636 0.032559644 0.03446019 -0.0748455 -0.0347243 0.0103554465 -0.056975134 0.07730282
-0.008780262 -0.041147437 -0.017679317 -0.049200904 -0.047422916 0.034434725 0.053159907 0.071515635
0.0332342 -0.08875399 0.05277437 0.021737443 -0.021341573 -0.019550774 0.07061338 0.07937503
0.016905703 0.11270041 -0.035288528 0.104677364 0.08495176 0.04266851 0.09925758 0.0254181
0.07850962 0.025006 0.04965089 0.030918926 0.024741046 0.12985457 0.06743947 -0.02883777
0.062014345 0.14949554 -0.024171367 -0.018193057 0.06242178 0.05766891 0.08380764 0.10425279
0.08873851 -0.0032624318 -0.0074828556 0.14638625 -0.07057721 0.094800964 -0.058521587 0.03523213
0.019945716 0.008569945 -0.052752778 0.1309376 -0.048431456 -0.03317427 -0.07769031 0.040722422

4.weight f4 [128, 128]
00000000: f4af b83c bda3 8bbd f464 8f3d 70dc 03be
00000010: 3894 803d 259a 4f3d ffe7 fd3d 8571 b7bd
00000020: 3c43 2a3d 71c9 663d 84e7 ba3d 702c 1d3d
00000030: 5573 a13d 59d2 ddbb 41ad a43c af50 733d
00000040: feec b33d 2388 a5bd adc3 883c 56ef 7b3d
00000050: 28c0 e7bd 992e 3c3d c6ed fe3d b820 843d
00000060: 5921 aa3d 2911 cabc a3a1 b63c bb63 b03d
00000070: abe3 66bd 34f8 593d 6ee4 be3c 56e0 583d
00000080: 5d04 71bb 5691 9c3d e03a 103d 1568 96bc
00000090: a8ea ad3d 2b0a 1ebd 1c24 773d 8b2e 0bbc
000000a0: ea97 beba 639c 903d c48f b23d 8863 28bd
000000b0: 3b21 093d c630 1c3d 60d4 933d 74c4 883d
000000c0: ed59 1d3d e3ba b8bd 6713 eb3c 116a 86bb
000000d0: 61e5 bc3d ac0b 07bd 638a 1e3d 26a9 783c
000000e0: cbd3 003e f0a7 933c 3b34 d03c 3744 913c
000000f0: 76ed 18bd e7b3 983d 00d6 08bd 18cc b6bc
00000100: f0cd 813d 342d 053c 27cb 86bd 0581 223d
00000110: b415 903d 976e f03d 27db febc b2b2 2ebd
00000120: 29d8 133d f3b6 27bc a005 8b3d eed0 3cbd
00000130: 4ba7 503d 14d3 01bc 59d1 de3d 5cb4 43bd
00000140: d0d6 613d 3a63 3fbd 5d06 4d3c 6987 71bd
00000150: f4f4 2d3d 36d6 d8bc cd48 553b b2e2 ff3c
00000160: 99ca 2a3d ff7f 0dbd d803 9cbd ef6d 5cbc
00000170: acd5 583d da3d 293c 09b4 02bc ee23 ef3d
00000180: 459c 9cbd a291 f1b9 1ce3 84bc d56c 503b
00000190: cc43 863d a6cc ffbc a49f 8cbd f1a4 e2bb
000001a0: e9f1 b9bd cfa9 803c 891d 11bd 4594 7dbc
000001b0: 6719 07bd 3dbb 85bd 79ff 35bd db5b 8c3d
000001c0: 000b 033c 598a 883d 1984 953d cbd3 963d
000001d0: 1355 3ebd 4114 6abd 9600 35bd 1744 053e
000001e0: 4dce a4bd b03c edbc f6de aa3c cde5 b23d
000001f0: 0971 afbd 079e c0bd a09e c2bd 4074 8f3d
00000200: 59bf 1bbd 984b 8a3c 0b82 853c 0e62 133d
00000210: 28dd 31bc 73a0 4c3b 24b5 8dbd 55cf d53d
00000220: 2c22 853d 4c9a 95bd f738 083d 2df3 e43c
00000230: cbfa 9a3d 5fd0 523d ba8e f73d 72f0 4b3d
00000240: 17dd 483d a78b 073e 04c1 c7bc b3b6 f03d
00000250: f5a5 f33c ead6 f9bc 8652 003d fc79 48bd
00000260: 3bab adbd 51e4 f43c 6b76 d1bc b530 16bd
00000270: 8dc2 683d eba8 14bd 06bd ed3d bc73 023d
00000280: ecea aabc 67ff 65bc fe08 79bd d06c 23bc
00000290: 52df 043e d93c c2bd 1e4a ea3c 314d bf3d
000002a0: 8f4f 893c 62c6 8b3d d700 73bd 7c73 413d
000002b0: a0fd 5ebd 7ba7 e7bc eee9 6fbd bc9f b43d
000002c0: 9673 c93d 639c babc 3fb6 e73c 3889 0abd
000002d0: bef6 66bc 8244 0f3d 9064 14bd 8216 063c
000002e0: 8cfb 9dba c260 ec3d 846c 843d c35b 823d
000002f0: d057 f53c 7dd6 2c3d 2f48 75bc 3997 0cbd
00000300: c601 8dbd ddd1 db3d e391 073d 17c7 073e
00000310: 4584 9abd 09f2 9ebd d82f 013c 7ba5 6ebc
00000320: 041c ce3c 4256 623d 0d29 993b b26e 65bd
00000330: 2936 1dbd 1ce8 133d 7742 bd3d 01a7 5c39
00000340: e82c 633c df22 073d 1958 2c3d 85ac fc3d
00000350: 2e04 e73d 2f07 ecbb 8ef1 d33d bc90 07bd
00000360: 2b36 04bd 6101 963d 0530 783d c1ea d8bc
00000370: 658b ce3c b679 023c 6f21 013d a420 e2bd
00000380: c04f 843d 10a6 cc3c af96 e33d 340a 843d
00000390: e9f0 11bd 4a50 693d 8b73 a23d 5e78 0c3e
000003a0: fee1 ee3d dde3 2fbd 007f ed3d 1028 023e
000003b0: 7899 2b3d 21b7 d63d 8b91 d1ba 297a 08bd
000003c0: 12ff 40bc 2a68 a83c cbe6 3a3d 9e34 a83b
000003d0: 4b31 103e 9d66 32bd e48a ef3d b534 303d
000003e0: dc2d 8a3c 7585 26bd c998 ae3d c062 b83d
000003f0: eb18 8f3d 47f9 d63d 67e6 093e 9c66 723d
0.022544838 -0.0681834 0.07001677 -0.12877059 0.062782705 0.050684113 0.12397765 -0.08957199
0.041568026 0.056344453 0.09126189 0.038372457 0.07883326 -0.00676946 0.020102145 0.059403118
0.08785437 -0.08082607 0.016694868 0.061507545 -0.11315948 0.045942876 0.124476954 0.06451553
0.08307142 -0.024666386 0.022293871 0.08612772 -0.056369465 0.05321522 0.023302283 0.05294832
-0.0036776282 0.07644908 0.035212398 -0.018360177 0.08492023 -0.038583916 0.06033717 -0.008494983
-0.0014541124 0.070610784 0.08718827 -0.041110545 0.033478957 0.03813245 0.07218242 0.066780955
0.038415838 -0.09020021 0.028695775 -0.0041019996 0.09223438 -0.032970116 0.038706195 0.015177047
0.12580793 0.018024415 0.02541553 0.017732723 -0.037335835 0.07456189 -0.03340721 -0.022314116
0.063381076 0.008128453 -0.06581717 0.039673824 0.070353895 0.11739843 -0.03111036 -0.042650886
0.03609482 -0.01023649 0.06788182 -0.04609769 0.050940793 -0.00792386 0.10879774 -0.047779426
0.0551365 -0.04672549 0.012513724 -0.058967028 0.042469934 -0.026469331 0.0032544613 0.031236026
0.04169712 -0.034545895 -0.07617921 -0.013453945 0.05293815 0.010329688 -0.007977494 0.11676775
-0.076469935 -0.00046075607 -0.016221575 0.003180315 0.065559 -0.031225514 -0.068663865 -0.006916635
-0.09079344 0.015705971 -0.035428558 -0.015477245 -0.03298321 -0.065298535 -0.04443309 0.068534575
0.007998228 0.06667013 0.07300586 0.07364615 -0.04646785 -0.057148222 -0.044190012 0.13014255
-0.08047161 -0.028959602 0.02085827 0.08735237 -0.085664816 -0.09405141 -0.095029116 0.07004595
-0.03802428 0.016881749 0.01629736 0.035982184 -0.01085595 0.0031223565 -0.069193155 0.10439936
0.065006584 -0.073048204 0.03325745 0.027947986 0.07567366 0.05146825 0.1208777 0.049789853
0.049038973 0.13236867 -0.02438403 0.11753597 0.02974222 -0.030497987 0.0313287 -0.04894446
-0.08479925 0.029894026 -0.025569161 -0.036667544 0.056826163 -0.036293905 0.11608319 0.031848654
-0.020863973 -0.014037943 -0.06079959 -0.009974673 0.12975815 -0.09484262 0.028599795 0.09340895
0.01676157 0.06824948 -0.059326973 0.047229275 -0.054441094 -0.028278103 -0.058572702 0.088195294
0.098364994 -0.02277965 0.028285144 -0.03382227 -0.014096914 0.034977444 -0.036228716 0.008184077
-0.0012053116 0.115418926 0.0646601 0.063651584 0.029949099 0.04219674 -0.014970823 -0.034323905
-0.06885104 0.107333876 0.033098113 0.1325954 -0.0754476 -0.07761008 0.007884942 -0.014565821
0.025159843 0.055258043 0.004674083 -0.05601377 -0.03838173 0.03611003 0.09241193 0.00021043049
0.013865687 0.03299224 0.042076204 0.12337593 0.11280094 -0.007203005 0.10348807 -0.033097014
-0.03227822 0.07324482 0.06059267 -0.026479127 0.025212953 0.007963588 0.031526025 -0.11041382
0.064605236 0.024981529 0.11112725 0.064472586 -0.03563014 0.056961335 0.07932194 0.13717791
0.11664198 -0.042941917 0.11596489 0.12710595 0.041894406 0.10484148 -0.001598881 -0.033319626
-0.0117795635 0.020557482 0.045630258 0.0051332256 0.14081304 -0.04355489 0.11696413 0.043019015
0.01686757 -0.04065462 0.08525235 0.0900321 0.069871746 0.10496765 0.13466798 0.059179887

4.bias f4 [128]
00000000: b805 273b ab49 aabd 7566 f43d e130 94bd
00000010: 7249 99bd 9e1c 43bd 29cc 8dbd d962 9fbd
00000020: 9047 19bc 14aa 07bd 9242 933d b3da dc3c
00000030: de5d aa3d 5f7c 9fbd 520d 903d 5d15 bf3d
00000040: 28aa 803c ea28 e73d 905a abbd 3b44 a93d
00000050: 6f61 843d fb83 20bd 514b c63d 2bbd e73c
00000060: bd23 e63d 2042 babc 3a2d 2fbd 95f1 423d
00000070: d9f0 1dbd 67f9 b8bd b0d9 643d d8b1 ab3d
00000080: 6481 c43d 90ee 31bd 4471 8c3d dc08 133c
00000090: 6961 85bd d43e 423d 5cd7 433d 0d4a 39bd
000000a0: dd12 08bd 03c1 ec3d 2e24 653a ef0d 373d
000000b0: fb33 22bd 0772 7e3d 5213 d8bd 02ed a73d
000000c0: 6de7 143d c29c e23d 854f b13d f1ce 853a
000000d0: 7330 fdbb cb4b 163d 84a7 bc3d 3f4b d13d
000000e0: 7802 cebd b47f 80bd ce58 9abd 87aa cebb
000000f0: 63d1 59bd 6fd3 05bc 51a0 013d 6f0d 603d
00000100: c90f 393d 7d71 b33b 3eb1 1e3d 44d5 eebc
00000110: 9b76 d7bc 07e9 7abd 6381 683d ce8f 6bbd
00000120: fe05 043d 789f bf3d 2887 513d 9cd5 a03d
00000130: ecba 42bd 0e99 293b 86b6 be3d c457 eabc
00000140: b74d afbd 9bd3 833c 58b7 253d 7eeb 393c
00000150: ab53 28bd ca5a 943d 82e0 ec3d 80a7 0e3d
00000160: c496 82ba 7433 0c3d 3f78 d2bc 1f99 ba3c
00000170: 0962 7abd 74d1 c13c b87c cabd f55e 853d
00000180: b9d7 5e3d db0e 2fbd 5526 4cbd 28f3 0f3d
00000190: 53c5 ae3d d6cc 8cbd d3a1 a2bd e3bf f43d
000001a0: 0927 62bd f8ae 9cbd d1be e03d 376c 65bb
000001b0: 5e32 cf3c e763 19bc c478 0bbd 3c23 3bbd
000001c0: 948c b43d 61e8 8a3d 52de 923d b784 ba3c
000001d0: dac4 58bd c2e4 acbd 9435 c3bb 9381 003c
000001e0: e82b 293d 7aac 923d e8d3 2ebc 50d8 dd3c
000001f0: 2001 db3c 7476 f8bc 8ac2 06bd a8f3 483d
0.0025485586 -0.08314832 0.11933605 -0.072358854 -0.07484712 -0.047634713 -0.06923706 -0.077825256
-0.009355441 -0.033121184 0.07190432 0.026959753 0.08318685 -0.07787394 0.07033791 0.093302466
0.015706137 0.112871006 -0.08366883 0.08264967 0.064638965 -0.039188366 0.09682334 0.028288445
0.11237285 -0.022736609 -0.04276774 0.04759367 -0.03855977 -0.09031945 0.055871665 0.083835304
0.09594992 -0.0434404 0.06857541 0.00897428 -0.0651272 0.0474232 0.047812805 -0.045236636
-0.033221114 0.115602516 0.0008741048 0.044691022 -0.039600354 0.062120464 -0.1055056 0.081995025
0.036353517 0.110650554 0.08657745 0.0010208768 -0.007726723 0.036693376 0.092116386 0.1021943
-0.100590646 -0.062743574 -0.075364694 -0.0063069495 -0.053178202 -0.0081680855 0.03164703 0.05470031
0.04518107 0.0054761753 0.03874325 -0.029154427 -0.026301673 -0.06125739 0.056764018 -0.05751019
0.032232277 0.09356588 0.051154286 0.07853243 -0.047541544 0.0025878581 0.09312157 -0.028606303
-0.08559745 0.016092112 0.040458053 0.01134765 -0.041095417 0.07243879 0.11566259 0.03482771
-0.0009963145 0.034228757 -0.025692103 0.022778092 -0.06112865 0.023659445 -0.098870695 0.06512252
0.054404948 -0.042738777 -0.049841244 0.035144 0.0853373 -0.06875007 -0.07941022 0.11950662
-0.055213008 -0.0765056 0.10973895 -0.0035007128 0.025292572 -0.0093621975 -0.034050718 -0.0456879
0.08815876 0.06782604 0.071713105 0.022768361 -0.052922107 -0.084420696 -0.0059573147 0.007843393
0.041301638 0.071618035 -0.01067064 0.027080685 0.026733935 -0.03032992 -0.03290037 0.049060494

6.weight f4 [128, 128]
00000000: b5f0 043d 49b9 e2bd 9996 e93d 6540 57bc
00000010: daea 723d 3e95 0e3c 74d5 323d 2452 7abd
00000020: 26ee 6b3d a582 91bd 122b 3a3d 68e7 c0bb
00000030: 9037 abba 9329 63bd 436f 7b3d e670 b63d
00000040: 1e91 92bd b517 643d fd72 7d3d d075 a33a
00000050: 390f 85b9 500f 19bd 3368 893b ee57 55bc
00000060: 7c5b c73d 5ed1 cebc 30e2 983d 2f86 2ebc
00000070: 719f bcbd 896c 0ebd 5c0b 003e 8726 5ebc
00000080: e9a2 a63d 5180 36bb 5185 b13d 2cc1 a73d
00000090: eaf9 c7bc 5258 893d 6c91 363c ad11 f73c
000000a0: 5e1d 3e3d f7a9 e43d 3ab8 95bd fa95 db3a
000000b0: b8ac 8f3c 6366 ca3d 03cb f23c dcab 51bd
000000c0: 46f4 f13c 4ce8 5cbc ed9f 96bc cacb 6d3d
000000d0: f912 803d 6f17 b9bc 8e21 5ebd d2f6 0a3e
000000e0: c871 54bd ecb9 3ebd a091 8c3b 7b2d e23d
000000f0: af93 26bd 47c6 9e3d 471a 113c 8957 35bd
00000100: 0cd2 b6ba 03bc 103a 1a0d cb3d ac30 47bc
00000110: f61c d4bc 79ef 753d 3b9c 15bd 3a34 3bbd
00000120: 38c1 7fbc f861 04bc 0a7d 8e3d 8dc3 3bbc
00000130: 8a25 43bd 6d9e 963b 813d 753d 6fb8 c9bd
00000140: 5a96 28bd 1cf7 22bc 6c64 25bd b4ff e23d
00000150: 8005 bdbb 341b 5abd c57d 1abd ca26 8b3c
00000160: f0ca bebd d190 0c3d 620e dabc a0ca b1bc
00000170: 0cf8 773d 2ddf b7bc 2760 dfbd ecc4 813c
00000180: 4bf1 6f3d f747 e2bd 27b6 a53d 7435 0cbd
00000190: 1748 793d 42a7 22bd e903 1ebd 0e12 963d
000001a0: 9b34 c8bc b6d6 8a3d 5065 813d 6e93 c4bb
000001b0: 99cf e43d 7c26 203b 2910 843d 0635 69bd
000001c0: e401 d83d ebfb ac3d 6ed9 6ebd c433 463d
000001d0: dc17 9a3d 039d d2bc ed75 793d 7865 973d
000001e0: 3e45 593d 41fa 51bc bfe1 e93c d7ef bd3c
000001f0: 57df 85bb 1769 2a3d 4e1a 83bd a15d 8cbd
00000200: 916a b83d c824 0ebd ea82 44bd 5c4b 85bd
00000210: e5bd 4b3d a712 9e3d 796c 553c 4351 9e3d
00000220: f2fe 9c3c b520 bd3d fe28 9b3c ac90 583d
00000230: 1f60 52bc e4d1 d33c 61a3 debb dfb8 87bd
00000240: 942d f1bc 17eb 1dbd b561 843c b036 1bbd
00000250: cfdf 8e3c 0b07 f4bb e238 0bbd 177d 3b3c
00000260: 398e 653c 68a9 ef3c 5db2 82bd b067 8abd
00000270: bc1f 023d 76eb 053d dfb3 0c3b 4016 703d
00000280: 9fd4 563d 3e16 f43d 2d1d 2fbd 234f 93bc
00000290: f61f 1dbd 277c 5bbc 6d7c f53d fdd5 81bd
000002a0: 815f 93bd 89a3 f23d 07d8 0f3d 79f0 95bd
000002b0: f43c 8fbd d2ec c33d ca50 263d 6015 303c
000002c0: 1c76 193d d8a7 00bd 5402 953d 101a 58bd
000002d0: 90a4 3f3b e41d 68bb 1eb5 1e3c 442c 803c
000002e0: 385d 493d aaad 043d a0a8 2dbd 5123 7f3d
000002f0: 88be e1bc 7d16 833d c3ab f1bc d235 b13d
00000300: 3f61 b93d c875 32bc 111b 9f3d 885f 37bd
00000310: 95ee 793d c47d 073d 26ec 843d 7745 bc3c
00000320: 54b6 90bd 9006 1ebd 108a 973c 7025 a43c
00000330: 7600 5abc fd0e 06be 690c 99bd 2f13 82bd
00000340: 1e84 723d c15b f33d 6168 08ba d770 983d
00000350: 8dda 8a3d d3a3 91bc be81 9b3d efac 7bbc
00000360: 6c74 cebd aa06 b4bd 5698 943b b912 4f3d
00000370: 8c7d b53d c70f a33d 6451 8bbd 84c1 08bc
00000380: 353f d53b 7527 8c3d 1ee1 8d3c 287e a13d
00000390: 5be4 993b cce4 903b ee4d 913c cb48 a53c
000003a0: e713 c73a 764d a4bc d89a 023d 0b57 e03d
000003b0: 836a 3a3d a663 d3bc fad0 c93d 9673 953d
000003c0: b062 71b8 85d3 923c 39fb 113d 64bc b6bc
000003d0: 6796 8c3b 6d57 8ebd 9675 193d 543c c13c
000003e0: 2b1d 113c 5f2b aebc 9998 2a3d 4cce 80bd
000003f0: 0d9e 7c3d 8e58 463d 8af4 30bd 4245 013a
0.03245612 -0.110704966 0.11405677 -0.013137911 0.059306003 0.008702574 0.043660596 -0.06111349
0.057600163 -0.071049966 0.04545123 -0.005886961 -0.0013062824 -0.05545957 0.061385404 0.089082524
-0.07156585 0.05568667 0.06187724 0.0012471024 -0.0002537908 -0.03736812 0.0041933297 -0.013021452
0.09734246 -0.025246318 0.07465017 -0.010652109 -0.092100985 -0.034771476 0.12504333 -0.01355899
0.081365414 -0.0027847479 0.08668006 0.081911415 -0.02441116 0.06706299 0.01114307 0.030159796
0.046414725 0.11165231 -0.07310529 0.001675307 0.017538413 0.0988281 0.02963782 -0.05118929
0.029535424 -0.013483118 -0.018386805 0.058055677 0.06253619 -0.022594182 -0.05423122 0.13570717
-0.051866323 -0.046564028 0.004289821 0.11043831 -0.040668186 0.07752662 0.008856363 -0.044272933
-0.0013948097 0.000552118 0.09914608 -0.0121576 -0.025892716 0.060042832 -0.036525946 -0.045704104
-0.015610032 -0.008079998 0.06957443 -0.011460197 -0.047643222 0.0045965225 0.059873108 -0.09849631
-0.04115901 -0.009946611 -0.040378973 0.11083928 -0.005768478 -0.0532486 -0.0377176 0.01698627
-0.09316051 0.034317795 -0.026618186 -0.021703064 0.06053929 -0.022445286 -0.109070115 0.01584097
0.058579724 -0.110488825 0.080913834 -0.034230664 0.060859766 -0.03971029 -0.038577948 0.073276624
-0.024439147 0.06779234 0.06318152 -0.0059990203 0.111724086 0.0024437 0.06448395 -0.056935333
0.105472356 0.08446487 -0.058312826 0.04838921 0.07524082 -0.025709635 0.06090348 0.073924005
0.05304455 -0.012816013 0.028550027 0.023185654 -0.004085462 0.041604128 -0.064015016 -0.06853796
0.09004701 -0.034703046 -0.047976412 -0.06508514 0.049741644 0.077184014 0.01302635 0.07730343
0.019164536 0.09234754 0.018940445 0.052872345 -0.0128403 0.02585692 -0.0067943786 -0.06627058
-0.029440679 -0.038554277 0.016159872 -0.03789395 0.017440705 -0.0074471286 -0.033989795 0.011443398
0.014010959 0.029255584 -0.06381676 -0.06758058 0.031768546 0.032695256 0.0021469516 0.05861497
0.052448865 0.11918305 -0.042752434 -0.017982071 -0.03836056 -0.013396299 0.11986623 -0.06339643
-0.0719595 0.11847598 0.03511813 -0.07321257 -0.06994048 0.09566654 0.04060439 0.010747284
0.037466154 -0.03141007 0.07275835 -0.05275923 0.0029242374 -0.0035418207 0.009686736 0.015646107
0.049161166 0.03239218 -0.04239714 0.06228954 -0.027556673 0.06400774 -0.029500848 0.086528435
0.09051751 -0.010892339 0.077688344 -0.04476884 0.061018545 0.033078924 0.06490354 0.022982342
-0.07066026 -0.038580477 0.01849845 0.020037383 -0.013305774 -0.13091655 -0.0747307 -0.06351315
0.059208028 0.11882735 -0.0005203542 0.074433975 0.067799665 -0.017778313 0.07593106 -0.015361055
-0.100807995 -0.087903336 0.0045347614 0.050554965 0.08861837 0.07961994 -0.068026334 -0.008346919
0.006507779 0.06843463 0.017319258 0.078853905 0.0046964115 0.004421806 0.017737355 0.020176312
0.0015188426 -0.020056468 0.03188595 0.10954102 0.045511734 -0.025804352 0.09854312 0.07297437
-5.7550787e-05 0.017923126 0.035639975 -0.022306629 0.0042903903 -0.06950269 0.037465654 0.023588337
0.008857052 -0.021260915 0.041649435 -0.06289348 0.061674166 0.048424296 -0.04320196 0.00049312797

6.bias f4 [128]
00000000: 3970 ca3b c01a 8bbd f870 893c 8e59 a6bd
00000010: 1775 1e3d a9e8 e63d a6a4 00ba 2efe 4abd
00000020: f01c a53d 0071 01bc 7b41 c63d c9da 9dbc
00000030: 7e25 7f3d d94f 90bd 7ada 3dbd 72a6 36bd
00000040: 5f4c 00bd 7873 af3d ce1f 903c e54a 35bc
00000050: ae67 0fbd 2403 1d3d 5c54 643c 3ded 77bc
00000060: ca35 923d 9ab8 f23d b33f cc3d 5d43 d63d
00000070: 92e1 433d 71e3 d13c 8e86 423c 4d28 733d
00000080: a98f b2bc 111b 70bd 17e3 4abd 5c9b 773c
00000090: 2d5b 2bbc 2670 4a3d 6011 b5bc ae5a 843d
000000a0: e45d 7a3c 4a22 77bd bcd8 1d3d eb17 7a3d
000000b0: 9567 34bc aca8 a9bd 3cb9 8dbd 699d ab3d
000000c0: f50b 58bd 7421 803d 18f6 48bd 3d8c 07bd
000000d0: 5a4a 9cbd 5f20 fc3c c402 6e3d 48e0 c33c
000000e0: db16 693d 76ad 1bbd 1dc1 57bd c690 333d
000000f0: 121b 433b 139d 5e3c 5a55 a5bd 9122 fabc
00000100: d68b 9c3d 5e8b e03c ec92 22bd 5515 44bd
00000110: 1a2f c1bb ea3f ba3b 62ac 9abd 7f04 dbbc
00000120: 7c65 9a3c 0ce8 9abd 1890 79bd 4400 84bc
00000130: 7dc1 79bc 90b2 573c c615 923b cf43 983d
00000140: 0f55 7f3c 9d04 89bc f421 7a3d 2ab0 1c3c
00000150: 1ce4 a3bc 083d dfbc 1267 3b3d 8b0f 273d
00000160: 7647 6f3d 03f5 6a3d 6af2 85bd 408c 913d
00000170: d2ff e3bc d84a 123d 10bf 43bc c69a ff3c
00000180: 105a 0a3c 4bf9 d6bc f0cd 14bd 516d 143d
00000190: e55e 983d 7def c03d 9c00 f83c b92d 88bd
000001a0: 9c0a f23c c3c4 aebc 41b6 103d af30 993c
000001b0: c392 db3c 3dc0 8f3d aa35 6bbd fae6 fc3d
000001c0: d753 fa3c 57af b0bd 21ae c33d b88b 9b3d
000001d0: 4e4a 213d 15e2 773d b519 a03d 1055 893c
000001e0: 8d66 65bc 8e55 eebc ae19 8a3d dd46 3b3c
000001f0: f5c8 b8bc 4c50 8b3c 11df b2bc 9317 9ebd
0.0061779288 -0.067922115 0.0167775 -0.0812255 0.038685884 0.11274845 -0.0004907347 -0.04955881
0.0806216 -0.007900476 0.09680458 -0.019269364 0.062291615 -0.0704648 -0.046350934 -0.04459233
-0.031322833 0.08566946 0.01759329 -0.0110652195 -0.035010986 0.038333073 0.0139361285 -0.015132246
0.07139166 0.11851616 0.09973087 0.10462067 0.047822542 0.025621148 0.011872901 0.059364606
-0.021797018 -0.058619563 -0.049532976 0.015112724 -0.01045875 0.04942336 -0.022103012 0.06462608
0.015281174 -0.060335435 0.038536772 0.061057966 -0.011011024 -0.08284125 -0.06920096 0.08379633
-0.052745778 0.06256381 -0.04906282 -0.033092726 -0.07631369 0.030777154 0.058108106 0.023910657
0.056906562 -0.038007222 -0.0526744 0.04383924 0.0029770774 0.013587254 -0.0807292 -0.03053406
0.07643859 0.027410205 -0.039690897 -0.047871906 -0.0058955075 0.0056838887 -0.07552411 -0.026735542
0.01884722 -0.07563791 -0.060928434 -0.016113408 -0.015243885 0.013165131 0.004458162 0.074348085
0.015584244 -0.016725833 0.061067536 0.009563485 -0.020006232 -0.027250782 0.045752592 0.040786307
0.05841776 0.057362568 -0.065403774 0.07106829 -0.027831946 0.035715908 -0.011947408 0.031201731
0.008444324 -0.026241919 -0.03632921 0.036237065 0.07439975 0.09420679 0.030273728 -0.06649346
0.029546075 -0.021334058 0.03533006 0.018699972 0.02680338 0.070190884 -0.057424225 0.12348743
0.030557556 -0.086271934 0.09554697 0.075950086 0.039377503 0.060518343 0.07817403 0.016764194
-0.014001501 -0.02909353 0.06743179 0.011430469 -0.022556761 0.017006062 -0.021834882 -0.0771934

8.weight f4 [49, 128]
00000000: 3eb0 1fbd 12f0 87bd 3451 61bc b56a 463d
00000010: beab c63d 05ad 923d ff74 8ebd 4745 15bd
00000020: c91f dd3d 4cf5 bbbc f2dc 883d 438d a4bd
00000030: 5742 3a3d 3c1d 83bd e11b d13d 7bab bcbd
00000040: 207d 64bb b8cf f03c de88 6a3d cae7 603d
00000050: e536 0a3d 301a 05bd 741c 983c f41c 2cbd
00000060: 0340 fdbc 4775 ee3b f51b 9fbd d43b b3bc
00000070: 7aaf c93d 830f 223d c394 9dbd 7bd6 4ebc
00000080: 27c0 cd3d 58cf 81bd b8a7 6d3d c2b4 e0bc
00000090: a2b0 b0bd 2d50 763d 0b8a 823d ebf8 b23c
000000a0: e3cb 9e3d 108a 94bb ce2b 6b3c 94a9 4ebd
000000b0: ea3d 363d eaf3 0cbd 5ca3 8dbd d0a7 73bb
000000c0: 1570 513d 6255 75bd 6e66 cc3c 2f8f 23bd
000000d0: 1be0 81bc c506 f23c a2b7 b1bd 6790 e33c
000000e0: a057 9dbc e7b6 0a3c 6e3a 533d 1bd5 89bd
000000f0: 1712 2539 3b49 0f3c 5219 513d 9b41 98bc
00000100: e0bf a4bd 1338 c7bd 405d dc3c bbed 8dbd
00000110: ca7a 2d3d 3852 593d 99e2 e6bc d834 c73c
00000120: dc83 853d 4651 473d 3e61 093d d2b4 b23c
00000130: da23 383d ddef 89bd 1e25 c73d eb2e edbc
00000140: 0be1 3abd c20a 2dbd b158 7dbd 5e50 0e3a
00000150: 6346 2b3c 00b2 f1ba a3e3 a83c e7d7 433d
00000160: 052b 8bbd b021 733a 053e 57bd 362c 00bd
00000170: 231c fdbc 8d31 5c3d 8a8e 313d 239f e0bc
00000180: b999 0a3d da0a 463c ecc9 2a3d 90a3 293d
00000190: 7cb8 813d ec90 4fbd bbb3 85bc a9e2 623d
000001a0: f646 c43d 2236 4b3c 9384 e53c bd78 04bd
000001b0: 3146 063c e7d2 013d 0106 1ebc 6f96 6d3d
000001c0: 441d 393c 2d39 063d 86e6 e23c fd86 a83d
000001d0: 693b fc3c a15b a93d 03d8 d0bc 7445 a53d
000001e0: b956 cb3d 59be 68bd 89ac 85bd 719a a0bd
000001f0: 3958 80bc 4e7b a9bb f4f0 85bd bc2d 84bb
00000200: 793d 623d df35 093d 9b79 933d 671a 8abd
00000210: 7205 46bd 80d9 70bc 71ab dbbc 67c9 b7bc
00000220: cc8e 9fbc bdfa 02bd 9131 ef3d 31b9 a73c
00000230: f0c8 c43c 11cd 3e3b 92ec d13d 8cfd 70bd
00000240: ad07 31bd cac0 923d 1ff9 b2bd ab44 ccbc
00000250: 4371 abbd 71ea 8fbd 711f 8bbd db30 2c3d
00000260: c21f c3bd 1c99 b4bd d3ce 933d db9e de3a
00000270: 0031 993d e93a 0a3d 3944 f9bc c7b0 813d
00000280: d525 7fbd aa08 99bd 7378 903d 8e24 203b
00000290: 8107 ec3d 3e94 923c 0282 673d 3898 abbc
000002a0: c924 6f3d 4c7e 81bd c460 c33d cbe0 463d
000002b0: 806d 19bd db3e 6dbd 0457 c93d 16b3 c23c
000002c0: 2d72 16bd 05c8 26bc d5b4 33bd 4835 273c
000002d0: dc67 a5bd b902 92bd 924d d33c 4eed 293d
000002e0: 3f79 d6bb 312b a33d 4126 1bbd f95f 60bd
000002f0: 33e6 febc b078 f13d ca55 a6bd ab28 a4bd
00000300: fc32 9e3b f477 eaba 3e6b a3bd 641e ee3c
00000310: 4ccb 81bd b096 fd3d f326 0f3d 0172 ccbc
00000320: 9dab 273d 6a17 7f3c cd5a 48bc eb08 8cbc
00000330: bc8d b5bd 517a a43d 1d2d b93d 0cc6 80bd
00000340: 8594 703d 27c1 b33c b7ad b83c 6a4c b4bd
00000350: 429b 3a3d 8027 aabc 6fd4 05bd 3b0f 9bbd
00000360: 2bf7 8b3d 82e9 ff3b b834 a3ba 399e b53c
00000370: 10b7 a3bc 7869 5f3d 2831 4d3c 2aac 963d
00000380: ee69 733b bc71 ef3d de5b c93d 0942 01bc
00000390: b9d7 55bd dd9b 30bd 92ac 46bd e0fd 00bc
000003a0: b8a8 d03d 5c82 99bd 333f 86bd 0387 76bd
000003b0: d1cb 8f3c 713a 343c 8c03 c83d 5e12 e93d
000003c0: bcaf 143d a3d9 8dbd 17fe 423d 62c5 fc3d
000003d0: 6360 183d 9958 42bd 77a4 89bc cc3c 5ebb
000003e0: f59f 17bc 9e31 6d3d 770e 4d3d f22c 043d
000003f0: 42bc eb3c a2c9 d33d e593 62bd bbdf b9bd
-0.038986437 -0.06637587 -0.0137522705 0.048441608 0.09700726 0.07161907 -0.06955909 -0.03644302
0.10797078 -0.022944115 0.06682767 -0.08034756 0.045473423 -0.064020604 0.102103956 -0.09212395
-0.003486462 0.029395923 0.057259433 0.05490855 0.033743758 -0.032495677 0.018568255 -0.0420198
-0.030914312 0.007277164 -0.07769004 -0.021879114 0.098479226 0.039565574 -0.0769439 -0.012624378
0.10046416 -0.06338376 0.058021277 -0.027429942 -0.0862744 0.060135055 0.06373986 0.021847209
0.07753732 -0.00453306 0.014353706 -0.05045469 0.04449264 -0.034412302 -0.06915924 -0.0037178881
0.05113228 -0.05989588 0.024951186 -0.039931472 -0.015853932 0.029544244 -0.08677603 0.027778817
-0.019206822 0.008466459 0.051569395 -0.067301 0.00015742365 0.008745487 0.051049538 -0.01858597
-0.0804441 -0.09727492 0.026899934 -0.06930109 0.04235343 0.053056926 -0.028184222 0.02431719
0.06519291 0.048661493 0.033540003 0.021814737 0.044956066 -0.067352034 0.097238764 -0.028953036
-0.045624774 -0.042246588 -0.06185216 0.0005428846 0.010453793 -0.0018439889 0.020616358 0.047813322
-0.06795315 0.0009274734 -0.05254938 -0.031292163 -0.030897206 0.053758193 0.043348826 -0.027419632
0.033838008 0.012087548 0.041696474 0.04141575 0.06334016 -0.050675318 -0.016321054 0.05539194
0.09583847 0.012403043 0.028017318 -0.032341707 0.008195446 0.031695273 -0.009644986 0.058004793
0.011298481 0.03276937 0.027697813 0.08228872 0.030790048 0.0826943 -0.025493627 0.08069888
0.099286504 -0.056822155 -0.06527049 -0.07841957 -0.015667068 -0.00517217 -0.06540099 -0.0040337723
0.055234406 0.03349864 0.07200929 -0.06743317 -0.048345037 -0.014700294 -0.026815148 -0.022434903
-0.01947727 -0.031977404 0.11679376 0.020474048 0.024021596 0.0029113928 0.102502 -0.05883555
-0.04322021 0.07165678 -0.08738922 -0.024935087 -0.08371212 -0.07027138 -0.06793106 0.04203878
-0.09527542 -0.08818266 0.07217183 0.0016984598 0.07480049 0.033747587 -0.030428039 0.06332546
-0.06229194 -0.07472356 0.07054224 0.002443585 0.11524869 0.017892953 0.05652047 -0.020946607
0.05838469 -0.06322917 0.09539941 0.048554223 -0.037457943 -0.05792127 0.0983105 0.023767035
-0.03672998 -0.010179524 -0.043873627 0.010205574 -0.0807645 -0.071294256 0.025793824 0.041486077
-0.0065452154 0.079672225 -0.03787828 -0.054779027 -0.031115627 0.117905974 -0.08121832 -0.08015569
0.004827855 -0.0017888532 -0.07979439 0.029067226 -0.06337604 0.12382257 0.034949254 -0.024956705
0.040935148 0.015569547 -0.01222868 -0.017094096 -0.08864924 0.080311425 0.09041808 -0.062877744
0.05873539 0.021942688 0.022543771 -0.08803637 0.04555822 -0.020770788 -0.032673296 -0.07571264
0.06834253 0.0078098187 -0.0012451624 0.022170173 -0.019984752 0.054543942 0.012523927 0.073570564
0.0037141996 0.11691615 0.098319754 -0.007889279 -0.052207682 -0.043117393 -0.04850442 -0.0078730285
0.101884305 -0.07495567 -0.06555023 -0.06018735 0.017553242 0.011000262 0.097663015 0.113804564
0.036300406 -0.069262765 0.0476056 0.12342335 0.037201297 -0.047447775 -0.016802056 -0.003391075
-0.009254445 0.057908647 0.050062623 0.032269426 0.028776292 0.10341193 -0.055316824 -0.09075876

8.bias f4 [49]
00000000: c724 fa3b 5024 98bd 4fd8 c03d 31da 8e3d
00000010: 182c 3d3d cd8e 6f3c 5907 b73d bd13 643d
00000020: 9f07 393d 55ae 4a3d 75fe 6cbd 4f07 233d
00000030: dc45 123d 9ed1 82bc e3f7 1f3c 1f2c 60bd
00000040: f691 4cbd dd47 4e3b 8075 7f3b 2762 213d
00000050: 5021 cdbc 5873 a3bd 68b7 84bd ed85 7f3d
00000060: 5587 093d 49f2 cf3c e674 76bd 1b35 3dbd
00000070: b160 a1bd aaa3 f63c adb2 a53d 65c1 bcbc
00000080: 5b75 6f3d 0b37 81bc 65f1 8abc 05e2 dfbc
00000090: 566d bcbc 95dd 72bd d729 83bd 4fc1 a83d
000000a0: 7faa 70bc 19a7 97bd 7b50 683d f404 733d
000000b0: 2d41 d7bc ed30 4b3c f7e8 263c bee2 73bd
000000c0: a89a ae3d
0.0076337787 -0.07428801 0.094162576 0.069752105 0.04618463 0.014621449 0.08936948 0.055682886
0.045173284 0.049482662 -0.057859857 0.039801892 0.035711154 -0.015969094 0.009763691 -0.054729577
-0.049943887 0.003147594 0.0038979948 0.039400246 -0.025040299 -0.079809844 -0.064802945 0.06238358
0.03357633 0.025384085 -0.060170077 -0.046193223 -0.078797705 0.030107338 0.0809072 -0.023041436
0.05846153 -0.015773317 -0.016960809 -0.027329454 -0.023001354 -0.05929335 -0.06404465 0.08239996
-0.014689087 -0.07404918 0.056717377 0.059330896 -0.026276195 0.0124018015 0.010187379 -0.05954241
0.08525592
